unused/models/best_model_sum.pth (torch, 3154 bytes, 6 tensors)

layer1.weight f4 [6, 1, 3]
000000 b7 6e 02 bf f1 8a 08 be b1 2e a0 bd 35 6c 88 bd
       -0.5095019 -0.13334252 -0.07821406 -0.06661264
000010 3b 74 f6 be 91 e9 06 bf 22 85 f4 be 4e 10 11 3f
       -0.48135552 -0.52700144 -0.47757822 0.56665504
000020 d4 d3 d5 bd 46 64 b3 3e 14 49 cb 3c 7e 2a 6b 3e
       -0.10440794 0.3503744 0.02481512 0.22965428
000030 03 14 d0 3e ff 6e d2 bd 0b d6 06 3f 2f 1f 0e 3e
       0.40640268 -0.10275077 0.52670354 0.13879083
000040 54 ba 12 bf 96 54 00 bf
       -0.57315564 -0.5012907

layer1.bias f4 [6]
000000 99 40 81 3c 1f e8 9c 3e a3 52 70 be 5d d3 70 bd
       0.015777873 0.30645844 -0.23469023 -0.05879532
000010 29 b1 b0 3e 82 c9 b1 3e
       0.34510162 0.3472405

layer2.weight f4 [6, 6, 3]
000000 cd 3a a3 3e ba 92 fc 3d 8a 11 d9 3e 92 c4 37 3e
       0.318808 0.12332673 0.42396194 0.1794608
000010 03 6d 42 3d 27 a5 0a 3e 67 09 12 3a ec 2a 26 be
       0.047467243 0.13539563 0.0005570859 -0.16227311
000020 6b 0b 39 be bd cc 29 be 09 db e9 be 29 f1 75 bd
       -0.18070762 -0.16582008 -0.45674923 -0.06004444
000030 d1 6c a9 be c7 f3 01 3e c0 ee 99 be b1 49 09 3e
       -0.33090833 0.1269065 -0.30064964 0.13407017
000040 a3 7e 29 3e 48 fb d4 bc 3b 50 5f bb a2 7d 4d 3e
       0.16552214 -0.025998726 -0.003407492 0.20067456
000050 60 55 ca 3d 6d 4e 8b 3c 65 33 fd 3c ce 80 20 be
       0.09879565 0.01700517 0.030908296 -0.15674135
000060 76 ce a8 3d b3 b9 07 be 68 99 09 3e 1a 85 08 be
       0.08242504 -0.13254432 0.13437426 -0.13332024
000070 85 73 64 be 66 26 7f bb 86 8c 4b be 2a dd b6 3c
       -0.22309692 -0.00389328 -0.19877824 0.022322256
000080 75 0b 1f be db b7 e9 bd 52 c2 81 bd a5 24 04 3e
       -0.15531714 -0.11412021 -0.06335892 0.12904604
000090 d9 06 77 be d6 2b 41 bd 54 a6 51 3e b8 d8 e0 3d
       -0.24123706 -0.047160946 0.20473605 0.10978836
0000a0 8a 26 91 bd 45 1f 1c 3d 26 22 89 3e 25 fb 89 bd
       -0.07087429 0.03811576 0.26783866 -0.06737355
0000b0 f9 f8 d6 bc 6a ea dd bc d0 f0 31 3d 73 52 15 3d
       -0.026241766 -0.027089316 0.043442547 0.036455583
0000c0 24 cf 88 bd bb d9 54 be d2 80 47 3d 33 61 55 3d
       -0.06680134 -0.20786183 0.048706837 0.05209465
0000d0 b8 42 50 bd 2b bf 18 be b2 c9 e2 3d 73 b4 12 bc
       -0.050844878 -0.14916675 0.110736266 -0.008954155
0000e0 ed b6 ef 3c 4e 74 01 3e 2c f7 42 be be 9c 12 bd
       0.02926203 0.12642023 -0.19039601 -0.035794012
0000f0 c4 6c 99 bd 64 86 61 3e 2e 65 c7 3d ee e6 26 3d
       -0.074914485 0.22023922 0.09736095 0.040747575
000100 b8 69 80 3e 8b 2a 52 bc 35 31 18 3d f4 da b7 be
       0.25080657 -0.012827526 0.037156302 -0.35909235
000110 b2 1b 8b 3e cd 1c 0b 3c ba c0 5c 3d 2e 53 06 bd
       0.27169567 0.008490753 0.053894736 -0.03279417
000120 66 a0 97 3e ae 2c 32 3e 74 ea 01 3e cb cb b9 3e
       0.29614562 0.17399856 0.12687093 0.36288294
000130 4c 9d 0a 3e 7d 6e a7 3c a9 f2 80 3d dc d8 8a 3e
       0.13536566 0.020438427 0.06296284 0.27118576
000140 6c 89 0f 3e af 61 ed be 25 b5 65 bd 2b ba 16 bc
       0.14017266 -0.4636359 -0.056080956 -0.009199659
000150 af 4e 12 3c 83 e0 95 be 1f 34 fb bd a8 1f 30 bc
       0.008929892 -0.2927285 -0.12265801 -0.010749735
000160 20 56 4b 3e 8d c5 de bd 83 fc 4d be 8a 22 92 3d
       0.19857073 -0.108775236 -0.20115857 0.07135494
000170 ed 37 80 3d 61 a5 43 3e 2e d0 5d 3e 83 c4 42 3e
       0.06260667 0.19106056 0.21661445 0.19020276
000180 bf 88 49 bd ce 29 4d bd 34 03 d7 bd af e4 d6 3b
       -0.049202677 -0.050088696 -0.10498658 0.006558023
000190 5a 5b a5 be ed 39 75 be 95 83 b6 be 36 ed ca 3d
       -0.32296258 -0.23947878 -0.35647264 0.09908526
0001a0 c0 e4 ad be 7a 9e 0e 39 50 6b 9b bb ce bd 0e 3e
       -0.33963585 0.00013601212 -0.0047430173 0.13939592

layer2.bias f4 [6]
000000 f4 c2 ba bd 1f e0 a1 bd b6 e1 4b 3e f9 2b 7a be
       -0.091192156 -0.07904076 0.1991032 -0.24430837
000010 6c 07 42 be 7d 42 5c 3e
       -0.18948144 0.21509738

layer4.weight f4 [2, 6, 3]
000000 b5 15 05 be 64 b4 e8 bd 51 6e b4 3b d4 26 51 be
       -0.12996562 -0.11362532 0.005506315 -0.20424968
000010 74 68 b1 bd 0c bc 9d 3d 67 55 b2 3d 2c 37 b5 be
       -0.08662501 0.07701883 0.087076955 -0.35393655
000020 10 fc 86 3d 8a 6f e8 3d e2 8a 45 3e 30 cf 85 bd
       0.06591046 0.113493994 0.19291261 -0.065336585
000030 f9 5c 97 be 0e 5c 26 be c4 c2 85 be ea 13 b0 bd
       -0.2956312 -0.16246054 -0.26125157 -0.08597548
000040 2d 7c 96 3d 5e 8f 12 be e0 39 98 bd 8d d4 4c be
       0.073479034 -0.14312503 -0.07432914 -0.20002957
000050 68 dd 9f bd 0b 0b 76 3d 53 20 07 be 7c 26 45 be
       -0.07805902 0.060069125 -0.13195924 -0.19252962
000060 45 97 8b bd 81 74 2d bd 31 9d f4 3d c5 e1 4c 3d
       -0.06815962 -0.042347435 0.119440444 0.050019998
000070 02 83 a1 3e 51 2b 18 be eb e7 3b be b9 96 16 3c
       0.31545264 -0.14860274 -0.18350188 0.0091912085
000080 b1 ee 8e 3d 7c d3 85 bd e8 1c 15 be 41 ea fa bd
       0.069791205 -0.06534478 -0.14561808 -0.12251712

layer4.bias f4 [2]
000000 63 5e 06 3d 79 00 fa 3d
       0.032804858 0.122071214
