models/probabilistic_downscale_training/500samples/lr0.01_gamma0.5/ckpt/model_epoch_100.pth (torch, 21441 bytes, 15 tensors)

layer1.weight f4 [10, 1, 3, 3]
000000 a6 fe 63 3d 23 8e 45 be cd 50 56 3d 14 b4 58 3e
       0.055662774 -0.19292502 0.05232315 0.21162444
000010 08 a5 9a 3d 3d b3 ff 3d 56 b5 13 3e 08 5d 09 be
       0.075510085 0.12485359 0.14424643 -0.13414395
000020 ea 3c 1d be 70 31 ab bc a9 eb cb bd 98 ba 10 be
       -0.15355268 -0.020897597 -0.09957058 -0.1413368
000030 82 19 47 3d 97 3c e5 be a2 d4 d7 be c4 4d e5 bc
       0.04860831 -0.4477279 -0.42154413 -0.027991183
000040 a0 f1 cb bd a6 93 aa bd a5 77 40 bd 55 b8 ca 3d
       -0.09958196 -0.08328943 -0.046989102 0.0989844
000050 92 48 3a 3e de 5a 0b 3c 40 26 6c 3e 74 70 8b 3d
       0.18191746 0.008505551 0.23061466 0.06808558
000060 b4 e3 12 3e 70 b5 f3 3c 78 7e 25 3e a8 dd f8 3c
       0.14344674 0.029749602 0.16161525 0.030379131
000070 3f 24 26 3e 77 f8 1a 3e 42 a5 0e be 29 0c 03 3d
       0.16224764 0.15133844 -0.13930228 0.03199402
000080 6a 3b b2 3a 26 ac b6 bd 8b d8 b5 ba 2a 72 89 3d
       0.0013598029 -0.089195535 -0.0013873739 0.06711228
000090 0e 90 df be e2 55 58 be 80 5b f2 3d f6 45 21 be
       -0.43664593 -0.21126512 0.118338585 -0.15749344
0000a0 05 91 b8 3b 22 76 92 be 08 0d 01 bd 0f 90 52 be
       0.005632522 -0.28605753 -0.03150657 -0.20562766
0000b0 4e ea 0b 3e 19 a2 51 3d 5c 55 2c be 1c ca 9e bd
       0.13663599 0.05117998 -0.16829437 -0.07753393
0000c0 6b b5 c6 bd 89 10 0b be db 93 41 3e 53 30 45 be
       -0.097025715 -0.13580526 0.18904059 -0.19256715
0000d0 50 68 56 bc ba 72 99 bd 43 b8 78 3e 0f c9 68 3e
       -0.0130863935 -0.074925855 0.2428904 0.22732948
0000e0 28 59 05 be b3 b6 84 3e d6 37 9c bc bc 82 91 bb
       -0.13022292 0.25920638 -0.019069593 -0.0044406336
0000f0 93 86 16 be f9 aa fa bd 86 cf 24 3e e5 a1 47 3e
       -0.14699773 -0.12239642 0.16094789 0.19495352
000100 ad 74 d9 bd c7 43 41 3d 8d 7c 85 be 8b 3a 42 bd
       -0.10617957 0.047183778 -0.26071587 -0.047419112
000110 5a e1 04 be 66 c2 72 be e0 f9 53 be 4a 29 0d be
       -0.1297659 -0.2370697 -0.20700788 -0.13785282
000120 29 97 91 3e 14 23 72 3c 13 47 34 3d 29 cb e3 3c
       0.2843564 0.014778871 0.044013094 0.027806835
000130 6b e3 25 be 67 9b a4 3c 39 fa 0c 3d 15 be 0b 3d
       -0.16200034 0.020093633 0.03441832 0.034116823
000140 89 fc 10 bd a1 1b 70 bd 53 19 98 bc 3d 52 33 be
       -0.035397086 -0.0586201 -0.018566763 -0.1751184
000150 d2 f2 a1 be 31 f5 ed bd cf 12 52 bd d1 ee 33 be
       -0.3163057 -0.11619032 -0.05128747 -0.1757157
000160 be 1e 47 be 5a b0 8a bc
       -0.19445321 -0.016929794

layer1.bias f4 [10]
000000 a1 65 9f be 3b fc de bd 1e ce ed 3c 0a ee 92 bd
       -0.31132224 -0.10887953 0.029028948 -0.071743086
000010 ca 8b a4 be fa d5 d1 3c 37 94 6d 3e b8 82 1a 3e
       -0.321379 0.025614727 0.2320107 0.15088928
000020 2c 0b cc be 4d 73 72 3e
       -0.39852273 0.23676796

layer2.weight f4 [10, 10, 3, 3]
000000 66 e8 83 bd 7d 7f 8c 3c 75 6e e9 3c db c2 b5 3d
       -0.06440811 0.017150635 0.028495053 0.08875056
000010 5e 92 97 bd 5e 57 d9 bd 1e cc 68 bc 9b 88 fb bd
       -0.07400964 -0.10612367 -0.014208822 -0.12281915
000020 0f 11 22 bd 46 80 f7 3c 0f 41 5d 3d e0 28 ac 3d
       -0.03956705 0.030212533 0.054017123 0.08406234
000030 8f 97 7b bb 1b 6a b3 3d dd 1d 33 3e f3 ed 83 3d
       -0.0038389897 0.087604724 0.1749186 0.064418696
000040 4a db bd 3d 39 db 09 3d 6a d9 3b bc 20 39 06 bd
       0.09270342 0.033656333 -0.01146541 -0.032769322
000050 f6 b8 20 be bd 2c 7a bc 9a e2 b2 3b 37 c9 0c be
       -0.15695557 -0.0152694555 0.005459142 -0.13748632
000060 b9 a3 29 be 43 5b d5 bd de c5 ff bd 70 ad f6 bd
       -0.16566361 -0.104177974 -0.12488912 -0.12044799
000070 51 4a 8c bd 84 bb 95 3d 51 ed f1 3d d0 ba 02 bd
       -0.06850112 0.073111564 0.11812843 -0.03191644
000080 16 2f 05 3e 95 06 31 3c 61 11 cf bd d8 ee f5 3d
       0.13006243 0.010804792 -0.10110737 0.120084465
000090 e2 fe 2d 3e 1d f4 54 3e e7 bb a6 bd 93 32 d9 3d
       0.16991761 0.20796247 -0.08141308 0.106053494
0000a0 33 95 50 3e 93 4b 1b 3e bd 1b e5 3d 67 7e 4e bd
       0.20369415 0.15165548 0.11186931 -0.050413515
0000b0 1d 5f 13 3e bc d8 4c 3e 50 76 83 3e 75 12 9e 3d
       0.14391752 0.20004553 0.25676203 0.07718364
0000c0 96 19 52 3e 6d 77 49 3e 7d c0 82 bd d0 10 0b 3e
       0.20517573 0.19674464 -0.063843705 0.13580632
0000d0 00 0d 06 3e c8 3c 4b 3d de 90 5f be 6c bd c1 bd
       0.13090897 0.049618512 -0.21832606 -0.094599575
0000e0 4c f9 6d bd aa 65 02 be da 4e 45 bb 33 1b 7a be
       -0.058099076 -0.12734094 -0.0030106814 -0.24424438
0000f0 ae d5 97 be c9 4e bd 3d c5 1a 40 3e 02 73 73 3e
       -0.29655212 0.09243543 0.18760212 0.23774341
000100 e9 94 86 3e 7d d6 bb bd b8 4b bb bd e3 2e aa b9
       0.26285484 -0.0917177 -0.091453016 -0.0003245986
000110 9a 1d 3e 3e 61 33 b0 bd 12 fc 36 3e 55 c3 65 3e
       0.1856598 -0.0860355 0.17869595 0.22437795
000120 67 e3 ec bc 8a 5d 75 bc 8b 8e b2 bc 16 0c 0a 3c
       -0.028917028 -0.014975915 -0.021796485 0.008425733
000130 d6 6d 81 bd 9e 84 2b be 90 9e a4 bd 7f 44 e2 bd
       -0.06319778 -0.16749808 -0.08038056 -0.11048221
000140 be f6 6e bc 1b 5f b2 bd fe e7 5d 3d ad b6 e4 3d
       -0.014585195 -0.08709546 0.054176323 0.11167655
000150 9c 3e 98 3d 28 4f a4 3d 66 77 47 3e 73 ba 7c 3e
       0.07433817 0.0802291 0.1947914 0.246805
000160 01 a4 36 3e 4e d9 ff 3d 30 a0 87 3d 41 0a d5 bd
       0.17836 0.124926195 0.0662235 -0.104023464
000170 5b 98 d9 b9 4a 0c ff 3d a3 7e 11 3e f5 d6 09 be
       -0.0004150298 0.12453516 0.14208464 -0.13460906
000180 f1 a6 9b bd 00 29 62 3e 0e ee 59 3e ed 63 e1 3d
       -0.07600201 0.22085953 0.21282217 0.110053875
000190 d1 8c 94 3e a9 2a be 3c b1 8f a3 3e 83 a5 7a bd
       0.29013684 0.023213701 0.31945565 -0.061193
0001a0 44 ca 22 be ae 3d b3 3d ae d0 36 3d af 04 74 3d
       -0.1589747 0.08751999 0.044632606 0.05957478
0001b0 3b c9 3d 3e 5e e3 72 3e 9c 5e 87 3d 76 43 83 bd
       0.18533795 0.23719546 0.06609842 -0.064093515
0001c0 2a e5 49 3e 7f 8c 1c 3e 9d f0 c0 3d 97 3b 3c 3e
       0.19716325 0.1528797 0.09420893 0.18382107
0001d0 54 41 63 3e e6 d1 60 bd d5 95 11 3e cb 46 97 3e
       0.2219289 -0.054887675 0.14217313 0.29546198
0001e0 98 ae d7 bd 24 73 71 3d 3c ac f0 3d 57 c6 19 3c
       -0.10531348 0.058947697 0.11751601 0.009385667
0001f0 ec b7 a5 3c 9e f9 40 3e fa 3f cb 3d b2 30 6a 3d
       0.020229302 0.18845221 0.09924312 0.057175346
000200 d2 d1 0b 3e 6d df ad bd 81 5f 91 bd a6 21 77 3d
       0.13654259 -0.08489881 -0.07098294 0.060334824
000210 c8 3b 3a bc cd d2 a9 bd ec 9d c3 3b 53 b3 cd 3d
       -0.011366792 -0.0829216 0.0059697535 0.10043969
000220 63 18 8f bd 29 c3 1a 3e bd a1 b0 3d 03 de fd 3c
       -0.06987073 0.1511351 0.08624599 0.030989652
000230 92 73 18 3e 20 46 0c 3e 4b c0 7e bd 4c 1a 9c bd
       0.14887837 0.13698626 -0.062195104 -0.07622203
000240 a0 20 ea bd 46 7e 1f be a9 76 a7 3d 25 dc 16 bd
       -0.11432004 -0.15575513 0.081769295 -0.03683104
000250 e7 10 27 3d 4c fd 47 3e 23 e5 e4 3b 94 50 95 3e
       0.040787604 0.19530219 0.006985323 0.2916304
000260 6f 30 3f 3e 09 36 10 bd 8f e2 0f 3e fb 5a 68 3d
       0.1867082 -0.035207782 0.14051269 0.05672739
000270 c9 62 a9 bc 47 9d 15 3d 65 2e c3 3d 7f 7f 56 be
       -0.020676987 0.036526944 0.095303334 -0.20947073
000280 7d da cd 3c 80 36 19 be bc af 31 be 47 94 04 be
       0.025128597 -0.14962196 -0.17352194 -0.12947188
000290 fd 53 77 3d 79 c0 3a 3d 3c 80 11 be f1 8f 52 bc
       0.06038283 0.045593712 -0.14209074 -0.012851701
0002a0 de d0 ca be 45 ce f3 3d 3e fc 80 bd 2c dc 79 3d
       -0.39612478 0.11904577 -0.062981114 0.061000988
0002b0 37 ec 68 bc 71 9e 94 bd ec 0a 02 bd 1c dd 03 be
       -0.014216474 -0.07256783 -0.031748697 -0.12877315
0002c0 18 49 0f 3d e3 03 27 3e 03 b5 42 3d 4c 21 eb 3d
       0.034981817 0.16310076 0.047535907 0.1148096
0002d0 6f 57 0d be fa 13 30 3d a3 be 0c 3e 03 cd a8 3c
       -0.13802885 0.0429878 0.13744597 0.02060557
0002e0 31 32 37 bd ae 7f f1 bd 6b 28 8c 3d 97 da ff bd
       -0.0447256 -0.11791931 0.068436466 -0.124928646
0002f0 e1 08 af 3d 51 19 79 bd 1b 1b 56 3d d7 94 fd 3d
       0.085466154 -0.06081516 0.052271944 0.123819046
000300 6b ec ba 3d dc 9b 2b be e6 8e 05 3e fe 23 13 3e
       0.091271244 -0.16758674 0.13042793 0.14369199
000310 bc 30 d3 3d c0 c2 fc 3d c9 dc 54 3b 74 a6 86 3d
       0.1031203 0.12341833 0.003248023 0.06574717
000320 c8 c5 43 be 1e 61 ea bc ff 2a ad 3c d8 0f 5f 3e
       -0.19118416 -0.028610762 0.021138666 0.21783388
000330 83 06 16 be 1b 93 76 be 17 3d e0 bd 8c 57 63 bd
       -0.14650922 -0.24079554 -0.10949152 -0.055503413
000340 96 bc ed bd 8b 34 7d be 10 fc c7 3d 08 bc 6b bd
       -0.116082355 -0.24727075 0.09764874 -0.057552367
000350 58 05 c6 3c 88 0a b3 bd 49 ad 60 be 98 8c 9d bd
       0.02417247 -0.08742243 -0.21941103 -0.07692832
000360 72 7d 76 3e 60 34 98 3d 75 db 84 3d 79 9b 31 3e
       0.24071291 0.07431865 0.064871706 0.17344464
000370 d2 d3 98 3d a6 33 68 3a 79 24 7e 3e 22 b8 3e 3e
       0.074622765 0.0008857794 0.248186 0.18624929
000380 14 3a bc bd 3b ec ca 3d 3d 2f 5c 3c 25 08 6a 3e
       -0.09190765 0.09908339 0.013438997 0.2285467
000390 6b d0 36 3e b2 b7 63 3e 6a f6 14 3e d5 ee 1f be
       0.17852943 0.22238043 0.14547125 -0.15618451
0003a0 72 8f c9 3d eb 8d 65 3e 06 fd 38 bd 11 d7 1c bc
       0.09841813 0.22417419 -0.045163177 -0.00957276
0003b0 85 84 91 3d 7c ab 2e bd 51 9d 99 bd 70 a2 7c bd
       0.07105354 -0.04264401 -0.07500709 -0.06167835
0003c0 f1 b3 f7 3d 68 16 a3 3d ba 06 f6 bc f7 fe 82 bd
       0.12094868 0.07963258 -0.030032504 -0.06396287
0003d0 75 1b cf bc ed e7 f1 bc b2 6a 90 3e fc 71 ed 3d
       -0.025281647 -0.029529536 0.28206402 0.115940064
0003e0 17 6b a1 bc bb d6 f7 bd 5c 20 be 3d 95 a2 2f 3e
       -0.019704385 -0.121015035 0.09283516 0.17151864
0003f0 0c 1c a9 3d e2 0a 79 3e d8 7b 3b bd c5 d9 89 bd
       0.08257303 0.24320558 -0.045772403 -0.06730989

layer2.bias f4 [10]
000000 c0 a6 a5 3d 0b bf 00 bd 70 56 af 3c d0 0a a0 bc
       0.08088446 -0.031432193 0.021403521 -0.019536406
000010 be 75 16 be 0b 0d 44 bc cb 62 90 3c 93 2d 1c be
       -0.14693353 -0.011966 0.017625233 -0.1525176
000020 81 46 95 bd ec 48 9b 3c
       -0.07288838 0.01895567

layer4.weight f4 [1, 10, 3, 3]
000000 0d 83 cb bb c8 e1 28 be ac b2 76 bd c5 3f 80 3e
       -0.006210691 -0.16492379 -0.06022899 0.25048652
000010 22 26 3b be 02 11 a3 bd b7 16 84 be 82 18 0d bd
       -0.18276265 -0.07962228 -0.2579858 -0.0344472
000020 2c dc 0b be db 98 9f bd da 64 83 be 2a 0d 8f 3e
       -0.13658208 -0.07792827 -0.2566288 0.2793973
000030 08 bc 7a 3e 5a 12 77 be 21 eb 03 bd bc b6 2e 3d
       0.2448579 -0.24128094 -0.03220666 0.042654738
000040 46 76 af be d3 42 2b bb 8e f5 97 bd 05 f5 f7 bb
       -0.34269923 -0.002613236 -0.07419883 -0.0075670504
000050 e5 fd 62 be a7 27 05 be 9d 17 d3 bd cd 6d 7f be
       -0.22167166 -0.13003407 -0.10307238 -0.2494423
000060 57 f7 ba bd 0c 49 74 be c4 67 87 3d 7c a4 74 3e
       -0.091292076 -0.2385599 0.066115886 0.23890871
000070 1f 36 82 3c 93 cf 8d bd d1 53 b9 3d a7 c3 0b bd
       0.015894948 -0.06924357 0.0904919 -0.034122135
000080 6c 64 68 bd 8b d9 20 3d 02 d3 cc 3e 14 8e 54 3e
       -0.056736395 0.039269965 0.40004736 0.20757324
000090 1a 4e 95 be 60 72 76 be 5c 6a 36 3d 45 0d 07 3e
       -0.2916115 -0.24067068 0.044535026 0.13188656
0000a0 a9 d2 af 3e 81 9c 12 3d 9e 41 5c 3e 86 9f 90 3e
       0.34340408 0.035793785 0.21509406 0.28246707
0000b0 44 74 a6 bd 08 5f 2a 3d 88 20 f5 3d 77 61 a6 3d
       -0.08127645 0.041594535 0.119690955 0.08124059
0000c0 10 e4 6b bd 16 c0 8e 3d 37 1c ba bd fc f7 2d be
       -0.057590544 0.06970231 -0.09087413 -0.1698913
0000d0 9b b2 db bc 4a 01 eb 3d 0e f5 bf bc 36 08 4a ba
       -0.026818564 0.11474855 -0.02343228 -0.0007706912
0000e0 29 5b 3e 3a 63 f6 61 be de a4 0a be c5 33 96 3d
       0.0007261509 -0.22066645 -0.13539454 0.07334093
0000f0 0b 93 1c be 35 d6 bc 3d 77 74 0c 3d b4 9f 97 bd
       -0.15290467 0.09220544 0.034290757 -0.07403508
000100 54 cf 1a 3e 92 96 8a 3e a3 e3 a8 bd 41 5b 71 3d
       0.15118152 0.27068 -0.08246543 0.058924917
000110 d9 85 70 3e 00 e7 10 3e 4c 97 bd be 2f dd 9d be
       0.23488559 0.1415062 -0.37029493 -0.30832812
000120 04 21 8a bd 47 65 b2 3e b0 c0 2a 3b 03 4e 80 be
       -0.067445785 0.34842893 0.0026054792 -0.25059518
000130 e9 4c d5 bd c2 67 15 3e 75 fe 67 be 56 fd 9e be
       -0.1041506 0.14590362 -0.22655661 -0.31052655
000140 ab 39 29 bd 6e cf b5 be d9 13 f6 3c d2 0c a0 be
       -0.041314762 -0.3550982 0.030038761 -0.3125978
000150 f8 0a 03 be 57 2c 22 3e f7 40 9b bd 98 96 09 3e
       -0.12797153 0.15837227 -0.075807504 0.13436353
000160 62 26 d8 bd 6b d3 31 3e
       -0.10554196 0.17365806

exp_avg f4 [10, 1, 3, 3]
000000 60 15 08 be be 7b c4 bd 7a 07 8a bd 2b dd c9 bd
       -0.13289404 -0.095939144 -0.06739707 -0.098566376
000010 38 82 82 bd 58 f4 19 bd d4 7c 75 bd e8 aa e0 bc
       -0.063724935 -0.03758654 -0.0599335 -0.027425244
000020 80 be 7e bb a0 65 47 be 28 1f 82 be f7 a2 b6 be
       -0.003887087 -0.1947236 -0.25414395 -0.35671207
000030 3c 4b 8b be c8 c3 a9 be 18 0e de be a6 b3 ba be
       -0.27205837 -0.33157182 -0.43370128 -0.36465186
000040 00 21 d9 be 9a 75 06 bf 0d d1 f1 be 87 cb 0b bf
       -0.4240799 -0.52523196 -0.47229806 -0.54607433
000050 08 5c 1d bf 41 a5 f8 be 21 d5 0e bf e3 de 1f bf
       -0.61468554 -0.4856358 -0.5579396 -0.62449473
000060 aa 4d 0a bf 19 7d 1c bf af fa 2c bf 30 5e 27 bd
       -0.54024756 -0.61128384 -0.6757001 -0.04086131
000070 16 fa 83 be a8 15 e0 be 46 18 05 be 24 f9 b0 be
       -0.25776738 -0.43766522 -0.12997541 -0.3456508
000080 50 02 06 bf b8 83 69 be 60 dc e1 be 5a 94 1d bf
       -0.5234728 -0.22804153 -0.44113445 -0.6155449
000090 30 83 75 be e8 29 7a be 08 6d 93 be e2 27 88 be
       -0.23975825 -0.24430048 -0.28794122 -0.26592928
0000a0 06 d0 8a be 86 3f a1 be 4a ab 9d be b4 b8 a0 be
       -0.27111834 -0.31493777 -0.30794746 -0.31390917
0000b0 61 33 b7 be 42 78 e3 be 20 cb 09 bf b7 c2 3c bf
       -0.35781386 -0.44427687 -0.5382557 -0.7373461
0000c0 89 c3 a9 be 70 97 da be ba e0 20 bf ba b4 69 be
       -0.33156994 -0.42693663 -0.62842906 -0.22822848
0000d0 c2 2f a6 be 28 12 07 bf 58 f4 98 be c0 b1 bd be
       -0.3245831 -0.5276208 -0.2987392 -0.37049675
0000e0 72 e1 d1 be 98 19 ce be dc 52 f1 be f4 9b 01 bf
       -0.40992314 -0.402539 -0.4713353 -0.5062859
0000f0 16 96 03 bf 10 63 14 bf 68 1d 1c bf ec d8 c6 be
       -0.5140089 -0.5796366 -0.6098237 -0.38837373
000100 c1 ad e3 be 68 5f 1d bf ba 45 c0 be 67 c4 dc be
       -0.444685 -0.61473703 -0.37553197 -0.43118593
000110 e4 e7 19 bf 28 24 bf be 28 2d db be 6a d8 18 bf
       -0.6011946 -0.37332273 -0.4280789 -0.5970522
000120 8c eb aa be 90 0d 9c be c4 f3 89 be 2c e1 76 be
       -0.33382833 -0.30479097 -0.2694379 -0.24109334
000130 5a e8 5c be 1e 58 3d be 9c 9b 05 be d4 e5 de bd
       -0.2157301 -0.18490645 -0.13047642 -0.1088368
000140 ec 25 a9 bd e2 25 ba be a8 8a e1 be 23 98 1c bf
       -0.08259186 -0.36357027 -0.440511 -0.6116964
000150 2e 4b d6 be 92 d2 fc be 58 82 29 bf ef 5b 09 bf
       -0.41854233 -0.49379402 -0.66214514 -0.53655905
000160 84 49 1c bf 08 9a 46 bf
       -0.61049676 -0.77578783

exp_avg_sq f4 [10, 1, 3, 3]
000000 91 89 04 41 f9 cb 04 41 11 e4 03 41 5f 47 05 41
       8.283586 8.299798 8.24318 8.329925
000010 0b cd 05 41 90 22 05 41 c8 30 05 41 7b f8 05 41
       8.362559 8.320938 8.3244095 8.373164
000020 80 8d 05 41 2f 2b 11 41 7b 4d 12 41 eb 16 12 41
       8.347046 9.073043 9.143916 9.130595
000030 8e 4c 0f 41 f1 62 10 41 17 2f 10 41 f9 1b 0d 41
       8.95619 9.024156 9.011497 8.819329
000040 1b 29 0e 41 06 fe 0d 41 b4 b4 2f 42 e7 5f 2e 42
       8.8850355 8.874517 43.926468 43.593655
000050 b8 f5 2b 42 b5 d4 2b 42 74 dc 2a 42 6b d5 28 42
       42.98996 42.95772 42.715286 42.208416
000060 6e b6 27 42 15 18 27 42 53 72 25 42 d3 a6 6d 42
       41.928154 41.773518 41.361645 59.412914
000070 8e 7a 6a 42 77 07 66 42 d2 b7 68 42 98 85 65 42
       58.619682 57.50729 58.179512 57.380463
000080 9a 15 61 42 ee 54 62 42 b9 25 5f 42 3f c3 5a 42
       56.271095 56.58294 55.78684 54.69067
000090 cd 12 92 41 84 87 94 41 9f d0 95 41 17 ac 8f 41
       18.25918 18.56617 18.726866 17.959028
0000a0 9a f2 91 41 ac 13 93 41 3b fe 8c 41 4d 15 8f 41
       18.243458 18.384605 17.624136 17.8854
0000b0 9d 0f 90 41 9a 01 86 41 32 1f 7c 41 75 aa 6c 41
       18.007624 16.750782 15.757616 14.7916155
0000c0 1a b1 84 41 12 75 79 41 3b f4 69 41 c5 2a 82 41
       16.586475 15.591082 14.622127 16.270884
0000d0 7b 8a 74 41 4e 2c 65 41 62 66 f2 40 01 c4 f4 40
       15.283809 14.323317 7.574998 7.6489263
0000e0 48 e0 f3 40 4f 0f f2 40 1c da f4 40 8f 60 f4 40
       7.621128 7.5643687 7.6516247 7.636787
0000f0 9a 18 ef 40 0b 40 f2 40 eb 2b f2 40 87 6c 1d 41
       7.471753 7.5703177 7.567861 9.838996
000100 0b ad 1e 41 1f d1 1e 41 fb ad 1c 41 ad f4 1d 41
       9.917247 9.926055 9.792476 9.872235
000110 cb 24 1e 41 31 d9 1b 41 3b 27 1d 41 81 67 1d 41
       9.883983 9.740525 9.822078 9.8377695
000120 35 24 04 42 7d a4 02 42 32 47 00 42 50 5c 02 42
       33.03536 32.660633 32.069527 32.59015
000130 79 11 01 42 89 d6 fd 41 99 76 ff 41 b9 4c fd 41
       32.267063 31.729753 31.932909 31.662462
000140 c8 73 f9 41 d6 05 2f 41 bd 5a 2e 41 c8 4a 2c 41
       31.181534 10.938925 10.897153 10.768257
000150 c6 11 2c 41 13 8c 2b 41 48 ba 29 41 14 7f 28 41
       10.754339 10.721698 10.607979 10.531025
000160 a7 21 28 41 97 9b 26 41
       10.508216 10.412986

exp_avg f4 [10]
000000 34 5d 9f 3d ce 50 eb 3f a0 7d 5a bf 77 9e 4a bf
       0.07781449 1.8384035 -0.8534794 -0.7914805
000010 70 6e 04 40 9e e5 42 40 8f a1 31 bf de 14 99 3f
       2.0692406 3.0452647 -0.69387144 1.1959493
000020 d8 f1 3a be ce 4b bf 3f
       -0.18256319 1.4945009

exp_avg_sq f4 [10]
000000 3c b8 98 40 68 09 88 3f b7 81 01 41 97 80 85 40
       4.7724895 1.062787 8.094169 4.171947
000010 a7 e5 a4 3f 64 ae 0a 40 92 c8 a5 3f ae e0 a6 3f
       1.2882584 2.166894 1.2951834 1.3037317
000020 53 13 c5 3d b0 22 c8 3f
       0.096228264 1.5635586

exp_avg f4 [10, 10, 3, 3]
000000 b4 f6 3a bd 1f fa 3f bd 97 06 74 bd 1d 25 11 bd
       -0.04564543 -0.046869393 -0.059576597 -0.035435785
000010 67 95 15 bd 74 44 4a bd 00 c4 81 bd 11 2a 84 bd
       -0.036519434 -0.04938169 -0.06336212 -0.06453336
000020 0c a9 9e bd ac 3d 1c 3d 2c d9 c3 3d 0a d1 35 3e
       -0.07747087 0.038144752 0.095629066 0.17755523
000030 78 23 91 3d 96 14 04 3e 62 65 58 3e 58 b7 ce 3d
       0.07086843 0.12898478 0.21132424 0.10093564
000040 54 77 23 3e ce d3 77 3e e0 81 40 bc cc 6e 8f bd
       0.15963489 0.24201891 -0.011749715 -0.07003555
000050 2c 11 08 be 98 60 59 bd 74 3c e1 bd 22 ea 2e be
       -0.132878 -0.053070635 -0.10997859 -0.17081502
000060 d0 e0 ca bd a5 e1 1d be ca ec 59 be d4 95 4a bc
       -0.09906161 -0.15418108 -0.21281734 -0.012364823
000070 65 e1 00 bd 08 33 5a bd 78 ae 85 bc 82 73 0f bd
       -0.031464953 -0.053271323 -0.016318545 -0.035022266
000080 8c fd 64 bd fa 95 ea bc d4 78 40 bd 24 55 89 bd
       -0.055905864 -0.028635968 -0.04699023 -0.067056924
000090 5c f4 18 be ea 83 09 be 24 1b cc bd 11 9f f4 bd
       -0.14936966 -0.13429227 -0.09966114 -0.11944402
0000a0 e8 c1 d4 bd 4a 28 8d bd a1 c0 e8 bd 99 cc c7 bd
       -0.10388547 -0.0689245 -0.11364866 -0.09755821
0000b0 2f cd 80 bd de 23 79 3d 1b ae 9c 3d 22 cf cd 3d
       -0.06289136 0.06082522 0.076503955 0.10049273
0000c0 f9 90 97 3d 8a d2 b8 3d be c0 ea 3d e2 e1 b3 3d
       0.07400698 0.09024532 0.11462544 0.08783318
0000d0 35 b3 d5 3d e3 0d 04 3e a6 25 c1 3d d4 9a 8a 3d
       0.10434572 0.12895922 0.09431009 0.06767812
0000e0 48 c8 52 3d d4 25 5a 3d 48 b1 d7 3c f0 a7 2a 3c
       0.051460534 0.053258732 0.026329651 0.010416016
0000f0 41 0a 9a 3d dc 95 46 3d 1c 5f 07 3d e4 89 55 3e
       0.07521487 0.04848276 0.033049688 0.20853382
000100 ae 0a 73 3e cc 54 97 3e c7 73 5e 3e d8 f5 7b 3e
       0.23734543 0.29556882 0.21723853 0.246055
000110 f3 af 9b 3e c5 84 8e 3e 97 89 9d 3e 77 4a bb 3e
       0.30407676 0.2783567 0.30769035 0.3658025
000120 93 28 47 bd 83 f5 58 bd ea 93 91 bd 7c 1d 29 bd
       -0.04862268 -0.052968513 -0.071082905 -0.041287884
000130 9b 42 3a bd a0 58 82 bd 70 cd 8f bd 83 fe 97 bd
       -0.045473676 -0.0636456 -0.07021606 -0.07421591
000140 eb 1f bd bd 7f 26 94 3e 55 2d a8 3e a1 9c ce 3e
       -0.092346035 0.2893562 0.32847086 0.40353873
000150 38 a4 8f 3e 96 92 a3 3e f8 f9 c9 3e b1 a1 b8 3e
       0.28054976 0.31947774 0.39448524 0.3606086
000160 be cf cc 3e 52 13 f3 3e a9 03 69 3c f4 87 31 3c
       0.40002245 0.47475678 0.014222064 0.010835636
000170 51 7b 5e 3b fc c1 46 3b 40 2b d4 b9 d0 a4 ff bb
       0.0033948014 0.0030328026 -0.00040468015 -0.0078016296
000180 e6 ad b1 ba 03 f1 99 bb a8 31 43 bc 10 d1 ab 3d
       -0.0013555854 -0.0046979203 -0.011913694 0.08389485
000190 4a 2c 04 3e 89 33 66 3e 9e ac 00 3e 0b 80 2d 3e
       0.1290752 0.22480597 0.12565848 0.16943376
0001a0 84 c3 86 3e f4 7f 2d 3e 82 d8 58 3e bf 37 9b 3e
       0.26321042 0.16943341 0.21176341 0.30315968
0001b0 66 93 95 be 5d fb c1 be 10 71 de be 0b 65 ae be
       -0.2921402 -0.37887087 -0.43445635 -0.34061465
0001c0 f6 5c d9 be 5e c9 f3 be c9 2d d3 be ad 7e fc be
       -0.42453736 -0.47614568 -0.4124587 -0.49315396
0001d0 e3 7f 0a bf ba 9e 2b bd 17 a1 6d bd e6 58 b3 bd
       -0.5410139 -0.04189942 -0.058014955 -0.087571904
0001e0 e5 de 5f bd d4 21 8f bd 0f dc c9 bd a7 1c 87 bd
       -0.05465593 -0.06988874 -0.09856426 -0.06597262
0001f0 5d fb a3 bd a1 f3 dc bd 80 57 05 bb 80 f3 ce bb
       -0.08006928 -0.10788656 -0.0020346344 -0.0063156486
000200 60 ae d5 3c a8 40 f2 3c 98 2f c7 3c d4 6a 63 3d
       0.026084125 0.029571846 0.024314687 0.0555218
000210 52 71 86 3d b8 e8 74 3d 10 3e b8 3d e4 72 a2 3d
       0.06564583 0.05979225 0.089962125 0.0793207
000220 02 52 a0 3d b4 bb c1 3d 94 64 c5 3d 90 af c2 3d
       0.07828142 0.0945963 0.096383244 0.09506142
000230 b6 20 e3 3d 5a 95 f4 3d 21 9b f1 3d 17 7b 08 3e
       0.110902235 0.11942549 0.117971666 0.13328205
000240 e4 49 b1 bd 96 c1 13 be 95 fb 47 be c8 17 f1 bd
       -0.08656672 -0.14429316 -0.19529565 -0.11772114
000250 43 87 32 be 3d 63 65 be c7 f1 0e be 1e a1 47 be
       -0.17434411 -0.22401138 -0.13959418 -0.19495055
000260 c2 e8 78 be a8 33 75 3e ad 66 6e 3e cd 19 92 3e
       -0.2430754 0.23945487 0.23281355 0.2853531
000270 16 2a 74 3e e4 41 6c 3e 28 6f 90 3e 5a 5e 87 3e
       0.2384418 0.2307201 0.28209805 0.26439172
000280 ba 19 83 3e 8c 8e 9c 3e 12 d1 0a 3d fe 82 e0 3c
       0.25605565 0.30577505 0.03389079 0.027406212
000290 4f 08 93 3c 4b c3 9a 3c 6d 07 51 3c 78 2d 72 3b
       0.017948298 0.018891951 0.012758118 0.003695337
0002a0 2a ae 82 3b 78 eb 01 bb 8a 4a 2e bc 4e 41 a1 3e
       0.003988047 -0.0019824188 -0.010637889 0.31495136
0002b0 09 0f 99 3e 97 6c b4 3e ca 1f b2 3e 39 e8 a9 3e
       0.29894283 0.35239097 0.34789878 0.33184984
0002c0 83 68 c5 3e 2a f4 b6 3e 24 20 ae 3e 88 f9 c8 3e
       0.385563 0.35733157 0.34008896 0.39252877
0002d0 eb 8e c1 bd 16 4b a0 bd 4c 3e ba bd 19 78 b0 bd
       -0.094510876 -0.078268215 -0.090939134 -0.08616657
0002e0 9a b4 8f bd 10 aa a9 bd 62 74 d4 bd b3 fc b3 bd
       -0.07016869 -0.0828439 -0.10373761 -0.08788433
0002f0 c6 f1 cd bd b4 1b 8e 3d 54 e3 fe 3d 58 0a 4a 3e
       -0.1005588 0.06938878 0.12445703 0.19730508
000300 a8 54 85 3d 7c 71 f8 3d 24 d1 47 3e 9c 6a b6 3d
       0.065102875 0.121310204 0.19513375 0.08907053
000310 e2 c9 15 3e 30 13 62 3e 70 7a 2f 3d 50 be 07 bd
       0.14627793 0.22077632 0.042841375 -0.03314048
000320 f4 03 f4 bd 40 0b c8 bb 84 f8 a4 bd d4 e6 28 be
       -0.119148165 -0.0061048567 -0.08055213 -0.16494304
000330 0c 33 81 bd 8e fd 0a be 7a 09 5f be 7c 54 8d bc
       -0.063085645 -0.13573286 -0.21780959 -0.0172522
000340 54 1e 0d bd 4e ff 89 bd 54 29 86 bc fa a9 07 bd
       -0.03445275 -0.06738149 -0.016377129 -0.033121087
000350 5e 43 86 bd 90 ef c9 bc 16 6c 27 bd 82 ee 94 bd
       -0.06555818 -0.024650365 -0.040874563 -0.07272054
000360 fb db 53 be bb 77 3a be be ed 21 be c4 92 5c be
       -0.20689385 -0.18209736 -0.15813348 -0.21540362
000370 18 c0 42 be a9 d3 29 be 08 2a 5b be cc c2 40 be
       -0.1901859 -0.16584648 -0.21402752 -0.18824309
000380 25 83 27 be d7 d7 f4 3d 0c 33 00 3e 0c cf 19 3e
       -0.16358621 0.11955231 0.12519473 0.15020388
000390 56 22 ee 3d 06 30 fb 3d 2a c2 17 3e 6d f5 06 3e
       0.11627643 0.12265019 0.14820161 0.1317956
0003a0 04 35 0e 3e 24 e4 28 3e 80 35 4c 3e 8a ef 03 3e
       0.13887411 0.16493279 0.19942284 0.12884346
0003b0 a6 be f4 3d a3 33 1f 3e c8 93 ae 3d 9a c9 9b 3d
       0.11950426 0.15547042 0.08524281 0.07606812
0003c0 5f 62 23 3e 68 3a b7 3d 8c 3d a5 3d 98 45 b5 3e
       0.15955494 0.08946687 0.0806838 0.35404658
0003d0 5e ae b4 3e 25 8a d6 3e df d4 b4 3e 7e c2 b4 3e
       0.35289282 0.4190227 0.35318658 0.35304636
0003e0 a0 cf d6 3e 4f c6 c7 3e b5 55 c8 3e 1c a2 ea 3e
       0.4195528 0.39018485 0.3912789 0.45826805
0003f0 cb d7 e2 bd aa 59 bc bd e0 93 e6 bd b8 8c cb bd
       -0.110763155 -0.091967896 -0.11258674 -0.09938949

exp_avg_sq f4 [10, 10, 3, 3]
000000 3e 82 63 3e 10 8b 5b 3e d2 d1 53 3e 18 6a 60 3e
       0.22217652 0.21439767 0.20685509 0.21915472
000010 eb f6 58 3e 37 9f 51 3e 76 39 5b 3e f9 5e 54 3e
       0.21187942 0.20470892 0.21408638 0.20739354
000020 76 c8 4d 3e bd 14 24 40 81 29 20 40 0e 33 1b 40
       0.20096001 2.5637658 2.5025332 2.4249911
000030 bd d1 20 40 72 e8 1c 40 93 ff 17 40 f2 9c 1c 40
       2.5128014 2.4516873 2.374974 2.4470792
000040 8d cb 18 40 76 08 14 40 fc 93 fd 3e 84 80 fa 3e
       2.3874238 2.3130164 0.49526966 0.48926175
000050 dd c7 f5 3e 8a 52 fe 3e d6 9b fb 3e 63 68 f7 3e
       0.48004046 0.49672347 0.4914233 0.48321828
000060 c6 72 fd 3e 4c 3b fb 3e 02 8a f7 3e 0f b2 ab 3b
       0.49501628 0.49068677 0.4834748 0.005239732
000070 52 be a5 3b 0d 21 a2 3b 5f f2 a7 3b d6 49 a1 3b
       0.0050580883 0.0049477876 0.0051253284 0.004922132
000080 d5 59 9c 3b e2 0a a7 3b 13 44 a1 3b 42 3f 9d 3b
       0.004771451 0.005097733 0.004921445 0.0047988007
000090 0c 03 96 3f 40 e9 95 3f c0 de 93 3f c7 71 93 3f
       1.171968 1.1711807 1.1552353 1.1519097
0000a0 3b 26 93 3f c6 f4 90 3f 48 0f 91 3f 6f 91 90 3f
       1.1496042 1.1324699 1.1332788 1.1294383
0000b0 a8 44 8e 3f 4a ab 32 3d 29 3d 2f 3d 87 2d 2b 3d
       1.1114702 0.043620385 0.042782936 0.041791465
0000c0 ff 79 32 3d 80 41 2e 3d 5a a3 29 3d d1 a7 28 3d
       0.043573376 0.042542934 0.04141555 0.041175667
0000d0 da cf 24 3d 5f 57 21 3d 09 51 e3 3d be c8 e3 3d
       0.040237285 0.039389964 0.110994406 0.11122273
0000e0 34 5b db 3d 7a 5a e6 3d d8 bd e6 3d 36 1e de 3d
       0.10710755 0.11247726 0.112666786 0.10845606
0000f0 a4 71 e5 3d 69 ac e5 3d 8c 97 dd 3d 1f 7d 84 3f
       0.11203316 0.11214525 0.10819921 1.0350684
000100 ff 65 81 3f c5 71 7d 3f 3f 85 82 3f 32 cc 7e 3f
       1.0109252 0.99001724 1.0196913 0.9953033
000110 58 74 79 3f 6e d3 7a 3f 81 d8 74 3f 36 08 70 3f
       0.9744315 0.97978866 0.9564286 0.9376253
000120 6c de 2f 3d 45 46 21 3d 56 19 17 3d a2 5e 2d 3d
       0.042936727 0.039373655 0.036889397 0.042326577
000130 30 f9 1e 3d f0 a5 14 3d 27 3a 25 3d 2d 8f 17 3d
       0.038811862 0.036291063 0.04033866 0.037001777
000140 3b 31 0e 3d 17 9b 23 40 ee fc 1e 40 51 3b 1b 40
       0.03471492 2.556341 2.4841876 2.4254954
000150 ab d0 21 40 2b 24 1d 40 ea 50 19 40 a7 0e 1d 40
       2.528361 2.4553325 2.3955636 2.4540193
000160 46 82 18 40 ad e7 14 40 2f 9d 98 3e 14 59 9e 3e
       2.3829513 2.3266404 0.29807422 0.30927336
000170 e2 3a 9f 3e 89 72 9b 3e 11 66 a1 3e 43 51 a2 3e
       0.31099612 0.3036082 0.31523183 0.31702623
000180 7b 48 9c 3e 72 5e a2 3e 1b 73 a3 3e d0 3b a6 3f
       0.30524048 0.3171268 0.31923756 1.2987003
000190 d6 d0 a4 3f 3b b7 a2 3f f5 ec a6 3f 97 47 a5 3f
       1.2876232 1.2712168 1.3041064 1.2912472
0001a0 cc 16 a3 3f 28 95 a6 3f b9 ca a4 3f 93 8d a2 3f
       1.2741332 1.3014269 1.2874366 1.2699455
0001b0 8c b5 42 3f 74 16 45 3f 77 2d 44 3f a8 f3 44 3f
       0.7605827 0.76987386 0.76631874 0.7693429
0001c0 d3 90 47 3f 96 d1 46 3f 24 92 46 3f 38 a2 49 3f
       0.7795536 0.7766355 0.7756674 0.7876315
0001d0 d8 0e 49 3f 3f 3c 1a 3c 89 91 1f 3c b1 8e 23 3c
       0.78538275 0.009413778 0.009739288 0.009982751
0001e0 b2 81 17 3c cc 00 1d 3c 85 e3 20 3c 38 28 13 3c
       0.00924723 0.0095827095 0.00981987 0.008981757
0001f0 76 b6 19 3c 2f 88 1d 3c 00 ce d8 3e 5b 5c db 3e
       0.009381881 0.009614988 0.42344666 0.428439
000200 4b f0 db 3e a5 71 d9 3e a6 a3 db 3e 46 1c dc 3e
       0.42956766 0.42469516 0.4289829 0.4299032
000210 9f f8 d8 3e 7f de da 3e a0 41 db 3e 32 8a 5b 3c
       0.42377183 0.42747876 0.42823505 0.013399648
000220 a1 3d 50 3c 56 ed 50 3c b8 55 55 3c be 1d 4a 3c
       0.012710006 0.012751898 0.013020925 0.012336193
000230 bb 0f 4b 3c 49 89 51 3c 78 22 46 3c af 5d 47 3c
       0.012393887 0.012789079 0.012093179 0.012168332
000240 3c ff 64 3e de 61 6a 3e 79 50 6b 3e 11 8e 68 3e
       0.22362989 0.22888896 0.22979917 0.22710444
000250 15 18 6e 3e 85 35 6f 3e 80 5c 69 3e 2b ed 6e 3e
       0.23251374 0.2336026 0.22789192 0.2333266
000260 3e 2f 70 3e 64 fc cc 3e 34 58 cd 3e bc 56 cc 3e
       0.23455521 0.4003631 0.40106356 0.39909923
000270 92 45 cb 3e 45 8b cb 3e 2f 70 ca 3e 54 9f c7 3e
       0.39701515 0.39754692 0.39538714 0.38988745
000280 20 a5 c7 3e fd 98 c6 3e 6a 4d 74 3d 33 a2 7b 3d
       0.38993168 0.38788596 0.05964414 0.061433982
000290 44 52 7f 3d d9 17 80 3d 7c e8 83 3d 11 d2 85 3d
       0.062334314 0.062545486 0.06440827 0.065342076
0002a0 ab 77 83 3d 37 7c 87 3d 3c 96 89 3d 97 92 96 3f
       0.06419309 0.06615489 0.06718108 1.1763486
0002b0 d1 12 97 3f da 0a 96 3f 87 36 97 3f 66 90 97 3f
       1.1802617 1.1722062 1.1813515 1.1840942
0002c0 89 60 96 3f 21 c8 96 3f f9 fc 96 3f 28 b2 95 3f
       1.174821 1.1779824 1.1795951 1.1694994
0002d0 a6 c6 f7 41 ba e2 f4 41 f1 2b f0 41 e7 ea f3 41
       30.971996 30.610706 30.021456 30.489698
0002e0 d7 55 f1 41 25 f6 ec 41 33 6a ee 41 7b 29 ec 41
       30.166914 29.620188 29.801855 29.520254
0002f0 6c 25 e8 41 fc 19 76 42 00 a5 72 42 ae 88 6d 42
       29.018272 61.525375 60.661133 59.383476
000300 01 98 6e 42 97 19 6b 42 10 01 66 42 0b bc 65 42
       59.64844 58.77499 57.501038 57.433636
000310 50 3c 62 42 b1 35 5d 42 7e 71 e8 41 55 2a e4 41
       56.5589 55.302433 29.055416 28.52067
000320 c8 6e de 41 fd 8f e4 41 c3 a0 e0 41 6b 3e db 41
       27.804092 28.570307 28.078497 27.405478
000330 21 63 df 41 ee cd db 41 7f cd d6 41 19 89 51 3e
       27.923403 27.475552 26.85034 0.20462455
000340 6e ef 55 3e 99 59 59 3e d0 86 42 3e a1 6e 46 3e
       0.20892116 0.21225585 0.1899674 0.19378139
000350 36 72 49 3e 55 d0 32 3e 5f 53 36 3e 0d 0a 39 3e
       0.19672474 0.17462285 0.17805241 0.1807024
000360 05 d0 7d 41 72 1a 7e 41 73 af 7c 41 ad 18 77 41
       15.863286 15.881456 15.792834 15.443524
000370 4f 28 77 41 5d 90 75 41 9a b0 6e 41 85 90 6e 41
       15.447341 15.347745 14.918116 14.910283
000380 15 dd 6c 41 04 2d 61 3f 97 17 5b 3f ac 77 52 3f
       14.803975 0.87959313 0.8558287 0.82213855
000390 e3 e6 5e 3f 54 11 59 3f 5c 95 50 3f 16 74 5a 3f
       0.87071055 0.84792066 0.81477904 0.85333383
0003a0 9c bb 54 3f 56 87 4c 3f f5 81 3c 41 af fa 39 41
       0.8309877 0.79894006 11.781728 11.623702
0003b0 6d 5d 36 41 3d 47 3a 41 ec f8 37 41 72 95 34 41
       11.397809 11.642392 11.498272 11.286486
0003c0 71 d9 36 41 70 c1 34 41 92 9f 31 41 99 90 73 41
       11.428086 11.297226 11.101458 15.222802
0003d0 11 84 72 41 f6 88 6f 41 d3 aa 6a 41 8a 8b 69 41
       15.157243 14.970938 14.666705 14.596567
0003e0 a4 8f 66 41 6d f6 60 41 69 c6 5f 41 3f d7 5c 41
       14.4100685 14.060163 13.98594 13.80255
0003f0 ef f9 1b 41 36 71 1a 41 a8 b3 17 41 cf 7f 1a 41
       9.748519 9.652639 9.481361 9.656203

exp_avg f4 [10]
000000 68 5b 08 3f 2a 96 cf 3d 31 87 6d 3f d2 61 5b 3f
       0.53264475 0.101360634 0.9278441 0.85696137
000010 23 a6 88 3e ca f9 d3 3c 2e ca 8c be 7a 24 41 3d
       0.26689252 0.025875945 -0.27498 0.047153927
000020 d8 cb 89 3e 6a e8 1e be
       0.26913333 -0.15518346

exp_avg_sq f4 [10]
000000 aa b0 a0 3e 18 cd 20 3f 02 6c 0d 41 56 81 80 41
       0.31384784 0.6281295 8.838869 16.063152
000010 2b 02 6b 40 fc 2e 6e 3f 28 54 8b 3f 17 56 0b 3d
       3.6720073 0.9304044 1.0885057 0.03401765
000020 7a ca b8 3d 2e ae d3 3d
       0.09022994 0.103359565

exp_avg f4 [1, 10, 3, 3]
000000 9c 6b d2 be 04 58 2d bf 59 08 a0 bf 1c 0f e2 be
       -0.41097724 -0.67712426 -1.2502548 -0.44152153
000010 c4 b6 3a bf 74 98 a7 bf 32 2c 6a bf 55 5a 9d bf
       -0.7293513 -1.30934 -0.91473687 -1.2293192
000020 66 6e e8 bf 24 00 b1 3e 92 e2 73 3f c4 c8 b6 3f
       -1.8158691 0.3457042 0.95267594 1.4280019
000030 9f 53 41 3f b2 f3 a9 3f 50 62 e1 3f e2 b4 94 3f
       0.7551822 1.3277495 1.7608128 1.1617701
000040 8f ee d7 3f ee eb 03 40 70 be 31 be 00 dd 92 be
       1.6869677 2.061275 -0.17357802 -0.28684235
000050 c2 2f 35 bf 74 14 2e be e4 9f 95 be 4e 66 37 bf
       -0.70776 -0.1699999 -0.2922355 -0.7164048
000060 68 c1 08 bf 65 a0 2b bf bd 2a 8c bf e4 7f f2 bd
       -0.53420115 -0.6704162 -1.0950543 -0.118407995
000070 f8 32 9c bc c6 ac 1b 3e 98 9c c1 3c fc 44 ed 3d
       -0.019067273 0.15202627 0.02363424 0.11585423
000080 21 05 8c 3e 60 18 51 3e f2 a9 92 3e e5 4e dd 3e
       0.27347663 0.20419455 0.28645283 0.43224254
000090 5f 8f ae be 32 fe a9 be c1 dc 84 be 52 a9 71 be
       -0.34093758 -0.33201748 -0.25949672 -0.23599747
0000a0 2d 57 68 be 9b d7 26 be b0 4d c9 bd 6e 48 b3 bd
       -0.22689505 -0.16293184 -0.09829271 -0.08754049
0000b0 e0 f5 db bc a4 39 47 3e ec c6 3b 3c 99 ca 46 3e
       -0.02685064 0.19455582 0.011461001 0.19413222
0000c0 2c 7f 58 3e d0 1b c3 3c 0b 0b 53 3e e2 0d 3f 3e
       0.21142262 0.023816973 0.20609681 0.1865764
0000d0 c0 9b 20 3b 44 88 3b 3e b8 85 f6 3e 9b 6a 73 3f
       0.0024506897 0.183137 0.48148894 0.9508454
0000e0 15 56 c4 3f 46 8e 5e 3f 7d fb a8 3f 94 d1 ef 3f
       1.533877 0.8693584 1.3201748 1.8735833
0000f0 8b 5f 9f 3f 66 1e d5 3f e9 05 0b 40 b8 a8 d0 bc
       1.2451032 1.6649902 2.1722357 -0.025471076
000100 02 2b dd bd bc 1c b2 bd 98 06 04 3e b4 22 3e 3d
       -0.10799219 -0.08696887 0.1289314 0.046419814
000110 8c af 71 3d 02 d3 6f 3e e9 95 19 3e ec 43 22 3e
       0.059005305 0.23420337 0.14998592 0.15846223
000120 50 b6 b5 3d a0 1f 8b 3d 36 75 bc be 88 3a 81 3e
       0.08872664 0.06793141 -0.36808175 0.25239968
000130 10 1b 6a 3e b0 64 55 be 10 08 7b 3d 90 bf 12 3d
       0.22861886 -0.2083919 0.061286986 0.03582722
000140 22 5a ca be a8 35 98 be 02 69 ec be b0 f9 79 bf
       -0.3952189 -0.29728436 -0.46173865 -0.9764662
000150 cc 0d ab be 50 fd 04 bf 3e 45 85 bf 56 65 5b bf
       -0.33408964 -0.51949024 -1.0411756 -0.857015
000160 1e eb 89 bf fe c3 cd bf
       -1.0774877 -1.6075437

exp_avg_sq f4 [1, 10, 3, 3]
000000 25 f1 c6 42 c4 8b c6 42 65 f3 c2 42 60 95 bd 42
       99.470985 99.27298 97.47538 94.79175
000010 d1 26 bd 42 7e de b9 42 1c 37 b3 42 5d fc b2 42
       94.57581 92.934555 89.607635 89.4929
000020 0c fd af 42 3c f0 28 43 f2 9b 2a 43 e4 5b 27 43
       87.99423 168.93842 170.60916 167.35895
000030 78 1d 21 43 ff 20 22 43 92 70 1e 43 4e 1a 15 43
       161.11511 162.12889 158.43973 149.10275
000040 be 82 15 43 6c 9a 11 43 52 7c 3f 42 6c 84 41 42
       149.51071 145.60321 47.871407 48.37932
000050 69 1a 40 42 ea c5 36 42 ce 43 38 42 8d 7d 36 42
       48.02579 45.693275 46.066216 45.62261
000060 6d dd 2e 42 c0 e6 2f 42 87 da 2d 42 ab 33 1a 42
       43.716236 43.97534 43.463406 38.550457
000070 f0 e2 17 42 44 a3 11 42 d3 db 19 42 81 c2 18 42
       37.97162 36.40944 38.464672 38.189945
000080 1f be 13 42 a9 f0 16 42 be 2a 17 42 39 5e 13 42
       36.935665 37.73502 37.79174 36.842014
000090 c9 b7 ec 42 6c b4 ea 42 ef 8d e2 42 ac 1f e7 42
       118.358955 117.35239 113.277214 115.56186
0000a0 40 7e e6 42 cc e2 df 42 63 33 dd 42 42 f0 dd 42
       115.24658 111.94296 110.600365 110.96925
0000b0 92 eb d8 42 23 44 18 41 29 82 16 41 e6 62 11 41
       108.4601 9.516635 9.406777 9.086645
0000c0 be 04 1d 41 50 60 1c 41 17 4f 18 41 62 af 1f 41
       9.813658 9.773514 9.519309 9.980318
0000d0 2e 1a 20 41 8f 1d 1d 41 af 37 9b 42 9c 13 9d 42
       10.006392 9.819716 77.60876 78.5383
0000e0 37 2d 9b 42 88 29 93 42 d1 b0 94 42 f6 9b 92 42
       77.58831 73.581116 74.345345 73.30461
0000f0 7d d6 87 42 04 ff 88 42 87 d4 86 42 c2 c5 21 42
       67.91892 68.49808 67.41509 40.443123
000100 e7 54 1e 42 f1 16 16 42 f7 7a 1d 42 2f e6 1a 42
       39.582912 37.522404 39.370083 38.72479
000110 62 9b 13 42 ef c0 14 42 f9 13 13 42 2e ee 0c 42
       36.90174 37.18841 36.769505 35.232597
000120 63 1d d8 41 05 0a da 41 8d c9 d4 41 76 f7 cd 41
       27.014349 27.254892 26.598413 25.74583
000130 26 74 d0 41 f1 ee cb 41 46 34 c0 41 7e 2a c3 41
       26.056713 25.49167 24.025524 24.395748
000140 7a a1 bf 41 3d f0 cd 40 cb 47 ca 40 b6 0f c4 40
       23.953846 6.435576 6.321264 6.126918
000150 b3 fc c3 40 fa dd bf 40 13 c2 b9 40 ae 6b b5 40
       6.124597 5.9958467 5.8049407 5.6693945
000160 b5 a0 b1 40 08 bc ac 40
       5.5508676 5.397953
