models/probabilistic_training/upscaling_network/100/sigma0.005_step0.0001_lr0.005_gamma0.01/ckpt/best_model.pth (torch, 282219 bytes, 18 tensors)

layer1.weight f4 [25, 1, 3, 3]
0.079936676 0.08050388 -0.018148944 0.121638894 -0.024662098 0.105489515 0.14182596 0.05962528
0.002525758 0.10098287 0.2013943 -0.100555286 -0.01592395 0.005754315 -0.010419702 -0.02466781
0.043905616 -0.05978592 0.08649858 0.033468768 -0.23703595 0.06175145 -0.0011201416 -0.023448903
-0.11557995 0.063034974 0.104601614 -0.13154078 0.01997626 0.05690298 -0.16334076 -0.079540245
-0.099640496 -0.052997507 -0.020365389 0.06351214 -0.024417836 0.16257025 -0.034043774 -0.053921934
0.092581645 -0.09731685 0.063641675 0.049893305 -0.10620666 -0.087579966 0.025165794 -0.066937506
0.047052197 -0.077498436 -0.03683114 0.0010045946 -0.005178728 -0.073689975 0.038152616 -0.024957715
-0.07036532 -0.11993683 0.19712467 -0.040507432 -0.13969205 0.033256408 -0.056904133 0.09602305
0.008911221 -0.069218546 -0.09232434 0.105127364 -0.09634338 0.093752466 -0.18076879 0.0947586
0.04828436 0.13730422 0.14665791 -0.013650183 -0.13733989 0.03987356 0.053384278 0.010061251
0.04874465 -0.0050439625 0.12739581 0.06130539 0.032963473 0.049956404 0.12995858 0.11993197
0.0056082034 0.13339536 -0.008687222 -0.21512903 -0.152867 0.023369234 0.1564845 -0.010938322
-0.02237438 -0.10036199 0.06090322 -0.014533981 -0.014148077 0.06709925 -0.14926179 0.10760649
-0.094437666 -0.01537841 -0.031114696 0.07430189 -0.13784274 -0.06910785 -0.117951356 -0.06369333
0.195114 -0.0823685 -0.06825449 0.036553405 -0.03806857 0.0773251 0.18335234 0.103430815
-0.03725409 0.064964615 0.029634252 -0.022428025 0.07780573 -0.17638464 -0.023247259 0.10144069
0.06794452 -0.00445885 -0.009168567 0.100271955 -0.070684366 0.11279849 0.12192548 -0.005418705
-0.0013945437 0.109352335 0.06335372 0.23039044 -0.058253493 -0.028895104 0.021813497 0.053634353
0.038758636 -0.09376867 0.13785513 0.08840219 -0.11972996 0.07788098 -0.15075865 0.13580798
-0.08772922 -0.175566 -0.10931107 -0.0068235015 0.046856716 -0.040937398 -0.18452951 -0.004480081
-0.13841435 -0.120053105 0.018008033 -0.103519514 -0.014587272 -0.107808284 0.058654077 0.04376477
-0.033689193 -0.07506159 -0.18390468 -0.05360784 -0.23807622 0.012618859 -0.15570153 0.072719574
-0.109094076 0.08594137 -0.1694574 -0.061509613 -0.014196737 0.048350286 -0.05986019 -0.21608765
0.018556187 0.076035775 -0.08335137 -0.121704414 0.12396521 -0.027733196 0.23185249 -0.035582736
-0.16718169 0.019560007 0.07724564 0.13564616 -0.04129402 0.0705722 -0.022397425 0.05660742
0.08843577 0.15120192 0.006572749 0.0006843834 0.047264658 0.026759543 -0.06061533 0.06597016
0.040125504 -0.033218477 0.04700616 0.08199897 -0.075983986 -0.042485118 0.1349859 0.001325138
-0.12501043 -0.014018696 0.088154025 0.011108715 0.007158193 0.07664383 0.08254202 -0.09928619
0.11452259
00000000: d7b5 a33d 38df a43d 18ad 94bc d01d f93d
00000010: 2b08 cabc e30a d83d d33a 113e a339 743d
00000020: 3087 253b 1bd0 ce3d 4f3a 4e3e eeef cdbd
00000030: f272 82bc b18e bc3b 66b7 2abc 2614 cabc
00000040: 60d6 333d 15e2 74bd 2b26 b13d 8c16 093d
00000050: 8db9 72be 17ef 7c3d b7d1 92ba ea17 c0bc
00000060: 2eb5 ecbd 7b18 813d 5f39 d63d a0b2 06be
00000070: 41a5 a33c 1913 693d cd42 27be ffe5 a2bd
00000080: 5110 ccbd ea13 59bd 51d5 a6bc a712 823d
00000090: ea07 c8bc d178 263e 7c71 0bbd 3fdd 5cbd
000000a0: 729b bd3d 0f4e c7bd 9156 823d ec5c 4c3d
000000b0: e182 d9bd 205d b3bd 7f28 ce3c 8816 89bd
000000c0: ceb9 403d 80b7 9ebd 40dc 16bd 9aac 833a
000000d0: 52b2 a9bb c5ea 96bd eb45 1c3d 1f74 ccbc
000000e0: b11b 90bd 71a1 f5bd 0ddb 493e 1feb 25bd
000000f0: 6f0b 0fbe df37 083d 4f14 69bd bca7 c43d
00000100: 5f00 123c 74c2 8dbd 8b14 bdbd 044d d73d
00000110: ae4f c5bd 4b01 c03d 741b 39be cc10 c23d
00000120: d2c5 453d 7a99 0c3e 7e2d 163e 04a5 5fbc
00000130: d4a2 0cbe 7552 233d 79a9 5a3d f2d7 243c
00000140: 78a8 473d d347 a5bb 0c74 023e 5c1b 7b3d
00000150: b504 073d 169f 4c3d dd13 053e e59e f53d
00000160: 05c5 b73b cb98 083e da54 0ebc c94a 5cbe
00000170: 2b89 1cbe d670 bf3c 793d 203e a636 33bc
00000180: 7a4a b7bc 968a cdbd a875 793d ef1f 6ebc
00000190: 56cd 67bc 556b 893d 15d8 18be cb60 dc3d
000001a0: 8968 c1bd baf5 7bbc 3fe4 febc 972b 983d
000001b0: a626 0dbe 6b88 8dbd 7b90 f1bd a671 82bd
000001c0: f7cb 473e d1b0 a8bd 03c9 8bbd 06b9 153d
000001d0: caed 1bbd 9f5c 9e3d b7c0 3b3e 89d3 d33d
000001e0: bf97 18bd 2b0c 853d 88c3 f23c faba b7bc
000001f0: 9c58 9f3d 2d9e 34be 0971 bebc 23c0 cf3d
00000200: 7f26 8b3d 8b1b 92bb c237 16bc 625b cd3d
00000210: f7c2 90bd e502 e73d 11b4 f93d 648f b1bb
00000220: 1fc9 b6ba 1ef4 df3d 98bf 813d 79eb 6b3e
00000230: 379b 6ebd 6db5 ecbc 38b2 b23c b2af 5b3d
00000240: 60c1 1e3d ca09 c0bd e529 0d3e 350c b53d
00000250: fb34 f5bd 1080 9f3d 7a60 1abe 3f11 0b3e
00000260: 61ab b3bd 93c7 33be 7bde dfbd ae97 dfbb
00000270: d4ec 3f3d f9ad 27bd 4ef5 3cbe a5cd 92bb
00000280: 7ebc 0dbe 67de f5bd 9585 933c 0a02 d4bd
00000290: 74ff 6ebc 97ca dcbd 423f 703d b042 333d
000002a0: aefd 09bd e4b9 99bd 8251 3cbe e593 5bbd
000002b0: 41ca 73be 55bf 4e3c 3970 1fbe 00ee 943d
000002c0: b76c dfbd 0702 b03d 3e86 2dbe 81f1 7bbd
000002d0: 6e99 68bc f30a 463d f52f 75bd 1546 5dbe
000002e0: 2503 983c a5b8 9b3d 20b4 aabd 2a40 f9bd
000002f0: 79e1 fd3d ba30 e3bc bd6a 6d3e 34bf 11bd
00000300: ad31 2bbe 4f3c a03c f632 9e3d d4e6 0a3e
00000310: eb23 29bd 2888 903d ce7a b7bc 2fdd 673d
00000320: d01d b53d add4 1a3e 3760 d73b 3168 333a
00000330: 9698 413d d436 db3c c847 78bd 5d1b 873d
00000340: a45a 243d 1910 08bd 8889 403d 13ef a73d
00000350: 7e9d 9bbd e004 2ebd be39 0a3e 41b0 ad3a
00000360: bc02 00be acae 65bc 198a b43d 5401 363c
00000370: 468f ea3b 71f7 9c3d ca0b a93d 8f56 cbbd
00000380: d28a ea3d

layer1.bias f4 [25]
-0.055259995 0.08061996 -0.27720016 0.11245448 0.2211408 0.10803593 0.07196976 0.10947836
0.009284085 -0.12144093 -0.28910372 -0.3102041 0.12084565 0.18754803 0.08872242 -0.012080785
-0.085190095 -0.26247078 0.18785964 -0.19035846 -0.3023841 0.24343674 0.25405112 -0.09734666
0.3151847
00000000: 4e58 62bd 141c a53d 2eed 8dbe 894e e63d
00000010: bc72 623e f141 dd3d e264 933d 3136 e03d
00000020: 461c 183c 06b6 f8bd 6705 94be 12d3 9ebe
00000030: ed7d f73d 970c 403e 1ab4 b53d 7cee 45bc
00000040: 2578 aebd 9262 86be 475e 403e 54ed 42be
00000050: 17d2 9abe 7b47 793e fd12 823e b05d c7bd
00000060: e45f a13e

layer2.weight f4 [50, 25, 3, 3]
0.005353386 0.04097418 0.09730418 0.017340625 0.05492363 0.0032715 -0.03768551 -0.007908255
-0.00031078415 0.020181147 0.016809866 -0.005687858 -0.05824996 0.007913106 0.07219802 -0.035211913
0.09733172 0.010994635 0.123430945 0.069765955 0.10109329 -0.04404099 -0.023808608 0.057280306
0.12799421 0.052457742 0.0048228726 -0.037713338 0.02435311 -0.061066754 -0.019803632 0.010417205
0.07906616 -0.011560128 0.024282271 -0.030042147 -0.011122306 0.028026624 0.10047389 0.033851393
-0.0023951132 0.044196747 -0.05486657 -0.0443119 -0.039132852 -0.056047134 0.00705174 -0.05148584
-0.017160142 0.024517074 -0.03784697 0.0334717 0.0032907664 -0.028040325 -0.045981273 -0.039650965
-0.02607736 -0.06239316 0.012718505 0.0019815965 0.022116518 -0.0012231895 -0.16759714 -0.01865776
0.026501376 0.027445992 0.040784493 -0.1042857 0.019346694 0.00024368733 0.06858878 -0.017366903
0.0011221115 -0.011047776 0.00063579826 -0.16044042 0.015184615 0.029861748 -0.12082542 0.009074185
-0.036690567 -0.019488664 0.05190145 0.0018539268 0.014673345 -0.0067471983 0.037575033 -0.031044597
-0.037659332 0.032659847 0.041286156 0.0056853974 0.075503744 -0.005354291 -0.04012547 0.08559038
0.0098318085 0.038778685 -0.026307961 -0.0073680724 0.04389361 0.0716127 0.026277242 -0.022980016
0.002774424 -0.0075658234 -0.12445768 0.05958476 -0.028825562 -0.02215407 0.076879874 -0.08796274
0.01962457 0.10846758 -0.07885395 -0.031176163 0.025771858 0.03925397 0.01776977 -0.012943182
0.039155014 0.0645934 0.0037495377 0.051047716 -0.06311901 0.08170499 -0.0547544 -0.047241148
0.03604522 0.038390286 0.06285919 -0.03521528 -0.027883539 0.05492487 -0.0030120004 0.04177942
-0.005390183 0.029033555 0.028899534 0.028587209 0.03228161 -0.02145338 -0.05438096 -0.10683024
0.013039768 -0.021660257 0.032775946 -0.060923435 -0.017894184 -0.030565063 0.04982834 -0.014447662
-0.095698886 -0.035039224 -0.0018413055 0.030417407 0.01793773 -0.13035125 0.07772135 -0.010033095
-0.032466456 0.055676322 -0.054427862 0.029271288 -0.041686866 0.067015454 -0.0049494416 0.0024669426
-0.027238907 -0.009831242 -0.055348314 -0.048003737 0.028487617 0.015557861 0.021696372 0.07209385
0.036144294 0.011210877 -0.056681983 0.06100916 -0.020469518 -0.0055154683 0.07345514 -0.0417038
0.06505378 -0.04710059 0.048773352 -0.07039072 -0.029200705 -0.06390078 -0.036257144 -0.07241766
-0.06118117 0.0020328125 0.029099796 -0.05379758 0.10780719 0.07141669 -0.04166026 0.07565856
0.014655377 -0.06835235 0.039128028 0.061776746 0.0112503115 0.06770288 0.01916308 -0.07044271
-0.004380634 -0.1179297 -0.004402048 0.007930641 0.065493785 0.07091192 -0.024901072 -0.053751163
-0.043488234 0.053820286 0.07861584 -0.060858287 -0.046524983 0.09641481 -0.016655594 0.018733356
-0.13170548 -0.035366494 -0.075252995 0.05960393 -0.06823103 -0.050525032 0.0885087 -0.11628918
0.07390543 -0.01782488 0.031109199 -0.06577656 0.0096238665 -0.014369535 -0.041594476 -0.15379654
0.05621085 0.039551146 -0.041145027 0.0064449385 0.038069423 0.0088519035 -0.025032165 0.113168545
-0.008133106 -0.07598809 -0.016665544 0.081772566 0.024987843 0.09865808 -0.056248534 0.03839852
00000000: 756b af3b 8bd4 273d 6a47 c73d ed0d 8e3c
00000010: 9af7 603d aa66 563b 1f5c 1abd a091 01bc
00000020: bef0 a2b9 ef52 a53c d8b4 893c 3661 babb
00000030: 8397 6ebd f9a5 013c 8edc 933d 5e3a 10bd
00000040: da55 c73d d722 343c 5dc9 fc3d 74e1 8e3d
00000050: 000a cf3d 5364 34bd 450a c3bc c19e 6a3d
00000060: ea10 033e eedd 563d 3009 9e3b 4d79 1abd
00000070: 2c80 c73c 2221 7abd 3a3b a2bc edac 2a3c
00000080: 70ed a13d b166 3dbc 9deb c63c f31a f6bc
00000090: 553a 36bc 1798 e53c 41c5 cd3d c2a7 0a3d
000000a0: 55f7 1cbb a607 353d c5bb 60bd 6580 35bd
000000b0: c549 20bd ae91 65bd 4812 e73b d1e2 52bd
000000c0: 6d93 8cbc 08d8 c83c 6d05 1bbd 9f19 093d
000000d0: e6a9 573b d3b4 e5bc dc56 3cbd 0d69 22bd
000000e0: 30a0 d5bc f88f 7fbd 4761 503c acdd 013b
000000f0: b32d b53c 6e53 a0ba 969e 2bbe 29d8 98bc
00000100: 6a19 d93c 6bd6 e03c a40d 273d be93 d5bd
00000110: f57c 9e3c 5286 7f39 4678 8c3d 0945 8ebc
00000120: d013 933a bb01 35bc b3ab 263a 7e4a 24be
00000130: e4c8 783c a0a0 f43c 5173 f7bd e4ab 143c
00000140: d948 16bd b1a6 9fbc 9d96 543d 76ff f23a
00000150: 7868 703c 9a17 ddbb 47e8 193d 3d51 febc
00000160: ac40 1abd 55c6 053d ac1b 293d 924c ba3b
00000170: b5a1 9a3d 0c73 afbb 9b5a 24bd 024a af3d
00000180: 9815 213c 66d6 1e3d cb83 d7bc df6f f1bb
00000190: c9c9 333d aea9 923d 5f43 d73c 9640 bcbc
000001a0: 1cd3 353b baea f7bb abe3 febd 260f 743d
000001b0: 9623 ecbc 747c b5bc 3273 9d3d cf25 b4bd
000001c0: b5c3 a03c 4024 de3d 2e7e a1bd 2765 ffbc
000001d0: 811f d33c c5c8 203d e991 913c a40f 54bc
000001e0: 0261 203d 8b49 843d ceba 753b 6917 513d
000001f0: 8a44 81bd f254 a73d 2646 60bd ef7f 41bd
00000200: 27a4 133d 223f 1d3d 52bc 803d e63d 10bd
00000210: 056c e4bc e7f8 603d fb64 45bb e620 2b3d
00000220: 22a0 b0bb c7d7 ed3c b7be ec3c b92f ea3c
00000230: b939 043d 00bf afbc 92be 5ebd d0c9 dabd
00000240: c0a4 553c da70 b1bc 1240 063d da8a 79bd
00000250: d396 92bc 9563 fabc cd18 4c3d e3b5 6cbc
00000260: c7fd c3bd 4a85 0fbd f657 f1ba ed2d f93c
00000270: 25f2 923c cc7a 05be 5f2c 9f3d da61 24bc
00000280: 8cfb 04bd db0c 643d c0ef 5ebd 57ca ef3c
00000290: d9bf 2abd 663f 893d ed2e a2bb 6eac 213b
000002a0: 2124 dfbc 3813 21bc eab4 62bd 919f 44bd
000002b0: dd5e e93c 66e6 7e3c 97bc b13c f1a5 933d
000002c0: 0a0c 143d d4ad 373c 5e2b 68bd bee4 793d
000002d0: b1af a7bc 1abb b4bb a66f 963d 9bd1 2abd
000002e0: eb3a 853d 8cec 40bd 91c6 473d 0329 90bd
000002f0: 5136 efbc 6ade 82bd 5f82 14bd b64f 94bd
00000300: 1b99 7abd ef38 053b b262 ee3c da5a 5cbd
00000310: 04ca dc3d ea42 923d f3a3 2abd e0f2 9a3d
00000320: 1b1d 703c 51fc 8bbd b644 203d 9d09 7d3d
00000330: 3a53 383c cfa7 8a3d e4fb 9c3c 4444 90bd
00000340: 6c8b 8fbb 2085 f1bd 0e3f 90bb 85ef 013c
00000350: 9b21 863d 453a 913d 55fd cbbc 2e2a 5cbd
00000360: b820 32bd a972 5c3d 5701 a13d 8a46 79bd
00000370: fb90 3ebd 2175 c53d 5071 88bc b276 993c
00000380: cddd 06be 75dc 10bd 3e1e 9abd 4023 743d
00000390: b6bc 8bbd 56f3 4ebd 0d44 b53d 0629 eebd
000003a0: bb5b 973d 7c05 92bc b8d8 fe3c dcb5 86bd
000003b0: 6cad 1d3c 336e 6bbc f85e 2abd d77c 1dbe
000003c0: 593d 663d 6200 223d b087 28bd 1030 d33b
000003d0: afee 1b3d 9307 113c 4110 cdbc e9c4 e73d
000003e0: b840 05bc a59f 9bbd 2e86 88bc 6078 a73d
000003f0: 4eb3 cc3c 3f0d ca3d dd64 66bd c447 1d3d

layer2.bias f4 [50]
-0.0074218777 0.0059473305 0.042477254 0.0004608911 0.02703126 0.0391617 0.025098698 -0.01702801
0.02362952 -0.016392611 -0.033547666 0.0027449862 0.033939034 -0.040399067 0.077027574 0.0070044296
0.05782398 0.006898215 -0.040798597 -0.057756297 0.018827634 -0.041311514 0.081234634 -0.0450561
0.041262932 -0.059031326 0.050099738 -0.039647233 -0.050066564 -0.042374127 0.014197008 -0.038744435
0.054882556 0.038497433 -0.057344444 -0.052268542 -0.020124575 -0.010344617 0.05242572 -0.028543593
-0.046407156 0.017056383 0.03666023 -0.017653823 -0.04908601 0.03340615 0.0419007 0.026175365
0.0313038 0.06766024
00000000: 3933 f3bb d3e1 c23b a1fc 2d3d c2a3 f139
00000010: a970 dd3c 0568 203d c99b cd3c 537e 8bbc
00000020: b292 c13c cc49 86bc 4769 09bd 3ae5 333b
00000030: a803 0b3d 7e79 25bd a2c0 9d3d 6a85 e53b
00000040: d6d8 6c3d 6c0a e23b 6e1c 27bd de91 6cbd
00000050: 693c 9a3c 4336 29bd 585e a63d bf8c 38bd
00000060: 5203 293d d5ca 71bd 6235 4d3d 2365 22bd
00000070: 9912 4dbd 7e90 2dbd 919a 683c 7cb2 1ebd
00000080: 88cc 603d 7caf 1d3d 02e2 6abd 8a17 56bd
00000090: 4bdc a4bc 787c 29bc 5abc 563d 41d4 e9bc
000000a0: 6e15 3ebd d4b9 8b3c 0a29 163d c09e 90bc
000000b0: 690e 49bd e3d4 083d 12a0 2b3d b86d d63c
000000c0: 6a38 003d 7491 8a3d

layer4.weight f4 [25, 50, 3, 3]
0.0056911097 -0.03713599 -0.016545724 -0.036231846 0.065778576 -0.062405776 0.10562324 0.1047078
-0.015620439 -0.03434546 0.023201289 0.024304949 -0.045816198 -0.029987214 -0.041762806 0.0014028939
-0.024618536 0.008588445 -0.042850196 0.049721684 0.010234489 -0.01320214 0.15131627 -0.078553624
0.023454733 0.021632541 0.0851627 0.0049201823 -0.0603707 -0.06193851 -0.036260244 -0.005890595
0.0013557224 -0.10748661 0.09519353 0.10641296 -0.026399923 0.012903459 -0.011598731 -0.07283915
-0.019346017 0.058353625 0.03787347 0.030892428 -0.014800995 -0.042683788 0.0005575984 -0.018515224
-0.015160022 -0.022011267 -0.034663655 -0.008736871 -0.008182982 -0.05325259 0.003501169 -0.088953994
0.013113464 0.05145957 -0.010710136 -0.0872757 0.06299694 0.02770844 -0.09756616 -0.006539611
-0.049576636 0.06017244 0.07095979 -0.058180824 -0.05732465 0.011431822 0.08945367 0.020647302
0.06101189 0.022195717 -0.012082386 -0.01528552 -0.03649185 -0.030656336 -0.05121002 -0.005771813
0.046136234 0.12840731 -0.061204128 0.08955212 0.045033462 0.005179995 0.0033539003 0.0009776724
-0.031578653 0.02633763 0.024178931 0.03378898 0.056149065 0.04960994 0.059867233 -0.07018716
-0.030316863 0.1274588 0.062262382 0.0063825045 -0.048638392 -0.08799046 -0.0028482697 -0.0803705
-0.022474356 -0.06477189 -0.03797379 0.011165066 0.0052406047 0.064854465 -0.03353972 -0.014448122
-0.027232395 -0.018152026 0.011434569 0.0350192 -0.09212526 0.0588231 0.013273949 -0.024707697
0.005028075 -0.041601043 0.023606664 0.039535254 -0.016006531 -0.017056512 -0.02965836 0.052557424
-0.111240305 -0.08868725 0.11947985 0.009378843 -0.008732557 0.035699002 0.039780345 -0.00708189
0.029940682 0.06715517 -0.000978869 -0.03200353 -0.033531047 0.025883293 -0.0022154618 -0.05003377
-0.0133155985 -0.12564135 0.019558776 0.008889844 0.09848682 0.085668735 0.07664182 0.026226223
-0.028615082 0.038550444 0.05194014 -0.027123831 0.054358665 0.011717152 -0.02948735 -0.04450066
-0.11558902 0.020285519 -0.103302896 0.037742734 -0.0783009 0.050116822 0.045501247 -0.035060484
-0.03134638 -0.0024732964 -0.019792268 -0.03013756 0.04130385 0.082388215 0.03237757 0.1117419
-0.017335009 -0.031341992 0.08002736 0.024317216 0.050062627 -0.02549719 -0.016505022 0.015660433
-0.038759097 0.04363564 -0.06895269 0.02016869 -0.045791492 0.02468691 0.048617832 -0.1265584
0.0115918815 -0.007177204 -0.046042398 0.010785322 0.084644996 0.0056047216 -0.1324191 0.094197854
-0.026378924 -0.17449807 0.034076475 -0.026344271 -0.048672512 -0.082244426 0.017958332 -0.0317882
0.04611531 -0.05362506 -0.0812087 -0.05902305 -0.015544468 -0.0597566 0.053666186 -0.009204857
0.02624275 -0.0654487 -0.05259847 -0.014563051 0.035330836 -0.082175426 -0.051602043 -0.054322448
0.048037466 -0.064316146 -0.07752671 -0.06411569 -0.02835179 -0.028717276 -0.03404087 0.018784266
0.021742243 0.09794424 0.022883087 -0.006544509 -0.024503851 -0.07296169 -0.04857212 -0.02428363
0.023369242 -0.043090492 0.047887716 0.00798005 -0.014767764 0.106427155 -0.10341064 -0.018217705
0.0061528785 0.07999953 0.004967589 -0.004304255 0.048144273 0.017473629 -0.015730903 -0.1211217
00000000: 7d7c ba3b e81b 18bd e68a 87bc d867 14bd
00000010: ebb6 863d 339d 7fbd ff50 d83d 0b71 d63d
00000020: dfec 7fbc d3ad 0cbd a110 be3c 2c1b c73c
00000030: c4a9 3bbd bfa7 f5bc 7a0f 2bbd 4fe1 b73a
00000040: d0ac c9bc 8db6 0c3c b083 2fbd f7a8 4b3d
00000050: 8fae 273c ca4d 58bc a7f2 1a3e b9e0 a0bd
00000060: 2424 c03c ba36 b13c c869 ae3d 7b39 a13b
00000070: 4447 77bd 3cb3 7dbd 9f85 14bd e405 c1bb
00000080: 7fb2 b13a f121 dcbd d3f4 c23d 0aef d93d
00000090: a744 d8bc 0869 533c 9b08 3ebc b12c 95bd
000000a0: 8a7b 9ebc 3604 6f3d 3621 1b3d 1e12 fd3c
000000b0: df7f 72bc 32d5 2ebd cc2b 123a 3dad 97bc
000000c0: be61 78bc f950 b4bc 7afb 0dbd 1825 0fbc
000000d0: ea11 06bc 631f 5abd de73 653b 832d b6bd
000000e0: dbd9 563c 45c7 523d 9179 2fbc 9abd b2bd
000000f0: 8a04 813d cffc e23c c4d0 c7bd 3c4a d6bb
00000100: df10 4bbd 6077 763d 5e53 913d 044f 6ebd
00000110: 41cd 6abd 894c 3b3c 7c33 b73d 8824 a93c
00000120: 9be7 793d cbd3 b53c 33f5 45bc 1e70 7abc
00000130: 7a78 15bd ff22 fbbc 99c1 51bd 7a21 bdbb
00000140: 59f9 3c3d 357d 033e 2eb1 7abd 1a67 b73d
00000150: 0275 383d f3bc a93b 1ccd 5b3b 3e25 803a
00000160: 9e58 01bd 03c2 d73c e512 c63c 5066 0a3d
00000170: 90fc 653d cb33 4b3d 5837 753d 49be 8fbd
00000180: 125b f8bc 8f84 023e d706 7f3d 5424 d13b
00000190: 0d39 47bd 5834 b4bd 09aa 3abb 4a99 a4bd
000001a0: 241c b8bc 20a7 84bd 688a 1bbd aeed 363c
000001b0: 61b9 ab3b 6bd2 843d f260 09bd d1b7 6cbc
000001c0: 7916 dfbc 8fb3 94bc 0f58 3b3c 4b70 0f3d
000001d0: 2bac bcbd 7ef0 703d fa7a 593c cc67 cabc
000001e0: 8dc2 a43b db65 2abd c362 c13c b8ef 213d
000001f0: 2120 83bc 19ba 8bbc 17f6 f2bc 7446 573d
00000200: f5d1 e3bd a9a1 b5bd dab1 f43d b8a9 193c
00000210: 0013 0fbc 1e39 123d b7f0 223d 330f e8bb
00000220: 2946 f53c a688 893d 654d 80ba 2216 03bd
00000230: da57 09bd 3309 d43c 4831 11bb 36f0 4cbd
00000240: ab29 5abc 20a8 00be ba39 a03c b5a6 113c
00000250: 75b3 c93d 1773 af3d 63f6 9c3d 60d8 d63c
00000260: 2d6a eabc 12e7 1d3d 2fbf 543d cc32 debc
00000270: 31a7 5e3d 4cf9 3f3c 748f f1bc 5346 36bd
00000280: f0b9 ecbd d12d a63c 7890 d3bd 2098 1a3d
00000290: 395c a0bd 4c47 4d3d 845f 3a3d 959b 0fbd
000002a0: 1065 00bd 0717 22bb 6523 a2bc 0be3 f6bc
000002b0: 3a2e 293d 27bb a83d 589e 043d f0d8 e43d
000002c0: 2602 8ebc 7660 00bd 62e5 a33d e634 c73c
000002d0: 780e 4d3d 7cdf d0bc 8a35 87bc 4f4a 803c
000002e0: dcc1 1ebd 49bb 323d 1137 8dbd cf38 a53c
000002f0: dc8f 3bbd 343c ca3c 7e23 473d 8698 01be
00000300: e0eb 3d3c c02e ebbb f496 3cbd ebb4 303c
00000310: 5b5a ad3d d0a7 b73b df98 07be ceea c03d
00000320: 9d18 d8bc 9faf 32be c693 0b3d f1cf d7bc
00000330: d45c 47bd c46f a8bd 5a1d 933c 5834 02bd
00000340: 68e3 3c3d f3a5 5bbd bf50 a6bd 27c2 71bd
00000350: 39ae 7ebc 56c3 74bd 13d1 5b3d f8cf 16bc
00000360: 09fb d63c f809 86bd 7e71 57bd dd99 6ebc
00000370: 11b7 103d 974b a8bd aa5c 53bd 3781 5ebd
00000380: efc2 443d 2fb8 83bd 53c6 9ebd 164f 83bd
00000390: 0342 e8bc 7e40 ebbc 706e 0bbd 76e1 993c
000003a0: ca1c b23c fd96 c83d 5075 bb3c 5273 d6bb
000003b0: 4dbc c8bc f06c 95bd 8ff3 46bd 77ee c6bc
000003c0: da70 bf3c a87f 30bd e925 443d c1be 023c
000003d0: 7ef4 71bc 7bf6 d93d f5c8 d3bd 4c3d 95bc
000003e0: 169e c93b cbd6 a33d 28c7 a23b b50a 8dbb
000003f0: ee32 453d db24 8f3c 18de 80bc a70e f8bd

layer4.bias f4 [25]
-0.003641346 -0.041548137 -0.03837057 -0.0042502196 0.009276316 0.019496467 0.03390826 0.0052292086
0.009191322 0.012111788 0.009646846 0.022629831 0.023384744 -0.02122709 -0.021958457 -0.026720181
-0.0025928926 -0.004502637 -0.017040221 -0.021807805 -0.0030100169 0.026706051 -0.055411283 0.0058651986
0.047528572
00000000: a6a3 6ebb 612e 2abd 752a 1dbd 6d45 8bbb
00000010: b0fb 173c 0eb7 9f3c 63e3 0a3d c859 ab3b
00000020: 3397 163c 8570 463c ce0d 1e3c 3262 b93c
00000030: 5d91 bf3c 6fe4 adbc 39e2 b3bc 48e4 dabc
00000040: 85ed 29bb db8a 93bb ef97 8bbc 48a6 b2bc
00000050: b443 45bb a6c6 da3c f1f6 62bd da30 c03b
00000060: 52ad 423d

exp_avg f4 [25, 1, 3, 3]
-1.025941e+06 -1.1075235e+06 -1.0971598e+06 -1.1678004e+06 -1.2336008e+06 -1.1869818e+06 -1.2006412e+06 -1.2438565e+06
-1.171653e+06 -174123.66 -238151.39 -265667.38 -140991.9 -217853.75 -255449.44 -80488.47
-159231.03 -202515.8 67887.59 -26678.32 -139485.27 184658.92 79279.914 -54535.797
269606.66 163314.66 17619.725 321852.75 168997.66 -11082.037 625384.1 429150.66
182269.25 892077.8 668887.0 376570.38 758164.7 612206.56 429208.56 627737.94
468833.06 283646.22 446576.47 288503.2 118939.945 83011.69 212204.7 337235.0
-77701.586 52063.242 187781.22 -250571.56 -128192.75 11744.344 460022.06 600296.75
693959.94 468295.06 609731.6 699081.44 424904.25 550058.5 631607.3 -340424.75
-191672.08 -21086.777 -317340.66 -188574.72 -44292.6 -253271.02 -159476.28 -53567.266
-1.1462721e+06 -1.0923692e+06 -977858.9 -1.3129815e+06 -1.2414682e+06 -1.0912415e+06 -1.4003912e+06 -1.3163675e+06
-1.1467596e+06 -343389.5 -388582.62 -386102.53 -354352.7 -409537.4 -410337.4 -332857.88
-394569.53 -401414.56 189801.03 66191.77 -36015.766 113462.914 -17436.797 -123150.17
29965.227 -100135.1 -198621.6 315646.75 320843.28 293781.03 226576.58 225599.39
194817.77 118274.45 109890.2 86037.67 55117.902 105700.516 166491.4 170412.77
221533.03 269676.88 284782.16 334173.5 369172.5 -142088.58 -64897.473 6369.1016
-253915.38 -163973.23 -69330.52 -348885.16 -255186.55 -146422.31 -303962.88 -188455.66
-70475.875 -422901.4 -293150.38 -150538.81 -500226.3 -365828.75 -211751.78 140557.47
102666.01 68826.24 183054.45 135558.5 89596.08 221994.39 166254.4 112877.99
-545521.6 -599794.4 -639634.06 -454639.5 -512963.62 -564692.1 -345561.1 -405489.84
-472003.16 733024.3 595147.75 423390.97 785922.5 639501.6 450963.75 787322.56
644927.5 459525.34 662742.5 686233.25 654586.94 629409.7 651265.3 613548.56
553777.4 571686.56 533629.5 305147.2 214115.05 114827.13 322223.62 224400.31
111637.89 298296.56 198238.1 87632.555 16088.859 44800.766 47467.35 55591.156
88691.74 92449.21 88536.5 120465.8 123706.97 220556.72 173863.53 92251.73
169525.1 121373.33 44390.984 94759.195 48261.633 -17940.32 -431869.5 -479631.53
-505594.56 -577585.25 -643247.44 -669708.1 -673491.2 -751651.44 -781170.6 299201.6
413434.53 502937.0 255003.56 394665.16 512696.2 171712.28 327509.22 466799.44
-204680.31 -429193.44 -609501.8 -298679.28 -544122.5 -732227.1 -363707.72 -608764.8
-787732.44
00000000: 5079 7ac9 1c32 87c9 3eee 85c9 c38d 8ec9
00000010: 0696 96c9 2ee5 90c9 0a90 92c9 84d6 97c9
00000020: 2806 8fc9 ea0a 2ac8 d991 68c8 6cb8 81c8
00000030: faaf 09c8 70bf 54c8 5c76 79c8 3c34 9dc7
00000040: c27f 1bc8 f3c4 45c8 cc97 8447 a46c d0c6
00000050: 5137 08c8 bb54 3448 f5d7 9a47 cc07 55c7
00000060: d5a4 8348 aa7c 1f48 73a7 8946 9827 9d48
00000070: 6a09 2548 2628 2dc6 82ae 1849 d58b d148
00000080: 50ff 3148 ddca 5949 704d 2349 4cdf b748
00000090: 4b19 3949 e976 1549 1293 d148 9f41 1949
000000a0: 22ec e448 c77f 8a48 0f0e da48 e6de 8c48
000000b0: f94d e847 d821 a247 2d3b 4f48 60aa a448
000000c0: cbc2 97c7 3e5f 4b47 4e61 3748 e4b2 74c8
000000d0: 6060 fac7 6081 3746 c29e e048 8c8e 1249
000000e0: 7f6c 2949 e2a8 e448 3adc 1449 97ac 2a49
000000f0: 0879 cf48 a84a 0649 7533 1a49 1839 a6c8
00000100: 052e 3bc8 8ebd a4c6 95f3 9ac8 ae27 38c8
00000110: 9a04 2dc7 c155 77c8 12bd 1bc8 443f 51c7
00000120: 01ed 8bc9 8a58 85c9 2ebc 6ec9 ac46 a0c9
00000130: e28b 97c9 4c35 85c9 3af2 aac9 7cb0 a0c9
00000140: 3dfc 8bc9 b0ab a7c8 d4bc bdc8 d186 bcc8
00000150: 1606 adc8 2df8 c7c8 2d5c c8c8 3c87 a2c8
00000160: 31a9 c0c8 d200 c4c8 425a 3948 e347 8147
00000170: c4af 0cc7 759b dd47 9839 88c6 1687 f0c7
00000180: 741a ea46 8d93 c3c7 66f7 41c8 d81f 9a48
00000190: 69a9 9c48 a172 8f48 2544 5d48 d94f 5c48
000001a0: 7140 3e48 3a01 e747 1aa1 d647 d60a a847
000001b0: e74d 5747 4272 ce47 da96 2248 316b 2648
000001c0: 4257 5848 9cad 8348 c50d 8b48 b02b a348
000001d0: 9042 b448 25c2 0ac8 7981 7dc7 d008 c745
000001e0: d8f6 77c8 4f21 20c8 4369 87c7 a55a aac8
000001f0: a334 79c8 94fd 0ec8 5c6b 94c8 ea09 38c8
00000200: f0a5 89c7 ad7e cec8 cc23 8fc8 b402 13c8
00000210: 4a40 f4c8 98a0 b2c8 f2c9 4ec8 5e43 0948
00000220: 0185 c847 1f6d 8647 9dc3 3248 a061 0448
00000230: 0afe ae47 99ca 5848 9a5b 2248 ff76 dc47
00000240: 1a2f 05c9 266f 12c9 2129 1cc9 f0fd ddc8
00000250: 7478 fac8 42dd 09c9 23bb a8c8 3bfe c5c8
00000260: 6578 e6c8 05f6 3249 bc4c 1149 dfbb ce48
00000270: 28e0 3f49 da20 1c49 7832 dc48 a937 4049
00000280: f873 1d49 ab60 e048 68cd 2149 9489 2749
00000290: afcf 1f49 1baa 1949 1500 1f49 c9ca 1549
000002a0: 1633 0749 6992 0b49 d847 0249 66ff 9448
000002b0: c318 5148 9145 e047 f455 9d48 1424 5b48
000002c0: f20a da47 12a7 9148 8697 4148 4728 ab47
000002d0: 7063 7b46 c400 2f47 5a6b 3947 2827 5947
000002e0: df39 ad47 9b90 b447 40ec ac47 e648 eb47
000002f0: 7c9d f147 2e63 5748 e2c9 2948 dd2d b447
00000300: 468d 2548 aa0e ed47 fc66 2d47 9913 b947
00000310: a285 3c47 a428 8cc6 b0df d2c8 f131 eac8
00000320: 52df f6c8 1403 0dc9 f70a 1dc9 c280 23c9
00000330: 336d 24c9 3782 37c9 2ab7 3ec9 3318 9248
00000340: 51df c948 2093 f548 e406 7948 25b5 c048
00000350: 0657 fa48 12b0 2748 a7ea 9f48 eeed e348
00000360: 14e2 47c8 2e91 d1c8 ddcd 14c9 e9d6 91c8
00000370: a8d7 04c9 32c4 32c9 7797 b1c8 cd9f 14c9
00000380: 4751 40c9

exp_avg_sq f4 [25, 1, 3, 3]
3.6425142e+10 4.299897e+10 4.4016816e+10 4.259964e+10 5.0495537e+10 5.1688874e+10 4.264425e+10 5.07591e+10
5.224286e+10 1.4184832e+09 1.4054276e+09 1.2707597e+09 8.7986976e+08 1.03205485e+09 1.1580768e+09 4.0062787e+08
6.743249e+08 1.01996883e+09 7.3557396e+09 7.802494e+09 7.852322e+09 8.702077e+09 8.4894915e+09 7.6588805e+09
9.465627e+09 8.817512e+09 7.2662467e+09 1.0111865e+10 6.399707e+09 3.9631383e+09 1.6864324e+10 1.0679341e+10
5.578881e+09 2.3106542e+10 1.5168588e+10 7.7232486e+09 3.0860442e+10 2.718269e+10 2.0770392e+10 2.8941212e+10
2.5140197e+10 1.9010892e+10 2.3505019e+10 2.0184304e+10 1.5220688e+10 4.8200303e+10 6.3811076e+10 7.4239164e+10
4.1412534e+10 5.555078e+10 6.6071757e+10 3.2256131e+10 4.298734e+10 5.185721e+10 1.0852867e+09 2.3764145e+09
4.335411e+09 1.1827332e+09 2.4582126e+09 4.305856e+09 1.0820205e+09 1.9977527e+09 3.386346e+09 5.769252e+10
4.688341e+10 3.2729135e+10 6.8613906e+10 5.8469052e+10 4.314056e+10 7.133811e+10 6.3642698e+10 4.955132e+10
9.941186e+10 9.838666e+10 8.64515e+10 1.0593485e+11 1.0653543e+11 9.5198716e+10 1.0146458e+11 1.0372192e+11
9.4532215e+10 2.8183407e+10 3.0850402e+10 2.838868e+10 2.5872116e+10 2.9315869e+10 2.7823012e+10 2.0298918e+10
2.394748e+10 2.3602833e+10 2.812037e+09 4.496975e+09 6.704052e+09 3.730314e+09 6.0465925e+09 8.563409e+09
4.7681326e+09 7.35204e+09 9.700212e+09 5.3767137e+09 6.978994e+09 7.857441e+09 4.1838723e+09 5.80021e+09
6.929822e+09 2.8062633e+09 4.2349778e+09 5.4470154e+09 3.844463e+10 4.114067e+10 4.018679e+10 3.484917e+10
3.8816784e+10 3.9556407e+10 2.8870416e+10 3.3600709e+10 3.584212e+10 6.7203924e+10 7.638754e+10 7.773004e+10
7.314271e+10 8.442577e+10 8.695109e+10 7.122448e+10 8.325836e+10 8.674961e+10 1.5695925e+10 1.7110943e+10
1.7036534e+10 1.4766793e+10 1.5542095e+10 1.5156716e+10 1.2670786e+10 1.2830899e+10 1.2203239e+10 2.0107047e+10
1.8278961e+10 1.4579982e+10 1.9683232e+10 1.7440027e+10 1.346827e+10 1.7315471e+10 1.4905313e+10 1.1121172e+10
1.373555e+10 1.7282564e+10 1.9975162e+10 8.849491e+09 1.2108897e+10 1.5208118e+10 4.88267e+09 7.4445476e+09
1.0456187e+10 1.8667272e+10 1.616801e+10 1.2692484e+10 1.8310537e+10 1.5815436e+10 1.2303928e+10 1.547006e+10
1.3348172e+10 1.0348123e+10 4.402994e+10 4.6731215e+10 4.520164e+10 3.749197e+10 4.0726745e+10 4.042596e+10
2.8504558e+10 3.1833051e+10 3.2647313e+10 6.8482913e+09 8.376744e+09 9.332967e+09 8.535561e+09 1.0200947e+10
1.107167e+10 9.35701e+09 1.0969623e+10 1.1631082e+10 3.975535e+09 4.7795215e+09 5.072677e+09 4.234682e+09
5.1685304e+09 5.550996e+09 4.1037192e+09 5.0749153e+09 5.5003546e+09 3.6654787e+09 2.6517747e+09 1.6702239e+09
5.721824e+09 4.499421e+09 3.125451e+09 7.4728177e+09 6.255896e+09 4.647957e+09 5.1472544e+10 5.851883e+10
5.8663027e+10 5.3939122e+10 6.247001e+10 6.3549362e+10 4.985263e+10 5.887425e+10 6.0935516e+10 2.228845e+10
2.3140356e+10 2.104706e+10 1.8809487e+10 2.0216926e+10 1.9142547e+10 1.2948028e+10 1.4552728e+10 1.4532879e+10
1.5259794e+10 1.9479495e+10 2.2642104e+10 1.6039105e+10 2.1071196e+10 2.4923466e+10 1.489215e+10 1.9910578e+10
2.3789474e+10
00000000: b9b1 0751 032f 2051 b5f9 2351 2fb2 1e51
00000010: 4c1c 3c51 5a8e 4051 badc 1e51 a617 3d51
00000020: ac9e 4251 ac18 a94e 3f8a a74e 827c 974e
00000030: fdc6 514e a10f 764e b30d 8a4e c508 bf4d
00000040: 87c5 204e f52d 734e d737 db4f 4e88 e84f
00000050: 7604 ea4f caab 0150 ae01 fd4f 9f40 e44f
00000060: 800c 0d50 2464 0350 108d d84f b4ad 1650
00000070: e4b9 be4f b138 6c4f 4a4c 7b50 7422 1f50
00000080: 7c43 a64f 3b28 ac50 9207 6250 b62b e64f
00000090: 9fed e550 de86 ca50 61c0 9a50 fba0 d750
000000a0: 1f4f bb50 66a4 8d50 4420 af50 8162 9650
000000b0: 51ce 6250 648f 3351 fcb6 6d51 fe47 8a51
000000c0: 1246 1a51 5af1 4e51 f022 7651 b053 f050
000000d0: ec23 2051 e42e 4151 5260 814e 35a5 0d4f
000000e0: 9034 814f 27fe 8c4e 5985 124f 1353 804f
000000f0: a5fc 804e 9326 ee4e 8ad7 494f e0eb 5651
00000100: 81a7 2e51 dfd9 f350 529b 7f51 6fd0 5951
00000110: 0bb6 2051 a9e0 8451 6816 6d51 d297 3851
00000120: 452b b951 6a42 b751 4a07 a151 ac51 c551
00000130: 0d70 c651 4952 b151 15fe bc51 7732 c151
00000140: 7914 b051 95fb d150 79da e550 1c83 d350
00000150: 25c3 c050 956b da50 2f4c cf50 1d3d 9750
00000160: 316c b250 d5da af50 489c 274f 3205 864f
00000170: dccb c74f 1358 5e4f d733 b44f a035 ff4f
00000180: f719 8e4f 9d1b db4f 5f8b 1050 123d a04f
00000190: 80fd cf4f 842b ea4f d360 794f 17dc ac4f
000001a0: 5986 ce4f 2e44 274f a26c 7c4f 6e55 a24f
000001b0: a837 0f51 cd42 1951 1cb5 1551 c2d2 0151
000001c0: 929a 1051 ee5b 1351 f319 d750 4458 fa50
000001d0: b685 0551 a85a 7a51 6b48 8e51 92c8 9051
000001e0: 293d 8851 5841 9d51 83f5 a151 7baa 8451
000001f0: ae14 9b51 7095 a151 34e3 6950 11f9 7e50
00000200: 38dd 7d50 d80a 5c50 6398 6750 48da 6150
00000210: 36cf 3c50 ff31 3f50 aad7 3550 26cf 9550
00000220: 5a30 8850 3842 5950 c9a6 9250 36f0 8150
00000230: 5fb1 4850 a402 8150 421b 5e50 e8b7 2550
00000240: f7ac 4c50 e0c3 8050 99d3 9450 21de 0350
00000250: c76f 3450 5e9e 6250 d183 914f 64dd dd4f
00000260: 30cf 1b50 ff14 8b50 10ec 7050 fc21 3d50
00000270: 946c 8850 1aab 6b50 c357 3750 9885 6650
00000280: 3ce7 4650 f532 1a50 3906 2451 5c16 2e51
00000290: a563 2851 21ab 0b51 0db8 1751 3399 1651
000002a0: 2160 d450 ba2c ed50 cf3d f350 5118 cc4f
000002b0: 7ca5 f94f 7212 0b50 2a61 fe4f 8601 1850
000002c0: 12fb 2450 296e 0b50 ca75 2350 0f51 2d50
000002d0: daf5 6c4f db70 8e4f 742d 974f 1f68 7c4f
000002e0: c208 9a4f bd6e a54f c999 744f 883e 974f
000002f0: 60ec a34f c47a 5a4f df0e 1e4f 301b c74e
00000300: 0e86 aa4f dc17 864f 994a 3a4f 13b5 de4f
00000310: b370 ba4f 1985 8a4f 0bc0 3f51 e8ff 5951
00000320: 6c89 5a51 5bf0 4851 0bb8 6851 65bd 6c51
00000330: 2cb7 3951 dc52 5b51 a300 6351 d80f a650
00000340: ba68 ac50 15d0 9c50 4024 8c50 baa0 9650
00000350: 839f 8e50 cff0 4050 40da 5850 898e 5850
00000360: 7f63 6350 3022 9150 63b2 a850 5400 6f50
00000370: 1efe 9c50 bdb1 b950 0be9 5d50 6a58 9450
00000380: d23e b150

exp_avg f4 [25]
1.6027228e+06 168696.89 -336541.12 -615613.56 -489536.4 -1.0219343e+06 -1.1588412e+06 -154060.81
327236.12 424947.5 -1.2960732e+06 -1.2316485e+06 -323518.97 2.298393e+06 1.2992012e+06 1.1223375e+06
-1.37611e+06 -2.092033e+06 -995916.7 -791166.6 -849369.6 1.4011288e+06 1.5209405e+06 1.1683261e+06
979679.06
00000000: 16a5 c349 39be 2448 a453 a4c8 d94b 16c9
00000010: 0d08 efc8 e57e 79c9 ca75 8dc9 3473 16c8
00000020: 84c8 9f48 707e cf48 4a36 9ec9 0459 96c9
00000030: dff7 9dc8 6448 0c4a 0a98 9e49 0c01 8949
00000040: 70fb a7c9 0860 ffc9 cb24 73c9 ea27 41c9
00000050: 9a5d 4fc9 4609 ab49 64a9 b949 319e 8e49
00000060: f12d 6f49

exp_avg_sq f4 [25]
1.6781806e+10 7.454909e+08 1.5480101e+10 6.6347116e+09 3.1987003e+09 2.3242195e+10 1.0987409e+10 2.9217147e+10
4.694825e+10 6.714291e+08 1.2703338e+10 9.079426e+09 5.6829747e+10 6.0693856e+10 1.1300464e+10 1.4177845e+10
5.86304e+10 4.080617e+10 4.7485567e+10 7.5177836e+09 7.255563e+09 1.132558e+10 1.5011052e+10 7.3096177e+09
1.3814965e+10
00000000: 8211 7a50 27bd 314e e6ab 6650 d5ba c54f
00000010: 4ba8 3e4f f82a ad50 a4b9 2350 49af d950
00000020: 57e5 2e51 c814 204e 644b 3d50 434b 0750
00000030: 12b5 5351 2c1a 6251 d963 2850 3044 5350
00000040: 4e6a 5a51 cc03 1851 c4e5 3051 230c e04f
00000050: 8d3b d84f a9c3 2850 9eae 5f50 f5d7 d94f
00000060: e9db 4d50

exp_avg f4 [50, 25, 3, 3]
-32783.74 -103190.664 -168370.81 2198.3906 -66685.62 -133624.81 41139.43 -21084.049
-84603.57 32924.156 30863.94 12026.008 41926.957 39009.11 17553.863 46613.75
43608.44 21288.03 -38271.18 -71259.17 -78936.58 -48540.71 -79138.1 -85424.164
-45491.82 -72101.76 -75717.43 26325.465 85025.22 135847.03 7657.789 65330.33
117325.38 -22092.607 30328.629 79584.53 82686.59 89799.516 62517.29 103409.14
112175.09 84361.375 107909.7 118646.836 92252.91 87033.84 133258.31 159457.19
73773.625 122618.06 152487.39 48918.21 96953.984 128396.25 16640.623 30203.043
33417.37 16216.875 28752.975 30383.49 14523.771 25479.697 25038.268 50571.7
70242.51 74075.56 53571.457 74175.41 78691.31 46585.547 67196.16 72040.23
-69118.85 -101506.664 -124801.03 -52880.684 -89670.55 -118197.36 -32364.76 -70726.695
-102297.17 -123118.64 -217499.92 -286403.3 -81381.914 -178025.12 -252622.66 -26201.676
-118222.195 -193099.53 -21538.512 -11869.623 25370.861 -60130.246 -47036.543 -3829.4043
-83463.41 -69082.29 -23014.74 -121451.44 -146077.22 -129543.25 -148417.77 -176192.84
-160856.34 -152845.47 -182817.22 -169798.08 89800.21 140909.66 169190.23 79560.87
134720.05 167526.33 56063.94 111459.39 146052.9 3846.462 -17164.92 -59938.63
31525.0 5984.4766 -43670.008 56473.883 29240.031 -24088.922 -64379.36 -111697.42
-155752.45 -21789.516 -72301.24 -122837.26 20139.693 -29368.652 -82809.77 -68220.42
-127441.83 -180332.25 -36540.996 -97642.52 -155083.9 3004.775 -54888.31 -112879.22
-61966.336 -63536.36 -49170.92 -76667.17 -81784.88 -69394.234 -79166.24 -87813.16
-78315.24 31719.697 101202.97 188418.84 -46287.168 25446.738 121281.68 -112828.24
-45427.94 52212.9 87157.61 156715.69 200221.1 65928.52 135106.47 180545.52
34830.62 98759.375 142083.9 36956.87 107521.97 192215.4 -28999.988 43761.023
136664.47 -89483.09 -21145.895 72874.28 -139774.66 -141855.58 -96755.75 -177336.72
-184787.52 -142274.69 -189684.11 -203515.42 -166921.77 11456.895 386.54102 -32719.854
50353.688 38170.812 951.0156 74227.93 62517.57 23547.764 65242.875 56302.867
16019.475 100779.984 92416.33 50269.016 121915.78 115980.57 74931.09 -20025.357
-69300.18 -113142.48 -1188.9531 -49376.92 -94691.96 22284.09 -21039.373 -64103.98
49455.414 66067.99 56645.254 83399.58 100246.766 89741.69 97684.33 114431.48
103072.17 96188.63 168691.94 231057.56 95043.9 166323.34 227929.89 90536.375
155603.31 211933.19 -1611.9121 19941.516 31370.908 4337.328 28632.758 41780.273
9318.689 34389.895 47975.836 -80401.7 -65917.39 -33568.418 -96855.23 -82296.86
-48461.164 -103718.04 -90497.72 -56762.914 -31723.375 -92517.6 -152821.89 -30445.848
00000000: bd0f 00c7 558b c9c7 b46c 24c8 4066 0945
00000010: cf3e 82c7 347e 02c8 6eb3 2047 19b8 a4c6
00000020: c93d a5c7 289c 0047 e11f f146 08e8 3b46
00000030: f5c6 2347 1c61 1847 ba23 8946 c015 3647
00000040: 7158 2a47 0f50 a646 2e7f 15c7 962d 8bc7
00000050: 4a2c 9ac7 b69c 3dc7 0d91 9ac7 15d8 a6c7
00000060: d2b3 31c7 e1d2 8cc7 b7e2 93c7 eeaa cd46
00000070: 9c10 a647 c2a9 0448 504e ef45 5432 7f47
00000080: b126 e547 3799 acc6 42f1 ec46 4470 9b47
00000090: 4c7f a147 c263 af47 4a35 7447 92f8 c947
000000a0: 8c17 db47 b0c4 a447 dac2 d247 6bbb e747
000000b0: 742e b447 ecfc a947 9422 0248 4cb8 1b48
000000c0: d016 9047 087d ef47 d9e9 1448 3616 3f47
000000d0: fe5c bd47 20c6 fa47 3f01 8246 16f6 eb46
000000e0: 5f89 0247 8063 7d46 f3a1 e046 fb5e ed46
000000f0: 16ef 6246 650f c746 899c c346 b38b 4547
00000100: 4131 8947 c8ad 9047 7543 5147 b4df 9047
00000110: a8b1 9947 8cf9 3547 143e 8347 1db4 8c47
00000120: 6dff 86c7 5541 c6c7 84c0 f3c7 af90 4ec7
00000130: 4623 afc7 aeda e6c7 85d9 fcc6 5923 8ac7
00000140: 96cc c7c7 5277 f0c7 fb66 54c8 6ad8 8bc8
00000150: f5f2 9ec7 48da 2dc8 aab3 76c8 5ab3 ccc6
00000160: 19e7 e6c7 e292 3cc8 0645 a8c6 7e76 39c6
00000170: b935 c646 3fe2 6ac7 8bbc 37c7 7856 6fc5
00000180: b403 a3c7 25ed 86c7 7bcd b3c6 b835 edc7
00000190: 4ea7 0ec8 a003 fdc7 71f0 10c8 3610 2cc8
000001a0: 1616 1dc8 5e43 15c8 4e88 32c8 85d1 25c8
000001b0: 1b64 af47 6a9b 0948 8f39 2548 6f64 9b47
000001c0: 0390 0348 9599 2348 f1ff 5a47 b2b1 d947
000001d0: 3aa1 0e48 6467 7045 d719 86c6 a122 6ac7
000001e0: 004a f646 d003 bb45 0296 2ac7 e299 5c47
000001f0: 1070 e446 d831 bcc6 5c7b 7bc7 b628 dac7
00000200: 1d1a 18c8 083b aac6 9f36 8dc7 a1ea efc7
00000210: 6357 9d46 4e71 e5c6 e3bc a1c7 363e 85c7
00000220: eae8 f8c7 101b 30c8 ffbc 0ec7 43b5 bec7
00000230: fa72 17c8 66cc 3b45 4f68 56c7 9c77 dcc7
00000240: 560e 72c7 5c30 78c7 ec12 40c7 96bd 95c7
00000250: 71bc 9fc7 1e89 87c7 1f9f 9ac7 9482 abc7
00000260: 9ff5 98c7 65cf f746 7ca9 c547 b600 3848
00000270: 2bcf 34c7 7acd c646 d7e0 ec47 1f5e dcc7
00000280: f173 31c7 e6f4 4b47 ce3a aa47 ec0a 1948
00000290: 4687 4348 43c4 8047 9ef0 0348 6150 3048
000002a0: 9f0e 0847 b0e3 c047 fac0 0a48 df5c 1047
000002b0: fc00 d247 dab5 3b48 fa8f e2c6 06f1 2a47
000002c0: 1e76 0548 8cc5 aec7 ca33 a5c6 2455 8e47
000002d0: aa7f 08c8 e587 0ac8 e0f9 bcc7 2e2e 2dc8
000002e0: e174 34c8 acf0 0ac8 073d 39c8 dbbe 46c8
000002f0: 7102 23c8 9403 3346 4045 c143 b59f ffc6
00000300: b0b1 4447 d01a 1547 00c1 6d44 f7f9 9047
00000310: 9235 7447 87f7 b746 e0da 7e47 deee 5b47
00000320: e64d 7a46 fed5 c447 2a80 b447 045d 4447
00000330: e41d ee47 4986 e247 8c59 9247 b772 9cc6
00000340: 175a 87c7 3dfb dcc7 809e 94c4 ece0 40c7
00000350: fbf1 b8c7 2e18 ae46 bf5e a4c6 fb67 7ac7
00000360: 6a2f 4147 ff09 8147 4145 5d47 cae3 a247
00000370: 62cb c347 d846 af47 2aca be47 bd7f df47
00000380: 1650 c947 51de bb47 fcbc 2448 64a4 6148
00000390: f3a1 b947 d66c 2248 7996 5e48 30d4 b047
000003a0: d4f4 1748 4cf7 4e48 307d c9c4 08cb 9b46
000003b0: d115 f546 a08a 8745 84b1 df46 4634 2347
000003c0: c29a 1146 e555 0647 d667 3b47 da08 9dc7
000003d0: b2be 80c7 6b20 03c7 9d2b bdc7 6ebc a0c7
000003e0: 2a4d 3dc7 0593 cac7 dcc0 b0c7 eaba 5dc7
000003f0: c0d6 f7c6 cdb2 b4c7 793d 15c8 b2db edc6

exp_avg_sq f4 [50, 25, 3, 3]
1.4676525e+09 1.8127265e+09 2.1668196e+09 1.5467991e+09 1.8050153e+09 2.0605243e+09 1.4985837e+09 1.6510415e+09
1.776556e+09 2.0693626e+07 1.7226652e+07 1.5290807e+07 3.4490428e+07 3.3461628e+07 3.2482418e+07 5.405074e+07
5.6469948e+07 5.497118e+07 2.981992e+07 6.6007412e+07 9.862664e+07 1.9200614e+07 5.009695e+07 7.9118776e+07
1.1392427e+07 2.9166892e+07 4.79067e+07 7.1791194e+08 9.517921e+08 1.217254e+09 7.7777766e+08 9.795379e+08
1.2010075e+09 7.627292e+08 9.043391e+08 1.0451765e+09 2.1555371e+08 1.9406616e+08 1.4128598e+08 2.9746486e+08
2.80096e+08 2.1213045e+08 3.6246723e+08 3.545123e+08 2.8075325e+08 5.9302854e+08 7.724295e+08 8.830826e+08
5.730336e+08 7.323965e+08 8.401188e+08 4.9038355e+08 6.0386643e+08 6.872151e+08 1.6062832e+07 2.8148642e+07
3.748393e+07 1.0517632e+07 1.9083106e+07 2.5326372e+07 6.439103e+06 1.1155586e+07 1.391318e+07 1.3852774e+08
1.5093006e+08 1.4039856e+08 1.4722965e+08 1.56617e+08 1.4285283e+08 1.3177905e+08 1.3679629e+08 1.2215665e+08
4.5027216e+08 5.676586e+08 6.364749e+08 4.852194e+08 5.946643e+08 6.651488e+08 4.8191504e+08 5.615641e+08
6.1620045e+08 2.8512788e+09 3.467774e+09 3.9020564e+09 2.8665144e+09 3.3224876e+09 3.6451835e+09 2.6316278e+09
2.870021e+09 3.020199e+09 6.6144403e+08 6.178115e+08 5.754402e+08 9.274984e+08 8.346828e+08 7.275747e+08
1.1995713e+09 1.05861075e+09 8.80948e+08 2.9965072e+08 3.2583616e+08 2.6396573e+08 3.8369328e+08 4.315448e+08
3.697988e+08 4.3050032e+08 4.9865962e+08 4.4924992e+08 7.100713e+08 9.531467e+08 1.1265123e+09 7.6624506e+08
1.0056753e+09 1.182667e+09 7.337753e+08 9.281792e+08 1.074504e+09 6.055598e+08 6.298945e+08 6.754086e+08
8.822898e+08 8.7795616e+08 8.7974566e+08 1.1590621e+09 1.107632e+09 1.03652243e+09 1.4985114e+09 1.5520733e+09
1.5300113e+09 1.6293738e+09 1.5838077e+09 1.4887969e+09 1.6797204e+09 1.5358228e+09 1.3583543e+09 1.3442044e+09
1.6461463e+09 1.9064671e+09 1.406594e+09 1.6289887e+09 1.8267343e+09 1.3609263e+09 1.4670177e+09 1.5561265e+09
1.4589866e+08 1.3380293e+08 1.0011317e+08 1.7837251e+08 1.7557002e+08 1.3956963e+08 1.8396267e+08 1.950481e+08
1.6650219e+08 3.0764882e+09 3.3187715e+09 3.5455557e+09 3.4668308e+09 3.4729894e+09 3.4757683e+09 3.7602593e+09
3.5374103e+09 3.275416e+09 1.0973033e+09 1.412062e+09 1.6493166e+09 1.0157734e+09 1.2629066e+09 1.4565864e+09
8.359095e+08 9.965732e+08 1.1225431e+09 2.8199624e+09 3.199964e+09 3.5847296e+09 3.1787484e+09 3.3647311e+09
3.562036e+09 3.4108321e+09 3.3774505e+09 3.317486e+09 7.177291e+08 6.8490304e+08 5.52946e+08 9.259841e+08
9.216867e+08 7.572758e+08 1.05704806e+09 1.1010422e+09 9.427667e+08 3.50749e+08 3.5421763e+08 3.595952e+08
4.2107712e+08 3.880224e+08 3.569418e+08 5.0163274e+08 4.3578912e+08 3.6599267e+08 5.323238e+08 4.924393e+08
4.3984458e+08 7.335781e+08 6.736506e+08 5.69604e+08 9.2117536e+08 8.52558e+08 7.0545606e+08 7.732896e+08
8.793752e+08 9.9425734e+08 8.590192e+08 9.313024e+08 9.9898406e+08 8.614908e+08 8.989768e+08 9.107316e+08
1.480837e+08 1.0765111e+08 6.5246532e+07 2.164683e+08 1.6935469e+08 1.15689416e+08 2.8869405e+08 2.3769075e+08
1.7480006e+08 5.09912e+09 6.2700063e+09 6.834997e+09 4.4128005e+09 5.552294e+09 6.1914926e+09 3.3647526e+09
4.3389727e+09 4.9672817e+09 3.223432e+08 4.4596912e+08 5.318322e+08 4.1005014e+08 5.617675e+08 6.6176205e+08
4.565573e+08 6.1552294e+08 7.160822e+08 1.3477916e+09 1.0930792e+09 7.911051e+08 1.7016307e+09 1.3946473e+09
1.01317075e+09 1.9004113e+09 1.5841562e+09 1.1664607e+09 1.7945061e+09 2.4683346e+09 2.9572319e+09 1.5516536e+09
00000000: 33f5 ae4e 0618 d84e 0b27 014f 9064 b84e
00000010: b22c d74e 36a2 f54e 25a5 b24e cad1 c44e
00000020: 30c8 d34e 3de1 9d4b ce6d 834b b751 694b
00000030: 0f92 034c be4a ff4b 39d2 f74b ed2f 4e4c
00000040: 6f6a 574c cbb2 514c 0882 e34b 5dcc 7b4c
00000050: 8a1d bc4c 337d 924b ce1a 3f4c 37e8 964c
00000060: abd5 2d4b 9686 de4b e3bf 364c de29 2b4e
00000070: c8ec 624e a51b 914e c86f 394e 408a 694e
00000080: d72b 8f4e 4cd9 354e 7a9c 574e 8330 794e
00000090: 6b91 4d4d 6f13 394d a6bd 064d a1d7 8d4d
000000a0: 688f 854d a94d 4a4d 7dd6 ac4d 6d0b a94d
000000b0: a3df 854d 9763 0d4e 5b29 384e 168b 524e
000000c0: 329f 084e ef9d 2e4e c84c 484e 46d5 e94d
000000d0: 15f9 0f4e 48d8 234e 7019 754b d1c1 d64b
000000e0: 66fd 0e4c 807c 204b b197 914b 9239 c14b
000000f0: 7e81 c44a 8238 2a4b 5c4c 544b 401c 044d
00000100: 29f0 0f4d fee4 054d bd68 0c4d 925c 154d
00000110: 2e3c 084d 3d59 fb4c 8875 024d cdfe e84c
00000120: ddb4 d64d 2257 074e 58bf 174e e25e e74d
00000130: 6ec7 0d4e 7695 1e4e 85cb e54d 27e3 054e
00000140: e4e9 124e 10f3 294f 08b2 4e4f a894 684f
00000150: 8adb 2a4f 2309 464f 1645 594f 74db 1c4f
00000160: 0c11 2b4f 9404 344f 57b3 1d4e 394c 134e
00000170: 1532 094e 0222 5d4e ff00 474e a377 2d4e
00000180: 0300 8f4e 7964 7c4e cc08 524e 75e2 8e4d
00000190: ec5e 9b4d c2bc 7b4d 8ff5 b64d cfc6 cd4d
000001a0: 7455 b04d 4f47 cd4d 89c7 ed4d 1438 d64d
000001b0: 504b 294e 753f 634e 6d4a 864e e3af 364e
000001c0: 8dc5 6f4e 22fc 8c4e 17f2 2e4e 904b 5d4e
000001d0: 4217 804e 7060 104e b62d 164e ab07 214e
000001e0: b25a 524e 3152 514e 6abf 514e c52b 8a4e
000001f0: 3f0a 844e 4f20 774e f0a2 b24e 8505 b94e
00000200: 3d64 b64e 8b3c c24e facd bc4e 7a7a b14e
00000210: 003d c84e 9815 b74e afed a14e dd3d a04e
00000220: 663c c44e c244 e34e d8ad a74e ca30 c24e
00000230: 82c3 d94e 2d3c a24e d4e1 ae4e 3681 b94e
00000240: ca23 0b4d 7635 ff4c 62f3 be4c fa1b 2a4d
00000250: c66f 274d 9e1a 054d c370 2f4d 2a03 3a4d
00000260: f3c9 1e4d 7c5f 374f 6fd0 454f e354 534f
00000270: a4a3 4e4f 9d01 4f4f 042c 4f4f 0121 604f
00000280: 99d8 524f e23a 434f 0acf 824e b654 a84e
00000290: 269d c44e e32d 724e da8c 964e 7da3 ad4e
000002a0: de4b 474e 009a 6d4e 4cd1 854e 3615 284f
000002b0: 93bb 3e4f a2aa 554f da77 3d4f b98d 484f
000002c0: 5b50 544f 2b4d 4b4f ce4f 494f d2bc 454f
000002d0: b51e 2b4e 2a4b 234e 25d5 034e 96c5 5c4e
000002e0: 4bbf 5b4e 728c 344e 1805 7c4e 2441 834e
000002f0: eac5 604e 0a40 a74d 75e7 a84d e677 ab4d
00000300: 04c9 c84d 0406 b94d ff33 aa4d 7732 ef4d
00000310: eacc cf4d d784 ae4d efd4 fd4d 38d0 ea4d
00000320: f7bb d14d 0ee6 2e4e 5f9c 204e decd 074e
00000330: 15a0 5b4e 0344 4b4e 9f31 284e da5d 384e
00000340: cea8 514e a70c 6d4e 5fce 4c4e 300a 5e4e
00000350: 262d 6e4e 3a65 4d4e 3055 564e a522 594e
00000360: 3f39 0d4d 0554 cd4c 51e5 784c b570 4e4d
00000370: 5c82 214d f9a8 dc4c f9a8 894d f8ad 624d
00000380: ccb3 264d 33f7 974f 5adc ba4f e4b2 cb4f
00000390: ff82 834f a478 a54f 5785 b84f 0d8e 484f
000003a0: bc4f 814f 5a09 944f 89b4 994d 97a7 d44d
000003b0: ec98 fd4d f386 c34d 91ef 054e c0c6 1d4e
000003c0: 18b4 d94d 8ac0 124e 30ba 2a4e 56ab a04e
000003d0: 214e 824e 399d 3c4e a6d9 ca4e 4241 a64e
000003e0: 098f 714e f38b e24e 9cd8 bc4e 8e0d 8b4e
000003f0: fbeb d54e cc1f 134f c743 304f b6f8 b84e

exp_avg f4 [50]
444376.75 204930.75 92701.57 -836882.5 381561.06 154915.22 -460912.94 347687.06
592991.25 334734.94 1.1660211e+06 -569344.25 21540.078 397698.12 -460163.44 376201.62
-154704.98 -387823.78 -338327.47 238256.69 108382.91 330332.44 -225288.1 -622749.5
459657.6 544313.0 -764486.4 -122704.69 -471800.56 425685.72 843474.0 578363.56
113760.92 54963.453 570788.6 495260.88 161015.77 -246238.31 184953.48 -561491.6
-63458.688 241459.72 184050.12 217965.2 -145474.61 568339.0 813333.1 -119818.91
140355.11 -213455.36
00000000: 18fb d848 b020 4848 c90e b547 2851 4cc9
00000010: 224f ba48 ce48 1748 1e0e e1c8 e2c4 a948
00000020: f4c5 1049 de71 a348 2956 8e49 0400 0bc9
00000030: 2848 a846 4430 c248 6eb0 e0c8 34b1 b748
00000040: 3f14 17c8 f95d bdc8 ef32 a5c8 2cac 6848
00000050: 74af d347 8e4b a148 0602 5cc8 d809 18c9
00000060: 3371 e048 90e3 0449 66a4 3ac9 58a8 efc7
00000070: 125f e6c8 b7da cf48 20ed 4d49 b933 0d49
00000080: 7630 de47 74b3 5647 4a5a 0b49 9cd3 f148
00000090: f13d 1d48 9477 70c8 5f9e 3448 3a15 09c9
000000a0: b0e2 77c7 eecc 6b48 88bc 3348 4ddb 5448
000000b0: a710 0ec8 30c1 0a49 5291 4649 7405 eac7
000000c0: c710 0948 d773 50c8

exp_avg_sq f4 [50]
1.963041e+09 1.6813647e+10 2.3499917e+09 3.009952e+09 1.9114955e+10 6.6837286e+08 1.2285536e+09 1.2316591e+09
4.6305444e+09 5.4796426e+09 5.7547244e+09 1.7674062e+10 1.8523755e+08 2.5368297e+10 4.080628e+09 1.0707168e+10
2.3229694e+08 6.3294157e+09 2.151501e+09 1.0596276e+09 2.142174e+10 1.1238558e+10 6.024393e+08 2.944514e+09
4.1985085e+10 6.910119e+09 2.6187978e+09 2.8292346e+08 3.7466125e+09 1.0693711e+11 1.0088016e+10 1.562855e+10
2.8448723e+10 1.5583441e+09 1.711157e+10 2.214504e+10 1.5061376e+10 2.964767e+08 4.7391493e+09 3.9406564e+09
7.3468954e+08 2.3901012e+09 2.202408e+09 2.4911665e+09 5.4891354e+08 1.6723073e+09 3.399127e+09 3.84373e+09
9.733527e+08 2.0154212e+09
00000000: 4203 ea4e f98a 7a50 0712 0c4f 3968 334f
00000010: e26a 8e50 3e5a 1f4e 7b74 924e 41d3 924e
00000020: 4000 8a4f 5b4e a34f 1081 ab4f 99ae 8350
00000030: 03a8 304d 3002 bd50 7139 734f 9b8c 1f50
00000040: 1f89 5d4d 9ca1 bc4f 4d3d 004f 89a2 7c4e
00000050: ba9a 9f50 b277 2750 faa1 0f4e b881 2f4f
00000060: 1968 1c51 06f0 cd4f af17 1c4f 8ee8 864d
00000070: c550 5f4f 962f c751 ba52 1650 30e2 6850
00000080: a2f5 d350 e3c4 b94e 76fb 7e50 50fe a450
00000090: 976e 6050 015f 8d4d d73c 8d4f a5e1 6a4f
000000a0: e429 2f4e 0d76 0e4f 1446 034f 2f7c 144f
000000b0: 06df 024e c55a c74e 909a 4a4f aa1a 654f
000000c0: bc10 684e c641 f04e
