models/probabilistic_training/100/sigma0.01_step0.0002_lr0.0005/ckpt/model_epoch_800.pth (torch, 282369 bytes, 18 tensors)

layer1.weight f4 [25, 1, 3, 3]
-0.05835261 0.0050594644 0.18464077 0.07564596 0.11640378 0.07978629 -0.020548688 -0.050722457
-0.06298709 -0.12729281 0.03852999 0.07900863 0.078716725 -0.17046636 -0.17652914 0.15048324
0.06833605 -0.045292374 -0.023814637 -0.040496357 0.20918874 0.022925546 0.2228095 -0.0044853934
0.04934372 0.16480619 0.004141112 -0.09287992 -0.04081081 -0.20755798 -0.14333507 -0.004262514
0.054702424 -0.031587973 -0.0018789369 0.0668962 0.109726034 0.017238492 0.054007582 -0.09547792
-0.008276635 -0.041130755 0.02541794 0.15107736 0.13504675 -0.08029303 0.038719323 -0.10058474
0.07541428 0.07035882 0.038235124 0.0854083 0.118945606 0.07965449 -0.009263505 0.21534239
-0.022508992 0.0063112746 0.07993147 -0.10489662 0.20201659 0.09460838 -0.00928323 0.03164826
0.06952249 -0.027888415 0.06118099 -0.04791192 0.03394018 -0.018050913 0.12589623 -0.010178744
0.19331276 -0.068250805 0.03759755 0.2492044 0.17999537 0.18055393 -0.031090083 -0.09054577
0.24168971 -0.13016577 -0.014013024 -0.094922535 0.08869496 0.05831554 -0.12768829 0.12697549
0.0097425785 0.10026579 -0.11259741 0.15870468 0.03108848 -0.10474979 -0.11974024 -0.09357694
0.037866518 0.11516498 0.038381208 0.07075965 0.11416789 -0.038727082 0.073736995 0.10315517
0.044369895 -0.03792114 0.08293694 0.07008309 0.11520069 -0.0027089252 0.026084999 0.0341793
0.12079419 -0.16385627 -0.023185223 0.03962354 0.026283417 0.036776647 0.08824433 0.011193073
-0.09450469 0.04353073 0.09805041 0.035385 0.033171635 -0.05394316 -0.026367165 -0.08657875
0.043685425 0.08776476 0.08343655 -0.09309026 0.08489459 0.016863346 0.010926007 0.09081027
-0.0010043355 0.050863143 0.01661742 -0.040906493 -0.033280924 -0.07104313 0.041036054 0.10202427
0.13465847 0.07546638 -0.027978 -0.0133494865 -0.036661312 0.13008696 0.0097707035 -0.1310505
-0.07220436 -0.07970543 -0.0029723144 0.052896917 0.13492483 -0.102160245 0.049676113 0.018063284
-0.078850366 -0.08001475 0.0123479 -0.08533924 -0.027963707 -0.05151193 0.037557717 0.12400646
0.016272305 -0.029142912 0.039402675 -0.04366107 -0.0393895 -0.027610304 -0.19544686 -0.048842374
-0.041280407 -0.09943442 -0.12252646 -0.15132584 0.042591628 -0.0088237 -0.07416558 0.046164952
-0.030002736 0.12838055 -0.04537241 0.031608984 0.08055932 0.0919432 -0.08858504 0.027699277
0.083591186 -0.016451847 0.016014697 -0.009007879 -0.13815664 0.05994648 0.061067954 0.015902333
0.08852252 0.10692894 -0.022523783 -0.024307095 -0.0766894 0.09568655 0.13749366 -0.06993214
0.025189018 -0.08196421 0.110887565 0.0033992839 -0.10392332 -0.048445843 0.05428639 0.18475564
-0.056947537 0.031915016 -0.16175894 0.059717152 -0.060728293 -0.1328092 -0.10884028 -0.07893163
0.11960062
00000000: 2503 6fbd ddc9 a53b 7812 3d3e 45ec 9a3d
00000010: 1b65 ee3d ff66 a33d b955 a8bc 5ac2 4fbd
00000020: 60ff 80bd 0c59 02be 9fd1 1d3d 47cf a13d
00000030: 3c36 a13d bc8e 2ebe 0ec4 34be 4718 1a3e
00000040: c5f3 8b3d 7f84 39bd ea16 c3bc 82df 25bd
00000050: 9335 563e 5bce bb3c 2c28 643e 35fa 92bb
00000060: a41c 4a3d f4c2 283e 2ab2 873b d437 bebd
00000070: 3c29 27bd 148a 54be 6ec6 12be 8fac 8bbb
00000080: a60f 603d 6462 01bd a946 f6ba e000 893d
00000090: 0bb8 e03d bd37 8d3c 0e37 5d3d ed89 c3bd
000000a0: b99a 07bc b978 28bd 4939 d03c 06b4 1a3e
000000b0: b249 0a3e ac70 a4bd 2798 1e3d 5fff cdbd
000000c0: cd72 9a3d 4918 903d 6f9c 1c3d 8cea ae3d
000000d0: c199 f33d e521 a33d f5c5 17bc b782 5c3e
000000e0: c764 b8bc cfce ce3b 1cb3 a33d 0ad4 d6bd
000000f0: 70dd 4e3e 0ac2 c13d b018 18bc 9ba1 013d
00000100: cf61 8e3d 3f76 e4bc eb98 7a3d 4a3f 44bd
00000110: dc04 0b3d 82df 93bc f1ea 003e bfc4 26bc
00000120: c8f3 453e 14c7 8bbd e3ff 193d 702f 7f3e
00000130: b550 383e 21e3 383e a1b0 febc 1070 b9bd
00000140: 827d 773e 2d4a 05be e296 65bc bf66 c2bd
00000150: b4a5 b53d 47dc 6e3d b8c0 02be dd05 023e
00000160: 569f 1f3c 2758 cd3d 7999 e6bd 7b83 223e
00000170: 45ad fe3c 0f87 d6bd 5f3a f5bd 44a5 bfbd
00000180: ec19 1b3d 9edb eb3d 9d35 1d3d 6fea 903d
00000190: dbd0 e93d 4aa0 1ebd 6c03 973d 0543 d33d
000001a0: 35bd 353d 3353 1bbd d8da a93d b987 8f3d
000001b0: 57ee eb3d 3988 31bb 35b0 d53c 98ff 0b3d
000001c0: f262 f73d f0c9 27be f0ee bdbc 4b4c 223d
000001d0: 5250 d73c 1ca3 163d 71b9 b43d 2763 373c
000001e0: ad8b c1bd 474d 323d a7ce c83d ddef 103d
000001f0: fbde 073d 81f3 5cbd f4ff d7bc 3350 b1bd
00000200: 7def 323d 03be b33d c8e0 aa3d 1ba6 bebd
00000210: 37dd ad3d 0025 8a3c ff02 333c bcfa b93d
00000220: e8a3 83ba df55 503d 4121 883c 918d 27bd
00000230: 9451 08bd 0f7f 91bd 6c15 283d 1af2 d03d
00000240: e9e3 093e 1e8e 9a3d 1e32 e5bc ceb7 5abc
00000250: 2c2a 16bd 8435 053e 4d15 203c 1a32 06be
00000260: e1df 93bd 9a3c a3bd 29cb 42bb 70aa 583d
00000270: bc29 0a3e 6439 d1bd 2e79 4b3d 74f9 933c
00000280: 4d7c a1bd c6de a3bd d94e 4a3c 57c6 aebd
00000290: 2514 e5bc 2cfe 52bd 1fd6 193d 19f7 fd3d
000002a0: 7f4d 853c 1ebd eebc b364 213d f3d5 32bd
000002b0: e256 21bd 012f e2bc 3923 48be f10e 48bd
000002c0: a515 29bd 46a4 cbbd 27ef fabd 29f5 1abe
000002d0: 8f74 2e3d 4891 10bc 20e4 97bd 7617 3d3d
000002e0: 4cc8 f5bc 3176 033e 6cd8 39bd 6c78 013d
000002f0: 49fc a43d b74c bc3d 136c b5bd 98e9 e23c
00000300: db31 ab3d 06c6 86bc 4131 833c c895 13bc
00000310: ef78 0dbe 718a 753d 6422 7a3d 9c45 823c
00000320: 4c4b b53d 8ffd da3d cc83 b8bc ac1f c7bc
00000330: 550f 9dbd 4ff7 c33d 23cb 0c3e 9538 8fbd
00000340: 3359 ce3c dadc a7bd 0519 e33d 85c6 5e3b
00000350: c0d5 d4bd 266f 46bd 685b 5e3d 9530 3d3e
00000360: d241 69bd 52b9 023d 23a4 25be f999 743d
00000370: 3bbe 78bd 23ff 07be a7e7 debd e8a6 a1bd
00000380: 2bf1 f43d

layer1.bias f4 [25]
-0.2299494 0.08360273 -0.012607582 0.15780836 0.21302055 0.0767731 0.19868739 0.20916092
0.1604033 -0.04997112 0.15182024 -0.17569804 0.24970572 0.13322146 0.31337884 0.17403156
0.08700608 0.19000462 0.2633809 -0.3014939 0.08792035 0.27816498 -0.008512618 -0.28682205
-0.3048583
00000000: db77 6bbe e837 ab3d 0890 4ebc 8498 213e
00000010: 0f22 5a3e 373b 9d3d b574 4b3e 482e 563e
00000020: c340 243e 84ae 4cbd c476 1b3e 30ea 33be
00000030: dbb2 7f3e 356b 083e 3173 a03e 5435 323e
00000040: 3e30 b23d 9290 423e dcd9 863e 695d 9abe
00000050: 960f b43d a46b 8e3e 8278 0bbc 57da 92be
00000060: 6316 9cbe

layer2.weight f4 [50, 25, 3, 3]
-0.05350245 -0.02920218 0.010483938 0.015370263 -0.015357564 0.015880339 0.07327421 -0.042538926
0.026923764 0.059987687 -0.011642074 0.04551303 -0.02021726 0.019205742 0.05743438 0.016639447
-0.022443658 -0.012447177 -0.1485137 -0.054843538 0.08486361 -0.14946929 0.023441682 0.0478826
0.04849872 0.00040760313 -0.0036212315 -0.098185346 -0.015740622 -0.06408663 0.044592995 -0.019353779
-0.018393878 -0.0106719965 0.007425411 -0.091460705 -0.04002494 0.081237465 -0.05408282 0.027746135
0.045042496 -0.11231075 0.03230304 0.05758169 0.048342418 -0.0069477004 0.0100461515 -0.07851323
-0.049854282 -0.004876355 0.022500716 0.008590575 0.09355751 0.010287142 0.062695086 -0.030591764
0.011601513 0.0584852 -0.028349338 0.009238491 0.009185664 -0.031846013 -0.008234628 -0.041925956
0.0030666841 0.09243389 -0.020686306 0.005475685 -0.09277754 -0.0899503 0.066560246 -0.036144264
-0.018040476 -0.083953425 -0.051198915 -0.05294734 -0.0010122631 0.07893726 0.017033612 -0.004283111
-0.11949501 0.054892696 -0.05095728 0.004669402 -0.060843673 -0.08252749 -0.052784402 0.014221412
0.031961773 -0.03445839 0.051843084 0.053632915 -0.06777382 -0.07144578 -0.07271003 -0.0013916054
-0.008079621 -0.005764663 0.03620149 -0.05611412 0.057335045 0.026040293 0.046828255 0.08895131
0.02425296 -0.0037805918 0.018686432 0.042357836 0.04628328 0.06751172 0.037100397 0.008705635
-0.0066893096 -0.08314534 0.018915137 -0.02746134 0.03953212 0.01870609 0.005424892 0.042938184
-0.023024531 0.054123204 0.029065127 -0.010882229 0.037739784 0.072741896 -0.0653621 0.031334974
-0.0074263145 0.052821722 -0.08342833 0.07363293 -0.048750184 0.05176295 0.10436763 -0.015498147
-0.010264205 -0.06578947 -0.029797826 -0.037060626 -0.011389326 0.0111511955 -0.057152253 0.05095872
0.057392675 -0.015128822 0.021308834 -0.03988823 0.08677971 0.07019983 0.043339964 0.090962544
0.032472484 -0.0062994473 0.003481328 -0.044546317 0.016917773 0.006078574 0.09978293 0.050118323
-0.048376944 -0.00064558873 0.030502612 -0.057198964 -0.15858176 -0.08958347 0.0142269675 -0.025068829
0.11273147 -0.13166271 0.018595263 0.0842677 -0.059673835 -0.04662442 0.0016126123 0.012934262
-0.11572062 0.13653435 0.015786491 -0.040795017 -0.04209755 -0.057298522 0.018248346 -0.026615234
-0.014677943 0.12905654 -0.0089244405 0.09314867 -0.05985951 0.02386457 0.048406854 -0.024022013
0.030495226 0.042569574 0.11572398 -0.032094225 -0.07103245 -0.023609381 0.10516908 -0.103785425
-0.019352714 -0.06490129 0.0060419883 0.00089371105 -0.016115654 -0.0029678186 0.03144179 -0.017832892
-0.007915661 -0.078969404 0.07045706 0.035458088 0.031399596 -0.040208675 0.029326169 -0.08663626
0.004620011 0.10276457 0.0354822 -0.038829587 -0.03527003 -0.07279731 0.022649195 -0.010484324
-0.021291848 -0.04329419 0.027089803 -0.061692756 0.119578384 0.046873353 0.1026142 -0.052837037
0.07934041 -0.015808273 -0.024916118 -0.012488493 0.06139504 0.05012716 0.013795627 0.06389915
-0.0034528153 -0.04772469 -0.0026709638 -0.016350718 0.09931554 -0.0808035 0.12510052 0.07205939
0.032135017 0.032125965 0.019454619 -0.0013899268 0.0113937985 -0.0066178376 -0.065222815 0.028059913
00000000: 6325 5bbd 6939 efbc d3c4 2b3c 8ed3 7b3c
00000010: 4b9e 7bbc 7c17 823c ca10 963d 4c3d 2ebd
00000020: 3a8f dc3c a6b5 753d 66be 3ebc df6b 3a3d
00000030: ab9e a5bc 5c55 9d3c 5040 6b3d 734f 883c
00000040: c3db b7bc 3fef 4bbc fa13 18be 9ea3 60bd
00000050: f9cc ad3d 7a0e 19be c508 c03c 8c20 443d
00000060: 98a6 463d 91b3 d539 2f52 6dbb 6615 c9bd
00000070: 7af2 80bc da3f 83bd 25a7 363d d18b 9ebc
00000080: c2ae 96bc 99d9 2ebc dd50 f33b c04f bbbd
00000090: 31f1 23bd d45f a63d f285 5dbd dd4b e33c
000000a0: 7b7e 383d 2e03 e6bd 3150 043d c7da 6b3d
000000b0: b302 463d 89a9 e3bb 9d98 243c 8bcb a0bd
000000c0: 0134 4cbd d5c9 9fbb 6c53 b83c 7cbf 0c3c
000000d0: 149b bf3d 678b 283c 4866 803d 949b fabc
000000e0: 4614 3e3c 2d8e 6f3d df3c e8bc 0a5d 173c
000000f0: 787f 163c f770 02bd 88ea 06bc 8dba 2bbd
00000100: 6cfa 483b fb4d bd3d 5476 a9bc 606d b33b
00000110: 2702 bebd dd37 b8bd bd50 883d 020c 14bd
00000120: 9fc9 93bc c6ef abbd f4b5 51bd 4fdf 58bd
00000130: eaad 84ba dca9 a13d 138a 8b3c 5759 8cbb
00000140: cdb9 f4bd 2ad7 603d 95b8 50bd c801 993b
00000150: 3737 79bd 2c04 a9bd 7534 58bd ed00 693c
00000160: 59ea 023d 3e24 0dbd 6a59 543d 30ae 5b3d
00000170: 00cd 8abd 2a52 92bd ffe8 94bd 8766 b6ba
00000180: 6360 04bc 80e5 bcbb 0348 143d ebd7 65bd
00000190: 27d8 6a3d 7452 d53c fcce 3f3d 1b2c b63d
000001a0: 25ae c63c cec3 77bb 4a14 993c 697f 2d3d
000001b0: 8993 3d3d 9643 8a3d 96f6 173d 14a2 0e3c
000001c0: ff31 dbbb 1b48 aabd ebf3 9a3c 9bf6 e0bc
000001d0: 6fec 213d 843d 993c 4bc3 b13b f3df 2f3d
000001e0: f19d bcbc 4bb0 5d3d fd19 ee3c 604b 32bc
000001f0: 0895 1a3d b4f9 943d 91dc 85bd 1a59 003d
00000200: 7158 f3bb 975b 583d 79dc aabd ddcc 963d
00000210: 46ae 47bd 6305 543d b2be d53d f1eb 7dbc
00000220: 322b 28bc a1bc 86bd 921a f4bc e2cc 17bd
00000230: 4c9a 3abc 81b3 363c 7b18 6abd 17ba 503d
00000240: 9514 6b3d e1de 77bc dd8f ae3c d761 23bd
00000250: 90b9 b13d eec4 8f3d 3f85 313d 924a ba3d
00000260: de01 053d 986b cebb fe26 643b 3376 36bd
00000270: 2497 8a3c c62e c73b fe5a cc3d df48 4d3d
00000280: e726 46bd ba3c 29ba 9de0 f93c 7649 6abd
00000290: 4263 22be 8a77 b7bd 3a18 693c 255d cdbc
000002a0: c2df e63d 97d2 06be 1855 983c 8b94 ac3d
000002b0: 8d6c 74bd 3ff9 3ebd 4a5e d33a 3aea 533c
000002c0: effe ecbd a9cf 0b3e ac52 813c ad18 27bd
000002d0: 7b6e 2cbd dbb1 6abd 8e7d 953c 3108 dabc
000002e0: c17b 70bc 6627 043e d137 12bc bbc4 be3d
000002f0: 3f2f 75bd a17f c33c 4446 463d d0c9 c4bc
00000300: 20d1 f93c 6f5d 2e3d b200 ed3d 3c75 03bd
00000310: 7679 91bd 7668 c1bc e362 d73d 748d d4bd
00000320: 9589 9ebc f8ea 84bd dffb c53b ef47 6a3a
00000330: fa04 84bc bc7f 42bb 1bc9 003d 4916 92bc
00000340: b0b0 01bc b6ba a1bd cb4b 903d 803c 113d
00000350: dd9c 003d dab1 24bd 6f3d f03c 5a6e b1bd
00000360: 7663 973b 3b76 d23d c955 113d c60b 1fbd
00000370: 4f77 10bd c216 95bd ce8a b93c 71c6 2bbc
00000380: 3e6c aebc 4055 31bd 6feb dd3c 8bb1 7cbd
00000390: 83e5 f43d 46fe 3f3d 6527 d23d a66b 58bd
000003a0: 3a7d a23d 5a80 81bc e31c ccbc 899c 4cbc
000003b0: 5e79 7b3d 2352 4d3d 0e07 623c 8fdd 823d
000003c0: a148 62bb f77a 43bd 560b 2fbb f1f1 85bc
000003d0: f265 cb3d 4e7c a5bd 5a1a 003e e093 933d
000003e0: 02a0 033d 8496 033d 4b5f 9f3c 342e b6ba
000003f0: 0ead 3a3c 72da d8bb 8a93 85bd e7dd e53c

layer2.bias f4 [50]
-0.061459392 -0.06650981 -0.06717212 0.0028402084 -0.028205745 -0.0078300545 0.034857947 0.07375491
0.037366346 -0.0140619865 -0.027489489 0.040249627 0.0043650735 -0.0335175 -0.02884827 0.023509987
-0.05035097 0.023962902 0.04140875 0.061186433 -0.0002747781 -0.03794762 0.015033118 0.009071877
0.06423466 -0.05042967 0.055747997 -0.03565092 0.027070206 -0.009555232 -0.034649286 -0.02172968
0.022452211 -0.05860169 -0.00981674 -0.045851834 0.0144046135 0.044653412 0.038697004 -0.061803646
-0.06936513 -0.012071051 -0.013404906 0.062662296 -0.050278407 0.029956702 0.00630999 -0.01467804
0.055247113 -0.01426946
00000000: d8bc 7bbd 4c36 88bd 8991 89bd ca22 3a3b
00000010: bc0f e7bc a149 00bc 35c7 0e3d d00c 973d
00000020: 740d 193d 3f64 66bc a331 e1bc cbdc 243d
00000030: e408 8f3b a549 09bd 3553 ecbc 0498 c03c
00000040: d23c 4ebd d94d c43c 399c 293d a09e 7a3d
00000050: 1810 90b9 f76e 1bbd 784d 763c 36a2 143c
00000060: 768d 833d 578f 4ebd 0358 643d b306 12bd
00000070: 56c2 dd3c 8c8d 1cbc 69ec 0dbd 7102 b2bc
00000080: b3ed b73c 5308 70bd 64d6 20bc 22cf 3bbd
00000090: 5401 6c3c 7fe6 363d c080 1e3d d225 7dbd
000000a0: 4e0f 8ebd a8c5 45bc 40a0 5bbc 1755 803d
000000b0: bbf0 4dbd c267 f53c 08c4 ce3b 297c 70bc
000000c0: cc4a 623d 74ca 69bc

layer4.weight f4 [25, 50, 3, 3]
0.04299716 0.0798465 0.007976516 -0.048249673 0.04697023 -0.022897031 0.061970316 -0.0009859471
-0.034952275 0.046195626 0.038460143 0.024951024 -0.06180883 0.025431367 0.0077373316 0.017215898
0.10054883 0.018433882 -0.027815366 0.04354874 0.06676688 -0.058172792 -0.065798834 0.09410872
0.069136605 -0.065685764 -0.098602206 0.013193459 0.040312972 -0.10895991 0.091819085 0.065577395
0.03523577 0.041451886 0.01255149 0.15394981 -0.029283658 0.0773829 -0.07614293 -0.0636619
-0.03700409 -0.004359411 0.057962764 -0.12658602 -0.08074689 0.051431824 -0.01701893 -0.0038241935
0.0040539377 0.10917961 -0.055382177 0.021421518 0.043730196 0.023309246 0.07061388 0.05810138
-0.0616379 -0.017009776 -0.084243946 -0.047303833 -0.023296392 -0.08004976 0.008481149 0.093542136
0.015832303 -0.11635016 -0.15166184 -0.018897388 0.066057764 0.0031616318 -0.0049469816 -0.073183894
-0.014305899 0.017548256 0.044415638 0.06940276 -0.024315132 0.025687244 -0.042765517 0.031345665
0.025567746 -0.021299735 0.022384109 0.055366334 -0.0035926136 0.009202644 0.06674105 0.010765515
-0.058505453 -0.034789406 -0.011149577 0.022845797 0.03407942 -0.05232432 -0.0019349265 0.011983978
-0.04271919 -0.04509532 0.16184142 -0.01583426 0.09537294 -0.009980259 0.041602533 0.034985445
-0.015640058 -0.016566064 0.06513448 0.039466955 -0.059505574 -0.004855259 -0.0065628616 0.010926365
0.11790114 -0.07922262 0.048974577 0.009830396 0.025118798 -0.038328458 -0.054639578 -0.075824656
0.0047566122 0.0014583766 -0.0029872763 -0.050602593 -0.018844781 -0.0061724796 -0.06773813 -0.03198025
0.037452776 0.023048198 0.04492534 0.09757626 -0.051637556 0.010568343 0.06122056 -0.017326102
0.060468435 0.036237773 0.072376296 0.009661945 -0.04198735 0.00635452 -0.038089614 0.027721165
-0.048600107 0.042844128 -0.06878681 0.060889643 -0.009798875 -0.041372202 -0.074941136 -0.07500648
-0.0195673 -0.007510704 -0.08005384 -0.007699598 -0.05897932 0.0057751713 -0.021115335 -0.09140622
0.058258057 -0.07050895 -0.06299877 0.031488653 0.001657732 -0.033211596 -0.017006427 0.08284363
0.07807537 0.036196686 -0.045773342 0.07446526 0.027903335 -0.0010135494 -0.0072304225 0.041578922
0.07615816 0.037450936 0.012883889 -0.0031305454 -0.06935268 0.0021443358 0.03437356 0.045026008
0.027474083 -0.02357166 0.10403983 -0.005809268 -0.091878995 0.0456076 0.04239941 -0.114779666
-0.04865521 -0.039898727 -0.024086174 -0.06656268 0.014298943 0.100693256 -0.10956414 -0.04021832
-0.024258848 -0.04609272 -0.072358884 0.037884284 0.06919873 -0.057698578 0.011547289 -0.007066016
0.06603636 -0.017293531 -0.12399064 0.079580545 -0.020149393 -0.042192567 -0.0097819045 0.09075804
-0.045813154 -0.06645637 0.04129036 0.024882067 -0.0043093967 0.014777382 0.02987208 0.10368172
0.10707664 0.0053811446 -0.006727049 -0.06334464 0.05891087 -0.028623778 -0.06408154 -0.025452774
0.0009820188 0.041356716 0.14044769 -0.038823046 -0.003701644 0.05868435 -0.07936795 -0.0016963041
0.037120417 -0.027312936 -0.058772583 -0.038063582 -0.04945187 0.06587625 0.007487993 0.028512243
-0.084734745 0.022884216 -0.09249852 0.011181898 -0.03885573 -0.06300484 -0.073452055 -0.018630225
00000000: ca1d 303d 9086 a33d efaf 023c 73a1 45bd
00000010: db63 403d 8e92 bbbc 96d4 7d3d e53a 81ba
00000020: 1e2a 0fbd a037 3d3d 6288 1d3d 1766 cc3c
00000030: 412b 7dbd 7155 d03c 7189 fd3b 5b08 8d3c
00000040: 8cec cd3d a702 973c 0ddd e3bc 2a60 323d
00000050: 13bd 883d 9846 6ebd 8ac1 86bd 13bc c03d
00000060: 7e97 8d3d 4286 86bd f4ef c9bd 6129 583c
00000070: 371f 253d 6026 dfbd a50b bc3d 714d 863d
00000080: 6253 103d 74c9 293d c4a4 4d3c 05a5 1d3e
00000090: 48e4 efbc ed7a 9e3d d3f0 9bbd 2c61 82bd
000000a0: 9a91 17bd 64d9 8ebb 5d6a 6d3d c49f 01be
000000b0: a05e a5bd 2daa 523d 486b 8bbc 529f 7abb
000000c0: e5d6 843b 8f99 df3d 6cd8 62bd 2e7c af3c
000000d0: 6f1e 333d 08f3 be3c 039e 903d b6fb 6d3d
000000e0: 0678 7cbd 1658 8bbc 1788 acbd aac1 41bd
000000f0: 13d8 bebc 21f1 a3bd 84f4 0a3c 0593 bf3d
00000100: bfb2 813c fe48 eebd 3e4d 1bbe b2ce 9abc
00000110: 4b49 873d 6133 4f3b 4a1a a2bb 70e1 95bd
00000120: 4a63 6abc 5cc1 8f3c 2ced 353d 0923 8e3d
00000130: 8730 c7bc 0e6e d23c e52a 2fbd 5064 003d
00000140: 7373 d13c c87c aebc e15e b73c cfc7 623d
00000150: 0e72 6bbb b0c6 163c 88af 883d d861 303c
00000160: 6aa3 6fbd 567f 0ebd b7ac 36bc 1c27 bb3c
00000170: dd96 0b3d 0752 56bd 5c9d fdba 7258 443c
00000180: 51fa 2ebd dfb5 38bd c2b9 253e dab6 81bc
00000190: e352 c33d 3e84 23bc 6b67 2a3d e64c 0f3d
000001a0: 941f 80bc 8eb5 87bc 3a65 853d 1aa8 213d
000001b0: 1ebc 73bd dd18 9fbb 460d d7bb 7f04 333c
000001c0: 2776 f13d 783f a2bd 9199 483d ab0f 213c
000001d0: f0c5 cd3c 4dfe 1cbd c0cd 5fbd f549 9bbd
000001e0: 5bdd 9b3b 0027 bf3a 2ec6 43bb aa44 4fbd
000001f0: 5f60 9abc 8342 cabb 4aba 8abd b9fd 02bd
00000200: 1568 193d 93cf bc3c a203 383d 10d6 c73d
00000210: e781 53bd d826 2d3c 69c2 7a3d 78ef 8dbc
00000220: c0ad 773d 0f6e 143d 063a 943d 224d 1e3c
00000230: edfa 2bbd 9439 d03b db03 1cbd 7f17 e33c
00000240: e810 47bd 537d 2f3d 19e0 8cbd 6b67 793d
00000250: 768b 20bc e675 29bd bd7a 99bd ff9c 99bd
00000260: 9a4b a0bc 5a1c f6bb 45f3 a3bd e94c fcbb
00000270: 4d94 71bd a63d bd3b 11fa acbc 2f33 bbbd
00000280: 00a0 6e3d ff66 90bd 8005 81bd 3ffa 003d
00000290: 4148 d93a e208 08bd 1051 8bbc eca9 a93d
000002a0: fbe5 9f3d fa42 143d d47c 3bbd 3e81 983d
000002b0: 8995 e43c 13d9 84ba 2eed ecbb a94e 2a3d
000002c0: cff8 9b3d 2766 193d f216 533c d629 4dbb
000002d0: c708 8ebd fc87 0c3b 4acb 0c3d 316d 383d
000002e0: 5411 e13c 5b19 c1bc d612 d53d ac5b bebb
000002f0: 0e2b bcbd 09cf 3a3d 01ab 2d3d 9a11 ebbd
00000300: af4a 47bd d96c 23bd 5e50 c5bc 0452 88bd
00000310: 1d46 6a3c 4438 ce3d 2a63 e0bd f7bb 24bd
00000320: 7eba c6bc b8cb 3cbd e530 94bd 8d2c 1b3d
00000330: 10b8 8d3d 5855 6cbd d730 3d3c 0a8a e7bb
00000340: 123e 873d 2aab 8dbc ceee fdbd 20fb a23d
00000350: 5710 a5bc 1dd2 2cbd 4844 20bc 5adf b93d
00000360: 93a6 3bbd 471a 88bd 1520 293d 7ad5 cb3c
00000370: d735 8dbb d51c 723c 4bb6 f43c 1557 d43d
00000380: ff4a db3d 5054 b03b 946e dcbb d6ba 81bd
00000390: 864c 713d 6a7c eabc 2f3d 83bd 5682 d0bc
000003a0: 15b7 803a a965 293d 85d1 0f3e ea04 1fbd
000003b0: 4897 72bb 005f 703d aa8b a2bd 8556 deba
000003c0: 940b 183d 61bf dfbc 85bb 70bd 8fe8 1bbd
000003d0: 0b8e 4abd 21ea 863d d75d f53b 8292 e93c
000003e0: 6989 adbd ae77 bb3c dd6f bdbd 4834 373c
000003f0: 3027 1fbd ae08 81bd 086e 96bd 6a9e 98bc

layer4.bias f4 [25]
-0.026856206 -0.04273011 -0.015065825 -0.03255343 -0.032571245 -0.0322488 -0.04281539 -0.026755633
-0.019269971 -0.024269661 0.03099975 -0.040674508 -0.005584923 -0.0033589792 0.018766748 0.014854525
-0.05143472 0.045508917 -0.031188734 -0.021897832 0.012029765 0.03665029 -0.03190179 -0.007508501
0.031007925
00000000: 8c01 dcbc c505 2fbd a6d6 76bc bf56 05bd
00000010: 6d69 05bd 5117 04bd 315f 2fbd a12e dbbc
00000020: 0fdc 9dbc 2bd1 c6bc 30f3 fd3c 509a 26bd
00000030: bb01 b7bb 5222 5cbb b9bc 993c 6560 733c
00000040: 37ad 52bd 8f67 3a3d 847f ffbc 1563 b3bc
00000050: 7e18 453c 9d1e 163d 74ab 02bd df09 f6bb
00000060: 5504 fe3c

exp_avg f4 [25, 1, 3, 3]
-25543.244 -30583.6 -23191.424 -33282.496 -39146.22 -31633.834 -31311.121 -38118.195
-30928.389 19973.086 25776.371 23880.758 29488.486 35115.32 32810.0 31522.174
36883.043 34626.316 -64542.8 -71550.39 -66347.02 -56437.773 -65635.66 -64234.504
-37758.453 -48269.746 -50370.72 67854.695 68808.96 53724.836 73457.234 74754.39
59473.4 64963.1 65481.285 51351.93 -48831.08 -51973.547 -45977.688 -50388.47
-56419.242 -52334.27 -42827.18 -50825.094 -49280.51 -61660.89 -79186.11 -81602.69
-76673.57 -95972.19 -98134.41 -75354.41 -93773.67 -95835.46 -34545.5 -42311.68
-41212.4 -47662.387 -60801.75 -62653.164 -51769.59 -68794.76 -74092.05 -28174.734
-38891.562 -39365.742 -37292.9 -46116.477 -43232.133 -42094.43 -47493.613 -41669.5
-58532.5 -60810.36 -49427.93 -67543.516 -65356.043 -48893.47 -66071.625 -60437.195
-40505.74 3109.226 -9622.96 -14088.871 -14638.414 -31279.852 -37403.43 -24235.457
-43090.734 -49927.21 29674.834 40882.992 36521.32 36567.445 48341.85 44192.457
39035.92 52024.79 48181.066 -50101.73 -43045.79 -20891.38 -68338.69 -59058.973
-33535.062 -72411.875 -62256.348 -36464.285 -24761.615 -25833.504 -20110.023 -22873.969
-21993.318 -14835.596 -18125.281 -15371.538 -6579.512 -38444.586 -46883.523 -51827.402
-36347.848 -50378.477 -60160.414 -27653.285 -46959.36 -61606.742 12988.023 13420.232
16064.58 2972.4346 3888.8625 7205.428 -6557.791 -4927.7646 488.74063 -40013.047
-39821.484 -30596.742 -48020.727 -44201.74 -30386.29 -50960.816 -43967.83 -26679.695
-27085.895 -23130.965 -18169.441 -6120.799 -8181.546 -10631.861 13411.817 6027.921
-3485.5874 46031.22 48944.477 43891.504 54506.137 56493.445 50196.023 51529.85
52894.566 46140.516 15781.004 24579.531 27125.117 11327.848 21679.93 26326.72
2813.955 13720.4 20155.459 50049.582 55487.547 45056.92 61195.164 65562.09
52771.457 64309.14 66977.31 52731.54 -45310.336 -49332.0 -41779.23 -54281.223
-57384.477 -46875.85 -56395.56 -58278.562 -46965.21 18913.615 19952.969 15990.281
33208.293 36618.99 33110.246 38686.57 44714.117 43170.2 -71434.734 -68051.16
-51120.305 -66518.14 -59880.81 -40735.797 -53176.78 -43429.766 -23748.445 -51456.664
-50151.82 -36305.82 -51532.73 -50155.125 -35553.227 -41964.375 -40713.605 -26809.83
12176.202 15947.332 15734.834 25716.742 29677.04 28313.688 37011.414 41712.406
39728.1
00000000: 7d8e c7c6 33ef eec6 d92e b5c6 7f02 02c7
00000010: 38ea 18c7 ab23 f7c6 3e9e f4c6 32e6 14c7
00000020: c7a0 f1c6 2c0a 9c46 be60 c946 8491 ba46
00000030: f960 e646 522b 0947 002a 0047 5944 f646
00000040: 0b13 1047 5142 0747 cd1e 7cc7 32bf 8bc7
00000050: 8395 81c7 c675 5cc7 d431 80c7 81ea 7ac7
00000060: 747e 13c7 bf8d 3cc7 b8c2 44c7 5987 8447
00000070: 7b64 8647 d6dc 5147 9e78 8f47 3201 9247
00000080: 6651 6847 1ac3 7d47 49c9 7f47 ee97 4847
00000090: 14bf 3ec7 8c05 4bc7 b099 33c7 78d4 44c7
000000a0: 3e63 5cc7 456e 4cc7 2e4b 27c7 1889 46c7
000000b0: 8380 40c7 e4dc 70c7 0ea9 9ac7 5861 9fc7
000000c0: c9c0 95c7 1872 bbc7 34ab bfc7 342d 93c7
000000d0: d626 b7c7 bb2d bbc7 80f1 06c7 ae47 25c7
000000e0: 66fc 20c7 632e 3ac7 c081 6dc7 2abd 74c7
000000f0: 9739 4ac7 615d 86c7 06b6 90c7 781d dcc6
00000100: 90eb 17c7 bec5 19c7 e6ac 11c7 7a24 34c7
00000110: 22e0 28c7 6e6e 24c7 9d85 39c7 80c5 22c7
00000120: 80a4 64c7 5c8a 6dc7 ee13 41c7 c2eb 83c7
00000130: 0b4c 7fc7 78fd 3ec7 d00b 81c7 3215 6cc7
00000140: bd39 1ec7 9e53 4245 d75b 16c6 7c23 5cc6
00000150: a8b9 64c6 b45f f4c6 6e1b 12c7 ea56 bdc6
00000160: bc52 28c7 3607 43c7 abd5 e746 feb2 1f47
00000170: 52a9 0e47 72d7 0e47 dad5 3c47 75a0 2c47
00000180: ec7b 1847 ca38 4b47 1135 3c47 bbb5 43c7
00000190: ca25 28c7 c336 a3c6 5879 85c7 f9b2 66c7
000001a0: 10ff 02c7 f06d 8dc7 5930 73c7 4970 0ec7
000001b0: 3b73 c1c6 02d3 c9c6 0c1c 9dc6 f0b3 b2c6
000001c0: a3d2 abc6 62ce 67c6 909a 8dc6 272e 70c6
000001d0: 199c cdc5 962c 16c7 8623 37c7 6773 4ac7
000001e0: d9fb 0dc7 7aca 44c7 6a00 6bc7 920a d8c6
000001f0: 5c6f 37c7 bea6 70c7 18f0 4a46 eeb0 5146
00000200: 5202 7b46 f4c6 3945 cd0d 7345 6d2b e145
00000210: 54ee ccc5 1efe 99c5 cd5e f443 0c4d 1cc7
00000220: 7c8d 1bc7 7c09 efc6 ba94 3bc7 bda9 2cc7
00000230: 9464 edc6 d110 47c7 d4bf 2bc7 646f d0c6
00000240: ca9b d3c6 eeb5 b4c6 e2f2 8dc6 6446 bfc5
00000250: 5eac ffc5 721f 26c6 458f 5146 5e5f bc45
00000260: 66d9 59c5 38cf 3347 7a30 3f47 8173 2b47
00000270: 23ea 5447 72ad 5c47 0614 4447 da49 4947
00000280: 919e 4e47 843c 3447 0494 7646 1007 c046
00000290: 3cea d346 64ff 3046 dc5f a946 71ad cd46
000002a0: 48df 2f45 9a61 5646 eb76 9d46 9581 4347
000002b0: 8cbf 5847 ec00 3047 2a0b 6f47 0c0d 8047
000002c0: 7523 4e47 2435 7b47 a8d0 8247 8afb 4d47
000002d0: 56fe 30c7 00b4 40c7 3b33 23c7 3909 54c7
000002e0: 7a28 60c7 da1b 37c7 8f4b 5cc7 90a6 63c7
000002f0: 3675 37c7 3bc3 9346 f0e1 9b46 20d9 7946
00000300: 4bb8 0147 fd0a 0f47 3f56 0147 921e 1747
00000310: 1eaa 2e47 33a2 2847 5e85 8bc7 94e9 84c7
00000320: 4eb0 47c7 12eb 81c7 cfe8 69c7 cc1f 1fc7
00000330: c8b8 4fc7 c4a5 29c7 e488 b9c6 aa00 49c7
00000340: d2e7 43c7 d2d1 0dc7 bb4c 49c7 20eb 43c7
00000350: 3ae1 0ac7 60ec 23c7 9b09 1fc7 a973 d1c6
00000360: cf40 3e46 542d 7946 56db 7546 7ce9 c846
00000370: 14da e746 6033 dd46 6a93 1047 68f0 2247
00000380: 1a30 1b47

exp_avg_sq f4 [25, 1, 3, 3]
4.0867507e+09 4.2431726e+09 3.6485755e+09 4.4708465e+09 4.8191437e+09 4.2189076e+09 4.185819e+09 4.633333e+09
4.1322926e+09 1.0458386e+09 1.1722294e+09 1.1913304e+09 1.5347529e+09 1.7106822e+09 1.6549015e+09 1.8548436e+09
2.0105859e+09 1.8650835e+09 1.0967095e+10 1.3054017e+10 1.3065132e+10 9.127003e+09 1.1572353e+10 1.2369258e+10
6.241919e+09 8.443985e+09 9.662121e+09 3.0841403e+09 3.471682e+09 2.6958605e+09 3.6899249e+09 4.2045156e+09
3.3205965e+09 3.1543247e+09 3.5563446e+09 2.8090504e+09 2.6407688e+09 3.0422308e+09 2.7550418e+09 2.597236e+09
3.2683356e+09 3.1610516e+09 1.9388145e+09 2.6818688e+09 2.7955005e+09 1.6723306e+10 2.050996e+10 2.1284954e+10
1.7760465e+10 2.2547943e+10 2.3819948e+10 1.5602929e+10 2.0239921e+10 2.1741548e+10 1.0408273e+10 1.2513005e+10
1.3086998e+10 1.184457e+10 1.5132946e+10 1.6473661e+10 1.1915088e+10 1.5967597e+10 1.8045151e+10 1.5611759e+09
2.0590022e+09 2.011152e+09 2.3186314e+09 2.863854e+09 2.5720335e+09 2.9056804e+09 3.304936e+09 2.7635034e+09
5.5280855e+09 5.7963474e+09 4.775214e+09 7.181151e+09 7.2202506e+09 5.6744504e+09 7.783587e+09 7.621105e+09
5.818663e+09 4.3401754e+09 6.3439954e+09 7.997619e+09 3.828292e+09 6.295997e+09 8.372533e+09 3.1480689e+09
5.746494e+09 7.958829e+09 2.6552686e+09 3.3986225e+09 3.2942216e+09 3.132254e+09 4.080113e+09 3.9861437e+09
3.3915858e+09 4.482889e+09 4.373545e+09 3.8171487e+09 2.8496305e+09 1.4947325e+09 6.6138153e+09 5.0776965e+09
2.6567178e+09 8.497072e+09 6.6703084e+09 3.6717187e+09 6.7418747e+09 6.4615004e+09 5.323308e+09 7.792901e+09
7.413323e+09 6.0489733e+09 8.0820997e+09 7.678595e+09 6.26068e+09 5.443863e+09 7.435448e+09 8.917534e+09
4.974446e+09 7.2814167e+09 9.242911e+09 3.7822687e+09 5.9876393e+09 8.179823e+09 1.0448859e+09 9.284604e+08
8.172093e+08 8.038991e+08 7.2668646e+08 6.190811e+08 7.569768e+08 7.0412026e+08 5.785241e+08 4.669505e+09
4.5413816e+09 3.558821e+09 5.6927427e+09 5.2873e+09 3.91649e+09 5.9671194e+09 5.313675e+09 3.7424246e+09
4.547545e+09 4.0203187e+09 3.1173765e+09 4.175247e+09 4.0032735e+09 3.4302743e+09 3.8341025e+09 3.824554e+09
3.503213e+09 1.64363e+09 2.0515478e+09 2.040284e+09 1.9633281e+09 2.3499743e+09 2.206501e+09 1.837525e+09
2.125999e+09 1.8881016e+09 4.1433774e+09 6.0691707e+09 7.5695816e+09 3.6296968e+09 5.4296596e+09 7.001336e+09
2.818043e+09 4.177537e+09 5.53518e+09 9.668096e+09 1.0179202e+10 8.583096e+09 1.1603397e+10 1.2271405e+10
1.0271648e+10 1.2031687e+10 1.2655107e+10 1.0490641e+10 2.64884e+09 3.0861919e+09 2.7822054e+09 2.8278807e+09
3.23103e+09 2.7202324e+09 2.6402698e+09 2.9211305e+09 2.3394834e+09 6.38359e+08 6.747818e+08 5.981422e+08
9.5767104e+08 1.1552392e+09 1.0887515e+09 1.1102953e+09 1.4947482e+09 1.5453033e+09 7.180432e+09 6.9462385e+09
5.3732024e+09 6.9437394e+09 6.569279e+09 5.06813e+09 5.923262e+09 5.5463613e+09 4.4465536e+09 4.1303114e+09
4.099274e+09 3.2120082e+09 4.3173074e+09 4.398397e+09 3.5474294e+09 3.995442e+09 4.148402e+09 3.4931118e+09
1.6523501e+09 1.7621326e+09 1.6307337e+09 1.8370054e+09 2.0011878e+09 1.8464879e+09 2.1304145e+09 2.3755825e+09
2.1910198e+09
00000000: de96 734f ade9 7c4f d878 594f da3d 854f
00000010: 269f 8f4f 6c77 7b4f 877e 794f 8715 8a4f
00000020: c84d 764f ec58 794e 9abd 8b4e 8504 8e4e
00000030: f1f4 b64e e1ed cb4e 9647 c54e 561d dd4e
00000040: 36ae ef4e d555 de4e 266c 2350 1f85 4250
00000050: 86af 4250 c100 0850 0671 2c50 fa50 3850
00000060: 1006 ba4f 7ea6 fb4f 11fa 0f50 3fd4 374f
00000070: aaed 4e4f 91af 204f c9ef 5b4f d19b 7a4f
00000080: 48ec 454f 2d03 3c4f 83f9 534f b56e 274f
00000090: ef66 1d4f c254 354f 9a36 244f adce 1a4f
000000a0: d8ce 424f d269 3c4f ec1f e74e 12da 1f4f
000000b0: f49f 264f 5a32 7950 a5cf 9850 d495 9e50
000000c0: 6653 8450 cafe a750 f278 b150 7380 6850
000000d0: 96cc 9650 b6fc a150 6918 1b50 5375 3a50
000000e0: ef02 4350 737f 3050 9c7f 6150 087a 7550
000000f0: 748c 3150 8cef 6d50 6572 8650 4f1b ba4e
00000100: c373 f54e 7dbf ef4e 8233 0a4f f2b2 2a4f
00000110: 1e4e 194f 2a31 2d4f 52fd 444f b7b7 244f
00000120: f2bf a44f 9fbe ac4f fe4f 8e4f d603 d64f
00000130: 242e d74f 9f1c a94f 0ef8 e74f 6b20 e34f
00000140: e068 ad4f e958 814f d810 bd4f fe58 ee4f
00000150: 1a2f 644f a5a2 bb4f 5c85 f94f b8a3 3b4f
00000160: 4542 ab4f 0c31 ed4f 2f44 1e4f dd92 4a4f
00000170: d559 444f 67b2 3a4f 9531 734f ba97 6d4f
00000180: 7e27 4a4f bb99 854f 8057 824f 1185 634f
00000190: e9d9 294f 9e2f b24e 681b c54f c053 974f
000001a0: 4c5a 1e4f 843b fd4f 6aca c64f fbd9 5a4f
000001b0: 6cec c84f 5691 c04f 9ea5 9e4f 1e3f e84f
000001c0: 2aef dc4f 0146 b44f 87dd f04f 08d7 e44f
000001d0: 3395 ba4f 613d a24f f797 dd4f b1e1 0450
000001e0: 0340 944f cd00 d94f e8ba 0950 d770 614f
000001f0: 1072 b24f 19c7 f34f c61e 794e ba5c 5d4e
00000200: 7fd6 424e 1baa 3f4e 6c41 2d4e b699 134e
00000210: 327a 344e 17e0 274e 4fee 094e 7f29 8b4f
00000220: fe57 874f 4d1f 544f 2ea8 a94f e692 9d4f
00000230: e570 694f 82d5 b14f 1f5c 9e4f de10 5f4f
00000240: 0487 874f 32a1 6f4f 64cf 394f 37dd 784f
00000250: 1b9d 6e4f d575 4c4f c387 644f 10f6 634f
00000260: cace 504f 9bef c34e 4590 f44e 8738 f34e
00000270: 050c ea4e c311 0c4f 8984 034f d00c db4e
00000280: 5770 fd4e 4a14 e14e ecf6 764f 19e0 b44f
00000290: 5397 e14f c758 584f 04d1 a14f f4a7 d04f
000002a0: ecf7 274f 2800 794f 12f6 a44f dc10 1050
000002b0: 93ae 1750 d3cb ff4f 72e7 2c50 b2db 3650
000002c0: 3a0f 1950 3e49 3350 6793 3c50 9f52 1c50
000002d0: 17e2 1d4f 8df3 374f 16d5 254f 098e 284f
000002e0: 9b95 404f 7423 224f 525f 1d4f ea1c 2e4f
000002f0: af71 0b4f 5732 184e 6ae1 204e b49b 0e4e
00000300: 9a53 644e 1ab7 894e 0fca 814e 865b 844e
00000310: 1830 b24e ea36 b84e 59fe d54f 9803 cf4f
00000320: 4822 a04f 87f0 ce4f 9fc7 c34f c30a 974f
00000330: e786 b04f 614b a54f 8384 844f 8d2f 764f
00000340: f555 744f 5b73 3f4f 71aa 804f 1b15 834f
00000350: 7a71 534f 9b25 6e4f 9743 774f a834 504f
00000360: b9f9 c44e 0510 d24e 0b66 c24e f5fc da4e
00000370: 688f ee4e 571e dc4e 17f7 fd4e 8398 0d4f
00000380: 4f98 024f

exp_avg f4 [25]
18051.906 -35027.508 40810.188 -27439.7 43680.953 44926.355 53980.97 13116.175
56488.65 -719.7368 -7825.6562 34845.703 34095.695 37390.895 -6606.309 55322.17
4116.9746 -37087.133 -19824.973 -65239.758 59749.625 -9561.854 57846.21 25723.117
-40265.44
00000000: d007 8d46 82d3 08c7 306a 1f47 665f d6c6
00000010: f4a0 2a47 5b7e 2f47 f8dc 5247 b3f0 4c46
00000020: a6a8 5c47 28ef 33c4 408d f4c5 b41d 0847
00000030: b22f 0547 e50e 1247 7972 cec5 2c1a 5847
00000040: cca7 8045 22df 10c7 f2e1 9ac6 c2d7 7ec7
00000050: a065 6947 6a67 15c6 36f6 6147 3cf6 c846
00000060: 7149 1dc7

exp_avg_sq f4 [25]
8.877066e+08 2.7579295e+09 2.7784026e+09 1.159036e+09 1.6605929e+09 1.7738077e+09 3.3681024e+09 4.408231e+08
2.279599e+09 1.4521741e+09 1.2806216e+09 1.760474e+09 2.6483356e+09 3.5166077e+09 5.075367e+08 3.567267e+09
6.1964077e+08 3.0248796e+09 1.6686e+09 4.679557e+09 3.1595587e+09 1.9488274e+09 2.7231916e+09 8.2582483e+08
1.5968187e+09
00000000: 50a5 534e aa62 244f 0f9b 254f f92a 8a4e
00000010: 46f5 c54e 5174 d34e 2ac1 484f 6a33 d24d
00000020: ecdf 074f d61c ad4e 78a9 984e 67dd d14e
00000030: 65da 1d4f 2d9b 514f 2a03 f24d 2da0 544f
00000040: dfbb 134e 004c 344f a2e9 c64e 3076 8b4f
00000050: 0a53 3c4f 7e51 e84e 9b50 224f 59e4 444e
00000060: 0a5b be4e

exp_avg f4 [50, 25, 3, 3]
6811.116 3940.186 631.83954 5578.094 2188.2673 -1502.2927 4705.075 1206.3484
-2529.6362 -781.0385 705.47363 1943.4116 -809.02454 853.22833 2336.4185 -1054.6937
533.8271 2043.6499 6475.0303 333.8665 -6029.4453 5125.752 -1247.6721 -7706.912
3086.7715 -2921.328 -8852.674 -10035.793 -6963.3086 -2781.4001 -9219.757 -5499.251
-781.2722 -8170.256 -4208.5005 660.43414 -1653.0165 -4906.3477 -7707.287 -1484.9348
-4622.6074 -7345.625 -2161.0554 -4951.6143 -7321.7275 2610.776 -803.7596 -4344.832
1953.7028 -1151.5006 -4374.2344 516.52826 -2046.0443 -4606.53 4428.451 714.03796
-3425.7693 4343.912 552.3875 -3678.8418 2935.4038 -695.9941 -4583.827 -1085.0266
-2866.8032 -4439.995 -600.72266 -2354.374 -3961.7705 -947.739 -2554.6611 -4025.8118
6241.627 -1733.1736 -10022.405 5951.052 -2274.137 -10927.311 4137.214 -3595.514
-11675.031 2795.2979 2442.594 1602.9115 2079.8499 2151.6978 1774.4084 1168.7019
1581.7457 1693.2909 -4995.5635 -4803.0625 -3876.2407 -4733.4326 -4364.4604 -3262.0015
-4587.786 -4150.5063 -3004.9617 9699.319 4908.8887 -627.9084 8617.666 3559.4448
-2203.6494 7209.171 2427.5603 -3014.5566 -971.3823 -1919.6666 -2824.268 3.9389343
-978.7136 -2031.5498 8.854225 -1016.1653 -2089.4517 -879.60266 -2714.2334 -4213.0005
-635.1842 -2644.7046 -4346.369 -855.91895 -2860.625 -4550.039 -3484.2104 -4112.5723
-4502.6143 -2802.025 -3200.448 -3429.0435 -3156.1865 -3433.1836 -3434.04 -2755.7988
-3984.0732 -4786.3916 -2145.1157 -3372.0422 -4253.2383 -2024.0013 -3175.9521 -4046.4111
-65.58629 13.564568 30.284096 730.9655 441.24835 -1.5895615 1260.4694 650.42676
-158.0605 -4373.337 -3006.8335 -1330.244 -3605.077 -2278.1758 -690.72766 -3123.5059
-2019.9923 -658.7665 -6732.087 -7124.2534 -6670.1973 -6002.9146 -6160.195 -5568.1934
-5794.6104 -5767.258 -5004.76 -3514.1135 3304.0854 10264.391 -3273.2505 3469.871
10408.227 -1191.251 4962.909 11160.455 -991.3844 -2719.8652 -4194.8457 -877.77594
-2483.28 -3896.3997 -1149.8518 -2480.643 -3658.2866 -5244.616 -4714.796 -3779.4456
-3992.0818 -3440.042 -2629.6545 -3383.6865 -2947.839 -2281.2334 3539.6904 -114.16528
-3894.739 3058.7056 -705.43146 -4582.11 2180.2349 -1330.5044 -4965.494 6438.9062
5080.0977 3077.627 5141.9585 4013.7683 2314.5063 4282.411 3529.8638 2229.5688
2041.9568 5303.481 8112.6055 1714.1628 5209.588 8249.168 2467.775 5921.8447
8832.514 -7670.738 -5104.4077 -2446.2517 -9690.174 -7852.886 -5752.767 -8889.156
-8157.3047 -7082.705 4453.5845 2719.0503 838.8246 6316.205 5073.9116 3475.6602
6436.98 5947.337 4942.5156 -16534.945 -13748.85 -9882.204 -13876.425 -13133.166
-11272.365 -10049.824 -11471.451 -11945.809 12728.561 10405.414 7409.7334 12705.813
00000000: eed8 d445 fa42 7645 bbf5 1d44 c150 ae45
00000010: 47c4 0845 5ec9 bbc4 9a08 9345 26cb 9644
00000020: 2e1a 1ec5 7742 43c4 505e 3044 2ced f244
00000030: 9241 4ac4 9d4e 5544 b206 1245 33d6 83c4
00000040: ef74 0544 cc74 ff44 3e58 ca45 e9ee a643
00000050: 906b bcc5 042e a045 82f5 9bc4 4cd7 f0c5
00000060: 58ec 4045 3f95 36c5 b252 0ac6 2ccf 1cc6
00000070: 789a d9c5 67d6 2dc5 070f 10c6 02da abc5
00000080: 6c51 43c4 0c52 ffc5 0184 83c5 c91b 2544
00000090: 87a0 cec4 c852 99c5 4cda f0c5 ea9d b9c4
000000a0: dc74 90c5 008d e5c5 e310 07c5 eabc 9ac5
000000b0: d2cd e4c5 6a2c 2345 9df0 48c4 a8c6 87c5
000000c0: 7d36 f444 05f0 8fc4 e0b1 88c5 cf21 0144
000000d0: 6bc1 ffc4 3df4 8fc5 9c63 8a45 6e82 3244
000000e0: 4f1c 56c5 4cbf 8745 cd18 0a44 78ed 65c5
000000f0: 7676 3745 9fff 2dc4 9e3e 8fc5 daa0 87c4
00000100: da2c 33c5 f6bf 8ac5 402e 16c4 fc25 13c5
00000110: 549c 77c5 4cef 6cc4 94aa 1fc5 fd9c 7bc5
00000120: 040d c345 8ea5 d8c4 9f99 1cc6 6af8 b945
00000130: 3122 0ec5 3ebd 2ac6 b649 8145 39b8 60c5
00000140: 206c 36c6 c4b4 2e45 81a9 1845 2b5d c844
00000150: 99fd 0145 2a7b 0645 12cd dd44 7616 9244
00000160: ddb7 c544 4fa9 d344 821c 9cc5 8018 96c5
00000170: da43 72c5 76eb 93c5 af63 88c5 06e0 4bc5
00000180: 4a5e 8fc5 0db4 81c5 63cf 3bc5 478d 1746
00000190: 1c67 9945 23fa 1cc4 aaa6 0646 1e77 5e45
000001a0: 64ba 09c5 5e49 e145 f7b8 1745 e868 3cc5
000001b0: 78d8 72c4 55f5 efc4 4a84 30c5 8017 7c40
000001c0: acad 74c4 98f1 fdc4 e8aa 0d41 940a 7ec4
000001d0: 3a97 02c5 92e6 5bc4 bca3 29c5 01a8 83c5
000001e0: cacb 1ec4 464b 25c5 f4d2 87c5 d0fa 55c4
000001f0: 00ca 32c5 5030 8ec5 5ec3 59c5 9484 80c5
00000200: eab4 8cc5 6620 2fc5 2b07 48c5 b250 56c5
00000210: fc42 45c5 f092 56c5 a4a0 56c5 c83c 2cc5
00000220: 2c01 79c5 2293 95c5 da11 06c5 adc0 52c5
00000230: e8e9 84c5 0b00 fdc4 3c7f 46c5 94e6 7cc5
00000240: 2e2c 83c2 7808 5941 d445 f241 cbbd 3644
00000250: ca9f dc43 c076 cbbf 058f 9d44 509b 2244
00000260: 7d0f 1ec3 b2aa 88c5 56ed 3bc5 cf47 a6c4
00000270: 3b51 61c5 d062 0ec5 92ae 2cc4 1838 43c5
00000280: c17f fcc4 0eb1 24c4 b260 d2c5 07a2 dec5
00000290: 9471 d0c5 5197 bbc5 8f81 c0c5 8c01 aec5
000002a0: e214 b5c5 103a b4c5 1466 9cc5 d1a1 5bc5
000002b0: 5e81 4e45 9061 2046 0294 4cc5 f0dd 5845
000002c0: e8a0 2246 08e8 94c4 4617 9b45 d261 2e46
000002d0: 9ad8 77c4 d8fd 29c5 c416 83c5 a971 5bc4
000002e0: 7b34 1bc5 6586 73c5 42bb 8fc4 4a0a 1bc5
000002f0: 96a4 64c5 eee4 a3c5 5e56 93c5 2137 6cc5
00000300: 4f81 79c5 ac00 57c5 795a 24c5 fc7a 53c5
00000310: 6d3d 38c5 bc93 0ec5 0c3b 5d45 a054 e4c2
00000320: d36b 73c5 4a2b 3f45 9d5b 30c4 e130 8fc5
00000330: c243 0845 2450 a6c4 f42b 9bc5 4037 c945
00000340: c8c0 9e45 085a 4045 abaf a045 4bdc 7a45
00000350: 1aa8 1045 4ad3 8545 d29d 5c45 1a59 0b45
00000360: 9e3e ff44 d9bb a545 d884 fd45 3645 d644
00000370: b4cc a245 ace4 0046 663c 1a45 c20e b945
00000380: 0e02 0a46 e7b5 efc5 4383 9fc5 07e4 18c5
00000390: b268 17c6 1767 f5c5 23c6 b3c5 a0e4 0ac6
000003a0: 70ea fec5 a455 ddc5 ad2c 8b45 cef0 2945
000003b0: c6b4 5144 a461 c545 4b8f 9e45 903a 5945
000003c0: d727 c945 b2da b945 2074 9a45 e42d 81c6
000003d0: 66d3 56c6 d168 1ac6 b3d1 58c6 aa34 4dc6
000003e0: 7621 30c6 4c07 1dc6 ce3d 33c6 3ca7 3ac6
000003f0: 3ee2 4646 a895 2246 de8d e745 4187 4646

exp_avg_sq f4 [50, 25, 3, 3]
1.8340203e+08 1.7424224e+08 1.6374234e+08 1.9763434e+08 1.8842477e+08 1.8039331e+08 2.0044578e+08 1.903982e+08
1.8227259e+08 1.1253018e+07 9.652399e+06 9.813253e+06 1.2892952e+07 1.1439054e+07 1.2264191e+07 1.3786922e+07
1.2050971e+07 1.2428485e+07 3.389984e+08 3.414105e+08 3.5673056e+08 3.5118106e+08 3.5376867e+08 3.697422e+08
3.312798e+08 3.356763e+08 3.4900854e+08 1.6964195e+08 1.6242944e+08 1.5377254e+08 1.8725653e+08 1.7951891e+08
1.7469134e+08 1.9362083e+08 1.8637066e+08 1.8390077e+08 1.7983258e+07 3.0020428e+07 4.7636852e+07 1.7502876e+07
2.7826034e+07 4.3346588e+07 1.7003166e+07 2.7430422e+07 4.098812e+07 5.3218284e+07 5.4895572e+07 6.4059396e+07
4.678493e+07 4.8312796e+07 5.5708696e+07 3.6938436e+07 3.9886164e+07 4.5980836e+07 7.36784e+07 7.992301e+07
9.497745e+07 7.917556e+07 8.4229064e+07 9.736062e+07 7.249091e+07 7.979309e+07 9.321925e+07 4.181011e+06
7.278493e+06 1.3164084e+07 3.8918625e+06 6.1355695e+06 1.1277139e+07 4.1592042e+06 6.904776e+06 1.1900331e+07
5.0009325e+08 5.33108e+08 5.8884243e+08 5.3862266e+08 5.643739e+08 6.1391155e+08 5.1752224e+08 5.4168896e+08
5.827909e+08 5.1660725e+06 4.5156145e+06 3.0376138e+06 2.6387795e+06 2.7551208e+06 2.063998e+06 1.363425e+06
1.6613646e+06 1.6456026e+06 1.950656e+07 2.0286258e+07 1.7868088e+07 1.9758128e+07 2.023842e+07 1.806718e+07
2.061212e+07 2.1140544e+07 1.921805e+07 2.8749683e+08 2.7240333e+08 2.6450078e+08 2.95988e+08 2.8276557e+08
2.7856784e+08 2.822618e+08 2.714951e+08 2.678765e+08 1.1976835e+07 9.813584e+06 9.813856e+06 1.0438872e+07
7.727454e+06 7.449384e+06 9.062716e+06 7.0062775e+06 7.3385615e+06 3.1007568e+06 6.60923e+06 1.2162611e+07
3.553547e+06 7.0389295e+06 1.3171469e+07 4.04351e+06 8.0195095e+06 1.4325695e+07 1.5544979e+07 1.5571902e+07
1.6205683e+07 1.4170849e+07 1.3416458e+07 1.340073e+07 1.6406414e+07 1.5946019e+07 1.5612884e+07 7.321937e+06
1.1598826e+07 1.5684505e+07 5.7681265e+06 9.233914e+06 1.3106906e+07 5.5874445e+06 8.72108e+06 1.2348965e+07
4.522948e+06 3.1820285e+06 2.0450315e+06 2.9824932e+06 1.7096064e+06 868079.8 2.4170802e+06 1.1609089e+06
638520.3 4.1917612e+07 3.590939e+07 3.0588552e+07 3.752522e+07 3.276876e+07 2.896619e+07 3.3158384e+07
2.948509e+07 2.6349644e+07 3.2485506e+07 3.6739588e+07 3.557071e+07 2.9656058e+07 3.2638922e+07 3.165635e+07
3.1081612e+07 3.332317e+07 3.1975578e+07 2.5240915e+08 2.866184e+08 3.43125e+08 2.6203813e+08 2.8974582e+08
3.3722915e+08 2.413535e+08 2.7020954e+08 3.1145744e+08 1.8004441e+06 4.9825975e+06 1.0189467e+07 1.4014571e+06
4.0734638e+06 8.686837e+06 1.4918595e+06 4.0057362e+06 7.80948e+06 3.026424e+07 2.5518568e+07 2.029698e+07
2.3406716e+07 1.951478e+07 1.6081138e+07 2.0230594e+07 1.7241e+07 1.4745565e+07 1.3127637e+08 1.3341728e+08
1.3896323e+08 1.3776549e+08 1.3929029e+08 1.4421669e+08 1.3090315e+08 1.3201623e+08 1.3560443e+08 8.708274e+07
7.79692e+07 6.674019e+07 7.332144e+07 6.6618892e+07 5.853463e+07 6.0861136e+07 5.60275e+07 5.004807e+07
2.9092738e+07 4.5750212e+07 6.607167e+07 3.3382756e+07 4.9058104e+07 6.897577e+07 3.5947268e+07 5.2872788e+07
7.224984e+07 3.1110784e+08 3.151332e+08 2.9459462e+08 3.3177914e+08 3.493814e+08 3.34402e+08 2.755978e+08
3.1341578e+08 3.1929053e+08 6.0241428e+07 4.9170716e+07 3.4341324e+07 7.683989e+07 7.018262e+07 5.4163692e+07
6.912487e+07 7.280704e+07 6.433366e+07 7.91646e+08 8.8444045e+08 9.062339e+08 5.940933e+08 7.325581e+08
8.115659e+08 3.786121e+08 5.2610925e+08 6.4856294e+08 3.278282e+08 3.4385152e+08 3.4105837e+08 3.1446592e+08
00000000: e3e7 2e4d 9c2b 264d 2828 1c4d 927a 3c4d
00000010: 24b2 334d 5609 2c4d f528 3f4d f093 354d
00000020: 25d4 2d4d 1ab5 2b4b af48 134b 05bd 154b
00000030: 18bb 444b ce8b 2e4b ff22 3b4b 2a5f 524b
00000040: 1be2 374b c5a4 3d4b a4a5 a14d 16cc a24d
00000050: 361a aa4d c874 a74d a7b0 a84d 8c4e b04d
00000060: 6ef7 9d4d 1c10 a04d 956b a64d 7ec8 214d
00000070: a0e7 1a4d 20a6 124d ed94 324d dc33 2b4d
00000080: 4199 264d b6a6 384d a6bc 314d a661 2f4d
00000090: 8d33 894b a609 e54b 5db8 354c 4e89 854b
000000a0: b94b d44b a75a 254c 4fb9 814b 0b47 d14b
000000b0: 765b 1c4c fb02 4b4c f568 514c 015e 744c
000000c0: 6878 324c 774c 384c 0683 544c b1e8 0c4c
000000d0: 5527 184c 2967 2f4c c887 8c4c e870 984c
000000e0: b527 b54c f103 974c 79a7 a04c 5eb3 b94c
000000f0: f443 8a4c 7831 984c 36cd b14c 4c30 7f4a
00000100: 3a1f de4a 34de 484b 5a8a 6d4a 233e bb4a
00000110: 5313 2c4b 91db 7d4a 90b7 d24a ab95 354b
00000120: 8a76 ee4d a934 fe4d 1764 0c4e eb6a 004e
00000130: a68e 064e 305e 124e 1ac6 f64d 1226 014e
00000140: bcf2 0a4e f1a7 9d4a 3dce 894a b766 394a
00000150: ee0e 214a c328 284a f0f3 fb49 086f a649
00000160: a5cd ca49 15e1 c849 c0d2 944b 99c5 9a4b
00000170: 9c52 884b 18be 964b 2a68 9a4b 76d7 894b
00000180: 0c42 9d4b 204a a14b 419f 924b d416 894d
00000190: 5ce4 814d 633f 7c4d 5923 8d4d 48d5 864d
000001a0: ddd4 844d c997 864d 7e75 814d 8977 7f4d
000001b0: 83c0 364b 50be 154b 60bf 154b d848 1f4b
000001c0: bcd2 eb4a 5056 e34a 3c49 0a4b 8bd0 d54a
000001d0: 83f4 df4a 5341 3d4a 9cb2 c94a 3396 394b
000001e0: 2ce4 584a a3cf d64a 0dfb 484b d8cb 764a
000001f0: 6bbc f44a bf97 5a4b 9332 6d4b be9b 6d4b
00000200: 7347 774b e13a 584b 0ab8 4c4b 9a7a 4c4b
00000210: 8e57 7a4b 2351 734b d43b 6e4b a272 df4a
00000220: eafb 304b 9953 6f4b 7d07 b04a fae5 0c4b
00000230: dafe 474b e983 aa4a b812 054b 256e 3c4b
00000240: 8807 8a4a 3237 424a 3ca3 f949 7509 364a
00000250: 33b1 d049 fdee 5349 e186 134a 67b6 8d49
00000260: 85e3 1b49 2be7 1f4c c4fb 084c 445f e94b
00000270: b925 0f4c 7c01 fa4b 97fe dc4b 78fa fc4b
00000280: 11f4 e04b 2608 c94b 41d8 f74b 8126 0c4c
00000290: 06b1 074c fd41 e24b e503 f94b cf84 f14b
000002a0: 4622 ed4b 513c fe4b 4df4 f34b 54b7 704d
000002b0: 99ab 884d 609d a34d 27e6 794d 5d29 8a4d
000002c0: abcd a04d 322c 664d 90d8 804d b583 944d
000002d0: e1c7 db49 8b0e 984a 9b7a 1b4b 8913 ab49
000002e0: df9f 784a f58c 044b 9c1c b649 a17d 744a
000002f0: 9053 ee4a d8e5 e64b f4b0 c24b 8ada 9a4b
00000300: 3e94 b24b cee2 944b f260 754b e158 9a4b
00000310: d489 834b ddff 604b ca63 fa4c 2879 fe4c
00000320: 9286 044d 2762 034d 6bd6 044d 2789 094d
00000330: 8ead f94c 0dcd fb4c 8d52 014d de18 a64c
00000340: e6b6 944c f897 7e4c 7cd9 8b4c 8321 7e4c
00000350: ba4a 5f4c b42a 684c 5bba 554c 12eb 3e4c
00000360: c1f5 dd4b f185 2e4c 1e0b 7c4c b2b0 fe4b
00000370: 4e24 3b4c 938f 834c c120 094c 95b1 494c
00000380: 3ece 894c 0859 944d 6844 964d 4279 8c4d
00000390: 6234 9e4d 1999 a64d 8e74 9f4d 4f6a 834d
000003a0: c372 954d e53f 984d 85cd 654c 4792 3b4c
000003b0: 7300 034c 7a8f 924c dcdc 854c 3b9e 4e4c
000003c0: 61d8 834c 50de 8a4c d769 754c 3dbe 3c4e
000003d0: f6dd 524e 2110 584e 94a4 0d4e cca7 2e4e
000003e0: 0d7e 414e 4c89 b44d 52de fa4d 24a1 1a4e
000003f0: 1752 9c4d 10f6 a34d 1aa1 a24d f4f2 954d

exp_avg f4 [50]
-15779.238 9203.536 -16325.115 7068.949 -7901.084 17537.086 20585.094 -17707.895
-3787.6267 -12560.717 1858.4874 -10114.905 -5176.326 -2135.4531 -878.1909 23665.777
1944.1404 -29516.717 1735.4946 22610.527 4607.3174 -8971.238 -22390.086 -53949.773
-2731.9746 -14857.787 3419.7004 -3199.5002 -15141.023 -17306.91 36057.938 13089.501
-16544.51 16369.898 -27645.543 -11562.16 -13488.306 6146.662 -18192.527 1326.9397
2920.0225 -25028.14 -3591.926 -26738.402 -21556.953 17240.984 -14893.893 14600.809
2998.949 -13435.034
00000000: f48c 76c6 25ce 0f46 7614 7fc6 98e7 dc45
00000010: ace8 f6c5 2c02 8946 30d2 a046 ca57 8ac6
00000020: 07ba 6cc5 de42 44c6 994f e844 9f0b 1ec6
00000030: 9cc2 a1c5 4077 05c5 388c 5bc4 8ee3 b846
00000040: 7e04 f344 6f99 e6c6 d4ef d844 0ea5 b046
00000050: 8afa 8f45 f42c 0cc6 2cec aec6 c6bd 52c7
00000060: 98bf 2ac5 2627 68c6 35bb 5545 01f8 47c5
00000070: 1894 6cc6 d235 87c6 f0d9 0c47 0186 4c46
00000080: 0541 81c6 98c7 7f46 16fb d7c6 a4a8 34c6
00000090: 39c1 52c6 4c15 c045 0e21 8ec6 12de a544
000000a0: 5c80 3645 4888 c3c6 d17e 60c5 cee4 d0c6
000000b0: e869 a8c6 f8b1 8646 92b7 68c6 3c23 6446
000000c0: 2f6f 3b45 23ec 51c6

exp_avg_sq f4 [50]
6.151268e+08 3.8685894e+08 9.294721e+08 5.834756e+08 4.8089357e+08 7.043752e+08 1.564215e+09 2.483631e+08
3.8376852e+07 1.8923973e+08 5.8088972e+07 1.363647e+08 1.1545979e+09 1.8250114e+08 8.312087e+07 4.0080925e+08
5.278903e+08 1.409244e+09 5.790211e+09 2.4812303e+09 9.4766016e+08 1.2575635e+08 6.862039e+08 3.1009923e+09
4.7629236e+07 1.00096506e+09 1.008394e+08 3.8051155e+08 2.7955827e+08 1.06317606e+09 1.0386687e+09 2.9286423e+09
4.3263165e+08 8.173095e+08 1.4573587e+09 1.8142595e+08 4.3515923e+08 8.0826074e+08 3.9247782e+08 2.230789e+08
4.1052076e+07 4.3963126e+08 1.1323243e+08 1.9527046e+09 5.098606e+08 1.2168248e+09 3.0427478e+08 1.4475727e+09
1.5309934e+08 3.259745e+09
00000000: 5ca8 124e fe77 b84d 7a9a 5d4e 861c 0b4e
00000010: d44e e54d a6ef 274e 0e78 ba4e 86db 6c4d
00000020: 6565 124c 1b79 344d 8397 5d4c 2a0c 024d
00000030: 88a3 894e f10b 2e4d 5d8a 9e4c e91e bf4d
00000040: bcb7 fb4d b7fe a74e ce8f ac4f 92e4 134f
00000050: 96f0 614e 78dc ef4c 909a 234e 63d5 384f
00000060: edb0 354c 0fa6 6e4e fd55 c04c 2a71 b54d
00000070: c44d 854d 1e7b 7d4e 4ea3 774e 898f 2e4f
00000080: 7b4b ce4d 9ddc 424e 0fbb ad4e 7205 2d4d
00000090: 0680 cf4d 52b4 404e e425 bb4d 9fbe 544d
000000a0: eb99 1c4c eda1 d14d 46f9 d74c d1c7 e84e
000000b0: d81e f34d 8c0e 914e eb16 914d 6a90 ac4e
000000c0: c501 124d c34b 424f
