models/probabilistic_training/100/sigma0.005_step0.0001_lr0.0005_gamma0.1_without_noise/ckpt/model_epoch_200.pth (torch, 282369 bytes, 18 tensors)

layer1.weight f4 [25, 1, 3, 3]
00000000: 6cc7 2abd 58fe de3d 71f8 18bc e33e 323d
00000010: 3fc7 50bc f114 2f3e 5a79 03be 6bfa 243e
00000020: 3f8c 8fbd 54e6 123e e44a 0d3e 6b74 2b3d
00000030: 06dd 00bd a37d 4fbd 1947 9dbd adf9 843d
00000040: 895c 273d 99ee 083e 97de 88bc 2e81 053d
00000050: ba31 29be a9ce 95bd fdc6 863d 2d0b 893b
00000060: 05b6 c8bd d4af 6bbd 23da 013d 4a01 ccbd
00000070: ba89 d13d 235f 6e3c acad 193e f743 d3bd
00000080: 019e 473e e875 86bd 7449 18be 7ef5 dbbd
00000090: da82 1ebe 33dd 343d 3632 953d d981 593e
000000a0: a553 08bd 42ee 423d 1a06 0f3e 611f 3bbe
000000b0: d8f8 fb3c 15b2 0e3e e23d f23d 6508 333e
000000c0: bc58 fb3c d7b4 13bd 734a be3c 2387 f03d
000000d0: 55da 613d e7b8 dcbc 70df bebd 9308 523d
000000e0: 4805 d6bb f1f3 133e 03d0 8cbd a4c6 43bc
000000f0: e2f9 f7bd 9116 09be 9cbd 253d e701 183e
00000100: d351 29be 61c2 8bbb be21 5abb 663d 373e
00000110: 90c3 36bb e333 84bd 142e 8f3d 45f9 7a3d
00000120: 2d00 273e 840b 973d 5726 7e3c 8acc ec3d
00000130: 1b57 e6bc 2b46 053e fa7d a43c f8c4 d4bd
00000140: eef2 f5bd 1143 a83d a57c 0abe e0cb 053e
00000150: eef9 8bbd 9ba0 35bd 77ed eebd 27ab 803d
00000160: 28a4 a63d d098 ddbd 4d77 68bd 8c56 45bd
00000170: 885d 07be f956 37bc d649 013e dc2c 163d
00000180: 3a46 94bd 4aa9 e73c 1f52 a2bd 728f e93d
00000190: 8660 fabd 54c4 b7bd e90d 573d 4719 49be
000001a0: c325 b8bd 7fd1 08be 5d73 ac3d 1b97 ffbd
000001b0: 4000 a73d 37f1 873d d121 0c3e 8b08 19be
000001c0: d7c7 15bd d575 61bd a61f 71bd a3ae 993c
000001d0: 16e9 28bc 5d2a 943d d1ac 9cbd 4c64 2e3c
000001e0: 7cbb 8cbc 9dfc 9d3c 95f3 c1bc 3374 5e3d
000001f0: 6125 213e 1c23 ba3d b984 c03d 54b4 cb3d
00000200: c571 ba3c d4c1 cbbd 57f0 dc3a 3f81 943e
00000210: 5132 f03d 4bc1 483c 3933 bf3d c722 acbd
00000220: 167b 44bc 3cc0 5f3c 5189 f73d d6a6 6e3e
00000230: 9494 ff3d b0e9 5cbe bfb9 253e 5e8a 1c3d
00000240: 38eb 373d 8e06 70bd 41d6 8c3c f12c 8fbd
00000250: daa4 7d3d 2376 12be 364a 553d 8162 0bbe
00000260: e34a 093e 63e2 4fbe 52fd 57bd 1484 363e
00000270: 92a9 013e a490 8abd 7f0d b3bd 62c3 3cbe
00000280: ecb3 293c 5010 563d c2ba 0bbe 5325 4b3d
00000290: 5bc3 fcbd f39b 483d 240c efbd 471a 823c
000002a0: 03b5 dc3d bc3c c23d a397 8b3b d717 0b3e
000002b0: 559c 70be 4845 bb3d a73a d5ba e302 143e
000002c0: fd0e 2a3d 4928 e73d 31c7 51be fce5 4d3d
000002d0: ec52 ffba e799 003e 44f9 f0bd c29b aebc
000002e0: dacb 69bd 986e 34be ea41 183d 4bbe 99bd
000002f0: 7781 bbbd a3f5 afbd bfe7 97bd 1b27 69bd
00000300: fcfb 16bd 905a 49bb 9d78 d43d 2a77 49bd
00000310: 0fae 44bd e655 90bd 7b03 93bd 0209 1e3e
00000320: 36a3 6abd 58a8 14be 3173 4dbd df35 063d
00000330: 374f 0d3e 6480 f13d e846 f13c 892d a3bc
00000340: 3b72 233d d9b0 babd bd7c 1f3e 2af1 0fbe
00000350: 2a66 76bd 8584 963d 3ed9 5e3d 2ace cf3c
00000360: 2c91 c43d 5b39 3d3d 7949 99bd e71c f7bd
00000370: 409a d03d e632 01bd 42f6 093e 12f7 89bd
00000380: 47db 5438
-0.04169409 0.10888356 -0.009336577 0.043517005 -0.0127428165 0.17097832 -0.1283926 0.16111152
-0.07009172 0.14345676 0.137981 0.04185907 -0.031460784 -0.050656926 -0.076795764 0.064929344
0.040859733 0.13372268 -0.016707702 0.0325939 -0.16522875 -0.07314808 0.06580923 0.0041822405
-0.098003425 -0.05754073 0.031702172 -0.09961183 0.102313474 0.01454905 0.15007657 -0.10315698
0.19493867 -0.065654576 -0.1487177 -0.10740183 -0.15479603 0.044156265 0.072849676 0.21240939
-0.033282895 0.0475905 0.13967171 -0.18273689 0.030758306 0.1393512 0.118282095 0.17483671
0.03068196 -0.036061134 0.02322886 0.11744525 0.05513986 -0.026943637 -0.09319961 0.05127771
-0.0065313913 0.14448525 -0.068756126 -0.011949215 -0.12108208 -0.13387515 0.04046403 0.14844476
-0.1653512 -0.004265115 -0.0033284272 0.17894515 -0.002788756 -0.06455209 0.069912106 0.06127288
0.16308661 0.07375243 0.015512071 0.1156245 -0.028117707 0.13015048 0.020079602 -0.10389131
-0.12009226 0.08215917 -0.1352411 0.13066053 -0.0683478 -0.04434262 -0.116663866 0.06282645
0.08136779 -0.10820162 -0.0567544 -0.04817824 -0.13219273 -0.0111901695 0.12625822 0.036663875
-0.07239957 0.028278966 -0.079258196 0.11404313 -0.12225442 -0.089729935 0.0525035 -0.19638549
-0.089915775 -0.13361166 0.08420441 -0.12479993 0.081543446 0.06637805 0.13684775 -0.14944665
-0.036567535 -0.055044014 -0.058868073 0.018760031 -0.010309478 0.07234643 -0.076501496 0.01064403
-0.017179243 0.019285494 -0.02367572 0.054310035 0.15736915 0.09088728 0.09400315 0.09946504
0.022759328 -0.09949079 0.0016856295 0.29004857 0.11728347 0.012253116 0.09335942 -0.08405071
-0.011992237 0.013656672 0.12086738 0.2330583 0.12479511 -0.2157352 0.16184138 0.038217895
0.044902056 -0.0586 0.017192008 -0.06990994 0.061924793 -0.14302878 0.052072726 -0.13611795
0.13407473 -0.20301203 -0.05273182 0.17823821 0.12662342 -0.06765869 -0.087428086 -0.18433908
0.010357838 0.05226165 -0.13645461 0.049596142 -0.123419486 0.04897685 -0.116722375 0.01588167
0.10776713 0.094842404 0.00426002 0.13583313 -0.23497136 0.09144074 -0.001626809 0.14454226
0.0415182 0.11286981 -0.20486142 0.05026816 -0.0019479669 0.12558709 -0.11766294 -0.021314505
-0.057079174 -0.17620313 0.037172236 -0.07506999 -0.09155553 -0.08591773 -0.07417249 -0.05692206
-0.036861405 -0.0030724145 0.10374568 -0.04918591 -0.048017558 -0.07047634 -0.07178398 0.15433124
-0.057284556 -0.14517343 -0.050158683 0.03276622 0.1379975 0.11792067 0.029452756 -0.019919174
0.03990386 -0.09115762 0.15574928 -0.1405684 -0.060156025 0.07349495 0.054406397 0.025366861
0.09598002 0.046197277 -0.07484717 -0.120660596 0.10185671 -0.03154268 0.13472846 -0.06736578
5.0748957e-05

layer1.bias f4 [25]
00000000: 9193 073e cbe8 253c b956 c239 b188 a5be
00000010: 2cc1 8a3e b3e0 06bd a0fa 26be 701a 99bd
00000020: 9f5a 893e a773 27bd 4eeb 2c3e 11fe 8bbe
00000030: 5f47 043b fc9a b1bd 454c 413e 9da9 a5be
00000040: cce4 57bd 0d72 f73d e8c5 85be 8457 be3d
00000050: 1e53 873d a9ce 383d ee1c 8bbe bb54 fabd
00000060: e91d e43d
0.13239886 0.010126303 0.00037067177 -0.3233085 0.27100503 -0.032929134 -0.16306543 -0.07475746
0.2682695 -0.04088178 0.16886637 -0.27342275 0.0020184142 -0.08672139 0.18876751 -0.32355967
-0.052708432 0.120823 -0.26127553 0.09294036 0.0660765 0.04511896 -0.2717051 -0.12223192
0.111385174

layer2.weight f4 [50, 25, 3, 3]
00000000: 1828 6abc ea14 78bd 538b 473a bbca b93c
00000010: ebec bc3c 2183 8bbd efd5 ddbc 61e9 5c3d
00000020: 51e8 20bd 2e6c 52bd 094d 06bb ff05 12bc
00000030: 0101 afbc 5f14 593d 0261 f2bd ad5e 543d
00000040: 572f de3c e6c3 cebd 1424 57bd 546a 23bd
00000050: 5245 dd3d 1c87 5bbd 5306 ccbd 9522 63bd
00000060: 8a4d 36bd 41b1 933d c5de 5a3c 4f08 fabc
00000070: 2ccd a63d bc10 9cba 674a 78bc 27c3 603d
00000080: 0b10 fa3b 6a92 663d e07e 5d3d 61f8 9dbc
00000090: 9f25 9a3d 7af6 13bd b3e7 2c3d 6076 bf3d
000000a0: 3b20 aa3c 68fd 933d 2590 b7bc 01e5 9ebd
000000b0: 0055 6bbd 53d8 963d c422 86bd 25a4 ffbc
000000c0: b108 90bd 90ef 8dbc ef20 92bd f70a d23a
000000d0: 0fd2 75bd 6a44 9b3c 0b21 c83c c871 033d
000000e0: 24c5 d83c 49b7 bb3d 2553 063e 7f1b fabc
000000f0: ea77 34bd 36e1 e2bb 7957 6b3c 3296 0239
00000100: 5459 fcbc 0a42 1b3d 35e0 233d 785d 3cbe
00000110: a869 02bd 5136 75bd a72c ab3c e75e a5bc
00000120: e69e 37bc 8ce4 903d 6723 13bc e201 37bc
00000130: 20b2 c1bd 2fcb 2b3c 9748 0fbc 79da 7b3d
00000140: 86ae 923c 063e d1bd dadf e2bc 666f afbd
00000150: 404d 88bd e756 45bd f774 44bb 2b48 4c3c
00000160: da80 edbc 4f7d 2a3d d7d5 293d 451f c93d
00000170: a0f3 32bc 5a7f 743d 13a1 d2bd 6974 88bd
00000180: e648 51bc 7e73 f23c 38aa 23bd ca1a f53c
00000190: 7a5c a43d a6fb 7fbd a717 903d 2385 2bbd
000001a0: ff7f e2bc 32c8 4c3c 8b3e a73b f798 58bc
000001b0: 4521 a03c b2fe 9cbc 1202 93bd e555 94bd
000001c0: 1380 66bd 8650 29bd 7f6b b33c 43f2 b7bc
000001d0: 658f b63d 6937 a33c 7d4a 96bc 3924 89bd
000001e0: da04 803c 06ad d53c 8ff0 01be baef fcbc
000001f0: a926 afbc 9744 92bd 71ac 40bd 2590 adbd
00000200: 1239 0abe 24af 63bd a031 673b 12b2 88bd
00000210: cb37 6cbd 9888 b5bd 96d5 783d 4148 9dbc
00000220: 7e72 20bd a306 003c 1988 f53a fa58 223d
00000230: e7de 023d 5a79 593d 6906 86bb 8e45 8cbd
00000240: e718 283d 6f52 1ebd 793d cc3c b038 143d
00000250: 0ca5 13bd 976e e03d 2e02 893d 2477 83bd
00000260: 7b8a 48bd 8796 96ba fd6f 62bd 48d4 ad3c
00000270: 34c9 9cbc 4b31 d03d 65e9 0ebd 103e 813d
00000280: 7344 413d 4568 c7bb a82a 0c3d c2b0 9cbd
00000290: b46d 843d ebfd 373c adef 143c b29d 30bc
000002a0: 2617 8f3d ecf5 0d3e 7323 563d 5f16 cabc
000002b0: 1b8d f5bb ca6b 9a3d 8dd4 bcbc babc 003d
000002c0: 55cd 023d f7e1 ccbc 1738 293d 1d92 fb3c
000002d0: 696e 49bb 2d9b bd3c 2247 f03a de94 7e3d
000002e0: f416 03bc eea1 3d3d 8281 213d 30e2 473d
000002f0: b0bb 173d 6714 30bd a499 283d f585 123d
00000300: 82b9 323e cc38 383d c2d2 143c db73 1f3d
00000310: be83 e7bc edfc 643d 3091 a1bb 8767 063d
00000320: 340d 96bb c6c7 b1bd e1f3 c6bc dc92 8cbd
00000330: 28a9 3c3c 965b fc3d 1b39 83bd 85b7 6c3c
00000340: 7875 d23c d320 26bd 8709 c93d c7e1 0d3d
00000350: f118 893c 695d e13c 0efe 413d b0dc 963d
00000360: c804 94bc cdaf 29bb fd42 08bc 7674 8ebd
00000370: 6153 08bd 761b 86bc cbac 1ebc a524 19bd
00000380: bedc dabc 696d c2bd f7f5 2ebd 2991 32bd
00000390: 4dcf f33c d156 c8bc 3685 fabc 125f 9bbc
000003a0: eaff 99bb 7627 963c fd5d 713a 2951 903c
000003b0: a9d5 833b 1534 66bd ae8e 4b3c f347 4abd
000003c0: a2dd 333d 7506 8d3d ec59 ae3d ca8e cebc
000003d0: 4c91 3a3d 8f73 edbc da2d 2bbc 1526 f4bd
000003e0: ffe4 d93d ed8f 523e a239 bb3d 78b9 debd
000003f0: 7eed cdbd 4c51 103d d38e 87bd 7eec d23c
-0.014291786 -0.06056682 0.00076120085 0.022679677 0.02306219 -0.0681212 -0.02707955 0.053933505
-0.039284054 -0.0513727 -0.0020492694 -0.008912562 -0.021362783 0.052997943 -0.11834909 0.051848102
0.027122183 -0.100959584 -0.05252464 -0.039896324 0.108042374 -0.053595647 -0.09962144 -0.055452902
-0.04450754 0.07211543 0.013358776 -0.03052154 0.08144602 -0.0011906843 -0.015154458 0.05487361
0.007631307 0.056291975 0.054076076 -0.019283475 0.07526707 -0.03612373 0.042213153 0.0934875
0.020767322 0.07226068 -0.0224076 -0.07758523 -0.05745411 0.07365479 -0.065496 -0.0312062
-0.07032908 -0.017326146 -0.07135188 0.0016024996 -0.06001478 0.01895352 0.024429819 0.032090932
0.026461191 0.09165818 0.13117655 -0.03053069 -0.04405967 -0.00692382 0.014364117 0.00012453718
-0.030804314 0.037904777 0.040008742 -0.1839503 -0.031839043 -0.059866253 0.020895315 -0.020186855
-0.011207318 0.07074842 -0.008980609 -0.0111698825 -0.09457803 0.010485454 -0.008745334 0.06148765
0.017905485 -0.10216908 -0.027694631 -0.085661694 -0.06655359 -0.04817858 -0.0029976943 0.012468378
-0.028992105 0.04162341 0.0414637 0.09820417 -0.010922343 0.059691764 -0.10284629 -0.066628285
-0.012773728 0.029596087 -0.039957255 0.02992 0.08025451 -0.06249585 0.07035761 -0.041875016
-0.027648924 0.012498902 0.0051038912 -0.013220063 0.019547114 -0.019164417 -0.07178129 -0.072429456
-0.056274485 -0.04133656 0.021901844 -0.022454387 0.08914069 0.019923883 -0.018346066 -0.06696362
0.015627313 0.02608348 -0.12689422 -0.03087603 -0.02138074 -0.07141989 -0.047039453 -0.08474759
-0.13498333 -0.05558695 0.0035277382 -0.06674589 -0.057670396 -0.08863944 0.060750566 -0.019199492
-0.03917169 0.007814082 0.0018732577 0.039635636 0.031950857 0.053094245 -0.0040901196 -0.06849204
0.041039374 -0.038652834 0.024931656 0.036186874 -0.036046073 0.10958593 0.06689869 -0.06419209
-0.04896019 -0.0011488952 -0.05528258 0.021219388 -0.01913891 0.10165652 -0.03489055 0.063106656
0.04718442 -0.006085428 0.034220368 -0.076509014 0.06466237 0.011229972 0.009090346 -0.010779785
0.06986837 0.13863343 0.0522799 -0.02466887 -0.0074936277 0.075400904 -0.02305057 0.031429984
0.0319341 -0.025010092 0.041313257 0.03070932 -0.0030735976 0.023145283 0.0018331746 0.06215369
-0.008001078 0.046297006 0.03943015 0.048799694 0.037044227 -0.042988207 0.041162148 0.035772283
0.17453578 0.04497604 0.009083452 0.038928848 -0.028261062 0.05590527 -0.004930638 0.032813575
-0.0045792107 -0.08680682 -0.024286212 -0.06863949 0.011514939 0.12322156 -0.064073764 0.014448051
0.02569078 -0.040558647 0.0981627 0.034639146 0.016735526 0.027510362 0.047361426 0.073663116
-0.018068686 -0.002589214 -0.0083167525 -0.06955807 -0.03328264 -0.016370516 -0.009684752 -0.037388463
-0.026716586 -0.094935246 -0.04271504 -0.043595467 0.029761935 -0.02445546 -0.030581098 -0.018966231
-0.004699697 0.018329363 0.0009207426 0.017616825 0.004023273 -0.056202013 0.012424154 -0.049385022
0.043912537 0.06885997 0.08513245 -0.025214572 0.045548722 -0.028985767 -0.010447944 -0.11921326
0.10639381 0.20562716 0.09141852 -0.10875219 -0.10055064 0.03523378 -0.066190384 0.025747534

layer2.bias f4 [50]
00000000: 5c47 7b3d 69e6 7cbd 7c7a 01bd 73aa 55bd
00000010: 4bd5 663d fff2 123b 6f91 0ebd 2180 123d
00000020: 0cd4 9b3c d48b d3bb da07 2e3d 60ad 0e3d
00000030: ae85 0ebd f514 6fbd 2443 19bd 575f af3c
00000040: 586c 4bbd 6280 d43c 42aa e13c 46ff 7b3c
00000050: 71e6 9bbc 9532 45bd 546c db3c 7e9e 1c3d
00000060: 795d 67bd a78d a4bc 1e68 a03c 843e 543d
00000070: 142d ebbc 944e 8d3d 3c81 5b3d b8c9 89bd
00000080: 5d59 32bd 1103 f9bc 40b7 9f3c 870a 57bd
00000090: 1aa8 0f3d f13c 5b3d 866e 0b3c 2a59 4cbd
000000a0: 43c2 7d3d a865 c3bb b223 b7bc 8296 81bd
000000b0: 1cdb 2a3d 4780 d1bc e28c 2bbd 23b6 21bd
000000c0: 3f64 c7bc c195 40bd
0.06134735 -0.061743174 -0.03161095 -0.052164506 0.056355756 0.002242267 -0.034806665 0.035766724
0.01902201 -0.006455878 0.042487957 0.034833312 -0.034795456 -0.058369596 -0.037417546 0.021407766
-0.04966387 0.025940124 0.027547006 0.015380686 -0.019030781 -0.048143942 0.026785053 0.038237087
-0.056485627 -0.020087076 0.019580897 0.051817432 -0.028708018 0.06899753 0.053590044 -0.06727928
-0.043542255 -0.03039697 0.01949656 -0.052500274 0.035072424 0.053524915 0.008510238 -0.04988972
0.06195284 -0.005963046 -0.022355888 -0.06327535 0.041712865 -0.025573863 -0.041882403 -0.03948034
-0.024339793 -0.047017816

layer4.weight f4 [25, 50, 3, 3]
00000000: 0e3c 343c c17f 2abe bed7 9dbd 9fb2 e23c
00000010: dbea 433d b0fb 4c3d 4206 5dbb 3b77 77bb
00000020: 4f11 2e3d 25b2 9abc 06de ee3c f2d1 1c3c
00000030: 200d 20bd 257b 60bd 829a bdbd 8b32 5a3d
00000040: c8d2 b5bc 00f9 83bd 87b9 c2bc 4187 5c3c
00000050: dccf 41bc fccf 69bd 8f2c cdbd 1979 753d
00000060: a24a bfbc 966e d1bc b6ac c43d cfd6 523d
00000070: 0caf a93d 011a ee3b ab2e 52bc 722a cfbc
00000080: cc00 9b3c ed7d 103d 9ce8 1fbc 11f4 1d3e
00000090: 1d4f 973c d02e 173d f6ca d7bd 3146 5abc
000000a0: bc30 26bd cc47 d0bc 4fcf 563d 7640 253d
000000b0: 92ba eb3c c8dd d13d e29f 5ebc 7e24 cf3c
000000c0: 36b3 38bd 8aa1 babc f5bb ccbc b8a6 0bbc
000000d0: 2a77 bbbc fb31 b43c 85ad c4bc 3e6f 38bd
000000e0: 0e52 863d 0b86 29bd dac9 2a3d 7ad5 9cbc
000000f0: 22e0 96bd b6bf e9bd 0ac6 04bc 22e6 593d
00000100: f040 5d3d 85f1 b63c e735 bdbd 5c5c 1e3d
00000110: eb1f dabd 359c 0ebd 1800 cdbd 2df2 f63c
00000120: 6691 63bd 8e39 21bc acbd 123c 30e4 4e3c
00000130: 03db 85bd 9e51 24bb ed25 1e3e 94b6 d4bd
00000140: 6ffa 1e3d bfed b43c 4dc2 833d 05e1 ee3c
00000150: 52a3 85bc ec6a 8cbd 2223 9fbc 52a7 183c
00000160: 2c16 a53c 9632 23bd bb7d d53c d5a8 a63d
00000170: 84fa 4d3e 9d89 963c 4dde 35bc 7684 da3c
00000180: e974 7abd cff0 3a3b c21a 48bd 6b87 b7bd
00000190: 153c 81bd a95f 21bc 7ccc 59bc 64a8 0fbd
000001a0: 1919 ccbd de81 bc3c e30b 17bd dd3c 223d
000001b0: 11cb 8b3d 84ca 6f3d 763f 003e db19 eeba
000001c0: 4490 cbbc db13 cd3c 4e53 893d 6376 07bd
000001d0: d300 2b3b 8247 c63d 8211 803b 8a72 b43c
000001e0: 00cf 893d 862f 7fbd 127e 82bd f726 f9bc
000001f0: b79d c23b 7d55 47ba 6023 3c3d 1875 12bd
00000200: 9cc3 68bd 0bc3 a83d dde1 ee3b f00d 98bd
00000210: d450 053c 31f6 80bd badb f5ba 4d6e f2bc
00000220: 2b46 9abd 795b 753b fb86 9a3d 22e4 10bd
00000230: 12a3 873d 6076 463d ba50 b13c 6e34 713d
00000240: d636 b6bd 8b1e 823b 0895 f63c 993e 663d
00000250: c0a8 ae3c c68e fbbc 6795 11bc 9c82 0dbd
00000260: 1443 3bbc 1ff1 a83d 7b5f 75bd ffdd 89bd
00000270: ffc1 173e 6268 3b3d 7070 213d 48d9 9fbc
00000280: 7a57 633c b5e1 ca3c 78f2 30bd 70d2 7d38
00000290: e32f 22bd 733b 11bd 4c7d 07ba 5eef c43b
000002a0: fd98 463d 64b9 393d 3d2d 203d fcb4 8bbd
000002b0: 9d2c bd3c da22 7fbb b1b2 f7bc 7c39 71bd
000002c0: 54ff c8bd 594b 0bbd 51da 463d 6dbf d83b
000002d0: cb68 86bd 43aa 793d 16d7 a43b 0a2e 4fbd
000002e0: 4c3c 383d 6105 84bb 9662 213d b7eb 0abe
000002f0: b0c6 27bc 1aee f8bc 499b 9f3d 6ee4 9ebc
00000300: 8e68 aa3b 513c d7bc 8354 783d 0269 333b
00000310: dd56 e2bc d1ba 1bbd 4698 d5bc d6ba f0bc
00000320: f136 cb3c 3061 fcbb f3ed cfbb c84b 59bd
00000330: 3342 6438 9185 9abc dfcd a63d b128 b4bd
00000340: 54fb 223d 238e bf3d bb5b 1fbd a466 673b
00000350: f95f 423d 9129 db3c 43e3 583d f057 04bd
00000360: b01c 0c3e 4eb1 40bd 6163 683d f252 bd3a
00000370: 7cd8 30bd 2b39 9fbb 9322 2e3d 6c2f bebb
00000380: 5895 c43c 14b2 d53c acd1 dc3c 906a 163d
00000390: 71f5 c93d 96e5 65bd a253 003e 2a84 943c
000003a0: ba9f e3bd 2a79 52bd b5f7 043d d3fc 9cbc
000003b0: ad8c 04bd 4851 b3bd c89b 293d 2f6a c13d
000003c0: a885 143e 3907 ed3c 4e77 88bd 2fb2 543d
000003d0: 569f 293d 7b67 0a3d 5c89 1f3d 89df 61bc
000003e0: aa89 31bd 27c6 dfbc 1f05 4dbc 4596 bfbb
000003f0: 38ca aabc cb24 c9bd 7d08 a2bc d4c0 f93c
0.011000646 -0.16650297 -0.07707165 0.027673064 0.047831398 0.050044715 -0.0033725654 -0.0037760276
0.042496976 -0.018883774 0.029158603 0.009571539 -0.039075017 -0.05480494 -0.09257986 0.053270858
-0.022195235 -0.06443977 -0.023770107 0.013459981 -0.011829343 -0.057083115 -0.100182645 0.05992994
-0.023351017 -0.025565427 0.096032545 0.05147439 0.08285341 0.0072662835 -0.012828509 -0.025288794
0.018921278 0.035276342 -0.009760048 0.15425135 0.018470341 0.03690988 -0.105367586 -0.013322399
-0.04057382 -0.02542486 0.0524438 0.040344678 0.028775487 0.102473795 -0.013587924 0.025285956
-0.045092784 -0.022782106 -0.024991969 -0.008523636 -0.02288397 0.021996489 -0.024008522 -0.045027964
0.065586194 -0.0413876 0.041696407 -0.019144762 -0.07366969 -0.11413519 -0.008103857 0.053197987
0.054017007 0.022331962 -0.09238797 0.0386623 -0.10650619 -0.03481694 -0.100097835 0.030144775
-0.055558585 -0.009840382 0.008956354 0.012627646 -0.06535914 -0.0025073062 0.15444155 -0.103863865
0.03881305 0.022086022 0.06433544 0.029160032 -0.016313229 -0.06856331 -0.019425932 0.009317236
0.020152174 -0.039843164 0.02606093 0.08137671 0.20115095 0.018376166 -0.011100364 0.02667449
-0.06114665 0.002852488 -0.048853643 -0.08961376 -0.06310288 -0.009849467 -0.013293382 -0.0350727
-0.099657245 0.023011144 -0.03687657 0.039608825 0.06825841 0.058542743 0.12524208 -0.0018165665
-0.024849065 0.025033882 0.06705342 -0.033071887 0.002609302 0.09681608 0.003908337 0.022027273
0.06728935 -0.06230118 -0.06371702 -0.030414088 0.005939211 -0.00076039863 0.045932174 -0.0357562
-0.056827173 0.082403265 0.0072901086 -0.07424533 0.008136947 -0.06296957 -0.00187575 -0.029593611
-0.07532915 0.0037438555 0.07545277 -0.035373814 0.066229 0.048452735 0.021644939 0.05888789
-0.08897178 0.003970926 0.03010036 0.05621204 0.0213207 -0.030707728 -0.008885718 -0.034548387
-0.011429567 0.08249115 -0.05990551 -0.067317955 0.14820097 0.045753844 0.03941387 -0.019512787
0.0138758365 0.024765829 -0.043199986 6.0515886e-05 -0.03959645 -0.035457086 -0.0005168512 0.00600998
0.048485745 0.045342818 0.039105643 -0.068216294 0.023092562 -0.0038930685 -0.030236574 -0.058892712
-0.09814325 -0.034007404 0.048548046 0.0066146166 -0.065629564 0.06095339 0.005030523 -0.050581016
0.04497938 -0.0040289615 0.03940066 -0.1356648 -0.010240242 -0.030386973 0.0779329 -0.019396033
0.005200452 -0.026273878 0.06062747 0.0027375822 -0.02762931 -0.03801996 -0.026073586 -0.029385965
0.024806472 -0.0077020153 -0.0063455044 -0.053050786 5.442109e-05 -0.018862518 0.081447355 -0.08796824
0.039790466 0.09353282 -0.03890584 0.0035308981 0.047454808 0.026753219 0.05295111 -0.032310426
0.13682818 -0.04704409 0.0567354 0.0014444275 -0.043175206 -0.00485911 0.04251344 -0.005803993
0.023996994 0.02608589 0.026955448 0.03672272 0.09861267 -0.056127153 0.12531903 0.018129427
-0.1111445 -0.051385082 0.032462794 -0.019163525 -0.03236072 -0.087557375 0.04140833 0.09444081
0.14504111 0.028934108 -0.066633806 0.05192774 0.04141172 0.033790093 0.038949355 -0.013786205
-0.043344177 -0.027316166 -0.012513428 -0.005846771 -0.020848379 -0.09821471 -0.019779438 0.030487455

layer4.bias f4 [25]
00000000: b91b 10bd fc48 a33c 80d6 d5bc 2358 02bd
00000010: 8962 bcbc a926 de3c 9f47 1f3c e1c5 0ebd
00000020: aca4 033d 3196 d13c 88ce 3fbd a654 03bc
00000030: 1c40 9cbc a0dd a63c 3e9a 0cbc 8b52 b23c
00000040: 7154 18bd 6e7a d13c 5021 24bb eb68 663c
00000050: 3f1f 95bc 094a 0ebc f6c0 553c 7c07 fd3c
00000060: 20ff 97bc
-0.03518269 0.019932263 -0.026103258 -0.031822335 -0.022996204 0.027118044 0.009721666 -0.03485668
0.032139465 0.025584312 -0.046827823 -0.008015787 -0.019073538 0.02036935 -0.008581696 0.021767875
-0.037189905 0.025571074 -0.002504427 0.0140631 -0.018203376 -0.008684644 0.013046494 0.030887358
-0.01855427

exp_avg f4 [25, 1, 3, 3]
00000000: 2513 c5c7 aa8f f6c7 3da7 fdc7 412c 66c7
00000010: 70f7 a8c7 ba7c bac7 95c3 cf45 cafd 96c6
00000020: 188d 01c7 7492 9dc8 6c26 8ec8 61ad 2ac8
00000030: c122 c0c8 26f2 b4c8 1034 74c8 f06a b4c8
00000040: d0ee adc8 d111 70c8 36b8 9348 457c 8048
00000050: b6d5 2048 210b 9148 72c6 8248 4261 2d48
00000060: 0a17 6148 583d 4f48 2870 0748 4011 44c7
00000070: 66f4 55c7 4867 69c7 1e09 4e46 f2ea ff45
00000080: 0044 49c5 9a8d 4747 9669 3347 8cb7 f046
00000090: 9025 00c8 450c 01c8 301f adc7 35b0 06c8
000000a0: 1ef5 10c8 78a0 d7c7 2037 f7c7 20e9 0cc8
000000b0: f840 dec7 46b4 5ac8 f88a 50c8 1657 d5c7
000000c0: e3f4 6cc8 23c9 73c8 0834 19c8 1192 35c8
000000d0: 484f 4bc8 4282 06c8 9350 3c47 c417 9c47
000000e0: 9ca1 a447 0a9b 7247 7867 bc47 9c80 c547
000000f0: db7e 4a47 5c7d a947 dcd2 b647 56f6 6dc8
00000100: 5267 57c8 a480 01c8 b422 72c8 95d6 64c8
00000110: 6256 13c8 3628 36c8 390f 31c8 3ddb d8c7
00000120: 1d02 37c8 58f3 fcc7 b68b 13c7 bea2 29c8
00000130: b808 e7c7 f4bb dfc6 f4cd f7c7 2c51 98c7
00000140: a0b6 a744 09ab 8148 24b1 9c48 3984 9648
00000150: a734 3948 5486 7748 44c6 7748 0788 9647
00000160: 5233 0a48 405d 1648 388d 9848 e2dc 8648
00000170: b014 2048 dcbf 9b48 20ec 8e48 6065 3548
00000180: 744b 7148 2818 6048 409b 0648 dc91 4648
00000190: c8ff 2548 4653 b147 90de 2c48 faf1 1948
000001a0: f0c6 b347 d23d c047 d0e7 b347 45e0 3547
000001b0: 74f2 97c4 22bc 76c7 df16 eac7 2c5b c947
000001c0: 9ac0 dd46 b57f 44c7 fa7c 4848 fedd f747
000001d0: 2ed8 0747 f09f 01c8 ba53 ebc7 dc3e 5ac7
000001e0: e6a3 35c8 3902 31c8 5489 e1c7 0ec2 39c8
000001f0: 5a5c 3cc8 2256 02c8 ab07 92c8 a284 7cc8
00000200: 257c 05c8 8783 82c8 fad0 68c8 ecc0 fac7
00000210: 6ac3 2ec8 5253 20c8 e22e 99c7 98cd 83c8
00000220: 9009 89c8 2af0 58c8 ccb7 70c8 f8e5 82c8
00000230: 7fdd 55c8 86df 28c8 c39e 44c8 94a2 22c8
00000240: 8af1 0148 dcaf 1948 c4da 1448 aaec 5e47
00000250: 315b a447 deb7 b047 345e 1bc7 54f7 4dc6
00000260: 6c94 8a45 98f5 0e48 aab5 f247 2a30 7c47
00000270: a3fc 1048 b28f f147 2cf3 6f47 06e8 eb47
00000280: 329c be47 589e 2247 1485 fa46 2c3e ba47
00000290: 0ecc 0348 9f73 4ac7 249d 4846 87e1 7447
000002a0: de35 efc7 5739 76c7 1c99 0dc6 b254 89c7
000002b0: 18fb 8ec7 f050 25c7 7084 acc7 475e bdc7
000002c0: 5c8c 87c7 0098 a3c7 6e38 c0c7 def3 99c7
000002d0: 696c c247 1660 2148 f37b 3948 8663 ca47
000002e0: e3e6 3748 2c2e 6048 2a0f 8047 afdf 1d48
000002f0: 20fd 5448 849a 6b48 deae 7948 280d 3f48
00000300: ac6f 7548 34cc 8648 4665 5848 68e6 3f48
00000310: 0487 5e48 ad08 3548 7a21 0f47 6ed7 e346
00000320: cc27 eb46 80b1 a4c6 ea92 22c7 ae10 3ac7
00000330: 8ab2 4dc7 04be a6c7 aeab c3c7 cd8d 17c8
00000340: 4994 0fc7 3612 ac47 26a3 0fc8 c85b ccc6
00000350: db6f c647 eaf0 e8c7 59f7 f0c5 dc17 d647
00000360: dc71 f0c7 5449 8fc7 7608 eec4 3ae7 12c8
00000370: e2cd c8c7 12ce e6c6 0668 0ac8 0c55 c2c7
00000380: 78c9 f7c6
-100902.29 -126239.33 -129870.48 -58924.254 -86510.875 -95481.45 6648.4478 -19326.895
-33165.094 -322707.62 -291123.38 -174773.52 -393494.03 -370577.2 -250064.25 -369495.5
-356214.5 -245831.27 302529.7 263138.16 164694.84 297049.03 267827.56 177541.03
230492.16 212213.38 138688.62 -50193.25 -54772.4 -59751.28 13186.279 8189.368
-3220.25 51085.6 45929.586 30811.773 -131222.25 -132145.08 -88638.375 -137920.83
-148436.47 -110400.94 -126574.25 -144292.5 -113793.94 -223953.1 -213547.88 -109230.17
-242643.55 -249636.55 -156880.12 -185928.27 -208189.12 -137737.03 48208.574 79919.53
84291.22 62107.04 96462.94 101121.22 51838.855 86778.72 93605.72 -243673.34
-220573.28 -132610.56 -247946.81 -234330.33 -150873.53 -186528.84 -181308.89 -111030.48
-187400.45 -129510.69 -37771.71 -173706.97 -118289.44 -28637.977 -126875.91 -77986.34
1341.707 265560.28 320905.12 308257.78 189650.61 253465.31 253721.06 77072.055
141517.28 153973.0 312425.75 276199.06 163922.75 318974.88 292705.0 185749.5
247085.81 229472.62 137837.0 203335.44 169983.12 90790.55 177018.25 157639.9
92045.875 98427.64 92111.625 46560.27 -1215.5767 -63164.133 -119853.74 103094.34
28384.3 -50303.707 205299.9 126907.984 34776.18 -132735.75 -120487.45 -55870.86
-185999.6 -181256.89 -115474.66 -190216.22 -192881.4 -133464.53 -299069.34 -258578.53
-136688.58 -267292.22 -238403.9 -128385.84 -178957.66 -164173.28 -78429.766 -269932.75
-280652.5 -222144.66 -246495.19 -268079.75 -218997.98 -172926.1 -201339.05 -166538.31
133062.16 157375.44 152427.06 57068.664 84150.38 90479.734 -39774.203 -13181.832
4434.5527 146390.38 124267.33 64560.164 148466.55 123679.39 61427.17 120784.05
97592.39 41630.344 32066.54 95356.34 134960.22 -51827.62 12839.285 62689.527
-122475.734 -63033.34 -9062.277 -70313.39 -73206.19 -42320.938 -88328.875 -96956.555
-69400.72 -83760.0 -98416.86 -78823.734 99544.82 165248.34 189935.8 103623.05
188315.55 229560.69 65566.33 161662.73 218100.5 241258.06 255675.47 195636.62
251326.69 276065.62 221589.1 196505.62 227868.06 185378.7 36641.477 29163.715
30099.898 -21080.75 -41618.914 -47632.68 -52658.54 -85372.03 -100183.36 -155191.2
-36756.285 88100.42 -147084.6 -26157.89 101599.71 -119265.83 -7710.9185 109615.72
-123107.72 -73362.66 -1904.2644 -150428.9 -102811.766 -29543.035 -141728.1 -99498.09
-31716.734

exp_avg_sq f4 [25, 1, 3, 3]
00000000: e5f3 2750 1bf0 8f50 50b2 cb50 f875 b54f
00000010: 36f4 3850 149b 9550 a9a5 4d4f 6a39 ca4f
00000020: 399a 3650 eca1 3e52 9175 3152 e94b 0752
00000030: 7838 5d52 4041 4f52 81a7 1c52 ce57 4c52
00000040: 05ec 3f52 d85f 1052 085d fe52 e3f4 0653
00000050: e59f fa52 e11f 0653 d15f 0e53 f900 0453
00000060: 5831 f652 97b8 0253 a1c2 f252 2541 3b51
00000070: dac9 1751 e7e0 d550 54e6 3651 3aaa 0c51
00000080: 5547 b850 123d 1951 92b9 df50 ac73 8850
00000090: f36f cd51 246b d751 7c70 ba51 0bc8 d351
000000a0: 658f e151 0ee3 c451 5efe bb51 2425 ca51
000000b0: 5b4f b151 3a06 8451 9f3d a051 959b 9951
000000c0: 7883 b251 09f5 e651 506b e951 d0c1 bd51
000000d0: 9a08 0252 cbf4 0a52 7b43 3251 02e0 e050
000000e0: f6cc 8b50 3773 f950 82b5 8d50 7a91 3150
000000f0: 8d34 9d50 087c 1d50 70e9 d94f d18f b951
00000100: 5dea c851 03b9 b251 ed4c c051 55fc d151
00000110: cdca ba51 74fa a351 bf7f b451 fafa a151
00000120: a0cc 9850 12cc 4250 ee80 c54f 56a4 b650
00000130: bd31 7950 b55e 1350 2065 cf50 0f8b 9d50
00000140: 89f5 5e50 9525 2452 8268 4852 7bf9 4c52
00000150: a770 fd51 04d8 2052 f330 2b52 e946 a251
00000160: bd23 d551 619c ed51 0e1f 0b52 3515 e751
00000170: 750c 9b51 9497 1952 67c1 0052 3c82 ad51
00000180: 7903 0952 54aa e451 83fb 9951 ec05 2e52
00000190: bd78 2252 966a 0352 617a 2352 cf79 1c52
000001a0: 4158 0252 75bf ff51 629b fb51 e587 d951
000001b0: 43ab 8451 5593 b351 d5ed d451 7f9a a051
000001c0: d0f2 cf51 62e8 ee51 c02c b951 4dfc e151
000001d0: 016d f751 4509 e650 ea6a d750 0f43 9f50
000001e0: 7560 2a51 0f3e 1d51 eb87 e150 2f27 3b51
000001f0: c02e 2951 b3e3 ec50 ad13 4652 483e 1a52
00000200: a97f ba51 5d77 2952 9df6 0252 6b86 9c51
00000210: 06a2 f551 29fb bf51 068a 6e51 2b2d 2452
00000220: 2feb 2952 bd91 1452 ccf8 1f52 b2b0 2252
00000230: 0e1d 0b52 48d0 0852 25f5 0752 ddb9 e351
00000240: 295e 4851 9613 6251 1890 5c51 502d 3451
00000250: 3d77 4751 339c 4151 91c9 1f51 ad20 2951
00000260: d777 1e51 5666 5251 0cfd 6151 bf2d 5751
00000270: cf82 7c51 e028 8951 4acc 8451 1f11 8851
00000280: faba 9551 ad0b 9451 9e20 9251 2b3d af51
00000290: 01d9 b751 0b48 3c51 1be9 6c51 7f00 8551
000002a0: b1f3 d150 13f2 0551 8252 2151 7842 4d51
000002b0: 5431 7b51 b83f 7a51 e238 7851 791e 9b51
000002c0: 4b66 9e51 ef03 8351 13cc a551 34e3 ac51
000002d0: 82de 0652 bab9 3252 0933 4c52 fc3b fc51
000002e0: 4f2c 2c52 3127 4a52 68dc cf51 3765 1052
000002f0: c279 2d52 f0d4 0252 b3bb 5a52 8315 9152
00000300: 5405 1352 b017 7352 f392 9f52 517c 0652
00000310: 38df 5d52 2e7d 9152 9256 b250 380d 8850
00000320: 6e52 3550 ce98 c450 5350 8d50 8d1e 2f50
00000330: 2aa1 cd50 44f6 9250 7dea 3a50 11b3 ce51
00000340: 2c53 d151 2150 c251 43e6 cb51 a993 c651
00000350: d39f b251 e096 b251 9065 a851 08ce 9351
00000360: 8eca 7d50 8fb9 4350 63fe 0550 a816 7c50
00000370: 9976 4050 2867 f94f d33f 6350 c03b 3850
00000380: 45af 0150
1.1271116e+10 1.931902e+10 2.7339686e+10 6.0888146e+09 1.2412049e+10 2.0079747e+10 3.450186e+09 6.7855206e+09
1.2254242e+10 2.046901e+11 1.9054541e+11 1.4527354e+11 2.3753379e+11 2.2253824e+11 1.6820629e+11 2.1941161e+11
2.0607463e+11 1.5502082e+11 5.4624125e+11 5.7963414e+11 5.382122e+11 5.7606046e+11 6.114929e+11 5.66952e+11
5.286949e+11 5.6144265e+11 5.213237e+11 5.026574e+10 4.074541e+10 2.870629e+10 4.909677e+10 3.775946e+10
2.473346e+10 4.113466e+10 3.0027846e+10 1.8314256e+10 1.1029331e+11 1.1565194e+11 1.0009389e+11 1.1369928e+11
1.21096675e+11 1.0570287e+11 1.0092831e+11 1.0852581e+11 9.519257e+10 7.088002e+10 8.6028575e+10 8.246753e+10
9.583873e+10 1.23994186e+11 1.2531597e+11 1.0187506e+11 1.3962251e+11 1.492031e+11 4.785227e+10 3.0182216e+10
1.8763723e+10 3.348062e+10 1.9019862e+10 1.1916405e+10 2.1099735e+10 1.0568606e+10 7.311909e+09 9.962272e+10
1.0786568e+11 9.595102e+10 1.0324054e+11 1.127352e+11 1.0028329e+11 8.80352e+10 9.690467e+10 8.696255e+10
2.0508377e+10 1.3072615e+10 6.627122e+09 2.4513786e+10 1.6723146e+10 9.88983e+09 2.7836088e+10 2.114509e+10
1.4962533e+10 1.7625129e+11 2.151867e+11 2.2008973e+11 1.3606459e+11 1.7270473e+11 1.8381516e+11 8.71218e+10
1.1442845e+11 1.2756636e+11 1.4938037e+11 1.24061655e+11 8.3241116e+10 1.6491826e+11 1.3825014e+11 9.315179e+10
1.471172e+11 1.2276377e+11 8.266871e+10 1.8685592e+11 1.7445259e+11 1.4110723e+11 1.7553321e+11 1.6801463e+11
1.399566e+11 1.373036e+11 1.3508046e+11 1.1678598e+11 7.122612e+10 9.640887e+10 1.143154e+11 8.622335e+10
1.1164149e+11 1.2826262e+11 9.941497e+10 1.2132507e+11 1.3283571e+11 3.0874937e+10 2.8912865e+10 2.1375777e+10
4.573517e+10 4.220944e+10 3.0270249e+10 5.0238517e+10 4.5414613e+10 3.1794764e+10 2.126834e+11 1.6561747e+11
1.0012571e+11 1.8196301e+11 1.4062081e+11 8.403376e+10 1.3187316e+11 1.03069065e+11 6.4032367e+10 1.762831e+11
1.824488e+11 1.5952506e+11 1.7176848e+11 1.7468729e+11 1.4937198e+11 1.4690248e+11 1.4598336e+11 1.2225948e+11
5.3785825e+10 6.068695e+10 5.9206894e+10 4.8365896e+10 5.3543686e+10 5.197183e+10 4.2892595e+10 4.5399855e+10
4.2538463e+10 5.6478753e+10 6.0663316e+10 5.776159e+10 6.7782898e+10 7.363704e+10 7.1295386e+10 7.305035e+10
8.0385884e+10 7.948138e+10 7.845156e+10 9.408069e+10 9.870247e+10 5.054141e+10 6.3595196e+10 7.140487e+10
2.817927e+10 3.595575e+10 4.3304624e+10 5.5098966e+10 6.7429024e+10 6.717568e+10 6.663164e+10 8.32789e+10
8.504013e+10 7.033834e+10 8.9011675e+10 9.281828e+10 1.4481467e+11 1.9190504e+11 2.1925739e+11 1.3541727e+11
1.8486944e+11 2.1706023e+11 1.11594504e+11 1.5504335e+11 1.8626802e+11 1.4047956e+11 2.3486299e+11 3.1156558e+11
1.578624e+11 2.6101862e+11 3.426826e+11 1.4440283e+11 2.3823319e+11 3.124352e+11 2.3936143e+10 1.8260541e+10
1.2168313e+10 2.6386788e+10 1.8966813e+10 1.175206e+10 2.759913e+10 1.9724902e+10 1.2543718e+10 1.1097094e+11
1.12380445e+11 1.04321e+11 1.0946769e+11 1.0661011e+11 9.58982e+10 9.587943e+10 9.0407305e+10 7.93521e+10
1.7031641e+10 1.3134872e+10 8.992165e+09 1.6917373e+10 1.2915992e+10 8.3685745e+09 1.5250443e+10 1.2363694e+10
8.702989e+09

exp_avg f4 [25]
00000000: a6e9 4848 322e 4c47 e233 aac7 48a8 50c6
00000010: 5a75 b947 0e83 ac47 01e6 1447 0b6c bc47
00000020: aa64 9146 bb62 1ec8 c08c c5c4 7fd7 86c7
00000030: e072 7346 d067 1b45 d230 f547 2890 e7c6
00000040: 46aa 8ec6 9acb bbc7 53c5 aac7 9df8 ca47
00000050: 7c2c b3c7 49e6 c5c7 00e2 10c7 a4ca 45c7
00000060: e82d e046
205734.6 52270.195 -87143.766 -13354.07 94954.7 88326.11 38118.004 96472.086
18610.332 -162186.92 -1580.3984 -69038.99 15580.719 2486.4883 125537.64 -29640.078
-18261.137 -96151.2 -87434.65 103921.23 -91736.97 -101324.57 -37090.0 -50634.64
28694.953

exp_avg_sq f4 [25]
00000000: 42eb 7a50 6612 934f c5be 7750 5a68 4051
00000010: 75af a350 cc52 4650 c689 7351 f7eb 7350
00000020: 4c1d 1e50 38c0 dd4f 86a1 5550 04a8 e851
00000030: 9fc2 0b51 3bb2 5350 58ea 2350 92c8 8350
00000040: f433 a14e 55d9 bf50 0873 0050 0693 b84f
00000050: 394c 854f 7b58 d350 a87e b250 e0be 7251
00000060: 184e c450
1.6838887e+10 4.934913e+09 1.6625898e+10 5.164903e+10 2.196948e+10 1.330926e+10 6.537428e+10 1.6369311e+10
1.061088e+10 7.440724e+09 1.433653e+10 1.24906406e+11 3.7516603e+10 1.4206692e+10 1.1000177e+10 1.768768e+10
1.3522683e+09 2.574953e+10 8.620089e+09 6.193286e+09 4.47273e+09 2.836633e+10 2.395716e+10 6.5161527e+10
2.6347618e+10

exp_avg f4 [50, 25, 3, 3]
00000000: 58ec 01c6 9b78 06c6 9a47 4ac6 0641 b2c5
00000010: 3a55 97c5 46ee 06c6 74a3 c7c5 305f 8dc5
00000020: 529b e2c5 aa77 e244 6e43 b444 474f 84c4
00000030: 3822 4445 7239 9845 7a93 8045 7ade 7645
00000040: 36aa e845 3aab 0146 f848 46c3 c078 a9c2
00000050: 3065 4c42 8117 c4c4 18f4 0bc5 7e1c 2ac5
00000060: d604 fcc4 3a56 4fc5 96f2 86c5 d170 ba46
00000070: 22fb 9246 4874 8b46 03d3 ed46 be13 c546
00000080: 12f9 b646 5a11 0247 003b df46 62b6 ce46
00000090: 6cf7 b0c6 5315 a9c6 8b72 a2c6 a85b b3c6
000000a0: 37c7 a7c6 125b a0c6 6666 c4c6 535b b8c6
000000b0: acfd b0c6 b1fe 5e45 80db 0e45 46d7 4dc4
000000c0: 47a1 0846 8025 1e46 1e8d 0a46 a8a1 2246
000000d0: 243f 5d46 3aa3 6846 082a 3146 d6a6 0346
000000e0: c5b5 0546 e4a0 5546 3c7a 1e46 a3ff 1346
000000f0: 5572 7046 d2f3 3446 ef71 1f46 92d1 3246
00000100: e16a 3346 3c89 1a46 94ce 3346 02a2 4846
00000110: 8460 4646 6347 1146 625b 3446 72d5 4646
00000120: 33fd c4c6 c495 c4c6 7d22 cac6 bc55 a9c6
00000130: e7bb 9bc6 b6f2 98c6 3cdc adc6 fbdf 95c6
00000140: dd95 89c6 938e 5bc4 40d8 fc41 c6d8 3645
00000150: 0619 dcc4 eebe e6c4 7db1 fd43 c051 1e42
00000160: 76b4 55c4 6b9f 2f44 1b93 59c6 4806 2ec6
00000170: b227 1dc6 bee9 82c6 8506 66c6 4f1a 5cc6
00000180: d72e 98c6 9eec 8fc6 4e88 8ec6 50bf 8446
00000190: 7641 8546 66ac b146 4c6e 6646 6268 4746
000001a0: b197 8846 261d 8146 ae3b 4946 7bec 7a46
000001b0: a250 71c5 1da4 cdc5 5c0c 13c6 7cd5 f042
000001c0: 6099 24c5 c3c2 bcc5 16a8 8e45 2f92 1045
000001d0: 956b 90c4 47c2 4e46 6a4b 6046 5927 5546
000001e0: a07f 2f46 3ac5 5246 e25e 5e46 e1f2 1146
000001f0: d6ac 4046 bbc4 5d46 da4b 00c6 6c61 1ec6
00000200: 7a0c 82c6 667a 98c5 7441 7dc5 e4a4 09c6
00000210: 63d5 c4c5 5135 34c5 6a70 a2c5 f6e4 0b47
00000220: 9e5d 0147 66ee d046 3c59 1f47 0af3 1c47
00000230: 5cb0 0947 ea6a 1947 392d 1e47 7b6c 1247
00000240: 7236 7845 80c5 5245 ed03 8b45 ab80 2f45
00000250: 468e e344 b672 2945 2363 5a45 8cdc 0a45
00000260: a22c 2a45 b26d 3fc6 2703 5cc6 fcdd 71c6
00000270: 656f 31c6 8411 64c6 4492 89c6 efc3 14c6
00000280: 7223 58c6 99f7 8dc6 758e bf46 1ceb cc46
00000290: 3797 e446 2d63 a246 cd22 ab46 2c2d c346
000002a0: f419 9746 988a 9a46 3207 af46 2ac0 d3c5
000002b0: b828 f2c5 a45c dfc5 e887 c2c5 0616 d2c5
000002c0: 7444 b1c5 16ff f3c5 4779 f7c5 052b c9c5
000002d0: 423e 49c6 0347 1ac6 0c83 9ac5 3552 76c6
000002e0: cabe 5cc6 bdbe 1dc6 5ea9 65c6 3e00 62c6
000002f0: 887a 38c6 7ee6 acc5 2fca b8c5 567c 98c5
00000300: 2df2 c9c5 8679 04c6 8234 0bc6 b7ae d0c5
00000310: 56f2 1ac6 0256 34c6 b122 cb46 12a9 ca46
00000320: 40f2 c246 c276 c846 c19e ca46 275c c546
00000330: eeca cf46 3ae1 d546 d060 d346 9600 3446
00000340: 8570 5746 72e1 8746 d2c6 fb45 9c7d 2446
00000350: beaf 6946 0247 c345 5b66 0446 e85c 4a46
00000360: 4689 13c6 933a e5c5 427d cac5 ad93 29c6
00000370: 162b ffc5 b64b d1c5 4503 3ac6 1546 0bc6
00000380: 8525 dac5 7be5 5744 ae88 a245 f056 9146
00000390: ab01 b544 92ea 0d46 bdd1 c346 055d a444
000003a0: 3685 3246 fc78 e446 b295 53c5 8ab0 0046
000003b0: 4b7e 9f46 2fa0 2fc6 7b28 8b45 9b79 a546
000003c0: 92ab 31c6 624a e345 123e d246 a7aa f145
000003d0: aef8 e7c4 7057 1ac6 ddad 1746 4237 1ec5
000003e0: d253 48c6 78f2 1446 fde4 80c5 2caf 70c6
000003f0: f64f 2446 69ee 3246 1a0a b7c5 a544 e546
-8315.086 -8606.151 -12945.9 -5704.128 -4842.6533 -8635.568 -6388.4316 -4523.8984
-7251.415 1811.7395 1442.1072 -1058.4774 3138.1387 4871.1807 4114.4346 3949.9048
7445.2764 8298.807 -198.28503 -84.73584 51.098816 -1568.7345 -2239.2559 -2721.7808
-2016.1511 -3317.3892 -4318.323 23864.408 18813.566 17850.14 30441.506 25225.871
23420.535 33297.35 28573.5 26459.191 -22651.71 -21642.662 -20793.271 -22957.828
-21475.607 -20525.535 -25139.2 -23597.662 -22654.836 3567.9182 2285.7188 -823.36365
8744.319 10121.375 8867.279 10408.414 14159.785 14888.807 11338.508 8425.709
8557.442 13672.223 10142.559 9471.909 15388.583 11580.955 10204.483 11444.393
11482.72 9890.309 11507.645 12840.502 12696.129 9297.847 11542.846 12725.361
-25214.6 -25162.883 -25873.244 -21674.867 -19933.951 -19577.355 -22254.117 -19183.99
-17610.932 -878.2277 31.60559 2925.5483 -1760.782 -1845.9666 507.38663 39.579834
-854.8197 702.4909 -13924.776 -11137.57 -10057.924 -16756.871 -14721.63 -14086.577
-19479.42 -18422.309 -18244.152 16991.656 17056.73 22742.2 14747.574 12762.096
17483.846 16526.574 12878.92 16059.12 -3861.0396 -6580.514 -9411.09 120.41696
-2633.586 -6040.345 4565.0107 2313.1365 -1155.3619 13232.569 14354.854 13641.837
11231.906 13489.307 14231.721 9340.72 12331.209 14193.183 -8210.963 -10136.355
-16646.238 -4879.3 -4052.0908 -8809.223 -6298.6733 -2883.3323 -5198.052 35812.96
33117.617 26743.2 40793.234 40179.04 35248.36 39274.914 40493.223 37484.48
3971.4028 3372.3438 4448.4907 2808.0417 1820.446 2711.1694 3494.196 2221.7842
2722.7896 -12251.424 -14080.788 -15479.496 -11355.849 -14596.379 -17609.133 -9520.983
-13832.861 -18171.799 24519.229 26229.555 29259.607 20785.588 21905.4 24982.586
19340.977 19781.297 22403.598 -6776.0205 -7749.09 -7147.58 -6224.9883 -6722.753
-5672.5566 -7807.8857 -7919.1597 -6437.3774 -12879.564 -9873.753 -4944.381 -15764.552
-14127.697 -10095.685 -14698.342 -14464.061 -11806.633 -5532.8115 -5913.273 -4879.542
-6462.272 -8478.381 -8909.127 -6677.8394 -9916.584 -11541.502 26001.346 25940.535
24953.125 25659.379 25935.377 25262.076 26597.465 27376.613 27056.406 11520.146
13788.13 17392.723 8056.8525 10527.402 14955.936 6248.876 8473.589 12951.227
-9442.318 -7335.322 -6479.657 -10852.919 -8165.3857 -6697.464 -11904.817 -8913.5205
-6980.69 863.58563 5201.085 18603.469 1448.0521 9082.643 25064.87 1314.9069
11425.303 29244.492 -3385.356 8236.135 20415.146 -11240.046 4453.06 21180.803
-11370.893 7273.298 26911.035 7733.3315 -1855.7712 -9877.859 9707.466 -2531.4536
-12820.955 9532.617 -4124.6235 -15403.793 10515.99 11451.603 -5857.2627 29346.322

exp_avg_sq f4 [50, 25, 3, 3]
00000000: 0cfc da4d c750 e24d 77bb d14d caa2 f94d
00000010: 2b60 094e 5d55 044e 33d1 fe4d 74ae 134e
00000020: 95cc 144e 1657 e84d d333 1b4e cad2 2f4e
00000030: 0a37 004e 6877 3a4e e9ac 634e 7977 f84d
00000040: 35c1 424e 2450 7d4e 6917 394d 9960 804d
00000050: 12f5 9a4d 312d 534d 9e74 9b4d 8ad1 c44d
00000060: 3e3a 554d ea04 a44d 3a7e d64d c272 0a4e
00000070: e8d6 164e 8298 2e4e 43d3 f84d 6d49 004e
00000080: 07ec 124e c805 e84d 05ec e24d f884 fb4d
00000090: b4c4 df4d 7913 ea4d a247 f94d 5155 e74d
000000a0: 4888 f44d e8ae 034e de3a ed4d a112 fc4d
000000b0: 1d00 084e 7ab9 8c4e e5bf ba4e 7425 d34e
000000c0: 0780 a94e 1e02 f34e 3190 124f 04cc b04e
000000d0: b493 064f 529a 2a4f 75f3 a94d 9613 eb4d
000000e0: 1a48 154e c046 994d 3998 db4d 3a77 114e
000000f0: 9202 824d 41da bc4d ae01 014e 333f 0c4d
00000100: 81ae 3a4d b106 4e4d c822 0c4d 116b 494d
00000110: f993 724d 93d0 eb4c 56d4 304d f79e 654d
00000120: c9fb 024e 92be 0e4e 7746 1a4e f2bc 114e
00000130: d42c 2b4e a0b0 464e c7f1 1d4e 243e 464e
00000140: 987f 734e 75f7 f14c 7228 e54c 4589 b44c
00000150: 486d ff4c 80a4 014d b53f d84c 10b4 e44c
00000160: 3e94 f64c 2158 dc4c bb45 034d 2f8f ea4c
00000170: cd0c e04c dbca 104d 957c 064d da22 034d
00000180: d270 214d 91f5 1e4d efe5 204d c4a7 134f
00000190: 31cc 294f a961 2b4f 1e27 214f 48d7 424f
000001a0: f30c 4c4f 3800 1d4f 8183 454f e8f4 554f
000001b0: cf0a 504b 00d2 a54b 0cb8 384c 10c1 d74b
000001c0: aaa5 8d4b 0e6b ab4b f163 6b4c f1cb 204c
000001d0: fb84 ac4b e0c8 6c4d cae5 aa4d 567c ce4d
000001e0: 2378 544d a579 9f4d 6f0e cc4d d257 2a4d
000001f0: 7392 804d d6b7 ab4d 79b8 294f 27a0 484f
00000200: 1ff7 4a4f e94b 3b4f 3b60 6b4f cf95 7a4f
00000210: 4ae4 344f 7c98 6f4f f197 854f e13b 554e
00000220: fdcf 604e 19d1 434e 9f6b 7f4e 0a3c 904e
00000230: 0b66 854e 6c71 7c4e 966f 934e d69a 8e4e
00000240: 757c 574c dbe9 814c a74c 904c 697e 714c
00000250: 4362 9b4c 9af2 b14c 96b8 764c 6d60 a44c
00000260: d161 c14c 0f78 274d 8e35 544d 58fc 934d
00000270: 1f24 394d f5b0 614d 656c a64d 4f9f 454d
00000280: 4020 584d 364e a04d f3ae d84d 5c6c b74d
00000290: 2c74 a34d cf39 fc4d abac da4d 21e8 bf4d
000002a0: b2ae 0e4e 9dec 024e d4c7 ec4d 58c3 c54c
000002b0: 272b e34c 54d7 f54c aba6 cc4c 48d2 f54c
000002c0: b75c 0c4d 2380 c94c 08b4 fa4c a30a 144d
000002d0: ed8b 524e 44c6 6d4e cf30 584e 8b21 724e
000002e0: 2bcb 8f4e f552 894e d51e 674e 540a 8f4e
000002f0: 1a66 8e4e ec95 7a4d 8e57 b24d 4c2d da4d
00000300: 0170 894d fb39 d44d 08e9 0b4e ba6b 844d
00000310: 1782 d94d c0fe 174e f6e8 bd4d 1946 b54d
00000320: c790 aa4d 2dbe c74d 8a27 be4d 8d54 b24d
00000330: c29c cc4d 9d19 c04d a9ff b14d ef55 154d
00000340: e2ca d74c b521 b64c 2bf0 4a4d 9904 134d
00000350: f440 d64c dc93 794d 7180 3f4d 6dab 064d
00000360: 4757 304c 8b7d 3c4c 72c6 7d4c 5885 324c
00000370: 143f 304c a498 6f4c f332 354c ae4a 264c
00000380: d845 604c 628f 8850 2740 8250 98eb 6650
00000390: 4974 8a50 cf1d 8650 109d 7150 aafe 7850
000003a0: 5d25 7550 a94b 6150 b80e 8b50 db4e 9550
000003b0: be2b 9050 f91d 8350 2fac 8f50 c3fb 8d50
000003c0: 1344 6050 8e53 7a50 cb6e 7d50 353f ec4f
000003d0: cd1b 0150 94e0 fa4f c913 de4f 28ce f24f
000003e0: 2cdc ec4f 25f0 b94f f195 ca4f 1d1d c64f
000003f0: 5e8b c350 a8dd d350 51ff d750 2000 ab50
4.592439e+08 4.7461808e+08 4.3984048e+08 5.235244e+08 5.7619526e+08 5.550467e+08 5.3439037e+08 6.194209e+08
6.2410886e+08 4.8725267e+08 6.509662e+08 7.374568e+08 5.377727e+08 7.820969e+08 9.5493997e+08 5.2107242e+08
8.168605e+08 1.06247194e+09 1.9408245e+08 2.6922678e+08 3.2496902e+08 2.2143464e+08 3.260139e+08 4.1275834e+08
2.2358525e+08 3.439732e+08 4.4982458e+08 5.8069414e+08 6.326666e+08 7.323076e+08 5.2182435e+08 5.380739e+08
6.1623546e+08 4.8658662e+08 4.7588982e+08 5.2747443e+08 4.692763e+08 4.908931e+08 5.2277766e+08 4.8514102e+08
5.128215e+08 5.523195e+08 4.9750726e+08 5.286349e+08 5.704272e+08 1.1804828e+09 1.5665691e+09 1.7712236e+09
1.42187e+09 2.0385011e+09 2.4589233e+09 1.4830802e+09 2.2578268e+09 2.8622403e+09 3.564131e+08 4.9299117e+08
6.261326e+08 3.2144384e+08 4.605233e+08 6.101275e+08 2.726508e+08 3.960525e+08 5.4109274e+08 1.470595e+08
1.957499e+08 2.1603406e+08 1.469431e+08 2.1120232e+08 2.5436149e+08 1.2363484e+08 1.854191e+08 2.4077502e+08
5.4938477e+08 5.987135e+08 6.470773e+08 6.1126976e+08 7.1796045e+08 8.33366e+08 6.62467e+08 8.314903e+08
1.0213064e+09 1.268602e+08 1.2014478e+08 9.465297e+07 1.3391725e+08 1.359401e+08 1.1337668e+08 1.1990643e+08
1.2927845e+08 1.1552385e+08 1.3764907e+08 1.2297663e+08 1.1746673e+08 1.5182584e+08 1.4101947e+08 1.375062e+08
1.6928285e+08 1.6668085e+08 1.6871397e+08 2.4772454e+09 2.8487314e+09 2.8753042e+09 2.7036954e+09 3.2688886e+09
3.4234007e+09 2.6340372e+09 3.3137298e+09 3.5895972e+09 1.3634255e+07 2.17344e+07 4.842296e+07 2.8279328e+07
1.8565972e+07 2.2468124e+07 6.170618e+07 4.2151876e+07 2.261247e+07 2.4828672e+08 3.5839827e+08 4.3303187e+08
2.2279019e+08 3.3444368e+08 4.2793725e+08 1.7861763e+08 2.6963517e+08 3.6011898e+08 2.847439e+09 3.365939e+09
3.405193e+09 3.1423142e+09 3.9489523e+09 4.2041219e+09 3.03486e+09 4.0197478e+09 4.4826547e+09 8.943678e+08
9.429318e+08 8.2131514e+08 1.0713108e+09 1.2099269e+09 1.1190286e+09 1.0588229e+09 1.2367818e+09 1.196256e+09
5.6488404e+07 6.811209e+07 7.5654456e+07 6.3306148e+07 8.146588e+07 9.329582e+07 6.467644e+07 8.618071e+07
1.0138791e+08 1.7560395e+08 2.2251747e+08 3.1034854e+08 1.9413451e+08 2.3665442e+08 3.490152e+08 2.07222e+08
2.2662451e+08 3.3618502e+08 4.5441802e+08 3.846665e+08 3.4278746e+08 5.2895587e+08 4.5859363e+08 4.0245763e+08
5.984534e+08 5.491362e+08 4.9656486e+08 1.036848e+08 1.1910175e+08 1.2889155e+08 1.0729609e+08 1.2888122e+08
1.471804e+08 1.0564431e+08 1.314407e+08 1.5523282e+08 8.830964e+08 9.972984e+08 9.0676934e+08 1.01557114e+09
1.2062284e+09 1.1519576e+09 9.693894e+08 1.1999094e+09 1.194528e+09 2.6275808e+08 3.740103e+08 4.575502e+08
2.8822736e+08 4.450712e+08 5.8682624e+08 2.7770656e+08 4.5614768e+08 6.375137e+08 3.9827014e+08 3.8015875e+08
3.5770186e+08 4.1889117e+08 3.987828e+08 3.739857e+08 4.2910317e+08 4.02863e+08 3.7329027e+08 1.5658981e+08
1.1313742e+08 9.548945e+07 2.1279608e+08 1.541595e+08 1.1233066e+08 2.6170106e+08 2.0080411e+08 1.4121134e+08
4.6226716e+07 4.9411628e+07 6.652564e+07 4.6798176e+07 4.6201936e+07 6.280872e+07 4.7500236e+07 4.3592376e+07
5.8791776e+07 1.8328785e+10 1.7481939e+10 1.5496798e+10 1.8583013e+10 1.8000804e+10 1.6214409e+10 1.6709757e+10
1.6451466e+10 1.5119328e+10 1.8663981e+10 2.0039784e+10 1.9350286e+10 1.7598237e+10 1.9283409e+10 1.9056695e+10
1.5050231e+10 1.6799119e+10 1.7007586e+10 7.9271306e+09 8.664331e+09 8.418044e+09 7.451677e+09 8.147194e+09
7.9477043e+09 6.239046e+09 6.7976484e+09 6.6475935e+09 2.6245526e+10 2.8436152e+10 2.899067e+10 2.2951297e+10

exp_avg f4 [50]
00000000: fae3 a4c7 ac85 8dc7 6845 dc46 08b7 0ac7
00000010: 666f fec6 d2a8 8e47 088e ffc6 50f1 0548
00000020: 9bca 82c5 0378 dd45 bf73 0f46 bec9 3cc6
00000030: 44a5 0ac6 5941 52c7 3c7e c8c6 c07d 47c7
00000040: 8088 2d45 2404 6ec6 f6ce 3c44 d065 6cc6
00000050: ebde 8dc7 e093 0547 de6d 46c6 9f9e 6646
00000060: e1dc 73c6 d4e5 07c5 ae92 5047 6e9c 81c5
00000070: 6e79 0e47 5569 adc7 94d8 e145 ec68 9fc6
00000080: d6f9 1ec6 7f3b 1cc6 b05a f347 5095 fdc3
00000090: e80b c5c6 6412 61c6 d8e1 8bc6 3414 f346
000000a0: 9a44 4a47 9894 51c7 5025 d646 b8a0 5c47
000000b0: 6225 39c7 4241 87c6 eba8 6ec7 f053 f3c6
000000c0: bb29 69c7 cc7b 2746
-84423.95 -72459.34 28194.703 -35511.03 -32567.7 73041.64 -32711.016 137157.25
-4185.3257 7087.0015 9180.937 -12082.436 -8873.316 -53825.348 -25663.117 -51069.75
2776.5312 -15233.035 755.23376 -15129.453 -72637.836 34195.875 -12699.467 14759.655
-15607.22 -2174.3643 53394.68 -4147.5537 36473.43 -88786.664 7227.0723 -20404.46
-10174.459 -9998.874 124597.375 -507.1665 -25221.953 -14404.598 -17904.922 31114.102
51780.6 -53652.594 27410.656 56480.72 -47397.383 -17312.629 -61096.918 -31145.969
-59689.73 10718.949

exp_avg_sq f4 [50]
00000000: 3801 8d4f acf1 4d52 744a ca4f 0d81 094f
00000010: 2a0f 304f 2e2f 0451 1a3f 6850 603d 5051
00000020: 6123 ff4e 8eca 9e51 b0a1 4351 6898 5e50
00000030: 42f3 ef4f f064 7a4f 36e6 494f dd4a c14f
00000040: 26bc a64d c317 e84f 7c12 fa4f d49b 6050
00000050: ae37 414f fba2 6250 6108 2f4e 04e7 e34f
00000060: 14c7 4c51 7607 704f 0f7f 6e4f d1c4 eb4f
00000070: 313a 844f c21f 5b4f 4e95 1750 b0e6 c04f
00000080: 89a4 d64f 7c38 c151 38d8 0650 8b9a 004d
00000090: 6309 bd4f d97f 8e4e c06a 9b50 5e3b 744f
000000a0: fb0a 8350 b8f0 0250 01a2 0f50 b19b b64f
000000b0: 051f e44f 7504 684f 04ed e250 33d3 2c4f
000000c0: 0b35 c44f c678 8750
4.7313347e+09 2.2113072e+11 6.787754e+09 2.306936e+09 2.9537838e+09 3.548295e+10 1.5585798e+10 5.589893e+10
2.1402543e+09 8.525039e+10 5.2514456e+10 1.493812e+10 8.0513935e+09 4.200919e+09 3.3873075e+09 6.485818e+09
3.4966854e+08 7.7877427e+09 8.391031e+09 1.5073235e+10 3.2416517e+09 1.5209328e+10 7.341405e+08 7.647136e+09
5.496958e+10 4.0270208e+09 4.0013043e+09 7.9110886e+09 4.4368123e+09 3.6762916e+09 1.0172578e+10 6.4726876e+09
7.2022144e+09 1.0373454e+11 9.049268e+09 1.3485074e+08 6.343018e+09 1.1953716e+09 2.0859716e+10 4.0975314e+09
1.758828e+10 8.787255e+09 9.639036e+09 6.1273134e+09 7.6544763e+09 3.8926062e+09 3.045747e+10 2.8995223e+09
6.583621e+09 1.8182713e+10
