models/500/sigma0.01_step0.0002_lr0.0005/ckpt/model_epoch_1000.pth (torch, 282399 bytes, 18 tensors)

layer1.weight f4 [25, 1, 3, 3]
0	0xbd9056e5	-0.07047824
1	0x3c582f02	0.013194801
2	0x3d45f123	0.04832567
3	0xbd8f1864	-0.06987074
4	0xbd7c980a	-0.061668433
5	0x3ced9602	0.029002193
6	0xbb082ef7	-0.0020779946
7	0xbd826375	-0.06366626
8	0xbbbeed2a	-0.005826612
9	0x3dc59a00	0.09648514
10	0x3e414cf9	0.18877019
11	0x3d705e3a	0.05868361
12	0xbd721d60	-0.059110045
13	0x3e551802	0.2080994
14	0x3c06dd42	0.008231463
15	0xbc475d4e	-0.012168242
16	0xbd18b4cd	-0.0372818
17	0xbe4afa9e	-0.19822165
18	0x3db79ed2	0.089658394
19	0x3d5eee00	0.054426193
20	0xbc1dff3d	-0.009643373
21	0xbcbd36c5	-0.023097405
22	0xbd93b7fb	-0.07212826
23	0x3d9c0386	0.076178595
24	0xbdbc7e74	-0.092038065
25	0xbde6e221	-0.112735994
26	0x3a7a40f8	0.0009546424
27	0x3da671ea	0.08127196
28	0x3d8d2d44	0.06893399
29	0xbc5f9456	-0.013646206
30	0x3d9ee252	0.07758011
31	0x3d950d6e	0.07277952
32	0x3db965c0	0.090526104
33	0x3dde124f	0.10843336
34	0xbdd83c44	-0.1055837
35	0xbde7ed6a	-0.1132458
36	0xbb56a502	-0.003275216
37	0x3d266228	0.040620953
38	0xbcdff10f	-0.027336625
39	0xbe118f33	-0.14214782
40	0x3dcd039f	0.10010456
41	0xbd180bda	-0.037120678
42	0x3db3797d	0.087634064
43	0x3c53bd6b	0.012923579
44	0x3d893eb0	0.0670141
45	0xbbb2a4d6	-0.005451779
46	0xbc38529b	-0.011250163
47	0x3d3cc1fc	0.046083435
48	0x3c5fdaa8	0.013662972
49	0x3d5af698	0.053457826
50	0x3d3b2d44	0.045697466
51	0xbcf9dc32	-0.030500505
52	0x3d72364f	0.059133824
53	0x3e166aaa	0.14689127
54	0x3d254ec3	0.040358316
55	0xbdf7c497	-0.120980434
56	0xbd081f5f	-0.033233043
57	0xbcb26282	-0.021775488
58	0xbab3234a	-0.0013667133
59	0x3b225332	0.0024768827
60	0xbdc67bec	-0.09691605
61	0xbda25d6c	-0.07927975
62	0xbe1561ec	-0.14588135
63	0x3e1287a2	0.14309552
64	0xbddf002b	-0.10888704
65	0xbcca227a	-0.024674643
66	0xbda1e1fd	-0.07904432
67	0x3c8366f9	0.016040312
68	0x3d0cb573	0.03435273
69	0x3e2c0744	0.16799647
70	0xbc888e44	-0.0166694
71	0xbd456865	-0.04819526
72	0xbd9ca0b2	-0.07647838
73	0x3d814f35	0.06313936
74	0xbcad12eb	-0.021127185
75	0xbe275d50	-0.1634419
76	0x3b2949fc	0.0025831452
77	0xbbdca0fc	-0.006733058
78	0xbe2d4121	-0.16919376
79	0xbb29a3d5	-0.0025885005
80	0xbd9a5515	-0.07535759
81	0x3cd4417b	0.02591013
82	0x3e9d8276	0.30763596
83	0xbc6ecc8a	-0.014575133
84	0x3de52e29	0.11190445
85	0x3b73aa6d	0.003718044
86	0xbceecab5	-0.029149393
87	0xbcc77846	-0.024349343
88	0x3d4c2394	0.049838617
89	0xbda9c591	-0.08289636
90	0xbddb4819	-0.10707111
91	0x3d9174f7	0.071023874
92	0xbdeac36c	-0.11463055
93	0x3c20d607	0.009816653
94	0x3db96a19	0.0905344
95	0x3def5b45	0.1168733
96	0xbe0b7fd8	-0.13622987
97	0x3db2f6fe	0.08738516
98	0x3d5e55ff	0.05428123
99	0x3d9d6ddf	0.07686972
100	0x3d326fc7	0.04356363
101	0xbdd78ab2	-0.10524501
102	0x3d227c9d	0.03966962
103	0x3daf4e4b	0.08559855
104	0xbda72125	-0.08160619
105	0xbd1e4f25	-0.038649697
106	0x3dd72830	0.10505712
107	0x3d449cfc	0.048001274
108	0xbc3393b1	-0.010960505
109	0xbc834654	-0.016024746
110	0xbe9e3942	-0.3090306
111	0x3a1c7da9	0.00059696526
112	0x3e2f2a35	0.17105944
113	0x3b07c41b	0.0020716253
114	0xbd9ceb74	-0.076620966
115	0x3be8a8bf	0.007100194
116	0xbd08f645	-0.033437986
117	0x3d082b3f	0.033244368
118	0xbd6b0e28	-0.057386547
119	0xbd167e61	-0.036741618
120	0xbd47e21e	-0.048799627
121	0x3cc0f945	0.023556361
122	0xbd1ce3d1	-0.0383032
123	0xbca4426d	-0.020051206
124	0x3de18cd5	0.1101319
125	0x3b43c202	0.0029870276
126	0x3d712876	0.058876477
127	0xbe340332	-0.17579344
128	0x3ca0a17c	0.019608252
129	0x3c856fc9	0.016288655
130	0x3d8dab33	0.06917419
131	0xbcef1dd4	-0.029189028
132	0xbb1131c9	-0.0022154918
133	0x3c50403f	0.01271063
134	0x3dd0cd41	0.10195399
135	0xbc283d21	-0.0102684805
136	0xbe09397b	-0.13400833
137	0xbe158f97	-0.14605556
138	0x3e020754	0.12698108
139	0x3d9af885	0.075669326
140	0xbd09b57c	-0.033620343
141	0x3c890451	0.016725691
142	0xbe007785	-0.12545593
143	0x3dbc1bb3	0.09184971
144	0x3d16df8a	0.036834277
145	0x3e1af615	0.15132935
146	0xbd97a70e	-0.0740491
147	0x3cfb3b52	0.030667935
148	0x3cddbdfc	0.02706813
149	0x3e2f139a	0.17097321
150	0xbdf18150	-0.117922425
151	0x3dfb6415	0.122749485
152	0xbd98cf8c	-0.074614614
153	0xbd6735c6	-0.056447767
154	0xbccb7f31	-0.024840923
155	0x3dcd3c13	0.10021224
156	0x3df6feb0	0.120602965
157	0xbd93e049	-0.072205134
158	0xbcf39e3c	-0.029738538
159	0xbde6cbc3	-0.11269333
160	0x3d0306d8	0.03198895
161	0x3dbd0da4	0.09231117
162	0xbd9c1761	-0.07621647
163	0xbdf9e56f	-0.12201964
164	0xbdfe4ded	-0.12417207
165	0xbb715ecf	-0.0036830192
166	0x3d871ecc	0.06597671
167	0xbe0305ce	-0.12795183
168	0xbe392e6b	-0.18084113
169	0x3d540c42	0.051769502
170	0x3cfd0788	0.03088738
171	0x3aea994c	0.0017898469
172	0x3dd13828	0.10215789
173	0x3dd629bd	0.1045718
174	0x3daedc6c	0.08538136
175	0xbe01a481	-0.1266041
176	0x3e029ed0	0.12755895
177	0x3b105607	0.0022023933
178	0x3bec0ea6	0.0072038947
179	0x3e08569f	0.13314293
180	0xbd9b38cc	-0.075791925
181	0x3e16072f	0.14651178
182	0x3d5a883b	0.053352576
183	0x3c2ba49d	0.010476259
184	0x3cb27e26	0.021788668
185	0x3d3fbdde	0.04681193
186	0xbd9e1917	-0.07719629
187	0xbc24e73e	-0.010064898
188	0x3c4e4e6f	0.012591942
189	0x3e7cff70	0.24706817
190	0xbdb49d07	-0.08819013
191	0x3d33d7d1	0.04390699
192	0xbcdce9b4	-0.026966907
193	0x3e000182	0.12500575
194	0x3d287708	0.041129142
195	0xbcbf5df8	-0.023360237
196	0xbd2c41fb	-0.04205511
197	0x3ce2c309	0.02768089
198	0x3d884022	0.06652857
199	0x3db04be3	0.08608224
200	0xbccba389	-0.024858253
201	0xbe0093df	-0.12556408
202	0x3c5c448b	0.013444076
203	0xbdde9986	-0.10869126
204	0xbe20fcd0	-0.1572144
205	0xbdad5ee0	-0.084653616
206	0xbe243e9e	-0.16039512
207	0xbdb8aa98	-0.09016913
208	0x3b1bbe4a	0.0023764544
209	0x3e4b4d70	0.19853759
210	0x3ccf44c1	0.02530134
211	0x3dd47df3	0.103755854
212	0x3e29f6ba	0.16598025
213	0x3db28aeb	0.08717903
214	0xbbb38207	-0.005478147
215	0x3a87efa7	0.0010371105
216	0x3c7640ec	0.015030127
217	0xbd0945d6	-0.033513866
218	0xbd9b6e1d	-0.07589362
219	0xbde1c2ba	-0.11023469
220	0x3e230656	0.15920386
221	0x3d8fbbfc	0.07018277
222	0x3cf5d02a	0.030006487
223	0x3dbd408f	0.09240829
224	0xbda0b974	-0.078478724

layer1.bias f4 [25]
0	0x3d0e3e9a	0.03472767
1	0xbe5678c5	-0.20944507
2	0xbd8c57e1	-0.06852699
3	0xbea0b4cb	-0.31387934
4	0xbe86d76a	-0.26336223
5	0x3e88b505	0.26700607
6	0xbe84b970	-0.25922728
7	0x3d9feb8b	0.07808598
8	0xbdd9964d	-0.10624371
9	0xbde38f22	-0.11111285
10	0x3e275d5d	0.16344209
11	0xbc334c8c	-0.010943543
12	0x3dd3cb9f	0.10341572
13	0xbe9c2101	-0.3049393
14	0xbe5823dd	-0.21107431
15	0x3e746acd	0.23868866
16	0xbe8b8ba7	-0.27254984
17	0x3cc5b442	0.024133805
18	0x3e821acd	0.25411072
19	0x3e6ca2fc	0.23109049
20	0x3c41e911	0.0118353525
21	0x3d78ebf4	0.060771897
22	0x3ea0299c	0.31281745
23	0x3e8ed433	0.2789627
24	0x3e828933	0.254953

layer2.weight f4 [50, 25, 3, 3]
0	0x3d0a3771	0.03374428
1	0x3afeefb3	0.0019450098
2	0xbd8546b4	-0.06507626
3	0xbd436141	-0.04770017
4	0x3d810031	0.06298865
5	0x3ce7c08d	0.028290058
6	0xbc86ba8e	-0.016446378
7	0x3d67def9	0.056609128
8	0x3a37cb36	0.0007011177
9	0xbd121f4c	-0.03567438
10	0xbdb5b533	-0.08872452
11	0xbce24eb6	-0.027625423
12	0xbd40e517	-0.047093477
13	0xbd9bcf4b	-0.07607897
14	0x3b44581e	0.0029959748
15	0x3cc872f6	0.02446888
16	0x3cc3e23e	0.023911592
17	0xbd850071	-0.06494225
18	0xbbcda8a4	-0.006276207
19	0xbb234904	-0.0024915347
20	0xbd53b25a	-0.05168376
21	0x3d5744b6	0.052555762
22	0xbcb0436f	-0.02151653
23	0x3d1b0ae2	0.037852176
24	0xbdaf3c17	-0.08556383
25	0x3d0bbdae	0.03411644
26	0x3d1891a2	0.03724826
27	0x3dcf640a	0.10126503
28	0x3d6be59b	0.057592016
29	0x3b827c25	0.0039820843
30	0x3ba86b8f	0.005139775
31	0x3c05cea8	0.0081669465
32	0xbd25ec95	-0.040508825
33	0xbcd82601	-0.02638531
34	0x3b971675	0.0046108314
35	0x3d0995a8	0.03358999
36	0xbaabf744	-0.0013119956
37	0xbb9d91f4	-0.0048086587
38	0xbd4d73b5	-0.050159175
39	0x3d4e0b32	0.050303645
40	0xbd9a8202	-0.07544328
41	0xbda9585d	-0.08268807
42	0xbcb366e7	-0.021899654
43	0x3ccb9709	0.024852293
44	0x3e13f613	0.14449339
45	0xbc5795e2	-0.013158293
46	0x3d8cb794	0.06870952
47	0xbc47805a	-0.0121765975
48	0x3d0291f2	0.031877466
49	0xbd34490d	-0.04401498
50	0x3ddf4689	0.109021254
51	0x3d958f76	0.073027536
52	0xbd2e9eb2	-0.042631812
53	0x3d66a2d3	0.056307625
54	0x3b7e1b7e	0.003877371
55	0x3d67bffe	0.056579582
56	0x3d828db8	0.06374687
57	0xbd209029	-0.03919998
58	0xbddb9c00	-0.10723114
59	0x3d6e4797	0.058173742
60	0xbcf85852	-0.030315552
61	0xbd9c9807	-0.076461844
62	0x3c712d14	0.01472022
63	0x3db1010c	0.08642778
64	0x3d43baf0	0.0477857
65	0x3c3bff5f	0.011474459
66	0x3cf91c66	0.03040905
67	0x3d93eebf	0.072232716
68	0x3dc484a0	0.09595609
69	0xbd851386	-0.064978644
70	0xbdb11267	-0.08646088
71	0xbbf40fe7	-0.007448185
72	0x3d24ffc9	0.040283
73	0x3cdceb2a	0.026967604
74	0xbb0b6029	-0.0021267033
75	0x3db62eed	0.08895669
76	0x3d41d3a6	0.047320984
77	0x3dcdc6b3	0.100476645
78	0xbcae76fb	-0.021296969
79	0xbc818d71	-0.015814515
80	0xbc6fad96	-0.014628788
81	0x3d5a5512	0.053303786
82	0xbd375ceb	-0.044766348
83	0x3d26c059	0.04071078
84	0x3c634b98	0.013873003
85	0x3c790dd1	0.015201048
86	0x3e04cad2	0.12967995
87	0xbd2ab7ae	-0.041679077
88	0xbd877a9f	-0.06615185
89	0x3d54df1d	0.05197059
90	0xbcb0facc	-0.021603964
91	0xbddc6b90	-0.107627034
92	0xbda0f4b4	-0.078591734
93	0xbcd82d77	-0.026388867
94	0x3d0abc3c	0.03387092
95	0xbd81523e	-0.063145146
96	0xbd602f3f	-0.054732557
97	0x3ca6949b	0.020334532
98	0xbd59e727	-0.05319896
99	0x3a5e3e11	0.00084778765
100	0xbd7e3930	-0.062066257
101	0x3d67f2f5	0.056628186
102	0xbd250310	-0.040286124
103	0xbccf7abc	-0.025327079
104	0xbd3e6f73	-0.046493005
105	0xbcb42567	-0.021990491
106	0x3c25910e	0.0101053845
107	0x3d0b3a8c	0.03399138
108	0xbc0feae0	-0.008784026
109	0x3d56ab9c	0.052409753
110	0xbd7d6524	-0.061864033
111	0xbdd343e6	-0.10315685
112	0xbd23fb7b	-0.040034752
113	0xbd458808	-0.048225433
114	0xbd547ab4	-0.05187483
115	0xbdc1638d	-0.09442816
116	0x3d843522	0.06455447
117	0xbd844b8d	-0.06459723
118	0x3c37b3e1	0.01121232
119	0x3ddc2910	0.107500196
120	0xbcfc9d40	-0.030836701
121	0xbd059ac0	-0.032618284
122	0xbd1d5baf	-0.038417514
123	0xbd07de53	-0.03317101
124	0xbdb60cee	-0.08889185
125	0x3d6d95ef	0.058004316
126	0xbce26988	-0.027638212
127	0x3d300100	0.042969704
128	0xbdcbb895	-0.099473156
129	0xbd7eedb9	-0.06223843
130	0x3cf18196	0.029480737
131	0xbd8ebd90	-0.0696975
132	0xbd3779d5	-0.044793922
133	0xbc6cec73	-0.014460671
134	0xbd7ced79	-0.06174991
135	0xbbcf17c2	-0.006319971
136	0xbd9b9b72	-0.07598008
137	0xbc7c8bf3	-0.015414226
138	0xbe0fce74	-0.140436
139	0x3da22632	0.079174414
140	0x3d9bded5	0.07610861
141	0xbcf07253	-0.029351389
142	0x3d9d82c6	0.07690959
143	0xbd981aff	-0.07427024
144	0x3ba3612d	0.0049859495
145	0xbab1c597	-0.0013562915
146	0x3bd4fb8c	0.0064997133
147	0xbba87f29	-0.005142112
148	0x3cacf8c2	0.02111471
149	0xbc73489d	-0.014848855
150	0x3da411e2	0.080112234
151	0xbd9f3980	-0.07774639
152	0xbdc856bf	-0.097821705
153	0xbb484928	-0.0030561183
154	0xbd8dd658	-0.069256485
155	0xbd80df91	-0.06292642
156	0x3da72433	0.08161201
157	0xbcfb4562	-0.030672733
158	0x3da4fbed	0.080558635
159	0x3af5f249	0.0018764223
160	0xbd3fc28f	-0.046816405
161	0xbd957414	-0.07297531
162	0x3c0b6fa3	0.008510503
163	0xbd1e2da0	-0.03861773
164	0x3bbbd5b0	0.0057322606
165	0x3d8d1dba	0.068904355
166	0xbdbc178a	-0.09184177
167	0x3cfff763	0.031245893
168	0xbd9689d5	-0.07350508
169	0x3d1d4b1f	0.03840172
170	0xbd3661d6	-0.044526897
171	0x3cbfc846	0.023410928
172	0xbd7c89fe	-0.061655037
173	0x3c689550	0.014195755
174	0x3dfe7caf	0.12426125
175	0xba26f57b	-0.0006368977
176	0x3c81dd61	0.015852632
177	0x3d8c7b7d	0.06859491
178	0x3c9309e9	0.017949061
179	0x3ca4d31f	0.020120202
180	0xbcd158e9	-0.025555091
181	0x3b06cbd6	0.0020568273
182	0x3d896ac5	0.06709818
183	0x3d2fbaa3	0.0429026
184	0x3ccf38a9	0.025295572
185	0xbcd833dc	-0.026391916
186	0x3d79b863	0.06096686
187	0xbddced74	-0.10787478
188	0xba49248f	-0.0007672989
189	0x3d3d7de9	0.046262655
190	0x3d916301	0.070989616
191	0xbd94a699	-0.072583385
192	0x3bc2f96e	0.0059501445
193	0x3d1a12fd	0.037615765
194	0x3cb885ec	0.022524796
195	0xbd93bc1a	-0.07213612
196	0xbd83ab03	-0.06429102
197	0xbd7ff419	-0.06248865
198	0xbc4e22f4	-0.012581576
199	0xbd8ac4e3	-0.067758344
200	0x3d51cff9	0.05122373
201	0x3caab78b	0.020839473
202	0x3cdf95a5	0.027293036
203	0xbc3c5fc8	-0.011497445
204	0x3de1bcd2	0.11022343
205	0xbbcadeb3	-0.0061910986
206	0xbc543b7a	-0.012953633
207	0xbcd80db2	-0.026373718
208	0xbcf084c7	-0.029360188
209	0xba178dff	-0.0005781352
210	0x3d9e2bbe	0.07723187
211	0xbdb33f4e	-0.08752309
212	0xbd19c3b4	-0.037540153
213	0xbbbda0dc	-0.005786998
214	0xbce86147	-0.028366698
215	0x3d46820a	0.04846386
216	0xbc7c49e2	-0.015398474
217	0x3d93c363	0.072150014
218	0xbdb66c15	-0.08907334
219	0xbd40ce40	-0.047071695
220	0x3d114325	0.035464425
221	0x3cf5ceba	0.030005801
222	0x3d2481e4	0.040162936
223	0xbd9d3f28	-0.07678062
224	0x3c644806	0.013933187
225	0xbdc16aac	-0.09444174
226	0xbc4b9214	-0.012424964
227	0x3cc661e9	0.02421661
228	0x3d9332c5	0.07187418
229	0xbccb680e	-0.02482989
230	0xbdbee981	-0.09321881
231	0x3e0fae1c	0.14031261
232	0x3cf39d77	0.029738171
233	0x3d333af0	0.04375738
234	0xba0dbee0	-0.0005407166
235	0xbda684cd	-0.081307985
236	0xbd59117d	-0.052995194
237	0xba98b9ab	-0.0011652013
238	0xbd3c145d	-0.045917857
239	0x3cc8b994	0.024502553
240	0x3dc4b39b	0.096045695
241	0xbc006907	-0.0078375405
242	0xbdb4a41b	-0.08820363
243	0xbd90ddcd	-0.07073555
244	0x3d25d068	0.040481955
245	0xbc0ea63e	-0.008706627
246	0x3cc8ea99	0.024525927
247	0xbbac66c1	-0.0052612727
248	0x3ce27ac6	0.027646434
249	0x3c46fc8f	0.012145176
250	0x3c13792b	0.009001057
251	0xbd38f86a	-0.04515878
252	0xbc83cafd	-0.016088003
253	0xbc8403b4	-0.016115047
254	0x3c2c7801	0.010526658
255	0xbce0d6bb	-0.027446141

layer2.bias f4 [50]
0	0xbd111ba5	-0.035426755
1	0xbc81c396	-0.015840333
2	0xbc2d0df8	-0.010562412
3	0xbd5d6b78	-0.05405757
4	0x3cbebeed	0.0232844
5	0x3d9a2882	0.075272575
6	0x3d25e0fe	0.040497772
7	0xbd8ebbcd	-0.06969414
8	0xbd8efb68	-0.06981546
9	0x3d8afcb8	0.067864835
10	0x3ba0253b	0.0048872507
11	0x3d05ea1b	0.032693963
12	0xbc9c3c21	-0.01907164
13	0x3c9afd80	0.018919706
14	0xbd01fa6b	-0.031732958
15	0x3d4a5ade	0.049403064
16	0xbbe89a5a	-0.0070984783
17	0xbd287821	-0.04113019
18	0xbcce043e	-0.025148507
19	0x3d323e29	0.04351631
20	0x3d2e4cd7	0.04255375
21	0xbd9c04af	-0.07618081
22	0x3ce64100	0.028107166
23	0x3d7d1b83	0.061793815
24	0xbbc6fc38	-0.0060725473
25	0xbcbb15c3	-0.022837525
26	0x3c89f772	0.016841624
27	0x3d2c952f	0.04213446
28	0x3b48a312	0.0030614776
29	0x3cda930e	0.02668145
30	0x3d328ddd	0.043592323
31	0xbc1a6a3a	-0.00942474
32	0x3d05c837	0.032661643
33	0xbc5965cd	-0.0132689
34	0xbd243c25	-0.04009642
35	0xbd5830a8	-0.052780777
36	0xbd0bdaa5	-0.034144063
37	0x3d422d37	0.0474064
38	0xbc9ee3c1	-0.01939571
39	0x3d1d8b80	0.038463116
40	0x3cf795e3	0.030222839
41	0x3cb5f9ed	0.0222139
42	0x3c6b4dea	0.014361838
43	0xbd523764	-0.051322356
44	0xbd437c67	-0.04772606
45	0xba0589c7	-0.0005094078
46	0x3d817f2c	0.06323084
47	0xbcba128c	-0.022713922
48	0x3c65e4be	0.014031587
49	0x3d26449e	0.040592782

layer4.weight f4 [25, 50, 3, 3]
0	0xbd390e19	-0.04517946
1	0x3b706f63	0.0036687485
2	0x3d48790d	0.048943568
3	0x3cd6a4f3	0.0262017
4	0x3c59b211	0.013287083
5	0x3d0fe44d	0.035129834
6	0x3d03d032	0.032180972
7	0xbd66b577	-0.056325402
8	0xbd88ca56	-0.066792175
9	0xbd1b7602	-0.037954338
10	0x3c5833a0	0.013195902
11	0x3df25ae8	0.11833745
12	0x3cc523b8	0.024064884
13	0x3b57b2b5	0.0032912914
14	0x3d0ec6fa	0.034857728
15	0xbc95e8c4	-0.018299468
16	0xbc495ae4	-0.012289736
17	0xbdafdb71	-0.08586777
18	0x3d5b16b7	0.05348846
19	0xbcd22ef4	-0.025657155
20	0xbbc6db7c	-0.006068645
21	0x3da52370	0.080634
22	0x3dc50c9a	0.09621544
23	0xba00e34d	-0.0004916683
24	0xbc120235	-0.008911659
25	0x3d599428	0.05311981
26	0xbc09a6ff	-0.008401631
27	0x3c5b2b21	0.013376982
28	0xbb6f47fb	-0.003651141
29	0x3c77d47c	0.015126344
30	0x3d43a76a	0.04776708
31	0x3c48bf60	0.012252659
32	0xbcd52ba0	-0.026021779
33	0xbc4c5de0	-0.012473553
34	0x3dae0379	0.08496756
35	0x3dcb5642	0.09928562
36	0xbd02ad85	-0.031903762
37	0xbcaabb0b	-0.020841142
38	0xbd88096c	-0.06642422
39	0xbdc48a18	-0.09596652
40	0xbcfc1790	-0.030772954
41	0x3b1ad530	0.0023625605
42	0xbd0aa3f4	-0.033847764
43	0x3d81b966	0.0633419
44	0x3d896e5a	0.06710501
45	0xbb3aaad0	-0.002848316
46	0xb9ac8551	-0.00032905725
47	0x3d8592c2	0.065221325
48	0x3d299fb6	0.041412078
49	0xbd814775	-0.063124575
50	0x3c9c9d71	0.019118043
51	0x3d36eac0	0.04465747
52	0xbaf99593	-0.0019041769
53	0xbc89c273	-0.016816353
54	0xbced09e1	-0.028935375
55	0xbcc5c121	-0.024139943
56	0x3cd4d4b7	0.025980337
57	0x3d82f290	0.063939214
58	0x3d871f98	0.06597823
59	0x3d0ed2d9	0.03486905
60	0xbd66df01	-0.056365017
61	0x3c3342b4	0.010941196
62	0xba542573	-0.00080927386
63	0x3ceef3c4	0.02916897
64	0x3d6c5cc1	0.057705645
65	0xbd53deb9	-0.051726077
66	0xbd072c5f	-0.0330013
67	0x3cf14c15	0.029455224
68	0x3d4e4f04	0.050368324
69	0x3bbf856f	0.005844764
70	0x3d488751	0.048957173
71	0xbd942839	-0.07234234
72	0x3d1c1350	0.038104355
73	0x3c421668	0.011846162
74	0x3da402ec	0.0800837
75	0xbc86fefa	-0.016479004
76	0xbdb5ab46	-0.088705584
77	0x3cf9ec7c	0.030508272
78	0xbd970e82	-0.07375814
79	0x3dba6d6d	0.091029026
80	0xbd300acb	-0.042979043
81	0x3b7c4ab7	0.0038496682
82	0xbd343961	-0.044000033
83	0x3ca76951	0.020435961
84	0x3cfe42b8	0.031037673
85	0x3c8b4083	0.016998535
86	0x3d34aaee	0.044108324
87	0xbdbf844c	-0.093514055
88	0x3d4e74e2	0.050404437
89	0xbc2f477e	-0.010698197
90	0xbd97b159	-0.07406873
91	0xbcdc8791	-0.026920112
92	0x3d87959e	0.06620334
93	0x3d0fcc7c	0.03510712
94	0xbd09eb68	-0.033671767
95	0x3cf05b76	0.029340487
96	0xbd83e859	-0.06440801
97	0x3de5ef0f	0.112272374
98	0x3c8ab276	0.0169308
99	0x3d62cfd6	0.05537399
100	0x3dd10a15	0.10207001
101	0xbc524ae1	-0.012835235
102	0x3dd8149c	0.10550806
103	0x3ca381cd	0.019959355
104	0xbd0ddb32	-0.03463287
105	0x3d4ce3e0	0.050022006
106	0x3d18aa10	0.03727156
107	0x3d39345e	0.045215957
108	0xbd437535	-0.0477192
109	0xbcb6100b	-0.022224447
110	0x3d44fd4d	0.04809313
111	0xbd41c033	-0.047302436
112	0x3c6ec865	0.014574145
113	0x3b8797c1	0.0041379635
114	0x3c84684a	0.01616301
115	0xbd8e74a2	-0.0695584
116	0xbd8ba578	-0.0681867
117	0xbd82e00d	-0.063903905
118	0x3c81533c	0.01578676
119	0xbcb834bc	-0.022486083
120	0xbdcff175	-0.10153476
121	0x3d7dfbf2	0.062007852
122	0x3d287850	0.041130364
123	0xbd229c66	-0.039699934
124	0x3d14b68c	0.036306903
125	0x3df615ee	0.120159015
126	0xbdb214d9	-0.086953826
127	0xbdf20253	-0.118168496
128	0xbc817679	-0.015803562
129	0xbc9e5028	-0.01932533
130	0xbd1dd2c4	-0.03853108
131	0x3dfd70f1	0.123750575
132	0xbaf983a3	-0.0019036423
133	0xbd929b5f	-0.07158541
134	0x3ce7941e	0.02826887
135	0x3cf0396b	0.029324254
136	0x3d42b340	0.047534227
137	0xbd930dbf	-0.07180356
138	0x3c4b5f25	0.012412821
139	0xbca0001b	-0.0195313
140	0x3b5b93d1	0.0033504853
141	0xbdc23403	-0.09482577
142	0xbde9183b	-0.11381575
143	0x3a8b96e8	0.0010649832
144	0xbca5d43e	-0.020242807
145	0xbc9f61da	-0.019455839
146	0xbd69125c	-0.056902274
147	0x3d201f64	0.039092436
148	0x3d916e46	0.07101111
149	0xbcc2524a	-0.02372088
150	0x3bcb7397	0.0062088477
151	0x3d8f6c80	0.070031166
152	0x3a18f2c8	0.0005834517
153	0x3d1eedbf	0.03880095
154	0x3bf14aa5	0.0073636346
155	0x3dd318a8	0.10307437
156	0x3cb72235	0.022355178
157	0x3cd83da3	0.026396578
158	0xbd8a7527	-0.06760626
159	0xbc563d64	-0.01307616
160	0x3d55ce10	0.05219847
161	0x3d6fdb80	0.05855894
162	0x3da5cfd9	0.080962844
163	0xbd79c871	-0.06098217
164	0x3d2e9424	0.042621747
165	0xbc992f6e	-0.018699374
166	0xbd9b44a5	-0.07581452
167	0xbe110d8c	-0.14165324
168	0xbd6e3a28	-0.05816093
169	0x3b85f90f	0.004088528
170	0x3d89a89e	0.06721614
171	0xbc236df2	-0.0099749435
172	0xbd46c8d6	-0.048531376
173	0x3c33dc20	0.010977775
174	0xbd4c63b4	-0.04989977
175	0x3cb8c9d1	0.022557171
176	0xbd67fd45	-0.05663802
177	0xbcde25af	-0.027117578
178	0xbd8db2e0	-0.06918883
179	0xbb0b8b94	-0.0021292912
180	0x3ca6980d	0.020336175
181	0x3dd01931	0.10161055
182	0xbdc4835b	-0.095953666
183	0x3dd10d4e	0.10207616
184	0xbd9fd2c6	-0.07803874
185	0xbd236589	-0.039891753
186	0x3b8bb429	0.00426342
187	0xbce0c386	-0.027436983
188	0x3d1a3362	0.03764666
189	0xbd835696	-0.06412999
190	0xbdc36efe	-0.095426545
191	0xba9fdf89	-0.0012197356
192	0xbdc5974d	-0.09647999
193	0x3d59580d	0.053062487
194	0x3d130ecb	0.03590278
195	0x3d21ee84	0.039534107
196	0x3d61a8d1	0.055092636
197	0xbd1b7d15	-0.037961084
198	0x3c0c7b2a	0.0085742865
199	0xbd92dcd9	-0.071710296
200	0x3dac62fd	0.08417318
201	0xbc6528b2	-0.013986753
202	0xbc7e335f	-0.0155151775
203	0xbd44f360	-0.048083663
204	0xbd8350c7	-0.064118914
205	0xbccfc054	-0.025360264
206	0x3be04afd	0.006844877
207	0x3dadc384	0.08484557
208	0xb9fe8ddb	-0.00048552346
209	0x3d1e2591	0.038610045
210	0xbd889bda	-0.06670351
211	0xbdaed78c	-0.08537206
212	0xbd7972e2	-0.060900576
213	0x3d057038	0.032577723
214	0x3d9ccacb	0.07655867
215	0x3afb0f70	0.0019154381
216	0xbda88a16	-0.08229463
217	0xbbe834ce	-0.007086373
218	0xbd722e59	-0.05912623
219	0x3d8a162a	0.06742509
220	0xbdd930b8	-0.106049955
221	0x3cf086b5	0.029361108
222	0xbb743c4d	-0.0037267387
223	0x3a754258	0.0009355894
224	0x3cdbe535	0.026842693
225	0x3c9b0fad	0.018928373
226	0xbd5b3b4c	-0.053523347
227	0xbd56ae6c	-0.052412435
228	0xbbfc4c51	-0.0076995273
229	0xbcc4d2dd	-0.024026329
230	0x3be27cfc	0.006911872
231	0x3c959d3c	0.018263452
232	0xbb4101e7	-0.0029450597
233	0xbbe76af4	-0.0070623104
234	0x3decf70a	0.115705565
235	0x3bf039fa	0.00733113
236	0x3d2c3b19	0.042048547
237	0x3d3dec9c	0.046368226
238	0x3d49ae3f	0.04923844
239	0xbbff3a87	-0.0077889594
240	0xbd811998	-0.0630371
241	0xbb98b2e0	-0.0046599954
242	0xbc832abd	-0.01601159
243	0x3ce2dc65	0.027692983
244	0x3cca8cba	0.024725307
245	0x3cd14e25	0.025549958
246	0x3d1a3331	0.037646476
247	0xbd59741b	-0.053089242
248	0x3d7b2a3c	0.061319575
249	0xbc9e482d	-0.019321525
250	0xbd05b370	-0.032641828
251	0xb978bfba	-0.00023722547
252	0xbd3b53af	-0.045734104
253	0xbdcc1f68	-0.09966928
254	0xbd6cd802	-0.05782319
255	0x3d8893ae	0.06668793

layer4.bias f4 [25]
0	0xbc149439	-0.009068542
1	0x3caba5fc	0.020953171
2	0xbbdeda6e	-0.006800941
3	0xbcda8283	-0.026673561
4	0xbb3b9984	-0.0028625438
5	0x3b4e5ad8	0.0031487253
6	0x3cf54df0	0.02994439
7	0x3cc1d71f	0.023662148
8	0x3d1ef94a	0.03881196
9	0xbd037e8c	-0.032103106
10	0x3baa2acc	0.00519309
11	0x3bda4429	0.0066609574
12	0x3c2a0665	0.010377501
13	0x3aae6bde	0.0013307293
14	0x3cf7f3c3	0.030267602
15	0x3a2f7bea	0.0006694185
16	0x3d00d444	0.031452432
17	0x3d1c2b7e	0.038127415
18	0xbc2fcf93	-0.010730642
19	0xbd05dcc6	-0.03268125
20	0x3d21231d	0.039340127
21	0xbcee7929	-0.029110508
22	0xbd45827a	-0.048220135
23	0xbc827436	-0.015924554
24	0xbac8df51	-0.0015325343

exp_avg f4 [25, 1, 3, 3]
0	0x47c55fea	101055.83
1	0x47b6967f	93484.99
2	0x47878f69	69406.82
3	0x47d7ee7f	110556.99
4	0x47c82170	102466.875
5	0x47946437	75976.43
6	0x47b8a3b4	94535.41
7	0x47a8a517	86346.18
8	0x476cb894	60600.58
9	0xc7456221	-50530.13
10	0xc71e754c	-40565.297
11	0xc6cbe059	-26096.174
12	0xc73e4144	-48705.266
13	0xc71c50c5	-40016.77
14	0xc6d34ca2	-27046.316
15	0xc70f1f1e	-36639.117
16	0xc6eff91c	-30716.555
17	0xc69e384a	-20252.145
18	0x465cf2dc	14140.715
19	0x46c4cef0	25191.469
20	0x46f1b595	30938.791
21	0x471b811f	39809.12
22	0x4747bfd2	51135.82
23	0x4755e3c5	54755.77
24	0x474c72e4	52338.89
25	0x47755c1b	62812.105
26	0x47786503	63589.01
27	0xc70c031d	-35843.113
28	0xc709f20c	-35314.047
29	0xc6e59a1a	-29389.05
30	0xc720f962	-41209.383
31	0xc71b81da	-39809.85
32	0xc6f41546	-31242.637
33	0xc7128ed4	-37518.83
34	0xc70ab6c0	-35510.75
35	0xc6ccc56e	-26210.715
36	0xc6f303a4	-31105.82
37	0xc6c8f464	-25722.195
38	0xc6775d9e	-15831.404
39	0xc75d313e	-56625.242
40	0xc745ae66	-50606.4
41	0xc7146d92	-37997.57
42	0xc78142de	-66181.734
43	0xc76a8094	-60032.58
44	0xc7310c18	-45324.094
45	0xc7437c4a	-50044.29
46	0xc78f4171	-73346.88
47	0xc79be4b8	-79817.44
48	0xc77ffb9c	-65531.61
49	0xc7a9e6e9	-86989.82
50	0xc7b0fe09	-90620.07
51	0xc75f62b0	-57186.688
52	0xc793e3ce	-75719.61
53	0xc7954dba	-76443.45
54	0x47577f98	55167.594
55	0x4734a78c	46247.547
56	0x46de8707	28483.514
57	0x47769ada	63130.85
58	0x47526be6	53867.9
59	0x4704825a	33922.35
60	0x476024f5	57380.957
61	0x473ca84e	48296.305
62	0x46dfb3a7	28633.826
63	0xc7480ce5	-51212.895
64	0xc7005819	-32856.098
65	0xc6339acc	-11494.699
66	0xc76b8fab	-60303.668
67	0xc716c7b1	-38599.69
68	0xc651da5b	-13430.589
69	0xc756c9e8	-54985.906
70	0xc7014e02	-33102.008
71	0xc5dd89cd	-7089.225
72	0x471c1232	39954.195
73	0x4707de8e	34782.555
74	0x4697bba5	19421.822
75	0x4764ea3c	58602.234
76	0x47525cc3	53852.76
77	0x47107b9a	36987.6
78	0x477eea8d	65258.55
79	0x476f04ff	61188.996
80	0x472944b2	43332.695
81	0xc716c9a6	-38601.65
82	0xc7206e20	-41070.125
83	0xc705f379	-34291.473
84	0xc73f81da	-49025.85
85	0xc7531477	-54036.465
86	0xc7339128	-45969.156
87	0xc729dcfe	-43484.992
88	0xc740ddf0	-49373.938
89	0xc7261844	-42520.266
90	0x45f2b68b	7766.818
91	0xc503bca4	-2107.79
92	0xc62e26fe	-11145.748
93	0xc5821798	-4162.949
94	0xc66796f1	-14821.735
95	0xc6ae6376	-22321.73
96	0xc62651f6	-10644.49
97	0xc6a28a55	-20805.166
98	0xc6d701fc	-27520.992
99	0xc7427f9c	-49791.61
100	0xc7324e04	-45646.016
101	0xc7102762	-36903.383
102	0xc769b61a	-59830.1
103	0xc757abc8	-55211.78
104	0xc72f978d	-44951.55
105	0xc75810b7	-55312.715
106	0xc744d7f2	-50391.945
107	0xc71cfb4a	-40187.29
108	0x47863150	68706.625
109	0x478481b9	67843.445
110	0x4754cd29	54477.16
111	0x47928e6c	75036.84
112	0x478f6fb2	73439.39
113	0x47642682	58406.508
114	0x476c1e14	60446.08
115	0x476147ff	57671.996
116	0x47276d50	42861.312
117	0x45504913	3332.5671
118	0x4513fbb1	2367.7307
119	0xc41a4ab8	-617.1675
120	0xc52a796e	-2727.5894
121	0xc566deb2	-3693.9185
122	0xc5ca4008	-6472.004
123	0xc5eaf536	-7518.6514
124	0xc5feef63	-8157.9233
125	0xc622d640	-10421.5625
126	0xc69f41a8	-20384.828
127	0xc6959108	-19144.516
128	0xc64e26ad	-13193.669
129	0xc657823d	-13792.56
130	0xc63b2d0c	-11979.262
131	0xc5dea5b0	-7124.711
132	0xc5a54199	-5288.1997
133	0xc57c6f70	-4038.9648
134	0xc24bc760	-50.944702
135	0x47148335	38019.207
136	0x4730263e	45094.242
137	0x472414c4	42004.766
138	0x471297ed	37527.926
139	0x47259ed2	42398.82
140	0x470ff914	36857.08
141	0x46d8161a	27659.05
142	0x46ed4f12	30375.535
143	0x46b88ac6	23621.387
144	0xc7a501ca	-84483.58
145	0xc7abd640	-87980.5
146	0xc792c6b9	-75149.445
147	0xc7c0dca4	-98745.28
148	0xc7cb94e0	-104233.75
149	0xc7af32f9	-89701.945
150	0xc7b30ca1	-91673.26
151	0xc7beb01e	-97632.234
152	0xc7a42cbd	-84057.48
153	0xc4b6f8ac	-1463.771
154	0xc6ef0246	-30593.137
155	0xc7514252	-53570.32
156	0x4674e53e	15673.311
157	0xc66952ba	-14932.682
158	0xc71a4f2d	-39503.176
159	0x470e5a17	36442.09
160	0x45f910f1	7970.1177
161	0xc67eeef6	-16315.74
162	0x472d091e	44297.117
163	0x4719c6df	39366.87
164	0x46bf0b78	24453.734
165	0x478e2f27	72798.305
166	0x47861176	68642.92
167	0x47453ece	50494.805
168	0x47a106ee	82445.86
169	0x4799f2b4	78821.41
170	0x476aa9a9	60073.66
171	0xc71e45e5	-40517.895
172	0xc73e2d60	-48685.375
173	0xc72a683e	-43624.242
174	0xc748b5d6	-51381.836
175	0xc760443e	-57412.242
176	0xc73aaec7	-47790.777
177	0xc72cc8b6	-44232.71
178	0xc73633d7	-46643.84
179	0xc706ad39	-34477.223
180	0xc7a1618f	-82627.12
181	0xc7b06ff4	-90335.91
182	0xc7a2efc2	-83423.516
183	0xc756a978	-54953.47
184	0xc77a995b	-64153.355
185	0xc76a908e	-60048.555
186	0xc6694028	-14928.039
187	0xc6c26a27	-24885.076
188	0xc6bef002	-24440.004
189	0xc711d9f7	-37337.965
190	0xc7238978	-41865.47
191	0xc710eeac	-37102.67
192	0xc74efe3d	-52990.24
193	0xc76549be	-58697.742
194	0xc752ed90	-53997.562
195	0xc7606274	-57442.453
196	0xc77d4c40	-64844.25
197	0xc76a9504	-60053.016
198	0x47056b93	34155.574
199	0x471de6c0	40422.75
200	0x46ec81fa	30272.988
201	0x473b1e74	47902.453
202	0x474ff4b9	53236.723
203	0x47226870	41576.438
204	0x473448d4	46152.83
205	0x4746416b	50753.418
206	0x47167bdf	38523.87
207	0xc7672b68	-59179.406
208	0xc74e50a4	-52816.64
209	0xc715fab9	-38394.723
210	0xc781e5f8	-66507.94
211	0xc779a7f7	-63911.965
212	0xc747cee0	-51150.875
213	0xc768d37a	-59603.477
214	0xc76d8657	-60806.34
215	0xc748283e	-51240.242
216	0xc6fab38e	-32089.777
217	0xc6e1351a	-28826.55
218	0xc6a33c21	-20894.064
219	0xc745d537	-50645.215
220	0xc7476384	-51043.516
221	0xc72e5279	-44626.473
222	0xc768fdc0	-59645.75
223	0xc77972b9	-63858.723
224	0xc76a7944	-60025.266

exp_avg_sq f4 [25, 1, 3, 3]
0	0x50f8c6e4	3.3390273e+10
1	0x50ed7024	3.1868396e+10
2	0x50bec12e	2.560265e+10
3	0x50f1cd92	3.245425e+10
4	0x50e055ee	3.0109823e+10
5	0x50b05404	2.3666369e+10
6	0x50bb28b0	2.5120047e+10
7	0x50a995c9	2.2761327e+10
8	0x50863cc8	1.8017042e+10
9	0x4f223203	2.7211866e+09
10	0x4ebd8a61	1.5899813e+09
11	0x4e1b21e3	6.506723e+08
12	0x4f1610fd	2.5176957e+09
13	0x4eaf2415	1.4691887e+09
14	0x4e1b204b	6.506462e+08
15	0x4ed90c6f	1.8207354e+09
16	0x4e85051b	1.1158522e+09
17	0x4e0eece2	5.9947226e+08
18	0x4f04a55d	2.2254298e+09
19	0x4f28fd30	2.8351652e+09
20	0x4f3314fa	3.0044964e+09
21	0x4f4ec4d5	3.469006e+09
22	0x4f7d49ad	4.249464e+09
23	0x4f7b04e4	4.2114017e+09
24	0x4f72f992	4.076442e+09
25	0x4f8b3c12	4.6719396e+09
26	0x4f7e080b	4.26194e+09
27	0x4e7cdb9b	1.0605626e+09
28	0x4e542869	8.898545e+08
29	0x4e099ace	5.77156e+08
30	0x4e99b7be	1.2894779e+09
31	0x4e6f76a3	1.0043824e+09
32	0x4e034552	5.505896e+08
33	0x4e804b5b	1.0762111e+09
34	0x4e36ca9a	7.6668275e+08
35	0x4dadec82	3.6474477e+08
36	0x4fcb0689	6.8124063e+09
37	0x4fb4b433	6.063417e+09
38	0x4f89cdd0	4.6239334e+09
39	0x50067e8b	9.02576e+09
40	0x4fe55329	7.694865e+09
41	0x4fa4e925	5.5334856e+09
42	0x5007006c	9.059807e+09
43	0x4fdd306e	7.421877e+09
44	0x4f964633	5.042366e+09
45	0x50b116d0	2.3768498e+10
46	0x50c7eeb1	2.683447e+10
47	0x50b96c10	2.4886936e+10
48	0x50be0bb7	2.550751e+10
49	0x50ce7252	2.7708789e+10
50	0x50b845ae	2.4732594e+10
51	0x50a389d0	2.1949743e+10
52	0x50a9f593	2.2811548e+10
53	0x5091d6a1	1.9574098e+10
54	0x4f920839	4.900025e+09
55	0x4f60be42	3.770565e+09
56	0x4f027d89	2.1892652e+09
57	0x4f96b94b	5.0574515e+09
58	0x4f5a7024	3.6647823e+09
59	0x4ee8fd1c	1.954451e+09
60	0x4f639708	3.818326e+09
61	0x4f176200	2.5397821e+09
62	0x4e9c476e	1.3109635e+09
63	0x4f3704cd	3.0705452e+09
64	0x4f07e45a	2.2798894e+09
65	0x4eebba0a	1.977419e+09
66	0x4f4464e4	3.2949463e+09
67	0x4effe930	2.1467361e+09
68	0x4ed4f09f	1.7862696e+09
69	0x4f102a8b	2.4187072e+09
70	0x4eafe4c9	1.4755032e+09
71	0x4eac758a	1.4466921e+09
72	0x4fbf1145	6.41116e+09
73	0x4fbb515a	6.2853417e+09
74	0x4fa3ae23	5.492197e+09
75	0x4fe67690	7.7330596e+09
76	0x4fd4d88c	7.141923e+09
77	0x4fac1552	5.774157e+09
78	0x4fe68ee8	7.7362504e+09
79	0x4fcac57f	6.8038815e+09
80	0x4f9b5a13	5.212743e+09
81	0x4fe6e76b	7.747852e+09
82	0x4feeec81	8.016954e+09
83	0x4fcfd4ad	6.9736433e+09
84	0x5002e17c	8.783262e+09
85	0x5007c065	9.110132e+09
86	0x4fe83083	7.790987e+09
87	0x4fecf348	7.9507333e+09
88	0x4ff4f5ef	8.2195164e+09
89	0x4fd56be5	7.161236e+09
90	0x4e16d277	6.3259386e+08
91	0x4e1a2e67	6.466831e+08
92	0x4e1bb9a3	6.531586e+08
93	0x4dd123c4	4.3859776e+08
94	0x4e0f1d9c	6.002706e+08
95	0x4e27dbd8	7.040507e+08
96	0x4d982f6b	3.1915555e+08
97	0x4dfc7623	5.2945008e+08
98	0x4e1fb116	6.697957e+08
99	0x4f28b1d4	2.8302264e+09
100	0x4f046d7a	2.2217672e+09
101	0x4eb760a4	1.538282e+09
102	0x4f3d53a0	3.1763743e+09
103	0x4f04b13d	2.226208e+09
104	0x4e9d99d1	1.3220517e+09
105	0x4f125fee	2.4557604e+09
106	0x4eaca589	1.4482648e+09
107	0x4e2aeee1	7.169455e+08
108	0x50777c3b	1.6608456e+10
109	0x5055b071	1.4340441e+10
110	0x5012925e	9.836263e+09
111	0x5088d36b	1.8364455e+10
112	0x50671b8e	1.5509371e+10
113	0x501bb751	1.0449929e+10
114	0x5070b71b	1.6154127e+10
115	0x5046235b	1.3296823e+10
116	0x500584f9	8.960337e+09
117	0x4ee0d120	1.8859008e+09
118	0x4ece786c	1.7319992e+09
119	0x4ea6d608	1.3995223e+09
120	0x4f166ddb	2.523782e+09
121	0x4f0bb87b	2.3441231e+09
122	0x4ee50bf2	1.9213827e+09
123	0x4f30010b	2.9528584e+09
124	0x4f24717f	2.7589015e+09
125	0x4f07f51f	2.2809884e+09
126	0x4ed06de9	1.748432e+09
127	0x4ed9e692	1.8278833e+09
128	0x4edd0caf	1.854298e+09
129	0x4ecc7d30	1.7153782e+09
130	0x4eeb278d	1.9726189e+09
131	0x4f0295fe	2.190868e+09
132	0x4ec4cb47	1.6508282e+09
133	0x4ef63082	2.0651871e+09
134	0x4f0f278c	2.4017336e+09
135	0x4f19f81b	2.583174e+09
136	0x4f126336	2.4559754e+09
137	0x4eca967c	1.6994299e+09
138	0x4f2718c1	2.8034173e+09
139	0x4f0a3ead	2.3193633e+09
140	0x4e9e2007	1.3264495e+09
141	0x4f0bc804	2.3451412e+09
142	0x4ec67a47	1.6649512e+09
143	0x4e379888	7.700567e+08
144	0x506bfcef	1.5836888e+10
145	0x5068adc3	1.5614807e+10
146	0x5033bc0e	1.2061784e+10
147	0x5088a4b8	1.8339971e+10
148	0x5084af8f	1.7808783e+10
149	0x5046cf3e	1.3341882e+10
150	0x50759980	1.6481911e+10
151	0x50684357	1.5586909e+10
152	0x502a757a	1.1439303e+10
153	0x4f9cc889	5.260776e+09
154	0x4fd9e71d	7.311604e+09
155	0x500636c4	9.006944e+09
156	0x4f866ce3	4.510566e+09
157	0x4fb59e4e	6.0941015e+09
158	0x4fe1af30	7.5727094e+09
159	0x4f5f1663	3.7427863e+09
160	0x4f86f0ad	4.5278397e+09
161	0x4fa212fb	5.438306e+09
162	0x50030ad6	8.794102e+09
163	0x4fe9a160	7.8393344e+09
164	0x4fa789d9	5.621658e+09
165	0x503185eb	1.1913375e+10
166	0x5019094e	1.0270095e+10
167	0x4fcdbc2d	6.903323e+09
168	0x5036d9ee	1.2270942e+10
169	0x50176a5e	1.0161322e+10
170	0x4fc2331c	6.516259e+09
171	0x50840851	1.77211e+10
172	0x508b6a81	1.8712103e+10
173	0x506ea880	1.6016081e+10
174	0x508b2750	1.8676875e+10
175	0x508d28ed	1.8946157e+10
176	0x5068df79	1.5627838e+10
177	0x50718c50	1.6210018e+10
178	0x506b834d	1.5805003e+10
179	0x50415c34	1.2976181e+10
180	0x5017cc10	1.0186932e+10
181	0x5017d56e	1.0189388e+10
182	0x4fed9156	7.97145e+09
183	0x4fb1496a	5.948757e+09
184	0x4fb0218a	5.909976e+09
185	0x4f871d13	4.533659e+09
186	0x4f08cbbe	2.2950538e+09
187	0x4f0836fa	2.2853043e+09
188	0x4edfbbac	1.8768092e+09
189	0x4ff85f99	8.3340293e+09
190	0x4fe8df15	7.813868e+09
191	0x4fb38e06	6.0248586e+09
192	0x50226930	1.089921e+10
193	0x5019ede6	1.033002e+10
194	0x4ff11b38	8.0901857e+09
195	0x50310f81	1.1882333e+10
196	0x50298996	1.1377465e+10
197	0x5005a433	8.968523e+09
198	0x4f8ea420	4.7862415e+09
199	0x4f8bcf63	4.6912486e+09
200	0x4f40ec8d	3.236728e+09
201	0x4f94c1ee	4.9914747e+09
202	0x4f8579af	4.478689e+09
203	0x4f253a96	2.77208e+09
204	0x4f693e3e	3.9131704e+09
205	0x4f3c4975	3.1589307e+09
206	0x4ed0aaaf	1.7504234e+09
207	0x4f774e01	4.1490844e+09
208	0x4f3b01ec	3.1374653e+09
209	0x4ecde1fc	1.7270697e+09
210	0x4f88f286	4.595191e+09
211	0x4f58d8b0	3.6380795e+09
212	0x4efb5e01	2.1086209e+09
213	0x4f5ca61c	3.7018737e+09
214	0x4f32d613	3.000374e+09
215	0x4ed613f6	1.7958162e+09
216	0x4f832a91	4.40121e+09
217	0x4f633547	3.8119196e+09
218	0x4f28ffc1	2.8353334e+09
219	0x4f9af02d	5.198863e+09
220	0x4f8d9548	4.7507415e+09
221	0x4f5c20ba	3.6931323e+09
222	0x4f9ec259	5.327074e+09
223	0x4f99ce00	5.160829e+09
224	0x4f7e5392	4.2668897e+09

exp_avg f4 [25]
0	0xc6b1c8ff	-22756.498
1	0x44dcbec4	1765.9614
2	0xc606bc01	-8623.001
3	0xc5a6494c	-5321.162
4	0x45cb2b8c	6501.4434
5	0x474aa883	51880.51
6	0xc6f5759a	-31418.8
7	0x46541f7f	13575.874
8	0xc6bd0e4e	-24199.152
9	0x46605935	14358.302
10	0x4657f810	13822.016
11	0x46aa7ee3	21823.443
12	0xc711c13a	-37313.227
13	0xc5d5637e	-6828.4365
14	0xc5d148f5	-6697.1196
15	0xc3618740	-225.52832
16	0x468c7384	17977.758
17	0x46d66805	27444.01
18	0xc71277cc	-37495.797
19	0x47850e67	68124.805
20	0x473fcf4e	49103.305
21	0x46e91ed8	29839.422
22	0xc69c69be	-20020.871
23	0x46bc18c4	24076.383
24	0x462fb714	11245.77

exp_avg_sq f4 [25]
0	0x4e90021e	1.2080289e+09
1	0x4e18233b	6.381114e+08
2	0x4e434c39	8.191381e+08
3	0x4dbec590	4.000773e+08
4	0x4e3ddd87	7.9635296e+08
5	0x4ec9f69b	1.694191e+09
6	0x4df267d2	5.0836128e+08
7	0x4de47ca6	4.7917178e+08
8	0x4e32f6f9	7.506325e+08
9	0x4e305779	7.3963066e+08
10	0x4d3b7016	1.9654282e+08
11	0x4e00ba3e	5.399223e+08
12	0x4e7941f7	1.04546246e+09
13	0x4cbcd2b3	9.8997656e+07
14	0x4d7dc498	2.6609498e+08
15	0x4d5e5d4a	2.3316598e+08
16	0x4ea7f5db	1.4089537e+09
17	0x4d9fb851	3.349571e+08
18	0x4e4ce6af	8.5941754e+08
19	0x4ecfdaf5	1.7436166e+09
20	0x4eae4ce7	1.4621377e+09
21	0x4ddb60a7	4.6006806e+08
22	0x4e2ded1d	7.2949946e+08
23	0x4d903033	3.0238474e+08
24	0x4e3647f3	7.6454214e+08

exp_avg f4 [50, 25, 3, 3]
0	0xc54d81f8	-3288.123
1	0xc5183009	-2435.0022
2	0xc4859c45	-1068.8834
3	0xc4b76320	-1467.0977
4	0xc4937e05	-1179.9381
5	0xc419591c	-613.39233
6	0xc2fb4215	-125.62907
7	0xc3d80470	-432.03467
8	0xc4138e9c	-590.2283
9	0x45a32db0	5221.711
10	0x44ffa405	2045.1256
11	0xc48d1000	-1128.5
12	0x43abb110	343.3833
13	0xc508cb59	-2188.7092
14	0xc58efb5c	-4575.42
15	0xc5624b1b	-3620.694
16	0xc5a1a5de	-5172.7334
17	0xc5c4a81e	-6293.0146
18	0x4325fbfb	165.9843
19	0x43624b77	226.29478
20	0x42ac6c06	86.21098
21	0xc32a0538	-170.02039
22	0xc4060d10	-536.2041
23	0xc495bfae	-1197.99
24	0xc422958e	-650.3368
25	0xc4b69171	-1460.545
26	0xc51ab0fe	-2475.062
27	0x45735cda	3893.8032
28	0x452916bc	2705.421
29	0x4418d7fa	611.37463
30	0xc51bb3f4	-2491.247
31	0xc53cfefc	-3023.9365
32	0xc57d2af4	-4050.6846
33	0xc5d0aa6a	-6677.302
34	0xc5c9dcaa	-6459.583
35	0xc5c2141c	-6210.5137
36	0xc4e2731c	-1811.5972
37	0xc4851084	-1064.5161
38	0xc3b04fc6	-352.62323
39	0xc59aa069	-4948.0513
40	0xc56d923b	-3801.1394
41	0xc51d7d72	-2519.8403
42	0xc5c07db3	-6159.7124
43	0xc58f4432	-4584.5244
44	0xc53d3cad	-3027.7922
45	0x451ea650	2538.3945
46	0xc44a703a	-809.75354
47	0xc5632a3e	-3634.6401
48	0x45ad26f7	5540.8706
49	0x455498f0	3401.5586
50	0x44be2bfc	1521.3745
51	0x45e79965	7411.1743
52	0x45cc939c	6546.451
53	0x45ac47ba	5512.966
54	0xc587a502	-4340.626
55	0xc2b2e5d0	-89.44885
56	0x45606f66	3590.9624
57	0xc5c75048	-6378.035
58	0xc56d6c45	-3798.7668
59	0xc4b79eee	-1468.9666
60	0xc5e7429a	-7400.325
61	0xc5cba49a	-6516.575
62	0xc5b276cd	-5710.85
63	0x451717d2	2417.4888
64	0x45068923	2152.571
65	0x4495115f	1192.5428
66	0x4516acf2	2410.809
67	0x4510d99b	2317.6003
68	0x44ec5d12	1890.9084
69	0x45005876	2053.5288
70	0x450036be	2051.4214
71	0x44f2d274	1942.5767
72	0xc5bb6a1a	-5997.2627
73	0xc54f8ae4	-3320.6807
74	0x4381a548	259.29126
75	0xc5954698	-4776.824
76	0xc55361cc	-3382.1123
77	0xc4b9ccdf	-1486.4022
78	0xc5623a72	-3619.6528
79	0xc5628ae0	-3624.6797
80	0xc55009bb	-3328.6082
81	0x45d11a61	6691.2974
82	0x4541dee3	3101.9304
83	0xc3dfdeca	-447.74054
84	0x452ec6aa	2796.4165
85	0x438b4a28	278.57935
86	0xc5154b8a	-2388.7212
87	0xc41df156	-631.7709
88	0xc4f59750	-1964.7285
89	0xc5387674	-2951.4033
90	0xc3175bf8	-151.35925
91	0xc4d1fbbd	-1679.8668
92	0xc508ce90	-2188.9102
93	0x4508739e	2183.226
94	0x44b5dcff	1454.9061
95	0x448e66be	1139.2107
96	0x4580fcde	4127.6084
97	0x4570702f	3847.0115
98	0x456a848e	3752.2847
99	0x456836e6	3715.4312
100	0x452ff32a	2815.1978
101	0x44c165f5	1547.1862
102	0x45130881	2352.5315
103	0x45020308	2080.1895
104	0x44c6216c	1585.0444
105	0x449a0c42	1232.383
106	0x44c1db4a	1550.8528
107	0x44d859f0	1730.8105
108	0x4366319a	230.19376
109	0x450b68cf	2230.5505
110	0x45817434	4142.5254
111	0x44b1ff9a	1423.9875
112	0x453b7e46	2999.892
113	0x458ca23e	4500.2803
114	0x450f0f07	2288.9392
115	0x45327e30	2855.8867
116	0x45603268	3587.1504
117	0xc5192b45	-2450.7043
118	0xc3823e41	-260.48636
119	0x44c17649	1547.6964
120	0xc5b96a3e	-5933.2803
121	0xc56eb077	-3819.029
122	0xc4e867c6	-1859.2429
123	0xc5e65645	-7370.7837
124	0xc5a6abdc	-5333.4824
125	0xc55a8eea	-3496.9321
126	0xc4bfc799	-1534.2374
127	0xc265a1c9	-57.407993
128	0x44246faa	657.74475
129	0xc57e44d0	-4068.3008
130	0xc51c8be6	-2504.7437
131	0xc496b43c	-1205.6323
132	0xc598f57f	-4894.687
133	0xc53f0cd9	-3056.803
134	0xc4dc6bef	-1763.3729
135	0x4488110e	1088.533
136	0x450c630b	2246.1902
137	0x452f1d25	2801.8215
138	0x456eff84	3823.9697
139	0x458e720a	4558.255
140	0x459cbd9c	5015.701
141	0x45a9c482	5432.5635
142	0x45acab45	5525.4087
143	0x45a86454	5388.541
144	0x4507ceab	2172.9167
145	0x43a843b6	336.529
146	0xc4a68bbc	-1332.3667
147	0xc51ace91	-2476.9104
148	0xc544a0cc	-3146.0498
149	0xc5799eb5	-3993.9192
150	0xc59e43cc	-5064.4746
151	0xc5944824	-4745.0176
152	0xc5886ae0	-4365.3594
153	0xc44af7fa	-811.87463
154	0xc49b94c8	-1244.6494
155	0xc4bb878a	-1500.2356
156	0x420982f6	34.37789
157	0xc3a8dc2a	-337.72003
158	0xc4238684	-654.1018
159	0x44331bfc	716.43726
160	0x441ef10f	635.76654
161	0x439bfc3e	311.97064
162	0xc5658702	-3672.438
163	0xc4103ba9	-576.9322
164	0x4537c281	2940.1565
165	0x44bebb8b	1525.8607
166	0x454c6cfa	3270.811
167	0x45a6da15	5339.2603
168	0x45989dad	4883.7095
169	0x459dd93b	5051.154
170	0x45a3d2e8	5242.3633
171	0x45797ffe	3991.9995
172	0xc4208de9	-642.21735
173	0xc5965266	-4810.3
174	0x45beedbc	6109.717
175	0x45379f25	2937.9465
176	0xc37a32e4	-250.19879
177	0x45de0e48	7105.785
178	0x45ab18ea	5475.1143
179	0x4565c1c8	3676.1113
180	0x440ea815	570.6263
181	0xc4c45049	-1570.5089
182	0xc5385d3e	-2949.8276
183	0x442f9ae2	702.42004
184	0xc463c6d5	-911.10675
185	0xc5076257	-2166.1462
186	0x44393ecc	740.9812
187	0xc3806c1a	-256.84454
188	0xc4819bc3	-1036.8676
189	0x45b3f90e	5759.132
190	0x4534ba13	2891.6296
191	0xc4414a93	-773.1652
192	0x459b7a67	4975.3003
193	0x4530133d	2817.2024
194	0x43854130	266.50928
195	0x4569afcc	3738.9873
196	0x4520b0ab	2571.0417
197	0x44659300	918.2969
198	0x4417c974	607.1477
199	0x448d1744	1128.727
200	0x45093a59	2195.6467
201	0x45b4ad22	5781.6416
202	0x458ecb2e	4569.3975
203	0x45652b1c	3666.6943
204	0x45e97330	7470.3984
205	0x458ce5e8	4508.7383
206	0x44f70cb0	1976.3965
207	0x4544b54e	3147.3315
208	0xc515245b	-2386.2722
209	0xc5d8eb36	-6941.4014
210	0x45a52493	5284.572
211	0x44b92038	1481.0068
212	0xc4d248a7	-1682.2704
213	0x45cc2055	6532.0415
214	0x45931ea0	4707.828
215	0x454630fe	3171.062
216	0x44eb4488	1882.1416
217	0x43612302	225.13675
218	0xc459b2a0	-870.791
219	0x458b6e30	4461.7734
220	0x4554cf63	3404.9617
221	0x452a3948	2723.58
222	0x45b86f70	5901.9297
223	0x45a2318c	5190.1934
224	0x45967b34	4815.4004
225	0xc38ce594	-281.79358
226	0xc2ce456b	-103.13558
227	0xc328f2a7	-168.94786
228	0xc388e178	-273.76147
229	0xc3770dfd	-247.05464
230	0xc3fb1726	-502.18085
231	0xc390b4d4	-289.41272
232	0xc3cde20b	-411.76596
233	0xc44f4b8e	-829.18054
234	0x43e6d36f	461.65182
235	0xc4496a80	-805.66406
236	0xc4894b0e	-1098.3455
237	0x43b3d83e	359.6894
238	0xc424e9bc	-659.6521
239	0xc41df2c0	-631.79297
240	0xc28ed028	-71.406555
241	0xc439e276	-743.53845
242	0xc3bab19b	-373.38754
243	0x43c32f8e	390.37152
244	0xc264c65c	-57.19371
245	0xc3b6caa0	-365.583
246	0x439eaec8	317.36548
247	0xc36700ff	-231.00389
248	0xc41f524f	-637.2861
249	0xc1592128	-13.570595
250	0xc41942fa	-613.0465
251	0xc4830aef	-1048.3417
252	0x44a174ca	1291.6497
253	0xc2ca090c	-101.01767
254	0xc315ee8e	-149.93185
255	0x44a6bd05	1333.9069

exp_avg_sq f4 [50, 25, 3, 3]
0	0x4c181c64	3.987496e+07
1	0x4c3b6771	4.9126852e+07
2	0x4c539517	5.5465052e+07
3	0x4c185027	3.9927964e+07
4	0x4c446a9d	5.1489396e+07
5	0x4c5ff4e4	5.870888e+07
6	0x4c17829d	3.9717492e+07
7	0x4c3e397f	4.9866236e+07
8	0x4c53862d	5.544978e+07
9	0x4d0a5a4a	1.4507331e+08
10	0x4d1c8f3f	1.6416459e+08
11	0x4d339cc4	1.8833722e+08
12	0x4d3c68b1	1.975611e+08
13	0x4d67e897	2.4317374e+08
14	0x4d845f2e	2.7760378e+08
15	0x4d83b218	2.7618586e+08
16	0x4d9c69b0	3.280215e+08
17	0x4da73ccb	3.507224e+08
18	0x4a8690f6	4.409467e+06
19	0x4a89277b	4.4942695e+06
20	0x4a626652	3.7093325e+06
21	0x4a75e733	4.0288768e+06
22	0x4a45eb24	3.242697e+06
23	0x4a21339b	2.6411268e+06
24	0x4a9802e0	4.981104e+06
25	0x4a96ebb1	4.9453685e+06
26	0x4ac07b5d	6.3072465e+06
27	0x4d351ee5	1.899188e+08
28	0x4d59809e	2.280678e+08
29	0x4d780783	2.6007762e+08
30	0x4d5e2f22	2.3297693e+08
31	0x4d87bb06	2.846476e+08
32	0x4d9a9a60	3.2422605e+08
33	0x4d8da061	2.9701226e+08
34	0x4da3fcd4	3.4390694e+08
35	0x4db02778	3.6942208e+08
36	0x4cc25e72	1.019053e+08
37	0x4cba5dcb	9.7709656e+07
38	0x4cad0df2	9.073038e+07
39	0x4cd21576	1.1014443e+08
40	0x4cbe5131	9.9781e+07
41	0x4ca7fcd5	8.8073896e+07
42	0x4ccf268c	1.0860656e+08
43	0x4cb2cc6d	9.374193e+07
44	0x4c9a22e1	8.0811784e+07
45	0x4c8fe00e	7.543205e+07
46	0x4c958882	7.839848e+07
47	0x4c95079c	7.81345e+07
48	0x4c9d7a86	8.256414e+07
49	0x4c85e4fc	7.019926e+07
50	0x4c4b5028	5.329731e+07
51	0x4c9df710	8.28192e+07
52	0x4c84140e	6.924709e+07
53	0x4c3ff08c	5.0315824e+07
54	0x4d5926a8	2.2769933e+08
55	0x4d6ef35d	2.505579e+08
56	0x4d6dc273	2.4930898e+08
57	0x4d6a3948	2.456014e+08
58	0x4d6b4902	2.467144e+08
59	0x4d4df229	2.1594997e+08
60	0x4d594371	2.2781723e+08
61	0x4d516f51	2.1960834e+08
62	0x4d2d1d02	1.8152246e+08
63	0x4a847e4e	4.341543e+06
64	0x4aa2c577	5.3336915e+06
65	0x4ac7dbe1	6.5489765e+06
66	0x4a8a942f	4.5409515e+06
67	0x4ab07771	5.7824565e+06
68	0x4adb68be	7.189599e+06
69	0x4a77c783	4.0596168e+06
70	0x4a9a2521	5.0510245e+06
71	0x4ac16b87	6.3379875e+06
72	0x4d94ac7f	3.1179158e+08
73	0x4db32735	3.757114e+08
74	0x4dc17575	4.0571254e+08
75	0x4da02d7f	3.3591702e+08
76	0x4dbd20f8	3.966318e+08
77	0x4dc31695	4.0912963e+08
78	0x4d98045e	3.1880288e+08
79	0x4dae0d0c	3.6501133e+08
80	0x4dacc8d9	3.623555e+08
81	0x4d3f2721	2.0043829e+08
82	0x4d5fc9d2	2.346591e+08
83	0x4d7eb718	2.6708826e+08
84	0x4d6cc8fa	2.4828714e+08
85	0x4d91d83b	3.058584e+08
86	0x4da336e0	3.422853e+08
87	0x4d8f75dc	3.0085824e+08
88	0x4dabdd01	3.6042346e+08
89	0x4db6017c	3.8169382e+08
90	0x4b017f37	8.486711e+06
91	0x4b403fe5	1.2599269e+07
92	0x4b7ea525	1.6688421e+07
93	0x4b0a6c9f	9.071775e+06
94	0x4b20aab4	1.052946e+07
95	0x4b66c3c5	1.5123397e+07
96	0x4b771622	1.6193058e+07
97	0x4b939628	1.9344464e+07
98	0x4bc42803	2.5710598e+07
99	0x4bb1abf1	2.3287778e+07
100	0x4bcdb373	2.6961638e+07
101	0x4bdff438	2.9354096e+07
102	0x4b95645e	1.9581116e+07
103	0x4bc547a5	2.5857866e+07
104	0x4be4e524	3.0001736e+07
105	0x4b7d67da	1.6607194e+07
106	0x4bafae07	2.3026702e+07
107	0x4bd2b37c	2.7617016e+07
108	0x4d036056	1.3775805e+08
109	0x4d0714e4	1.4164333e+08
110	0x4d02f7de	1.3733014e+08
111	0x4d23e607	1.7186008e+08
112	0x4d235685	1.7127227e+08
113	0x4d16a7e8	1.5797414e+08
114	0x4d368cdf	1.9141784e+08
115	0x4d2d0e23	1.8146155e+08
116	0x4d162907	1.5745445e+08
117	0x4c2d8b5d	4.549362e+07
118	0x4c251e65	4.3284884e+07
119	0x4c321b70	4.668973e+07
120	0x4c4f77b3	5.438638e+07
121	0x4c271384	4.379803e+07
122	0x4c1983a8	4.024285e+07
123	0x4c662566	6.0331416e+07
124	0x4c337ccc	4.705157e+07
125	0x4c1c97eb	4.1050028e+07
126	0x4cb723ec	9.601827e+07
127	0x4cb3c943	9.4259736e+07
128	0x4caa7264	8.936323e+07
129	0x4cb807df	9.648511e+07
130	0x4caa30a5	8.9228584e+07
131	0x4c9b702b	8.149436e+07
132	0x4ca698f1	8.734503e+07
133	0x4c93d197	7.7499576e+07
134	0x4c85ebfc	7.02136e+07
135	0x4c95e59c	7.858915e+07
136	0x4c8e7eb9	7.4708424e+07
137	0x4c81a0ae	6.796222e+07
138	0x4ccb9230	1.0672986e+08
139	0x4cc207c0	1.0172774e+08
140	0x4cafd2dd	9.218225e+07
141	0x4cfcebfe	1.3260389e+08
142	0x4ce941ed	1.2229412e+08
143	0x4ccaf71d	1.06412264e+08
144	0x4d6b6c57	2.4685912e+08
145	0x4d750b37	2.5694706e+08
146	0x4d70c85e	2.5247894e+08
147	0x4d8b680a	2.923564e+08
148	0x4d916608	3.0492288e+08
149	0x4d8d4fdb	2.963526e+08
150	0x4d9bfe88	3.2714368e+08
151	0x4d9d9c15	3.305315e+08
152	0x4d93e0b1	3.1012202e+08
153	0x49bc7a44	1.5440085e+06
154	0x4a4130ee	3.1652435e+06
155	0x4aa1ece7	5.3059715e+06
156	0x49660084	942088.25
157	0x4a156fce	2.4483715e+06
158	0x4a90326b	4.7250455e+06
159	0x4990852c	1.1839095e+06
160	0x4a260059	2.7197662e+06
161	0x4a8eb46c	4.67615e+06
162	0x4e0f4bef	6.0102957e+08
163	0x4e203504	6.7195725e+08
164	0x4e267338	6.981422e+08
165	0x4e2ad580	7.1652966e+08
166	0x4e3c90fa	7.9090445e+08
167	0x4e3e0426	7.969857e+08
168	0x4e3b5fa4	7.859018e+08
169	0x4e4694d0	8.3291034e+08
170	0x4e3f18ae	8.015164e+08
171	0x4d344f63	1.8906885e+08
172	0x4d3f41e4	2.005479e+08
173	0x4d41181c	2.0247392e+08
174	0x4d541e63	2.2242258e+08
175	0x4d4af686	2.1282211e+08
176	0x4d2eca87	1.8328178e+08
177	0x4d56afdb	2.2511557e+08
178	0x4d44dada	2.0641731e+08
179	0x4d1b16da	1.6262288e+08
180	0x4a938821	4.8343205e+06
181	0x4aaea85f	5.7231835e+06
182	0x4b029d12	8.55989e+06
183	0x4aec46bb	7.7423015e+06
184	0x4abf122e	6.261015e+06
185	0x4acacccd	6.6453505e+06
186	0x4b1fbf84	1.0469252e+07
187	0x4adcc679	7.2343645e+06
188	0x4a93734e	4.831655e+06
189	0x4c95675c	7.833059e+07
190	0x4c9efaf1	8.335143e+07
191	0x4cae8b04	9.151082e+07
192	0x4cb910f8	9.702803e+07
193	0x4cce78f7	1.08251064e+08
194	0x4cd72a6c	1.128088e+08
195	0x4ccec747	1.0841145e+08
196	0x4ce9749f	1.22397944e+08
197	0x4ce9f8b1	1.22668424e+08
198	0x4e5ad8a1	9.179075e+08
199	0x4e64697e	9.580297e+08
200	0x4e59aa4c	9.129541e+08
201	0x4e600c6c	9.397276e+08
202	0x4e602c9e	9.402551e+08
203	0x4e4d9b36	8.623753e+08
204	0x4e4ad23f	8.506941e+08
205	0x4e413495	8.103622e+08
206	0x4e2b88c4	7.1946675e+08
207	0x4d5a2e8f	2.2878027e+08
208	0x4d729fd0	2.5440998e+08
209	0x4d7a86a2	2.6269546e+08
210	0x4d7c2f44	2.6443475e+08
211	0x4d7446eb	2.5614302e+08
212	0x4d51ad37	2.1986187e+08
213	0x4d7ad6d1	2.6302389e+08
214	0x4d60efef	2.3586379e+08
215	0x4d2b02ea	1.7931843e+08
216	0x4c149e68	3.895952e+07
217	0x4c17043b	3.9588076e+07
218	0x4c204c4d	4.2021172e+07
219	0x4c458a29	5.1783844e+07
220	0x4c3c3c1f	4.9344636e+07
221	0x4c39c966	4.870287e+07
222	0x4c7a11b6	6.5554136e+07
223	0x4c71fc51	6.3435076e+07
224	0x4c700591	6.292026e+07
225	0x4b7218f6	1.5866102e+07
226	0x4b65eb8c	1.5068044e+07
227	0x4b49dd60	1.3229408e+07
228	0x4b989725	2.000033e+07
229	0x4b9beece	2.0438428e+07
230	0x4b9215be	1.9147644e+07
231	0x4badf436	2.2800492e+07
232	0x4bbf9255	2.5109674e+07
233	0x4bc14f03	2.533735e+07
234	0x4b435f78	1.280396e+07
235	0x4b9d720c	2.0636696e+07
236	0x4bdc4f2f	2.8876382e+07
237	0x4b0d47b1	9.258929e+06
238	0x4b59fe77	1.4286455e+07
239	0x4b95769e	1.959046e+07
240	0x4b02924f	8.557135e+06
241	0x4b1e64eb	1.0380523e+07
242	0x4b335c7e	1.1754622e+07
243	0x4b7f526c	1.673278e+07
244	0x4b953b32	1.9560036e+07
245	0x4b9ea4b4	2.0793704e+07
246	0x4b722ae6	1.5870694e+07
247	0x4b977f8d	1.9857178e+07
248	0x4bab97ae	2.2490972e+07
249	0x4b42836e	1.274763e+07
250	0x4b840f8c	1.7309464e+07
251	0x4ba00652	2.0974756e+07
252	0x4b4c604a	1.3393994e+07
253	0x4b73954f	1.5963471e+07
254	0x4b949c5d	1.9478714e+07
255	0x4b1fc035	1.0469429e+07
