models/500/sigma0.01_step0.0002_lr0.0005/ckpt/model_epoch_50.pth (torch, 282339 bytes, 18 tensors)

layer1.weight f4 [25, 1, 3, 3]
0	0xbd901752	-0.07035698
1	0x3c59e831	0.013299988
2	0x3d46425b	0.048403125
3	0xbd8ed548	-0.06974274
4	0xbd7c2899	-0.061562154
5	0x3cee2d64	0.029074378
6	0xbb007e15	-0.00196064
7	0xbd823507	-0.063577704
8	0xbbbd6663	-0.0057800277
9	0x3dc503a6	0.096198365
10	0x3e410815	0.1885074
11	0x3d6f92c3	0.058489572
12	0xbd73288c	-0.05936484
13	0x3e54df31	0.20788266
14	0x3c0489e9	0.008089521
15	0xbc4a70f0	-0.012356028
16	0xbd194653	-0.037420582
17	0xbe4b0983	-0.19827847
18	0x3db7c770	0.089735866
19	0x3d5f5f06	0.05453398
20	0xbc1bff0b	-0.009521256
21	0xbcbbea5e	-0.022938903
22	0xbd935c01	-0.07195283
23	0x3d9c60af	0.076356284
24	0xbdbc155f	-0.09183764
25	0xbde67577	-0.112528734
26	0x3a96efa5	0.0011515511
27	0x3da576f5	0.0807933
28	0x3d8c1e73	0.06841745
29	0xbc674a9b	-0.014116908
30	0x3d9dfc05	0.077140845
31	0x3d94178b	0.07231053
32	0x3db8851c	0.090097636
33	0x3ddd58e4	0.1080797
34	0xbdd8f650	-0.105938554
35	0xbde886dd	-0.11353848
36	0xbb5bb118	-0.0033522304
37	0x3d262108	0.040558845
38	0xbce040fa	-0.027374733
39	0xbe11add2	-0.14226463
40	0x3dccceef	0.10000407
41	0xbd185a90	-0.037195742
42	0x3db33224	0.08749798
43	0x3c51d215	0.012806435
44	0x3d8911a9	0.066928215
45	0xbbb511f6	-0.0055258228
46	0xbc39cf7d	-0.011340973
47	0x3d3c5f1f	0.045989152
48	0x3c5e6ef6	0.01357626
49	0x3d5a910a	0.053360976
50	0x3d3ac9f5	0.045602757
51	0xbcfa83f9	-0.030580508
52	0x3d71de6f	0.05905002
53	0x3e16573a	0.14681712
54	0x3d264ab2	0.04059858
55	0xbdf758d4	-0.120774895
56	0xbd078eb2	-0.03309507
57	0xbcb03cf9	-0.021513449
58	0xba9637b2	-0.001146069
59	0x3b2b58b2	0.0026145396
60	0xbdc5f49c	-0.09665796
61	0xbda1f34d	-0.07907734
62	0xbe1548bb	-0.14578526
63	0x3e12374d	0.14278908
64	0xbddf5867	-0.10905533
65	0xbcca9a66	-0.024731826
66	0xbda28b46	-0.079367206
67	0x3c820179	0.015869843
68	0x3d0c889e	0.034309976
69	0x3e2bbc2a	0.16770998
70	0xbc899c66	-0.01679821
71	0xbd456021	-0.04818738
72	0xbd9c6479	-0.07636351
73	0x3d817cdc	0.06322643
74	0xbcacbe36	-0.021086793
75	0xbe27370c	-0.16329592
76	0x3b30c321	0.0026971775
77	0xbbda9a83	-0.0066712513
78	0xbe2d16fb	-0.16903298
79	0xbb21780f	-0.002463821
80	0xbd9a3320	-0.075292826
81	0x3cd36e7c	0.025809519
82	0x3e9d7614	0.3075415
83	0xbc70007c	-0.014648553
84	0x3de4f411	0.111793645
85	0x3b6cec37	0.0036151537
86	0xbcef6c4a	-0.029226441
87	0xbcc84760	-0.024448097
88	0x3d4bc879	0.049751732
89	0xbda9e430	-0.082954764
90	0xbddb308e	-0.107026204
91	0x3d9169d3	0.071002625
92	0xbdeaeed2	-0.114713326
93	0x3c200f99	0.009769344
94	0x3db92962	0.09041096
95	0x3deefad7	0.11668938
96	0xbe0ba826	-0.13638362
97	0x3db27ac4	0.08714822
98	0x3d5d1bed	0.05398171
99	0x3d9cbcf5	0.07653228
100	0x3d312c22	0.04325498
101	0xbdd8060f	-0.105480306
102	0x3d20f93c	0.03930019
103	0x3dae95ea	0.085246876
104	0xbda7ae26	-0.08187513
105	0xbd1fb9e5	-0.038995642
106	0x3dd67d5f	0.104731314
107	0x3d43b01e	0.04777538
108	0xbc31c456	-0.010850033
109	0xbc826060	-0.015915096
110	0xbe9e2cdd	-0.30893603
111	0x3a3939ea	0.000706582
112	0x3e2f4573	0.17116337
113	0x3b0d3f70	0.0021552704
114	0xbd9cbc53	-0.076531075
115	0x3beb2f4b	0.0071772686
116	0xbd08c3d7	-0.033389892
117	0x3d083211	0.033250872
118	0xbd6b0988	-0.057382137
119	0xbd168434	-0.036747172
120	0xbd47ee60	-0.048811316
121	0x3cc0dc29	0.02354248
122	0xbd1cfcd7	-0.038327064
123	0xbca470e8	-0.02007337
124	0x3de18094	0.110108525
125	0x3b41a65c	0.002954862
126	0x3d70ccb4	0.05878897
127	0xbe341374	-0.17585546
128	0x3ca06e1a	0.01958375
129	0x3c85002f	0.01623544
130	0x3d8d9d9b	0.069148265
131	0xbcef16a9	-0.02918561
132	0xbb1246ec	-0.0022320105
133	0x3c5055de	0.012715785
134	0x3dd0dbdd	0.101981856
135	0xbc255626	-0.01009134
136	0xbe0900ad	-0.13379164
137	0xbe155280	-0.14582253
138	0x3e022f63	0.12713389
139	0x3d9b56ba	0.07584901
140	0xbd08f67b	-0.033438187
141	0x3c89ec44	0.016836293
142	0xbe00580c	-0.12533587
143	0x3dbc4e21	0.091945894
144	0x3d163bb5	0.036678035
145	0x3e1ace3e	0.15117738
146	0xbd97eb3b	-0.074179135
147	0x3cf9de1b	0.030501416
148	0x3cdc6cae	0.026907291
149	0x3e2ef01d	0.17083783
150	0xbdf1d4bc	-0.11808154
151	0x3dfb156b	0.122599445
152	0xbd990f23	-0.0747359
153	0xbd674859	-0.05646548
154	0xbccc18e7	-0.024914218
155	0x3dcd0183	0.10010054
156	0x3df707ce	0.120620355
157	0xbd93f82a	-0.07225068
158	0xbcf4538d	-0.029824996
159	0xbde6a612	-0.11262144
160	0x3d0308a5	0.031990666
161	0x3dbcf72f	0.09226834
162	0xbd9bdcfc	-0.07610509
163	0xbdf9b253	-0.12192216
164	0xbdfe2beb	-0.124107204
165	0xbb67ae56	-0.0035351715
166	0x3d876489	0.066109724
167	0xbe02ec2f	-0.1278541
168	0xbe3903ef	-0.18067907
169	0x3d54a34b	0.05191354
170	0x3cfde301	0.030992033
171	0x3ae0f77e	0.0017163602
172	0x3dd11274	0.10208598
173	0x3dd60bc4	0.10451463
174	0x3daeb0aa	0.0852979
175	0xbe01b7d4	-0.12667781
176	0x3e0291f8	0.12750995
177	0x3b0b443a	0.0021250383
178	0x3bea2d73	0.0071465313
179	0x3e0850ed	0.1331212
180	0xbd9b9ec3	-0.07598641
181	0x3e15d376	0.14631447
182	0x3d59c7cf	0.053169068
183	0x3c290c2c	0.010317843
184	0x3cb1322e	0.021630373
185	0x3d3f2eb0	0.046675384
186	0xbd9e3ef1	-0.07726849
187	0xbc2604f9	-0.0101330215
188	0x3c4dbfbf	0.012557923
189	0x3e7ce833	0.24697952
190	0xbdb4d001	-0.08828736
191	0x3d3377d8	0.043815464
192	0xbcddc417	-0.027071042
193	0x3dffc990	0.12489617
194	0x3d280a97	0.041025724
195	0xbcc03ba1	-0.023465933
196	0xbd2cb448	-0.042164117
197	0x3ce1f21d	0.027581269
198	0x3d8880ac	0.06665167
199	0x3db08e1f	0.086208574
200	0xbccae5ba	-0.024767745
201	0xbe006a3b	-0.12540524
202	0x3c5ec8f2	0.013597714
203	0xbdde616c	-0.108584255
204	0xbe20d0ce	-0.15704653
205	0xbdad0f38	-0.08450168
206	0xbe2428b1	-0.16031148
207	0xbdb93b40	-0.09044504
208	0x3b0a494e	0.0021100822
209	0x3e4b12e3	0.19831423
210	0x3cccf123	0.025017327
211	0x3dd3eb00	0.10347557
212	0x3e29b6eb	0.16573684
213	0x3db20259	0.08691854
214	0xbbbbf245	-0.005735668
215	0x3a566d9f	0.0008179787
216	0x3c74bff3	0.014938342
217	0xbd099baf	-0.033595737
218	0xbd9b8e6f	-0.075955264
219	0xbde20a8b	-0.11037167
220	0x3e22e410	0.15907311
221	0x3d8f7faf	0.070067756
222	0x3cf47075	0.02983878
223	0x3dbceb07	0.092245154
224	0xbda107df	-0.078628294

layer1.bias f4 [25]
0	0x3d0e0e4c	0.034681603
1	0xbe56808f	-0.20947479
2	0xbd8c5454	-0.06852022
3	0xbea0c166	-0.3139755
4	0xbe86d911	-0.26337484
5	0x3e88cfa2	0.2672091
6	0xbe84e80b	-0.25958285
7	0x3da01b46	0.07817702
8	0xbdd9c306	-0.10632901
9	0xbde38b25	-0.11110524
10	0x3e2786a5	0.16359957
11	0xbc310a50	-0.010805681
12	0x3dd3735a	0.10324736
13	0xbe9c3641	-0.30510142
14	0xbe5839cc	-0.21115798
15	0x3e748920	0.23880434
16	0xbe8b8880	-0.2725258
17	0x3cc83af8	0.024442181
18	0x3e82008a	0.25391036
19	0x3e6d1e16	0.23156008
20	0x3c4680c1	0.012115658
21	0x3d79ee11	0.061018053
22	0x3ea0207f	0.31274793
23	0x3e8eff1b	0.27929005
24	0x3e828bff	0.25497434

layer2.weight f4 [50, 25, 3, 3]
0	0x3d09e7c1	0.033668283
1	0x3af93439	0.0019012756
2	0xbd854c0c	-0.065086454
3	0xbd437a99	-0.04772434
4	0x3d80f95f	0.06297564
5	0x3ce7c005	0.028289804
6	0xbc86a4bf	-0.016435979
7	0x3d67e272	0.05661244
8	0x3a37a0ba	0.0007004846
9	0xbd11d3ca	-0.03560237
10	0xbdb5a977	-0.088702135
11	0xbce27310	-0.027642757
12	0xbd40e4a8	-0.047093064
13	0xbd9bdd90	-0.07610619
14	0x3b411aad	0.0029465363
15	0x3cc81d80	0.02442813
16	0x3cc37402	0.023859028
17	0xbd85201b	-0.06500264
18	0xbbcb99d2	-0.006213405
19	0xbb1ed65b	-0.0024236653
20	0xbd537513	-0.051625323
21	0x3d5768a6	0.052590035
22	0xbcb03d4d	-0.021513605
23	0x3d1abe87	0.037779357
24	0xbdaf42ad	-0.08557639
25	0x3d0b69a7	0.034036305
26	0x3d17d59b	0.037068944
27	0x3dcf7c6d	0.10131154
28	0x3d6c0238	0.057619303
29	0x3b829c3b	0.0039859093
30	0x3ba78855	0.0051126876
31	0x3c054d53	0.008136111
32	0xbd2614ad	-0.04054706
33	0xbcd8b231	-0.026452156
34	0x3b951d67	0.004550624
35	0x3d095bff	0.033535
36	0xbaaf702a	-0.0013384868
37	0xbb9e0975	-0.0048229047
38	0xbd4d7560	-0.050160766
39	0x3d4dbc94	0.05022867
40	0xbd9a9fde	-0.075500235
41	0xbda96b2f	-0.08272397
42	0xbcb43210	-0.021996528
43	0x3ccb0089	0.024780529
44	0x3e13ea37	0.14444815
45	0xbc5758c8	-0.013143726
46	0x3d8c9eed	0.0686625
47	0xbc493d17	-0.012282631
48	0x3d02d913	0.0319453
49	0xbd342880	-0.043983936
50	0x3ddf4520	0.109018564
51	0x3d95ca75	0.07314006
52	0xbd2e2ff4	-0.0425262
53	0x3d670d5f	0.056409236
54	0x3b7c93ef	0.0038540324
55	0x3d67d664	0.056600943
56	0x3d82acfc	0.063806504
57	0xbd20bc2b	-0.03924195
58	0xbddba3f4	-0.10724631
59	0x3d6e4f71	0.05818123
60	0xbcf8cef4	-0.03037212
61	0xbd9cb158	-0.07651013
62	0x3c706e69	0.014674761
63	0x3db177d9	0.08665437
64	0x3d444d47	0.04792526
65	0x3c3cb3e8	0.011517502
66	0x3cfacad0	0.030614287
67	0x3d943acf	0.07237779
68	0x3dc4b173	0.09604158
69	0xbd84bdc9	-0.06481511
70	0xbdb0cdae	-0.0863298
71	0xbbf0cc3b	-0.007348565
72	0x3d24d5ab	0.040242832
73	0x3cdcd0f4	0.026955105
74	0xbb0a4acd	-0.0021101714
75	0x3db62144	0.08893064
76	0x3d41c75a	0.047309257
77	0x3dcdc853	0.100479744
78	0xbcae9955	-0.021313349
79	0xbc81ad0f	-0.015829591
80	0xbc6fe59c	-0.0146421455
81	0x3d5aa0e3	0.05337609
82	0xbd3743ec	-0.04474251
83	0x3d26b247	0.040697362
84	0x3c639e24	0.013892684
85	0x3c78f157	0.015194259
86	0x3e04c310	0.12965035
87	0xbd2ac7f1	-0.041694585
88	0xbd878863	-0.066178106
89	0x3d54bc55	0.05193742
90	0xbcb16f7e	-0.021659609
91	0xbddcae5a	-0.107754424
92	0xbda137f2	-0.07871999
93	0xbcd78789	-0.026309745
94	0x3d0ae4f0	0.033909738
95	0xbd8145ed	-0.063121654
96	0xbd5f71d8	-0.05455193
97	0x3ca7c3a5	0.020479033
98	0xbd596b4a	-0.053080834
99	0x3a7eafb8	0.0009715515
100	0xbd7dec78	-0.061993092
101	0x3d681076	0.056656323
102	0xbd24ba45	-0.040216703
103	0xbccf16ba	-0.025279392
104	0xbd3e5199	-0.046464536
105	0xbcb3eabe	-0.02196252
106	0x3c261a8d	0.010138166
107	0x3d0b5fc8	0.03402689
108	0xbc0fbdae	-0.0087732505
109	0x3d56d384	0.05244781
110	0xbd7d207a	-0.06179855
111	0xbdd3367b	-0.10313126
112	0xbd23cc5a	-0.039989807
113	0xbd45430b	-0.04815964
114	0xbd545644	-0.05184008
115	0xbdc14dac	-0.09438643
116	0x3d8450ac	0.064606994
117	0xbd8461b7	-0.0646395
118	0x3c37e3c3	0.011223736
119	0x3ddc46af	0.10755669
120	0xbcfda513	-0.030962503
121	0xbd05e802	-0.032691963
122	0xbd1d73f9	-0.03844068
123	0xbd088c3e	-0.03333687
124	0xbdb648ec	-0.089006275
125	0x3d6d517d	0.05793904
126	0xbce29967	-0.027661039
127	0x3d300301	0.042971615
128	0xbdcbb09b	-0.09945794
129	0xbd7f30b9	-0.062302325
130	0x3cf1338f	0.02944353
131	0xbd8ec508	-0.069711745
132	0xbd37d02e	-0.04487627
133	0xbc6db9a0	-0.0145095885
134	0xbd7d077f	-0.061774727
135	0xbbce828a	-0.0063021826
136	0xbd9b86a0	-0.07594037
137	0xbc7bb3e1	-0.015362711
138	0xbe0fbec2	-0.14037612
139	0x3da24cad	0.07924781
140	0x3d9c0b1b	0.07619306
141	0xbcefcc74	-0.029272296
142	0x3d9dae63	0.07699277
143	0xbd97ee7c	-0.07418534
144	0x3ba4040a	0.0050053643
145	0xbab1ba6e	-0.0013559589
146	0x3bd476db	0.0064838952
147	0xbba95951	-0.005168118
148	0x3cacb673	0.021083092
149	0xbc73ece1	-0.014888019
150	0x3da3f84d	0.08006344
151	0xbd9f5126	-0.0777915
152	0xbdc86c99	-0.09786338
153	0xbb5442b4	-0.003238839
154	0xbd8e2c8a	-0.06942089
155	0xbd81255a	-0.06305952
156	0x3da710f6	0.08157532
157	0xbcfbbaa0	-0.030728638
158	0x3da4dcd5	0.08049933
159	0x3b002a34	0.0019556405
160	0xbd3f910d	-0.04676919
161	0xbd956c3b	-0.07296034
162	0x3c0b22e6	0.008492207
163	0xbd1e2ad1	-0.03861505
164	0x3bbc9cf7	0.0057560164
165	0x3d8d25b9	0.06891961
166	0xbdbc0a80	-0.0918169
167	0x3d00216f	0.031281885
168	0xbd9677bb	-0.073470555
169	0x3d1d6f07	0.038435962
170	0xbd363d4b	-0.044492047
171	0x3cbffafd	0.02343511
172	0xbd7ca8eb	-0.06168453
173	0x3c674782	0.01411617
174	0x3dfe936c	0.12430462
175	0xba248f0f	-0.0006277421
176	0x3c81a6ca	0.015826602
177	0x3d8c982e	0.068649635
178	0x3c935b9a	0.017988015
179	0x3ca5037b	0.020143261
180	0xbcd1483f	-0.025547145
181	0x3af6b8d5	0.0018823395
182	0x3d88b67a	0.0667543
183	0x3d2fc4be	0.042912237
184	0x3cce6972	0.025196765
185	0xbcda26d7	-0.026629848
186	0x3d79c112	0.06097514
187	0xbddd05e7	-0.107921414
188	0xba68ca47	-0.00088802393
189	0x3d3de224	0.046358243
190	0x3d91744e	0.071022615
191	0xbd94b6c0	-0.07261419
192	0x3bc51fcf	0.006015755
193	0x3d1a2d20	0.03764069
194	0x3cb868ac	0.022510849
195	0xbd93a767	-0.07209664
196	0xbd83a115	-0.06427208
197	0xbd7ff8b3	-0.062493037
198	0xbc4dfb08	-0.012572058
199	0xbd8abea7	-0.06774645
200	0x3d51e1a5	0.051240582
201	0x3cab0356	0.020875614
202	0x3cdfd280	0.027322054
203	0xbc3bfbdc	-0.011473622
204	0x3de1d53a	0.11026998
205	0xbbc9e889	-0.0061617536
206	0xbc53ffb4	-0.012939382
207	0xbcd7fbba	-0.02636515
208	0xbcf0eb50	-0.02940908
209	0xba31a9de	-0.00067773263
210	0x3d9e39b4	0.0772585
211	0xbdb344c1	-0.08753348
212	0xbd19f174	-0.037583783
213	0xbbbc532c	-0.0057472195
214	0xbce82eac	-0.028342567
215	0x3d468f21	0.048476342
216	0xbc7bdf03	-0.015372994
217	0x3d93ba59	0.07213277
218	0xbdb6835d	-0.08911774
219	0xbd4077d6	-0.046989284
220	0x3d117ef4	0.035521463
221	0x3cf62539	0.030047046
222	0x3d24f537	0.040272918
223	0xbd9d0e26	-0.07668714
224	0x3c65ad50	0.014018372
225	0xbdc16eea	-0.09444983
226	0xbc4b9b98	-0.012427233
227	0x3cc65608	0.024210945
228	0x3d932e12	0.071865216
229	0xbccb7c89	-0.024839656
230	0xbdbef40b	-0.09323891
231	0x3e0fab3a	0.14030161
232	0x3cf37a71	0.02972147
233	0x3d331a6d	0.043726373
234	0xba0cf06f	-0.00053764036
235	0xbda69aaf	-0.08134972
236	0xbd594017	-0.053039636
237	0xba98a840	-0.0011646822
238	0xbd3c3f67	-0.045958903
239	0x3cc87355	0.024469057
240	0x3dc4a95c	0.09602615
241	0xbc013309	-0.007885703
242	0xbdb4b192	-0.08822931
243	0xbd90d771	-0.07072342
244	0x3d25c9ea	0.040475763
245	0xbc0ef0b1	-0.0087243775
246	0x3cc8fa6e	0.024533477
247	0xbbace05d	-0.0052757696
248	0x3ce23f30	0.02761802
249	0x3c46d8a3	0.012136611
250	0x3c12f0fa	0.008968586
251	0xbd392902	-0.045205124
252	0xbc837489	-0.01604678
253	0xbc842721	-0.01613194
254	0x3c2c2fba	0.010509426
255	0xbce064e1	-0.027391853

layer2.bias f4 [50]
0	0xbd10db3d	-0.035365332
1	0xbc81ec5b	-0.015859773
2	0xbc29e3b9	-0.010369235
3	0xbd5d5088	-0.05403188
4	0x3cbe3e33	0.023223018
5	0x3d9a3ae3	0.07530763
6	0x3d25f8f5	0.040520627
7	0xbd8f0ee9	-0.06985266
8	0xbd8e9b66	-0.06963234
9	0x3d8a26c6	0.06745677
10	0x3b9a3bda	0.004706842
11	0x3d05b8d6	0.032646976
12	0xbc9e12fa	-0.019296158
13	0x3c9c0383	0.019044643
14	0xbd014b50	-0.031565964
15	0x3d4a3570	0.04936737
16	0xbbe8618e	-0.0070917075
17	0xbd2888d5	-0.04114612
18	0xbccf870a	-0.025332946
19	0x3d3180cf	0.043335732
20	0x3d2e584f	0.042564686
21	0xbd9c03b8	-0.07617897
22	0x3ce5cfc8	0.02805318
23	0x3d7ca224	0.061678067
24	0xbbc44e1a	-0.0059907557
25	0xbcbc7a11	-0.023007425
26	0x3c893c3e	0.016752359
27	0x3d2c91b4	0.04213114
28	0x3b411e63	0.0029467575
29	0x3cd9ce03	0.026587492
30	0x3d31ff4b	0.043456357
31	0xbc1831f3	-0.009289253
32	0x3d06556c	0.03279631
33	0xbc5bdaef	-0.013418897
34	0xbd240f76	-0.040053807
35	0xbd58278b	-0.052772086
36	0xbd0b1bc8	-0.03396204
37	0x3d4228f4	0.047402337
38	0xbca110b4	-0.019661285
39	0x3d1db6b5	0.03850432
40	0x3cf6f47c	0.030145876
41	0x3cb52e36	0.022116762
42	0x3c70c0a9	0.014694371
43	0xbd526a9d	-0.051371206
44	0xbd446627	-0.047948983
45	0xba244cfa	-0.0006267574
46	0x3d80c21a	0.06287022
47	0xbcbb4070	-0.022857875
48	0x3c66a15d	0.014076558
49	0x3d25ca04	0.04047586

layer4.weight f4 [25, 50, 3, 3]
0	0xbd39110a	-0.045182265
1	0x3b6f9051	0.0036554525
2	0x3d48688e	0.048927836
3	0x3cd6d07c	0.02622246
4	0x3c59eb17	0.013300679
5	0x3d0ff88c	0.035149142
6	0x3d03bfa7	0.032165196
7	0xbd66d634	-0.056356624
8	0xbd88db8e	-0.06682502
9	0xbd1b8bb0	-0.037975013
10	0x3c587bb4	0.013213087
11	0x3df26290	0.118352056
12	0x3cc4e5a5	0.024035284
13	0x3b58ee90	0.0033101179
14	0x3d0ec718	0.03485784
15	0xbc960a80	-0.018315554
16	0xbc486ba7	-0.012232698
17	0xbdafd771	-0.08586014
18	0x3d5aac3e	0.05338692
19	0xbcd3470a	-0.02579071
20	0xbbc9afe3	-0.0061550005
21	0x3da508b0	0.08058298
22	0x3dc4e51c	0.09614012
23	0xba08cab6	-0.00052181946
24	0xbc114834	-0.008867312
25	0x3d59ba7e	0.05315637
26	0xbc0803c1	-0.008301676
27	0x3c597546	0.013272589
28	0xbb75dfdc	-0.0037517464
29	0x3c767e02	0.015044691
30	0x3d436957	0.04770788
31	0x3c47ca6a	0.012194255
32	0xbcd5814d	-0.026062632
33	0xbc4b7d97	-0.01242008
34	0x3dae20dc	0.08502361
35	0x3dcb820b	0.09936913
36	0xbd0235b9	-0.031789515
37	0xbcaa3462	-0.020776931
38	0xbd8806b8	-0.066419065
39	0xbdc4464d	-0.09583721
40	0xbcfb32b0	-0.030663818
41	0x3b1ffd3d	0.0024412416
42	0xbd0a1bc8	-0.0337179
43	0x3d81fd54	0.06347147
44	0x3d89ae21	0.067226656
45	0xbb4ba822	-0.0031075557
46	0xba204293	-0.0006113436
47	0x3d85090d	0.06495867
48	0x3d29d1d6	0.04145988
49	0xbd815134	-0.063143164
50	0x3c9d0855	0.019169012
51	0x3d38e0dd	0.04513632
52	0xbac84d11	-0.0015281757
53	0xbc866d2e	-0.016409483
54	0xbced34b6	-0.028955799
55	0xbcc6cb9d	-0.024267012
56	0x3cd4465a	0.025912452
57	0x3d832ae0	0.06404662
58	0x3d871c04	0.065971404
59	0x3d0f124b	0.034929555
60	0xbd66486f	-0.05622142
61	0x3c342305	0.010994677
62	0xba33582e	-0.0006841448
63	0x3cef92a1	0.029244723
64	0x3d6c8bc9	0.057750497
65	0xbd53e528	-0.051732212
66	0xbd06d622	-0.032919057
67	0x3cf1d5ad	0.029520834
68	0x3d4e6f0d	0.050398875
69	0x3bc226cb	0.0059250346
70	0x3d48d70c	0.04903321
71	0xbd940af6	-0.07228653
72	0x3d1c5fe2	0.03817738
73	0x3c45a416	0.012063047
74	0x3da48253	0.0803267
75	0xbc874cb4	-0.016516067
76	0xbdb582c5	-0.08862833
77	0x3cfab069	0.030601697
78	0xbd9742a9	-0.07385761
79	0x3dba6116	0.09100549
80	0xbd3022f4	-0.043002084
81	0x3b6efb38	0.0036465656
82	0xbd34f935	-0.044182975
83	0x3ca691cd	0.020333195
84	0x3cfd30cf	0.030907063
85	0x3c8a9748	0.01691784
86	0x3d34d226	0.044145726
87	0xbdbf954c	-0.09354648
88	0x3d4e85ab	0.050420444
89	0xbc2d7eb6	-0.010589292
90	0xbd977fc9	-0.0739742
91	0xbcdc824e	-0.026917603
92	0x3d877f5e	0.0661609
93	0x3d1043cb	0.035220902
94	0xbd09abfc	-0.033611283
95	0x3cf0d4af	0.02939829
96	0xbd83aa51	-0.0642897
97	0x3de62207	0.11236959
98	0x3c8bb3b4	0.017053463
99	0x3d623a81	0.055231575
100	0x3dd0bfb8	0.101928174
101	0xbc541d19	-0.012946391
102	0x3dd7ea2a	0.1054271
103	0x3ca2eb2b	0.019887527
104	0xbd0df607	-0.034658458
105	0x3d4ce64b	0.050024312
106	0x3d18c095	0.037293036
107	0x3d398bca	0.04529933
108	0xbd41fb34	-0.047358707
109	0xbcb39a0d	-0.021924043
110	0x3d45b9f5	0.048273046
111	0xbd40714a	-0.04698304
112	0x3c7368d0	0.014856532
113	0x3b8d9751	0.004321017
114	0x3c86a5d9	0.016436504
115	0xbd8ded0e	-0.0692998
116	0xbd8b418f	-0.06799614
117	0xbd82bcc7	-0.06383663
118	0x3c81756f	0.015803067
119	0xbcb8a4ac	-0.02253946
120	0xbdcfc2af	-0.10144555
121	0x3d7e37b8	0.062064856
122	0x3d2883a8	0.041141182
123	0xbd22336d	-0.039599825
124	0x3d1510bc	0.036392912
125	0x3df63604	0.120220214
126	0xbdb1a049	-0.0867315
127	0xbdf1d2d8	-0.118077934
128	0xbc81bbf6	-0.015836697
129	0xbc9bd87a	-0.019024123
130	0xbd1ced8d	-0.038312484
131	0x3dfdbd29	0.12389595
132	0xbad21ad8	-0.0016029729
133	0xbd920b3c	-0.07131049
134	0x3ce9b9e9	0.028531032
135	0x3cf18e11	0.029486688
136	0x3d42c9d6	0.047555767
137	0xbd9342fe	-0.07190512
138	0x3c4e43fc	0.012589451
139	0xbc9f5d48	-0.01945366
140	0x3b5b36f2	0.0033449498
141	0xbdc1d120	-0.094637156
142	0xbde8ce58	-0.11367482
143	0x3a9af1bf	0.0011821314
144	0xbca6364e	-0.020289566
145	0xbc9fafa4	-0.019492932
146	0xbd693f1a	-0.056944944
147	0x3d1fdc64	0.03902854
148	0x3d91509e	0.07095455
149	0xbcc2d2bd	-0.023782128
150	0x3bc9814d	0.006149447
151	0x3d8f4ff5	0.069976725
152	0x3a0a03ef	0.00052648684
153	0x3d1ee8b9	0.03879616
154	0x3bf2abf8	0.007405754
155	0x3dd33ffa	0.10314937
156	0x3cb7dc5b	0.02244394
157	0x3cd99238	0.02655898
158	0xbd8a0b6a	-0.06740458
159	0xbc54f4ff	-0.012997865
160	0x3d5668b8	0.05234596
161	0x3d70821b	0.05871783
162	0x3da5e5c6	0.081004664
163	0xbd7a08a0	-0.06104338
164	0x3d2e3aec	0.04253666
165	0xbc988f1c	-0.018622927
166	0xbd9b618a	-0.075869635
167	0xbe111ff0	-0.1417234
168	0xbd6dbbfb	-0.0580406
169	0x3b84276b	0.0040330193
170	0x3d899529	0.06717903
171	0xbc29b164	-0.010357235
172	0xbd48ad61	-0.048993472
173	0x3c2fd3ff	0.010731696
174	0xbd4d16fe	-0.050070755
175	0x3cb74a66	0.022374343
176	0xbd67fdd6	-0.05663856
177	0xbcddbe29	-0.027068214
178	0xbd8d9a4e	-0.06914197
179	0xbb0337bd	-0.0020022236
180	0x3ca6be83	0.020354515
181	0x3dd034a4	0.101662904
182	0xbdc45372	-0.095862284
183	0x3dd1036f	0.10205733
184	0xbd9fce71	-0.078030474
185	0xbd232ccb	-0.03983764
186	0x3b898bd3	0.0041975765
187	0xbce0fab4	-0.027463295
188	0x3d1a48f4	0.03766723
189	0xbd823099	-0.063569255
190	0xbdc22d5f	-0.0948131
191	0xba519e3c	-0.0007996296
192	0xbdc4c0cd	-0.09607086
193	0x3d5b52ad	0.053545643
194	0x3d13f739	0.03612444
195	0x3d22f548	0.0397847
196	0x3d632fde	0.05546557
197	0xbd1aff8d	-0.03784137
198	0x3c0d1aed	0.008612377
199	0xbd92da5f	-0.07170557
200	0x3dac5c8c	0.084160894
201	0xbc6463c5	-0.013939803
202	0xbc7db835	-0.015485813
203	0xbd44d975	-0.048058946
204	0xbd83387e	-0.064072594
205	0xbccf69fc	-0.025319092
206	0x3be1d15a	0.0068914117
207	0x3dae50ab	0.0851148
208	0xb9960d5b	-0.0002862018
209	0x3d1e9b38	0.038722247
210	0xbd8807fd	-0.06642149
211	0xbdae550c	-0.08512315
212	0xbd788f54	-0.060683563
213	0x3d0698a5	0.032860417
214	0x3d9d636b	0.07684978
215	0x3b11571f	0.0022177172
216	0xbda8d598	-0.08243865
217	0xbbeca568	-0.0072218664
218	0xbd728202	-0.059206016
219	0x3d89f40d	0.06736002
220	0xbdd94aba	-0.10609956
221	0x3cf0a73e	0.029376622
222	0xbb6faf7b	-0.00365731
223	0x3a87b3a6	0.0010353222
224	0x3cdd2e42	0.026999597
225	0x3c9bfbfe	0.019041058
226	0xbd5ac821	-0.053413514
227	0xbd5652d1	-0.052325074
228	0xbbf90162	-0.007599042
229	0xbcc3eb0e	-0.023915794
230	0x3be5e7dc	0.007016165
231	0x3c964c90	0.018347055
232	0xbb39d6e4	-0.0028356845
233	0xbbe39314	-0.0069450233
234	0x3dece536	0.11567156
235	0x3bef9491	0.0073114117
236	0x3d2c31b7	0.0420396
237	0x3d3dad22	0.04630769
238	0x3d497717	0.04918584
239	0xbc0067f9	-0.007837289
240	0xbd81352a	-0.06308968
241	0xbb9a4050	-0.0047073737
242	0xbc83947e	-0.016062018
243	0x3cdef933	0.027218437
244	0x3cc6209c	0.024185471
245	0x3ccdf388	0.025140539
246	0x3d18ca26	0.03730216
247	0xbd5b0b75	-0.053477723
248	0x3d79f17d	0.061021317
249	0xbc9fb7d8	-0.019496843
250	0xbd068cf5	-0.03284927
251	0xb9aabb15	-0.00032564314
252	0xbd3b028b	-0.045656722
253	0xbdcc0c2a	-0.099632576
254	0xbd6cd4d9	-0.057820175
255	0x3d88bede	0.0667703

layer4.bias f4 [25]
0	0xbc167d42	-0.009185137
1	0x3cac2a77	0.021016343
2	0xbbe42ad3	-0.006963113
3	0xbcdb7d28	-0.026793078
4	0xbb43329c	-0.0029784804
5	0x3b502115	0.0031758
6	0x3cf8129c	0.030282311
7	0x3cc1d4df	0.023661075
8	0x3d2044e5	0.039128203
9	0xbd03aa40	-0.032144785
10	0x3ba8196e	0.0051299846
11	0x3bdb9bda	0.0067019286
12	0x3c2be66b	0.010491948
13	0x3aba6726	0.0014221414
14	0x3cf7a95f	0.03023213
15	0x3a5d5c2c	0.00084442156
16	0x3d0193c3	0.031635057
17	0x3d1d0c56	0.038341843
18	0xbc31a6e2	-0.010843011
19	0xbd06207d	-0.032745827
20	0x3d22a601	0.039709095
21	0xbceeb157	-0.029137297
22	0xbd454b19	-0.04816732
23	0xbc834dd3	-0.01602832
24	0xbacac4b5	-0.001547

exp_avg f4 [25, 1, 3, 3]
0	0x47dece1c	114076.22
1	0x47c24afc	99477.97
2	0x4781220d	66116.1
3	0x47f577b8	125679.44
4	0x47d7ee70	110556.875
5	0x4795099c	76307.22
6	0x47dea57a	113994.95
7	0x47c0b4ee	98665.86
8	0x47820b34	66582.41
9	0xc74735e4	-50997.89
10	0xc715a8c6	-38312.773
11	0xc6a6b601	-21339.002
12	0xc7488ab0	-51338.688
13	0xc71cf1e8	-40177.906
14	0xc6c7a096	-25552.293
15	0xc724d2e8	-42194.906
16	0xc7044628	-33862.156
17	0xc6ae5af8	-22317.484
18	0xc4089080	-546.2578
19	0x46328081	11424.126
20	0x46886082	17456.254
21	0x46d910a2	27784.316
22	0x471b2503	39717.01
23	0x472a8041	43648.254
24	0x472df0c6	44528.773
25	0x4757993c	55193.234
26	0x475b6834	56168.203
27	0xc6f75629	-31659.08
28	0xc6e7fe2e	-29695.09
29	0xc6b3719a	-22968.8
30	0xc71c032d	-39939.176
31	0xc7122486	-37412.523
32	0xc6dca183	-28240.756
33	0xc71add6a	-39645.414
34	0xc70f4111	-36673.066
35	0xc6d2a629	-26963.08
36	0xc6ef5b41	-30637.627
37	0xc6b459ee	-23084.965
38	0xc62408f2	-10498.236
39	0xc76c05f6	-60421.96
40	0xc74a44bf	-51780.746
41	0xc70ea7bd	-36519.74
42	0xc791449d	-74377.23
43	0xc77e68c6	-65128.773
44	0xc73ab54d	-47797.3
45	0xc74fe6c8	-53222.78
46	0xc78d018c	-72195.09
47	0xc78b0fcb	-71199.586
48	0xc791b0b4	-74593.41
49	0xc7b298ee	-91441.86
50	0xc7ac709f	-88289.24
51	0xc791afad	-74591.35
52	0xc7ac0256	-88068.67
53	0xc7a1a600	-82764.0
54	0x47805a72	65716.89
55	0x47475561	51029.38
56	0x46c998a1	25804.314
57	0x47902eae	73821.36
58	0x47639600	58262.0
59	0x46f41869	31244.205
60	0x4786e5a6	69067.3
61	0x47506f61	53359.38
62	0x46d4d2b6	27241.355
63	0xc77b52a8	-64338.656
64	0xc7230cf4	-41740.953
65	0xc66fc8f2	-15346.236
66	0xc78c2049	-71744.57
67	0xc734128a	-46098.54
68	0xc68416e9	-16907.455
69	0xc77bfefb	-64510.98
70	0xc71808a4	-38920.64
71	0xc61c8f64	-10019.848
72	0x47077da9	34685.66
73	0x46b62e00	23319.0
74	0x44163508	600.8286
75	0x47590aee	55562.93
76	0x472ede40	44766.25
77	0x46a82959	21524.674
78	0x4784c788	67983.06
79	0x47635e02	58206.008
80	0x4708d186	35025.523
81	0xc714ec17	-38124.09
82	0xc70f86b6	-36742.71
83	0xc6bcbcf1	-24158.47
84	0xc74dd35e	-52691.367
85	0xc751d258	-53714.344
86	0xc71e4522	-40517.133
87	0xc750788b	-53368.543
88	0xc757f77c	-55287.484
89	0xc72bbfaa	-43967.664
90	0x468ebb73	18269.725
91	0x45c6d4e7	6362.613
92	0xc59767b7	-4844.9644
93	0x45694620	3732.3828
94	0xc612e176	-9400.365
95	0xc697ade0	-19414.938
96	0xc5ba9f9c	-5971.951
97	0xc6924142	-18720.629
98	0xc6db117b	-28040.74
99	0xc7382010	-47136.062
100	0xc7113c98	-37180.594
101	0xc6acf278	-22137.234
102	0xc75b9352	-56211.32
103	0xc7304b3d	-45131.24
104	0xc6e0975c	-28747.68
105	0xc74ff0c0	-53232.75
106	0xc722258e	-41509.555
107	0xc6c8e123	-25712.568
108	0x477c3b42	64571.258
109	0x475e96aa	56982.664
110	0x470c9f1e	35999.117
111	0x478f907e	73504.984
112	0x477cbb5a	64699.35
113	0x4725ed54	42477.33
114	0x47757b10	62843.062
115	0x474dc05e	52672.367
116	0x46f3e1de	31216.934
117	0x459043f0	4616.492
118	0x45976c91	4845.571
119	0x453f9ab8	3065.67
120	0xc503660e	-2102.3784
121	0xc4fccfd3	-2022.4945
122	0xc56ec7e6	-3820.4937
123	0xc5fc2dac	-8069.709
124	0xc5fb4e4f	-8041.7886
125	0xc616e729	-9657.79
126	0xc6b34e09	-22951.018
127	0xc68d577e	-18091.746
128	0xc609fa5c	-8830.59
129	0xc68cd158	-18024.672
130	0xc644b99a	-12590.4
131	0xc5926fc0	-4685.9688
132	0xc632d3c4	-11444.941
133	0xc5d00d7a	-6657.6846
134	0x42c427a0	98.07739
135	0x472b8e92	43918.57
136	0x473968a1	47464.63
137	0x471c3d57	39997.34
138	0x4731271d	45351.113
139	0x4734e8e5	46312.895
140	0x470d4f43	36175.26
141	0x471320dc	37664.86
142	0x470d4586	36165.523
143	0x46c2b449	24922.143
144	0xc7b8c406	-94600.05
145	0xc7b29588	-91435.06
146	0xc785f8be	-68593.484
147	0xc7dc73d0	-112871.625
148	0xc7d7e81a	-110544.2
149	0xc7a80331	-86022.38
150	0xc7da58cc	-111793.59
151	0xc7d54f1a	-109214.2
152	0xc7a7dc2a	-85944.33
153	0xc59cc3e6	-5016.4873
154	0xc7095cb2	-35164.695
155	0xc75fad2c	-57261.17
156	0x460b0a60	8898.594
157	0xc6afd9e4	-22508.945
158	0xc734ca6d	-46282.426
159	0x46d0edea	26742.957
160	0xc50fb7bf	-2299.4841
161	0xc6ca640d	-25906.025
162	0x4737de93	47070.574
163	0x4716d75d	38615.363
164	0x468cfb76	18045.73
165	0x4798b448	78184.56
166	0x47893af8	70261.94
167	0x473804c5	47108.77
168	0x47b4a587	92491.055
169	0x47a5b2f9	84837.945
170	0x4770d9d8	61657.844
171	0xc7236e5e	-41838.367
172	0xc727faf5	-43002.957
173	0xc6ddc764	-28387.695
174	0xc761b5bf	-57781.746
175	0xc75b0400	-56068.0
176	0xc7119cf4	-37276.953
177	0xc765a52e	-58789.18
178	0xc74e8be8	-52875.906
179	0xc6fa3a38	-32029.11
180	0xc7aee0f8	-89537.94
181	0xc7b04f26	-90270.3
182	0xc794e150	-76226.625
183	0xc77675d7	-63093.84
184	0xc77c945d	-64660.363
185	0xc750aaba	-53418.727
186	0xc6c06628	-24627.078
187	0xc6cf73e6	-26553.95
188	0xc695127d	-19081.244
189	0xc7258f69	-42383.41
190	0xc732d18b	-45777.543
191	0xc713e58d	-37861.55
192	0xc770c78a	-61639.54
193	0xc781429e	-66181.234
194	0xc7664479	-58948.473
195	0xc78aabef	-70999.87
196	0xc7964e8e	-76957.11
197	0xc788b407	-69992.055
198	0x4710c3be	37059.742
199	0x4714b801	38072.004
200	0x46a0ecc8	20598.39
201	0x474e1190	52753.562
202	0x474cc964	52425.39
203	0x4704d2cc	34002.797
204	0x4758b8ad	55480.676
205	0x4752f048	54000.28
206	0x470b1b61	35611.38
207	0xc75c3904	-56377.016
208	0xc734398b	-46137.543
209	0xc6d3dad0	-27117.406
210	0xc77e272d	-65063.176
211	0xc7644620	-58438.125
212	0xc722ff30	-41727.188
213	0xc76eb160	-61105.375
214	0xc7638d6c	-58253.42
215	0xc7314110	-45377.062
216	0xc68f5e4e	-18351.152
217	0xc6678ba2	-14818.908
218	0xc5e03d12	-7175.634
219	0xc72141f8	-41281.97
220	0xc722f489	-41716.535
221	0xc70dca3f	-36298.246
222	0xc75b8c54	-56204.33
223	0xc76c37d0	-60471.812
224	0xc7627dc0	-57981.75

exp_avg_sq f4 [25, 1, 3, 3]
0	0x516c889e	6.349402e+10
1	0x5171da66	6.4921952e+10
2	0x51562420	5.7483067e+10
3	0x51605ef9	6.022913e+10
4	0x516458b4	6.1296296e+10
5	0x5149b9f8	5.415053e+10
6	0x5135409f	4.8654578e+10
7	0x51379b6e	4.928667e+10
8	0x5122521d	4.3572646e+10
9	0x4f0884ab	2.290396e+09
10	0x4eb0c131	1.4827255e+09
11	0x4e40bea3	8.0842976e+08
12	0x4f158c2c	2.5089915e+09
13	0x4ecf5bf3	1.7394548e+09
14	0x4e77c9f8	1.03930214e+09
15	0x4f1614ef	2.5179543e+09
16	0x4ee1bc2a	1.8936026e+09
17	0x4e945879	1.244413e+09
18	0x4f8a58f5	4.6421714e+09
19	0x4fa1162f	5.405171e+09
20	0x4fa1101b	5.4043745e+09
21	0x4f9db1d0	5.291352e+09
22	0x4fb39bc1	6.0266583e+09
23	0x4faf8c23	5.8903936e+09
24	0x4f97d3f3	5.0945e+09
25	0x4fa8fd0b	5.6703114e+09
26	0x4fa1548b	5.413345e+09
27	0x4dbde2ab	3.982186e+08
28	0x4d8aa723	2.9077616e+08
29	0x4d542568	2.2245133e+08
30	0x4e082b18	5.711314e+08
31	0x4dbc8c33	3.954131e+08
32	0x4d6e9d63	2.5020574e+08
33	0x4e2234b6	6.8034086e+08
34	0x4de32ea5	4.7643562e+08
35	0x4d86ac24	2.8242854e+08
36	0x50634d2f	1.5253945e+10
37	0x5052c158	1.4143545e+10
38	0x50287297	1.1304328e+10
39	0x508295c5	1.7526827e+10
40	0x506cbe7f	1.5887629e+10
41	0x5038bd3d	1.2397639e+10
42	0x50721687	1.624625e+10
43	0x505600b2	1.4361479e+10
44	0x50225f7b	1.0896666e+10
45	0x51472249	5.3454606e+10
46	0x51562789	5.7486643e+10
47	0x5144a475	5.2785795e+10
48	0x514e1680	5.5321297e+10
49	0x5159532f	5.833772e+10
50	0x51440239	5.261568e+10
51	0x5134eaed	4.856472e+10
52	0x513af29e	5.0183397e+10
53	0x512577f6	4.441764e+10
54	0x4f9e126d	5.3040154e+09
55	0x4f90327b	4.838455e+09
56	0x4f636df8	3.815635e+09
57	0x4f954d9f	5.0097843e+09
58	0x4f84acb4	4.4518216e+09
59	0x4f4f3e30	3.4769592e+09
60	0x4f67abbe	3.8867922e+09
61	0x4f49b549	3.384101e+09
62	0x4f2070be	2.6917432e+09
63	0x4f0ec9d6	2.3955922e+09
64	0x4f4cb458	3.434371e+09
65	0x4f87423c	4.53853e+09
66	0x4f11a086	2.4432164e+09
67	0x4f42c931	3.2679652e+09
68	0x4f7dbd9d	4.2570621e+09
69	0x4f00224b	2.149731e+09
70	0x4f208ea7	2.6937034e+09
71	0x4f4ea8da	3.4671724e+09
72	0x50356892	1.2174117e+10
73	0x50470c2f	1.3357858e+10
74	0x5045b83d	1.3268743e+10
75	0x50425327	1.3040918e+10
76	0x504f19fd	1.3898348e+10
77	0x5047fbd1	1.3420676e+10
78	0x5036bd00	1.2263358e+10
79	0x503d3503	1.2697472e+10
80	0x50323243	1.1958554e+10
81	0x5069858a	1.5671372e+10
82	0x507975c6	1.6740981e+10
83	0x5068c862	1.5621786e+10
84	0x508097b1	1.72594e+10
85	0x508aaa66	1.8611384e+10
86	0x5081fc70	1.7446437e+10
87	0x50747c99	1.6407225e+10
88	0x5084d13c	1.782644e+10
89	0x507b7692	1.6875407e+10
90	0x4eb025a4	1.4776284e+09
91	0x4ebb7088	1.5723571e+09
92	0x4ea5bb45	1.3902568e+09
93	0x4e6b6303	9.8728365e+08
94	0x4e80dde9	1.0810134e+09
95	0x4e67f1c4	9.728453e+08
96	0x4de39755	4.7729322e+08
97	0x4e055f46	5.594034e+08
98	0x4dfee6db	5.3456778e+08
99	0x4ed70198	1.803603e+09
100	0x4ebe3dc3	1.5958593e+09
101	0x4eb4c79c	1.5164902e+09
102	0x4ed4394e	1.7802627e+09
103	0x4e9e5a0d	1.3283508e+09
104	0x4e8471f0	1.1110298e+09
105	0x4eb33e35	1.5035992e+09
106	0x4e5f446a	9.364507e+08
107	0x4e1e8693	6.649049e+08
108	0x50f682c7	3.3086126e+10
109	0x50d55f33	2.8638288e+10
110	0x509a7b27	2.0734097e+10
111	0x510989b4	3.692005e+10
112	0x50ed5bdb	3.185776e+10
113	0x50ab8b27	2.3024187e+10
114	0x510262a8	3.5000058e+10
115	0x50dfbb8c	3.0028882e+10
116	0x50a1791b	2.1672548e+10
117	0x4f9062fa	4.8448113e+09
118	0x4f845a5b	4.441028e+09
119	0x4f54ba53	3.5689807e+09
120	0x4fc0bfb0	6.467576e+09
121	0x4fb2718b	5.987571e+09
122	0x4f9074f0	4.8471654e+09
123	0x4fdf9a86	7.502892e+09
124	0x4fd0574c	6.990764e+09
125	0x4fa9e5ed	5.700836e+09
126	0x4f5d5a9f	3.7137037e+09
127	0x4f7c307e	4.2310364e+09
128	0x4f8a38f8	4.6379786e+09
129	0x4f7132c4	4.046636e+09
130	0x4f932034	4.9367224e+09
131	0x4fa691a9	5.5891277e+09
132	0x4f75f0af	4.1261914e+09
133	0x4f9c5670	5.245821e+09
134	0x4fb2ffc9	6.006215e+09
135	0x4f5c48bb	3.695754e+09
136	0x4f2c3897	2.8893898e+09
137	0x4eda79fb	1.8327136e+09
138	0x4f87cc1b	4.556601e+09
139	0x4f4590cf	3.3146017e+09
140	0x4edd56a5	1.8567215e+09
141	0x4f892c5e	4.6027725e+09
142	0x4f3af36e	3.1365156e+09
143	0x4eb9a5f0	1.5573299e+09
144	0x50bd3674	2.53957e+10
145	0x50becc9a	2.5608638e+10
146	0x50a26d55	2.1800593e+10
147	0x50d33933	2.834993e+10
148	0x50d39d83	2.8402522e+10
149	0x50b23d51	2.3922903e+10
150	0x50c5e85b	2.6562714e+10
151	0x50c453ac	2.6350543e+10
152	0x50a3ae18	2.1968765e+10
153	0x5046a1ce	1.3329971e+10
154	0x507951af	1.673152e+10
155	0x5086bc12	1.8083779e+10
156	0x502a2799	1.1418887e+10
157	0x505df779	1.4895932e+10
158	0x5077be89	1.6625837e+10
159	0x4ffe5ff7	8.535404e+09
160	0x502c2b6f	1.155411e+10
161	0x5046dddb	1.3345713e+10
162	0x5080723e	1.7239765e+10
163	0x5071bd3c	1.6222843e+10
164	0x503f434e	1.2835437e+10
165	0x5096edd5	2.0257352e+10
166	0x508acd02	1.862953e+10
167	0x5055a2df	1.4336884e+10
168	0x50922308	1.9614155e+10
169	0x5082e514	1.7568408e+10
170	0x5043a717	1.313003e+10
171	0x5114072d	3.973597e+10
172	0x511e2608	4.245268e+10
173	0x510d1105	3.7867246e+10
174	0x5117bd8d	4.0732512e+10
175	0x511ff61e	4.293931e+10
176	0x510ce8ce	3.7825077e+10
177	0x5105a6fe	3.587702e+10
178	0x510ae7b2	3.7287043e+10
179	0x50f26939	3.2535857e+10
180	0x50509757	1.3998317e+10
181	0x504e9f9e	1.3866269e+10
182	0x502d467d	1.1628312e+10
183	0x500fa163	9.638874e+09
184	0x500fc088	9.647038e+09
185	0x4ff30a7f	8.1551027e+09
186	0x4f9511c6	5.00194e+09
187	0x4f9841c4	5.1088937e+09
188	0x4f83a1a1	4.4168156e+09
189	0x50857c27	1.791605e+10
190	0x5072e4b5	1.6300299e+10
191	0x503e826c	1.2784873e+10
192	0x50a7215d	2.2431853e+10
193	0x509b4f14	2.0845208e+10
194	0x5078e7c5	1.6703755e+10
195	0x50b65c43	2.4475998e+10
196	0x50aca1af	2.3170218e+10
197	0x508cb918	1.8887524e+10
198	0x4ffca67f	8.47754e+09
199	0x4ff69e63	8.2751503e+09
200	0x4fc25604	6.520834e+09
201	0x4fe27445	7.5985413e+09
202	0x4fd23686	7.053577e+09
203	0x4f9da6d5	5.289913e+09
204	0x4fa78bc4	5.6219095e+09
205	0x4f92a7b7	4.92093e+09
206	0x4f4f0c7b	3.4737016e+09
207	0x4f5a8bba	3.6665902e+09
208	0x4f2b03ab	2.8691443e+09
209	0x4ee0fd5a	1.88735e+09
210	0x4f6c30f1	3.9626304e+09
211	0x4f3ce050	3.1688172e+09
212	0x4f004f34	2.1526743e+09
213	0x4f556739	3.5803118e+09
214	0x4f2e3907	2.922973e+09
215	0x4ef52812	2.056522e+09
216	0x500b2256	9.337133e+09
217	0x4ff9841e	8.3723704e+09
218	0x4fc38c46	6.5615e+09
219	0x500affac	9.328046e+09
220	0x5002474e	8.742844e+09
221	0x4fd699fc	7.2008315e+09
222	0x4ff8cf5c	8.348678e+09
223	0x4ff51007	8.2229366e+09
224	0x4fd56199	7.1598863e+09

exp_avg f4 [25]
0	0xc69890ea	-19528.457
1	0x449dc20a	1262.0637
2	0x4577fba8	3967.7285
3	0xc5a40996	-5249.198
4	0x4447cb60	799.17773
5	0x4734ed92	46317.57
6	0xc6e6de15	-29551.041
7	0x46a1c55e	20706.684
8	0xc63db090	-12140.141
9	0x45e172ff	7214.3745
10	0x45fe360d	8134.7563
11	0x46859ce3	17102.443
12	0xc6d114fe	-26762.496
13	0xc59e3b30	-5063.3984
14	0xc5c3d034	-6266.0254
15	0x4583b6df	4214.859
16	0x462da602	11113.502
17	0x46c22b1c	24853.555
18	0xc6f9e404	-31986.008
19	0x475c82b2	56450.695
20	0x47334934	45897.203
21	0x46e078c0	28732.375
22	0xc63a8d26	-11939.287
23	0x4684b904	16988.508
24	0x45e7b512	7414.634

exp_avg_sq f4 [25]
0	0x4de75e80	4.8521626e+08
1	0x4e889349	1.1456769e+09
2	0x4ecab196	1.700318e+09
3	0x4e1ba0c7	6.527513e+08
4	0x4eb7fa21	1.5433115e+09
5	0x4ec86abb	1.681219e+09
6	0x4d78f274	2.6103994e+08
7	0x4e48e319	8.4258157e+08
8	0x4e4db675	8.628217e+08
9	0x4e288e2d	7.069725e+08
10	0x4d8dde7a	2.9752096e+08
11	0x4e0ef2de	5.995703e+08
12	0x4ead5387	1.4539662e+09
13	0x4ce838ea	1.2175138e+08
14	0x4dc8ed7e	4.2137594e+08
15	0x4d1cb395	1.6431342e+08
16	0x4f0797c5	2.2748705e+09
17	0x4d872d42	2.8348627e+08
18	0x4e484d23	8.401246e+08
19	0x4e179b82	6.3588774e+08
20	0x4ea70a7e	1.4012413e+09
21	0x4d9c2b7c	3.2751194e+08
22	0x4dec6a76	4.958e+08
23	0x4cf3bad1	1.27784584e+08
24	0x4eba6bf3	1.5638184e+09

exp_avg f4 [50, 25, 3, 3]
0	0xc4da5a54	-1746.8228
1	0xc4580941	-864.1446
2	0x43c7e484	399.78528
3	0x43a772e2	334.89752
4	0x441864d9	609.57574
5	0x447fed70	1023.70996
6	0x44e55911	1834.7833
7	0x44b8a2d2	1477.0881
8	0x448d7070	1131.5137
9	0x45659625	3673.384
10	0x43c3e359	391.77615
11	0xc52c0104	-2752.0635
12	0xc4cf5f30	-1658.9746
13	0xc582b407	-4182.5034
14	0xc5c6fa02	-6367.251
15	0xc5c515f2	-6306.743
16	0xc5f13924	-7719.1426
17	0xc6048a2c	-8482.543
18	0x44a8da36	1350.8191
19	0x44a75a71	1338.8263
20	0x448263ec	1043.1226
21	0x4485dd14	1070.9087
22	0x4418f010	611.751
23	0xc34f80a9	-207.50258
24	0x43c872d2	400.89703
25	0xc3fcaa86	-505.3322
26	0xc4cf0d7b	-1656.4213
27	0x44d712d8	1720.5889
28	0x43e25500	452.66406
29	0xc4bfeee6	-1535.4656
30	0xc59c9914	-5011.135
31	0xc5ad0d5e	-5537.671
32	0xc5c5a758	-6324.918
33	0xc6179cf3	-9703.237
34	0xc612a235	-9384.552
35	0xc6094b6e	-8786.857
36	0xc548b6e0	-3211.4297
37	0xc50bb74f	-2235.4568
38	0xc49ff376	-1279.6082
39	0xc5c216aa	-6210.833
40	0xc5963bc4	-4807.4707
41	0xc54b2c0d	-3250.7532
42	0xc5e6e4bd	-7388.5923
43	0xc5add5ea	-5562.7393
44	0xc56a2f42	-3746.9536
45	0x43a4e36a	329.77667
46	0xc52b1bcc	-2737.7373
47	0xc59ea912	-5077.134
48	0x453595b6	2905.357
49	0x448d96e7	1132.7157
50	0xc360e8a2	-224.90872
51	0x4594a606	4756.753
52	0x45866bfb	4301.4976
53	0x456cadee	3786.8706
54	0xc45fb3b2	-894.80774
55	0x454286ac	3112.417
56	0x45c30298	6240.324
57	0xc512fffa	-2351.9985
58	0xc311d3ba	-145.82706
59	0x44c0d4fb	1542.6556
60	0xc54d0548	-3280.33
61	0xc53206f5	-2848.4348
62	0xc52982f2	-2712.184
63	0x44dd39ee	1769.8103
64	0x44a87262	1347.5745
65	0x43b09a6c	353.20642
66	0x44c674e8	1587.6533
67	0x44a9e242	1359.0706
68	0x4462a032	906.50305
69	0x449754a0	1210.6445
70	0x4487a230	1085.0684
71	0x44714f56	965.2396
72	0xc519e4d2	-2462.3013
73	0x4375a366	245.63828
74	0x4559bdbe	3483.859
75	0xc41492e0	-594.2949
76	0x4430fa19	707.9078
77	0x4506c394	2156.2236
78	0x4448496e	801.14734
79	0x4417808b	606.0085
80	0x43c14424	386.53235
81	0x45868dc6	4305.7217
82	0x441b65a0	621.5879
83	0xc53060fa	-2822.061
84	0xc316c61c	-150.77386
85	0xc5255dfa	-2645.8735
86	0xc59d5d28	-5035.6445
87	0xc58327f4	-4196.994
88	0xc5a7f0d0	-5374.1016
89	0xc5b99ef5	-5939.8696
90	0xc43287de	-714.1229
91	0xc4f4db46	-1958.8523
92	0xc508d9dc	-2189.6162
93	0x44bdf116	1519.5339
94	0x4486cf88	1078.4854
95	0x447f0edc	1020.2322
96	0x4560f5f0	3599.371
97	0x4560bdf1	3595.8713
98	0x45687704	3719.4385
99	0x450abcb2	2219.7935
100	0x44a5a6c8	1325.2119
101	0x43249bee	164.6091
102	0x441d5cfa	629.45276
103	0x43c03b3a	384.4627
104	0x41e44eb0	28.538422
105	0xc417beac	-606.97925
106	0xc37459ea	-244.35123
107	0x42b32cec	89.58774
108	0x44ffdd05	2046.9069
109	0x4571ccbe	3868.7964
110	0x45a97e72	5423.8057
111	0x4555bc50	3419.7695
112	0x45930eb0	4705.836
113	0x45b3b3a6	5750.456
114	0x458e5c00	4555.5
115	0x4594b62a	4758.7705
116	0x459bbdde	4983.7334
117	0xc53431d4	-2883.1143
118	0xc40e5c56	-569.44275
119	0x44a2e2ec	1303.0913
120	0xc5be380d	-6087.0063
121	0xc571cc32	-3868.7622
122	0xc4e77462	-1851.637
123	0xc5e89d80	-7443.6875
124	0xc5a6b5d2	-5334.7275
125	0xc55900be	-3472.0464
126	0xc5229d20	-2601.8203
127	0xc46f44fc	-957.0779
128	0xc2104a48	-36.07254
129	0xc59d20f1	-5028.1177
130	0xc54dab44	-3290.704
131	0xc4dfad1e	-1789.4099
132	0xc5b504d2	-5792.6025
133	0xc56d7ac8	-3799.6738
134	0xc5120970	-2336.5898
135	0x450951fb	2197.1238
136	0x4544d076	3149.0288
137	0x4558bc56	3467.771
138	0x4599864e	4912.788
139	0x45a7df0a	5371.88
140	0x45ac2196	5508.198
141	0x45d333db	6758.482
142	0x45cc14f6	6530.62
143	0x45bc872e	6032.8975
144	0xc299a078	-76.813416
145	0xc4d2cd62	-1686.4182
146	0xc53cecd1	-3022.801
147	0xc59b7e86	-4975.8154
148	0xc5a6c0b0	-5336.086
149	0xc5b364b2	-5740.587
150	0xc5f82af3	-7941.3687
151	0xc5e24481	-7240.563
152	0xc5c68f34	-6353.9004
153	0xc4877603	-1083.6879
154	0xc4ab23c5	-1369.1178
155	0xc4b6bb8c	-1461.8608
156	0xc3721ab0	-242.10425
157	0xc3e54fca	-458.62335
158	0xc41a0194	-616.02466
159	0x43df1750	446.18213
160	0x44025cef	521.4521
161	0x43a9f05f	339.8779
162	0x42adba94	86.86441
163	0x453ee8ec	3054.5576
164	0x45bf4304	6120.377
165	0x45b4fc70	5791.5547
166	0x45e21404	7234.502
167	0x460758a8	8662.164
168	0x461781ce	9696.451
169	0x46133b36	9422.803
170	0x460a4e72	8851.611
171	0x44929377	1172.6083
172	0xc548ed98	-3214.8496
173	0xc5d5e9ff	-6845.2495
174	0x4528532c	2693.1982
175	0xc2c459e4	-98.17557
176	0xc525cd8e	-2652.8472
177	0x455664dd	3430.304
178	0x450e0a52	2272.645
179	0x44905ac5	1154.8365
180	0xc3191d5e	-153.11472
181	0xc5043aa0	-2115.664
182	0xc54cec30	-3278.7617
183	0xc3333cf4	-179.2381
184	0xc4c3a9b9	-1565.3038
185	0xc51f8097	-2552.0369
186	0xc39c2ff0	-312.3745
187	0xc4821b85	-1040.86
188	0xc4be703c	-1523.5073
189	0x457953c8	3989.2363
190	0x448790ea	1084.5286
191	0xc515b9b4	-2395.6064
192	0x45273b76	2675.7163
193	0x440eb9f8	570.90576
194	0xc4d5cd0a	-1710.4075
195	0x447eaedc	1018.7322
196	0xc1a398e0	-20.449646
197	0xc4a630fc	-1329.5308
198	0x45adfb02	5567.376
199	0x45aee61e	5596.7646
200	0x45b6f960	5855.172
201	0x462b82a9	10976.665
202	0x460eccba	9139.182
203	0x45e4d98e	7323.1943
204	0x4646065a	12673.588
205	0x460d051e	9025.279
206	0x45ae7b7a	5583.4346
207	0xc3652fd8	-229.18689
208	0xc5aa0822	-5441.0166
209	0xc611b90c	-9326.262
210	0x4496c32b	1206.099
211	0xc5033c17	-2099.7556
212	0xc58ba582	-4468.6885
213	0x450b6ca7	2230.7908
214	0x4480e3a3	1031.1136
215	0x43b0c50a	353.53937
216	0x44b1dffe	1422.9998
217	0xc355c748	-213.77844
218	0xc4990ec4	-1224.4614
219	0x456c2f34	3778.9502
220	0x452cb436	2763.2632
221	0x45070da1	2160.8518
222	0x45a639c5	5319.221
223	0x4591950e	4658.632
224	0x45882fde	4357.9834
225	0x43c4ccbf	393.59958
226	0x4404a886	530.6332
227	0x43ccd2b6	409.64618
228	0x43b9f4d4	371.91272
229	0x43ab1f74	342.24573
230	0x41a1ff48	20.24965
231	0x4389fa8c	275.9574
232	0x42a10d8b	80.52645
233	0xc3ce904e	-413.12738
234	0xc42d7eda	-693.98206
235	0xc4ec98d9	-1892.7765
236	0xc5066036	-2150.0132
237	0xc46361f4	-909.5305
238	0xc4e3e68b	-1823.2045
239	0xc4d52a06	-1705.3132
240	0xc4b0c550	-1414.166
241	0xc4f29db7	-1940.9286
242	0xc4b2ed02	-1431.4065
243	0x441d648e	629.57117
244	0x4314e64e	148.89963
245	0xc35406e1	-212.02687
246	0x43e92cc1	466.34964
247	0xc2f69520	-123.29126
248	0xc410feed	-579.9832
249	0x402bef40	2.6864777
250	0xc4208613	-642.0949
251	0xc48c8bd4	-1124.3696
252	0xc28a8edc	-69.27902
253	0xc4ab685e	-1371.2615
254	0xc4a9adac	-1357.4272
255	0xc1ac90c4	-21.570686

exp_avg_sq f4 [50, 25, 3, 3]
0	0x4cab71a1	8.988596e+07
1	0x4ce5b22c	1.2042685e+08
2	0x4d079123	1.4215224e+08
3	0x4cbf5831	1.00319624e+08
4	0x4cfaa5f0	1.3141184e+08
5	0x4d101b15	1.5110587e+08
6	0x4cc0ab80	1.0101453e+08
7	0x4cf4173a	1.2797384e+08
8	0x4d082516	1.4275824e+08
9	0x4d9e3de5	3.3185706e+08
10	0x4dc66636	4.160734e+08
11	0x4de5d46b	4.8198794e+08
12	0x4df1aaa0	5.068114e+08
13	0x4e12f59c	6.1639245e+08
14	0x4e22488e	6.80666e+08
15	0x4e23411e	6.847384e+08
16	0x4e3e518c	7.982538e+08
17	0x4e484b34	8.400929e+08
18	0x4b16c860	9.881696e+06
19	0x4b1afe12	1.0157586e+07
20	0x4b047f54	8.683348e+06
21	0x4b13c340	9.683776e+06
22	0x4af4aa3a	8.017181e+06
23	0x4aacab9b	5.6580615e+06
24	0x4b3d6551	1.2412241e+07
25	0x4b227a6f	1.0648175e+07
26	0x4b06501d	8.802333e+06
27	0x4ddc0843	4.6144112e+08
28	0x4e08e533	5.7418054e+08
29	0x4e1f7fb8	6.689869e+08
30	0x4e0c776d	5.8915923e+08
31	0x4e2b9006	7.1958566e+08
32	0x4e41cdd3	8.128729e+08
33	0x4e25e692	6.958378e+08
34	0x4e4468ff	8.2380384e+08
35	0x4e5612da	8.978899e+08
36	0x4d77fa77	2.6002418e+08
37	0x4d6fe7a8	2.5155853e+08
38	0x4d5ef1a8	2.337737e+08
39	0x4d73b9a0	2.5556429e+08
40	0x4d67ab63	2.4292306e+08
41	0x4d54348e	2.2251338e+08
42	0x4d5fbf3e	2.3461578e+08
43	0x4d519689	2.1976898e+08
44	0x4d3fa042	2.0093443e+08
45	0x4d3647bb	1.9113464e+08
46	0x4d3444bf	1.8902526e+08
47	0x4d1642fc	1.5756077e+08
48	0x4d35fb02	1.9082038e+08
49	0x4d268c89	1.7463925e+08
50	0x4d004114	1.3448429e+08
51	0x4d1b48da	1.6282768e+08
52	0x4d047447	1.388883e+08
53	0x4cbfd55b	1.0057596e+08
54	0x4e096cdd	5.7640326e+08
55	0x4e1760a4	6.3492326e+08
56	0x4e0d19eb	5.918215e+08
57	0x4e10470d	6.051439e+08
58	0x4e16115c	6.2943e+08
59	0x4e03ec3e	5.533244e+08
60	0x4e015692	5.424836e+08
61	0x4dfddec6	5.324044e+08
62	0x4dd1f865	4.4033962e+08
63	0x4a9fbe22	5.234449e+06
64	0x4b11b927	9.550119e+06
65	0x4b733056	1.5937622e+07
66	0x4ab52e24	5.936914e+06
67	0x4b1824eb	9.970923e+06
68	0x4b6eaa8d	1.5641229e+07
69	0x4ac1f0bd	6.3550385e+06
70	0x4b0b62d7	9.134807e+06
71	0x4b46a034	1.301714e+07
72	0x4e38448a	7.728749e+08
73	0x4e6588e5	9.627385e+08
74	0x4e77b347	1.03893037e+09
75	0x4e4a59ec	8.487227e+08
76	0x4e727552	1.01694374e+09
77	0x4e7b5c3e	1.0542816e+09
78	0x4e41ba1d	8.1254995e+08
79	0x4e5e9180	9.3351936e+08
80	0x4e5d566c	9.283571e+08
81	0x4ddb1d4e	4.5951635e+08
82	0x4e0dc3db	5.9460576e+08
83	0x4e2363d7	6.853073e+08
84	0x4e166e50	6.3095296e+08
85	0x4e3b770d	7.862854e+08
86	0x4e4eb48e	8.669848e+08
87	0x4e373665	7.6844883e+08
88	0x4e5a58e5	9.158147e+08
89	0x4e65dece	9.6414605e+08
90	0x4b96865e	1.9729596e+07
91	0x4baecccb	2.2911382e+07
92	0x4be7fa8b	3.040591e+07
93	0x4b980f10	1.9930656e+07
94	0x4bc22e37	2.545163e+07
95	0x4c0f2848	3.752784e+07
96	0x4bb0f5a1	2.3194434e+07
97	0x4bfabd30	3.2864864e+07
98	0x4c3b8db8	4.916605e+07
99	0x4c26eff8	4.376163e+07
100	0x4c690d6b	6.1093292e+07
101	0x4c8c87de	7.367858e+07
102	0x4c29117d	4.4320244e+07
103	0x4c6df006	6.237391e+07
104	0x4c8f7ade	7.522482e+07
105	0x4c1b6e7a	4.074545e+07
106	0x4c592eeb	5.6933292e+07
107	0x4c82601a	6.835426e+07
108	0x4da8b7bd	3.5382672e+08
109	0x4da93050	3.5481446e+08
110	0x4d9b144d	3.2522486e+08
111	0x4dd08dc1	4.3736886e+08
112	0x4dca80a7	4.2467862e+08
113	0x4db27044	3.7421274e+08
114	0x4de5f26a	4.8223366e+08
115	0x4dd8136e	4.53144e+08
116	0x4db7b64e	3.8527226e+08
117	0x4cd907a2	1.1378613e+08
118	0x4cd13f15	1.09705384e+08
119	0x4cd02a9e	1.0913918e+08
120	0x4cc9b16f	1.0574527e+08
121	0x4cc2abd1	1.0206375e+08
122	0x4cc334c1	1.023442e+08
123	0x4cb9fbb6	9.750878e+07
124	0x4cb53413	9.5002776e+07
125	0x4cb8bf23	9.686044e+07
126	0x4d6a9890	2.4599168e+08
127	0x4d67b95b	2.4298027e+08
128	0x4d59de92	2.2845264e+08
129	0x4d5bd839	2.3052379e+08
130	0x4d569016	2.2498544e+08
131	0x4d482c69	2.098971e+08
132	0x4d3cadb1	1.9784373e+08
133	0x4d368c49	1.9141544e+08
134	0x4d2b15a6	1.7939517e+08
135	0x4d401fbe	2.014566e+08
136	0x4d32c5a3	1.8745605e+08
137	0x4d1f5159	1.6705678e+08
138	0x4d74ef1f	2.5683198e+08
139	0x4d61f317	2.369253e+08
140	0x4d45f78d	2.0758344e+08
141	0x4d903d3a	3.0249146e+08
142	0x4d83cf44	2.7642483e+08
143	0x4d63f893	2.3904491e+08
144	0x4e15d29e	6.2840205e+08
145	0x4e1ddf43	6.6216365e+08
146	0x4e1ac4fb	6.4915014e+08
147	0x4e316378	7.440215e+08
148	0x4e384103	7.728171e+08
149	0x4e314823	7.435737e+08
150	0x4e3fc3af	8.0431814e+08
151	0x4e43b220	8.208077e+08
152	0x4e38de36	7.7539264e+08
153	0x4a08e110	2.242628e+06
154	0x4a9a02f9	5.0466525e+06
155	0x4b149c37	9.739319e+06
156	0x4a0a0f1c	2.261959e+06
157	0x4ab119df	5.8032475e+06
158	0x4b2abb95	1.1189141e+07
159	0x4a1691d9	2.4669342e+06
160	0x4ac3979b	6.4091655e+06
161	0x4b337a26	1.1762214e+07
162	0x4eb6c012	1.5330204e+09
163	0x4ece79b8	1.7320417e+09
164	0x4ed48f8a	1.7830884e+09
165	0x4edb08b7	1.8373907e+09
166	0x4ef076a2	2.0171533e+09
167	0x4eef4a99	2.0073217e+09
168	0x4eebba49	1.9774271e+09
169	0x4efa99bf	2.10219e+09
170	0x4ef13c54	2.0236314e+09
171	0x4de4151f	4.7832368e+08
172	0x4defc85e	5.0286074e+08
173	0x4dd831a2	4.5339142e+08
174	0x4e0271a5	5.471215e+08
175	0x4e01e208	5.447685e+08
176	0x4ddce3f4	4.6324083e+08
177	0x4e008ccd	5.391778e+08
178	0x4df34207	5.1014883e+08
179	0x4dc33536	4.0938054e+08
180	0x4b3682f0	1.1961072e+07
181	0x4b02552d	8.541485e+06
182	0x4ab1c7e5	5.8255225e+06
183	0x4b946d2e	1.9454556e+07
184	0x4b4779d3	1.3072851e+07
185	0x4ae30cc2	7.439969e+06
186	0x4bca62a5	2.652705e+07
187	0x4b860c78	1.7570032e+07
188	0x4b0d1189	9.245065e+06
189	0x4d1f557b	1.6707371e+08
190	0x4d46beab	2.0839902e+08
191	0x4d5ae472	2.2952528e+08
192	0x4d580fc9	2.2655707e+08
193	0x4d828190	2.7369114e+08
194	0x4d89af4d	2.887459e+08
195	0x4d7f75da	2.678696e+08
196	0x4d94876b	3.1148784e+08
197	0x4d967095	3.1549507e+08
198	0x4f0cdd08	2.3632957e+09
199	0x4f132098	2.4683868e+09
200	0x4f0bf1fa	2.3478912e+09
201	0x4f0ce828	2.3640248e+09
202	0x4f0e9ca4	2.3926303e+09
203	0x4f038fd6	2.2072417e+09
204	0x4efaedb7	2.1049414e+09
205	0x4ef5dd76	2.0624658e+09
206	0x4edcf522	1.8535263e+09
207	0x4e0b14ce	5.833491e+08
208	0x4e12d037	6.157798e+08
209	0x4e02dcdf	5.488783e+08
210	0x4e1ed57a	6.661976e+08
211	0x4e1c23eb	6.548999e+08
212	0x4e01013e	5.410856e+08
213	0x4e1ab82e	6.489404e+08
214	0x4e0dd05c	5.948106e+08
215	0x4dd8b7df	4.544911e+08
216	0x4cbd0d5f	9.9117816e+07
217	0x4cbf1d68	1.0019923e+08
218	0x4cc2a993	1.0205916e+08
219	0x4cdec282	1.1679029e+08
220	0x4ce315e2	1.1905819e+08
221	0x4ce6ae0a	1.2094267e+08
222	0x4cfe6f1f	1.3339673e+08
223	0x4d02b887	1.370707e+08
224	0x4d04dc8f	1.3931544e+08
225	0x4c1a76d8	4.049187e+07
226	0x4c12ce0a	3.848401e+07
227	0x4c00fef6	3.381551e+07
228	0x4c4314e2	5.1139464e+07
229	0x4c47697a	5.2274664e+07
230	0x4c39e796	4.8733784e+07
231	0x4c5eb227	5.8378396e+07
232	0x4c74cc8f	6.4172604e+07
233	0x4c73f210	6.3948864e+07
234	0x4bf6552a	3.2287316e+07
235	0x4c42ec3e	5.109785e+07
236	0x4c888bfd	7.1589864e+07
237	0x4baedf29	2.2920786e+07
238	0x4c05a038	3.5029216e+07
239	0x4c3b5e19	4.9117284e+07
240	0x4b9e1fa5	2.0725578e+07
241	0x4bbb7e1f	2.4575038e+07
242	0x4bdf76d0	2.9289888e+07
243	0x4c22f570	4.2718656e+07
244	0x4c3fef07	5.0314268e+07
245	0x4c4b4b58	5.3292384e+07
246	0x4c1b1bae	4.0660664e+07
247	0x4c428abd	5.0998004e+07
248	0x4c5a0d29	5.7160868e+07
249	0x4bfa4a1c	3.2805944e+07
250	0x4c2718ca	4.380343e+07
251	0x4c462957	5.1946844e+07
252	0x4bf2e3d6	3.1836076e+07
253	0x4c18fa87	4.0102428e+07
254	0x4c3c2199	4.9317476e+07
255	0x4bb596dc	2.3801272e+07
