models/sigma0.01_step0.0002_lr0.0002/ckpt/best_model.pth (torch, 282219 bytes, 18 tensors)

layer1.weight f4 [25, 1, 3, 3]
0	0xbcb4477d	-0.022006745
1	0x3dc6a9c9	0.09700353
2	0xbe17ba0a	-0.14817062
3	0xbcc26ff4	-0.023735024
4	0x3db4cb44	0.08827832
5	0xbcbcf493	-0.02306584
6	0x3e01cbcd	0.126754
7	0x3d8f3173	0.069918536
8	0x3e22fbb4	0.1591633
9	0xbe381ecf	-0.17980503
10	0xbd1607a4	-0.03662838
11	0x3d8f3665	0.06992797
12	0x3d2b4ec8	0.04182318
13	0x3d701ab7	0.058619227
14	0xbd20e9a5	-0.03928532
15	0x3d92acd6	0.07161872
16	0xbc77b243	-0.0151181845
17	0x3e08c6b5	0.1335705
18	0xbcfc18f0	-0.03077361
19	0x3dd1bfc1	0.10241652
20	0x3e01cec7	0.12676536
21	0xbd32ca6a	-0.04365007
22	0xbd8d8790	-0.06910622
23	0x3d035172	0.032060094
24	0xbd7d3ecf	-0.061827477
25	0xbd12bcc7	-0.035824563
26	0x3de795ce	0.1130787
27	0xbdfb62df	-0.122747175
28	0x3db258a2	0.087083116
29	0xbe32ac2d	-0.17448492
30	0x3dd059b6	0.10173361
31	0x3ba31210	0.0049765185
32	0xbd323eba	-0.043516852
33	0xbd9136b0	-0.07090509
34	0x3d3ecf42	0.046584375
35	0x3e5ad59e	0.21370551
36	0xbd7eb889	-0.062187705
37	0x3d27da04	0.0409794
38	0xbc3803f5	-0.011231412
39	0xbd09866f	-0.03357547
40	0xbd2fd715	-0.042929728
41	0x3dcf8603	0.101329826
42	0xbcf1ce4a	-0.029517312
43	0x3d825a42	0.063648716
44	0xbe30649f	-0.17225884
45	0x3d612fe0	0.054977298
46	0x3d184225	0.037172455
47	0xbd7395cf	-0.05946904
48	0xbd1ae5f3	-0.037816953
49	0x3a9c6e92	0.0011934808
50	0xbd880579	-0.06641669
51	0x3dc8b6a0	0.09800458
52	0x3dd95bd8	0.10613221
53	0x3de41bf5	0.11138145
54	0x3de1684a	0.1100622
55	0xbe0b0ccd	-0.13579102
56	0xbdec3a2c	-0.11534533
57	0x3c9e8a90	0.019353181
58	0x3db37deb	0.08764251
59	0x3de4d1a7	0.111728005
60	0xbcbbd5a6	-0.022929024
61	0xbe2cf035	-0.16888507
62	0xbd05f91f	-0.032708284
63	0xbdf3c740	-0.11903238
64	0xbd281491	-0.04103524
65	0xbda0bdd0	-0.07848704
66	0x3d27d139	0.040971015
67	0xbd8332cd	-0.06406174
68	0x3d50150a	0.050801314
69	0xbe69c9f8	-0.22830951
70	0x3e07c617	0.13259159
71	0x3c438431	0.011933372
72	0x3d4fb521	0.050709847
73	0x3e008208	0.12549603
74	0xba013ca3	-0.0004929995
75	0xbc75b2e3	-0.014996263
76	0x3e17e464	0.14833218
77	0xbcf21a9a	-0.0295537
78	0xbce64d52	-0.028113041
79	0xbdb0cddb	-0.08633014
80	0x3cc4bb71	0.02401516
81	0xbe27659c	-0.16347355
82	0x3d8fe0ca	0.07025297
83	0xbe2818b3	-0.16415672
84	0xbb381005	-0.002808572
85	0x3d38f43b	0.04515479
86	0xbd3cdd57	-0.046109524
87	0xbe4c6828	-0.19961607
88	0x3cf153ea	0.029458959
89	0xbd3eb3b8	-0.046558112
90	0xbd77f2a4	-0.060534135
91	0x3df37dfd	0.11889265
92	0x3e28ee23	0.16497092
93	0xbdf90599	-0.12159271
94	0xbca4eb67	-0.02013178
95	0x3e328e92	0.17437199
96	0xbd549ad5	-0.05190547
97	0x3e2baf59	0.16766109
98	0xbe041d1c	-0.1290173
99	0xbe1af615	-0.15132935
100	0x3cce4f6d	0.025184358
101	0xbc197104	-0.009365324
102	0xbd98dee2	-0.074643865
103	0xbdea6ac6	-0.11446147
104	0xbd892c25	-0.06697873
105	0xbce70372	-0.028199885
106	0xbe2a6e1b	-0.16643564
107	0xbd01775e	-0.031607978
108	0xbc6228e3	-0.0138036935
109	0x3e41b2c8	0.18915856
110	0xbd511482	-0.05104495
111	0x3ce877fb	0.028377524
112	0x3dc3bccb	0.09557494
113	0x3d0c87a4	0.034309044
114	0x3da5310d	0.08065996
115	0xbdab5224	-0.083652765
116	0x3e0c84a6	0.13722476
117	0xbb6151ff	-0.003438115
118	0x3e3454c1	0.17610456
119	0xbd6aed38	-0.057355136
120	0x3d17a5f8	0.037023515
121	0x3d46fe7a	0.04858253
122	0xbc101771	-0.008794651
123	0xbd8ebc9b	-0.069695674
124	0x3aeb6edb	0.0017962115
125	0xbd93b3e1	-0.072120436
126	0xbe306048	-0.17224228
127	0x3b02a2e8	0.0019933525
128	0xbdc52fce	-0.09628259
129	0xbda4eda5	-0.080531396
130	0xbdfc3210	-0.12314236
131	0xbd9c4148	-0.07629639
132	0xbd5318c9	-0.05153731
133	0x3c8f0a4e	0.017460968
134	0xbd26e13a	-0.040742137
135	0x3cc8eb8f	0.024526386
136	0xbbef806b	-0.00730901
137	0xbd98763a	-0.07444425
138	0xbc9a46da	-0.018832613
139	0x3d7b9230	0.061418712
140	0x3d764090	0.060120165
141	0x3d354475	0.04425474
142	0x3e06607f	0.13122748
143	0xbce8d85b	-0.028423479
144	0x3d10aa38	0.035318583
145	0x3d03faf4	0.03222175
146	0x3d870042	0.06591846
147	0xbdb4fc28	-0.088371575
148	0xbd85a017	-0.06524675
149	0x3d14f2f8	0.036364526
150	0x3dd8e6cf	0.10590898
151	0x3daaa3be	0.083320126
152	0x3c3f3051	0.011669234
153	0xbcb092fe	-0.021554466
154	0x3e184a7a	0.1487216
155	0x3c98263a	0.018572915
156	0x3e3e1e56	0.1856626
157	0xbda8a07c	-0.08233735
158	0xbb409f06	-0.002939166
159	0xbc650fb7	-0.0139807975
160	0x3d4ce15a	0.0500196
161	0x3e58d676	0.2117556
162	0x3d9b0cfb	0.07570835
163	0xbdc94480	-0.098275185
164	0x3d38489f	0.044991132
165	0xbe5ee5ec	-0.21767396
166	0xbda8807e	-0.08227633
167	0x3cf793a2	0.030221764
168	0x3e06bcda	0.13157979
169	0xbdd107ce	-0.10206567
170	0x3c38b8a5	0.011274491
171	0xbd80bf30	-0.06286466
172	0x3da42252	0.080143586
173	0xbddc9d34	-0.107721716
174	0xbc80fc9f	-0.01574546
175	0x3da66cbd	0.08126209
176	0x3d04caf9	0.032420132
177	0x3d63b634	0.055593684
178	0x3e3b7c21	0.1830907
179	0xbd574518	-0.052556127
180	0xbc444097	-0.01197829
181	0xbe3af298	-0.18256605
182	0x3d9cc0fd	0.07653997
183	0x3db9d3a1	0.09073568
184	0x3c0e3413	0.008679408
185	0xbe08a9b5	-0.13345988
186	0xbe215162	-0.15753701
187	0xbc2b5be8	-0.010458924
188	0x3cef1c8c	0.029188417
189	0xbe12195f	-0.14267491
190	0xbdb4697f	-0.08809184
191	0xbdc11ef2	-0.094297305
192	0xbcd48259	-0.02594106
193	0x3db5aaf7	0.088704996
194	0x3dbd6748	0.09248215
195	0xbd9c12fb	-0.07620808
196	0xbd8bea8a	-0.06831844
197	0xbca5afc9	-0.020225422
198	0x3c9526de	0.01820701
199	0xbd887203	-0.06662371
200	0xbdafcbbf	-0.08583783
201	0x3d20ad2e	0.039227657
202	0x3d524605	0.051336307
203	0xbd6ea48e	-0.0582624
204	0x3d5cb3de	0.053882472
205	0xbdf41baa	-0.11919339
206	0xbb2d3a3c	-0.0026432415
207	0xbd8b6545	-0.06806425
208	0xbb930ed4	-0.0044878516
209	0x3c8858f2	0.016643975
210	0xbde8cc1d	-0.113670565
211	0xbcfb89ae	-0.0307053
212	0xbd388ccd	-0.045056153
213	0xbe18e6d3	-0.14931802
214	0x3bffd473	0.0078073083
215	0xbda81e1c	-0.08208868
216	0x3d46fc04	0.048580185
217	0xbc48a2f3	-0.012245881
218	0xbdcaee8c	-0.099087805
219	0xbd800f1d	-0.06252883
220	0x3ceebf19	0.029143857
221	0xbd15474d	-0.03644495
222	0x3d55cc11	0.052196566
223	0x3d655e95	0.055998404
224	0xbc8ebb26	-0.017423224

layer1.bias f4 [25]
0	0xbd632738	-0.055457324
1	0xbe1a15a4	-0.15047318
2	0x3dc72d14	0.09725395
3	0xbe5251bc	-0.20538992
4	0x3e8783ff	0.26467893
5	0x3df3d16e	0.1190518
6	0xbe0c24b9	-0.13685884
7	0x3e940d01	0.2891617
8	0xbe9ac7b7	-0.30230495
9	0xbe63b784	-0.22237974
10	0x3ea1d6a9	0.31609085
11	0xbe42cab0	-0.19022632
12	0xbea3cac0	-0.31990623
13	0xbe996512	-0.29959923
14	0xbdef61df	-0.11688589
15	0x3e03e294	0.12879401
16	0x3e4a3f80	0.19750786
17	0x3e9a0414	0.30081236
18	0xbe9970b7	-0.29968807
19	0xbcbd7531	-0.02312717
20	0x3ea00853	0.3125635
21	0xbcbeaa4d	-0.023274565
22	0x3d959749	0.07304246
23	0xbe813d3c	-0.2524203
24	0xbe2cc1ed	-0.16870852

layer2.weight f4 [50, 25, 3, 3]
0	0xbc2e22de	-0.01062843
1	0xbd7e5e51	-0.062101666
2	0x3cc11882	0.023571257
3	0xbd8bcd79	-0.068263
4	0xbd701a3f	-0.05861878
5	0xbcfa5b84	-0.030561216
6	0x3dbfd335	0.093664564
7	0xbcf2fdb7	-0.029661996
8	0xbcaa502d	-0.020790184
9	0xbc53daea	-0.012930611
10	0xbcfe3146	-0.031029355
11	0x3bc23de6	0.005927789
12	0x3d3749d1	0.04474813
13	0x3c047cf8	0.0080864355
14	0xbd8a637b	-0.06757256
15	0xbdca93b3	-0.09891453
16	0xbd1515f2	-0.03639788
17	0x3ca4eb62	0.02013177
18	0xbb51595c	-0.0031944131
19	0xbd80f523	-0.06296756
20	0xbdf5769a	-0.11985512
21	0x3bda15b7	0.0066554206
22	0xbd632d6b	-0.055463236
23	0x3c1cc8e0	0.009569377
24	0xbd076c12	-0.03306205
25	0xbc5230c3	-0.0128290085
26	0x3d67a52b	0.056554
27	0xbc8f838f	-0.017518787
28	0xbdfbd888	-0.122971594
29	0xbd8c9fb7	-0.06866401
30	0xbcbd6148	-0.023117676
31	0x3d0dd299	0.03462467
32	0xbd9852bd	-0.07437656
33	0xbcf02121	-0.029312672
34	0x3d2205d0	0.039556324
35	0xbd658624	-0.05603613
36	0x3c81536c	0.015786849
37	0xbc8a0a04	-0.016850479
38	0xbcf3a419	-0.029741334
39	0xbd80332e	-0.06259762
40	0x3e32b605	0.17452247
41	0x3ca5a0da	0.020218302
42	0x3c8959de	0.016766485
43	0x3dcd685c	0.100296706
44	0x3d8864a7	0.06659823
45	0x3b68e29b	0.0035535458
46	0xbcd98b41	-0.02655566
47	0x3d56ac0f	0.05241018
48	0x3d48e0a9	0.049042378
49	0xbdb33084	-0.08749488
50	0x3d42f1aa	0.04759375
51	0xbc401c8f	-0.011725559
52	0x3d8462dc	0.064641684
53	0x3ce67735	0.028133014
54	0x3ddb7a30	0.10716665
55	0x3d87af3e	0.06625222
56	0x3d509da1	0.050931577
57	0xbd9f4232	-0.07776298
58	0xbb128281	-0.0022355618
59	0xbbf54a70	-0.0074856803
60	0x3d2431d2	0.040086575
61	0xbdf01d47	-0.11724334
62	0xbd70331a	-0.058642484
63	0x3ba703bc	0.0050968807
64	0x3d4cd730	0.050009906
65	0x3cbc2a85	0.022969494
66	0xba80adb9	-0.0009817398
67	0x3ca5cc98	0.02023916
68	0xbc5706db	-0.013124193
69	0x3dc154e1	0.094400175
70	0x3d88314a	0.06650026
71	0x3d28d0c7	0.04121473
72	0x3bedd93a	0.0072585614
73	0x3cb6c686	0.02231146
74	0x3cea7cc1	0.02862394
75	0x3d98c2a9	0.074590035
76	0xbcbeda90	-0.023297578
77	0xbd8421f0	-0.064517856
78	0xbc157c7a	-0.009123916
79	0xbccdb59a	-0.025111008
80	0x3d21436b	0.039370935
81	0x3dd68c84	0.1047602
82	0x3d1546ed	0.036444593
83	0x3d076bd8	0.033061832
84	0xbc293cdc	-0.010329451
85	0x3b965027	0.0045871916
86	0x3d970cff	0.07375526
87	0xba66d495	-0.0008805481
88	0xbd584c74	-0.052807286
89	0x3e08b39e	0.13349769
90	0xbcde4357	-0.02713172
91	0x3bdb538c	0.006693309
92	0xbc959a13	-0.018261945
93	0xbd940068	-0.0722664
94	0x3d0b54de	0.034016483
95	0xbda48765	-0.08033637
96	0x3d1c3533	0.038136672
97	0x3b5871d2	0.0033026827
98	0xbc0088b1	-0.00784509
99	0x3d774b1b	0.06037436
100	0xbd47f8eb	-0.04882137
101	0xbda63145	-0.08114866
102	0x3d6c7b13	0.05773456
103	0x3d5299e9	0.05141631
104	0xbd0034cd	-0.031300355
105	0xbb48e4c7	-0.003065394
106	0xbc59f02b	-0.013301889
107	0xbc9015be	-0.017588492
108	0xbcfa7dbd	-0.030577535
109	0x3d03835d	0.0321077
110	0x3d3c63fb	0.045993786
111	0xbcd4bf7e	-0.025970217
112	0x3cdf873d	0.027286166
113	0x3bea3e9b	0.0071485764
114	0xbb64b28c	-0.0034896461
115	0xbcf011fb	-0.029305449
116	0xbd68130c	-0.05665879
117	0xbd4b295e	-0.049599998
118	0x3ceb49a4	0.028721638
119	0x3c927274	0.017876841
120	0x3d6270e3	0.05528344
121	0x3da02a25	0.078205384
122	0xbdc7b5ed	-0.097514965
123	0x3cd1f748	0.025630608
124	0xbd5b61cf	-0.053560074
125	0xbce6e0d7	-0.028183384
126	0x3b643a26	0.0034824698
127	0x3c8025c0	0.015643
128	0x3ce5eed2	0.02806798
129	0xbcac8597	-0.021059794
130	0x3c97958b	0.018503925
131	0xbc216cef	-0.009852632
132	0x3db9a181	0.090640076
133	0xbd8d3bc1	-0.06896163
134	0xbd65ef4a	-0.056136407
135	0xbc811678	-0.015757784
136	0xba80197b	-0.0009773219
137	0xbb88f0d2	-0.0041790986
138	0x3cb9056e	0.022585597
139	0xbd7f078e	-0.062263064
140	0xbd1a685d	-0.037697185
141	0xb9fd4fc5	-0.00048315353
142	0x3d09f6ec	0.03368275
143	0x3d03805a	0.032104827
144	0xbcd91c2b	-0.02650269
145	0xbded72af	-0.1159414
146	0x3c312f33	0.010814476
147	0xbb44ec92	-0.0030048233
148	0x3dc81d4f	0.09771215
149	0x3d1d0f5d	0.03834473
150	0x3d95bc92	0.073113576
151	0xbd491f3f	-0.049102064
152	0xbd44f7cb	-0.048087876
153	0xbd001775	-0.03127237
154	0xba585ee8	-0.0008253888
155	0xbdde3312	-0.10849585
156	0xbb640177	-0.0034790912
157	0xbda0e4ed	-0.07856164
158	0xbdc135c5	-0.09434084
159	0x3cb8d6ca	0.022563357
160	0x3dc1a105	0.0945454
161	0x3d2a77b3	0.04161806
162	0x3cf92e18	0.030417487
163	0xbdd12216	-0.102115795
164	0x3d39f456	0.045399033
165	0xbd35d980	-0.044396877
166	0xbd5f93b3	-0.054584216
167	0x3dcf44e2	0.1012056
168	0x3d9f1690	0.07767975
169	0xbd9d3485	-0.07676033
170	0x3c5a57b7	0.013326577
171	0x3c95e579	0.018297898
172	0xbd0c7c14	-0.034298018
173	0xbc6ab6cc	-0.014325809
174	0xbc44cf53	-0.012012321
175	0xbd289cff	-0.04116535
176	0xbc84bb4a	-0.016202588
177	0xbdc01d62	-0.09380604
178	0xbcf5388f	-0.029934196
179	0x3ccb40e5	0.024811218
180	0xbdc16041	-0.09442187
181	0x3c88916e	0.016670909
182	0x3ce3760c	0.02776625
183	0xbc412305	-0.011788134
184	0xbd481ad9	-0.04885373
185	0x3cc7f66e	0.024409499
186	0x3d338047	0.043823507
187	0xbc9b8086	-0.018982183
188	0x3d492d75	0.049115617
189	0x3ca0b8c3	0.019619351
190	0x3ccab139	0.02474271
191	0x3da876a8	0.08225757
192	0xbcb5c30b	-0.02218773
193	0x3e0ff2c2	0.14057449
194	0x3d211e07	0.039335277
195	0xbd3b706d	-0.045761514
196	0xbd693b47	-0.056941297
197	0x3c1feb54	0.009760696
198	0xbc179747	-0.009252376
199	0xbcfb9c5e	-0.03071421
200	0x3c8020e5	0.015640685
201	0xbca93ec2	-0.020659808
202	0x3dadcd8a	0.08486469
203	0xbc1c8d59	-0.009555184
204	0x3c72020a	0.014770994
205	0x3cb9d9ab	0.0226868
206	0x3d927d92	0.07152857
207	0xbd1202ac	-0.03564708
208	0xbdd9ca6c	-0.10634312
209	0x3be097f8	0.0068540536
210	0x3d11547a	0.035480954
211	0x3d5f42e3	0.054507148
212	0x3c8a0b1a	0.016850997
213	0xbd204731	-0.039130393
214	0xbcddfa44	-0.027096875
215	0x3c0b3336	0.008496096
216	0xbd0b0459	-0.033939693
217	0xbcc759b5	-0.024334768
218	0xbd13e1bf	-0.03610396
219	0xbd55f503	-0.052235615
220	0x3dc704ae	0.097176895
221	0xbd3c029f	-0.045900937
222	0x3d843bb8	0.06456703
223	0x3c309b82	0.010779263
224	0x3d834325	0.06409291
225	0xbd2cd656	-0.042196594
226	0xbd8b1e0f	-0.067928426
227	0x3dc81184	0.09768966
228	0xbce6b2ec	-0.028161488
229	0xbd7a1b82	-0.06106139
230	0x3d6623a5	0.056186337
231	0xbd8a1757	-0.06742733
232	0xbcfe659d	-0.031054312
233	0xbe1bd2f9	-0.15217198
234	0x3c7aafd5	0.015300711
235	0x3d051473	0.032490205
236	0xbddacca4	-0.10683563
237	0xbb593883	-0.0033145256
238	0x3c412b7b	0.011790152
239	0x3d9ae567	0.07563286
240	0x3d0de0f1	0.03463835
241	0x3bddca7a	0.006768522
242	0x3c3b5d53	0.011435824
243	0x3d9af431	0.07566107
244	0x3c69ecda	0.014277661
245	0xbc9fc4d0	-0.019503027
246	0x3da754ac	0.08170447
247	0x3c9d3f93	0.019195354
248	0x3e1789e7	0.147987
249	0xbd1fe075	-0.03903242
250	0xbd44c0c7	-0.04803541
251	0xbc416583	-0.011803987
252	0x3d784231	0.06061
253	0x3dd34296	0.10315435
254	0x3d98da3f	0.07463502
255	0xbd825acb	-0.06364974

layer2.bias f4 [50]
0	0xbd8f59b0	-0.069995284
1	0xbc9e23d8	-0.019304201
2	0xbd4274c2	-0.04747463
3	0x3cdc7168	0.026909545
4	0x38c0426b	9.167645e-05
5	0x3d951001	0.07278443
6	0xbb5f05dc	-0.0034030592
7	0xb8411765	-4.6036574e-05
8	0xbc679580	-0.014134765
9	0xbc7ca290	-0.015419617
10	0xbd73b946	-0.059502862
11	0xbc28398d	-0.010267627
12	0x3d3ddc56	0.046352707
13	0xbca1ba6d	-0.019742215
14	0x3ac3679d	0.0014908199
15	0x3d5788b6	0.052620612
16	0x3d383178	0.044969052
17	0xbcb13c52	-0.021635208
18	0x3b6cf462	0.0036156406
19	0xbd305b5f	-0.04305589
20	0x3d174daf	0.03693932
21	0x3d41d188	0.047318965
22	0xbd6de478	-0.058079213
23	0x3d758ba8	0.05994764
24	0xbd907629	-0.07053787
25	0x3cb9db82	0.022687677
26	0xbc05c208	-0.008163936
27	0x3d0f8cb1	0.035046283
28	0x3d5ff7b4	0.054679587
29	0xbc6c54ba	-0.014424497
30	0x3c970a8e	0.01843765
31	0x3d60d893	0.05489404
32	0x3d1e2357	0.03860792
33	0xbbde5887	-0.0067854556
34	0x3d0fd142	0.035111673
35	0x3d8dd6d1	0.069257386
36	0xbaef361a	-0.0018250376
37	0x3ca597e7	0.020214034
38	0xbd091840	-0.033470392
39	0x3c724734	0.014787484
40	0xbbaa1d54	-0.0051914845
41	0xbc456f3f	-0.012050449
42	0xbd61fe23	-0.055174004
43	0x3c12b17c	0.008953448
44	0x3cbdbcff	0.02316141
45	0x3d60e08d	0.05490165
46	0xbc9bb3e5	-0.019006679
47	0xbcd23b15	-0.025662938
48	0x3d276a7e	0.040873043
49	0x3d3529f4	0.044229463

layer4.weight f4 [25, 50, 3, 3]
0	0xbdba9944	-0.09111264
1	0xbc4c3f33	-0.01246624
2	0xbd0a9273	-0.03383107
3	0xbdeab1a7	-0.11459666
4	0xbd7b536e	-0.06135886
5	0x3c8a73d6	0.016900938
6	0x3caa8ec2	0.020820025
7	0xbd012353	-0.03152783
8	0x3d500c09	0.050792728
9	0xba774ae0	-0.00094334595
10	0xbc7027fd	-0.014657971
11	0xbdf4810e	-0.11938678
12	0x3da82d3d	0.082117535
13	0x3d466265	0.04843368
14	0x3ce533fb	0.027978888
15	0xba92b075	-0.0011191504
16	0x3c2e9d98	0.01065769
17	0x3d12f8c8	0.035881788
18	0x3c1cbfd2	0.009567218
19	0x3da19e4c	0.07891521
20	0x3c9f9cad	0.019483889
21	0x3e02b68a	0.12764946
22	0xbca2e5ed	-0.019885028
23	0x3d805c2d	0.06267581
24	0x3c2ba079	0.010475271
25	0x3de55fa2	0.11199881
26	0x3d06a875	0.032875497
27	0xbd10ba63	-0.035334002
28	0x3dc2f7de	0.09519933
29	0xbd8de161	-0.06927753
30	0xbd500bcc	-0.0507925
31	0x3d321177	0.043473687
32	0x3d88025a	0.066410735
33	0xbd098f95	-0.033584196
34	0x3d270ceb	0.040783804
35	0x3c527de8	0.012847401
36	0xbd22822c	-0.039674923
37	0xbd3090e0	-0.043106914
38	0xbda6ddc9	-0.08147771
39	0x3e0a29f8	0.13492572
40	0xbc888879	-0.016666638
41	0x3cef66af	0.029223768
42	0xbd3851a3	-0.04499973
43	0xbde04a8e	-0.1095172
44	0xbda4ad72	-0.080408946
45	0x3d2959f8	0.041345567
46	0xbdaeeddd	-0.085414626
47	0x3dfc0f2a	0.1230758
48	0xbd897dc0	-0.06713438
49	0x3d0b74aa	0.034046806
50	0x3bc3f76d	0.005980423
51	0xbd2009bd	-0.039071787
52	0xbd7de2b0	-0.061983764
53	0x3db07df7	0.08617776
54	0x3c3191c0	0.010837972
55	0xbd71ad43	-0.059003126
56	0x3e00dd84	0.12584502
57	0x3d9578d1	0.072984345
58	0xbcf1501b	-0.029457143
59	0x3c375b45	0.011191194
60	0x3da1d688	0.07902247
61	0xbc0f5342	-0.008747878
62	0xbe263b56	-0.16233572
63	0x3c01e1c0	0.007927358
64	0x3ce49567	0.027903272
65	0x3dced95e	0.10100053
66	0xbd865e3d	-0.06560943
67	0xbd330607	-0.04370692
68	0xbd101b86	-0.0351825
69	0xbda53a83	-0.08067801
70	0x3d38db01	0.045130733
71	0xbaec4d45	-0.0018028399
72	0x3d8fe9fb	0.0702705
73	0xbcc53419	-0.024072694
74	0xbd635057	-0.05549654
75	0x3d0c002a	0.034179844
76	0xbc9930b4	-0.018699981
77	0x3d9384c9	0.07203061
78	0xbd42b48d	-0.047535468
79	0x3d0b6c7a	0.034039
80	0xbd2a1da3	-0.04153217
81	0x3ce3decf	0.027816204
82	0x3d5ae06d	0.053436685
83	0x3d59f7d1	0.05321485
84	0x3d924bae	0.07143341
85	0xbd3cb762	-0.046073325
86	0xbdccab83	-0.09993651
87	0xbce980e3	-0.02850384
88	0x3d9cb87c	0.07652375
89	0xbc088191	-0.008331672
90	0xbcd2f77e	-0.02575278
91	0x3b1ee462	0.0024245013
92	0x3d546822	0.05185712
93	0x3d59eade	0.053202502
94	0x3ae60035	0.0017547669
95	0xbd8953c4	-0.0670543
96	0xbcc78aa3	-0.0243581
97	0x3cba0d1e	0.022711333
98	0xbd0e53f5	-0.034748036
99	0xbd2a123d	-0.0415213
100	0x3d7a6372	0.061129995
101	0x3d181da6	0.03713765
102	0xbe042cb9	-0.12907685
103	0xbc7df347	-0.015499896
104	0xbd7a9af1	-0.06118292
105	0x3d96be70	0.07360542
106	0xbd8c98d1	-0.06865085
107	0x3c964069	0.01834126
108	0x3cf830dc	0.030296735
109	0x3d06bb7a	0.032893635
110	0x3cee172c	0.029063784
111	0xbddc7a1a	-0.107654765
112	0xbd28d67b	-0.04122017
113	0xbdee3b6e	-0.11632429
114	0xbd955444	-0.07291463
115	0xbc3abcfe	-0.011397598
116	0x3dd7fd22	0.10546328
117	0x3c5d3a28	0.013502635
118	0x3c18e5a3	0.009332093
119	0xbc9b3530	-0.01894626
120	0xbcca4756	-0.024692219
121	0xbe1206f5	-0.14260466
122	0xbd5464ee	-0.051854067
123	0x3d5f1c8d	0.054470588
124	0xbd1386bc	-0.036017165
125	0xbc099c66	-0.008399105
126	0x3c630e26	0.013858354
127	0xbd17f719	-0.037100885
128	0x3cf353e2	0.029703084
129	0x3dd743f3	0.10511007
130	0x3c8db78c	0.017299436
131	0xbab10fe3	-0.0013508763
132	0xbdcb010a	-0.099123076
133	0xbcf18486	-0.029482137
134	0x3d3253f2	0.043537088
135	0x3ce85205	0.028359422
136	0x3d2c66ca	0.042090215
137	0xbe100637	-0.14064871
138	0x3c2a72e9	0.010403373
139	0xbdbb4bb0	-0.091452956
140	0xbbe7f9ff	-0.0070793624
141	0xbcf79fcb	-0.030227562
142	0x3dcf5945	0.10124449
143	0x3cdf4e73	0.027259087
144	0x3d16c944	0.036813036
145	0xbd1375aa	-0.036000885
146	0x3cec8804	0.028873451
147	0xbd633d70	-0.055478513
148	0x3bac4269	0.00525694
149	0x3c92cb7f	0.0179193
150	0xbd889052	-0.06668152
151	0xbc68a589	-0.014199623
152	0x3c830c25	0.015997002
153	0x3c8a2475	0.016863087
154	0x3df24577	0.118296556
155	0x3e00b048	0.12567246
156	0xbd610e3b	-0.05494521
157	0xbd66eacd	-0.056376267
158	0xbdd480fe	-0.10376166
159	0x3d2fd720	0.04292977
160	0xbe0fdde5	-0.1404949
161	0xbd153ca2	-0.036434777
162	0x3e07146a	0.13191381
163	0xbd5458d5	-0.05184253
164	0x3a4b66c5	0.00077591493
165	0x3d57524a	0.05256871
166	0x3d8bc0ec	0.06823906
167	0x3e2d37d8	0.16915834
168	0x3d4e76c7	0.050406244
169	0x3d6a5709	0.05721191
170	0xbd33459b	-0.043767553
171	0x3c7a6824	0.015283618
172	0x3d89e701	0.067335136
173	0x3d884ff3	0.06655874
174	0xbd52cc96	-0.05146464
175	0xbaa66f1d	-0.0012697909
176	0xbc2aa0f9	-0.010414355
177	0xbd1dad6b	-0.038495462
178	0xbd94520b	-0.07242211
179	0xbb9e2cf9	-0.0048271385
180	0x3cdf1f98	0.027236745
181	0xbd1ae353	-0.03781445
182	0x3d987c88	0.074456275
183	0x3d6f6a97	0.05845126
184	0x3d346a32	0.04404659
185	0x3ccb9e6e	0.024855819
186	0xbc9d104b	-0.019172808
187	0xbd53230e	-0.051547103
188	0x3d7587b6	0.059943877
189	0xbe122fce	-0.14276049
190	0x3d4b2a9a	0.049601175
191	0x3d72decb	0.059294503
192	0x3a817eb2	0.0009879677
193	0x3d22104f	0.039566334
194	0xbd3ac886	-0.04560139
195	0x3c4e698d	0.012598407
196	0x3d06e52e	0.032933407
197	0xbccac745	-0.024753222
198	0x3dccfcfa	0.10009189
199	0x3d80a466	0.062813565
200	0x3d4564bd	0.048191775
201	0xbd54727b	-0.05186699
202	0xbd95de87	-0.07317834
203	0xbdbfab8e	-0.09358893
204	0x3d887ea0	0.06664777
205	0xbca5bc5b	-0.020231416
206	0xbc303f42	-0.010757269
207	0x3c879463	0.016550248
208	0xbdd31661	-0.10307003
209	0xbd9c18aa	-0.07621892
210	0xbdb5a640	-0.088696
211	0x3d66277d	0.056190003
212	0xbc64f433	-0.013974237
213	0x3dd07629	0.10178787
214	0xbc7c4cf1	-0.015399204
215	0x3bba7b87	0.005690995
216	0x3d9f7071	0.07785118
217	0x3dba660d	0.09101496
218	0x3d4669ba	0.048440672
219	0x3e03e5eb	0.12880675
220	0xb9cd6330	-0.00039174547
221	0x3d39e7df	0.045387145
222	0x3dafda55	0.085865654
223	0xbd2cfc30	-0.042232692
224	0x3af12052	0.0018396473
225	0xbda910d8	-0.08255166
226	0x3d7a1564	0.061055556
227	0xbd2b03c0	-0.041751623
228	0x3cbb3bba	0.022855628
229	0x3cd50730	0.026004404
230	0xbc8e7cce	-0.017393496
231	0x3a83b624	0.0010048789
232	0xbda19406	-0.07889561
233	0x3c4707d8	0.012147866
234	0xbd88dd91	-0.066828854
235	0x3d9d9492	0.07694353
236	0xbdb23453	-0.08701386
237	0xbd0700e3	-0.03295983
238	0x3cc944c4	0.024568923
239	0xbbe88aa2	-0.0070966044
240	0x3dd1dd52	0.102472916
241	0xbc4f43c5	-0.012650435
242	0xbc5353be	-0.012898384
243	0xbaec3b68	-0.0018023076
244	0xbd729946	-0.059228204
245	0x3c04a77f	0.008096575
246	0x3c64690b	0.01394106
247	0xbcf51a5c	-0.029919796
248	0xbdd46958	-0.10371655
249	0xbdd1c007	-0.102417044
250	0xbadc678c	-0.0016815527
251	0x3dc0eaa4	0.09419754
252	0xbb81296e	-0.0039417064
253	0xbd422c5c	-0.047405586
254	0x3d79f7a2	0.061027177
255	0xbc143c54	-0.0090475865

layer4.bias f4 [25]
0	0x3c40dd5e	0.011771528
1	0x3cc2c6b9	0.023776399
2	0xbcd7a264	-0.026322551
3	0xbd1f9d7b	-0.038968544
4	0x3d24d6ab	0.040243786
5	0xbd3969b6	-0.04526683
6	0xbcb66720	-0.02226597
7	0x3d17682a	0.036964573
8	0x3c0228cd	0.007944298
9	0xbceb23eb	-0.02870365
10	0x3b69d763	0.003568136
11	0x3c4c8c45	0.012484615
12	0x3d124f0a	0.03571991
13	0x3d0709e5	0.03296842
14	0xbc03dc73	-0.008048165
15	0xbbc9f68c	-0.006163424
16	0x3d332bb7	0.04374286
17	0xbd111521	-0.03542054
18	0x3d23c238	0.039980143
19	0x3c1023a0	0.008797556
20	0x3cab91c1	0.020943524
21	0x3d3bf88c	0.04589133
22	0xbcd6ea79	-0.026234852
23	0xbc9154a4	-0.017740555
24	0xbcbef767	-0.02331133

exp_avg f4 [25, 1, 3, 3]
0	0xc7e5d4ee	-117673.86
1	0xc806838a	-137742.16
2	0xc80eca4b	-146217.17
3	0xc80e8512	-145940.28
4	0xc81cdc47	-160625.11
5	0xc81e3532	-162004.78
6	0xc81c64f1	-160147.77
7	0xc8249412	-168528.28
8	0xc81d770d	-161244.2
9	0xc806a482	-137874.03
10	0xc7f860be	-127169.484
11	0xc7c204a2	-99337.266
12	0xc811de9b	-149370.42
13	0xc802bc1d	-133872.45
14	0xc7c77da9	-102139.32
15	0xc80c772c	-143836.69
16	0xc7f2dedc	-124349.72
17	0xc7aec7d7	-89487.68
18	0xc8312fde	-181439.47
19	0xc81a12d4	-157771.31
20	0xc7e43766	-116846.8
21	0xc8363f7a	-186621.9
22	0xc81e75c8	-162263.12
23	0xc7e5c4f2	-117641.89
24	0xc82913da	-173135.4
25	0xc811df4b	-149373.17
26	0xc7cdb3e7	-105319.805
27	0xc7b67af0	-93429.875
28	0xc7b280ee	-91393.86
29	0xc798eb5c	-78294.72
30	0xc7d30056	-108032.67
31	0xc7c1a922	-99154.266
32	0xc7974efd	-77469.98
33	0xc7dd5af5	-113333.914
34	0xc7bf451e	-97930.234
35	0xc7875f7a	-69310.95
36	0xc715b134	-38321.203
37	0xc6e0fc28	-28798.078
38	0xc6a0c6a8	-20579.328
39	0xc69943d8	-19617.922
40	0xc627f05a	-10748.088
41	0xc59d7590	-5038.6953
42	0xc3a60220	-332.0166
43	0x45e979db	7471.232
44	0x4612b044	9388.066
45	0xc80624a0	-137362.5
46	0xc80cf2d3	-144331.3
47	0xc804b957	-135909.36
48	0xc7e9531e	-119462.234
49	0xc7f31fe6	-124479.8
50	0xc7e3c460	-116616.75
51	0xc7af3e18	-89724.19
52	0xc7b54a76	-92820.92
53	0xc7a731eb	-85603.836
54	0x47b4d3d1	92583.63
55	0x47978618	77580.19
56	0x475a68b0	55912.688
57	0x47beb2b2	97637.39
58	0x47a65dc5	85179.54
59	0x477efd55	65277.332
60	0x47bfe979	98258.945
61	0x47acad8d	88411.1
62	0x478d25fa	72267.95
63	0x47775a42	63322.258
64	0x479792d1	77605.63
65	0x479d5bd3	80567.65
66	0x47a78266	85764.8
67	0x47b8a25a	94532.7
68	0x47afa0ca	89921.58
69	0x47bde95a	97234.7
70	0x47c4173c	100398.47
71	0x47abe9ad	88019.35
72	0xc823d39a	-167758.4
73	0xc82ef44f	-179153.23
74	0xc82bd0bd	-175938.95
75	0xc82660c8	-170371.12
76	0xc8293a66	-173289.6
77	0xc81e39bf	-162022.98
78	0xc8113dc6	-148727.1
79	0xc80bee80	-143290.0
80	0xc7f488b2	-125201.39
81	0x480a8b35	141868.83
82	0x480c9e8c	143994.19
83	0x47f86dd0	127195.625
84	0x482afc56	175089.34
85	0x482b2d30	175284.75
86	0x48166a6c	154025.69
87	0x483483ea	184847.66
88	0x483413b8	184398.88
89	0x481d9b1b	161388.42
90	0xc7f90bf8	-127511.94
91	0xc80ec4ff	-146195.98
92	0xc810f412	-148432.28
93	0xc809471e	-140572.47
94	0xc81a6aca	-158123.16
95	0xc8197e43	-157177.05
96	0xc807d80e	-139104.22
97	0xc8165c18	-153968.38
98	0xc8146b34	-151980.81
99	0x48589974	221797.81
100	0x485f0d20	228404.5
101	0x484a0e81	206906.02
102	0x4888a731	279865.53
103	0x4884b30a	271768.3
104	0x4862787e	231905.97
105	0x4895897a	306251.8
106	0x488b1c3d	284897.9
107	0x48608415	229904.33
108	0xc8266206	-170376.1
109	0xc8448800	-201248.0
110	0xc84a32fa	-207051.9
111	0xc8419200	-198216.0
112	0xc8570969	-220197.64
113	0xc8515dea	-214391.66
114	0xc848d0f0	-205635.75
115	0xc8542382	-217230.03
116	0xc8437a1e	-200168.47
117	0xc70f6cf6	-36716.96
118	0xc69a9962	-19788.691
119	0x43995b56	306.71356
120	0xc7ae448a	-89225.08
121	0xc78cdc05	-72120.04
122	0xc7360872	-46600.445
123	0xc8047d88	-135670.12
124	0xc7e76576	-118474.92
125	0xc7ae3acc	-89205.59
126	0x47e8f1ce	119267.61
127	0x47f4219c	124995.22
128	0x47df7a41	114420.51
129	0x47ca5e53	103612.65
130	0x47beba52	97652.64
131	0x47991a64	78388.78
132	0x479ff798	81903.19
133	0x4780d604	65964.03
134	0x47198525	39301.145
135	0xc769b5aa	-59829.664
136	0xc78d28e6	-72273.8
137	0xc7992c44	-78424.53
138	0xc7af0186	-89603.05
139	0xc7c86a10	-102612.125
140	0xc7cfd3de	-106407.734
141	0xc7e297ab	-116015.336
142	0xc7fa39bf	-128115.49
143	0xc7fac8f4	-128401.91
144	0xc6e4bce0	-29278.438
145	0xc6867fb9	-17215.861
146	0xc52bcc09	-2748.7522
147	0xc6b57bce	-23229.902
148	0xc656d97c	-13750.371
149	0xc4c40867	-1568.2626
150	0xc6682203	-14856.503
151	0xc6040863	-8450.097
152	0xc3a7c548	-335.54126
153	0xc7ee021e	-121860.234
154	0xc7c8c170	-102786.875
155	0xc79a7360	-79078.75
156	0xc8269e0c	-170616.19
157	0xc80e273f	-145564.98
158	0xc7da502a	-111776.33
159	0xc843f4d9	-200659.39
160	0xc825a646	-169625.1
161	0xc7fa07aa	-128015.33
162	0x4776f574	63221.453
163	0x4791033a	74246.45
164	0x4793a5a7	75595.305
165	0x47b619c1	93235.51
166	0x47c93550	103018.625
167	0x47c3e5a3	100299.27
168	0x47e548c9	117393.57
169	0x47f12909	123474.07
170	0x47e2fd04	116218.03
171	0xc82538a4	-169186.56
172	0xc815bd17	-153332.36
173	0xc7fb03f0	-128519.875
174	0xc8294984	-173350.06
175	0xc815883a	-153120.9
176	0xc7f163b8	-123591.44
177	0xc81f2c20	-162992.5
178	0xc808578e	-139614.22
179	0xc7d33ffe	-108159.984
180	0xc69ce23f	-20081.123
181	0xc7015dae	-33117.68
182	0xc72da63c	-44454.234
183	0x44835706	1050.7195
184	0xc6ac6c29	-22070.08
185	0xc7315092	-45392.57
186	0x466af880	15038.125
187	0xc66d48f3	-15186.237
188	0xc73947b1	-47431.69
189	0x48183cb1	155890.77
190	0x481a528a	158026.16
191	0x48074c94	138546.31
192	0x48343bc6	184559.1
193	0x482c04a1	176146.52
194	0x480d2cc8	144563.12
195	0x483d9ce0	194163.5
196	0x482b3d1a	175348.4
197	0x480338ee	134371.72
198	0x4789fdf4	70651.91
199	0x4788f93b	70130.46
200	0x476e675d	61031.363
201	0x479ed1f8	81315.94
202	0x478b6427	71368.305
203	0x474c79ff	52345.996
204	0x479b63e4	79559.78
205	0x476cb192	60593.57
206	0x47031522	33557.133
207	0x47a83ef5	86141.914
208	0x47d600a2	109569.266
209	0x47e8db2e	119222.36
210	0x47ee9f54	122174.66
211	0x4804eb7e	136109.97
212	0x4802316e	133317.72
213	0x480d2dd4	144567.31
214	0x481063c5	147855.08
215	0x4801fe7c	133113.94
216	0xc7b53496	-92777.17
217	0xc782ab80	-66903.0
218	0xc7012fb4	-33071.703
219	0xc796bfcf	-77183.62
220	0xc745d71a	-50647.1
221	0xc6843ccb	-16926.396
222	0xc7737327	-62323.152
223	0xc70ba478	-35748.47
224	0xc589ae83	-4405.814

exp_avg_sq f4 [25, 1, 3, 3]
0	0x50617106	1.5129123e+10
1	0x506d463f	1.5923215e+10
2	0x5063a9ff	1.5278276e+10
3	0x5056f9ed	1.4426813e+10
4	0x5066e10e	1.5494035e+10
5	0x5063684d	1.5261054e+10
6	0x50356137	1.2172189e+10
7	0x50450031	1.3220496e+10
8	0x5044f636	1.321788e+10
9	0x500d5f1a	9.48728e+09
10	0x500a297e	9.2719e+09
11	0x4fddad0e	7.438212e+09
12	0x50168900	1.0102243e+10
13	0x5012ed95	9.860175e+09
14	0x4fefb6ec	8.043485e+09
15	0x500a1c81	9.268495e+09
16	0x50044af0	8.878014e+09
17	0x4fd7e065	7.2436147e+09
18	0x5184118c	7.090376e+10
19	0x5170b889	6.461801e+10
20	0x513dec57	5.098212e+10
21	0x51923973	7.850363e+10
22	0x5186c4d7	7.2353505e+10
23	0x51567180	5.75642e+10
24	0x518cedca	7.566061e+10
25	0x51831673	7.037717e+10
26	0x5152fec3	5.6638583e+10
27	0x50358ab9	1.218307e+10
28	0x50842c5d	1.774e+10
29	0x509e7848	2.1269463e+10
30	0x5049fbbb	1.3554871e+10
31	0x508e9919	1.9139185e+10
32	0x50a6b3fa	2.2374502e+10
33	0x5046d2c9	1.3342811e+10
34	0x5087977c	1.8198815e+10
35	0x509a63f6	2.0721938e+10
36	0x4f294490	2.8398428e+09
37	0x4ebd0902	1.5857421e+09
38	0x4e50d9e2	8.75985e+08
39	0x4e9acdb9	1.2985868e+09
40	0x4e29a757	7.115791e+08
41	0x4e259af4	6.945989e+08
42	0x4e098855	5.768533e+08
43	0x4e388695	7.739569e+08
44	0x4e9fe76a	1.3413716e+09
45	0x50612f6a	1.5111924e+10
46	0x5078a5ee	1.6686496e+10
47	0x50672740	1.5512437e+10
48	0x5019f16f	1.0330947e+10
49	0x503453ff	1.2101615e+10
50	0x503207ca	1.194742e+10
51	0x4fa6215a	5.574407e+09
52	0x4fd4fe38	7.1468605e+09
53	0x4fe49f62	7.671301e+09
54	0x50eda917	3.1898253e+10
55	0x50bc3938	2.5262932e+10
56	0x507a46f0	1.6795812e+10
57	0x511f1d48	4.271194e+10
58	0x51055776	3.5793625e+10
59	0x50bcfde3	2.5366043e+10
60	0x513b4f70	5.0280727e+10
61	0x51248d8c	4.4171837e+10
62	0x50f789e5	3.3224075e+10
63	0x4f967723	5.0487803e+09
64	0x4f8941a3	4.6055603e+09
65	0x4f7c3dc9	4.2319076e+09
66	0x4fb156ec	5.9505275e+09
67	0x4fa447f4	5.512358e+09
68	0x4f94a2ce	4.987395e+09
69	0x4fc74d05	6.687427e+09
70	0x4fb6ed75	6.1380306e+09
71	0x4fa0848c	5.3860823e+09
72	0x510a013a	3.704538e+10
73	0x510f6a31	3.849762e+10
74	0x51013579	3.4684244e+10
75	0x50f1d346	3.245724e+10
76	0x50f6c77a	3.3122144e+10
77	0x50daa874	2.9347783e+10
78	0x50adcd22	2.3327216e+10
79	0x50ad8fc9	2.3295052e+10
80	0x5096c352	2.0235063e+10
81	0x51849e7b	7.119932e+10
82	0x517c06fd	6.7653063e+10
83	0x514b3561	5.454837e+10
84	0x51a8f2a2	9.070315e+10
85	0x51a2700e	8.720808e+10
86	0x5184cc1f	7.129503e+10
87	0x51b4e2c7	9.711235e+10
88	0x51af9660	9.426777e+10
89	0x519156a9	7.802802e+10
90	0x5043ccdf	1.3139934e+10
91	0x506c7a9d	1.5869834e+10
92	0x5077c7a6	1.6628226e+10
93	0x5050fd5d	1.4025061e+10
94	0x507aa1fe	1.6819681e+10
95	0x50822c0a	1.7471394e+10
96	0x5044dd5f	1.3211368e+10
97	0x5069bf31	1.5686485e+10
98	0x50718e9b	1.6210619e+10
99	0x51ddad83	1.1901235e+11
100	0x51ffa9c5	1.37258115e+11
101	0x51f7429b	1.327468e+11
102	0x51f2866c	1.3020466e+11
103	0x520bc5e3	1.5008011e+11
104	0x52076b95	1.4540638e+11
105	0x51e0e361	1.2073593e+11
106	0x52014a66	1.3882474e+11
107	0x51fa7982	1.3447255e+11
108	0x51094025	3.6842918e+10
109	0x51318673	4.7654056e+10
110	0x513cb345	5.0653843e+10
111	0x511ebfe9	4.2614034e+10
112	0x51451326	5.2901863e+10
113	0x514a0063	5.4224368e+10
114	0x511ad1cb	4.1559044e+10
115	0x5138b3a4	4.958049e+10
116	0x5136622e	4.89582e+10
117	0x4f310e12	2.9704893e+09
118	0x4f382c37	3.0899054e+09
119	0x4f1df15e	2.6498412e+09
120	0x4fcbd0cb	6.8389166e+09
121	0x4fda87ed	7.332682e+09
122	0x4fc1edb4	6.5071616e+09
123	0x5022c4e7	1.0923253e+10
124	0x5031b48f	1.1925601e+10
125	0x50220ca7	1.0874953e+10
126	0x5043c1f2	1.313707e+10
127	0x505bda46	1.475406e+10
128	0x504ee393	1.3884083e+10
129	0x5021fb96	1.0870479e+10
130	0x502ccd0c	1.1596476e+10
131	0x501cb6ba	1.0516883e+10
132	0x4ff75744	8.299383e+09
133	0x4ff6d8ae	8.282791e+09
134	0x4fd430b2	7.119922e+09
135	0x4fb09aa5	5.9258496e+09
136	0x4fc0736a	6.4575785e+09
137	0x4fb917b4	6.2106767e+09
138	0x4fcae20d	6.807624e+09
139	0x4fe82f40	7.7908214e+09
140	0x4fe7fe1d	7.784381e+09
141	0x4fd2aafd	7.0688425e+09
142	0x4ffbe674	8.4523684e+09
143	0x50025792	8.747108e+09
144	0x51027e6a	3.5029164e+10
145	0x510b3d14	3.7376573e+10
146	0x5103f841	3.5425358e+10
147	0x511a0431	4.1343455e+10
148	0x51236ccc	4.386906e+10
149	0x5119aace	4.1249726e+10
150	0x511fce8c	4.2897818e+10
151	0x5128579e	4.518903e+10
152	0x511d015a	4.2145784e+10
153	0x50fad5c6	3.366651e+10
154	0x50f45e7b	3.279866e+10
155	0x50d0dbd4	2.803254e+10
156	0x511e0a55	4.2423636e+10
157	0x511c3443	4.193073e+10
158	0x51072fc4	3.6288872e+10
159	0x5127bd90	4.502749e+10
160	0x5126aa9b	4.473918e+10
161	0x51115099	3.9007654e+10
162	0x503ada4b	1.2539473e+10
163	0x502cbdf0	1.1592516e+10
164	0x5011b771	9.778873e+09
165	0x5044c8f8	1.320602e+10
166	0x503895a5	1.2387259e+10
167	0x501d7f2d	1.056943e+10
168	0x5039abf4	1.2460216e+10
169	0x50306bbc	1.1839402e+10
170	0x50182d06	1.021235e+10
171	0x504c6e4d	1.3719123e+10
172	0x5043ab33	1.3131107e+10
173	0x502fe874	1.1804987e+10
174	0x504f3584	1.3905564e+10
175	0x50475b82	1.3378652e+10
176	0x50346ee6	1.2108667e+10
177	0x5040612e	1.2910377e+10
178	0x503b2795	1.2559734e+10
179	0x502c6dd5	1.1571516e+10
180	0x50085c0d	9.150936e+09
181	0x4fe4c6c6	7.676464e+09
182	0x4fb5b75d	6.097386e+09
183	0x50137c2c	9.897554e+09
184	0x4ff0f4b5	8.085138e+09
185	0x4fc1f507	6.5081216e+09
186	0x500984ea	9.228757e+09
187	0x4fdfd37c	7.510358e+09
188	0x4fbef83a	6.4078776e+09
189	0x512b0d6d	4.591654e+10
190	0x51372aef	4.9168708e+10
191	0x51225c7b	4.3583517e+10
192	0x51490d8a	5.3969723e+10
193	0x5154a2fc	5.707922e+10
194	0x513a70e9	5.004739e+10
195	0x514978cd	5.4082195e+10
196	0x51528fd7	5.6522273e+10
197	0x513738b5	4.918315e+10
198	0x4fae243d	5.843221e+09
199	0x4f9aee1d	5.1985925e+09
200	0x4f836041	4.408247e+09
201	0x4fa30a08	5.470687e+09
202	0x4f8aea72	4.661241e+09
203	0x4f6d5f39	3.9824407e+09
204	0x4f8144a1	4.337517e+09
205	0x4f59bcc6	3.6530273e+09
206	0x4f48ff3d	3.3721705e+09
207	0x4f90813b	4.8487767e+09
208	0x4ff82100	8.3258245e+09
209	0x5025b5a0	1.1120574e+10
210	0x4fa5c36e	5.5620966e+09
211	0x4ffd8d4f	8.507793e+09
212	0x501ec910	1.0655908e+10
213	0x4fa80b99	5.6386647e+09
214	0x4fe1ee15	7.580953e+09
215	0x50028849	8.759879e+09
216	0x5025be9c	1.112293e+10
217	0x500bba40	9.376956e+09
218	0x4fcd4026	6.8870666e+09
219	0x504342e2	1.3103761e+10
220	0x502237ac	1.088623e+10
221	0x4fe949b4	7.827843e+09
222	0x5058a846	1.4539626e+10
223	0x50325750	1.1968266e+10
224	0x4ffe51a9	8.533529e+09

exp_avg f4 [25]
0	0x462ea5a9	11177.415
1	0xc5c835e0	-6406.7344
2	0x47b8cb6c	94614.84
3	0x475031a2	53297.633
4	0xc535286a	-2898.526
5	0x47158ff6	38287.96
6	0xc719b68e	-39350.555
7	0xc66f8d0a	-15331.26
8	0x471b7c5d	39804.363
9	0xc7c6c775	-101774.914
10	0x47852a41	68180.51
11	0xc7e2329c	-115813.22
12	0x47a0d89f	82353.24
13	0x4797c0a8	77697.31
14	0xc74bc7de	-52167.867
15	0x474bdf64	52191.39
16	0x468783f3	17345.975
17	0x47a20e6e	82972.86
18	0xc5e38ed5	-7281.854
19	0x46e5e7b0	29427.844
20	0x4791aadd	74581.73
21	0xc7a964b3	-86729.4
22	0x46a656a6	21291.324
23	0xc743e158	-50145.344
24	0x47d77776	110318.92

exp_avg_sq f4 [25]
0	0x4fadbf6e	5.830008e+09
1	0x4eec6e04	1.9833165e+09
2	0x50ffa9dd	3.4314578e+10
3	0x4e645793	9.577361e+08
4	0x4ed8ceaa	1.8187113e+09
5	0x4e81dd3d	1.08938e+09
6	0x500ab905	9.309525e+09
7	0x4f024cfb	2.186083e+09
8	0x4f54be51	3.5692424e+09
9	0x502d242b	1.1619315e+10
10	0x4e32fe84	7.507561e+08
11	0x4f8210ed	4.3642947e+09
12	0x4ec0950b	1.6154966e+09
13	0x4ece3800	1.7298883e+09
14	0x4ebd8d86	1.5900844e+09
15	0x4ecfa443	1.7418244e+09
16	0x4ed9a9ed	1.8258961e+09
17	0x4f361e4c	3.0554388e+09
18	0x4ea8e8c6	1.4169137e+09
19	0x4d72ada6	2.5446666e+08
20	0x4fea8fe6	7.870598e+09
21	0x4f0365b4	2.2044805e+09
22	0x4f32427d	2.9907018e+09
23	0x4eabd23d	1.441341e+09
24	0x508d789c	1.8987934e+10

exp_avg f4 [50, 25, 3, 3]
0	0x4592284c	4677.037
1	0x4553e70d	3390.4407
2	0x44a2c5e7	1302.1844
3	0x4619022b	9792.542
4	0x45efc00c	7672.006
5	0x45861289	4290.317
6	0x464580d2	12640.205
7	0x461c4acc	10002.699
8	0x45b4fe70	5791.8047
9	0x45c9670a	6444.88
10	0x45a43d61	5255.6724
11	0x455a9092	3497.0356
12	0x45e3ddd9	7291.731
13	0x45a7c0dc	5368.1074
14	0x4532f638	2863.3887
15	0x45cc9491	6546.571
16	0x4581aa55	4149.2915
17	0x449c6c96	1251.3933
18	0xc597bac4	-4855.3457
19	0xc5958661	-4784.7974
20	0xc59f8e24	-5105.7676
21	0xc55e002c	-3552.0107
22	0xc5853dbd	-4263.7173
23	0xc5a3ca13	-5241.2593
24	0xc4cc2607	-1633.1884
25	0xc54439da	-3139.6157
26	0xc5959fc8	-4787.9727
27	0x45f3d304	7802.377
28	0x45ba8780	5968.9375
29	0x456ce6c8	3790.4238
30	0x45eb33d0	7526.4766
31	0x45a49360	5266.422
32	0x451f9a6c	2553.6514
33	0x45b8922e	5906.2725
34	0x455f694e	3574.5815
35	0x4467ac8f	926.6962
36	0xc594765b	-4750.7944
37	0xc546977a	-3177.4673
38	0xc4f76866	-1979.2625
39	0xc591dd82	-4667.6885
40	0xc52c9178	-2761.0918
41	0xc494fdff	-1191.9374
42	0xc59a7e03	-4943.7515
43	0xc537d0c3	-2941.0476
44	0xc4909aec	-1156.8413
45	0x443ba1a6	750.52576
46	0x4384863e	265.04877
47	0xc451642a	-837.56506
48	0x45acaf04	5525.877
49	0x458c7dd9	4495.731
50	0x451ec731	2540.4495
51	0x4601e272	8312.611
52	0x45dcba48	7063.285
53	0x45905540	4618.6562
54	0x44958f8d	1196.486
55	0x443e7434	761.8157
56	0x44a47c61	1315.8868
57	0xc4bc09ce	-1504.3064
58	0xc4b0b2c1	-1413.586
59	0xc2c068e0	-96.204834
60	0xc543fb1a	-3135.6938
61	0xc525c8ba	-2652.5454
62	0xc460da90	-899.41504
63	0xc4b018c4	-1408.7739
64	0xc458d050	-867.2549
65	0xc47c3c60	-1008.94336
66	0xc542a29a	-3114.1626
67	0xc51ad609	-2477.3772
68	0xc5066f9b	-2150.9753
69	0xc5c94e08	-6441.754
70	0xc5ac55cc	-5514.7246
71	0xc58a112a	-4418.1455
72	0xc38861ad	-272.7631
73	0xc439845a	-742.068
74	0xc4720bfb	-968.1872
75	0xc3bb0f3e	-374.11908
76	0xc486d993	-1078.7992
77	0xc4df9696	-1788.7058
78	0x44fa2c4f	2001.3846
79	0x4449cb4e	807.17664
80	0xc42c49a6	-689.15076
81	0x45c651a7	6346.2065
82	0x45c2e8ae	6237.085
83	0x45c19e35	6195.776
84	0xc4ec34da	-1889.6516
85	0xc4841065	-1056.5123
86	0x431db6e0	157.71436
87	0xc6105872	-9238.111
88	0xc5ea9273	-7506.306
89	0xc598d6d8	-4890.8555
90	0xc613a321	-9448.782
91	0xc5f70675	-7904.807
92	0xc5f39f0f	-7795.8823
93	0xc58ae9c2	-4445.2197
94	0xc576a870	-3946.5273
95	0xc59efb08	-5087.379
96	0x43c6d1a0	397.6377
97	0xc3ef4288	-478.51978
98	0xc53dbd3e	-3035.8276
99	0x45b4939f	5778.4526
100	0x45b9dc71	5947.555
101	0x45db5543	7018.6577
102	0xc5a3d6ad	-5242.8345
103	0xc569d455	-3741.2708
104	0xc41f5d70	-637.45996
105	0xc66725a8	-14793.414
106	0xc63ba258	-12008.586
107	0xc5d73056	-6886.042
108	0x4516acbf	2410.7966
109	0x44747f08	977.98486
110	0xc40ac968	-555.147
111	0x45b74d6c	5865.6777
112	0x455b30b8	3507.045
113	0x440b6fa4	557.7444
114	0x461f1c70	10183.109
115	0x45d46708	6796.879
116	0x451980ac	2456.042
117	0x44394a3c	741.1599
118	0x441ecfaf	635.24506
119	0x44530b7d	844.1795
120	0xc481ebd5	-1039.3698
121	0xc46018b7	-896.38617
122	0xc43b3f50	-748.98926
123	0xc3a81c8d	-336.22305
124	0xc399402a	-306.50128
125	0xc3d63d4a	-428.47882
126	0x46051716	8517.771
127	0x46049fa7	8487.913
128	0x46085a59	8726.587
129	0xc49ec761	-1270.2306
130	0xc2400ec0	-48.014404
131	0x44fa0a94	2000.3306
132	0xc631b09e	-11372.154
133	0xc608a6c7	-8745.694
134	0xc58dbf14	-4535.885
135	0xc3f6cfe4	-493.62415
136	0xc3e4cc3e	-457.59564
137	0xc48f30cf	-1145.5253
138	0x457eb064	4075.0244
139	0x4564f5ca	3663.3618
140	0x45097f08	2199.9395
141	0x45d8dbd2	6939.4775
142	0x45c0170e	6146.882
143	0x457d8f02	4056.938
144	0xc5388d04	-2952.8135
145	0xc526a4f5	-2666.3098
146	0xc53bc4d6	-3004.3022
147	0x44a72acd	1337.3375
148	0x447dec47	1015.69183
149	0xc2dcc5a0	-110.38599
150	0x458952d7	4394.355
151	0x455d15b0	3537.3555
152	0x44da3ce2	1745.9026
153	0xc5d3bc2c	-6775.5215
154	0xc5da59c2	-6987.2197
155	0xc5f81d7a	-7939.6846
156	0x45236169	2614.0881
157	0x44864688	1074.2041
158	0xc4ce1c68	-1648.8877
159	0x4620e6b5	10297.677
160	0x45ef1444	7650.533
161	0x4556a8c5	3434.548
162	0x45dd9cb7	7091.5894
163	0x45bc0dec	6017.74
164	0x45b1a2d4	5684.3535
165	0x4458bfa9	866.9947
166	0x4338775c	184.46625
167	0x4423f359	655.8023
168	0xc5896dcf	-4397.726
169	0xc5913860	-4647.047
170	0xc5509286	-3337.1577
171	0x453c69f7	3014.6228
172	0x452f6339	2806.2014
173	0x44cdcb0c	1646.3452
174	0x45d0d92e	6683.1475
175	0x45bd81f6	6064.245
176	0x45793d07	3987.8142
177	0x46085580	8725.375
178	0x45f0ec39	7709.528
179	0x459bffc4	4991.9707
180	0xc570a81e	-3850.5073
181	0xc5336864	-2870.5244
182	0xc4e2739a	-1811.6125
183	0xc5ac5d0c	-5515.631
184	0xc57e39ba	-4067.608
185	0xc4fe68da	-2035.2766
186	0xc5f728d4	-7909.1035
187	0xc5b2d0df	-5722.109
188	0xc52c2da6	-2754.853
189	0x45737231	3895.137
190	0x456d51f4	3797.122
191	0x455f8026	3576.0093
192	0xc3c206f8	-388.05444
193	0xc32c50e0	-172.31592
194	0x43ae9154	349.13538
195	0xc5a8ce02	-5401.751
196	0xc5974a9c	-4841.326
197	0xc55d5467	-3541.2751
198	0x4407559d	541.3377
199	0x445474dc	849.8259
200	0x44d508e6	1704.2781
201	0xc41ae390	-619.55566
202	0x43b5829c	363.0204
203	0x44ff5aa0	2042.832
204	0xc50b7a9d	-2231.6633
205	0xc3f12940	-482.32227
206	0x44efc3f0	1918.123
207	0x4592bedb	4695.857
208	0x45944378	4744.4336
209	0x45a1394c	5159.162
210	0xc596a120	-4820.1406
211	0xc57201e5	-3872.1184
212	0xc500d466	-2061.275
213	0xc6403ea0	-12303.656
214	0xc6255364	-10580.848
215	0xc5e786aa	-7408.833
216	0x45a3bc7a	5239.5596
217	0x45905622	4618.7666
218	0x4580646a	4108.552
219	0x4569f5b4	3743.3564
220	0x4556a5a5	3434.3528
221	0x45437f1e	3127.9448
222	0x45008759	2056.4592
223	0x45059bf8	2137.748
224	0x4508f617	2191.3806
225	0xc62b79ee	-10974.482
226	0xc5f1c15d	-7736.1704
227	0xc5775d1c	-3957.8193
228	0xc5cc52aa	-6538.333
229	0xc5441fdc	-3137.9912
230	0x43d9eb1c	435.8368
231	0xc5139787	-2361.4705
232	0x446a2e11	936.7198
233	0x457a6b26	4006.6968
234	0xc5b7c3fb	-5880.4976
235	0xc5430c2a	-3120.7603
236	0xc4a3fa26	-1311.8171
237	0xc52c193a	-2753.5767
238	0xc381760c	-258.92224
239	0x44829094	1044.5181
240	0xc392c7e8	-293.56177
241	0x44e464de	1827.1521
242	0x451fc47e	2556.2808
243	0x4423d250	655.28613
244	0x451fe6e6	2558.4312
245	0x458f7622	4590.7666
246	0x44e7c430	1854.1309
247	0x456605c0	3680.3594
248	0x45addf9c	5563.951
249	0x4533c391	2876.223
250	0x458af9d3	4447.228
251	0x45bc8e76	6033.8076
252	0xc5aebb2c	-5591.3965
253	0xc5763f4c	-3939.956
254	0xc553046b	-3376.2761
255	0xc54716e9	-3185.432

exp_avg_sq f4 [50, 25, 3, 3]
0	0x4dea8bd7	4.9187914e+08
1	0x4e195070	6.430464e+08
2	0x4e2d9900	7.2812134e+08
3	0x4e167bd3	6.3117434e+08
4	0x4e3e78bb	7.988958e+08
5	0x4e50ebd8	8.762793e+08
6	0x4e1c57f2	6.557523e+08
7	0x4e414cae	8.10757e+08
8	0x4e4f975e	8.707009e+08
9	0x4cd34a32	1.1077672e+08
10	0x4cd2c809	1.1051015e+08
11	0x4cbd57db	9.927036e+07
12	0x4cd35665	1.10801704e+08
13	0x4cbaf9a1	9.802881e+07
14	0x4c939f9a	7.73972e+07
15	0x4ca9243c	8.867888e+07
16	0x4c81cc45	6.8051496e+07
17	0x4c2eb89d	4.58021e+07
18	0x4c63b10e	5.968799e+07
19	0x4c37e20f	4.8203836e+07
20	0x4bc7818e	2.614966e+07
21	0x4ccbd619	1.06868936e+08
22	0x4ca17998	8.465939e+07
23	0x4c30958a	4.629047e+07
24	0x4d0fbe66	1.5072624e+08
25	0x4ce16eff	1.1819212e+08
26	0x4c79d19f	6.5488508e+07
27	0x4c4d7a9f	5.3865084e+07
28	0x4c28fc2a	4.429841e+07
29	0x4c05b7ce	3.505337e+07
30	0x4bf5f7d5	3.223953e+07
31	0x4ba6e3bd	2.1874554e+07
32	0x4b586aff	1.4183167e+07
33	0x4b2e4e57	1.1423319e+07
34	0x4ab2b14a	5.855397e+06
35	0x4a47e73e	3.2752155e+06
36	0x4c576936	5.6468696e+07
37	0x4c815511	6.780737e+07
38	0x4ca3f9bd	8.597041e+07
39	0x4c858a89	7.0014024e+07
40	0x4ca0423e	8.402174e+07
41	0x4cc81fc7	1.0492268e+08
42	0x4c9c0c6d	8.1814376e+07
43	0x4cbaf6dd	9.8023144e+07
44	0x4ce6317a	1.2068757e+08
45	0x4d53018b	2.2125586e+08
46	0x4d8fb719	3.0139267e+08
47	0x4d9fe670	3.353349e+08
48	0x4d8861bd	2.8601334e+08
49	0x4db51ba5	3.7981098e+08
50	0x4dc57609	4.141059e+08
51	0x4d8625e6	2.8132883e+08
52	0x4db0cc46	3.7077216e+08
53	0x4dbf3420	4.0098304e+08
54	0x4ccbf86f	1.06939256e+08
55	0x4cfd1f74	1.3270928e+08
56	0x4cf47e18	1.2818451e+08
57	0x4d13ca60	1.549696e+08
58	0x4d2b7dfa	1.798225e+08
59	0x4d1bb607	1.6327486e+08
60	0x4d1f426e	1.6699568e+08
61	0x4d2f762f	1.8398488e+08
62	0x4d171227	1.5840933e+08
63	0x4c9ce228	8.22521e+07
64	0x4cec7360	1.2396826e+08
65	0x4d3fcc58	2.01115e+08
66	0x4cfdfd90	1.3316416e+08
67	0x4d4ab346	2.1254666e+08
68	0x4d9d69d2	3.3011974e+08
69	0x4d4e8102	2.1653507e+08
70	0x4d9f41d3	3.339864e+08
71	0x4de4c55e	4.797675e+08
72	0x4bd2ee8a	2.7647252e+07
73	0x4bc3b58d	2.5651994e+07
74	0x4bbde155	2.4887978e+07
75	0x4bc66d17	2.600811e+07
76	0x4bcee5e2	2.7118532e+07
77	0x4c0335a0	3.4395776e+07
78	0x4c138d6c	3.8679984e+07
79	0x4c37e38c	4.820536e+07
80	0x4c7ee1e9	6.6815908e+07
81	0x4e0807a7	5.705507e+08
82	0x4e4369bc	8.196216e+08
83	0x4e6282ff	9.5005894e+08
84	0x4e6529eb	9.611824e+08
85	0x4e9beaf0	1.3079327e+09
86	0x4ead5d54	1.4542874e+09
87	0x4e987bbe	1.2791232e+09
88	0x4ec6e701	1.6685139e+09
89	0x4ed59ff2	1.7920146e+09
90	0x4d7c96c5	2.648587e+08
91	0x4d8f6a6f	3.0076464e+08
92	0x4d72927a	2.5435536e+08
93	0x4de4e14d	4.7999632e+08
94	0x4df4c900	5.1335168e+08
95	0x4dc61f04	4.1549018e+08
96	0x4e214942	6.764832e+08
97	0x4e242c00	6.8858675e+08
98	0x4dff590d	5.3550326e+08
99	0x4e8d0e4f	1.1832626e+09
100	0x4ec4794b	1.6481417e+09
101	0x4ee1cbba	1.8941125e+09
102	0x4ee02a76	1.8804396e+09
103	0x4f15803b	2.508209e+09
104	0x4f256170	2.7746263e+09
105	0x4f101487	2.4172644e+09
106	0x4f39bbd1	3.1160937e+09
107	0x4f475eff	3.3448916e+09
108	0x4d9ccfeb	3.2885898e+08
109	0x4dcb7d24	4.26747e+08
110	0x4df7be30	5.1955456e+08
111	0x4df1f678	5.074327e+08
112	0x4e182bce	6.382519e+08
113	0x4e302d72	7.389421e+08
114	0x4e254911	6.932573e+08
115	0x4e48a40b	8.415485e+08
116	0x4e5e6c8c	9.329139e+08
117	0x4cb35fa6	9.404344e+07
118	0x4cb74136	9.607826e+07
119	0x4c842322	6.927797e+07
120	0x4cb58a7b	9.5179736e+07
121	0x4cac3fb6	9.030802e+07
122	0x4c6585dd	6.0168052e+07
123	0x4c75be11	6.4419908e+07
124	0x4c559cd0	5.599725e+07
125	0x4bf7ece9	3.2496082e+07
126	0x4e4daf3d	8.627034e+08
127	0x4e912fc3	1.2179132e+09
128	0x4eab1359	1.435086e+09
129	0x4eb36e48	1.5051745e+09
130	0x4ef15cab	2.0246911e+09
131	0x4f07e719	2.2800694e+09
132	0x4eff7acb	2.1431187e+09
133	0x4f24db36	2.7658296e+09
134	0x4f32ca31	2.9995953e+09
135	0x4d0218ba	1.3641616e+08
136	0x4d357fd3	1.9031582e+08
137	0x4d4b2b3f	2.1303806e+08
138	0x4d30cc28	1.853856e+08
139	0x4d6e19c7	2.4966667e+08
140	0x4d81582b	2.7125488e+08
141	0x4d3c34d4	1.9734867e+08
142	0x4d772edf	2.5919026e+08
143	0x4d8323f5	2.7502147e+08
144	0x4d8c33b3	2.940248e+08
145	0x4db79e20	3.8507418e+08
146	0x4dc01a98	4.0287104e+08
147	0x4dd7545e	4.515788e+08
148	0x4e05c050	5.609933e+08
149	0x4e064e06	5.633151e+08
150	0x4e00d622	5.4037926e+08
151	0x4e19c33b	6.4492717e+08
152	0x4e153455	6.258087e+08
153	0x4e6241fc	9.489938e+08
154	0x4e92320f	1.2263771e+09
155	0x4e989865	1.2800621e+09
156	0x4eae4aaa	1.4620644e+09
157	0x4ed84961	1.8143438e+09
158	0x4edae918	1.8363546e+09
159	0x4ed58774	1.791212e+09
160	0x4f00e5b9	2.1625388e+09
161	0x4eff6bdf	2.1426298e+09
162	0x4d1e3d46	1.6592598e+08
163	0x4d665e4a	2.4155869e+08
164	0x4d8055f4	2.691396e+08
165	0x4d857a3d	2.799226e+08
166	0x4dbaa542	3.9142406e+08
167	0x4dca924d	4.248232e+08
168	0x4db1f7e8	3.7322675e+08
169	0x4df1d911	5.0719184e+08
170	0x4e00a952	5.3964506e+08
171	0x4cefec49	1.25788744e+08
172	0x4d2b9f19	1.7995816e+08
173	0x4d507ab7	2.1860645e+08
174	0x4d17d130	1.591918e+08
175	0x4d516f26	2.1960765e+08
176	0x4d741848	2.55952e+08
177	0x4d19f2f9	1.6142734e+08
178	0x4d4d9964	2.1558637e+08
179	0x4d684c79	2.4358286e+08
180	0x4d3cfe5d	1.9817416e+08
181	0x4d802f37	2.6882224e+08
182	0x4da776d1	3.5119773e+08
183	0x4d905710	3.027031e+08
184	0x4dbdacca	3.977772e+08
185	0x4de9bdef	4.9019235e+08
186	0x4dc61c58	4.154683e+08
187	0x4df8521a	5.2076627e+08
188	0x4e10ca33	6.072926e+08
189	0x4ce777ee	1.2135614e+08
190	0x4d3f226b	2.0041899e+08
191	0x4d83ac7f	2.7614e+08
192	0x4d5c653e	2.311014e+08
193	0x4dad7651	3.6377654e+08
194	0x4de1b49f	4.7333885e+08
195	0x4da65205	3.4879914e+08
196	0x4df9546a	5.2288237e+08
197	0x4e1b1a46	6.505476e+08
198	0x4c8075b4	6.734992e+07
199	0x4c82e6c7	6.863007e+07
200	0x4c6a6d5a	6.145367e+07
201	0x4ccb4225	1.0656593e+08
202	0x4cc41633	1.0280591e+08
203	0x4ca27599	8.5175496e+07
204	0x4d08e84e	1.4355786e+08
205	0x4cfc8d55	1.32410024e+08
206	0x4cc69dc8	1.0413216e+08
207	0x4e1bf819	6.5418195e+08
208	0x4e60af86	9.423999e+08
209	0x4e82ab63	1.096135e+09
210	0x4e720a60	1.01519155e+09
211	0x4ea6f54c	1.4005468e+09
212	0x4ebbea6b	1.5763511e+09
213	0x4e957dfc	1.2540308e+09
214	0x4ec7c53b	1.6757958e+09
215	0x4edb0f50	1.8376069e+09
216	0x4bfa703b	3.2825462e+07
217	0x4c056828	3.497181e+07
218	0x4bc8d220	2.6321984e+07
219	0x4c77bd62	6.4943496e+07
220	0x4c7cdc31	6.6285764e+07
221	0x4c3d5fd7	4.9643356e+07
222	0x4cbe5aa9	9.980039e+07
223	0x4cbd0862	9.91076e+07
224	0x4c8d0f85	7.395639e+07
225	0x4e1d702b	6.603435e+08
226	0x4e0f6a7c	6.015301e+08
227	0x4def125b	5.013697e+08
228	0x4e08ed0a	5.74309e+08
229	0x4df91a22	5.2240493e+08
230	0x4dd0a700	4.3757568e+08
231	0x4ddb64fa	4.601035e+08
232	0x4dc7bc29	4.1887466e+08
233	0x4da907d8	3.5448294e+08
234	0x4d112e3b	1.5223288e+08
235	0x4ce1a4a2	1.1830197e+08
236	0x4cae6732	9.143746e+07
237	0x4cda7a71	1.14545544e+08
238	0x4ca77181	8.778855e+07
239	0x4c81b4f5	6.800375e+07
240	0x4c9a2536	8.081656e+07
241	0x4c6903cd	6.1083444e+07
242	0x4c35d4a8	4.7665824e+07
243	0x4acbac26	6.673939e+06
244	0x4b1db71d	1.0336029e+07
245	0x4b90f0f1	1.899773e+07
246	0x4b012539	8.463673e+06
247	0x4b332eed	1.1742957e+07
248	0x4b9c46f0	2.0483552e+07
249	0x4b16abb9	9.874361e+06
250	0x4b360ee4	1.1931364e+07
251	0x4b92e3d3	1.9253158e+07
252	0x4cd1ae1f	1.0993279e+08
253	0x4cb11b27	9.2854584e+07
254	0x4c961983	7.869545e+07
255	0x4c93e6f4	7.754333e+07
