models/probabilistic_training/upscaling_network/100/sigma0.01_step0.0002_lr0.0005/ckpt/model_epoch_600.pth (torch, 282369 bytes, 18 tensors)

layer1.weight f4 [25, 1, 3, 3]
00000000: 2503 6fbd ddc9 a53b 7812 3d3e 45ec 9a3d
00000010: 1b65 ee3d ff66 a33d b955 a8bc 5ac2 4fbd
00000020: 60ff 80bd 0c59 02be 9fd1 1d3d 47cf a13d
00000030: 3c36 a13d bc8e 2ebe 0ec4 34be 4718 1a3e
00000040: c5f3 8b3d 7f84 39bd ea16 c3bc 82df 25bd
00000050: 9335 563e 5bce bb3c 2c28 643e 35fa 92bb
00000060: a41c 4a3d f4c2 283e 2ab2 873b d437 bebd
00000070: 3c29 27bd 148a 54be 6ec6 12be 8fac 8bbb
00000080: a60f 603d 6462 01bd a946 f6ba e000 893d
00000090: 0bb8 e03d bd37 8d3c 0e37 5d3d ed89 c3bd
000000a0: b99a 07bc b978 28bd 4939 d03c 06b4 1a3e
000000b0: b249 0a3e ac70 a4bd 2798 1e3d 5fff cdbd
000000c0: cd72 9a3d 4918 903d 6f9c 1c3d 8cea ae3d
000000d0: c199 f33d e521 a33d f5c5 17bc b782 5c3e
000000e0: c764 b8bc cfce ce3b 1cb3 a33d 0ad4 d6bd
000000f0: 70dd 4e3e 0ac2 c13d b018 18bc 9ba1 013d
00000100: cf61 8e3d 3f76 e4bc eb98 7a3d 4a3f 44bd
00000110: dc04 0b3d 82df 93bc f1ea 003e bfc4 26bc
00000120: c8f3 453e 14c7 8bbd e3ff 193d 702f 7f3e
00000130: b550 383e 21e3 383e a1b0 febc 1070 b9bd
00000140: 827d 773e 2d4a 05be e296 65bc bf66 c2bd
00000150: b4a5 b53d 47dc 6e3d b8c0 02be dd05 023e
00000160: 569f 1f3c 2758 cd3d 7999 e6bd 7b83 223e
00000170: 45ad fe3c 0f87 d6bd 5f3a f5bd 44a5 bfbd
00000180: ec19 1b3d 9edb eb3d 9d35 1d3d 6fea 903d
00000190: dbd0 e93d 4aa0 1ebd 6c03 973d 0543 d33d
000001a0: 35bd 353d 3353 1bbd d8da a93d b987 8f3d
000001b0: 57ee eb3d 3988 31bb 35b0 d53c 98ff 0b3d
000001c0: f262 f73d f0c9 27be f0ee bdbc 4b4c 223d
000001d0: 5250 d73c 1ca3 163d 71b9 b43d 2763 373c
000001e0: ad8b c1bd 474d 323d a7ce c83d ddef 103d
000001f0: fbde 073d 81f3 5cbd f4ff d7bc 3350 b1bd
00000200: 7def 323d 03be b33d c8e0 aa3d 1ba6 bebd
00000210: 37dd ad3d 0025 8a3c ff02 333c bcfa b93d
00000220: e8a3 83ba df55 503d 4121 883c 918d 27bd
00000230: 9451 08bd 0f7f 91bd 6c15 283d 1af2 d03d
00000240: e9e3 093e 1e8e 9a3d 1e32 e5bc ceb7 5abc
00000250: 2c2a 16bd 8435 053e 4d15 203c 1a32 06be
00000260: e1df 93bd 9a3c a3bd 29cb 42bb 70aa 583d
00000270: bc29 0a3e 6439 d1bd 2e79 4b3d 74f9 933c
00000280: 4d7c a1bd c6de a3bd d94e 4a3c 57c6 aebd
00000290: 2514 e5bc 2cfe 52bd 1fd6 193d 19f7 fd3d
000002a0: 7f4d 853c 1ebd eebc b364 213d f3d5 32bd
000002b0: e256 21bd 012f e2bc 3923 48be f10e 48bd
000002c0: a515 29bd 46a4 cbbd 27ef fabd 29f5 1abe
000002d0: 8f74 2e3d 4891 10bc 20e4 97bd 7617 3d3d
000002e0: 4cc8 f5bc 3176 033e 6cd8 39bd 6c78 013d
000002f0: 49fc a43d b74c bc3d 136c b5bd 98e9 e23c
00000300: db31 ab3d 06c6 86bc 4131 833c c895 13bc
00000310: ef78 0dbe 718a 753d 6422 7a3d 9c45 823c
00000320: 4c4b b53d 8ffd da3d cc83 b8bc ac1f c7bc
00000330: 550f 9dbd 4ff7 c33d 23cb 0c3e 9538 8fbd
00000340: 3359 ce3c dadc a7bd 0519 e33d 85c6 5e3b
00000350: c0d5 d4bd 266f 46bd 685b 5e3d 9530 3d3e
00000360: d241 69bd 52b9 023d 23a4 25be f999 743d
00000370: 3bbe 78bd 23ff 07be a7e7 debd e8a6 a1bd
00000380: 2bf1 f43d
-0.05835261 0.0050594644 0.18464077 0.07564596 0.11640378 0.07978629 -0.020548688 -0.050722457
-0.06298709 -0.12729281 0.03852999 0.07900863 0.078716725 -0.17046636 -0.17652914 0.15048324
0.06833605 -0.045292374 -0.023814637 -0.040496357 0.20918874 0.022925546 0.2228095 -0.0044853934
0.04934372 0.16480619 0.004141112 -0.09287992 -0.04081081 -0.20755798 -0.14333507 -0.004262514
0.054702424 -0.031587973 -0.0018789369 0.0668962 0.109726034 0.017238492 0.054007582 -0.09547792
-0.008276635 -0.041130755 0.02541794 0.15107736 0.13504675 -0.08029303 0.038719323 -0.10058474
0.07541428 0.07035882 0.038235124 0.0854083 0.118945606 0.07965449 -0.009263505 0.21534239
-0.022508992 0.0063112746 0.07993147 -0.10489662 0.20201659 0.09460838 -0.00928323 0.03164826
0.06952249 -0.027888415 0.06118099 -0.04791192 0.03394018 -0.018050913 0.12589623 -0.010178744
0.19331276 -0.068250805 0.03759755 0.2492044 0.17999537 0.18055393 -0.031090083 -0.09054577
0.24168971 -0.13016577 -0.014013024 -0.094922535 0.08869496 0.05831554 -0.12768829 0.12697549
0.0097425785 0.10026579 -0.11259741 0.15870468 0.03108848 -0.10474979 -0.11974024 -0.09357694
0.037866518 0.11516498 0.038381208 0.07075965 0.11416789 -0.038727082 0.073736995 0.10315517
0.044369895 -0.03792114 0.08293694 0.07008309 0.11520069 -0.0027089252 0.026084999 0.0341793
0.12079419 -0.16385627 -0.023185223 0.03962354 0.026283417 0.036776647 0.08824433 0.011193073
-0.09450469 0.04353073 0.09805041 0.035385 0.033171635 -0.05394316 -0.026367165 -0.08657875
0.043685425 0.08776476 0.08343655 -0.09309026 0.08489459 0.016863346 0.010926007 0.09081027
-0.0010043355 0.050863143 0.01661742 -0.040906493 -0.033280924 -0.07104313 0.041036054 0.10202427
0.13465847 0.07546638 -0.027978 -0.0133494865 -0.036661312 0.13008696 0.0097707035 -0.1310505
-0.07220436 -0.07970543 -0.0029723144 0.052896917 0.13492483 -0.102160245 0.049676113 0.018063284
-0.078850366 -0.08001475 0.0123479 -0.08533924 -0.027963707 -0.05151193 0.037557717 0.12400646
0.016272305 -0.029142912 0.039402675 -0.04366107 -0.0393895 -0.027610304 -0.19544686 -0.048842374
-0.041280407 -0.09943442 -0.12252646 -0.15132584 0.042591628 -0.0088237 -0.07416558 0.046164952
-0.030002736 0.12838055 -0.04537241 0.031608984 0.08055932 0.0919432 -0.08858504 0.027699277
0.083591186 -0.016451847 0.016014697 -0.009007879 -0.13815664 0.05994648 0.061067954 0.015902333
0.08852252 0.10692894 -0.022523783 -0.024307095 -0.0766894 0.09568655 0.13749366 -0.06993214
0.025189018 -0.08196421 0.110887565 0.0033992839 -0.10392332 -0.048445843 0.05428639 0.18475564
-0.056947537 0.031915016 -0.16175894 0.059717152 -0.060728293 -0.1328092 -0.10884028 -0.07893163
0.11960062

layer1.bias f4 [25]
00000000: db77 6bbe e837 ab3d 0890 4ebc 8498 213e
00000010: 0f22 5a3e 373b 9d3d b574 4b3e 482e 563e
00000020: c340 243e 84ae 4cbd c476 1b3e 30ea 33be
00000030: dbb2 7f3e 356b 083e 3173 a03e 5435 323e
00000040: 3e30 b23d 9290 423e dcd9 863e 695d 9abe
00000050: 960f b43d a46b 8e3e 8278 0bbc 57da 92be
00000060: 6316 9cbe
-0.2299494 0.08360273 -0.012607582 0.15780836 0.21302055 0.0767731 0.19868739 0.20916092
0.1604033 -0.04997112 0.15182024 -0.17569804 0.24970572 0.13322146 0.31337884 0.17403156
0.08700608 0.19000462 0.2633809 -0.3014939 0.08792035 0.27816498 -0.008512618 -0.28682205
-0.3048583

layer2.weight f4 [50, 25, 3, 3]
00000000: 6325 5bbd 6939 efbc d3c4 2b3c 8ed3 7b3c
00000010: 4b9e 7bbc 7c17 823c ca10 963d 4c3d 2ebd
00000020: 3a8f dc3c a6b5 753d 66be 3ebc df6b 3a3d
00000030: ab9e a5bc 5c55 9d3c 5040 6b3d 734f 883c
00000040: c3db b7bc 3fef 4bbc fa13 18be 9ea3 60bd
00000050: f9cc ad3d 7a0e 19be c508 c03c 8c20 443d
00000060: 98a6 463d 91b3 d539 2f52 6dbb 6615 c9bd
00000070: 7af2 80bc da3f 83bd 25a7 363d d18b 9ebc
00000080: c2ae 96bc 99d9 2ebc dd50 f33b c04f bbbd
00000090: 31f1 23bd d45f a63d f285 5dbd dd4b e33c
000000a0: 7b7e 383d 2e03 e6bd 3150 043d c7da 6b3d
000000b0: b302 463d 89a9 e3bb 9d98 243c 8bcb a0bd
000000c0: 0134 4cbd d5c9 9fbb 6c53 b83c 7cbf 0c3c
000000d0: 149b bf3d 678b 283c 4866 803d 949b fabc
000000e0: 4614 3e3c 2d8e 6f3d df3c e8bc 0a5d 173c
000000f0: 787f 163c f770 02bd 88ea 06bc 8dba 2bbd
00000100: 6cfa 483b fb4d bd3d 5476 a9bc 606d b33b
00000110: 2702 bebd dd37 b8bd bd50 883d 020c 14bd
00000120: 9fc9 93bc c6ef abbd f4b5 51bd 4fdf 58bd
00000130: eaad 84ba dca9 a13d 138a 8b3c 5759 8cbb
00000140: cdb9 f4bd 2ad7 603d 95b8 50bd c801 993b
00000150: 3737 79bd 2c04 a9bd 7534 58bd ed00 693c
00000160: 59ea 023d 3e24 0dbd 6a59 543d 30ae 5b3d
00000170: 00cd 8abd 2a52 92bd ffe8 94bd 8766 b6ba
00000180: 6360 04bc 80e5 bcbb 0348 143d ebd7 65bd
00000190: 27d8 6a3d 7452 d53c fcce 3f3d 1b2c b63d
000001a0: 25ae c63c cec3 77bb 4a14 993c 697f 2d3d
000001b0: 8993 3d3d 9643 8a3d 96f6 173d 14a2 0e3c
000001c0: ff31 dbbb 1b48 aabd ebf3 9a3c 9bf6 e0bc
000001d0: 6fec 213d 843d 993c 4bc3 b13b f3df 2f3d
000001e0: f19d bcbc 4bb0 5d3d fd19 ee3c 604b 32bc
000001f0: 0895 1a3d b4f9 943d 91dc 85bd 1a59 003d
00000200: 7158 f3bb 975b 583d 79dc aabd ddcc 963d
00000210: 46ae 47bd 6305 543d b2be d53d f1eb 7dbc
00000220: 322b 28bc a1bc 86bd 921a f4bc e2cc 17bd
00000230: 4c9a 3abc 81b3 363c 7b18 6abd 17ba 503d
00000240: 9514 6b3d e1de 77bc dd8f ae3c d761 23bd
00000250: 90b9 b13d eec4 8f3d 3f85 313d 924a ba3d
00000260: de01 053d 986b cebb fe26 643b 3376 36bd
00000270: 2497 8a3c c62e c73b fe5a cc3d df48 4d3d
00000280: e726 46bd ba3c 29ba 9de0 f93c 7649 6abd
00000290: 4263 22be 8a77 b7bd 3a18 693c 255d cdbc
000002a0: c2df e63d 97d2 06be 1855 983c 8b94 ac3d
000002b0: 8d6c 74bd 3ff9 3ebd 4a5e d33a 3aea 533c
000002c0: effe ecbd a9cf 0b3e ac52 813c ad18 27bd
000002d0: 7b6e 2cbd dbb1 6abd 8e7d 953c 3108 dabc
000002e0: c17b 70bc 6627 043e d137 12bc bbc4 be3d
000002f0: 3f2f 75bd a17f c33c 4446 463d d0c9 c4bc
00000300: 20d1 f93c 6f5d 2e3d b200 ed3d 3c75 03bd
00000310: 7679 91bd 7668 c1bc e362 d73d 748d d4bd
00000320: 9589 9ebc f8ea 84bd dffb c53b ef47 6a3a
00000330: fa04 84bc bc7f 42bb 1bc9 003d 4916 92bc
00000340: b0b0 01bc b6ba a1bd cb4b 903d 803c 113d
00000350: dd9c 003d dab1 24bd 6f3d f03c 5a6e b1bd
00000360: 7663 973b 3b76 d23d c955 113d c60b 1fbd
00000370: 4f77 10bd c216 95bd ce8a b93c 71c6 2bbc
00000380: 3e6c aebc 4055 31bd 6feb dd3c 8bb1 7cbd
00000390: 83e5 f43d 46fe 3f3d 6527 d23d a66b 58bd
000003a0: 3a7d a23d 5a80 81bc e31c ccbc 899c 4cbc
000003b0: 5e79 7b3d 2352 4d3d 0e07 623c 8fdd 823d
000003c0: a148 62bb f77a 43bd 560b 2fbb f1f1 85bc
000003d0: f265 cb3d 4e7c a5bd 5a1a 003e e093 933d
000003e0: 02a0 033d 8496 033d 4b5f 9f3c 342e b6ba
000003f0: 0ead 3a3c 72da d8bb 8a93 85bd e7dd e53c
-0.05350245 -0.02920218 0.010483938 0.015370263 -0.015357564 0.015880339 0.07327421 -0.042538926
0.026923764 0.059987687 -0.011642074 0.04551303 -0.02021726 0.019205742 0.05743438 0.016639447
-0.022443658 -0.012447177 -0.1485137 -0.054843538 0.08486361 -0.14946929 0.023441682 0.0478826
0.04849872 0.00040760313 -0.0036212315 -0.098185346 -0.015740622 -0.06408663 0.044592995 -0.019353779
-0.018393878 -0.0106719965 0.007425411 -0.091460705 -0.04002494 0.081237465 -0.05408282 0.027746135
0.045042496 -0.11231075 0.03230304 0.05758169 0.048342418 -0.0069477004 0.0100461515 -0.07851323
-0.049854282 -0.004876355 0.022500716 0.008590575 0.09355751 0.010287142 0.062695086 -0.030591764
0.011601513 0.0584852 -0.028349338 0.009238491 0.009185664 -0.031846013 -0.008234628 -0.041925956
0.0030666841 0.09243389 -0.020686306 0.005475685 -0.09277754 -0.0899503 0.066560246 -0.036144264
-0.018040476 -0.083953425 -0.051198915 -0.05294734 -0.0010122631 0.07893726 0.017033612 -0.004283111
-0.11949501 0.054892696 -0.05095728 0.004669402 -0.060843673 -0.08252749 -0.052784402 0.014221412
0.031961773 -0.03445839 0.051843084 0.053632915 -0.06777382 -0.07144578 -0.07271003 -0.0013916054
-0.008079621 -0.005764663 0.03620149 -0.05611412 0.057335045 0.026040293 0.046828255 0.08895131
0.02425296 -0.0037805918 0.018686432 0.042357836 0.04628328 0.06751172 0.037100397 0.008705635
-0.0066893096 -0.08314534 0.018915137 -0.02746134 0.03953212 0.01870609 0.005424892 0.042938184
-0.023024531 0.054123204 0.029065127 -0.010882229 0.037739784 0.072741896 -0.0653621 0.031334974
-0.0074263145 0.052821722 -0.08342833 0.07363293 -0.048750184 0.05176295 0.10436763 -0.015498147
-0.010264205 -0.06578947 -0.029797826 -0.037060626 -0.011389326 0.0111511955 -0.057152253 0.05095872
0.057392675 -0.015128822 0.021308834 -0.03988823 0.08677971 0.07019983 0.043339964 0.090962544
0.032472484 -0.0062994473 0.003481328 -0.044546317 0.016917773 0.006078574 0.09978293 0.050118323
-0.048376944 -0.00064558873 0.030502612 -0.057198964 -0.15858176 -0.08958347 0.0142269675 -0.025068829
0.11273147 -0.13166271 0.018595263 0.0842677 -0.059673835 -0.04662442 0.0016126123 0.012934262
-0.11572062 0.13653435 0.015786491 -0.040795017 -0.04209755 -0.057298522 0.018248346 -0.026615234
-0.014677943 0.12905654 -0.0089244405 0.09314867 -0.05985951 0.02386457 0.048406854 -0.024022013
0.030495226 0.042569574 0.11572398 -0.032094225 -0.07103245 -0.023609381 0.10516908 -0.103785425
-0.019352714 -0.06490129 0.0060419883 0.00089371105 -0.016115654 -0.0029678186 0.03144179 -0.017832892
-0.007915661 -0.078969404 0.07045706 0.035458088 0.031399596 -0.040208675 0.029326169 -0.08663626
0.004620011 0.10276457 0.0354822 -0.038829587 -0.03527003 -0.07279731 0.022649195 -0.010484324
-0.021291848 -0.04329419 0.027089803 -0.061692756 0.119578384 0.046873353 0.1026142 -0.052837037
0.07934041 -0.015808273 -0.024916118 -0.012488493 0.06139504 0.05012716 0.013795627 0.06389915
-0.0034528153 -0.04772469 -0.0026709638 -0.016350718 0.09931554 -0.0808035 0.12510052 0.07205939
0.032135017 0.032125965 0.019454619 -0.0013899268 0.0113937985 -0.0066178376 -0.065222815 0.028059913

layer2.bias f4 [50]
00000000: d8bc 7bbd 4c36 88bd 8991 89bd ca22 3a3b
00000010: bc0f e7bc a149 00bc 35c7 0e3d d00c 973d
00000020: 740d 193d 3f64 66bc a331 e1bc cbdc 243d
00000030: e408 8f3b a549 09bd 3553 ecbc 0498 c03c
00000040: d23c 4ebd d94d c43c 399c 293d a09e 7a3d
00000050: 1810 90b9 f76e 1bbd 784d 763c 36a2 143c
00000060: 768d 833d 578f 4ebd 0358 643d b306 12bd
00000070: 56c2 dd3c 8c8d 1cbc 69ec 0dbd 7102 b2bc
00000080: b3ed b73c 5308 70bd 64d6 20bc 22cf 3bbd
00000090: 5401 6c3c 7fe6 363d c080 1e3d d225 7dbd
000000a0: 4e0f 8ebd a8c5 45bc 40a0 5bbc 1755 803d
000000b0: bbf0 4dbd c267 f53c 08c4 ce3b 297c 70bc
000000c0: cc4a 623d 74ca 69bc
-0.061459392 -0.06650981 -0.06717212 0.0028402084 -0.028205745 -0.0078300545 0.034857947 0.07375491
0.037366346 -0.0140619865 -0.027489489 0.040249627 0.0043650735 -0.0335175 -0.02884827 0.023509987
-0.05035097 0.023962902 0.04140875 0.061186433 -0.0002747781 -0.03794762 0.015033118 0.009071877
0.06423466 -0.05042967 0.055747997 -0.03565092 0.027070206 -0.009555232 -0.034649286 -0.02172968
0.022452211 -0.05860169 -0.00981674 -0.045851834 0.0144046135 0.044653412 0.038697004 -0.061803646
-0.06936513 -0.012071051 -0.013404906 0.062662296 -0.050278407 0.029956702 0.00630999 -0.01467804
0.055247113 -0.01426946

layer4.weight f4 [25, 50, 3, 3]
00000000: ca1d 303d 9086 a33d efaf 023c 73a1 45bd
00000010: db63 403d 8e92 bbbc 96d4 7d3d e53a 81ba
00000020: 1e2a 0fbd a037 3d3d 6288 1d3d 1766 cc3c
00000030: 412b 7dbd 7155 d03c 7189 fd3b 5b08 8d3c
00000040: 8cec cd3d a702 973c 0ddd e3bc 2a60 323d
00000050: 13bd 883d 9846 6ebd 8ac1 86bd 13bc c03d
00000060: 7e97 8d3d 4286 86bd f4ef c9bd 6129 583c
00000070: 371f 253d 6026 dfbd a50b bc3d 714d 863d
00000080: 6253 103d 74c9 293d c4a4 4d3c 05a5 1d3e
00000090: 48e4 efbc ed7a 9e3d d3f0 9bbd 2c61 82bd
000000a0: 9a91 17bd 64d9 8ebb 5d6a 6d3d c49f 01be
000000b0: a05e a5bd 2daa 523d 486b 8bbc 529f 7abb
000000c0: e5d6 843b 8f99 df3d 6cd8 62bd 2e7c af3c
000000d0: 6f1e 333d 08f3 be3c 039e 903d b6fb 6d3d
000000e0: 0678 7cbd 1658 8bbc 1788 acbd aac1 41bd
000000f0: 13d8 bebc 21f1 a3bd 84f4 0a3c 0593 bf3d
00000100: bfb2 813c fe48 eebd 3e4d 1bbe b2ce 9abc
00000110: 4b49 873d 6133 4f3b 4a1a a2bb 70e1 95bd
00000120: 4a63 6abc 5cc1 8f3c 2ced 353d 0923 8e3d
00000130: 8730 c7bc 0e6e d23c e52a 2fbd 5064 003d
00000140: 7373 d13c c87c aebc e15e b73c cfc7 623d
00000150: 0e72 6bbb b0c6 163c 88af 883d d861 303c
00000160: 6aa3 6fbd 567f 0ebd b7ac 36bc 1c27 bb3c
00000170: dd96 0b3d 0752 56bd 5c9d fdba 7258 443c
00000180: 51fa 2ebd dfb5 38bd c2b9 253e dab6 81bc
00000190: e352 c33d 3e84 23bc 6b67 2a3d e64c 0f3d
000001a0: 941f 80bc 8eb5 87bc 3a65 853d 1aa8 213d
000001b0: 1ebc 73bd dd18 9fbb 460d d7bb 7f04 333c
000001c0: 2776 f13d 783f a2bd 9199 483d ab0f 213c
000001d0: f0c5 cd3c 4dfe 1cbd c0cd 5fbd f549 9bbd
000001e0: 5bdd 9b3b 0027 bf3a 2ec6 43bb aa44 4fbd
000001f0: 5f60 9abc 8342 cabb 4aba 8abd b9fd 02bd
00000200: 1568 193d 93cf bc3c a203 383d 10d6 c73d
00000210: e781 53bd d826 2d3c 69c2 7a3d 78ef 8dbc
00000220: c0ad 773d 0f6e 143d 063a 943d 224d 1e3c
00000230: edfa 2bbd 9439 d03b db03 1cbd 7f17 e33c
00000240: e810 47bd 537d 2f3d 19e0 8cbd 6b67 793d
00000250: 768b 20bc e675 29bd bd7a 99bd ff9c 99bd
00000260: 9a4b a0bc 5a1c f6bb 45f3 a3bd e94c fcbb
00000270: 4d94 71bd a63d bd3b 11fa acbc 2f33 bbbd
00000280: 00a0 6e3d ff66 90bd 8005 81bd 3ffa 003d
00000290: 4148 d93a e208 08bd 1051 8bbc eca9 a93d
000002a0: fbe5 9f3d fa42 143d d47c 3bbd 3e81 983d
000002b0: 8995 e43c 13d9 84ba 2eed ecbb a94e 2a3d
000002c0: cff8 9b3d 2766 193d f216 533c d629 4dbb
000002d0: c708 8ebd fc87 0c3b 4acb 0c3d 316d 383d
000002e0: 5411 e13c 5b19 c1bc d612 d53d ac5b bebb
000002f0: 0e2b bcbd 09cf 3a3d 01ab 2d3d 9a11 ebbd
00000300: af4a 47bd d96c 23bd 5e50 c5bc 0452 88bd
00000310: 1d46 6a3c 4438 ce3d 2a63 e0bd f7bb 24bd
00000320: 7eba c6bc b8cb 3cbd e530 94bd 8d2c 1b3d
00000330: 10b8 8d3d 5855 6cbd d730 3d3c 0a8a e7bb
00000340: 123e 873d 2aab 8dbc ceee fdbd 20fb a23d
00000350: 5710 a5bc 1dd2 2cbd 4844 20bc 5adf b93d
00000360: 93a6 3bbd 471a 88bd 1520 293d 7ad5 cb3c
00000370: d735 8dbb d51c 723c 4bb6 f43c 1557 d43d
00000380: ff4a db3d 5054 b03b 946e dcbb d6ba 81bd
00000390: 864c 713d 6a7c eabc 2f3d 83bd 5682 d0bc
000003a0: 15b7 803a a965 293d 85d1 0f3e ea04 1fbd
000003b0: 4897 72bb 005f 703d aa8b a2bd 8556 deba
000003c0: 940b 183d 61bf dfbc 85bb 70bd 8fe8 1bbd
000003d0: 0b8e 4abd 21ea 863d d75d f53b 8292 e93c
000003e0: 6989 adbd ae77 bb3c dd6f bdbd 4834 373c
000003f0: 3027 1fbd ae08 81bd 086e 96bd 6a9e 98bc
0.04299716 0.0798465 0.007976516 -0.048249673 0.04697023 -0.022897031 0.061970316 -0.0009859471
-0.034952275 0.046195626 0.038460143 0.024951024 -0.06180883 0.025431367 0.0077373316 0.017215898
0.10054883 0.018433882 -0.027815366 0.04354874 0.06676688 -0.058172792 -0.065798834 0.09410872
0.069136605 -0.065685764 -0.098602206 0.013193459 0.040312972 -0.10895991 0.091819085 0.065577395
0.03523577 0.041451886 0.01255149 0.15394981 -0.029283658 0.0773829 -0.07614293 -0.0636619
-0.03700409 -0.004359411 0.057962764 -0.12658602 -0.08074689 0.051431824 -0.01701893 -0.0038241935
0.0040539377 0.10917961 -0.055382177 0.021421518 0.043730196 0.023309246 0.07061388 0.05810138
-0.0616379 -0.017009776 -0.084243946 -0.047303833 -0.023296392 -0.08004976 0.008481149 0.093542136
0.015832303 -0.11635016 -0.15166184 -0.018897388 0.066057764 0.0031616318 -0.0049469816 -0.073183894
-0.014305899 0.017548256 0.044415638 0.06940276 -0.024315132 0.025687244 -0.042765517 0.031345665
0.025567746 -0.021299735 0.022384109 0.055366334 -0.0035926136 0.009202644 0.06674105 0.010765515
-0.058505453 -0.034789406 -0.011149577 0.022845797 0.03407942 -0.05232432 -0.0019349265 0.011983978
-0.04271919 -0.04509532 0.16184142 -0.01583426 0.09537294 -0.009980259 0.041602533 0.034985445
-0.015640058 -0.016566064 0.06513448 0.039466955 -0.059505574 -0.004855259 -0.0065628616 0.010926365
0.11790114 -0.07922262 0.048974577 0.009830396 0.025118798 -0.038328458 -0.054639578 -0.075824656
0.0047566122 0.0014583766 -0.0029872763 -0.050602593 -0.018844781 -0.0061724796 -0.06773813 -0.03198025
0.037452776 0.023048198 0.04492534 0.09757626 -0.051637556 0.010568343 0.06122056 -0.017326102
0.060468435 0.036237773 0.072376296 0.009661945 -0.04198735 0.00635452 -0.038089614 0.027721165
-0.048600107 0.042844128 -0.06878681 0.060889643 -0.009798875 -0.041372202 -0.074941136 -0.07500648
-0.0195673 -0.007510704 -0.08005384 -0.007699598 -0.05897932 0.0057751713 -0.021115335 -0.09140622
0.058258057 -0.07050895 -0.06299877 0.031488653 0.001657732 -0.033211596 -0.017006427 0.08284363
0.07807537 0.036196686 -0.045773342 0.07446526 0.027903335 -0.0010135494 -0.0072304225 0.041578922
0.07615816 0.037450936 0.012883889 -0.0031305454 -0.06935268 0.0021443358 0.03437356 0.045026008
0.027474083 -0.02357166 0.10403983 -0.005809268 -0.091878995 0.0456076 0.04239941 -0.114779666
-0.04865521 -0.039898727 -0.024086174 -0.06656268 0.014298943 0.100693256 -0.10956414 -0.04021832
-0.024258848 -0.04609272 -0.072358884 0.037884284 0.06919873 -0.057698578 0.011547289 -0.007066016
0.06603636 -0.017293531 -0.12399064 0.079580545 -0.020149393 -0.042192567 -0.0097819045 0.09075804
-0.045813154 -0.06645637 0.04129036 0.024882067 -0.0043093967 0.014777382 0.02987208 0.10368172
0.10707664 0.0053811446 -0.006727049 -0.06334464 0.05891087 -0.028623778 -0.06408154 -0.025452774
0.0009820188 0.041356716 0.14044769 -0.038823046 -0.003701644 0.05868435 -0.07936795 -0.0016963041
0.037120417 -0.027312936 -0.058772583 -0.038063582 -0.04945187 0.06587625 0.007487993 0.028512243
-0.084734745 0.022884216 -0.09249852 0.011181898 -0.03885573 -0.06300484 -0.073452055 -0.018630225

layer4.bias f4 [25]
00000000: 8c01 dcbc c505 2fbd a6d6 76bc bf56 05bd
00000010: 6d69 05bd 5117 04bd 315f 2fbd a12e dbbc
00000020: 0fdc 9dbc 2bd1 c6bc 30f3 fd3c 509a 26bd
00000030: bb01 b7bb 5222 5cbb b9bc 993c 6560 733c
00000040: 37ad 52bd 8f67 3a3d 847f ffbc 1563 b3bc
00000050: 7e18 453c 9d1e 163d 74ab 02bd df09 f6bb
00000060: 5504 fe3c
-0.026856206 -0.04273011 -0.015065825 -0.03255343 -0.032571245 -0.0322488 -0.04281539 -0.026755633
-0.019269971 -0.024269661 0.03099975 -0.040674508 -0.005584923 -0.0033589792 0.018766748 0.014854525
-0.05143472 0.045508917 -0.031188734 -0.021897832 0.012029765 0.03665029 -0.03190179 -0.007508501
0.031007925

exp_avg f4 [25, 1, 3, 3]
00000000: d00c 01c7 72cd 25c7 3c1f 1bc7 dcd1 0fc7
00000010: fcf1 30c7 f4bd 1ec7 4d78 fbc6 4e3b 1ac7
00000020: a68a 00c7 e958 c946 640f 1347 4467 2147
00000030: e40f f746 dfde 2147 7aad 2747 7055 f146
00000040: c51f 1447 d1c3 1047 18fd 73c7 d007 95c7
00000050: 3b55 98c7 befd 55c7 1627 87c7 7a95 8dc7
00000060: 7257 15c7 968c 4ac7 bc13 5ac7 d64d 7a47
00000070: 563c 8347 f8c4 5947 18bd 8347 e705 8747
00000080: c61c 5947 36c0 6447 96e8 6047 8879 2747
00000090: 1884 57c7 f363 6ac7 0e75 5ac7 779f 5fc7
000000a0: f845 79c7 8fc9 6bc7 04c8 44c7 0858 61c7
000000b0: ff25 58c7 b478 87c7 38d5 b2c7 f411 c2c7
000000c0: 1da1 9ec7 95ab cac7 3831 d6c7 422c 97c7
000000d0: be2b bdc7 e6c5 c3c7 3b1b 17c7 6cf7 48c7
000000e0: 8ae9 58c7 6885 44c7 535c 83c7 d4ee 8dc7
000000f0: a071 53c7 fbca 8ec7 a2a0 9bc7 a7bf bdc6
00000100: dbd8 07c7 6766 0ac7 c6d9 05c7 04ee 23c7
00000110: 8e71 14c7 a333 20c7 2dbf 2dc7 53dc 0dc7
00000120: f65c 61c7 f0f1 86c7 6dcd 84c7 735d 79c7
00000130: 2d40 87c7 0585 6fc7 9ffe 6dc7 6f8b 6bc7
00000140: 3034 33c7 9625 18c6 74f8 a2c6 bd61 bac6
00000150: 24de cdc6 bb45 20c7 8274 30c7 42a8 05c7
00000160: 36c3 45c7 2590 56c7 58a3 0047 4e43 3a47
00000170: d730 3c47 4e24 0e47 cee8 4547 ae3e 4447
00000180: be36 0e47 9d0e 4447 83a9 3c47 2870 2cc7
00000190: 34dd 30c7 3e6d 00c7 157d 69c7 e483 5bc7
000001a0: 462f 13c7 6cbe 77c7 3539 59c7 964b 01c7
000001b0: 7816 03c7 6aa4 16c7 af9d 0dc7 472b e6c6
000001c0: 41cc f6c6 d213 d2c6 3e12 acc6 e809 a3c6
000001d0: a07e 4ec6 a1e2 2fc7 24ea 52c7 ec65 65c7
000001e0: 1222 2dc7 34bd 62c7 40c6 81c7 a4d0 0ec7
000001f0: 006a 55c7 6839 82c7 646f bc45 5e56 0d46
00000200: d1ed 6646 eae7 a4c5 9804 ffc4 b731 8845
00000210: b9a4 6bc6 6e22 34c6 d24b 54c5 218e f3c6
00000220: 090d 0cc7 2896 fdc6 5026 22c7 1a98 24c7
00000230: 6efd 02c7 b034 3ac7 911d 2dc7 eaee f1c6
00000240: cf2b 19c7 f4f6 f5c6 f11b a3c6 69c2 8cc6
00000250: 89b5 7ac6 fcde 46c6 e45e 1845 a06d 8bc4
00000260: 1389 a3c5 ee10 4b47 f695 5f47 034e 5347
00000270: 42bc 5f47 e617 6c47 420e 5747 1451 4947
00000280: b1a8 4d47 b0f7 3147 2029 9a46 9941 0047
00000290: 9a04 1947 e6fe 7246 1ffd e146 120c 0c47
000002a0: 9c26 f245 0577 9d46 d2b4 d346 d43b 6247
000002b0: a334 8747 946c 7e47 3352 7b47 11c6 8d47
000002c0: 80c2 7947 4ed6 7947 3464 8447 70f1 5547
000002d0: a69a 32c7 2a97 5ec7 26ac 60c7 04e5 48c7
000002e0: 9a73 6dc7 b670 60c7 fa11 48c7 c85e 61c7
000002f0: 9c04 4ac7 a4c6 9c46 7d2c ac46 f477 9846
00000300: 4c75 0047 a07b 0d47 34eb 0147 cae6 1247
00000310: c837 2647 120d 1e47 b6ae 89c7 fad0 8fc7
00000320: 35eb 77c7 60c7 76c7 7ca6 71c7 76d7 3cc7
00000330: a0a8 3cc7 3604 24c7 ea22 cbc6 7c78 55c7
00000340: f36a 67c7 b866 48c7 9657 55c7 1214 61c7
00000350: d284 38c7 e3e1 32c7 1514 36c7 59df 06c7
00000360: 6ae9 4746 24e5 9946 2495 b246 b266 c346
00000370: 3e01 f946 a0fc 0247 cc9c 0947 5cfe 2447
00000380: af48 2647
-33036.812 -42445.445 -39711.234 -36817.86 -45297.984 -40637.953 -32188.15 -39483.305
-32906.65 25772.455 37647.39 41319.266 31623.945 41438.87 42925.477 30890.719
37919.77 37059.816 -62461.094 -76303.625 -77994.46 -54781.742 -69198.17 -72490.95
-38231.445 -51852.586 -55827.734 64077.836 67192.67 55748.97 67450.19 69131.805
55580.773 58560.21 57576.586 42873.53 -55172.094 -60003.95 -55925.055 -57247.465
-63813.97 -60361.56 -50376.016 -57688.03 -55333.996 -69361.41 -91562.44 -99363.91
-81218.23 -103767.164 -109666.44 -77400.516 -96855.484 -100235.8 -38683.23 -51447.42
-55529.54 -50309.406 -67256.65 -72669.66 -54129.625 -73109.96 -79681.266 -24287.826
-34776.855 -35430.402 -34265.773 -41966.016 -38001.555 -41011.637 -44479.176 -36316.324
-57692.96 -69091.875 -67994.85 -63837.45 -69248.35 -61317.02 -60926.62 -60299.434
-45876.188 -9737.396 -20860.227 -23856.87 -26351.07 -41029.73 -45172.508 -34216.258
-50627.21 -54928.145 32931.344 47683.305 48176.84 36388.305 50664.805 50238.68
36406.742 50190.613 48297.51 -44144.156 -45277.203 -32877.242 -59773.082 -56195.89
-37679.273 -63422.42 -55609.207 -33099.586 -33558.47 -38564.414 -36253.684 -29461.639
-31590.127 -26889.91 -22025.121 -20868.953 -13215.656 -45026.63 -53994.14 -58725.92
-44322.07 -58045.203 -66444.5 -36560.64 -54634.0 -66674.81 6029.924 9045.592
14779.454 -5276.9893 -2040.1436 4358.2144 -15081.181 -11528.607 -3396.7388 -31175.064
-35853.035 -32459.078 -41510.312 -42136.1 -33533.43 -47668.688 -44317.566 -30967.457
-39211.81 -31483.477 -20877.97 -18017.205 -16045.384 -12727.746 2437.9307 -1115.4258
-5233.1343 51984.93 57237.96 54094.01 57276.258 60439.9 55054.258 51537.08
52648.69 45559.688 19732.562 32833.598 39172.6 15551.725 28926.56 35852.07
7748.826 20155.51 27098.41 57915.83 69225.27 65132.58 64338.2 72588.13
63938.5 63958.305 67784.41 54769.438 -45722.65 -56983.164 -57516.15 -51429.016
-60787.6 -57456.71 -51217.977 -57694.78 -51716.61 20067.32 22038.244 19515.977
32885.297 36219.625 33259.203 37606.79 42551.78 40461.07 -70493.42 -73633.95
-63467.207 -63175.375 -61862.484 -48343.46 -48296.625 -41988.21 -26001.457 -54648.484
-59242.95 -51302.72 -54615.586 -57620.07 -47236.82 -45793.887 -46612.082 -34527.348
12794.354 19698.57 22858.57 25011.348 31872.621 33532.625 35228.797 42238.36
42568.684

exp_avg_sq f4 [25, 1, 3, 3]
00000000: a348 8f4f 1fad 924f a600 7d4f b59c 9b4f
00000010: 266c a44f a92e 904f ba1d 924f c215 9e4f
00000020: 5d29 8d4f 8268 8d4e d673 934e 56aa 8e4e
00000030: 2c35 cb4e 11e5 d34e 61e3 c34e c2f6 f44e
00000040: 0972 fb4e 341a e04e 493e 3950 22aa 5b50
00000050: b1af 5c50 8f81 1b50 19b0 4350 7c03 5150
00000060: 993c d84f 9cd1 1050 56f2 2450 7072 224f
00000070: 4745 394f 7152 134f c2c0 444f b229 634f
00000080: 1ad8 374f 6bee 2a4f fcc6 434f c80d 1f4f
00000090: 9d11 224f b532 3a4f 1cd3 2a4f 4bbf 1c4f
000000a0: 6f1b 444f 93c0 3f4f 1675 e94e 5d4d 204f
000000b0: c4ce 284f 1692 9150 8c35 af50 df34 b450
000000c0: f115 9850 f710 bd50 3c22 c650 2edd 8450
000000d0: a4dc a850 7635 b450 0b97 3950 00ba 5d50
000000e0: 6f6d 6750 99e8 5050 2cba 8350 51b1 8e50
000000f0: 5ed4 5050 a782 8950 0e2f 9a50 5220 ce4e
00000100: 875b 014f df28 f84e 21bc 154f 9d3c 324f
00000110: 35f1 1e4f bd7b 394f bd21 4e4f 05b1 2c4f
00000120: 21a3 af4f 5a6b b74f 2c91 984f acf6 e64f
00000130: dc2c e94f 36c7 ba4f 6cc9 fe4f 2119 fc4f
00000140: 7199 c54f 26af 9c4f 0640 e54f 8d8b 1050
00000150: 0666 884f 8a19 dd4f fdfe 1250 8946 5a4f
00000160: 44ba c24f 564a 0750 5724 324f a670 5b4f
00000170: df5b 544f 7319 514f 94ac 824f 9f51 7e4f
00000180: de0e 624f eff2 8e4f 09c2 8a4f a9e8 704f
00000190: 90f9 2d4f 9932 b34e 8ff4 d04f 15e4 9c4f
000001a0: db84 234f e429 0850 a8f2 d24f e47b 694f
000001b0: a30d f04f 10cc e44f 988c bc4f f3a6 0b50
000001c0: 337f 0450 d8a7 d84f eead 1150 e45a 0a50
000001d0: 2c39 e24f 8092 bd4f fe38 0050 d37b 1850
000001e0: 073f ad4f 1c72 f84f 9d23 1b50 84be 844f
000001f0: a62f cb4f ca36 0750 6114 924e 5c2f 804e
00000200: 263b 594e a9c0 664e 2f19 504e d5fc 2d4e
00000210: 2a0b 554e 1afa 474e edd7 254e 5b56 9f4f
00000220: eecc 9a4f e815 764f 978b c04f 35d8 b34f
00000230: 1535 884f 0fb2 c84f 68d8 b44f a02f 834f
00000240: 0506 9e4f 3ed2 8c4f 474a 5c4f 4070 964f
00000250: 5109 904f 4930 764f d55f 8a4f 2580 8a4f
00000260: b840 7d4f 50f2 b94e b785 e74e d38f eb4e
00000270: 8e70 d44e 4fb3 fe4e d90e f44e 5844 ca4e
00000280: 0d39 e94e 8303 d24e a345 954f 50ab d84f
00000290: b196 0650 0cde 824f 181a c24f 50df f84f
000002a0: 1396 4a4f 1e03 964f d696 c54f 4b45 2650
000002b0: b602 2d50 a3f6 1150 4984 4650 81a6 4f50
000002c0: f263 2e50 3300 4d50 a2d5 5550 0650 3250
000002d0: 1b0e 274f c155 3f4f ded4 2d4f 88a7 2b4f
000002e0: bc1b 414f 13e4 244f 38ea 1b4f 504d 2a4f
000002f0: 3c91 0a4f 94c5 274e f21c 2e4e e841 1a4e
00000300: a175 634e b77d 864e 4288 7e4e 9c81 7d4e
00000310: a9c9 a74e 745b ae4e 8198 e14f 3c4f da4f
00000320: 6393 ac4f 99f6 de4f f3c6 d44f 1f1d a94f
00000330: e953 c44f 5654 bb4f ec0f 9b4f e757 834f
00000340: 11b4 814f cca4 4f4f 63b7 8b4f 76cf 8d4f
00000350: c776 6a4f b110 864f 7505 8b4f 97cc 6f4f
00000360: 4319 ec4e 76d4 f94e b070 e64e 44e1 fb4e
00000370: 0a18 074f 5741 f84e cedc 0a4f 3aac 174f
00000380: 5337 0b4f
4.8078044e+09 4.9216384e+09 4.2446781e+09 5.221477e+09 5.517102e+09 4.837954e+09 4.9028434e+09 5.304452e+09
4.7365965e+09 1.1862182e+09 1.2369211e+09 1.1967639e+09 1.7046298e+09 1.7775023e+09 1.6432293e+09 2.0549061e+09
2.1092773e+09 1.8799068e+09 1.2431468e+10 1.474144e+10 1.4810007e+10 1.0435837e+10 1.3132391e+10 1.4026666e+10
7.2557e+09 9.718624e+09 1.1069381e+10 2.7254088e+09 3.108325e+09 2.4716536e+09 3.300967e+09 3.8111606e+09
3.084393e+09 2.8677517e+09 3.2845978e+09 2.6684805e+09 2.7190633e+09 3.1238853e+09 2.865962e+09 2.6297823e+09
3.2901322e+09 3.2170688e+09 1.9583823e+09 2.6894246e+09 2.832123e+09 1.9538162e+10 2.3516176e+10 2.418691e+10
2.0412598e+10 2.5376045e+10 2.6593059e+10 1.7832702e+10 2.2664258e+10 2.418722e+10 1.2454735e+10 1.4879818e+10
1.5530835e+10 1.4019618e+10 1.768013e+10 1.9151882e+10 1.4014314e+10 1.8456328e+10 2.06942e+10 1.7291123e+09
2.1702592e+09 2.081714e+09 2.5121344e+09 2.9903168e+09 2.6666079e+09 3.1118943e+09 3.4583176e+09 2.8972823e+09
5.893407e+09 6.154532e+09 5.1193016e+09 7.749851e+09 7.8240625e+09 6.2672353e+09 8.5492265e+09 8.4590106e+09
6.630335e+09 5.2574484e+09 7.6923566e+09 9.700259e+09 4.576775e+09 7.418877e+09 9.864738e+09 3.6620557e+09
6.533974e+09 9.079183e+09 2.988726e+09 3.6815928e+09 3.5627907e+09 3.508106e+09 4.3846963e+09 4.266762e+09
3.7926252e+09 4.796571e+09 4.655944e+09 4.0417795e+09 2.9188137e+09 1.5032188e+09 7.0113766e+09 5.2643866e+09
2.743393e+09 9.137787e+09 7.078236e+09 3.9172106e+09 8.054851e+09 7.6771574e+09 6.326661e+09 9.371897e+09
8.891715e+09 7.269757e+09 9.77638e+09 9.28485e+09 7.5907953e+09 6.3609897e+09 8.604875e+09 1.0233007e+10
5.813178e+09 8.3364557e+09 1.041121e+10 4.4541563e+09 6.817795e+09 9.074059e+09 1.2254045e+09 1.0752937e+09
9.1113306e+08 9.6784646e+08 8.7282784e+08 7.29757e+08 8.9356966e+08 8.3876416e+08 6.955979e+08 5.3464735e+09
5.194243e+09 4.1286308e+09 6.4607473e+09 6.034582e+09 4.5703603e+09 6.734225e+09 6.0681626e+09 4.401873e+09
5.302389e+09 4.7251773e+09 3.6958554e+09 5.0478776e+09 4.8330593e+09 4.1303596e+09 4.6430725e+09 4.647308e+09
4.248877e+09 1.5598326e+09 1.94215e+09 1.9760357e+09 1.7820731e+09 2.136582e+09 2.0473069e+09 1.6967383e+09
1.9564151e+09 1.7617228e+09 5.008738e+09 7.2702116e+09 9.032091e+09 4.3911803e+09 6.51298e+09 8.350769e+09
3.398833e+09 5.0335734e+09 6.6299935e+09 1.1158236e+10 1.1610544e+10 9.79544e+09 1.3322233e+10 1.3935183e+10
1.1703142e+10 1.3757369e+10 1.4350191e+10 1.1966355e+10 2.8027195e+09 3.2100682e+09 2.9164088e+09 2.8798833e+09
3.2398203e+09 2.7664105e+09 2.6158182e+09 2.8571935e+09 2.324774e+09 7.036859e+08 7.3028314e+08 6.470026e+08
9.5403424e+08 1.1281929e+09 1.06758566e+09 1.0632824e+09 1.4075055e+09 1.4626145e+09 7.569736e+09 7.3252516e+09
5.7906806e+09 7.481406e+09 7.1396163e+09 5.674516e+09 6.587667e+09 6.285733e+09 5.203024e+09 4.407152e+09
4.3521234e+09 3.4836838e+09 4.688103e+09 4.758367e+09 3.9336527e+09 4.4984817e+09 4.6647813e+09 4.0231626e+09
1.9805393e+09 2.0957253e+09 1.9330724e+09 2.1129221e+09 2.2664996e+09 2.0825158e+09 2.3297265e+09 2.5446467e+09
2.3356588e+09

exp_avg f4 [25]
00000000: 1a3a 5246 c62d 16c7 204f 0047 7e63 bfc6
00000010: e49d 4547 de94 4547 9a75 3447 8b7b 7046
00000020: 0cc0 4f47 a75f 9245 d911 e2c4 7591 cb46
00000030: e41f 0447 487e 0e47 e008 24c4 b803 5547
00000040: 3020 ccc5 7408 08c7 00a9 b6c6 2ab9 88c7
00000050: fe6f 7647 3c1c 6bc6 0f10 2b47 856c dc46
00000060: c5f7 18c7
13454.525 -38445.773 32847.125 -24497.746 50589.89 50580.867 46197.6 15390.886
53184.047 4683.9565 -1808.5577 26056.729 33823.89 36478.28 -656.1387 54531.72
-6532.0234 -34824.453 -23380.5 -70002.33 63087.992 -15047.059 43792.06 28214.26
-39159.77

exp_avg_sq f4 [25]
00000000: 50f5 5d4e 52f8 354f 7f65 2f4f 4559 8c4e
00000010: 56db c24e 7049 ca4e 2af8 4e4f a822 dd4d
00000020: 2d26 f64e ea0e cf4e e5d4 ae4e db6e d14e
00000030: b447 314f 8221 6f4f b868 0f4e 0e42 5d4f
00000040: 61f3 304e c99d 4a4f 4ead e64e 226c 8c4f
00000050: 4a12 384f a1b6 0b4f 91dc 1c4f 60c8 444e
00000060: e87c c24e
9.309604e+08 3.05295e+09 2.9426644e+09 1.1773303e+09 1.6345772e+09 1.6969052e+09 3.4723702e+09 4.637545e+08
2.0648485e+09 1.7369306e+09 1.4665939e+09 1.7568516e+09 2.9742664e+09 4.0119506e+09 6.015012e+08 3.7120937e+09
7.42185e+08 3.3993382e+09 1.9350587e+09 4.7117937e+09 3.0882063e+09 2.3440018e+09 2.6317007e+09 8.253665e+08
1.6314829e+09

exp_avg f4 [50, 25, 3, 3]
00000000: 7856 bf45 aaea 5645 47d7 a543 1f67 a045
00000010: 7fab f444 71d2 bdc4 e275 8e45 341b a144
00000020: 5858 0bc5 9dbf 1fc4 e8f8 4344 3cbc f644
00000030: 32cd 34c4 c890 5644 dd5b 0e45 8a10 83c4
00000040: dcfb dd43 e2af ea44 de7a a845 605a 80c3
00000050: fee3 c0c5 e08c 8c45 e8cb aac4 8991 e6c5
00000060: a60e 3745 0ece 22c5 f3d3 fdc5 0e80 08c6
00000070: c8e4 b9c5 0616 02c5 884c 00c6 df99 96c5
00000080: 83c2 dcc3 fadb eac5 c3bd 73c5 3459 1b44
00000090: 3156 01c5 625d 9dc5 8838 eec5 c26d d4c4
000000a0: f41a 8ec5 aab1 dcc5 786c 0bc5 b6dd 94c5
000000b0: 3429 d9c5 3ec6 0945 99ec 61c4 dec2 82c5
000000c0: f49c df44 8770 80c4 362e 7ac5 1443 1244
000000d0: 0d57 d9c4 100d 80c5 fef1 5245 040d 6442
000000e0: 2730 69c5 7963 5f45 a618 3c43 bdf2 65c5
000000f0: 4a19 1945 a017 4ac4 0e34 88c5 7dec b8c4
00000100: 9cf0 3fc5 1cb6 8cc5 281b 60c4 e259 19c5
00000110: 8272 74c5 f89b 90c4 e452 21c5 9070 74c5
00000120: 5e7a 8d45 0107 2bc5 9de6 22c6 7c6d 9545
00000130: fe1e 28c5 f08e 27c6 1e0a 5e45 5294 57c5
00000140: 79fa 2ac6 e34d 3345 d2cd 2045 3c50 e144
00000150: f548 0a45 3d5a 1045 8f1c f744 896a a944
00000160: 224e db44 f25e ea44 27ad 90c5 3377 8bc5
00000170: 86f3 60c5 499e 89c5 eac6 7ec5 e884 3ec5
00000180: 5055 88c5 97f8 78c5 d474 36c5 156e 0646
00000190: 4819 8345 2ed4 70c4 664d f645 1e9c 4945
000001a0: 43ed 05c5 56bb d645 eacf 1a45 fcb9 21c5
000001b0: 454e b6c4 ce28 0dc5 3e6c 3ec5 0c0b e0c3
000001c0: 4662 9ec4 5eda 08c5 cc8c cec3 7e6e 9fc4
000001d0: bd10 0ac5 ba10 9bc4 284b 36c5 ca67 86c5
000001e0: 5862 5ec4 0c66 2ac5 f25e 86c5 76fb 7bc4
000001f0: 4191 31c5 d899 89c5 b469 63c5 d63c 81c5
00000200: 8bea 8ac5 ec22 37c5 522b 48c5 44e2 51c5
00000210: d08e 4cc5 8856 57c5 c3c3 53c5 0c81 38c5
00000220: b2f1 7dc5 b5e5 95c5 c31e 0fc5 abd0 53c5
00000230: a82e 83c5 c24c 06c5 da75 46c5 af34 78c5
00000240: ff30 f3c3 aca1 bcc3 075f abc3 8edf 9343
00000250: 84c0 8542 037e a4c3 9c50 5244 e742 a243
00000260: f59d cec3 02b2 84c5 1c41 38c5 8e6c aac4
00000270: baf7 5fc5 bff8 10c5 c9d2 4cc4 4815 48c5
00000280: 5019 06c5 8c48 57c4 c91d cac5 cef2 d4c5
00000290: c48d c7c5 4c28 b4c5 16de b7c5 4465 a6c5
000002a0: 9275 afc5 43cb adc5 8258 97c5 f3bf 06c5
000002b0: 5ca6 7a45 50fb 2246 4c86 15c5 d25f 6645
000002c0: c48a 1d46 7eec 42c4 38da 9445 219d 2346
000002d0: 9c3f 8ec4 7c1c 2ac5 c00b 80c5 79d1 68c4
000002e0: 2f88 15c5 0fb3 67c5 d010 8cc4 6817 11c5
000002f0: 757a 55c5 4e7b a5c5 125f 94c5 e64c 70c5
00000300: 7e9b 80c5 8ac8 5cc5 fcbe 2bc5 a835 60c5
00000310: 553b 42c5 dd86 19c5 565e 3245 2af5 fbc3
00000320: 606e 7bc5 cc88 2445 0836 4dc4 ab8c 8ac5
00000330: bbb3 fa44 ca31 97c4 1597 8fc5 bc81 c745
00000340: e83b 9f45 d2f6 4745 6307 a345 b355 8145
00000350: e3f8 1d45 d23c 8c45 0ee2 6a45 4193 1d45
00000360: 6c34 2b45 27a6 b145 f20b 0146 e846 0945
00000370: e844 a745 508c fe45 542b 2b45 5044 b745
00000380: bf75 0546 d088 fac5 f5f4 91c5 189e 9ec4
00000390: 329b 19c6 3aeb e1c5 2c38 89c5 0584 09c6
000003a0: 5058 e6c5 207a afc5 3696 8b45 287c 1145
000003b0: 7a19 ce42 1a7d c745 0b52 9445 3cfe 2e45
000003c0: e2d4 cc45 1882 b245 eee2 8845 7fbc a3c6
000003d0: f0fe 82c6 9648 32c6 e974 8ac6 8073 75c6
000003e0: 3636 43c6 144d 4cc6 9316 52c6 effd 47c6
000003f0: eb01 7046 2bd5 3e46 6856 0046 3e68 6b46
6122.8086 3438.6665 331.68185 5132.89 1957.3593 -1518.5763 4558.7354 1288.8501
-2229.5215 -638.99396 783.88916 1973.8823 -723.2062 858.2622 2277.7415 -1048.5168
443.96765 1877.4963 5391.3584 -256.70605 -6172.499 4497.6094 -1366.3721 -7378.192
2928.9155 -2604.8784 -8122.4937 -8736.014 -5948.5977 -2081.3765 -8211.133 -4819.234
-441.51962 -7515.497 -3899.86 621.3938 -2069.387 -5035.673 -7623.0664 -1699.4299
-4547.369 -7062.208 -2230.7793 -4763.714 -6949.1504 2204.3901 -903.69684 -4184.3584
1788.9048 -1027.5165 -4002.8882 585.0481 -1738.7203 -4097.633 3375.1245 57.01271
-3731.0095 3574.217 188.09628 -3679.1711 2449.5806 -808.36914 -4358.507 -1479.3903
-3071.038 -4502.7637 -896.4243 -2453.6177 -3911.1567 -1156.874 -2581.1807 -3911.0352
4527.296 -2736.4377 -10425.653 4781.6855 -2689.937 -10723.734 3552.6323 -3449.27
-10942.618 2868.868 2572.8638 1802.5073 2212.5598 2309.64 1976.8925 1355.3292
1754.4417 1874.967 -4629.644 -4462.9 -3599.2202 -4403.7856 -4076.4321 -3048.3066
-4362.664 -3983.5369 -2919.3018 8603.5205 4195.16 -963.3153 7881.675 3225.7573
-2142.8289 6871.417 2476.9946 -2587.624 -1458.4459 -2258.5503 -3046.7651 -448.0863
-1267.071 -2189.648 -413.09998 -1275.4529 -2209.0461 -1240.5227 -2916.6973 -4300.9736
-889.5366 -2726.378 -4299.868 -1007.9291 -2841.0784 -4403.2305 -3638.6064 -4135.6045
-4445.318 -2930.1826 -3202.7075 -3358.1416 -3272.9258 -3445.4082 -3388.235 -2952.0654
-4063.106 -4796.7134 -2289.9226 -3389.0417 -4197.832 -2148.7974 -3175.3657 -3971.2927
-486.38278 -377.26306 -342.7424 295.74652 66.87601 -328.98447 841.2595 324.52267
-413.23404 -4246.251 -2948.0693 -1363.3923 -3583.483 -2319.5466 -819.2935 -3201.33
-2145.582 -861.13354 -6467.723 -6814.3506 -6385.7207 -5765.037 -5883.7607 -5324.658
-5614.6963 -5561.4077 -4843.0635 -2155.9968 4010.3975 10430.828 -2392.3936 3685.9888
10082.691 -779.6952 4763.2773 10471.282 -1137.9878 -2721.7803 -4097.4688 -931.273
-2392.5115 -3707.1912 -1120.5254 -2321.463 -3415.6536 -5295.413 -4747.884 -3844.8062
-4115.4365 -3532.5337 -2747.9365 -3587.3535 -3107.7083 -2456.429 2853.896 -503.91534
-4022.8984 2632.5498 -820.84424 -4433.5835 2005.6166 -1209.5559 -4594.8853 6384.217
5095.4883 3199.4263 5216.9233 4138.7124 2527.5554 4487.6025 3758.1284 2521.2034
2739.2764 5684.769 8258.986 2196.4316 5352.6133 8145.539 2738.708 5864.539
8541.437 -8017.1016 -4670.6196 -1268.9404 -9830.799 -7229.4033 -4391.0215 -8801.005
-7371.039 -5615.2656 4466.7764 2327.7598 103.04976 6383.6377 4746.2554 2799.8896
6554.6104 5712.2617 4380.366 -20958.248 -16767.469 -11410.146 -17722.455 -15708.875
-12493.553 -13075.27 -13445.644 -12799.483 15360.4795 12213.292 8213.602 15066.061

exp_avg_sq f4 [50, 25, 3, 3]
00000000: fd55 4c4d 3010 484d cdb1 3e4d 1b29 604d
00000010: 98b3 5a4d 2c6f 514d fa3e 654d bb94 5d4d
00000020: 7ca6 524d d8d4 4f4b 2db3 314b 1fc4 284b
00000030: 1256 6e4b a13d 524b 02ea 504b 01a9 7d4b
00000040: 144c 5f4b 82a9 584b 05f8 c04d 02ce c64d
00000050: b1b9 cb4d e5d0 c94d a4d4 cd4d cdd2 d04d
00000060: 3f02 c04d 5473 c24d 849b c24d 1796 304d
00000070: 8f44 334d d0aa 314d aab1 484d f918 4b4d
00000080: 7d67 4b4d 50f8 534d 1da6 554d 6d08 564d
00000090: 3172 a34b c359 f14b 767e 2d4c c3d7 9f4b
000000a0: c054 e14b 1c32 1e4c 30f4 964b db74 d74b
000000b0: 69e6 124c fcdf 714c c435 7f4c 3e5a 8d4c
000000c0: e69d 564c 81e8 5f4c 166d 734c e5c2 2b4c
000000d0: aad7 354c 55a2 434c 764c a24c 04ab b94c
000000e0: 6f8c d84c 57ab af4c 2dea c34c 5167 dd4c
000000f0: 98e6 a44c 19a3 b94c 8c67 d04c c50f 954a
00000100: a593 dd4a 4e4b 374b 77f9 8e4a a576 c44a
00000110: 1be4 214b 08fa 954a 6863 d94a 2bb2 2a4b
00000120: 3462 0f4e ab0b 1b4e 2a29 264e c0e0 1a4e
00000130: 9c13 244e cd86 2c4e 5cce 154e dd06 1d4e
00000140: c471 224e ccc9 8d4a 27ca 804a 5b8f 3f4a
00000150: 7b3c 0e4a 0519 124a c332 e249 40d5 a949
00000160: 4bfe b949 5f4d ae49 cb76 8d4b 60ad 974b
00000170: 04aa 8e4b fa47 944b ff0f 9e4b 71d1 974b
00000180: 907f 9e4b 4d71 a94b 3e21 a54b 7fb2 9d4d
00000190: ca40 9c4d 80f5 994d a5e1 a44d 5a82 a34d
000001a0: 1798 a14d d241 9f4d b59c 9d4d dcd7 9a4d
000001b0: 5e8a 5c4b 43ae 2c4b 358b 1f4b 5485 414b
000001c0: 0ea7 0d4b 9550 ff4a 4828 284b add6 ff4a
000001d0: b5e4 f84a e54f 5d4a 9446 c74a c380 284b
000001e0: bc0c 824a d2a2 da4a 2890 384b 7c6e 924a
000001f0: a7a2 f64a 3ebd 474b 7cf1 7d4b 5f10 704b
00000200: e163 714b f644 724b 995e 5d4b 0e8a 584b
00000210: e22f 8a4b 512d 834b ac1b 804b 3361 e24a
00000220: da34 264b c11d 5b4b f7d0 bb4a dc2f 094b
00000230: 4ca8 3b4b fd68 b74a cb2a 034b 1294 324b
00000240: 337f a74a bae9 6a4a 6d64 164a 780f 524a
00000250: 94b1 f149 c511 7b49 b147 184a cfaa 9849
00000260: 6459 3849 6b38 344c c683 204c 9e5e 0d4c
00000270: d906 254c 6213 154c 31b7 064c a731 134c
00000280: ac8f 064c bc05 f54b 2d66 e64b c1c9 024c
00000290: e6a2 024c 4426 dc4b 9451 f54b aeaa f74b
000002a0: 4c86 ec4b e337 014c 53c1 014c fb5d 914d
000002b0: a9d7 a54d f606 bd4d 4841 974d 8a95 a74d
000002c0: 5259 b94d e258 8c4d c7c9 9a4d 2d59 a84d
000002d0: 89d1 f349 92f6 894a 8a1d 044b b9f9 bd49
000002e0: a1da 604a ed20 e14a 0980 ba49 4713 594a
000002f0: 7590 ca4a 0764 ef4b 9e3c cc4b ab14 a84b
00000300: 55a2 c24b 3d36 a54b c090 8c4b d89d ab4b
00000310: ac77 944b f663 824b 6339 164d 0a60 1b4d
00000320: 1489 1e4d 0b8b 1e4d fe1d 224d bc66 234d
00000330: f68c 174d 1b54 194d 1986 184d d6ad ba4c
00000340: 86c7 ab4c 9a10 984c 1cf3 a04c de65 954c
00000350: 219b 864c 8d0c 874c 6d2c 7c4c 4ae1 654c
00000360: 7359 044c 2201 3f4c e67c 7e4c 2777 194c
00000370: 5fb1 4f4c 708c 854c f7f4 224c 9888 5a4c
00000380: 4fc6 884c 257d ae4d deb7 b44d 19d9 aa4d
00000390: 5c00 b74d 25fb c44d 214f bf4d c2f6 974d
000003a0: 6b69 af4d 368a b44d 9f14 834c 2a1c 5e4c
000003b0: 06bc 1e4c 65e7 a04c f7f9 974c f77b 714c
000003c0: 551f 8e4c 3692 994c a3c4 8a4c b082 544e
000003d0: 388c 754e a6e6 804e 6319 204e b344 4a4e
000003e0: 9b4c 644e 710b ce4d 9c75 104e 3692 334e
000003f0: 2335 aa4d 3bee ba4d da35 c04d 7759 a34d
2.1426171e+08 2.097815e+08 1.9995771e+08 2.3504939e+08 2.2932518e+08 2.1960774e+08 2.4038186e+08 2.323445e+08
2.2088288e+08 1.362044e+07 1.1645741e+07 1.1060255e+07 1.5619602e+07 1.3778337e+07 1.3691394e+07 1.6623873e+07
1.4634004e+07 1.419917e+07 4.0468496e+08 4.169237e+08 4.2724304e+08 4.2323882e+08 4.316581e+08 4.379345e+08
4.0267158e+08 4.0779226e+08 4.0812147e+08 1.8516414e+08 1.8797592e+08 1.862976e+08 2.1044291e+08 2.1296322e+08
2.1328482e+08 2.2226662e+08 2.2402709e+08 2.2442978e+08 2.1423202e+07 3.163431e+07 4.548041e+07 2.0950918e+07
2.9534592e+07 4.1470064e+07 1.9785824e+07 2.824031e+07 3.8508964e+07 6.3406064e+07 6.6901776e+07 7.410942e+07
5.6260504e+07 5.8696196e+07 6.3812696e+07 4.5026196e+07 4.7668904e+07 5.1284308e+07 8.509125e+07 9.734352e+07
1.13533816e+08 9.2101304e+07 1.0271575e+08 1.1607924e+08 8.645549e+07 9.7327304e+07 1.0926397e+08 4.8844505e+06
7.2606265e+06 1.2012366e+07 4.6849875e+06 6.4377145e+06 1.0609691e+07 4.914436e+06 7.12338e+06 1.1186731e+07
6.013944e+08 6.503083e+08 6.969289e+08 6.496051e+08 6.8818714e+08 7.2362886e+08 6.283323e+08 6.586182e+08
6.813412e+08 4.646118e+06 4.2201795e+06 3.1385188e+06 2.3303988e+06 2.3936652e+06 1.8530164e+06 1.391272e+06
1.5236574e+06 1.4278839e+06 1.8541974e+07 1.988064e+07 1.8699272e+07 1.9435508e+07 2.0717566e+07 1.9899106e+07
2.0774688e+07 2.2209178e+07 2.16439e+07 3.307151e+08 3.2768646e+08 3.228754e+08 3.457814e+08 3.429036e+08
3.388874e+08 3.3398637e+08 3.305366e+08 3.2472973e+08 1.4453342e+07 1.1316803e+07 1.0455861e+07 1.268258e+07
9.283342e+06 8.3661545e+06 1.102036e+07 8.3833185e+06 8.1557385e+06 3.6259772e+06 6.529866e+06 1.1043011e+07
4.26147e+06 7.164265e+06 1.2095528e+07 4.79827e+06 8.0817475e+06 1.309011e+07 1.6642428e+07 1.5732831e+07
1.5819745e+07 1.5877366e+07 1.4507673e+07 1.4191118e+07 1.8112452e+07 1.7193634e+07 1.6791384e+07 7.4180095e+06
1.0892506e+07 1.4360001e+07 6.1543635e+06 8.990684e+06 1.2298316e+07 6.0099825e+06 8.596171e+06 1.1703314e+07
5.4885375e+06 3.8488145e+06 2.4640272e+06 3.44163e+06 1.9799545e+06 1.0283803e+06 2.4949562e+06 1.2506499e+06
755094.25 4.7243692e+07 4.2077976e+07 3.705919e+07 4.3260772e+07 3.9079304e+07 3.5314884e+07 3.8586012e+07
3.5274416e+07 3.2115576e+07 3.0198874e+07 3.4285316e+07 3.424553e+07 2.8855432e+07 3.2154408e+07 3.2462172e+07
3.1001752e+07 3.3873804e+07 3.401454e+07 3.0485693e+08 3.4779677e+08 3.9641875e+08 3.1720474e+08 3.514494e+08
3.8870483e+08 2.943294e+08 3.2461437e+08 3.5305206e+08 1.9973611e+06 4.520777e+06 8.658314e+06 1.5562791e+06
3.6840082e+06 7.3770145e+06 1.5278091e+06 3.5565618e+06 6.6376265e+06 3.1377422e+07 2.6769724e+07 2.2030678e+07
2.5511082e+07 2.165465e+07 1.8424192e+07 2.2494128e+07 1.9459928e+07 1.709054e+07 1.5752146e+08 1.6292266e+08
1.6623648e+08 1.6624453e+08 1.6999216e+08 1.7133869e+08 1.5891235e+08 1.6077662e+08 1.5993282e+08 9.787358e+07
9.006187e+07 7.972578e+07 8.438397e+07 7.832754e+07 7.0572296e+07 7.0804584e+07 6.610578e+07 6.026167e+07
3.4694604e+07 5.0070664e+07 6.671247e+07 4.0230044e+07 5.4445436e+07 7.001792e+07 4.2718172e+07 5.7287264e+07
7.1709304e+07 3.6592963e+08 3.789936e+08 3.582943e+08 3.8378176e+08 4.1309917e+08 4.0120426e+08 3.186914e+08
3.6786518e+08 3.786196e+08 6.872396e+07 5.822481e+07 4.161129e+07 8.4359976e+07 7.9679416e+07 6.3303644e+07
7.4513064e+07 8.05155e+07 7.2754456e+07 8.913336e+08 1.0299018e+09 1.0812997e+09 6.715046e+08 8.48375e+08
9.575564e+08 4.3210704e+08 6.059067e+08 7.5317594e+08 3.5695114e+08 3.9202186e+08 4.0309434e+08 3.4256867e+08

exp_avg f4 [50]
00000000: f477 72c6 7f31 d044 ef89 1bc6 a685 a845
00000010: 9b2b 05c6 b8c3 3846 d604 1546 966e d6c6
00000020: 01cc 31c6 dc05 98c6 5c99 f345 1222 cbc5
00000030: ebde ac44 a440 18c6 28ea 5b45 3d12 6f46
00000040: ff1e 4bc5 a408 f5c6 9c78 cdc4 b73d 0147
00000050: 3013 8445 de11 09c6 1003 b2c6 a451 47c7
00000060: 08c1 f0c4 c54f 85c6 eca7 ca44 ea40 99c5
00000070: 6b59 35c6 561b 96c6 3e40 0447 8097 0146
00000080: d470 b7c6 6a90 b546 5e53 a8c6 0d53 58c6
00000090: b1a9 0ec6 4df7 3b46 2892 9cc6 a45b 80c5
000000a0: e038 43c3 5d3b fcc6 d069 34c6 4e3b b2c6
000000b0: 75d3 72c6 f643 7446 3cae 8ec6 9dcf 4446
000000c0: 79c3 b5c3 fd1c 5ec6
-15517.988 1665.5468 -9954.483 5392.706 -8522.901 11824.93 9537.209 -27447.293
-11379.001 -19458.93 7795.17 -6500.259 1382.9662 -9744.16 3518.6348 15300.56
-3249.9373 -31364.32 -1643.769 33085.715 4226.3984 -8772.467 -22785.531 -51025.64
-1926.0322 -17063.885 1621.2476 -4904.1143 -11606.3545 -19213.668 33856.242 8293.875
-23480.414 23240.207 -21545.684 -13844.763 -9130.423 12029.825 -20041.078 -4107.455
-195.22217 -32285.682 -11546.453 -22813.652 -15540.864 15632.99 -18263.117 12595.903
-363.52713 -14215.247

exp_avg_sq f4 [50]
00000000: a2a2 274e 0c6f d64d 0750 7f4e 118b 264e
00000010: 9619 084e 2abd 384e 57c0 d94e 388d 5e4d
00000020: df4f 024c 8dc6 354d e36a 434c 274b 0c4d
00000030: ec8f a54e 55cd 464d e9ed a44c 2134 b44d
00000040: 09e2 144e d775 b24e 3bb9 d14f d315 2c4f
00000050: b743 884e 82fb db4c 007e 2e4e 8065 3e4f
00000060: 5817 394c 7571 894e 174c cb4c 7be5 db4d
00000070: 9530 814d 26f6 924e d575 734e 4142 514f
00000080: 7af6 e34d 78ef 5b4e c5fa bd4e a397 374d
00000090: 6c33 e64d dbcc 5e4e d783 c24d b63a 804d
000000a0: 9af8 2e4c 7c5f c44d 5a06 e84c 88f7 024f
000000b0: 3d2b fe4d b081 a94e 918c 914d a9cd cb4e
000000c0: 5efa 284d dce4 6a4f
7.0311334e+08 4.4970022e+08 1.0708587e+09 6.985329e+08 5.7084454e+08 7.748512e+08 1.8266305e+09 2.333623e+08
3.4160508e+07 1.9060552e+08 5.1227532e+07 1.4710846e+08 1.3888364e+09 2.0845909e+08 8.647047e+07 3.779144e+08
6.2446035e+08 1.4970336e+09 7.037155e+09 2.8871114e+09 1.1430696e+09 1.1533416e+08 7.318733e+08 3.194323e+09
4.8520544e+07 1.152957e+09 1.06586296e+08 4.611562e+08 2.709306e+08 1.2328026e+09 1.02114643e+09 3.5107802e+09
4.7807264e+08 9.22476e+08 1.5936641e+09 1.9251051e+08 4.827662e+08 9.3449184e+08 4.0792752e+08 2.689164e+08
4.5867624e+07 4.11824e+08 1.2164782e+08 2.1972603e+09 5.3303082e+08 1.4219244e+09 3.0523856e+08 1.7096265e+09
1.7718627e+08 3.940867e+09
