models/probabilistic_training/upscaling_network/100/sigma0.01_step0.0002_lr0.0005/ckpt/model_epoch_250.pth (torch, 282369 bytes, 18 tensors)

layer1.weight f4 [25, 1, 3, 3]
0	0xbd6f0325	-0.05835261
1	0x3ba5c9dd	0.0050594644
2	0x3e3d1278	0.18464077
3	0x3d9aec45	0.07564596
4	0x3dee651b	0.11640378
5	0x3da366ff	0.07978629
6	0xbca855b9	-0.020548688
7	0xbd4fc25a	-0.050722457
8	0xbd80ff60	-0.06298709
9	0xbe02590c	-0.12729281
10	0x3d1dd19f	0.03852999
11	0x3da1cf47	0.07900863
12	0x3da1363c	0.078716725
13	0xbe2e8ebc	-0.17046636
14	0xbe34c40e	-0.17652914
15	0x3e1a1847	0.15048324
16	0x3d8bf3c5	0.06833605
17	0xbd39847f	-0.045292374
18	0xbcc316ea	-0.023814637
19	0xbd25df82	-0.040496357
20	0x3e563593	0.20918874
21	0x3cbbce5b	0.022925546
22	0x3e64282c	0.2228095
23	0xbb92fa35	-0.0044853934
24	0x3d4a1ca4	0.04934372
25	0x3e28c2f4	0.16480619
26	0x3b87b22a	0.004141112
27	0xbdbe37d4	-0.09287992
28	0xbd27293c	-0.04081081
29	0xbe548a14	-0.20755798
30	0xbe12c66e	-0.14333507
31	0xbb8bac8f	-0.004262514
32	0x3d600fa6	0.054702424
33	0xbd016264	-0.031587973
34	0xbaf646a9	-0.0018789369
35	0x3d8900e0	0.0668962
36	0x3de0b80b	0.109726034
37	0x3c8d37bd	0.017238492
38	0x3d5d370e	0.054007582
39	0xbdc389ed	-0.09547792
40	0xbc079ab9	-0.008276635
41	0xbd2878b9	-0.041130755
42	0x3cd03949	0.02541794
43	0x3e1ab406	0.15107736
44	0x3e0a49b2	0.13504675
45	0xbda470ac	-0.08029303
46	0x3d1e9827	0.038719323
47	0xbdcdff5f	-0.10058474
48	0x3d9a72cd	0.07541428
49	0x3d901849	0.07035882
50	0x3d1c9c6f	0.038235124
51	0x3daeea8c	0.0854083
52	0x3df399c1	0.118945606
53	0x3da321e5	0.07965449
54	0xbc17c5f5	-0.009263505
55	0x3e5c82b7	0.21534239
56	0xbcb864c7	-0.022508992
57	0x3bcececf	0.0063112746
58	0x3da3b31c	0.07993147
59	0xbdd6d40a	-0.10489662
60	0x3e4edd70	0.20201659
61	0x3dc1c20a	0.09460838
62	0xbc1818b0	-0.00928323
63	0x3d01a19b	0.03164826
64	0x3d8e61cf	0.06952249
65	0xbce4763f	-0.027888415
66	0x3d7a98eb	0.06118099
67	0xbd443f4a	-0.04791192
68	0x3d0b04dc	0.03394018
69	0xbc93df82	-0.018050913
70	0x3e00eaf1	0.12589623
71	0xbc26c4bf	-0.010178744
72	0x3e45f3c8	0.19331276
73	0xbd8bc714	-0.068250805
74	0x3d19ffe3	0.03759755
75	0x3e7f2f70	0.2492044
76	0x3e3850b5	0.17999537
77	0x3e38e321	0.18055393
78	0xbcfeb0a1	-0.031090083
79	0xbdb97010	-0.09054577
80	0x3e777d82	0.24168971
81	0xbe054a2d	-0.13016577
82	0xbc6596e2	-0.014013024
83	0xbdc266bf	-0.094922535
84	0x3db5a5b4	0.08869496
85	0x3d6edc47	0.05831554
86	0xbe02c0b8	-0.12768829
87	0x3e0205dd	0.12697549
88	0x3c1f9f56	0.0097425785
89	0x3dcd5827	0.10026579
90	0xbde69979	-0.11259741
91	0x3e22837b	0.15870468
92	0x3cfead45	0.03108848
93	0xbdd6870f	-0.10474979
94	0xbdf53a5f	-0.11974024
95	0xbdbfa544	-0.09357694
96	0x3d1b19ec	0.037866518
97	0x3debdb9e	0.11516498
98	0x3d1d359d	0.038381208
99	0x3d90ea6f	0.07075965
100	0x3de9d0db	0.11416789
101	0xbd1ea04a	-0.038727082
102	0x3d97036c	0.073736995
103	0x3dd34305	0.10315517
104	0x3d35bd35	0.044369895
105	0xbd1b5333	-0.03792114
106	0x3da9dad8	0.08293694
107	0x3d8f87b9	0.07008309
108	0x3debee57	0.11520069
109	0xbb318839	-0.0027089252
110	0x3cd5b035	0.026084999
111	0x3d0bff98	0.0341793
112	0x3df762f2	0.12079419
113	0xbe27c9f0	-0.16385627
114	0xbcbdeef0	-0.023185223
115	0x3d224c4b	0.03962354
116	0x3cd75052	0.026283417
117	0x3d16a31c	0.036776647
118	0x3db4b971	0.08824433
119	0x3c376327	0.011193073
120	0xbdc18bad	-0.09450469
121	0x3d324d47	0.04353073
122	0x3dc8cea7	0.09805041
123	0x3d10efdd	0.035385
124	0x3d07defb	0.033171635
125	0xbd5cf381	-0.05394316
126	0xbcd7fff4	-0.026367165
127	0xbdb15033	-0.08657875
128	0x3d32ef7d	0.043685425
129	0x3db3be03	0.08776476
130	0x3daae0c8	0.08343655
131	0xbdbea61b	-0.09309026
132	0x3daddd37	0.08489459
133	0x3c8a2500	0.016863346
134	0x3c3302ff	0.010926007
135	0x3db9fabc	0.09081027
136	0xba83a3e8	-0.0010043355
137	0x3d5055df	0.050863143
138	0x3c882141	0.01661742
139	0xbd278d91	-0.040906493
140	0xbd085194	-0.033280924
141	0xbd917f0f	-0.07104313
142	0x3d28156c	0.041036054
143	0x3dd0f21a	0.10202427
144	0x3e09e3e9	0.13465847
145	0x3d9a8e1e	0.07546638
146	0xbce5321e	-0.027978
147	0xbc5ab7ce	-0.0133494865
148	0xbd162a2c	-0.036661312
149	0x3e053584	0.13008696
150	0x3c20154d	0.0097707035
151	0xbe06321a	-0.1310505
152	0xbd93dfe1	-0.07220436
153	0xbda33c9a	-0.07970543
154	0xbb42cb29	-0.0029723144
155	0x3d58aa70	0.052896917
156	0x3e0a29bc	0.13492483
157	0xbdd13964	-0.102160245
158	0x3d4b792e	0.049676113
159	0x3c93f974	0.018063284
160	0xbda17c4d	-0.078850366
161	0xbda3dec6	-0.08001475
162	0x3c4a4ed9	0.0123479
163	0xbdaec657	-0.08533924
164	0xbce51425	-0.027963707
165	0xbd52fe2c	-0.05151193
166	0x3d19d61f	0.037557717
167	0x3dfdf719	0.12400646
168	0x3c854d7f	0.016272305
169	0xbceebd1e	-0.029142912
170	0x3d2164b3	0.039402675
171	0xbd32d5f3	-0.04366107
172	0xbd2156e2	-0.0393895
173	0xbce22f01	-0.027610304
174	0xbe482339	-0.19544686
175	0xbd480ef1	-0.048842374
176	0xbd2915a5	-0.041280407
177	0xbdcba446	-0.09943442
178	0xbdfaef27	-0.12252646
179	0xbe1af529	-0.15132584
180	0x3d2e748f	0.042591628
181	0xbc109148	-0.0088237
182	0xbd97e420	-0.07416558
183	0x3d3d1776	0.046164952
184	0xbcf5c84c	-0.030002736
185	0x3e037631	0.12838055
186	0xbd39d86c	-0.04537241
187	0x3d01786c	0.031608984
188	0x3da4fc49	0.08055932
189	0x3dbc4cb7	0.0919432
190	0xbdb56c13	-0.08858504
191	0x3ce2e998	0.027699277
192	0x3dab31db	0.083591186
193	0xbc86c606	-0.016451847
194	0x3c833141	0.016014697
195	0xbc1395c8	-0.009007879
196	0xbe0d78ef	-0.13815664
197	0x3d758a71	0.05994648
198	0x3d7a2264	0.061067954
199	0x3c82459c	0.015902333
200	0x3db54b4c	0.08852252
201	0x3ddafd8f	0.10692894
202	0xbcb883cc	-0.022523783
203	0xbcc71fac	-0.024307095
204	0xbd9d0f55	-0.0766894
205	0x3dc3f74f	0.09568655
206	0x3e0ccb23	0.13749366
207	0xbd8f3895	-0.06993214
208	0x3cce5933	0.025189018
209	0xbda7dcda	-0.08196421
210	0x3de31905	0.110887565
211	0x3b5ec685	0.0033992839
212	0xbdd4d5c0	-0.10392332
213	0xbd466f26	-0.048445843
214	0x3d5e5b68	0.05428639
215	0x3e3d3095	0.18475564
216	0xbd6941d2	-0.056947537
217	0x3d02b952	0.031915016
218	0xbe25a423	-0.16175894
219	0x3d7499f9	0.059717152
220	0xbd78be3b	-0.060728293
221	0xbe07ff23	-0.1328092
222	0xbddee7a7	-0.10884028
223	0xbda1a6e8	-0.07893163
224	0x3df4f12b	0.11960062

layer1.bias f4 [25]
0	0xbe6b77db	-0.2299494
1	0x3dab37e8	0.08360273
2	0xbc4e9008	-0.012607582
3	0x3e219884	0.15780836
4	0x3e5a220f	0.21302055
5	0x3d9d3b37	0.0767731
6	0x3e4b74b5	0.19868739
7	0x3e562e48	0.20916092
8	0x3e2440c3	0.1604033
9	0xbd4cae84	-0.04997112
10	0x3e1b76c4	0.15182024
11	0xbe33ea30	-0.17569804
12	0x3e7fb2db	0.24970572
13	0x3e086b35	0.13322146
14	0x3ea07331	0.31337884
15	0x3e323554	0.17403156
16	0x3db2303e	0.08700608
17	0x3e429092	0.19000462
18	0x3e86d9dc	0.2633809
19	0xbe9a5d69	-0.3014939
20	0x3db40f96	0.08792035
21	0x3e8e6ba4	0.27816498
22	0xbc0b7882	-0.008512618
23	0xbe92da57	-0.28682205
24	0xbe9c1663	-0.3048583

layer2.weight f4 [50, 25, 3, 3]
0	0xbd5b2563	-0.05350245
1	0xbcef3969	-0.02920218
2	0x3c2bc4d3	0.010483938
3	0x3c7bd38e	0.015370263
4	0xbc7b9e4b	-0.015357564
5	0x3c82177c	0.015880339
6	0x3d9610ca	0.07327421
7	0xbd2e3d4c	-0.042538926
8	0x3cdc8f3a	0.026923764
9	0x3d75b5a6	0.059987687
10	0xbc3ebe66	-0.011642074
11	0x3d3a6bdf	0.04551303
12	0xbca59eab	-0.02021726
13	0x3c9d555c	0.019205742
14	0x3d6b4050	0.05743438
15	0x3c884f73	0.016639447
16	0xbcb7dbc3	-0.022443658
17	0xbc4bef3f	-0.012447177
18	0xbe1813fa	-0.1485137
19	0xbd60a39e	-0.054843538
20	0x3dadccf9	0.08486361
21	0xbe190e7a	-0.14946929
22	0x3cc008c5	0.023441682
23	0x3d44208c	0.0478826
24	0x3d46a698	0.04849872
25	0x39d5b391	0.00040760313
26	0xbb6d522f	-0.0036212315
27	0xbdc91566	-0.098185346
28	0xbc80f27a	-0.015740622
29	0xbd833fda	-0.06408663
30	0x3d36a725	0.044592995
31	0xbc9e8bd1	-0.019353779
32	0xbc96aec2	-0.018393878
33	0xbc2ed999	-0.0106719965
34	0x3bf350dd	0.007425411
35	0xbdbb4fc0	-0.091460705
36	0xbd23f131	-0.04002494
37	0x3da65fd4	0.081237465
38	0xbd5d85f2	-0.05408282
39	0x3ce34bdd	0.027746135
40	0x3d387e7b	0.045042496
41	0xbde6032e	-0.11231075
42	0x3d045031	0.03230304
43	0x3d6bdac7	0.05758169
44	0x3d4602b3	0.048342418
45	0xbbe3a989	-0.0069477004
46	0x3c24989d	0.0100461515
47	0xbda0cb8b	-0.07851323
48	0xbd4c3401	-0.049854282
49	0xbb9fc9d5	-0.004876355
50	0x3cb8536c	0.022500716
51	0x3c0cbf7c	0.008590575
52	0x3dbf9b14	0.09355751
53	0x3c288b67	0.010287142
54	0x3d806648	0.062695086
55	0xbcfa9b94	-0.030591764
56	0x3c3e1446	0.011601513
57	0x3d6f8e2d	0.0584852
58	0xbce83cdf	-0.028349338
59	0x3c175d0a	0.009238491
60	0x3c167f78	0.009185664
61	0xbd0270f7	-0.031846013
62	0xbc06ea88	-0.008234628
63	0xbd2bba8d	-0.041925956
64	0x3b48fa6c	0.0030666841
65	0x3dbd4dfb	0.09243389
66	0xbca97654	-0.020686306
67	0x3bb36d60	0.005475685
68	0xbdbe0227	-0.09277754
69	0xbdb837dd	-0.0899503
70	0x3d8850bd	0.066560246
71	0xbd140c02	-0.036144264
72	0xbc93c99f	-0.018040476
73	0xbdabefc6	-0.083953425
74	0xbd51b5f4	-0.051198915
75	0xbd58df4f	-0.05294734
76	0xba84adea	-0.0010122631
77	0x3da1a9dc	0.07893726
78	0x3c8b8a13	0.017033612
79	0xbb8c5957	-0.004283111
80	0xbdf4b9cd	-0.11949501
81	0x3d60d72a	0.054892696
82	0xbd50b895	-0.05095728
83	0x3b9901c8	0.004669402
84	0xbd793737	-0.060843673
85	0xbda9042c	-0.08252749
86	0xbd583475	-0.052784402
87	0x3c6900ed	0.014221412
88	0x3d02ea59	0.031961773
89	0xbd0d243e	-0.03445839
90	0x3d54596a	0.051843084
91	0x3d5bae30	0.053632915
92	0xbd8acd00	-0.06777382
93	0xbd92522a	-0.07144578
94	0xbd94e8ff	-0.07271003
95	0xbab66687	-0.0013916054
96	0xbc046063	-0.008079621
97	0xbbbce580	-0.005764663
98	0x3d144803	0.03620149
99	0xbd65d7eb	-0.05611412
100	0x3d6ad827	0.057335045
101	0x3cd55274	0.026040293
102	0x3d3fcefc	0.046828255
103	0x3db62c1b	0.08895131
104	0x3cc6ae25	0.02425296
105	0xbb77c3ce	-0.0037805918
106	0x3c99144a	0.018686432
107	0x3d2d7f69	0.042357836
108	0x3d3d9389	0.04628328
109	0x3d8a4396	0.06751172
110	0x3d17f696	0.037100397
111	0x3c0ea214	0.008705635
112	0xbbdb31ff	-0.0066893096
113	0xbdaa481b	-0.08314534
114	0x3c9af3eb	0.018915137
115	0xbce0f69b	-0.02746134
116	0x3d21ec6f	0.03953212
117	0x3c993d84	0.01870609
118	0x3bb1c34b	0.005424892
119	0x3d2fdff3	0.042938184
120	0xbcbc9df1	-0.023024531
121	0x3d5db04b	0.054123204
122	0x3cee19fd	0.029065127
123	0xbc324b60	-0.010882229
124	0x3d1a9508	0.037739784
125	0x3d94f9b4	0.072741896
126	0xbd85dc91	-0.0653621
127	0x3d00591a	0.031334974
128	0xbbf35871	-0.0074263145
129	0x3d585b97	0.052821722
130	0xbdaadc79	-0.08342833
131	0x3d96ccdd	0.07363293
132	0xbd47ae46	-0.048750184
133	0x3d540563	0.05176295
134	0x3dd5beb2	0.10436763
135	0xbc7debf1	-0.015498147
136	0xbc282b32	-0.010264205
137	0xbd86bca1	-0.06578947
138	0xbcf41a92	-0.029797826
139	0xbd17cce2	-0.037060626
140	0xbc3a9a4c	-0.011389326
141	0x3c36b381	0.0111511955
142	0xbd6a187b	-0.057152253
143	0x3d50ba17	0.05095872
144	0x3d6b1495	0.057392675
145	0xbc77dee1	-0.015128822
146	0x3cae8fdd	0.021308834
147	0xbd2361d7	-0.03988823
148	0x3db1b990	0.08677971
149	0x3d8fc4ee	0.07019983
150	0x3d31853f	0.043339964
151	0x3dba4a92	0.090962544
152	0x3d0501de	0.032472484
153	0xbbce6b98	-0.0062994473
154	0x3b6426fe	0.003481328
155	0xbd367633	-0.044546317
156	0x3c8a9724	0.016917773
157	0x3bc72ec6	0.006078574
158	0x3dcc5afe	0.09978293
159	0x3d4d48df	0.050118323
160	0xbd4626e7	-0.048376944
161	0xba293cba	-0.00064558873
162	0x3cf9e09d	0.030502612
163	0xbd6a4976	-0.057198964
164	0xbe226342	-0.15858176
165	0xbdb7778a	-0.08958347
166	0x3c69183a	0.0142269675
167	0xbccd5d25	-0.025068829
168	0x3de6dfc2	0.11273147
169	0xbe06d297	-0.13166271
170	0x3c985518	0.018595263
171	0x3dac948b	0.0842677
172	0xbd746c8d	-0.059673835
173	0xbd3ef93f	-0.04662442
174	0x3ad35e4a	0.0016126123
175	0x3c53ea3a	0.012934262
176	0xbdecfeef	-0.11572062
177	0x3e0bcfa9	0.13653435
178	0x3c8152ac	0.015786491
179	0xbd2718ad	-0.040795017
180	0xbd2c6e7b	-0.04209755
181	0xbd6ab1db	-0.057298522
182	0x3c957d8e	0.018248346
183	0xbcda0831	-0.026615234
184	0xbc707bc1	-0.014677943
185	0x3e042766	0.12905654
186	0xbc1237d1	-0.0089244405
187	0x3dbec4bb	0.09314867
188	0xbd752f3f	-0.05985951
189	0x3cc37fa1	0.02386457
190	0x3d464644	0.048406854
191	0xbcc4c9d0	-0.024022013
192	0x3cf9d120	0.030495226
193	0x3d2e5d6f	0.042569574
194	0x3ded00b2	0.11572398
195	0xbd03753c	-0.032094225
196	0xbd917976	-0.07103245
197	0xbcc16876	-0.023609381
198	0x3dd762e3	0.10516908
199	0xbdd48d74	-0.103785425
200	0xbc9e8995	-0.019352714
201	0xbd84eaf8	-0.06490129
202	0x3bc5fbdf	0.0060419883
203	0x3a6a47ef	0.00089371105
204	0xbc8404fa	-0.016115654
205	0xbb427fbc	-0.0029678186
206	0x3d00c91b	0.03144179
207	0xbc921649	-0.017832892
208	0xbc01b0b0	-0.007915661
209	0xbda1bab6	-0.078969404
210	0x3d904bcb	0.07045706
211	0x3d113c80	0.035458088
212	0x3d009cdd	0.031399596
213	0xbd24b1da	-0.040208675
214	0x3cf03d6f	0.029326169
215	0xbdb16e5a	-0.08663626
216	0x3b976376	0.004620011
217	0x3dd2763b	0.10276457
218	0x3d1155c9	0.0354822
219	0xbd1f0bc6	-0.038829587
220	0xbd10774f	-0.03527003
221	0xbd9516c2	-0.07279731
222	0x3cb98ace	0.022649195
223	0xbc2bc671	-0.010484324
224	0xbcae6c3e	-0.021291848
225	0xbd315540	-0.04329419
226	0x3cddeb6f	0.027089803
227	0xbd7cb18b	-0.061692756
228	0x3df4e583	0.119578384
229	0x3d3ffe46	0.046873353
230	0x3dd22765	0.1026142
231	0xbd586ba6	-0.052837037
232	0x3da27d3a	0.07934041
233	0xbc81805a	-0.015808273
234	0xbccc1ce3	-0.024916118
235	0xbc4c9c89	-0.012488493
236	0x3d7b795e	0.06139504
237	0x3d4d5223	0.05012716
238	0x3c62070e	0.013795627
239	0x3d82dd8f	0.06389915
240	0xbb6248a1	-0.0034528153
241	0xbd437af7	-0.04772469
242	0xbb2f0b56	-0.0026709638
243	0xbc85f1f1	-0.016350718
244	0x3dcb65f2	0.09931554
245	0xbda57c4e	-0.0808035
246	0x3e001a5a	0.12510052
247	0x3d9393e0	0.07205939
248	0x3d03a002	0.032135017
249	0x3d039684	0.032125965
250	0x3c9f5f4b	0.019454619
251	0xbab62e34	-0.0013899268
252	0x3c3aad0e	0.0113937985
253	0xbbd8da72	-0.0066178376
254	0xbd85938a	-0.065222815
255	0x3ce5dde7	0.028059913

layer2.bias f4 [50]
0	0xbd7bbcd8	-0.061459392
1	0xbd88364c	-0.06650981
2	0xbd899189	-0.06717212
3	0x3b3a22ca	0.0028402084
4	0xbce70fbc	-0.028205745
5	0xbc0049a1	-0.0078300545
6	0x3d0ec735	0.034857947
7	0x3d970cd0	0.07375491
8	0x3d190d74	0.037366346
9	0xbc66643f	-0.0140619865
10	0xbce131a3	-0.027489489
11	0x3d24dccb	0.040249627
12	0x3b8f08e4	0.0043650735
13	0xbd0949a5	-0.0335175
14	0xbcec5335	-0.02884827
15	0x3cc09804	0.023509987
16	0xbd4e3cd2	-0.05035097
17	0x3cc44dd9	0.023962902
18	0x3d299c39	0.04140875
19	0x3d7a9ea0	0.061186433
20	0xb9901018	-0.0002747781
21	0xbd1b6ef7	-0.03794762
22	0x3c764d78	0.015033118
23	0x3c14a236	0.009071877
24	0x3d838d76	0.06423466
25	0xbd4e8f57	-0.05042967
26	0x3d645803	0.055747997
27	0xbd1206b3	-0.03565092
28	0x3cddc256	0.027070206
29	0xbc1c8d8c	-0.009555232
30	0xbd0dec69	-0.034649286
31	0xbcb20271	-0.02172968
32	0x3cb7edb3	0.022452211
33	0xbd700853	-0.05860169
34	0xbc20d664	-0.00981674
35	0xbd3bcf22	-0.045851834
36	0x3c6c0154	0.0144046135
37	0x3d36e67f	0.044653412
38	0x3d1e80c0	0.038697004
39	0xbd7d25d2	-0.061803646
40	0xbd8e0f4e	-0.06936513
41	0xbc45c5a8	-0.012071051
42	0xbc5ba040	-0.013404906
43	0x3d805517	0.062662296
44	0xbd4df0bb	-0.050278407
45	0x3cf567c2	0.029956702
46	0x3bcec408	0.00630999
47	0xbc707c29	-0.01467804
48	0x3d624acc	0.055247113
49	0xbc69ca74	-0.01426946

layer4.weight f4 [25, 50, 3, 3]
0	0x3d301dca	0.04299716
1	0x3da38690	0.0798465
2	0x3c02afef	0.007976516
3	0xbd45a173	-0.048249673
4	0x3d4063db	0.04697023
5	0xbcbb928e	-0.022897031
6	0x3d7dd496	0.061970316
7	0xba813ae5	-0.0009859471
8	0xbd0f2a1e	-0.034952275
9	0x3d3d37a0	0.046195626
10	0x3d1d8862	0.038460143
11	0x3ccc6617	0.024951024
12	0xbd7d2b41	-0.06180883
13	0x3cd05571	0.025431367
14	0x3bfd8971	0.0077373316
15	0x3c8d085b	0.017215898
16	0x3dcdec8c	0.10054883
17	0x3c9702a7	0.018433882
18	0xbce3dd0d	-0.027815366
19	0x3d32602a	0.04354874
20	0x3d88bd13	0.06676688
21	0xbd6e4698	-0.058172792
22	0xbd86c18a	-0.065798834
23	0x3dc0bc13	0.09410872
24	0x3d8d977e	0.069136605
25	0xbd868642	-0.065685764
26	0xbdc9eff4	-0.098602206
27	0x3c582961	0.013193459
28	0x3d251f37	0.040312972
29	0xbddf2660	-0.10895991
30	0x3dbc0ba5	0.091819085
31	0x3d864d71	0.065577395
32	0x3d105362	0.03523577
33	0x3d29c974	0.041451886
34	0x3c4da4c4	0.01255149
35	0x3e1da505	0.15394981
36	0xbcefe448	-0.029283658
37	0x3d9e7aed	0.0773829
38	0xbd9bf0d3	-0.07614293
39	0xbd82612c	-0.0636619
40	0xbd17919a	-0.03700409
41	0xbb8ed964	-0.004359411
42	0x3d6d6a5d	0.057962764
43	0xbe019fc4	-0.12658602
44	0xbda55ea0	-0.08074689
45	0x3d52aa2d	0.051431824
46	0xbc8b6b48	-0.01701893
47	0xbb7a9f52	-0.0038241935
48	0x3b84d6e5	0.0040539377
49	0x3ddf998f	0.10917961
50	0xbd62d86c	-0.055382177
51	0x3caf7c2e	0.021421518
52	0x3d331e6f	0.043730196
53	0x3cbef308	0.023309246
54	0x3d909e03	0.07061388
55	0x3d6dfbb6	0.05810138
56	0xbd7c7806	-0.0616379
57	0xbc8b5816	-0.017009776
58	0xbdac8817	-0.084243946
59	0xbd41c1aa	-0.047303833
60	0xbcbed813	-0.023296392
61	0xbda3f121	-0.08004976
62	0x3c0af484	0.008481149
63	0x3dbf9305	0.093542136
64	0x3c81b2bf	0.015832303
65	0xbdee48fe	-0.11635016
66	0xbe1b4d3e	-0.15166184
67	0xbc9aceb2	-0.018897388
68	0x3d87494b	0.066057764
69	0x3b4f3361	0.0031616318
70	0xbba21a4a	-0.0049469816
71	0xbd95e170	-0.073183894
72	0xbc6a634a	-0.014305899
73	0x3c8fc15c	0.017548256
74	0x3d35ed2c	0.044415638
75	0x3d8e2309	0.06940276
76	0xbcc73087	-0.024315132
77	0x3cd26e0e	0.025687244
78	0xbd2f2ae5	-0.042765517
79	0x3d006450	0.031345665
80	0x3cd17373	0.025567746
81	0xbcae7cc8	-0.021299735
82	0x3cb75ee1	0.022384109
83	0x3d62c7cf	0.055366334
84	0xbb6b720e	-0.0035926136
85	0x3c16c6b0	0.009202644
86	0x3d88af88	0.06674105
87	0x3c3061d8	0.010765515
88	0xbd6fa36a	-0.058505453
89	0xbd0e7f56	-0.034789406
90	0xbc36acb7	-0.011149577
91	0x3cbb271c	0.022845797
92	0x3d0b96dd	0.03407942
93	0xbd565207	-0.05232432
94	0xbafd9d5c	-0.0019349265
95	0x3c445872	0.011983978
96	0xbd2efa51	-0.04271919
97	0xbd38b5df	-0.04509532
98	0x3e25b9c2	0.16184142
99	0xbc81b6da	-0.01583426
100	0x3dc352e3	0.09537294
101	0xbc23843e	-0.009980259
102	0x3d2a676b	0.041602533
103	0x3d0f4ce6	0.034985445
104	0xbc801f94	-0.015640058
105	0xbc87b58e	-0.016566064
106	0x3d85653a	0.06513448
107	0x3d21a81a	0.039466955
108	0xbd73bc1e	-0.059505574
109	0xbb9f18dd	-0.004855259
110	0xbbd70d46	-0.0065628616
111	0x3c33047f	0.010926365
112	0x3df17627	0.11790114
113	0xbda23f78	-0.07922262
114	0x3d489991	0.048974577
115	0x3c210fab	0.009830396
116	0x3ccdc5f0	0.025118798
117	0xbd1cfe4d	-0.038328458
118	0xbd5fcdc0	-0.054639578
119	0xbd9b49f5	-0.075824656
120	0x3b9bdd5b	0.0047566122
121	0x3abf2700	0.0014583766
122	0xbb43c62e	-0.0029872763
123	0xbd4f44aa	-0.050602593
124	0xbc9a605f	-0.018844781
125	0xbbca4283	-0.0061724796
126	0xbd8aba4a	-0.06773813
127	0xbd02fdb9	-0.03198025
128	0x3d196815	0.037452776
129	0x3cbccf93	0.023048198
130	0x3d3803a2	0.04492534
131	0x3dc7d610	0.09757626
132	0xbd5381e7	-0.051637556
133	0x3c2d26d8	0.010568343
134	0x3d7ac269	0.06122056
135	0xbc8def78	-0.017326102
136	0x3d77adc0	0.060468435
137	0x3d146e0f	0.036237773
138	0x3d943a06	0.072376296
139	0x3c1e4d22	0.009661945
140	0xbd2bfaed	-0.04198735
141	0x3bd03994	0.00635452
142	0xbd1c03db	-0.038089614
143	0x3ce3177f	0.027721165
144	0xbd4710e8	-0.048600107
145	0x3d2f7d53	0.042844128
146	0xbd8ce019	-0.06878681
147	0x3d79676b	0.060889643
148	0xbc208b76	-0.009798875
149	0xbd2975e6	-0.041372202
150	0xbd997abd	-0.074941136
151	0xbd999cff	-0.07500648
152	0xbca04b9a	-0.0195673
153	0xbbf61c5a	-0.007510704
154	0xbda3f345	-0.08005384
155	0xbbfc4ce9	-0.007699598
156	0xbd71944d	-0.05897932
157	0x3bbd3da6	0.0057751713
158	0xbcacfa11	-0.021115335
159	0xbdbb332f	-0.09140622
160	0x3d6ea000	0.058258057
161	0xbd9066ff	-0.07050895
162	0xbd810580	-0.06299877
163	0x3d00fa3f	0.031488653
164	0x3ad94841	0.001657732
165	0xbd0808e2	-0.033211596
166	0xbc8b5110	-0.017006427
167	0x3da9a9ec	0.08284363
168	0x3d9fe5fb	0.07807537
169	0x3d1442fa	0.036196686
170	0xbd3b7cd4	-0.045773342
171	0x3d98813e	0.07446526
172	0x3ce49589	0.027903335
173	0xba84d913	-0.0010135494
174	0xbbeced2e	-0.0072304225
175	0x3d2a4ea9	0.041578922
176	0x3d9bf8cf	0.07615816
177	0x3d196627	0.037450936
178	0x3c5316f2	0.012883889
179	0xbb4d29d6	-0.0031305454
180	0xbd8e08c7	-0.06935268
181	0x3b0c87fc	0.0021443358
182	0x3d0ccb4a	0.03437356
183	0x3d386d31	0.045026008
184	0x3ce11154	0.027474083
185	0xbcc1195b	-0.02357166
186	0x3dd512d6	0.10403983
187	0xbbbe5bac	-0.005809268
188	0xbdbc2b0e	-0.091878995
189	0x3d3acf09	0.0456076
190	0x3d2dab01	0.04239941
191	0xbdeb119a	-0.114779666
192	0xbd474aaf	-0.04865521
193	0xbd236cd9	-0.039898727
194	0xbcc5505e	-0.024086174
195	0xbd885204	-0.06656268
196	0x3c6a461d	0.014298943
197	0x3dce3844	0.100693256
198	0xbde0632a	-0.10956414
199	0xbd24bbf7	-0.04021832
200	0xbcc6ba7e	-0.024258848
201	0xbd3ccbb8	-0.04609272
202	0xbd9430e5	-0.072358884
203	0x3d1b2c8d	0.037884284
204	0x3d8db810	0.06919873
205	0xbd6c5558	-0.057698578
206	0x3c3d30d7	0.011547289
207	0xbbe78a0a	-0.007066016
208	0x3d873e12	0.06603636
209	0xbc8dab2a	-0.017293531
210	0xbdfdeece	-0.12399064
211	0x3da2fb20	0.079580545
212	0xbca51057	-0.020149393
213	0xbd2cd21d	-0.042192567
214	0xbc204448	-0.0097819045
215	0x3db9df5a	0.09075804
216	0xbd3ba693	-0.045813154
217	0xbd881a47	-0.06645637
218	0x3d292015	0.04129036
219	0x3ccbd57a	0.024882067
220	0xbb8d35d7	-0.0043093967
221	0x3c721cd5	0.014777382
222	0x3cf4b64b	0.02987208
223	0x3dd45715	0.10368172
224	0x3ddb4aff	0.10707664
225	0x3bb05450	0.0053811446
226	0xbbdc6e94	-0.006727049
227	0xbd81bad6	-0.06334464
228	0x3d714c86	0.05891087
229	0xbcea7c6a	-0.028623778
230	0xbd833d2f	-0.06408154
231	0xbcd08256	-0.025452774
232	0x3a80b715	0.0009820188
233	0x3d2965a9	0.041356716
234	0x3e0fd185	0.14044769
235	0xbd1f04ea	-0.038823046
236	0xbb729748	-0.003701644
237	0x3d705f00	0.05868435
238	0xbda28baa	-0.07936795
239	0xbade5685	-0.0016963041
240	0x3d180b94	0.037120417
241	0xbcdfbf61	-0.027312936
242	0xbd70bb85	-0.058772583
243	0xbd1be88f	-0.038063582
244	0xbd4a8e0b	-0.04945187
245	0x3d86ea21	0.06587625
246	0x3bf55dd7	0.007487993
247	0x3ce99282	0.028512243
248	0xbdad8969	-0.084734745
249	0x3cbb77ae	0.022884216
250	0xbdbd6fdd	-0.09249852
251	0x3c373448	0.011181898
252	0xbd1f2730	-0.03885573
253	0xbd8108ae	-0.06300484
254	0xbd966e08	-0.073452055
255	0xbc989e6a	-0.018630225

layer4.bias f4 [25]
0	0xbcdc018c	-0.026856206
1	0xbd2f05c5	-0.04273011
2	0xbc76d6a6	-0.015065825
3	0xbd0556bf	-0.03255343
4	0xbd05696d	-0.032571245
5	0xbd041751	-0.0322488
6	0xbd2f5f31	-0.04281539
7	0xbcdb2ea1	-0.026755633
8	0xbc9ddc0f	-0.019269971
9	0xbcc6d12b	-0.024269661
10	0x3cfdf330	0.03099975
11	0xbd269a50	-0.040674508
12	0xbbb701bb	-0.005584923
13	0xbb5c2252	-0.0033589792
14	0x3c99bcb9	0.018766748
15	0x3c736065	0.014854525
16	0xbd52ad37	-0.05143472
17	0x3d3a678f	0.045508917
18	0xbcff7f84	-0.031188734
19	0xbcb36315	-0.021897832
20	0x3c45187e	0.012029765
21	0x3d161e9d	0.03665029
22	0xbd02ab74	-0.03190179
23	0xbbf609df	-0.007508501
24	0x3cfe0455	0.031007925

exp_avg f4 [25, 1, 3, 3]
0	0xc6a990f0	-21704.469
1	0xc6f957c5	-31915.885
2	0xc6e6df4a	-29551.645
3	0xc6d5a4b2	-27346.348
4	0xc71576ba	-38262.727
5	0xc70a3dcc	-35389.797
6	0xc6c2e681	-24947.252
7	0xc70cbdb4	-36029.703
8	0xc6fd64a1	-32434.314
9	0x46aecfc0	22375.875
10	0x47091d53	35101.324
11	0x4719377e	39223.492
12	0x46d98105	27840.51
13	0x471ae7d7	39655.84
14	0x4726776a	42615.414
15	0x46d4f8f3	27260.475
16	0x471124e2	37156.883
17	0x47171314	38675.08
18	0xc752e656	-53990.336
19	0xc783305f	-67168.74
20	0xc786f57c	-69098.97
21	0xc72a9b2b	-43675.168
22	0xc763eb8e	-58347.555
23	0xc7769726	-63127.15
24	0xc6cb57c3	-26027.88
25	0xc71e66cd	-40550.8
26	0xc73766d0	-46950.812
27	0x476c49aa	60489.664
28	0x47856bd4	68311.66
29	0x476c50ee	60496.93
30	0x4776f10a	63217.04
31	0x47893644	70252.53
32	0x476e437e	60995.492
33	0x47553e9e	54590.617
34	0x4766922c	59026.17
35	0x473ef9c0	48889.75
36	0xc733bc3e	-46012.242
37	0xc74c180d	-52248.05
38	0xc742ea40	-49898.25
39	0xc731432c	-45379.17
40	0xc752aaee	-53930.93
41	0xc74f03a2	-52995.633
42	0xc7113ada	-37178.85
43	0xc73707ba	-46855.727
44	0xc7399504	-47509.016
45	0xc76b4359	-60227.348
46	0xc7a6b282	-85349.016
47	0xc7ba5a6e	-95412.86
48	0xc789b482	-70505.016
49	0xc7bd3852	-96880.64
50	0xc7cf1ef0	-106045.875
51	0xc780d4b7	-65961.43
52	0xc7afe052	-90048.64
53	0xc7beadd0	-97627.625
54	0xc6ee8d45	-30534.635
55	0xc72afe82	-43774.508
56	0xc73dae0f	-48558.06
57	0xc71bee73	-39918.45
58	0xc7641e83	-58398.51
59	0xc7806385	-65735.04
60	0xc722f24c	-41714.297
61	0xc776a65c	-63142.36
62	0xc78e392a	-72818.33
63	0xc6ad2a5a	-22165.176
64	0xc705d206	-34258.023
65	0xc70df038	-36336.22
66	0xc700a63a	-32934.227
67	0xc727e14d	-42977.3
68	0xc72038c6	-41016.773
69	0xc71fd3fc	-40915.984
70	0xc738760a	-47222.04
71	0xc7225e20	-41566.125
72	0xc7459554	-50581.33
73	0xc766495e	-58953.367
74	0xc757f699	-55286.598
75	0xc760ac33	-57516.2
76	0xc77038fd	-61496.99
77	0xc74cbb2e	-52411.18
78	0xc7598bfc	-55691.984
79	0xc757f982	-55289.508
80	0xc720ec87	-41196.527
81	0x45cac70a	6488.88
82	0xc5f156d2	-7722.8525
83	0xc65af58e	-14013.389
84	0xc6368c48	-11683.07
85	0xc6ec0080	-30208.25
86	0xc715966f	-38294.434
87	0xc6b0e7ca	-22643.895
88	0xc72994fc	-43412.984
89	0xc74b307f	-52016.496
90	0x46cf09f2	26500.973
91	0x47271684	42774.516
92	0x472ab907	43705.027
93	0x46ee6d8d	30518.775
94	0x4738b1b0	47281.688
95	0x473b95e4	48021.89
96	0x46f4712c	31288.586
97	0x473c94a0	48276.625
98	0x473c70da	48240.85
99	0xc73c3d08	-48189.03
100	0xc7414ddb	-49485.855
101	0xc708c554	-35013.33
102	0xc777002c	-63232.17
103	0xc77110c8	-61712.78
104	0xc7271902	-42777.008
105	0xc7811b40	-66102.5
106	0xc772b110	-62129.062
107	0xc72027de	-40999.867
108	0xc6c83c10	-25630.031
109	0xc6ec3568	-30234.703
110	0xc6d756ec	-27563.46
111	0xc6b223f9	-22801.986
112	0xc6c5d654	-25323.164
113	0xc6a27fcc	-20799.898
114	0xc6863b1c	-17181.555
115	0xc6867c6a	-17214.207
116	0xc621e14a	-10360.322
117	0xc70997e4	-35223.89
118	0xc73c31b9	-48177.723
119	0xc761942f	-57748.184
120	0xc6ef08f7	-30596.482
121	0xc73c32a4	-48178.64
122	0xc77137da	-61751.85
123	0xc69e9892	-20300.285
124	0xc72308b6	-41736.71
125	0xc765cec9	-58830.785
126	0x465d8706	14177.756
127	0x46743f6e	15631.857
128	0x469860ae	19504.34
129	0x45093710	2195.4414
130	0x457442f6	3908.185
131	0x46050e90	8515.641
132	0xc60d1096	-9028.146
133	0xc5d7c150	-6904.164
134	0xc3c31be8	-390.21802
135	0xc70f952a	-36757.164
136	0xc7161290	-38418.562
137	0xc6f778fc	-31676.492
138	0xc7283fea	-43071.914
139	0xc721e0fc	-41440.984
140	0xc6ee9e2a	-30543.082
141	0xc730021a	-45058.1
142	0xc71d7192	-40305.57
143	0xc6ca99a4	-25932.82
144	0xc6c21270	-24841.219
145	0xc69afc2c	-19838.086
146	0xc65182c5	-13408.692
147	0xc5ba0e38	-5953.7773
148	0xc5c68451	-6352.5396
149	0xc5d0d6f5	-6682.8696
150	0x462c743e	11037.061
151	0x45b4618c	5772.1934
152	0xc493cd1f	-1182.41
153	0x47338744	45959.266
154	0x474c9920	52377.125
155	0x4743bf72	50111.445
156	0x474c782f	52344.184
157	0x476119b5	57625.707
158	0x47521803	53784.01
159	0x473d8ea8	48526.656
160	0x474d08cc	52488.797
161	0x4739d414	47572.08
162	0x46536c1d	13531.028
163	0x46cdc89a	26340.3
164	0x46febdbc	32606.867
165	0x45cd9614	6578.76
166	0x469ba8f8	19924.484
167	0x46d5d7a8	27371.828
168	0xc5375edb	-2933.9285
169	0x4615a3b3	9576.925
170	0x4688d9e5	17516.947
171	0x472d5fe4	44383.89
172	0x476065b2	57445.695
173	0x47575bba	55131.727
174	0x474c41fe	52289.992
175	0x47794d46	63821.273
176	0x476397f1	58263.94
177	0x4753f41e	54260.117
178	0x4774322c	62514.17
179	0x4751bbd2	53691.82
180	0xc7256178	-42337.47
181	0xc7486865	-51304.395
182	0xc73f419a	-48961.6
183	0xc739e092	-47584.57
184	0xc7578e6e	-55182.43
185	0xc74177e1	-49527.88
186	0xc7384982	-47177.508
187	0xc74d18b8	-52504.72
188	0xc72f53a1	-44883.63
189	0x4692234e	18705.652
190	0x46b5c928	23268.578
191	0x46afea82	22517.254
192	0x46e9df4c	29935.648
193	0x470ef7d6	36599.836
194	0x470da8c2	36264.758
195	0x4701a5b0	33189.688
196	0x472338c7	41784.777
197	0x4727b73b	42935.23
198	0xc7860abf	-68629.49
199	0xc78b139f	-71207.24
200	0xc76b9cf6	-60316.96
201	0xc7714b30	-61771.188
202	0xc76dc6d8	-60870.844
203	0xc738eb1a	-47339.1
204	0xc73ba3c6	-48035.773
205	0xc7279212	-42898.07
206	0xc6d770de	-27576.434
207	0xc73d42ae	-48450.68
208	0xc75234dc	-53812.86
209	0xc737718d	-46961.55
210	0xc7305e57	-45150.34
211	0xc744e489	-50404.535
212	0xc726a53c	-42661.234
213	0xc7034d24	-33613.14
214	0xc7144070	-37952.438
215	0xc6e98928	-29892.578
216	0x46348b6a	11554.854
217	0x4682d240	16745.125
218	0x468e563d	18219.12
219	0x46bea096	24400.293
220	0x46e972ac	29881.336
221	0x46ec5de8	30254.953
222	0x4707e036	34784.21
223	0x471f7a60	40826.375
224	0x471d9162	40337.383

exp_avg_sq f4 [25, 1, 3, 3]
0	0x4fc29e31	6.5302943e+09
1	0x4fc1b2fe	6.499466e+09
2	0x4fa66bb6	5.5841536e+09
3	0x4fd0e79c	7.0096794e+09
4	0x4fd496ba	7.1332956e+09
5	0x4fb96561	6.220858e+09
6	0x4fc45f88	6.58919e+09
7	0x4fcbf132	6.8431636e+09
8	0x4fb5435b	6.0821806e+09
9	0x4eb54140	1.5204762e+09
10	0x4ea209d0	1.359276e+09
11	0x4e88ec66	1.148597e+09
12	0x4efbbcbc	2.111725e+09
13	0x4ee2e970	1.9034747e+09
14	0x4eb89ac6	1.5485755e+09
15	0x4f170210	2.5334948e+09
16	0x4f09d87a	2.3126656e+09
17	0x4edcdbca	1.8526958e+09
18	0x506e2b97	1.5983336e+10
19	0x508b5dd0	1.8705449e+10
20	0x508bdeef	1.8773146e+10
21	0x504a5e31	1.3580682e+10
22	0x507a0a66	1.6779942e+10
23	0x508482f8	1.7785405e+10
24	0x500fdb07	9.653984e+09
25	0x503cdd69	1.2674508e+10
26	0x505467eb	1.4254321e+10
27	0x4eef83d5	2.0091972e+09
28	0x4f06e3c9	2.263075e+09
29	0x4eddbae4	1.8600064e+09
30	0x4f15bf25	2.512332e+09
31	0x4f2c6b32	2.8927063e+09
32	0x4f1152e5	2.438129e+09
33	0x4f081504	2.2830787e+09
34	0x4f1d31f8	2.6372977e+09
35	0x4f065f26	2.2543826e+09
36	0x4f30a812	2.9638047e+09
37	0x4f470225	3.3388065e+09
38	0x4f391bcf	3.1056074e+09
39	0x4f260080	2.7850506e+09
40	0x4f49b128	3.3838305e+09
41	0x4f4716ba	3.3401554e+09
42	0x4ef7d17a	2.0788503e+09
43	0x4f242023	2.7535695e+09
44	0x4f2df332	2.9183964e+09
45	0x50c2b78a	2.6134467e+10
46	0x50e2d7b6	3.0446301e+10
47	0x50e50f63	3.0743927e+10
48	0x50c6c202	2.6676826e+10
49	0x50eddd1d	3.1925529e+10
50	0x50f4d4ee	3.2860762e+10
51	0x50ac5e67	2.3134943e+10
52	0x50d2edcb	2.8310395e+10
53	0x50dd9491	2.974001e+10
54	0x50806073	1.7230436e+10
55	0x50979f3d	2.0350364e+10
56	0x509d63ce	2.112451e+10
57	0x508e6325	1.9110898e+10
58	0x50afa87a	2.3576433e+10
59	0x50bc4ed9	2.5274272e+10
60	0x508d1a3c	1.8938454e+10
61	0x50b484ff	2.422892e+10
62	0x50c75832	2.6755568e+10
63	0x4efef595	2.1387537e+09
64	0x4f1123ca	2.4350418e+09
65	0x4f05095c	2.231983e+09
66	0x4f31195a	2.9712287e+09
67	0x4f4343ef	3.2760092e+09
68	0x4f2a92da	2.8617508e+09
69	0x4f557a0c	3.5815455e+09
70	0x4f61b3b9	3.786652e+09
71	0x4f3d1451	3.1722253e+09
72	0x4fce3eda	6.920451e+09
73	0x4fd26acf	7.0604303e+09
74	0x4faf1d58	5.875872e+09
75	0x5009c2cc	9.244979e+09
76	0x500a67a5	9.288193e+09
77	0x4fe260bd	7.5959813e+09
78	0x501beeda	1.0464487e+10
79	0x501ba1f4	1.0444329e+10
80	0x4ffc8803	8.473544e+09
81	0x4fdc02fc	7.382366e+09
82	0x50213d6d	1.082063e+10
83	0x504b31a6	1.3636114e+10
84	0x4fbcd65b	6.336329e+09
85	0x5015a371	1.0042066e+10
86	0x5046700b	1.3316926e+10
87	0x4f9183c7	4.882665e+09
88	0x4ff9bd29	8.379847e+09
89	0x502dd99c	1.1666878e+10
90	0x4f63b451	3.8202452e+09
91	0x4f81b6a0	4.352459e+09
92	0x4f76f45d	4.1432097e+09
93	0x4f841636	4.432096e+09
94	0x4f97c6b1	5.092762e+09
95	0x4f90ba01	4.856218e+09
96	0x4f8db9d3	4.7555313e+09
97	0x4fa41a4a	5.5063726e+09
98	0x4f9bfcbe	5.2340644e+09
99	0x4f89b356	4.620463e+09
100	0x4f359521	3.0464494e+09
101	0x4eae307b	1.4612064e+09
102	0x4fedb4f6	7.9761193e+09
103	0x4fa7c1dc	5.6289997e+09
104	0x4f296737	2.8421138e+09
105	0x501e7e86	1.0636368e+10
106	0x4fec6dde	7.9332465e+09
107	0x4f824e2f	4.372324e+09
108	0x5025577e	1.1095898e+10
109	0x501be736	1.0462484e+10
110	0x50003bc4	8.605602e+09
111	0x50421cae	1.3026638e+10
112	0x50371b84	1.2288135e+10
113	0x5015e87f	1.0060168e+10
114	0x504c0dcb	1.3693824e+10
115	0x5041745d	1.2982515e+10
116	0x501eaf48	1.0649149e+10
117	0x4ffd97bc	8.5091594e+09
118	0x50286b15	1.130236e+10
119	0x50450da6	1.3224024e+10
120	0x4fe8231e	7.789231e+09
121	0x5020b0c8	1.078376e+10
122	0x5042c3bc	1.307043e+10
123	0x4fb418f6	6.0430694e+09
124	0x50027c3a	8.756718e+09
125	0x5025a2bf	1.1115625e+10
126	0x4ec3b71c	1.6417787e+09
127	0x4ea86057	1.412443e+09
128	0x4e85e389	1.1231407e+09
129	0x4ea08416	1.3465055e+09
130	0x4e905d75	1.211022e+09
131	0x4e6ad7c1	9.8500205e+08
132	0x4e8fcb46	1.2062318e+09
133	0x4e890c26	1.1496374e+09
134	0x4e668923	9.6693677e+08
135	0x4fcf68eb	6.959519e+09
136	0x4fc8cd0e	6.7377633e+09
137	0x4fa29f1d	5.4566733e+09
138	0x4ff74ff5	8.298425e+09
139	0x4fe88ff0	7.8034944e+09
140	0x4fb5a11f	6.0944707e+09
141	0x4fff97d3	8.57628e+09
142	0x4fea1fae	7.8558894e+09
143	0x4fb102d9	5.9395077e+09
144	0x4fd24c58	7.056437e+09
145	0x4fbd74b6	6.357085e+09
146	0x4f95fbaa	5.0325965e+09
147	0x4fd284e5	7.0638495e+09
148	0x4fc9208f	6.7487084e+09
149	0x4fab4398	5.7466675e+09
150	0x4fc23a68	6.517215e+09
151	0x4fc32b75	6.54881e+09
152	0x4fb1e517	5.9691617e+09
153	0x4ea4362c	1.3775068e+09
154	0x4ec6a4b0	1.6663409e+09
155	0x4ed435dc	1.7801498e+09
156	0x4ea3f652	1.3754145e+09
157	0x4ec0d4bb	1.6175835e+09
158	0x4ec20757	1.6276305e+09
159	0x4ea457f4	1.3786138e+09
160	0x4eb76c2f	1.5386602e+09
161	0x4ea9a102	1.4229507e+09
162	0x4fd13c95	7.020817e+09
163	0x5015b49e	1.0046568e+10
164	0x5038a1ef	1.2390481e+10
165	0x4fb7a6a2	6.162302e+09
166	0x5006776d	9.023895e+09
167	0x502abe83	1.1458448e+10
168	0x4f8d7550	4.7465513e+09
169	0x4fd1334b	7.0195994e+09
170	0x50086f59	9.155995e+09
171	0x505b885a	1.4732585e+10
172	0x505e9733	1.4937804e+10
173	0x503a644f	1.2508544e+10
174	0x5081d384	1.7424982e+10
175	0x508486a8	1.7787339e+10
176	0x505e18e8	1.4904697e+10
177	0x5084f0f5	1.784307e+10
178	0x5087f6fa	1.824888e+10
179	0x506370b9	1.5263262e+10
180	0x4f3f7a79	3.2124746e+09
181	0x4f5104cb	3.5067523e+09
182	0x4f3e0428	3.1879434e+09
183	0x4f36f67d	3.0696072e+09
184	0x4f43bb93	3.28385e+09
185	0x4f298b42	2.844476e+09
186	0x4f1ccea1	2.6307873e+09
187	0x4f2346e6	2.7393326e+09
188	0x4f077509	2.2725942e+09
189	0x4e4f027e	8.6826176e+08
190	0x4e4cf045	8.595746e+08
191	0x4e3355f6	7.521888e+08
192	0x4e677e29	9.7095123e+08
193	0x4e7e630f	1.0669762e+09
194	0x4e6dcaa3	9.9737005e+08
195	0x4e6b671b	9.873507e+08
196	0x4e908a27	1.2124865e+09
197	0x4e94c783	1.2480516e+09
198	0x4ffefc67	8.5559086e+09
199	0x4ff3d22c	8.1812746e+09
200	0x4fc67ef5	6.660418e+09
201	0x5002e2ee	8.783641e+09
202	0x4ffb17ae	8.425266e+09
203	0x4fd059b0	6.9910774e+09
204	0x4ff2cb18	8.1467924e+09
205	0x4fed0f49	7.954404e+09
206	0x4fcd6270	6.891561e+09
207	0x4f993673	5.140965e+09
208	0x4f93ad76	4.9552374e+09
209	0x4f727ca4	4.0682547e+09
210	0x4fa7ed33	5.6346803e+09
211	0x4fa71331	5.6061056e+09
212	0x4f8e7fbd	4.7814723e+09
213	0x4faad03d	5.7315476e+09
214	0x4faef4f8	5.8705797e+09
215	0x4f9b68cb	5.2146724e+09
216	0x4f23b0ec	2.746281e+09
217	0x4f2b0875	2.8694582e+09
218	0x4f1c745c	2.6248714e+09
219	0x4f24f671	2.7676142e+09
220	0x4f2bf86a	2.885184e+09
221	0x4f1bf403	2.61646e+09
222	0x4f27c70c	2.8148398e+09
223	0x4f2f521c	2.941394e+09
224	0x4f1e0d0e	2.6516557e+09

exp_avg f4 [25]
0	0x4722f17e	41713.492
1	0xc759e080	-55776.5
2	0x478578c9	68337.57
3	0xc737b242	-47026.258
4	0x4767181d	59160.113
5	0x478acd1e	71066.234
6	0x479cc838	80272.44
7	0x46bdded2	24303.41
8	0x47aedabb	89525.46
9	0x4639f1f6	11900.49
10	0xc6db21de	-28048.934
11	0x4778d7aa	63703.664
12	0x474dc59f	52677.62
13	0x472c1a7c	44058.484
14	0xc60e72ae	-9116.67
15	0x478d1e6b	72252.836
16	0x461b74ab	9949.167
17	0xc746e63a	-50918.227
18	0xc6f1c8bc	-30948.367
19	0xc7bb8a3f	-96020.49
20	0x479de5e7	80843.805
21	0xc6992318	-19601.547
22	0x479a1dfb	78907.96
23	0x47315a8a	45402.54
24	0xc72fe884	-45032.516

exp_avg_sq f4 [25]
0	0x4e778c95	1.0382964e+09
1	0x4f5caea7	3.7024335e+09
2	0x4f447e7e	3.296624e+09
3	0x4e8f3483	1.2012916e+09
4	0x4eba406a	1.5623918e+09
5	0x4eb09d5f	1.4815517e+09
6	0x4f58ed77	3.6394412e+09
7	0x4df653b1	5.16585e+08
8	0x4eb30597	1.501744e+09
9	0x4f0febc3	2.4145928e+09
10	0x4ee2c3d0	1.9022418e+09
11	0x4ec9c029	1.6924069e+09
12	0x4f5c19fd	3.6926907e+09
13	0x4f990b58	5.135315e+09
14	0x4e41b179	8.124084e+08
15	0x4f6d667e	3.982917e+09
16	0x4e73df42	1.0228737e+09
17	0x4f7c7afa	4.2359178e+09
18	0x4f17d936	2.5475948e+09
19	0x4f8cb6f1	4.721599e+09
20	0x4f29dfda	2.8500198e+09
21	0x4f42493a	3.259579e+09
22	0x4f0ac9bf	2.3284774e+09
23	0x4e4315e2	8.182478e+08
24	0x4ecacfaf	1.7013042e+09

exp_avg f4 [50, 25, 3, 3]
0	0x45d31dac	6755.709
1	0x45790185	3984.095
2	0x443b17de	748.3729
3	0x45aaa69e	5460.827
4	0x450aacf7	2218.8103
5	0xc4a99980	-1356.7969
6	0x458d07fa	4512.997
7	0x449303f0	1176.123
8	0xc517f5e8	-2431.3691
9	0xc45c7d0c	-881.95386
10	0x440463ee	529.5614
11	0x44d68c8d	1716.3922
12	0xc4574702	-861.1095
13	0x4430f096	707.75916
14	0x450443af	2116.2302
15	0xc47ff726	-1023.8617
16	0x43e9e95a	467.82306
17	0x44ed0d08	1896.4072
18	0x45c6c992	6361.1963
19	0x440506b9	532.10504
20	0xc5ab182e	-5475.0225
21	0x4599873a	4912.9033
22	0xc48c6b54	-1123.354
23	0xc5e0e322	-7196.3916
24	0x452e888c	2792.5342
25	0xc53518e1	-2897.555
26	0xc60437b8	-8461.93
27	0xc619a86c	-9834.105
28	0xc5d75754	-6890.916
29	0xc531bffc	-2843.999
30	0xc60b85f2	-8929.486
31	0xc5a83d50	-5383.664
32	0xc45337a2	-844.86926
33	0xc5f41ece	-7811.8506
34	0xc57c809a	-4040.0376
35	0x441e78c2	633.88684
36	0xc4c71cfc	-1592.9058
37	0xc5906b8e	-4621.4443
38	0xc5dfbc94	-7159.5723
39	0xc4b7ef38	-1471.4756
40	0xc58942e8	-4392.3633
41	0xc5d5f2f9	-6846.3716
42	0xc507f2ee	-2175.183
43	0xc594fa26	-4767.2686
44	0xc5d7099a	-6881.2
45	0x4519ac2b	2458.7605
46	0xc43bcbf4	-751.18677
47	0xc57cb646	-4043.392
48	0x44da7760	1747.7305
49	0xc4938b6f	-1180.3573
50	0xc5824ad9	-4169.356
51	0x438e690f	284.82077
52	0xc5060bde	-2144.7417
53	0xc58ce840	-4509.0312
54	0x458458e0	4235.1094
55	0x443a0880	744.1328
56	0xc54150db	-3093.0535
57	0x457fe4d6	4094.3022
58	0x4400aa4c	514.6609
59	0xc5543cac	-3395.792
60	0x4527120d	2673.1282
61	0xc440f2e0	-771.7949
62	0xc5881f1f	-4355.89
63	0xc4854b80	-1066.3594
64	0xc5297f62	-2711.9614
65	0xc5804713	-4104.8843
66	0xc416a9d3	-602.6535
67	0xc50afbc0	-2223.7344
68	0xc563c3a0	-3644.2266
69	0xc47104fb	-964.0778
70	0xc5194b40	-2452.7031
71	0xc569d049	-3741.0178
72	0x45c0de02	6171.751
73	0xc4a12bcc	-1289.3687
74	0xc60d365c	-9037.59
75	0x45b27410	5710.508
76	0xc4f756a3	-1978.7074
77	0xc61cef7e	-10043.873
78	0x4568c2f3	3724.1843
79	0xc55b2aba	-3506.6704
80	0xc62c38f0	-11022.234
81	0x452098d4	2569.5518
82	0x450b68ce	2230.5503
83	0x44b23475	1425.6393
84	0x44e68532	1844.1624
85	0x44ec0d54	1888.4165
86	0x44bc9c58	1508.8857
87	0x44706d30	961.70605
88	0x44a46834	1315.2563
89	0x44ad5b78	1386.8584
90	0xc598129e	-4866.327
91	0xc591fa01	-4671.2505
92	0xc56905c2	-3728.3599
93	0xc58ebaf4	-4567.369
94	0xc583800e	-4208.007
95	0xc5414aa2	-3092.6646
96	0xc588ba30	-4375.2734
97	0xc576c826	-3948.5093
98	0xc52e1081	-2785.0315
99	0x46144224	9488.535
100	0x4599e386	4924.4404
101	0xc3ba035d	-372.02628
102	0x460154b7	8277.179
103	0x45582cb5	3458.7942
104	0xc4fe9e28	-2036.9424
105	0x45d35429	6762.52
106	0x4509a7f0	2202.496
107	0xc53a5788	-2981.4707
108	0xc472b902	-970.89075
109	0xc4e43eee	-1825.9666
110	0xc5210e24	-2576.8838
111	0xc11f8798	-9.970604
112	0xc4620f96	-904.2435
113	0xc4dff2f8	-1791.5928
114	0xc12d3c78	-10.827263
115	0xc46d0f16	-948.2357
116	0xc4e86426	-1859.1296
117	0xc447d145	-799.26984
118	0xc51d4971	-2516.59
119	0xc5725450	-3877.2695
120	0xc40e7426	-569.8148
121	0xc5190452	-2448.27
122	0xc57929c8	-3986.6113
123	0xc44bd980	-815.39844
124	0xc52823b0	-2690.2305
125	0xc5838c2c	-4209.5215
126	0xc5594c7a	-3476.7798
127	0xc57a93fe	-4009.2495
128	0xc584a640	-4244.7812
129	0xc52d33cd	-2771.2375
130	0xc5413e46	-3091.892
131	0xc5468214	-3176.13
132	0xc5416bba	-3094.733
133	0xc54ee512	-3310.317
134	0xc5473909	-3187.5647
135	0xc524f232	-2639.1372
136	0xc56ac492	-3756.2856
137	0xc58a8ee0	-4433.8594
138	0xc4ffed22	-2047.4104
139	0xc545802a	-3160.0103
140	0xc5741220	-3905.1328
141	0xc4f38bd9	-1948.3702
142	0xc53a9b61	-2985.7112
143	0xc56841fc	-3716.124
144	0x404e9510	3.227848
145	0x42d31020	105.531494
146	0x430aa00f	138.62523
147	0x444669ec	793.655
148	0x4409b00c	550.75073
149	0x431c95ed	156.58565
150	0x44a1fb60	1295.8555
151	0x443b38be	748.8866
152	0x4149dd7e	12.616575
153	0xc5851f9c	-4259.951
154	0xc536ee09	-2926.8772
155	0xc4a0079b	-1280.2377
156	0xc556d1db	-3437.116
157	0xc50573e4	-2135.2432
158	0xc40f1a92	-572.41516
159	0xc5369c8d	-2921.7844
160	0xc4e54606	-1834.1882
161	0xc3f30260	-486.01855
162	0xc5cc8322	-6544.3916
163	0xc5d60688	-6848.8164
164	0xc5c4ae57	-6293.7925
165	0xc5b4cfca	-5785.9736
166	0xc5b74a8c	-5865.3184
167	0xc5a1c9f7	-5177.2456
168	0xc5ae21e2	-5572.2354
169	0xc5ab3b9f	-5479.4526
170	0xc590ba3a	-4631.2783
171	0xc553afe0	-3386.9922
172	0x453a57d0	2981.4883
173	0x461321bc	9416.434
174	0xc53d91f4	-3033.122
175	0x454c49b6	3268.607
176	0x461704b2	9665.174
177	0xc459b6a6	-870.8539
178	0x4598d17a	4890.1846
179	0x46255712	10581.768
180	0xc46d4a7a	-949.1637
181	0xc51f313f	-2547.078
182	0xc572ef98	-3886.9746
183	0xc4590556	-868.0834
184	0xc512d1cc	-2349.1123
185	0xc562c0e4	-3628.0557
186	0xc4933b46	-1177.8523
187	0xc5162702	-2402.438
188	0xc5580148	-3456.08
189	0xc59f3df9	-5095.7466
190	0xc58d19c4	-4515.2207
191	0xc55c033a	-3520.2017
192	0xc56eaf23	-3818.946
193	0xc548f232	-3215.1372
194	0xc5121a2c	-2337.6357
195	0xc54875d1	-3207.3635
196	0xc529ad7c	-2714.8428
197	0xc4f72bc5	-1977.3678
198	0x455ae4fc	3502.3115
199	0x425f16d4	55.772293
200	0xc55b5962	-3509.5864
201	0x4537871e	2936.4448
202	0xc418160c	-608.3445
203	0xc584e070	-4252.0547
204	0x44f87c14	1987.8774
205	0xc4a42db9	-1313.4288
206	0xc5937ee0	-4719.8594
207	0x45c240b9	6216.0903
208	0x4598a312	4884.384
209	0x45349ed0	2889.9258
210	0x45979754	4850.916
211	0x4568f7bb	3727.4832
212	0x44fbb156	2013.5417
213	0x45776aa0	3958.664
214	0x4547536a	3189.2134
215	0x44e760c3	1851.0238
216	0x44f17446	1931.6335
217	0x459b25ce	4964.7256
218	0x45ea3d94	7495.6973
219	0x44c9e346	1615.1023
220	0x4597c46a	4856.552
221	0x45ed13d2	7586.4775
222	0x45157dd8	2391.8652
223	0x45aeebe9	5597.489
224	0x4600186d	8198.106
225	0xc5f4169b	-7810.8257
226	0xc5acf8ba	-5535.091
227	0xc5432675	-3122.4036
228	0xc618813a	-9760.307
229	0xc600af7a	-8235.869
230	0xc5c6f30c	-6366.381
231	0xc60c0b70	-8962.859
232	0xc60501a0	-8512.406
233	0xc5edfc0b	-7615.5054
234	0x458f1960	4579.172
235	0x453bee9a	3006.9126
236	0x44991645	1224.6959
237	0x45c47e0c	6287.756
238	0x45a256ac	5194.834
239	0x456703a2	3696.227
240	0x45c46b84	6285.4395
241	0x45b8c2b1	5912.3364
242	0x459bd3f1	4986.4927
243	0xc662e486	-14521.131
244	0xc63f6fd8	-12251.961
245	0xc60cbadf	-9006.718
246	0xc63d0e16	-12099.521
247	0xc638b3f6	-11820.99
248	0xc623afde	-10475.967
249	0xc609079c	-8769.902
250	0xc6245e5a	-10519.588
251	0xc630e9d1	-11322.454
252	0x4639c693	11889.644
253	0x46196b2c	9818.793
254	0x45df8872	7153.0557
255	0x4638c76c	11825.855

exp_avg_sq f4 [50, 25, 3, 3]
0	0x4d8857cc	2.859319e+08
1	0x4d8b41d9	2.9204355e+08
2	0x4d8747d2	2.8370387e+08
3	0x4d9977eb	3.2184662e+08
4	0x4d9a7851	3.2394704e+08
5	0x4d93f416	3.102809e+08
6	0x4d9eca11	3.3300534e+08
7	0x4d9d0dc0	3.293655e+08
8	0x4d93e210	3.1013325e+08
9	0x4b91b182	1.9096324e+07
10	0x4b784089	1.6269449e+07
11	0x4b558c0f	1.3995023e+07
12	0x4ba7519f	2.1930814e+07
13	0x4b927332	1.9195492e+07
14	0x4b81fc0c	1.7037336e+07
15	0x4bb10184	2.320052e+07
16	0x4b9d34cf	2.0605342e+07
17	0x4b8bb949	1.8313874e+07
18	0x4e04d1d8	5.570862e+08
19	0x4e0d069d	5.915052e+08
20	0x4e0cc733	5.9046624e+08
21	0x4e0cbcea	5.902977e+08
22	0x4e11d712	6.116978e+08
23	0x4e0e0ed0	5.9583386e+08
24	0x4e076d00	5.680169e+08
25	0x4e08f58e	5.744485e+08
26	0x4e01f2c5	5.4504275e+08
27	0x4d539c10	2.2188877e+08
28	0x4d6bf91c	2.4743571e+08
29	0x4d797315	2.615668e+08
30	0x4d7ca1a7	2.6490328e+08
31	0x4d8a951b	2.9062845e+08
32	0x4d90424c	3.02533e+08
33	0x4d89f5d9	2.893238e+08
34	0x4d947a94	3.1138266e+08
35	0x4d97afe6	3.181109e+08
36	0x4bdfbc63	2.932551e+07
37	0x4c071a1f	3.5416188e+07
38	0x4c1bf057	4.0878428e+07
39	0x4bdc59d4	2.8881832e+07
40	0x4bffcb25	3.352737e+07
41	0x4c0ef81d	3.7478516e+07
42	0x4bc7c9f8	2.6186736e+07
43	0x4be64ed0	3.0186912e+07
44	0x4bfcc3b7	3.313035e+07
45	0x4ca62466	8.710635e+07
46	0x4cb480e4	9.463581e+07
47	0x4cb9c4ee	9.739659e+07
48	0x4c955123	7.828508e+07
49	0x4c9db128	8.267603e+07
50	0x4c9d853b	8.258607e+07
51	0x4c733eae	6.3765176e+07
52	0x4c7a6045	6.563458e+07
53	0x4c729810	6.359456e+07
54	0x4cd53c09	1.11796296e+08
55	0x4d033f33	1.3762232e+08
56	0x4d153115	1.5643886e+08
57	0x4ce9555b	1.2233391e+08
58	0x4d0abb97	1.4547186e+08
59	0x4d17fb26	1.5936368e+08
60	0x4ce2e3f6	1.1895595e+08
61	0x4d037611	1.3784706e+08
62	0x4d0ba036	1.4640829e+08
63	0x4ac5cfb6	6.481883e+06
64	0x4adc4897	7.2182515e+06
65	0x4b10774e	9.467726e+06
66	0x4ac65dee	6.500087e+06
67	0x4ad9946b	7.1296535e+06
68	0x4b0bc740	9.160512e+06
69	0x4acac3de	6.644207e+06
70	0x4ae92291	7.6393685e+06
71	0x4b133fce	9.650126e+06
72	0x4e475d04	8.3619046e+08
73	0x4e5b9fdb	9.2117165e+08
74	0x4e61e260	9.474273e+08
75	0x4e5838a1	9.068975e+08
76	0x4e684b14	9.743086e+08
77	0x4e69206f	9.778042e+08
78	0x4e530257	8.850365e+08
79	0x4e5d71cd	9.288057e+08
80	0x4e58e25d	9.096784e+08
81	0x4a58f1b6	3.5544135e+06
82	0x4a5dab4a	3.6318265e+06
83	0x4a510a65	3.4249212e+06
84	0x49cdaca3	1.6848844e+06
85	0x49c778e1	1.6340761e+06
86	0x49ae06da	1.4256272e+06
87	0x49b52b92	1.4841462e+06
88	0x4998d71c	1.2520675e+06
89	0x496ef606	978784.4
90	0x4b7b5e67	1.6473703e+07
91	0x4b91c04b	1.9103894e+07
92	0x4b9e3f69	2.0741842e+07
93	0x4b8ff068	1.8866384e+07
94	0x4ba7ca6f	2.199267e+07
95	0x4bb8febb	2.424767e+07
96	0x4ba2e2a0	2.1349696e+07
97	0x4bbdade3	2.4861638e+07
98	0x4bd0d075	2.7369706e+07
99	0x4dcdc881	4.315587e+08
100	0x4dd952a2	4.557589e+08
101	0x4dda5103	4.5784278e+08
102	0x4ddc343b	4.618013e+08
103	0x4de5e95b	4.8215946e+08
104	0x4de4152c	4.783241e+08
105	0x4dd8a966	4.5437254e+08
106	0x4ddec8d4	4.6721293e+08
107	0x4dd97ce8	4.561052e+08
108	0x4b99c04f	2.0152478e+07
109	0x4b617305	1.4775045e+07
110	0x4b36c71e	1.1978526e+07
111	0x4b884529	1.7861202e+07
112	0x4b444d77	1.2864887e+07
113	0x4b2046a9	1.0503849e+07
114	0x4b6d0f83	1.5536003e+07
115	0x4b3057cd	1.1556813e+07
116	0x4b19c025	1.0076197e+07
117	0x4a93482f	4.8261355e+06
118	0x4ac28f80	6.37536e+06
119	0x4b03211d	8.593693e+06
120	0x4ab39a9a	5.885261e+06
121	0x4ae42b91	7.4766805e+06
122	0x4b14c1a1	9.748897e+06
123	0x4ac75803	6.5320975e+06
124	0x4afc0997	8.2587635e+06
125	0x4b1e8aa5	1.0390181e+07
126	0x4b92336e	1.9162844e+07
127	0x4b760dda	1.6125402e+07
128	0x4b65685d	1.5034461e+07
129	0x4b972727	1.9811918e+07
130	0x4b82108a	1.7047828e+07
131	0x4b7591e3	1.6093667e+07
132	0x4ba887a0	2.2089536e+07
133	0x4b99aa5b	2.0141238e+07
134	0x4b95be8f	1.9627294e+07
135	0x4ae997ee	7.654391e+06
136	0x4b0e8727	9.340711e+06
137	0x4b2f248c	1.1478156e+07
138	0x4ad71df3	7.0489535e+06
139	0x4b017a4f	8.485455e+06
140	0x4b216430	1.0576944e+07
141	0x4ad5670b	6.9927735e+06
142	0x4aff4a01	8.3653125e+06
143	0x4b1dfb1a	1.0353434e+07
144	0x4aeb978a	7.719877e+06
145	0x4aa4635c	5.38667e+06
146	0x4a513480	3.427616e+06
147	0x4a897945	4.5047385e+06
148	0x4a1eca08	2.601602e+06
149	0x49aa3419	1.3943071e+06
150	0x4a23d238	2.684046e+06
151	0x49b1b73a	1.4558472e+06
152	0x49795655	1.0212853e+06
153	0x4c63c239	5.9705572e+07
154	0x4c572ef3	5.6409036e+07
155	0x4c4684ba	5.2040424e+07
156	0x4c581158	5.6640864e+07
157	0x4c4cef72	5.372257e+07
158	0x4c3ebf92	5.000353e+07
159	0x4c438209	5.1251236e+07
160	0x4c39d7bd	4.8717556e+07
161	0x4c2d697a	4.545892e+07
162	0x4bbfea74	2.5154792e+07
163	0x4bdca713	2.8921382e+07
164	0x4bf08f1a	3.1530548e+07
165	0x4bcfa824	2.7217992e+07
166	0x4beec595	3.1296298e+07
167	0x4c04003a	3.460324e+07
168	0x4bed1449	3.107445e+07
169	0x4c072d06	3.5435544e+07
170	0x4c14ca2d	3.900434e+07
171	0x4dcb50a0	4.2638234e+08
172	0x4de936bc	4.890848e+08
173	0x4df8068c	5.2014733e+08
174	0x4dd43980	4.4506726e+08
175	0x4deb892a	4.9395437e+08
176	0x4df24fd0	5.081646e+08
177	0x4dc6cf61	4.1693494e+08
178	0x4dd6b5f1	4.50281e+08
179	0x4dd6763e	4.4975917e+08
180	0x4a150039	2.4412302e+06
181	0x4a541c4b	3.4752188e+06
182	0x4a9fcbbe	5.236191e+06
183	0x49e8490d	1.9028816e+06
184	0x4a2a9cf6	2.7953255e+06
185	0x4a878626	4.440851e+06
186	0x49c399e3	1.6023644e+06
187	0x4a1aa72c	2.533835e+06
188	0x4a74c369	4.0102022e+06
189	0x4c0217e5	3.4103188e+07
190	0x4be34723	2.9789766e+07
191	0x4bc79642	2.616026e+07
192	0x4be87849	3.047029e+07
193	0x4bcb8cf7	2.667979e+07
194	0x4bb67354	2.3914152e+07
195	0x4bd43dfe	2.7819004e+07
196	0x4bbc364b	2.4669334e+07
197	0x4bac4fd9	2.2585266e+07
198	0x4d503f2b	2.1836254e+08
199	0x4d5c6d36	2.3113405e+08
200	0x4d5ac2c3	2.2938731e+08
201	0x4d5d7dc8	2.322505e+08
202	0x4d65cc5c	2.4096096e+08
203	0x4d5f4a60	2.3413709e+08
204	0x4d556d35	2.23794e+08
205	0x4d58b7b1	2.2724482e+08
206	0x4d4e3ba1	2.162509e+08
207	0x4ceae2da	1.2314798e+08
208	0x4ce1831b	1.18233304e+08
209	0x4cd18928	1.0985709e+08
210	0x4cd23075	1.1019972e+08
211	0x4cc95866	1.0556293e+08
212	0x4cbbd959	9.8486984e+07
213	0x4cb34c05	9.400324e+07
214	0x4caad825	8.9571624e+07
215	0x4ca02a8e	8.397323e+07
216	0x4c357cde	4.757593e+07
217	0x4c655d71	6.012666e+07
218	0x4c82f60a	6.866133e+07
219	0x4c559d92	5.5998024e+07
220	0x4c7f6f83	6.6960908e+07
221	0x4c8b0e0e	7.290482e+07
222	0x4c5e8095	5.8327636e+07
223	0x4c80fea3	6.763036e+07
224	0x4c8782ea	7.104699e+07
225	0x4deb472d	4.934138e+08
226	0x4dfb1638	5.2656717e+08
227	0x4df10185	5.0542608e+08
228	0x4df09efa	5.046188e+08
229	0x4e0585e5	5.6003616e+08
230	0x4e044f56	5.54948e+08
231	0x4dc790ed	4.1852048e+08
232	0x4deb212e	4.9310253e+08
233	0x4df57283	5.1474032e+08
234	0x4ca88e57	8.8371896e+07
235	0x4c96cb0c	7.905904e+07
236	0x4c5ec8b4	5.840149e+07
237	0x4cc231b4	1.0181366e+08
238	0x4cc180c8	1.0145133e+08
239	0x4ca09efb	8.421167e+07
240	0x4ca60256	8.703659e+07
241	0x4cbb405a	9.817365e+07
242	0x4caf6999	9.1966664e+07
243	0x4e869eea	1.1292808e+09
244	0x4ea330e7	1.3689455e+09
245	0x4eb119e0	1.4856315e+09
246	0x4e4bde01	8.55081e+08
247	0x4e85325f	1.1173354e+09
248	0x4e9a36a3	1.293636e+09
249	0x4e04e9df	5.574799e+08
250	0x4e3c519c	7.8986624e+08
251	0x4e6c9b40	9.9239936e+08
252	0x4dcc983a	4.2906605e+08
253	0x4df12a8c	5.0576218e+08
254	0x4e026df5	5.4706106e+08
255	0x4dc4453b	4.1160893e+08
