models/pairs_training/100samples_scaleby4/lr0.01_gamma0.5/ckpt/model_epoch_800.pth (torch, 167169 bytes, 18 tensors)

layer1.weight f4 [20, 1, 3, 3]
0	0x3ce7a598	0.028277203
1	0xbd4dc2fa	-0.050234772
2	0xbb98c433	-0.0046620606
3	0x3cb39146	0.021919858
4	0x3c228d13	0.00992133
5	0xbc94c6b2	-0.018161152
6	0x3bee100f	0.007265098
7	0x3d26a3d6	0.04068359
8	0x3cb105d9	0.021609234
9	0xbc3edfb3	-0.011650014
10	0xbd503cac	-0.05083911
11	0xbd3cb1ad	-0.046067882
12	0x3d72b09b	0.059250455
13	0xbde058ff	-0.10954475
14	0x3db42f78	0.087981164
15	0x3e0e3958	0.13889062
16	0xbd214a77	-0.039377656
17	0xbcd30cf9	-0.025763022
18	0xbd91c9db	-0.07118579
19	0xbc8897cd	-0.016673947
20	0x3ded8e1b	0.1159937
21	0x3d789652	0.06069023
22	0x3a72b481	0.00092584646
23	0x3e213b4d	0.15745278
24	0xbdb47f74	-0.08813372
25	0x3d25f4f1	0.040516797
26	0xbdf7fdc9	-0.121089526
27	0x3dfc06da	0.12305994
28	0xbd66594a	-0.056237496
29	0x3d89c444	0.06726888
30	0x3c99c2c2	0.018769626
31	0x3e058673	0.1303957
32	0x3d76d35b	0.060260158
33	0x3dc294f1	0.095010646
34	0x3e343cbc	0.17601293
35	0x3d922573	0.07136049
36	0x3d9b7178	0.07590002
37	0xbd7178c7	-0.058953073
38	0x3d920fba	0.07131906
39	0xbdcb7919	-0.09935207
40	0xbe92930f	-0.28627822
41	0xbd332391	-0.04373509
42	0x3e1404a7	0.144549
43	0x3db79adc	0.08965084
44	0x3e3424cb	0.1759216
45	0xbd23a2bf	-0.03995013
46	0x3cfc0765	0.030765245
47	0x3cce2d48	0.025168076
48	0xbcf3fa87	-0.029782547
49	0x3e0743ec	0.13209504
50	0x3d749b5b	0.05971847
51	0xbd1da1e4	-0.03848447
52	0x3ddf83d6	0.109138176
53	0xbe119e01	-0.1422043
54	0x3d4f5368	0.05061665
55	0xbd0fa06c	-0.0350651
56	0x3df5e353	0.12006249
57	0xbe403be8	-0.18772852
58	0x3e3aab75	0.18229468
59	0xbc6b2160	-0.014351219
60	0x3bf1442c	0.007362863
61	0x3d099f8c	0.03359942
62	0xbdcd9875	-0.100388445
63	0x3bcb7305	0.0062087798
64	0x3d4ab3e4	0.049487963
65	0xbd91f16d	-0.071261264
66	0x3db8600a	0.09002693
67	0x3e976161	0.29566482
68	0x3d1ee22c	0.038789913
69	0x3dde677a	0.1085958
70	0xbdadf73f	-0.08494424
71	0xbe90a9f9	-0.2825468
72	0xbd3ce427	-0.04611602
73	0x3dfc1cd7	0.12310188
74	0xbdb4e83c	-0.08833358
75	0xbc2a44d6	-0.010392388
76	0xbd844868	-0.06459123
77	0xbce6508c	-0.02811458
78	0xbb0998e8	-0.002099568
79	0xbda6e8a3	-0.08149841
80	0x3d80c361	0.062872656
81	0xbd492e67	-0.04911652
82	0x3e06f8d2	0.13180855
83	0xbda00905	-0.0781422
84	0xba08aee3	-0.00052140484
85	0xbd89679a	-0.067092136
86	0x3d6d546e	0.057941847
87	0x3df4ddba	0.119563535
88	0xbd9e21e3	-0.07721307
89	0x3ce8e890	0.028431207
90	0xbdd185dc	-0.1023061
91	0xbcf21e0c	-0.029555343
92	0xbda13b12	-0.07872595
93	0xbd937473	-0.07199945
94	0xbd9a6d37	-0.07540362
95	0x3dd7c5bc	0.10535762
96	0x3bdb1f04	0.006687047
97	0x3d355055	0.044266064
98	0xbd07473b	-0.033026915
99	0xbd50a754	-0.050940827
100	0x3bcb3bb0	0.0062021837
101	0xbd69347e	-0.056934826
102	0xbe2d5bd1	-0.16929556
103	0xbe219706	-0.15780267
104	0x3d5e944f	0.054340657
105	0x3defe22f	0.11713063
106	0xbd11192f	-0.035424408
107	0x3dc20bf4	0.09474936
108	0xbd835295	-0.06412236
109	0xbcb7d417	-0.02244
110	0xbd0ccc3b	-0.034374457
111	0x3d61414e	0.05499392
112	0x3dabbad1	0.08385242
113	0xbda55a82	-0.080739036
114	0x3d62b00d	0.055343676
115	0x3d8f267b	0.069897614
116	0xbddc5930	-0.10759199
117	0x3e0e4fd4	0.1389764
118	0xbc3ed29f	-0.011646896
119	0xbd1b2ccd	-0.037884522
120	0xbdf62e41	-0.12020541
121	0xbdf68609	-0.12037284
122	0xbe498acf	-0.19681858
123	0xbd1ac993	-0.037789892
124	0xbd35c1f0	-0.044374406
125	0xbe23eb07	-0.16007625
126	0xbd9b5448	-0.07584435
127	0xbc7b4659	-0.015336596
128	0x3baa5fcd	0.0051994086
129	0x3e05e609	0.13076033
130	0x3d98cbc2	0.07460739
131	0xbc5f952a	-0.013646403
132	0xbc39fc5c	-0.011351671
133	0x3e544e9a	0.20733109
134	0xbdf09aa3	-0.117482446
135	0xbd787f2e	-0.060668163
136	0x3dbbdf14	0.09173408
137	0x3d43a580	0.047765255
138	0xbdfdb924	-0.123888284
139	0x3d5b9f11	0.053618494
140	0xbdc70420	-0.09717584
141	0x3e1381b3	0.14404945
142	0xbdb67fed	-0.08911119
143	0xbc8f9179	-0.017525421
144	0x3d7ec6e3	0.062201392
145	0xbdc05885	-0.09391884
146	0xbc81aa85	-0.01582838
147	0x3d4bdd52	0.049771614
148	0xbdba6d71	-0.091029055
149	0xbd43e836	-0.047828875
150	0x3da523bb	0.08063456
151	0x3b5aae49	0.0033368042
152	0x3d3b9406	0.045795463
153	0xbe0d021a	-0.13770333
154	0xbe1d15ec	-0.15340394
155	0x3db71868	0.08940202
156	0xbd92a311	-0.07160009
157	0x3d894eb7	0.06704467
158	0x3d50b7d6	0.05095657
159	0xbdbb1008	-0.09133917
160	0xbd803e93	-0.06261935
161	0x3e05d904	0.13071066
162	0xbd90c6f6	-0.07069199
163	0xb9d37902	-0.00040335214
164	0xbdb28099	-0.08715934
165	0xbdac3219	-0.08407993
166	0x3de13c4b	0.10997828
167	0x3e317dd1	0.17333151
168	0x3ddf07e6	0.108901784
169	0xbe2f0ba6	-0.17094287
170	0xbb1c0821	-0.0023808556
171	0xbd424824	-0.04743208
172	0x3cbdf7c3	0.023189431
173	0x3dea84f0	0.11451137
174	0xbe581243	-0.21100716
175	0x3d8ffce2	0.070306554
176	0x3df00126	0.11718969
177	0x3d5de8aa	0.054176964
178	0xbdcb8bcb	-0.09938773
179	0x3d2a6747	0.0416024

layer1.bias f4 [20]
0	0xbe4fd384	-0.2029553
1	0x3e013a28	0.12619841
2	0x3d59acc8	0.053143293
3	0x3e51bd42	0.20482352
4	0x3e017043	0.1264048
5	0xbe2f9bf0	-0.17149329
6	0xbe6c7a1c	-0.23093456
7	0xbe8d3398	-0.27578425
8	0x3e1cd140	0.15314198
9	0x3e8639b6	0.26215905
10	0xbe218439	-0.15773095
11	0xbe7c3ba0	-0.2463212
12	0xbd1efb1f	-0.038813706
13	0xbdad0486	-0.084481284
14	0xbe0b0637	-0.1357659
15	0xbd492e33	-0.049116325
16	0x3d29c9dd	0.041452277
17	0x3e8d48eb	0.27594694
18	0xbe5deb0f	-0.21671699
19	0x3e8f7316	0.2801749

layer2.weight f4 [40, 20, 3, 3]
0	0xbd430dbf	-0.04762053
1	0x3d9ad5e6	0.07560329
2	0xbbf23c48	-0.00739244
3	0xbe0e3ed0	-0.13891149
4	0x3d5f4d61	0.054517154
5	0xbd1f8e93	-0.03895433
6	0xbda13bae	-0.07872711
7	0xbcbbaecd	-0.0229105
8	0x3cf4bc3b	0.029874912
9	0x3d2e693c	0.042580828
10	0xbd04c4b7	-0.032414164
11	0x3d8478aa	0.06468327
12	0xbcf5ab10	-0.029988796
13	0x3d7ef280	0.062242985
14	0x3c8a6d3d	0.016897792
15	0xbd316e10	-0.043317854
16	0xbd4da885	-0.05020954
17	0x3d97a3a9	0.074042626
18	0x3cab51db	0.020913055
19	0x3d02b60f	0.031911906
20	0xbd6c5a83	-0.057703506
21	0xbd1c4eba	-0.038161017
22	0xbcc1ce5b	-0.023657968
23	0xbc1c488e	-0.009538783
24	0xbd5d70c0	-0.054062605
25	0x3d07f83f	0.03319573
26	0xbdad1299	-0.08450813
27	0x3c22f048	0.009944983
28	0x3c470734	0.012147713
29	0x3dd2cffd	0.10293577
30	0x3cf46661	0.029833974
31	0xbb056c2f	-0.0020358672
32	0x3dc76b62	0.097372785
33	0xbe00e244	-0.12586313
34	0x3d393458	0.045215935
35	0x3db8616d	0.090029575
36	0x3d1c5ab2	0.03817243
37	0xbc949c0d	-0.018140817
38	0x3bb385bc	0.005478589
39	0xbcb1fe0b	-0.021727582
40	0xbd45956e	-0.04823821
41	0x3d2cd97d	0.0421996
42	0xbd6387a5	-0.055549283
43	0xbdceffd0	-0.10107386
44	0x3d65997a	0.05605457
45	0xbcaad795	-0.02085475
46	0x3d99de81	0.075131424
47	0x3bfb1554	0.0076624546
48	0x3dca03e1	0.09864021
49	0x3da0c70b	0.078504644
50	0x3e010493	0.12599401
51	0xbd9e5e84	-0.07732871
52	0xbde80b02	-0.113302246
53	0xbcf328b6	-0.029682498
54	0x3c942d3f	0.018087981
55	0xbc9bbbb1	-0.019010397
56	0xbdf3d9f2	-0.11906804
57	0x3d301695	0.042990286
58	0x3cfc9280	0.030831575
59	0x3d30c0ea	0.043152727
60	0x3cb1d537	0.021708114
61	0x3d0bee5a	0.034162857
62	0x3c0da12d	0.008644384
63	0xbd294bd3	-0.041332077
64	0xbda4fce1	-0.08056045
65	0xbd11d536	-0.035603724
66	0xbda8ce48	-0.0824247
67	0x3def031f	0.11670517
68	0x3d980893	0.074235104
69	0xbdd60ba6	-0.104514405
70	0xbd8b04b1	-0.06788004
71	0xbd6a7de8	-0.05724898
72	0xbd8b3066	-0.06796341
73	0xbd4895bf	-0.048970934
74	0x3d385cbf	0.045010325
75	0x3cf0cbb4	0.029394008
76	0x3cb1b2d7	0.021691723
77	0x3ce449c8	0.027867213
78	0x3d86cfdb	0.06582614
79	0x3d121368	0.03566304
80	0x3db557f5	0.08854667
81	0xbd03e3f5	-0.03219982
82	0xbd453335	-0.048144538
83	0xbbc44e6b	-0.0059907935
84	0x3d9368ad	0.071977
85	0x3d2ab596	0.04167708
86	0xbd0120fc	-0.031525597
87	0xbd240d0d	-0.04005151
88	0xbd0831c3	-0.03325058
89	0xbcbc631b	-0.022996476
90	0x3dfdeda0	0.12398839
91	0x3cfb2af0	0.030660123
92	0xbce21a6e	-0.027600493
93	0xbba978e2	-0.005171881
94	0x3da0c3e2	0.07849862
95	0xbc1565d8	-0.00911852
96	0x3e1554b4	0.14583093
97	0x3d37b678	0.04485175
98	0x3dcb5b70	0.0992955
99	0x3c256845	0.010095661
100	0xbcec09c1	-0.028813245
101	0x3d1c9853	0.038231205
102	0x3ccd8ca5	0.025091479
103	0x3d82cbd5	0.06386534
104	0x3d1a3f17	0.037657823
105	0x3d636a85	0.055521507
106	0x3c8a2f7a	0.016868342
107	0xbc113efa	-0.008865112
108	0xbc4767cf	-0.012170746
109	0x3d2c35a8	0.042043358
110	0x39dae303	0.00041749337
111	0xbbd4bc4d	-0.0064921738
112	0xbd61f9dd	-0.05516993
113	0x3cb94479	0.022615658
114	0xbd039332	-0.0321228
115	0xbc37d1b0	-0.011219427
116	0x3e00effd	0.12591548
117	0xbce0f8c8	-0.027462378
118	0xbacfb6f3	-0.001584737
119	0x3cd344a0	0.025789559
120	0xbd8fd053	-0.070221566
121	0x3d2e6f5c	0.04258667
122	0x3d7c1945	0.061547536
123	0x3d8f3954	0.06993356
124	0xbd191999	-0.037377927
125	0x3dbf6ca2	0.09346892
126	0xbd370d6d	-0.04469054
127	0x3dc1345b	0.09433814
128	0xbd505664	-0.05086364
129	0x3dc91686	0.09818749
130	0xbc0dd73d	-0.008657274
131	0xbc2059ab	-0.0097870035
132	0x3c755432	0.014973687
133	0x3da848d6	0.08217017
134	0xbcab2284	-0.020890482
135	0xbd9a2e2b	-0.07528337
136	0xbceda6d5	-0.029010216
137	0xbc8118b7	-0.015758855
138	0xbd24b12e	-0.040208034
139	0x3de382cd	0.11108933
140	0xbc988d9c	-0.018622212
141	0x3d9ba597	0.07599943
142	0xbdb3a42d	-0.087715484
143	0x3da1ab31	0.0789398
144	0xb9bfa20f	-0.00036551102
145	0xbd2ee735	-0.042700965
146	0x3c3047e8	0.010759331
147	0x3d5489bf	0.051889177
148	0x3da98695	0.082776226
149	0xbc96d57b	-0.018412342
150	0x3d64903f	0.055801626
151	0x3ddba74d	0.107252695
152	0x3c26fce8	0.0101921335
153	0x3e102727	0.14077435
154	0x3ba8b8c5	0.0051489794
155	0x3d7edff4	0.062225297
156	0xbd734b6e	-0.059398107
157	0x3d21dbb3	0.039516162
158	0x3c4a2b1c	0.01233938
159	0xbb8569be	-0.0040714433
160	0xbd97e6c6	-0.074170634
161	0xbe0a6872	-0.13516405
162	0x3c8c534c	0.017129563
163	0xbb565cc1	-0.0032709094
164	0x3d574f16	0.052565657
165	0xbded8bd9	-0.115989394
166	0x3da35022	0.079742685
167	0x3ba5726c	0.0050490405
168	0xbc8939eb	-0.01675125
169	0x3c7ebdd1	0.015548185
170	0xbd9af77b	-0.075667344
171	0xbcf28edf	-0.029609142
172	0xbdd222b6	-0.10260527
173	0xbd38c3d4	-0.04510863
174	0xbe0c1a92	-0.13682011
175	0xbd8f470c	-0.06995973
176	0x3bf6e6f8	0.007534858
177	0xbdc97488	-0.0983668
178	0x3c40fe11	0.011779324
179	0xbbdc0813	-0.0067148297
180	0xbba549a0	-0.005044177
181	0x3ccef8b7	0.02526508
182	0x3da341f7	0.07971566
183	0x3d3f88d2	0.04676134
184	0x3dcd4bf5	0.10024253
185	0xbc0c18e8	-0.00855086
186	0x3db744d8	0.08948678
187	0xbd0127ea	-0.031532206
188	0x3cbf1671	0.02332613
189	0x3d80a8f8	0.06282228
190	0xbd8c3f58	-0.06848019
191	0xbcf510ce	-0.02991524
192	0x3d0b2e48	0.033979684
193	0xbc6d2ccb	-0.0144760115
194	0x3c883c2a	0.016630251
195	0xbd39a0e9	-0.04531947
196	0x3c13882f	0.009004637
197	0x3d619383	0.05507232
198	0xbd099671	-0.033590738
199	0xbca957cf	-0.020671753
200	0xbc785a00	-0.015158176
201	0x3cfd95fc	0.030955307
202	0x3d5f39cb	0.054498475
203	0xbde83fbd	-0.11340282
204	0x3d29b1bf	0.041429278
205	0x3d417d4e	0.04723864
206	0x3d0c8343	0.03430487
207	0x3ca9e7b2	0.020740364
208	0x3d18db2c	0.037318394
209	0x3ba1240e	0.004917628
210	0xbdd8415f	-0.105593435
211	0x3d921f1a	0.071348384
212	0x3c928a19	0.017888116
213	0x3dc473d3	0.09592404
214	0xbbe2b181	-0.006918133
215	0xbd5a50a8	-0.053299576
216	0x3c232a93	0.009958881
217	0xbabb165d	-0.0014273633
218	0xbcac8dbb	-0.021063676
219	0xbbcc7ce1	-0.0062404727
220	0x3e03edba	0.12883654
221	0xbdb1e04b	-0.086853586
222	0xbc501994	-0.012701411
223	0x3d7a41d6	0.061097942
224	0xbd7bd951	-0.061486546
225	0x3d8dfd19	0.0693304
226	0x3c751922	0.014959605
227	0x3c7c5750	0.015401676
228	0x3d23d182	0.039994724
229	0x3d4739ef	0.048639234
230	0xbd141d1f	-0.036160585
231	0xbd367b59	-0.044551227
232	0xbd1bb917	-0.038018312
233	0x3d06586e	0.032799177
234	0x3dbea755	0.0930926
235	0x3d084709	0.03327087
236	0xbd0a8387	-0.03381684
237	0x3b99470e	0.00467766
238	0x3cf468f9	0.029835211
239	0x3c068393	0.008210081
240	0x3b2fe8b8	0.0026841592
241	0xbd886652	-0.06660141
242	0x3d5ef3b3	0.05443163
243	0x3d869256	0.0657088
244	0xbca207b6	-0.019779067
245	0x3d80e546	0.062937304
246	0xbe02d4b5	-0.12776454
247	0x3e0ef490	0.1396048
248	0x3c8335e9	0.016016917
249	0xbc0448f8	-0.008074038
250	0x3d5073b6	0.0508916
251	0x3d85b7dc	0.06529209
252	0x3ca50204	0.020142563
253	0x3d102b6e	0.035197668
254	0xbcdf4e0e	-0.027258899
255	0xbd83de63	-0.06438901

layer2.bias f4 [40]
0	0x3bb99e47	0.00566462
1	0xbde4a78d	-0.1116477
2	0x39fd59ba	0.00048322772
3	0xbd98cd62	-0.07461049
4	0xbd200dac	-0.03907554
5	0x3b1a03e9	0.0023500866
6	0xbd89a12f	-0.067201965
7	0x3d24b98c	0.040216014
8	0x3d151069	0.036392603
9	0x3df61451	0.12015594
10	0xbd630f94	-0.05543478
11	0xbd1e4ac8	-0.038645536
12	0x3d00a4c8	0.031407148
13	0x3d0a00e7	0.033692267
14	0xbb792245	-0.003801481
15	0x3d1a5a59	0.03768382
16	0xbd974ca4	-0.07387665
17	0xbc8abb95	-0.01693515
18	0xbd633720	-0.055472493
19	0xbde6310a	-0.11239822
20	0x3da59d4c	0.080866426
21	0xbd5e5805	-0.05428316
22	0x3c73ed1f	0.014888077
23	0xbcb0f49e	-0.021601018
24	0xbd08ec0f	-0.033428248
25	0xbb2a46c4	-0.002598212
26	0xbcc6259b	-0.024187854
27	0x3d7805cc	0.060552403
28	0x3d1c344d	0.038135815
29	0xbb2792ff	-0.0025569794
30	0x3c3d196d	0.0115417065
31	0xbd5dbb4f	-0.05413371
32	0x3d2c8e52	0.042127915
33	0xbd038f4b	-0.032119077
34	0xbcc06bef	-0.023488967
35	0xbcd44d58	-0.025915787
36	0x3cf4528c	0.029824518
37	0xbaec703a	-0.0018038817
38	0xbc8bbebf	-0.017058728
39	0x3d01206f	0.03152507

layer4.weight f4 [16, 40, 3, 3]
0	0xbce8a4e6	-0.028398942
1	0xbd9c1d1f	-0.07622742
2	0x3e3cffb6	0.18456921
3	0x3c9ef95a	0.01940601
4	0xbc9a1730	-0.018809885
5	0x3d4ffc4e	0.050777726
6	0x3d1dbcff	0.03851032
7	0x3e260ffa	0.16217032
8	0x3d0dcbf9	0.03461835
9	0x3d397b62	0.045283683
10	0x3bf315c1	0.0074183648
11	0xbd9eee3b	-0.077602826
12	0x3dc4b998	0.09605712
13	0x3d518101	0.05114842
14	0xbd5eccdc	-0.054394588
15	0xbd05763d	-0.032583464
16	0x3cfc08b9	0.030765878
17	0x3d7a0969	0.06104413
18	0xbc8fb7ee	-0.01754376
19	0x3d99d822	0.07511927
20	0x3d704771	0.05866188
21	0xbacd390c	-0.001565726
22	0xbdb76a34	-0.089558035
23	0x3dfa0636	0.12208216
24	0xbd96bfd1	-0.07360805
25	0x3c8d2143	0.017227774
26	0x3d38d56d	0.045125414
27	0x3bc50e5f	0.006013676
28	0xbdbcac3e	-0.0921254
29	0xbb64c0b3	-0.0034904897
30	0x3e16ee11	0.14739253
31	0xbcfcb80e	-0.030849483
32	0xbd34e998	-0.044168085
33	0x3e0ebab9	0.13938417
34	0x3dbf52b3	0.093419455
35	0x3cb30ec3	0.021857625
36	0x3be93c97	0.0071178186
37	0x3d27da59	0.040979717
38	0xbda22781	-0.07917691
39	0x3d44986b	0.04799692
40	0x3c712bbd	0.014719901
41	0x3cc1a1c1	0.0236367
42	0xbc3f07d9	-0.011659586
43	0x3cc88144	0.024475701
44	0x3cfef22e	0.03112134
45	0x3cc7741f	0.024347363
46	0xbb805958	-0.0039169006
47	0x3c4af5fc	0.012387749
48	0x3d29f2e5	0.041491408
49	0xbd7a2fba	-0.06108067
50	0xbd54837d	-0.05188321
51	0xbd81c568	-0.063364804
52	0x3ce5d4a8	0.028055504
53	0xbd9d7941	-0.07689143
54	0xbd0b6c39	-0.034038756
55	0xbd889552	-0.066691056
56	0xbcfd7c4a	-0.030943055
57	0xbd17436b	-0.03692953
58	0xbd65ea78	-0.05613181
59	0xbc0ef102	-0.008724453
60	0x3d0f5adb	0.034998756
61	0xbd805bd0	-0.06267512
62	0xbd4e5cb2	-0.05038137
63	0xbc7017e9	-0.014654138
64	0xbde2f833	-0.110824965
65	0xbd8f3edd	-0.06994412
66	0x3c009aa3	0.007849368
67	0x3d423cdd	0.047421325
68	0xbdc26e84	-0.094937354
69	0xbe16d0db	-0.1472811
70	0xbda2ef8d	-0.07955847
71	0x3e1aaaac	0.15104169
72	0xbde996ee	-0.11405741
73	0x3bc137f2	0.005896562
74	0xbd0d612a	-0.03451649
75	0x3d924c57	0.07143467
76	0xbcd35014	-0.02579502
77	0xbdb41107	-0.0879231
78	0x3caa3802	0.02077866
79	0xbd81d48a	-0.06339367
80	0x3de65345	0.11246351
81	0x3be938cb	0.007117366
82	0xbda045d8	-0.07825822
83	0x3d363e8f	0.044493254
84	0xbd1c7fe4	-0.038207904
85	0xbe2605e8	-0.1621319
86	0xbe1a2cf6	-0.15056214
87	0x3ced8225	0.028992722
88	0xbcee8cc8	-0.029119864
89	0xbd033b7a	-0.032039143
90	0xbdc0be8f	-0.09411346
91	0x3db08d6e	0.086207256
92	0xbc2ff4ae	-0.0107394885
93	0x3d91b775	0.0711507
94	0xbbcc79f7	-0.0062401253
95	0x3d860472	0.065438166
96	0x3c92f1d6	0.017937582
97	0xbbaca2a7	-0.005268413
98	0xbd0a073e	-0.033698313
99	0x3d9bfc3e	0.07616471
100	0xbd93eee1	-0.07223297
101	0x3c503e8e	0.012710227
102	0x3b778d65	0.0037773487
103	0xbd036835	-0.0320818
104	0xbbcb027a	-0.0061953636
105	0xbcfa86a8	-0.030581787
106	0xbaa082c4	-0.0012246002
107	0x3c86cda4	0.016455479
108	0x3b920dee	0.004457227
109	0xbd055806	-0.03255465
110	0x3c8e6323	0.017381256
111	0x3d2e0569	0.04248563
112	0xbd499332	-0.049212642
113	0xbda298a9	-0.07939274
114	0x3dbfcdc9	0.09365422
115	0x3d0f7449	0.035023008
116	0xbd0e3111	-0.034714762
117	0x3d8aef2f	0.06783902
118	0x3d244009	0.04010013
119	0x3d099166	0.03358593
120	0x3d831c87	0.064019255
121	0x3c229474	0.009923089
122	0xbc3e0d7a	-0.011599893
123	0x3b988868	0.0046549328
124	0xbc9be66b	-0.01903077
125	0xbd11f280	-0.035631657
126	0xbd4cbf4e	-0.04998713
127	0xbcd4ab16	-0.025960486
128	0x3e5b56da	0.2141985
129	0x3ce78078	0.0282595
130	0xbc5045f7	-0.012711993
131	0xbd64e2f8	-0.055880517
132	0x3dc794b7	0.09745162
133	0xbc467203	-0.012112143
134	0x3d48c495	0.0490156
135	0x3c1ecb13	0.009691971
136	0xbd52593f	-0.051354643
137	0xbc4264e2	-0.011864873
138	0xbbe682e2	-0.0070346454
139	0x3bfa7c68	0.007644225
140	0xbc1c87b0	-0.009553835
141	0x3c5040be	0.012710748
142	0x3c6e2cae	0.01453702
143	0x3d8c8ada	0.06862421
144	0x3bc021d6	0.0058634086
145	0xbdbde02c	-0.09271273
146	0x3dabeb8b	0.08394536
147	0xbda2eea6	-0.07955675
148	0x3dafc25b	0.08581992
149	0xbbcbc3b8	-0.0062184
150	0xbd3a07b5	-0.045417506
151	0xbdad5894	-0.084641606
152	0x3d206a7a	0.039164044
153	0x3ce77bf6	0.028257351
154	0xbd92a27b	-0.07159897
155	0xbc8c9854	-0.01716248
156	0x3d0cf7d1	0.034416024
157	0x3dd3e1b9	0.103457876
158	0x3da531d1	0.08066142
159	0xbd4b03c0	-0.049564123
160	0x3d296c19	0.041362856
161	0x3dcd661d	0.10029242
162	0xbd6ec973	-0.058297586
163	0xbd54723d	-0.05186676
164	0xbd380011	-0.04492194
165	0x3d8d385d	0.06895516
166	0x3cdb5e66	0.026778411
167	0x3d9d66c2	0.07685615
168	0x3cde355f	0.027125059
169	0x3d23a200	0.039949417
170	0xbdac2f5e	-0.08407472
171	0x3cd9c41d	0.026582772
172	0x3e0f22dd	0.13978143
173	0x3d453827	0.048149254
174	0x3d4d0b86	0.050059818
175	0x3d0a434e	0.033755593
176	0xbce418a2	-0.027843777
177	0x3d8c2fc2	0.068450466
178	0x3d37063c	0.04468368
179	0xbd36ccca	-0.044628896
180	0xbdb8d23f	-0.09024476
181	0x3e1caff2	0.15301493
182	0xbd2a7ede	-0.041624896
183	0x3cab829d	0.020936305
184	0x3d5a32b6	0.053271018
185	0x3d90167c	0.070355386
186	0x3d0002de	0.031252734
187	0xbc3011c2	-0.010746421
188	0x3d5c0d17	0.05372342
189	0xbdecd30f	-0.11563694
190	0xbd7c0871	-0.061531488
191	0x3d03b4c3	0.03215481
192	0xbdd26b11	-0.102743275
193	0x3cc1742a	0.023614962
194	0xbdda6697	-0.10664099
195	0xbd5e60d4	-0.05429156
196	0x3ceabfb8	0.028655872
197	0xbe04a550	-0.12953687
198	0xbdbf59a2	-0.09343268
199	0x3d163d3f	0.036679503
200	0x3c078708	0.00827194
201	0xba0686fc	-0.00051318086
202	0xbda0aaf4	-0.07845107
203	0xbd079e5d	-0.03311001
204	0x3d27997b	0.040917855
205	0xbdb28300	-0.087163925
206	0xbbf1319d	-0.0073606507
207	0x3d88206e	0.066468105
208	0x3db996cb	0.090619646
209	0x3b1c6a07	0.0023866908
210	0x3ced8653	0.028994715
211	0x3d60bb3a	0.054866053
212	0x3c4dac1a	0.012553239
213	0x3d81ca57	0.063374214
214	0xbd1ebb2a	-0.038752712
215	0xbce9a29a	-0.028519917
216	0x3cd6b079	0.026207196
217	0xbd7aa238	-0.06118986
218	0x3aa3579e	0.0012462025
219	0xbc3eba43	-0.011641088
220	0xbd001eab	-0.031279247
221	0x3d3ec321	0.04657281
222	0x3dc71b80	0.09722042
223	0x3ac8c709	0.0015318106
224	0x3d2c10fb	0.04200838
225	0x3def26c1	0.116773136
226	0x3d790a1b	0.060800653
227	0x3d171bd9	0.036891792
228	0xbcca8044	-0.024719365
229	0xbe11ba38	-0.14231193
230	0xbde08d0e	-0.10964404
231	0x3d87d22b	0.06631883
232	0x3c9e3093	0.019310271
233	0x3c901ec1	0.01759279
234	0x3d110f9c	0.035415277
235	0x3db86be3	0.09004953
236	0x3c50df0b	0.01274849
237	0xbcbd7b1b	-0.02312999
238	0xbc387c4f	-0.011260106
239	0x3c4abe69	0.012374499
240	0xbe13ca42	-0.14432624
241	0x3d93827c	0.07202622
242	0xbe3ef7a6	-0.18649158
243	0xbb8a6e1f	-0.0042245532
244	0xbcb727da	-0.02235787
245	0xbc2e4755	-0.010637124
246	0x3bfa8d63	0.007646249
247	0x3df80c94	0.12111774
248	0xbc7e01a0	-0.015503317
249	0x3dd91754	0.106001526
250	0xbc1a0933	-0.009401607
251	0xbd83a25c	-0.06427452
252	0xbabdf0b4	-0.0014491291
253	0xbd88f42d	-0.06687198
254	0x3e0dbc40	0.13841343
255	0x3be3ab5e	0.006947919

layer4.bias f4 [16]
0	0x3d4b94b1	0.04970235
1	0x3cacd3c5	0.021097073
2	0xbd1aab0e	-0.037760787
3	0xbba7effc	-0.005125044
4	0xbc14851b	-0.009064938
5	0xbd1b4923	-0.037911545
6	0x3c6ce588	0.014459021
7	0x3c8df770	0.017329901
8	0x3d11aaeb	0.03556339
9	0x3c98c35b	0.01864784
10	0xbd2a17d8	-0.041526645
11	0xbbfc1b7d	-0.0076937065
12	0xbc88566b	-0.01664277
13	0x3acee087	0.0015783467
14	0x3c80d5af	0.015726892
15	0xbcb253b3	-0.021768427

exp_avg f4 [20, 1, 3, 3]
0	0xc05fae5c	-3.495017
1	0xbfd4cbea	-1.662473
2	0xbf2827fb	-0.65686005
3	0xc04eb950	-3.2300606
4	0xbfc42cde	-1.5326192
5	0xbf337516	-0.70100534
6	0xc055042c	-3.3283796
7	0xbfe235c7	-1.7672662
8	0xbf8b57be	-1.0886152
9	0xbf23f582	-0.6404649
10	0x3f81673e	1.0109632
11	0x401b27c9	2.4243033
12	0xbf8c10d6	-1.0942638
13	0x3ef4609a	0.4772995
14	0x3ff478f3	1.9099411
15	0xbfbc04de	-1.4688985
16	0x3d6a1c10	0.05715567
17	0x3fc34f3f	1.5258559
18	0xc03cf95c	-2.9527197
19	0xbfd57bd3	-1.6678413
20	0x3ceafa80	0.0286839
21	0xc029b46b	-2.6516368
22	0xbf96a359	-1.17686
23	0x3f3e9e4e	0.74460304
24	0xc0199de3	-2.4002616
25	0xbf2299d4	-0.63515973
26	0x3fc4f218	1.5386381
27	0xc0ad6062	-5.4180155
28	0xbef49730	-0.47771597
29	0x403a94cc	2.9153318
30	0xc084388a	-4.1319017
31	0x3f191760	0.5980129
32	0x4065d62c	3.591197
33	0xc0444552	-3.066731
34	0x3fd6d4c4	1.6783681
35	0x408c33c8	4.381321
36	0xc01c32bb	-2.4405963
37	0x3cbe8480	0.02325654
38	0x3f705c8a	0.93891203
39	0xc00a3b14	-2.1598558
40	0x3e965550	0.29361963
41	0x3f922070	1.1416149
42	0xc018fefa	-2.3905625
43	0x3ca99f40	0.02070582
44	0x3f57735a	0.8416039
45	0xc003b0c0	-2.057663
46	0xbecf834c	-0.4052986
47	0x3fe058dc	1.7527118
48	0xbffadd04	-1.9598699
49	0xbf34ae60	-0.70578575
50	0x3f8cb547	1.0992821
51	0xc01c225f	-2.4395978
52	0xbfc4e074	-1.5380998
53	0xbe181b28	-0.1485411
54	0xc03ff19c	-2.9991217
55	0xc02bb015	-2.6826222
56	0xc01839fe	-2.3785396
57	0xbfffec60	-1.9994011
58	0xbfd68888	-1.6760416
59	0xbfcd5825	-1.6042525
60	0xc020e660	-2.514061
61	0xc0100bc2	-2.2507176
62	0xc0151297	-2.3292596
63	0xc0704da1	-3.754738
64	0xbfe17904	-1.7615056
65	0xbec154c0	-0.37759972
66	0xc04cbb53	-3.1989334
67	0xbfc5d638	-1.5455999
68	0xbf274b88	-0.65349627
69	0xc01c42b2	-2.4415708
70	0xbf88ae39	-1.0678169
71	0xbf1c077c	-0.6094892
72	0x408bd3c6	4.3696012
73	0x3f07fe88	0.5312276
74	0xbfd6fdd4	-1.6796212
75	0x4060d8bc	3.5132284
76	0x3dbc9880	0.092087746
77	0xbfc00fee	-1.5004861
78	0x4079cde5	3.9031918
79	0x3f555260	0.8332882
80	0xbe8ddab0	-0.27705908
81	0x3f549032	0.83032525
82	0x4023b64e	2.558002
83	0x4040c0b2	3.0117612
84	0x3f66cf50	0.90160084
85	0x402ebfe0	2.7304611
86	0x4046d463	3.106713
87	0x3fc48304	1.5352483
88	0x405f67a4	3.4907007
89	0x4076dbe8	3.857172
90	0x4061562f	3.5208852
91	0xbfcb28a8	-1.5871782
92	0xc09ba06e	-4.8633337
93	0x403b2473	2.9240997
94	0xc02db65e	-2.7142558
95	0xc0c34dd2	-6.1032495
96	0x403d4763	2.957482
97	0xc048d52a	-3.1380105
98	0xc0d3141d	-6.596205
99	0x4033461c	2.8011541
100	0xbeb22370	-0.34792662
101	0xbfe86c30	-1.8158016
102	0x4022dcce	2.5447268
103	0xbf4dbd8c	-0.8036735
104	0xc008ed28	-2.1394749
105	0x4024e0fc	2.576232
106	0xbf632fac	-0.88744617
107	0xc002a81e	-2.041511
108	0x40833e82	4.1013803
109	0x40246320	2.56855
110	0x3fad4d64	1.3539243
111	0x40537bfb	3.3044422
112	0x3fe95219	1.8228179
113	0x3f41544a	0.7551924
114	0x405d72de	3.460136
115	0x3fe9f9f9	1.8279411
116	0x3f319b1a	0.6937729
117	0x4102d96d	8.178082
118	0x3fead38c	1.8345809
119	0xc03a510a	-2.9111962
120	0x40d51c0a	6.6596727
121	0x3ebdf670	0.3710208
122	0xc07fea7a	-3.9986863
123	0x40d6d725	6.7137628
124	0x3ec36f60	0.3817091
125	0xc06de212	-3.7169232
126	0xc05b6d52	-3.4285474
127	0x3efb5530	0.4908843
128	0x405ddc31	3.4665644
129	0xc025ea6a	-2.5924325
130	0x3fb55ca0	1.4168892
131	0x408dbaaf	4.4290385
132	0xc041cb95	-3.0280507
133	0x3f80ab30	1.0052242
134	0x40811f1d	4.035048
135	0xbfa6ca43	-1.3030475
136	0xbfc8a40e	-1.5675066
137	0xbf8f727a	-1.120681
138	0xbf2530b0	-0.64527416
139	0xbf0cd8c9	-0.5501829
140	0x3e4f4e42	0.20244697
141	0xbf2dc365	-0.67876273
142	0xbe740bf0	-0.23832679
143	0x3f5276fb	0.822128
144	0x3fd0dcc7	1.6317376
145	0x3fd657d7	1.6745557
146	0x3f5be24e	0.8589219
147	0x3fe2a738	1.7707281
148	0x3fe71e30	1.8056087
149	0x3f976978	1.1829062
150	0x3fabef4d	1.3432404
151	0x3fa572d6	1.292567
152	0x3f647e2c	0.89255023
153	0x40a58b67	5.173267
154	0x3f978922	1.1838725
155	0xc01598ec	-2.3374586
156	0x4066fc00	3.6091309
157	0xbe573d30	-0.21019435
158	0xc05d01d4	-3.4532366
159	0x403e94b9	2.9778273
160	0xbf19f9bc	-0.6014669
161	0xc05e6ce0	-3.4753952
162	0x3e65657e	0.22401997
163	0x3f83c5c8	1.0294733
164	0x3fd1f1b8	1.6401892
165	0xbf97e76c	-1.1867499
166	0xbea16c02	-0.31527716
167	0x3f002379	0.50054127
168	0xbf98483b	-1.1897043
169	0xbdbe45b0	-0.092906356
170	0x3f7cb4ec	0.98713565
171	0xbf6e9e24	-0.93210053
172	0xbfb6e851	-1.4289647
173	0xbfcef6e6	-1.6169097
174	0xbe7e19b0	-0.24814487
175	0xbe2cb4f0	-0.16865897
176	0x3e12d018	0.14337194
177	0xbec89358	-0.39174914
178	0x3ebc0788	0.36724496
179	0x3fafbc04	1.3729253

exp_avg_sq f4 [20, 1, 3, 3]
0	0x4525d968	2653.588
1	0x45366adc	2918.6787
2	0x45378893	2936.536
3	0x45326f42	2854.9536
4	0x4543813f	3128.078
5	0x45436763	3126.4617
6	0x452f7dfd	2807.8743
7	0x453efaf4	3055.6846
8	0x453dd305	3037.1887
9	0x44d4d86e	1702.7634
10	0x44e360f4	1819.0298
11	0x44dbf3a3	1759.6136
12	0x44e6890e	1844.283
13	0x44f706bb	1976.2103
14	0x44ef2d59	1913.4171
15	0x44e2650c	1811.1577
16	0x44f2eacb	1943.3373
17	0x44ebba4e	1885.822
18	0x44deaa24	1781.3169
19	0x44f7dc04	1982.8755
20	0x44fa303b	2001.5072
21	0x44effb6d	1919.857
22	0x4505e8ca	2142.5493
23	0x45073e85	2163.9075
24	0x44ebad55	1885.4166
25	0x45035bd2	2101.7388
26	0x4504bb40	2123.7031
27	0x457c2e76	4034.9038
28	0x4583b5b4	4214.713
29	0x45832991	4197.196
30	0x4584db08	4251.379
31	0x4589ce13	4409.7593
32	0x4587d1ba	4346.216
33	0x4585c82a	4281.0205
34	0x458981db	4400.232
35	0x45864a63	4297.2983
36	0x44de0afe	1776.3435
37	0x44ef1d7a	1912.9211
38	0x44ec0d24	1888.4106
39	0x44ef53c7	1914.618
40	0x45006b1d	2054.6946
41	0x44fbbee5	2013.9655
42	0x44eb9e8a	1884.9543
43	0x44faf6ac	2007.7085
44	0x44f4b19b	1957.5502
45	0x45216b64	2582.712
46	0x452c2218	2754.1309
47	0x45285ee6	2693.9312
48	0x452cb60d	2763.3782
49	0x4537cb44	2940.704
50	0x4532e178	2862.0918
51	0x4529f2a6	2719.1655
52	0x45342ad1	2882.676
53	0x452ebf2b	2795.948
54	0x44ebedea	1887.4348
55	0x44fb9757	2012.7294
56	0x44f23a82	1937.8284
57	0x44fb040f	2008.1268
58	0x4506cff6	2156.9976
59	0x450256f8	2085.4355
60	0x44f35b0b	1946.8451
61	0x4502fbd4	2095.7393
62	0x44fe468f	2034.205
63	0x449a89c5	1236.3053
64	0x44a25000	1298.5
65	0x44a07a63	1283.8246
66	0x44a42f0b	1313.4701
67	0x44ac6a18	1379.3154
68	0x44a9c584	1358.1724
69	0x44a31c45	1304.8834
70	0x44aafc3e	1367.8826
71	0x44a81af9	1344.8429
72	0x450f68c3	2294.5476
73	0x4518bbd7	2443.74
74	0x451a6e04	2470.876
75	0x4517f8b4	2431.544
76	0x452132cd	2579.175
77	0x452195be	2585.359
78	0x4519489b	2452.5378
79	0x4520f3c1	2575.2346
80	0x45204c77	2564.779
81	0x44ed7e37	1899.9442
82	0x450264fe	2086.312
83	0x450210f7	2081.0603
84	0x4502406d	2084.0266
85	0x450edddb	2285.866
86	0x450df3a5	2271.2278
87	0x4501cf5e	2076.9604
88	0x450e01aa	2272.104
89	0x450c6e20	2246.8828
90	0x45544f86	3396.9702
91	0x45570e29	3440.885
92	0x454e36b1	3299.4182
93	0x455ad082	3501.0317
94	0x455dd7b8	3549.4824
95	0x45548688	3400.4082
96	0x4555b79a	3419.475
97	0x4558744a	3463.268
98	0x454fcb66	3324.7124
99	0x454c5e36	3269.8882
100	0x455b61bd	3510.1086
101	0x4558c113	3468.0671
102	0x455bf953	3519.5828
103	0x456b9386	3769.2202
104	0x4567978b	3705.4714
105	0x4559669a	3478.4126
106	0x4567aedc	3706.9287
107	0x4562fa0c	3631.628
108	0x45511359	3345.2092
109	0x45651bd5	3665.7395
110	0x4565b029	3675.01
111	0x4564d2e5	3661.181
112	0x457a238d	4002.222
113	0x45793687	3987.408
114	0x456533b6	3667.232
115	0x45793401	3987.2502
116	0x45770abc	3952.671
117	0x45fd0bfa	8097.497
118	0x460674e7	8605.226
119	0x4606df9c	8631.902
120	0x46063347	8588.819
121	0x460e8baa	9122.916
122	0x460e3a65	9102.599
123	0x460692d3	8612.706
124	0x460e29ba	9098.432
125	0x460d4514	9041.27
126	0x4537ad8c	2938.8467
127	0x4543697a	3126.5923
128	0x4540d8d2	3085.5513
129	0x45492896	3218.5366
130	0x45567f21	3431.9456
131	0x4552f7a1	3375.4768
132	0x454c54fa	3269.311
133	0x45593e8e	3475.9097
134	0x45552754	3410.458
135	0x450ff606	2303.3765
136	0x451d5cfa	2517.811
137	0x451a89b3	2472.6062
138	0x451a089c	2464.538
139	0x4528ffa9	2703.9788
140	0x4526670d	2662.4407
141	0x4514e9b3	2382.6062
142	0x4523a752	2618.4575
143	0x4521a018	2586.0059
144	0x450b52fb	2229.1863
145	0x4519ecfd	2462.8118
146	0x4519ae64	2458.8994
147	0x45140ae0	2368.6797
148	0x45224253	2596.1453
149	0x4520805a	2568.022
150	0x450da8f2	2266.559
151	0x4519c308	2460.1895
152	0x4516dedb	2413.9285
153	0x4506a1d6	2154.1147
154	0x450a649d	2214.2883
155	0x450822f4	2178.1846
156	0x4509e60d	2206.3782
157	0x450e19d1	2273.6135
158	0x450ba964	2234.587
159	0x4506bb17	2155.693
160	0x450ab3f1	2219.2463
161	0x45085d44	2181.829
162	0x44db051a	1752.1594
163	0x44effc22	1919.8792
164	0x44ec41a0	1890.0508
165	0x44e80387	1856.1102
166	0x44fec97e	2038.2966
167	0x44fb3afa	2009.843
168	0x44dd29f5	1769.3112
169	0x44f31b86	1944.8601
170	0x44f06d92	1923.4241
171	0x44b38c0b	1436.3763
172	0x44bcc8c2	1510.2737
173	0x44b1bacf	1421.8378
174	0x44bdc4e8	1518.1533
175	0x44c6c304	1590.0942
176	0x44b9b10c	1485.5327
177	0x44b613f1	1456.6232
178	0x44be6640	1523.1953
179	0x44b1c196	1422.0496

exp_avg f4 [20]
0	0x3f873795	1.0563837
1	0x3f862f79	1.0483238
2	0x3efa70fa	0.4891432
3	0x40692d61	3.6433947
4	0x3f71b3a5	0.9441474
5	0x400712bc	2.1105185
6	0x3f037eb5	0.51365215
7	0x40276c63	2.6159904
8	0xc07e3d80	-3.9725037
9	0x3e60f1d4	0.2196725
10	0xc0590fc2	-3.3915868
11	0xc00ec4f4	-2.230771
12	0xbf41dadd	-0.75724584
13	0xc09aee64	-4.8416004
14	0x3fc6fb66	1.5545471
15	0xbebf5190	-0.37366915
16	0xbf91d31a	-1.1392548
17	0xc01eb579	-2.4798262
18	0x3f965414	1.1744409
19	0x3ea77740	0.32708168

exp_avg_sq f4 [20]
0	0x433fc1ca	191.75699
1	0x4356f74f	214.96605
2	0x42e59180	114.78418
3	0x44938391	1180.1115
4	0x433f8aac	191.54169
5	0x43b0bac8	353.45923
6	0x43243598	164.20935
7	0x438e1aaa	284.2083
8	0x440b931f	558.29877
9	0x42b2bf74	89.37393
10	0x448197eb	1036.7474
11	0x43ad6f0d	346.86758
12	0x437610dc	246.06586
13	0x44ed1d4e	1896.9158
14	0x4408109f	544.2597
15	0x4301efaa	129.93619
16	0x42632b59	56.79233
17	0x44394430	741.0654
18	0x42dc4bc5	110.14799
19	0x4282052d	65.01011

exp_avg f4 [40, 20, 3, 3]
0	0xbdf61603	-0.12015917
1	0xbe36ec82	-0.17863658
2	0xbe1090c5	-0.14117725
3	0xbd97a171	-0.074038394
4	0xbe0902c9	-0.13379969
5	0xbdd06528	-0.10175544
6	0x3cd0d300	0.025491238
7	0xbcf2f154	-0.02965609
8	0x3b9313ec	0.004488459
9	0x3e356b1c	0.1771664
10	0x3d83303e	0.06405686
11	0x3d1cb614	0.03825958
12	0x3e58d780	0.21175957
13	0x3dd5b6e6	0.10435276
14	0x3db099d8	0.08623093
15	0x3e235734	0.15951234
16	0x3da26237	0.07928889
17	0x3daf4831	0.08558691
18	0xbd8a0bd2	-0.06740536
19	0x3d283e0c	0.041074798
20	0x3cd7fbc9	0.026365178
21	0xbd0ec988	-0.034860164
22	0x3d59cf89	0.053176437
23	0x3cb8ddc4	0.022566684
24	0xbdc8dfa5	-0.09808282
25	0xbd4a1bca	-0.049342908
26	0xbdd0532e	-0.10172115
27	0xbda23925	-0.07921056
28	0xbcc70278	-0.02429317
29	0xbd52f059	-0.051498745
30	0x3de17d16	0.110101864
31	0x3dca6df6	0.09884255
32	0xbc5fe90c	-0.013666403
33	0x3e99873d	0.2998599
34	0x3e872d4e	0.26401752
35	0x3dc559ed	0.096362926
36	0x3e8c877e	0.27447122
37	0x3e341b56	0.17588553
38	0x3da735dc	0.0816457
39	0x3e28ae36	0.16472706
40	0x3d81ad5c	0.06331894
41	0xbc02d32c	-0.007984918
42	0x3e80e125	0.25171772
43	0x3e3361d9	0.17517795
44	0x3e07e1bb	0.13269703
45	0xbe70e786	-0.23525819
46	0xbe067990	-0.1313231
47	0xbda06148	-0.07831055
48	0xbe2c8e39	-0.16851129
49	0xbd959bbe	-0.07305096
50	0xbd4749b3	-0.04865427
51	0xbde5614c	-0.112001985
52	0xbd1293ba	-0.035785414
53	0xbd12c88a	-0.03583578
54	0xbe68c00c	-0.2272951
55	0xbe0448c2	-0.1291838
56	0xbd95389c	-0.07286188
57	0xbe7e4e67	-0.24834596
58	0xbe1f969e	-0.155848
59	0xbde2a343	-0.11066296
60	0xbe2ea10e	-0.17053625
61	0xbdcff2a4	-0.10153702
62	0xbd9ba3d9	-0.07599611
63	0xbeb09d64	-0.3449508
64	0xbec70085	-0.38867584
65	0xbe52166f	-0.2051637
66	0xbe2a2b30	-0.16618037
67	0xbe4a224a	-0.19739643
68	0xbd42bc7e	-0.04754304
69	0xbe009ef4	-0.12560636
70	0xbe1879a8	-0.14890158
71	0xbcb96288	-0.022629991
72	0x3e0b093c	0.13577741
73	0x3e1a63db	0.15077154
74	0x3df53900	0.119737625
75	0x3d8c596f	0.068529956
76	0x3dc372f7	0.09543412
77	0x3da590c8	0.080842555
78	0xbc3223b4	-0.01087277
79	0x3cd8fba8	0.026487187
80	0x3ca0d0b8	0.019630775
81	0x3e313089	0.17303671
82	0x3e36f526	0.17866954
83	0x3e0f564c	0.13997763
84	0x3e2a89a1	0.16654064
85	0x3e2e057c	0.1699428
86	0x3e017134	0.1264084
87	0x3dd3a6c6	0.10334544
88	0x3df443ed	0.11927018
89	0x3d98f6f2	0.07468976
90	0x3c65c83c	0.01402479
91	0x3c0246b8	0.007951431
92	0xbc7eb900	-0.015547037
93	0xbb089620	-0.0020841435
94	0x3bd4acb8	0.0064903162
95	0x3ab982a0	0.0014153309
96	0xbd06bd06	-0.03289511
97	0xbc0f9178	-0.00876271
98	0x3c8d9d1c	0.01728683
99	0x3d0eb38a	0.03483919
100	0xbd139417	-0.0360299
101	0xbd5ce67a	-0.053930737
102	0xbd4f1b41	-0.0505631
103	0xbdd7bf5c	-0.10534546
104	0xbdb87e58	-0.09008473
105	0x3bf68e10	0.0075242594
106	0xbcbecc66	-0.023290824
107	0x3cf970d6	0.030449312
108	0xbad19b40	-0.0015991703
109	0xbd01c003	-0.031677257
110	0xbb4abbc8	-0.003093468
111	0x3d63d02c	0.05561845
112	0x3d4dc110	0.050232947
113	0x3d9c1492	0.07621111
114	0x3d45348f	0.048145827
115	0x3d9464c7	0.07245784
116	0x3de23b63	0.11046483
117	0x3e22e088	0.15905964
118	0x3d4ece39	0.050489638
119	0x3dd75542	0.105143085
120	0xbdb15814	-0.08659378
121	0xbdfab6e2	-0.122419134
122	0x3c9f5cae	0.019453373
123	0xbe63d54a	-0.22249332
124	0xbe59b89e	-0.21261832
125	0xbc65f224	-0.014034782
126	0xbe2c9ef4	-0.16857511
127	0xbe1b9e7a	-0.15197173
128	0xbdded17c	-0.108798
129	0xbce552f0	-0.02799365
130	0xbc442c20	-0.011973411
131	0xbb761e90	-0.0037554838
132	0x3d8de83a	0.06929059
133	0x3dbb4140	0.09143305
134	0x3daff321	0.08591295
135	0x3c5f560e	0.013631357
136	0x3d072432	0.032993503
137	0x3d67eb07	0.056620624
138	0xbd7597bc	-0.05995916
139	0xbc919b49	-0.017774241
140	0x3ca7e974	0.020497061
141	0xbd576227	-0.05258384
142	0x3b83296e	0.0040027415
143	0x3d3f06a8	0.046637207
144	0x3e0b701e	0.13616988
145	0xb98ddc00	-0.00027057528
146	0xbc63a2fa	-0.013893837
147	0x3e112ea3	0.14177947
148	0x3c7138e4	0.014723036
149	0x3c7254fe	0.0147907715
150	0x3e21bf1b	0.15795557
151	0x3d746388	0.059665233
152	0x3dac9bf1	0.08428181
153	0x3e6c2174	0.23059636
154	0x3eb726b3	0.35771713
155	0x3e4b0588	0.19826329
156	0x3e479dd5	0.19493802
157	0x3e9c9c48	0.30587983
158	0x3e1d81af	0.15381502
159	0x3ca26efc	0.019828312
160	0x3ddb2e7c	0.107022256
161	0xbd0e2134	-0.034699634
162	0xbe0f6224	-0.14002281
163	0xbe234091	-0.15942599
164	0xbdfba1b2	-0.122867
165	0xbd861c3c	-0.06548354
166	0xbdbd6f2a	-0.092497185
167	0xbd846182	-0.06463911
168	0xbd768b1a	-0.06019125
169	0xbdb86cda	-0.09005137
170	0xbd6f5333	-0.058428954
171	0x3e04dddd	0.12975259
172	0x3e9d02c7	0.3066618
173	0x3e574d2c	0.21025532
174	0x3d6b5b27	0.057459977
175	0x3e52cfa3	0.2058702
176	0x3dcb9433	0.09940376
177	0xbd2bf6f7	-0.04198357
178	0x3d908c82	0.0705805
179	0xbd62806a	-0.055298246
180	0xbd5c5dda	-0.05380044
181	0xbcedc089	-0.029022472
182	0xbce97e7d	-0.028502697
183	0xbd264e17	-0.040601816
184	0xbc49fb88	-0.012328036
185	0xbc364e40	-0.011127055
186	0xbd010418	-0.031498045
187	0x3766e800	1.3763085e-05
188	0x3a6f75e0	0.0009134691
189	0xbd650a76	-0.05591818
190	0xbd473eca	-0.048643865
191	0xbd82504c	-0.06362972
192	0xbd2644aa	-0.040592827
193	0xbcf3cdd2	-0.029761229
194	0xbd1bbc90	-0.038021624
195	0xbd2db707	-0.042410877
196	0xbd19d76a	-0.03755895
197	0xbd34504d	-0.044021893
198	0xbc8d4846	-0.017246377
199	0x3c3bf9d3	0.011473137
200	0x3dabfda4	0.083979875
201	0xbd45927d	-0.048235405
202	0xbc7b7c08	-0.015349396
203	0x3d7b2388	0.061313182
204	0x3c49e67c	0.012323018
205	0x3d563763	0.052298915
206	0x3e02f69d	0.12789388
207	0xbf000eda	-0.5002266
208	0xbeab0961	-0.33405593
209	0xbdf9fda0	-0.12206578
210	0xbededc35	-0.4352738
211	0xbe731800	-0.23739624
212	0xbc5419c0	-0.012945592
213	0xbee25024	-0.44201767
214	0xbe6a1a20	-0.22861528
215	0xba1da000	-0.00060129166
216	0xbd607204	-0.054796234
217	0x3bb16984	0.00541419
218	0x3d87760e	0.06614314
219	0x3d085d5c	0.03329216
220	0x3db9eb63	0.090780996
221	0x3e11c8f6	0.14236817
222	0xbd9fbc38	-0.07799572
223	0xbd46f966	-0.04857769
224	0xbc5ed78e	-0.013601197
225	0xbd7d9edc	-0.06191908
226	0xbd45520c	-0.04817395
227	0xbc977b0e	-0.018491294
228	0xbdaa4aa0	-0.08315015
229	0xbd6a3bc0	-0.05718589
230	0xbc994799	-0.018710898
231	0xbd09c3ae	-0.03363388
232	0x3c01bcf0	0.007918581
233	0x3d49e09f	0.04928648
234	0xbbfb10b8	-0.007661905
235	0x3bea6a28	0.007153768
236	0x3d199513	0.037495684
237	0xbd061d4e	-0.03274279
238	0xbc400a98	-0.011721276
239	0x3cbca060	0.023025692
240	0xbc490096	-0.012268206
241	0x3c8823fc	0.016618721
242	0x3d461475	0.048359353
243	0xbe4196aa	-0.1890513
244	0xbe5561b5	-0.20838054
245	0xbe91b69e	-0.28459638
246	0xbe8f9efc	-0.28050983
247	0xbe8e7e11	-0.27830556
248	0xbea561e8	-0.3230126
249	0xbe3efbea	-0.18650785
250	0xbe156a58	-0.14591348
251	0xbe232556	-0.15932211
252	0x3dd56736	0.104200765
253	0x3d751a2a	0.059839405
254	0x3cb89c6d	0.022535527
255	0x3dd80f56	0.105498

exp_avg_sq f4 [40, 20, 3, 3]
0	0x40edf7f5	7.436518
1	0x41050191	8.312882
2	0x4104ad74	8.292347
3	0x40f09c4f	7.5190806
4	0x4106df05	8.429448
5	0x41074ae8	8.455788
6	0x40db84b1	6.8599477
7	0x40f57690	7.670723
8	0x40f78d56	7.736003
9	0x4185761b	16.682669
10	0x41982921	19.020082
11	0x419e899d	19.817194
12	0x4184eaac	16.614586
13	0x41985374	19.040749
14	0x419facc9	19.959368
15	0x416e2824	14.8848
16	0x41891277	17.134016
17	0x41907f59	18.062181
18	0x4139d18c	11.613659
19	0x41317c66	11.092871
20	0x41180e21	9.503449
21	0x415b5721	13.708772
22	0x41526ce3	13.151584
23	0x4134279e	11.259672
24	0x416946fa	14.579828
25	0x41609df6	14.038565
26	0x41417c5b	12.09286
27	0x432ab263	170.69682
28	0x4337b08e	183.68967
29	0x4333805d	179.50142
30	0x4330b9f5	176.7264
31	0x433fcaa9	191.79164
32	0x433ccb67	188.79454
33	0x4325c144	165.75494
34	0x433504c8	181.01868
35	0x43338863	179.53276
36	0x418c7600	17.557617
37	0x41918068	18.187698
38	0x4189ba93	17.2161
39	0x4181a7e1	16.206972
40	0x4186f69d	16.870417
41	0x4180ab60	16.08368
42	0x4159e8c3	13.619327
43	0x41627461	14.153413
44	0x4158f0d8	13.5588
45	0x4194914b	18.570944
46	0x419f106c	19.883018
47	0x4198ac01	19.083986
48	0x41a4d01f	20.601622
49	0x41b1636e	22.17355
50	0x41aa6de1	21.303652
51	0x41a46e86	20.553967
52	0x41b172b1	22.181002
53	0x41aac47d	21.345942
54	0x41785ac8	15.522163
55	0x418acfc3	17.351446
56	0x418e525b	17.790213
57	0x41716876	15.088003
58	0x4188c165	17.09443
59	0x418e3dda	17.780201
60	0x41534096	13.203268
61	0x41729d78	15.1634445
62	0x418014a3	16.010077
63	0x40dbe295	6.871409
64	0x40ae704e	5.451209
65	0x4073561c	3.8021307
66	0x40c85f6e	6.261649
67	0x409a5399	4.822705
68	0x40596aa0	3.3971329
69	0x40a860a6	5.261798
70	0x4080f3cb	4.02976
71	0x4037b48c	2.8703947
72	0x3fbf3de6	1.4940765
73	0x3fccfad6	1.6014049
74	0x3fc8dc93	1.5692314
75	0x3fc40050	1.5312595
76	0x3fd1b957	1.6384686
77	0x3fcdc3f6	1.6075428
78	0x3fbb922b	1.4653982
79	0x3fc6e644	1.5539021
80	0x3fc30777	1.5236653
81	0x40879211	4.2365804
82	0x40915b60	4.542404
83	0x408eb61e	4.459731
84	0x408d8fc3	4.423799
85	0x4097f2f2	4.7484064
86	0x40954ecb	4.6658683
87	0x4087061b	4.2194953
88	0x40915896	4.5420637
89	0x408f4fcc	4.478491
90	0x40301c94	2.7517443
91	0x4034d4c3	2.825486
92	0x402f01ab	2.7344768
93	0x40321049	2.782244
94	0x4037ae47	2.870012
95	0x40337be8	2.8044376
96	0x402ada5a	2.6695771
97	0x40318679	2.7738326
98	0x402fcd0b	2.7468898
99	0x420aa112	34.657295
100	0x421a5416	38.582115
101	0x421cb1eb	39.173748
102	0x421d516e	39.32952
103	0x42310008	44.25003
104	0x4234cea5	45.2018
105	0x422236b1	40.55341
106	0x4237b656	45.928062
107	0x423cce34	47.20137
108	0x40bd7180	5.920105
109	0x40a65daa	5.1989336
110	0x408212a7	4.064777
111	0x40da5e6f	6.8240275
112	0x40c3b93e	6.1163626
113	0x409c53f3	4.8852477
114	0x40e29314	7.080454
115	0x40cff043	6.498079
116	0x40aa7427	5.3266788
117	0x42e5fa8a	114.989334
118	0x42eafebd	117.497536
119	0x42d8cf08	108.40436
120	0x42eb78d4	117.73599
121	0x42f1b7e2	120.859146
122	0x42dfbe63	111.87185
123	0x42d8fdc4	108.495636
124	0x42df9219	111.78535
125	0x42d02585	104.07328
126	0x41d3cabe	26.473995
127	0x41f309d0	30.379791
128	0x41f9f098	31.242477
129	0x41d7825b	26.93865
130	0x41f8ab4e	31.083645
131	0x42006d8f	32.10699
132	0x41c52f80	24.648193
133	0x41e3e4cf	28.486723
134	0x41ec131a	29.509327
135	0x405b6ea1	3.4286273
136	0x4076b00c	3.854495
137	0x4079893d	3.8990014
138	0x407348cd	3.8013184
139	0x40872701	4.223511
140	0x4086ede6	4.2165403
141	0x407342c3	3.8009498
142	0x4085dd33	4.183252
143	0x40844de5	4.1345086
144	0x40895c21	4.292496
145	0x407ff8a5	3.999551
146	0x40553a9e	3.3317027
147	0x40a6afe2	5.20897
148	0x409d0380	4.9066772
149	0x40836468	4.1060066
150	0x40b58108	5.672001
151	0x40acdbcf	5.401832
152	0x40926274	4.574518
153	0x417d269a	15.821924
154	0x415a90ed	13.660382
155	0x412669dd	10.400846
156	0x4181a2a0	16.204407
157	0x415d6f23	13.839633
158	0x4127263c	10.446835
159	0x417080be	15.031431
160	0x414b4f86	12.706915
161	0x411a578e	9.646376
162	0x40bdf397	5.935985
163	0x40ce9330	6.455467
164	0x40cef363	6.4672103
165	0x40c7b0e6	6.240344
166	0x40dc41d0	6.8830338
167	0x40e01322	7.0023355
168	0x40c505b9	6.1569486
169	0x40dbd153	6.8693023
170	0x40e20c88	7.0640297
171	0x40ba110f	5.8145823
172	0x40b4dd3c	5.652006
173	0x40a2baeb	5.085317
174	0x40d18821	6.5478673
175	0x40c5b557	6.178386
176	0x40b0cd1d	5.5250382
177	0x40db8642	6.860139
178	0x40cad064	6.3379383
179	0x40b52c0f	5.6616282
180	0x3f7a7838	0.9783969
181	0x3f88d93c	1.0691295
182	0x3f893a9a	1.0721009
183	0x3f7f3954	0.9969685
184	0x3f8a831d	1.0821263
185	0x3f894f58	1.0727339
186	0x3f6d4aa5	0.92692024
187	0x3f7fcae9	0.9991899
188	0x3f7b54a4	0.98176026
189	0x3f5b644c	0.85699916
190	0x3f858cdd	1.0433613
191	0x3f919ed4	1.1376595
192	0x3f4f88a7	0.8106789
193	0x3f7a35cb	0.9773833
194	0x3f86f8e8	1.054471
195	0x3f2ee8fa	0.68324244
196	0x3f4fcb1e	0.8116931
197	0x3f5d9772	0.8655921
198	0x3f8c6051	1.0966893
199	0x3f85e709	1.0461131
200	0x3f667787	0.90026134
201	0x3fa76f93	1.3080925
202	0x3f9dbf46	1.2323997
203	0x3f8496ce	1.0358522
204	0x3fb16c56	1.3861187
205	0x3fa51fbf	1.2900313
206	0x3f8aac0d	1.0833756
207	0x41a279b3	20.309423
208	0x41aa789e	21.308895
209	0x41a3913b	20.445913
210	0x41a9a2da	21.204517
211	0x41b11bde	22.138607
212	0x41a8e6f5	21.112772
213	0x41a166c6	20.175182
214	0x41a76949	20.926409
215	0x419ecbfc	19.849602
216	0x3fa0ccc2	1.2562487
217	0x3fa1c33e	1.2637708
218	0x3f93f1fb	1.1558222
219	0x3f8ef5ee	1.1168802
220	0x3f90638f	1.1280383
221	0x3f84e923	1.0383648
222	0x3f66bb64	0.90129685
223	0x3f61f185	0.88259155
224	0x3f48484a	0.78235304
225	0x4001d748	2.0287647
226	0x400fd770	2.2475243
227	0x401098c8	2.259325
228	0x400c0596	2.187841
229	0x4018b35f	2.385948
230	0x4016d65e	2.356834
231	0x400830b8	2.1279736
232	0x40121310	2.2824135
233	0x400e2220	2.2208328
234	0x3f85c560	1.0450859
235	0x3f93538f	1.1509875
236	0x3f924735	1.1427981
237	0x3f860330	1.0469723
238	0x3f9375e2	1.152035
239	0x3f91ec09	1.1400157
240	0x3f715fee	0.94287
241	0x3f84c233	1.0371765
242	0x3f836e47	1.0268029
243	0x3f32fd93	0.69918174
244	0x3f25b20f	0.6472482
245	0x3f1c396c	0.6102512
246	0x3f3df566	0.74202573
247	0x3f357007	0.70874065
248	0x3f34a309	0.7056127
249	0x3f3009a6	0.6876472
250	0x3f3040cd	0.6884888
251	0x3f2a76ac	0.6658733
252	0x3ed32217	0.41236946
253	0x3ecf6319	0.40505293
254	0x3ebb9107	0.36634085
255	0x3eec7ca8	0.46188855

exp_avg f4 [40]
0	0x3f2e8b37	0.68181175
1	0xbd0b80d0	-0.034058392
2	0x3f33b151	0.7019244
3	0x3d806c7d	0.062706925
4	0xbdb6f1a0	-0.08932805
5	0x3f9b51b2	1.2134306
6	0x3e1fe2d8	0.15613878
7	0xbf5a3ba7	-0.8524727
8	0xbea8598c	-0.3288082
9	0xc0121db0	-2.283062
10	0x3eeadf26	0.45873374
11	0xbc2b8477	-0.010468594
12	0xbf78a358	-0.9712424
13	0x3ec34590	0.3813901
14	0x3f655581	0.89583594
15	0xbf425050	-0.759038
16	0xbedf9f41	-0.4367619
17	0x3f5858b8	0.84510374
18	0xbe9b7421	-0.30362037
19	0xbdb593e0	-0.088660955
20	0xbf84c224	-1.0371747
21	0xbf0de386	-0.554253
22	0x3df9efd8	0.1220395
23	0x3c4e8d0a	0.0126068685
24	0x3e77df42	0.2420626
25	0x3c97cfe3	0.018531745
26	0x3d35eb04	0.04441358
27	0x3e5b066c	0.21389169
28	0xbfb2232f	-1.3916987
29	0x3e1ce060	0.15319967
30	0xbf46b215	-0.7761548
31	0x3ed38320	0.41310978
32	0xbeb322be	-0.34987444
33	0xbf61c773	-0.8819496
34	0xbfaffcfd	-1.3749081
35	0xbed391cc	-0.41322172
36	0x3f40c946	0.7530712
37	0xbf0c9705	-0.5491794
38	0xbe61ca1d	-0.22049756
39	0x3f4a8bef	0.7911977

exp_avg_sq f4 [40]
0	0x42357db9	45.372776
1	0x4040b111	3.0108073
2	0x41ca1042	25.257938
3	0x42185e8e	38.09234
4	0x41936ace	18.42715
5	0x41da7351	27.306307
6	0x4182e08e	16.359646
7	0x417177e9	15.091775
8	0x41199bd3	9.600543
9	0x434c110e	204.06662
10	0x41c9b633	25.213964
11	0x42215f67	40.343166
12	0x43387c9c	184.48676
13	0x4298a5ab	76.32357
14	0x438f93dc	287.15515
15	0x4291431f	72.631096
16	0x41a36295	20.423136
17	0x431e03ce	158.01486
18	0x423b4f02	46.827156
19	0x409bac70	4.8647995
20	0x4266eef9	57.73337
21	0x42be0d0f	95.025505
22	0x41f3bd0b	30.467306
23	0x410e6032	8.898485
24	0x41b276fd	22.3081
25	0x40360c62	2.8445058
26	0x402fc75e	2.7465434
27	0x42f06b3c	120.20944
28	0x42b5cac8	90.89606
29	0x4146e661	12.431245
30	0x424569f4	49.35347
31	0x4194fdc5	18.62391
32	0x410ee70a	8.931406
33	0x42b4b332	90.34999
34	0x42b4e99b	90.45626
35	0x4118cf18	9.55056
36	0x4356c00c	214.75018
37	0x41a49f7c	20.577873
38	0x42b435c6	90.10503
39	0x425e44c0	55.56714
