models/sigma0.01_step0.0002_lr0.0004/ckpt/model_epoch_350.pth (torch, 282369 bytes, 18 tensors)

layer1.weight f4 [25, 1, 3, 3]
0.09371307 -0.07587765 0.060039174 0.054903742 0.05100143 0.02535365 -0.009424997 0.117531225
0.16395855 -0.07761498 0.06571303 -0.056733806 0.005561943 -0.097645506 0.036485814 0.001168305
-0.16878033 0.1738195 0.013981226 -0.0789489 0.13085073 0.1278293 0.024177117 -0.110250294
-0.047214836 0.15941712 0.01884917 0.02538876 0.03172971 -0.12323134 0.009931521 0.030388746
-0.1099367 0.106092274 0.057340465 -0.007558787 -0.121936545 0.057537865 -0.12296889 0.029101295
-0.12630267 -0.0266734 -0.11756672 -0.055485886 0.06206575 -0.011790301 -0.071992815 0.01873721
0.14839046 0.1295922 -0.006716633 -0.2284843 0.052613787 0.22902952 0.095094316 -0.09240094
0.025936887 -0.057416175 -0.08659406 0.028629256 -0.018523794 0.017061489 -0.038266398 -0.049538262
0.12787136 -0.23169233 -0.1506291 0.011858057 -0.15303354 0.027269099 0.049664218 0.010843602
-0.19909135 0.13596553 -0.054436088 0.11535217 -0.03299048 -0.005781751 0.09095682 0.053275812
0.07837996 0.04312565 -0.048689645 -0.005682849 -0.009139588 0.02961073 0.06482839 0.08435587
-0.051145315 0.026014803 -0.042637315 -0.10529102 0.008125535 0.08663034 0.040557776 0.06736042
0.01759601 -0.19941615 0.0681436 -0.0030069535 0.036023874 0.04544763 0.126192 0.08203765
-0.09743782 0.07113642 -0.094776355 0.016396761 -0.067168415 -0.029567227 0.025433207 -0.011982741
0.005056113 -0.008892352 -0.07020456 0.049026325 -0.13802187 -0.10747531 -0.1148511 -0.059617247
0.04903313 0.17489354 0.009686199 -0.006690453 0.16455895 0.013006402 0.087036245 0.12744811
0.05792295 0.0727949 -0.025558598 0.21628498 0.22461806 -0.04591813 -0.0032236166 0.18234403
0.010187374 0.071363404 0.006376962 0.094470955 -0.05695522 -0.07541609 0.054936104 -0.11295527
0.01044016 0.012794624 -0.008455072 0.030344713 -0.075715214 -0.00080038124 -0.037339896 -0.093637295
-0.04690634 -0.13252851 0.17484108 -0.10227709 0.08611229 -0.075466126 -0.17197192 0.0700376
-0.11847213 0.016942216 0.009729891 -0.11343001 0.12404462 0.1534035 0.063612506 -0.01967267
0.12037167 -0.07927985 -0.032098677 0.048494678 -0.1763878 -0.0031158826 0.017113062 -0.020357355
0.11592548 -0.10147215 0.10071203 0.21116409 -0.18890151 0.015247353 -0.119901754 -0.0234249
-0.02667429 -0.04971193 -0.122665495 -0.092006646 -0.06079216 -0.109427735 -0.2546768 0.120439425
0.092294104 -0.03363461 0.05512141 -0.065376505 -0.0036401842 -0.035168275 -0.011451501 0.03669997
0.04456335 -0.043120824 0.07161684 0.009661301 0.027257182 0.050937522 -0.12622134 -0.029635983
0.08930132 0.18864247 -0.041873578 0.11956188 -0.047970086 -0.051547375 0.044216722 -0.07243316
0.08464117 0.049500942 0.16785105 0.023499014 -0.049606733 -0.0599044 0.03038295 -0.11658357
-0.025428474
00000000: a3ec bf3d be65 9bbd a3eb 753d bfe2 603d
00000010: e0e6 503d 75b2 cf3c 4d6b 1abc 36b4 f03d
00000020: c0e4 273e 9af4 9ebd 8e94 863d b561 68bd
00000030: f640 b63b 5efa c7bd 2672 153d d021 993a
00000040: c0d4 2cbe bdfd 313e 8311 653c f6af a1bd
00000050: bcfd 053e afe5 023e 170f c63c e8ca e1bd
00000060: 5864 41bd 3e3e 233e 9369 9a3c 17fc cf3c
00000070: 03f7 013d b660 fcbd d1b7 223c d2f1 f83c
00000080: 7e26 e1bd e846 d93d d6dd 6a3d b3af f7bb
00000090: deb9 f9bd d3ac 6b3d 1dd7 fbbd d765 ee3c
000000a0: 7d55 01be 2d82 dabc d2c6 f0bd 2b45 63bd
000000b0: a838 7e3d 1b2c 41bc f870 93bd c77e 993c
000000c0: abf3 173e d1b3 043e 3417 dcbb caf7 69be
000000d0: 8e81 573d b786 6a3e cfc0 c23d b43c bdbd
000000e0: 9879 d43c 392d 6bbd 3a58 b1bd e787 ea3c
000000f0: 36bf 97bc 89c4 8b3c 3abd 1cbd a2e8 4abd
00000100: b6f0 023e c140 6dbe 843e 1abe 4c48 423c
00000110: d3b4 1cbe 7263 df3c b56c 4b3d 5da9 313c
00000120: 9ade 4bbe 8c3a 0b3e 60f8 5ebd c23d ec3d
00000130: 0721 07bd d874 bdbb 9247 ba3d bd37 5a3d
00000140: ac85 a03d 86a4 303d cb6e 47bd 3137 babb
00000150: 36be 15bc 3492 f23c bfc4 843d c5c2 ac3d
00000160: c07d 51bd ff1c d53c 77a4 2ebd d1a2 d7bd
00000170: f720 053c 3f6b b13d e91f 263d 43f4 893d
00000180: 8225 903c bf33 4cbe df8e 8b3d 4f10 45bb
00000190: c58d 133d 4b27 3a3d 7a38 013e 5b03 a83d
000001a0: 7b8d c7bd f9af 913d 1b1a c2bd 8052 863c
000001b0: 988f 89bd f836 f2bc 4d59 d03c 4253 44bc
000001c0: c0ad a53b 3ab1 11bc 69c7 8fbd d4cf 483d
000001d0: 9b55 0dbe 041c dcbd 0e37 ebbd 3731 74bd
000001e0: f7d6 483d 4b17 333e ddb2 1e3c 963b dbbb
000001f0: 2482 283e ce18 553c 0f40 b23d c281 023e
00000200: 9d40 6d3d 7e15 953d 4460 d1bc cf79 5d3e
00000210: 4702 663e a614 3cbd 5043 53bb 65b8 3a3e
00000220: f2e8 263c fa26 923d d6f5 d03b fd79 c13d
00000230: e049 69bd c073 9abd ae04 613d 1855 e7bd
00000240: 340d 2b3c 8ba0 513c 2487 0abc 7a95 f83c
00000250: 9410 9bbd add0 51ba b8f1 18bd e9c4 bfbd
00000260: dd20 40bd 8eb5 07be 8a09 333e a776 d1bd
00000270: a45b b03d fc8d 9abd 6819 30be e06f 8f3d
00000280: 84a1 f2bd 67ca 8a3c 1f6a 1f3c fe4d e8bd
00000290: 1b0b fe3d cf15 1d3e 4647 823d 9428 a1bc
000002a0: 6c85 f63d 795d a2bd e779 03bd 5ba2 463d
000002b0: 019f 34be d633 4cbb b130 8c3c 78c4 a6bc
000002c0: 576a ed3d a1d0 cfbd 1c42 ce3d 663b 583e
000002d0: 666f 41be 09d0 793c 0d8f f5bd 93e5 bfbc
000002e0: 0a84 dabc bd9e 4bbd 0c38 fbbd fb6d bcbd
000002f0: 3301 79bd a61b e0bd ff64 82be f2a8 f63d
00000300: b104 bd3d 72c4 09bd fdc6 613d 1ee4 85bd
00000310: 2890 6ebb 9c0c 10bd 149f 3bbc b552 163d
00000320: 0f88 363d 769f 30bd daab 923d 6f4a 1e3c
00000330: 744a df3c dda3 503d 2b40 01be 29c7 f2bc
00000340: 9ce3 b63d 7e2b 413e a183 2bbd dcdc f43d
00000350: 487c 44bd 5723 53bd 981c 353d d657 94bd
00000360: 5a58 ad3d 80c1 4a3d 25e1 2b3e 0181 c03c
00000370: 6e30 4bbd 515e 75bd aae5 f83c 5ec3 eebd
00000380: 604f d0bc

layer1.bias f4 [25]
0.23352762 -0.14663365 0.06258896 -0.17276509 -0.07410253 -0.26028568 0.01771695 -0.026631856
0.23807035 0.05768477 -0.27144176 0.03575967 0.06634004 -0.14642186 0.08849624 0.12957488
0.18052219 0.024048822 0.26128817 -0.05136147 -0.08316316 -0.062087435 -0.16038652 -0.22952259
-0.2721574
00000000: dd21 6f3e 2227 16be a42e 803d 55e9 30be
00000010: 11c3 97bd 2a44 85be 2323 913c 0d2b dabc
00000020: b7c8 733e de46 6c3d 6afa 8abe bb78 123d
00000030: 49dd 873d 9def 15be 843d b53d 47af 043e
00000040: cfda 383e 0902 c53c 90c7 853e 6860 52bd
00000050: 7251 aabd 654f 7ebd 5d3c 24be f807 6bbe
00000060: 3758 8bbe

layer2.weight f4 [50, 25, 3, 3]
-0.01928163 -0.0048987744 -0.07130403 0.011350138 -0.074493386 0.026006784 0.010789571 -0.07757104
0.023676481 -0.0047081676 0.008345156 -0.05239454 0.00062766334 0.0056345984 0.0061109555 -0.02923744
0.032382216 -0.15096143 -0.016569223 0.0096383635 -0.090636395 -0.037920896 -0.1243836 -0.085058175
-0.09194611 -0.06476861 -0.052560076 0.06962172 0.019336337 0.0009281745 0.027072558 0.053864453
0.076637715 -0.008252053 -0.033389173 -0.011528866 -0.060057133 0.03203158 -0.023145715 -0.05806246
-0.008157273 0.0023029924 -0.018047053 -0.07977414 0.055005074 -0.0028487395 0.039544992 -0.009971075
0.002855379 0.010425478 0.015311502 0.0058760582 -0.043636054 0.09601909 0.007629613 0.037982736
-0.0037267173 -0.07677469 0.122250766 0.040022224 0.07887817 0.09613819 0.10866273 0.044844266
-0.011247254 0.032511473 0.03726823 -0.05641959 -0.027877945 -0.034933206 -0.048864014 -0.04505136
0.074308805 -0.061766133 -0.06752524 -0.038762223 0.008468985 -0.006685336 0.053700123 -0.011488828
0.04613171 -0.035759065 -0.023629049 -0.047468323 -0.1476719 -0.038383387 0.009477483 -0.08999425
0.032196525 -0.021420546 0.04869293 0.09106956 -0.006659468 0.030221686 0.017659085 -0.0010848019
0.024864357 0.05534066 -0.034196958 0.0913973 -0.011159486 -0.038534008 -0.010103518 0.061513826
-0.02540801 -0.06820484 -0.06792931 0.010491347 0.011344794 0.016123421 -0.100788936 -0.08936207
-0.081880555 0.047072254 -0.052418716 0.11330011 0.0764197 -0.06591964 0.031699598 -0.006331749
-0.027884642 0.028237915 -0.04585583 -0.04708074 0.022921376 0.029476933 -0.012319437 0.0046522943
-0.07018581 -0.07415566 -0.0108109545 0.04978275 -0.005170734 0.05633974 -0.0944881 -0.09137015
-0.084790885 -0.059028428 -0.044451557 0.036379192 -0.026286893 -0.037988417 -0.037295673 -0.03424686
0.02873066 -0.119609535 0.042918656 -0.051433057 0.03517819 0.07204191 0.039452597 0.08800771
0.04821199 -0.004002774 -0.0377965 0.019580018 0.044753283 0.03245138 -0.010700853 0.096836455
-0.06585238 -0.018097183 -0.044916548 0.058719467 0.02414614 0.04662446 -0.025170986 0.013216431
-0.022687767 -0.019150525 0.09520036 0.072596826 -0.17145194 0.043394137 0.005951829 0.0074008154
-0.004197542 -0.045034043 -0.061831377 0.020044813 -0.029874394 -0.0099242125 0.10269673 0.1015775
-0.03661121 0.04955353 0.0047128643 -0.06237524 0.034206234 -0.0741981 0.050913412 0.050007667
-0.03306826 0.023127453 -0.031768825 -0.067919694 0.07226751 0.063027136 0.068762295 0.033239145
-0.035308678 -0.041998744 0.07480406 0.054166965 -0.028710876 0.05553537 0.058752563 -0.01822313
-0.028114034 -0.08109797 -0.0034091661 -0.07642399 0.04735017 -0.015363463 -0.018206995 -0.026878176
-0.015375367 -0.011312398 0.0025001562 -0.018501287 -0.11944389 -0.045809958 -0.024000159 -0.054484513
-0.029251518 0.052661087 0.0255752 0.032479648 -0.0465665 -0.15214293 -0.08527565 -0.0055173873
-0.036951985 -0.06451961 0.07775171 0.012453683 -0.0047108224 0.0068574497 0.0023187264 0.029000528
-0.008314975 -0.05192783 -0.037379306 0.092942 0.042642117 -0.019866088 0.07508905 0.039340623
0.03420259 0.13301386 0.028594494 0.0064648795 0.046836946 -0.04849301 -0.070507854 0.015404532
00000000: 82f4 9dbc e685 a0bb d907 92bd eef5 393c
00000010: fd8f 98bd 2e0c d53c bec6 303c 91dd 9ebd
00000020: 2ef5 c13c f946 9abb 1fba 083c a89b 56bd
00000030: c689 243a 70a2 b83b 693e c83b 5b83 efbc
00000040: 37a3 043d a295 1abe 2ebc 87bc 3aea 1d3c
00000050: 939f b9bd f152 1bbd d4bc febd fb32 aebd
00000060: 3e4e bcbd 68a5 84bd 3c49 57bd d595 8e3d
00000070: 3d67 9e3c bc50 733a 45c7 dd3c f9a0 5c3d
00000080: 3cf4 9c3d 9e33 07bc 16c3 08bd 92e3 3cbc
00000090: 78fe 75bd 8c33 033d 159c bdbc e7d2 6dbd
000000a0: 15a6 05bc cded 163b 6ad7 93bc a060 a3bd
000000b0: 004d 613d ebb1 3abb eef9 213d b85d 23bc
000000c0: 4f21 3b3b a0cf 2a3c 18dd 7a3c f38b c03b
000000d0: b8bb 32bd a8a5 c43d d501 fa3b c993 1b3d
000000e0: f13b 74bb 0c3c 9dbd 9c5e fa3d 58ee 233d
000000f0: e18a a13d 19e4 c43d 918a de3d 9fae 373d
00000100: 6746 38bc c02a 053d 92a6 183d 3a18 67bd
00000110: 4a60 e4bc 1f16 0fbd a225 48bd c687 38bd
00000120: 372f 983d 7cfe 7cbd ac4a 8abd 23c5 1ebd
00000130: 7fc1 0a3c aa10 dbbb a9f4 5b3d a33b 3cbc
00000140: 9bf4 3c3d 1978 12bd b591 c1bc 256e 42bd
00000150: 4d37 17be e637 1dbd 7247 1b3c e84e b8bd
00000160: 81e0 033d 247a afbc 3d72 473d ad82 ba3d
00000170: ab37 dabb 7893 f73c c9a9 903c e92f 8eba
00000180: 56b0 cb3c e3ac 623d 1c12 0cbd 822e bb3d
00000190: 47d6 36bc d6d5 1dbd 3a89 25bc ecf5 7b3d
000001a0: 7624 d0bc fbae 8bbd 861e 8bbd e6e3 2b3c
000001b0: 84df 393c 4415 843c 6e6a cebd 7603 b7bd
000001c0: feb0 a7bd d6ce 403d 02b5 56bd e309 e83d
000001d0: ef81 9c3d e000 87bd 70d7 013d 8f7a cfbb
000001e0: 556e e4bc 3353 e73c 53d3 3bbd bcd7 40bd
000001f0: 9cc5 bb3c 9c79 f13c 77d7 49bc 4672 983b
00000200: 94bd 8fbd ecde 97bd 6e20 31bc ffe8 4b3d
00000210: 436f a9bb 80c4 663d fa82 c1bd 4620 bbbd
00000220: d8a6 adbd cbc7 71bd d612 36bd 5902 153d
00000230: 9c57 d7bc be99 1bbd 59c3 18bd 6f46 0cbd
00000240: 905c eb3c d8f5 f4bd 79cb 2f3d 78ab 52bd
00000250: 0117 103d b58a 933d 0c99 213d 633d b43d
00000260: f079 453d b429 83bb 81d0 1abd 4666 a03c
00000270: 384f 373d bdeb 043d a152 2fbc 3152 c63d
00000280: 9ddd 86bd 8b40 94bc 6afa 37bd d383 703d
00000290: 20ce c53c 4af9 3e3d 6233 cebc bb89 583c
000002a0: b2db b9bc 90e1 9cbc 68f8 c23d a5ad 943d
000002b0: 1991 2fbe 0dbe 313d 8f07 c33b 8a82 f23b
000002c0: 898b 89bb 9e75 38bd e642 7dbd 0535 a43c
000002d0: 25bb f4bc 2a99 22bc aa52 d23d dd07 d03d
000002e0: a3f5 15bd a4f8 4a3d 5f6e 9a3b 2e7d 7fbd
000002f0: d61b 0c3d 2cf5 97bd 958a 503d d7d4 4c3d
00000300: 9572 07bd c975 bd3c 0720 02bd 7b19 8bbd
00000310: fd00 943d 5f14 813d 3fd3 8c3d c525 083d
00000320: d59f 10bd e006 2cbd df32 993d 2ede 5d3d
00000330: 1233 ebbc 0e79 633d 87a6 703d ac48 95bc
00000340: 674f e6bc b116 a6bd 516c 5fbb 2e84 9cbd
00000350: 40f2 413d 09b7 7bbc d626 95bc 9f2f dcbc
00000360: f7e8 7bbc a357 39bc a9d9 233b 0390 97bc
00000370: 009f f4bd 39a3 3bbd fb9b c4bc 272b 5fbd
00000380: e1a0 efbc 27b3 573d 1583 d13c 6109 053d
00000390: 84bc 3ebd 5bcb 1bbe 00a5 aebd 33cb b4bb
000003a0: f75a 17bd db22 84bd 4a3c 9f3d 880a 4c3c
000003b0: 3e5d 9abb 75b4 e03b c6f5 173b 8492 ed3c
000003c0: 883b 08bc 47b2 54bd 0b1b 19bd 6058 be3d
000003d0: 80a9 2e3d 35be a2bc 4ac8 993d a223 213d
000003e0: 0418 0c3d c934 083e 003f ea3c 57d7 d33b
000003f0: 19d8 3f3d 9ba0 46bd 6c66 90bd 4a63 7c3c

layer2.bias f4 [50]
-0.0406989 -0.046477202 0.05110858 -0.036965575 0.014509989 0.042177096 -0.0075905663 0.06257631
-0.020308608 0.0006746126 0.0142190745 0.03322858 0.020316571 0.0028158925 0.03808575 -0.06513591
0.043643355 0.054697525 -0.021272315 -0.06431525 -0.018662004 0.048432473 0.057171628 0.03714665
-0.03863241 0.047243346 -0.07111734 -0.028948935 0.0068226294 0.05519328 -0.014854367 -0.0075877137
-0.071421415 -0.032211468 0.022988437 0.05911329 0.055163797 0.013631866 -0.0513973 0.00885061
0.01230694 0.000983233 -0.034869995 -0.019560695 -0.026501238 0.02017043 -0.024054924 -0.025136061
0.005187268 -0.021234447
00000000: e4b3 26bd e15e 3ebd 3b57 513d 3769 17bd
00000010: 4ebb 6d3c e4c1 2c3d 49ba f8bb 0228 803d
00000020: 3d5e a6bc 7cd8 303a 1ff7 683c b11a 083d
00000030: f06e a63c d68a 383b ceff 1b3d fa65 85bd
00000040: 60c3 323d 830a 603d 4743 aebc b7b7 83bd
00000050: 0fe1 98bc 2161 463d cc2c 6a3d 1627 183d
00000060: 053d 1ebd 3d82 413d f8a5 91bd 5126 edbc
00000070: 5d90 df3b 5912 623d bb5f 73bc 5ba2 f8bb
00000080: 6445 92bd 2cf0 03bd 3f52 bc3c c720 723d
00000090: 6ff3 613d 3158 5f3c fa85 52bd 2602 113c
000000a0: 0ca3 493c d3df 803a d7d3 0ebd c03d a0bc
000000b0: 2019 d9bc 753c a53c d50e c5bc 24ea cdbc
000000c0: f5f9 a93b ddf3 adbc

layer4.weight f4 [25, 50, 3, 3]
0.030370042 0.08403757 -0.09263241 -0.026925357 -0.0239113 0.028338244 -0.06670909 0.043908358
0.0076618413 0.11960337 -0.040329214 -0.0043015312 -0.011485161 0.037342645 -0.0033252572 0.0561487
0.008505465 -0.02819646 0.045913514 -0.01633479 0.05559742 0.04395627 0.05598433 0.031156108
-0.08587758 0.0022163638 -0.013678215 0.029599601 0.0071664057 -0.050677802 0.028272992 0.07335205
-0.009191022 0.072121635 0.010033811 0.041736867 -0.044297192 0.015750885 0.0037648948 0.014403696
0.017896203 -0.009110132 -0.03182293 -0.047917776 0.042473957 0.048785266 -0.009737607 0.015115045
-0.06361684 0.042592626 -0.013307282 0.029834302 -0.04991189 0.065766655 0.05060544 0.05231633
-0.025339868 0.06753634 -0.062190104 0.06381376 0.04129889 0.054415748 -0.07646915 -0.06278125
0.05393551 0.101954944 0.048370376 0.028721176 0.052282553 0.08339955 0.08576129 0.07145552
-0.032657802 -0.03169866 -0.05840208 0.09538127 -0.0010878257 -0.056007408 0.02063176 -0.06731642
-0.044119142 -0.035604917 -0.0099588195 0.08282662 -0.0028353296 0.0046834466 0.06254109 0.03542813
0.04434529 -0.016107894 0.009640657 0.07703225 -0.012998716 0.030289872 0.072809115 0.011706887
-0.063686535 0.06340387 0.07981853 -0.014674691 -0.075057045 0.063332215 -0.11727202 -0.07150696
0.045975376 -0.041053288 0.020369163 -0.006569145 0.06226672 -0.009747157 -0.08009134 0.030432533
0.02044 0.00835632 -0.031110069 -0.008425123 0.032751285 0.017716369 -0.025472457 -0.0022793484
-0.06310783 0.07748427 -0.020072835 0.045813326 0.03076545 -0.059520964 0.027346617 -0.013973481
0.039520424 -0.0039563593 -0.050122328 -0.015952453 0.026121031 -0.0534127 0.0073981285 0.050750062
-0.0009018497 -0.043986414 0.04010753 -0.013335111 -0.02791424 0.013017057 -0.0062022973 0.0046868245
-0.04020835 0.012371594 0.012515351 0.0010043929 0.020079257 0.00088181876 0.023827484 0.025025107
0.030561043 -0.058577012 -0.034103535 0.007850704 -0.088715844 -0.016918799 0.033954993 -0.040687572
0.017288929 0.006026096 0.04679919 -0.050565727 -0.013908196 0.0036334496 0.0025413411 -9.2377704e-05
-0.029515848 -0.028328395 -0.018756343 0.048774503 0.041117676 -0.11255187 -0.04524704 -0.0010947498
-0.061048795 -0.015195729 0.06847107 -0.05194779 -0.018707674 0.0027478328 -0.00015865645 -0.018187525
0.020978088 -0.050188288 0.078482755 -0.037981357 -0.09448602 -0.037804917 -0.08142365 0.024648843
0.033088505 0.015366985 -0.06625352 0.004239286 -0.05502575 0.020358901 0.0044926065 0.06301023
0.001155651 -0.03629497 -0.08546528 -0.031542514 0.090371564 0.012302595 0.024034603 0.04471069
-0.0021914996 0.010467443 -0.04772353 0.03626015 -0.020235468 0.05655599 -0.08354017 -0.03582878
0.052776657 -0.07877089 0.089111134 -0.010950446 0.080603 -0.04725406 -0.028879438 -0.057328768
0.003120298 0.047616072 0.0068204333 -0.012513753 -0.013447346 -0.00882389 0.11617353 -0.0051815775
0.018440763 -0.010060369 -0.0029546206 0.002874137 -0.063371986 0.074846774 -0.044470534 -0.1002726
0.04850138 -0.02533532 0.0061195586 -0.069959365 -0.021171935 -0.049225517 -0.0044856854 0.0980557
-0.07645529 0.0040429947 -0.040908296 0.09194007 -0.045450877 -0.08287914 0.05778306 -0.033661302
00000000: 98ca f83c e41b ac3d 10b6 bdbd 9192 dcbc
00000010: a1e1 c3bc 9b25 e83c c69e 88bd 40d9 333d
00000020: 2f10 fb3b 9df2 f43d 3f30 25bd dcf3 8cbb
00000030: 422c 3cbc 9af4 183d 8fec 59bb 2efc 653d
00000040: 825a 0b3c 43fc e6bc cf0f 3c3d 8ad0 85bc
00000050: 1fba 633d 7d0b 343d d34f 653d 183b ff3c
00000060: 96e0 afbd 6a40 113b 981a 60bc dd7a f23c
00000070: 2bd4 ea3b 8793 4fbd c39c e73c 9939 963d
00000080: f195 16bc 82b4 933d db64 243c 47f4 2a3d
00000090: f970 35bd 0008 813c 74bc 763b 7bfd 6b3c
000000a0: 0f9b 923c aa42 15bc c358 02bd 6e45 44bd
000000b0: 2cf9 2d3d 0fd3 473d 7c8a 1fbc 18a5 773c
000000c0: 8c49 82bd 9b75 2e3d c906 5abc 1167 f43c
000000d0: 6970 4cbd abb0 863d a647 4f3d a649 563d
000000e0: 8e95 cfbc 7e50 8a3d 0dbb 7ebd cab0 823d
000000f0: 0629 293d 0ce3 5e3d dc9b 9cbd 7593 80bd
00000100: 7beb 5c3d c1cd d03d 0420 463d ac48 eb3c
00000110: 3b26 563d 62cd aa3d 9da3 af3d 4657 923d
00000120: 30c4 05bd 74d6 01bd 0537 6fbd 4157 c33d
00000130: 6095 8eba 0668 65bd f003 a93c 31dd 89bd
00000140: 46b6 34bd 76d6 11bd 512a 23bc 01a1 a93d
00000150: f0d0 39bb 9977 993b 8b15 803d 161d 113d
00000160: 68a3 353d b4f4 83bc d9f3 1d3c 16c3 9d3d
00000170: 91f8 54bc 7722 f83c f21c 953d 3ece 3f3c
00000180: 166e 82bd e3d9 813d e677 a33d 1d6e 70bc
00000190: 82b7 99bd 52b4 813d 502c f0bd 3e72 92bd
000001a0: ad50 3c3d 7e27 28bd 3bdd a63c fb41 d7bb
000001b0: 630b 7f3d 8ab2 1fbc ee06 a4bd a64d f93c
000001c0: c971 a73c f2e8 083c 8bda febc 8709 0abc
000001d0: 3626 063d eb21 913c 9dab d0bc 1f61 15bb
000001e0: ae3e 81bd 13b0 9e3d c96f a4bc c1a6 3b3d
000001f0: d307 fc3c 41cc 73bd 0306 e03c 07f1 64bc
00000200: 2be0 213d 59a4 81bb 124d 4dbd b8ae 82bc
00000210: c6fb d53c 46c7 5abd 006c f23b 4cdf 4f3d
00000220: 1c6a 6cba 192b 34bd cb47 243d 827b 5abc
00000230: 67ac e4bc 7f45 553c a43c cbbb ef93 993b
00000240: 83b1 24bd 3ab2 4a3c 300d 4d3c d5a5 833a
00000250: 417d a43c db29 673a db31 c33c 7401 cd3c
00000260: 275b fa3c 73ee 6fbd 26b0 0bbd 3da0 003c
00000270: a7b0 b5bd 4b99 8abc 6414 0b3d 03a8 26bd
00000280: 83a1 8d3c 8f76 c53b 82b0 3f3d 021e 4fbd
00000290: 34df 63bc 2b1f 6e3b a18c 263b e7ba c1b8
000002a0: 38cb f1bc f310 e8bc e7a6 99bc c6c7 473d
000002b0: 026b 283d 9881 e6bd f654 39bd b57d 8fba
000002c0: 4d0e 7abd 82f7 78bc 8f3a 8c3d 35c7 54bd
000002d0: d640 99bc fc14 343b 045d 26b9 01fe 94bc
000002e0: 3dda ab3c 3c92 4dbd 91bb a03d 5792 1bbd
000002f0: e381 c1bd 54d9 1abd 71c1 a6bd 5fec c93c
00000300: d087 073d cfc5 7b3c edaf 87bd b5e9 8a3b
00000310: ae62 61bd b6c7 a63c b736 933b 820b 813d
00000320: 3779 973a 09aa 14bd 6c08 afbd b932 01bd
00000330: ba14 b93d d390 493c 37e4 c43c 8e22 373d
00000340: 439f 0fbb a37f 2b3c c079 43bd 8685 143d
00000350: dac4 a5bc 41a7 673d 1c17 abbd 33c1 12bd
00000360: 562c 583d a252 a1bd e67f b63d 8069 33bc
00000370: 3013 a53d 798d 41bd 9294 ecbc 92d1 6abd
00000380: ea7d 4c3b 1209 433d f17d df3b 7c06 4dbc
00000390: 4252 5cbc 1492 10bc 63ec ed3d 39ca a9bb
000003a0: 1511 973c 3fd4 24bc 4fa2 41bb 045c 3c3b
000003b0: 2cc9 81bd 4449 993d bc26 36bd b95b cdbd
000003c0: 62a9 463d 048c cfbc 9486 c83b db46 8fbd
000003d0: c470 adbc b2a0 49bd a8fc 92bb 6dd1 c83d
000003e0: 9794 9cbd 197b 843b 758f 27bd 134b bc3d
000003f0: b32a 3abd 8abc a9bd eead 6c3d 6fe0 09bd

layer4.bias f4 [25]
0.009655691 0.02873934 0.022425743 0.007255517 0.01808979 -0.0014250823 -0.040519286 -0.043463293
-0.02557046 0.026052164 -0.023768429 0.008138075 -0.03409004 -0.0026927001 0.02533993 0.036177114
0.042553052 0.010716759 0.02163685 -0.016557112 0.0022725253 -0.048642974 0.030454332 -0.04325991
-0.0022273625
00000000: e732 1e3c c46e eb3c 31b6 b73c b0bf ed3b
00000010: 0a31 943c d4c9 baba 8df7 25bd 9106 32bd
00000020: 2479 d1bc 596b d53c 02b6 c2bc 8f55 053c
00000030: ffa1 0bbd 0378 30bb af95 cf3c 742e 143d
00000040: 1c4c 2e3d 5895 2f3c c33f b13c c8a2 87bc
00000050: a6ee 143b db3d 47bd 5d7b f93c 4e31 31bd
00000060: f1f8 11bb

exp_avg f4 [25, 1, 3, 3]
-9561.379 -6529.6035 -1753.2146 -10326.098 -4677.205 2031.0142 -7806.865 39.460938
8135.9614 32055.127 32554.121 25745.594 28722.12 28887.658 22940.129 18525.234
18775.67 14183.072 -27191.871 -40665.336 -40686.285 -50068.29 -60505.61 -56319.047
-59679.477 -65324.027 -57104.336 -30397.316 -19023.152 -3232.2085 -29417.117 -15665.701
2045.2765 -22654.613 -7962.5273 8968.918 44439.53 54672.105 52972.875 55207.473
62873.508 58553.1 50375.312 55371.03 49662.54 -35923.227 -48367.953 -50739.4
-61647.25 -70027.94 -67170.625 -73536.67 -75587.34 -67049.75 67885.625 76408.766
68814.45 79871.03 84229.48 72429.94 70776.02 70336.86 55771.117 66701.234
78347.94 71637.94 81963.586 89271.89 77625.45 79907.47 81647.17 65931.68
-55986.746 -46316.92 -28617.387 -73173.234 -58487.094 -33555.082 -78030.87 -59245.016
-30769.348 -10857.447 -16322.526 -17526.184 -30525.79 -32093.64 -28386.969 -42755.117
-39997.875 -31497.633 -10460.402 -7862.965 -1793.429 -5790.496 -2605.9878 3696.6123
2489.7058 5489.2305 11469.943 -49213.727 -51310.58 -39688.492 -65073.258 -64637.836
-50144.676 -65054.58 -62476.2 -46327.438 30037.229 21849.066 10167.849 32103.973
21107.707 6821.8066 27324.553 14895.115 -444.08936 -30788.89 -38183.1 -37696.77
-51463.918 -57338.484 -54140.586 -64473.703 -67854.61 -61549.99 -39180.89 -41773.992
-33011.668 -52767.547 -53749.223 -41500.492 -50312.477 -49230.9 -35704.28 -36703.48
-40972.676 -33841.883 -34061.555 -36125.1 -28097.549 -23454.15 -23108.682 -14505.549
58315.258 57774.957 46189.25 69788.875 63996.773 47248.203 64961.56 55509.26
35985.586 1361.5737 21815.773 34995.566 23067.955 41853.016 52130.55 37317.93
52669.523 59329.91 -11173.503 -14233.1875 -13298.329 -24328.117 -28375.375 -26562.121
-29276.875 -32839.637 -30343.328 -51380.797 -48848.793 -38243.746 -59910.586 -55577.258
-43640.207 -56329.188 -51197.266 -38947.066 58203.145 56337.97 40934.05 69321.03
63192.664 43426.086 60614.414 51337.742 29518.281 36460.984 41115.605 34410.727
52770.242 56462.68 46964.348 59315.305 61367.07 50315.227 -17530.814 -15036.752
-10199.576 -26668.355 -24587.754 -19571.777 -32963.04 -31780.527 -26847.9 -50202.543
-62113.71 -61775.906 -61864.0 -73316.14 -72438.125 -59340.156 -69082.14 -67459.58
-38894.766 -41477.883 -34852.13 -37379.438 -37682.562 -29762.027 -22789.277 -20552.77
-11590.312
00000000: 8465 15c6 d40c ccc5 de26 dbc4 6458 21c6
00000010: a429 92c5 74e0 fd44 ecf6 f3c5 00d8 1d42
00000020: b13f fe45 416e fa46 3e54 fe46 3023 c946
00000030: 3d64 e046 51af e146 4238 b346 78ba 9046
00000040: 57af 9246 4a9c 5d46 be6f d4c6 56d9 1ec7
00000050: 49ee 1ec7 4a94 43c7 9c59 6cc7 0cff 5bc7
00000060: 7a1f 69c7 072c 7fc7 5610 5fc7 a27a edc6
00000070: 4e9e 94c6 5603 4ac5 3cd2 e5c6 cec6 74c6
00000080: d9a8 ff44 3afd b0c6 38d4 f8c5 ac23 0c46
00000090: 8897 2d47 1b90 5547 e0ec 4e47 79a7 5747
000000a0: 8299 7547 1ab9 6447 50c7 4447 084b 5847
000000b0: 8afe 4147 3a53 0cc7 f4ef 3cc7 6633 46c7
000000c0: 40cf 70c7 f8c5 88c7 5031 83c7 56a0 8fc7
000000d0: aca1 93c7 e0f4 82c7 d096 8447 623c 9547
000000e0: 3a67 8647 84ff 9b47 bd82 a447 f876 8d47
000000f0: 033c 8a47 6e60 8947 1edb 5947 9e46 8247
00000100: f805 9947 f8ea 8b47 cb15 a047 f25b ae47
00000110: ba9c 9747 bc11 9c47 9677 9f47 d7c5 8047
00000120: bfb2 5ac7 ecec 34c7 c692 dfc6 9eea 8ec7
00000130: 1877 64c7 1513 03c7 6f67 98c7 046d 67c7
00000140: b262 f0c6 caa5 29c6 1b0a 7fc6 5eec 88c6
00000150: 947b eec6 48bb fac6 f0c5 ddc6 1e03 27c7
00000160: e03d 1cc7 4413 f6c6 9c71 23c6 b8b7 f5c5
00000170: ba2d e0c4 f8f3 b4c5 cedf 22c5 cc09 6745
00000180: 4b9b 1b45 d889 ab45 c637 3346 ba3d 40c7
00000190: 946e 48c7 7e08 1bc7 4231 7ec7 d67d 7cc7
000001a0: ade0 43c7 941e 7ec7 330c 74c7 70f7 34c7
000001b0: 75aa ea46 22b2 aa46 65df 1e46 f2cf fa46
000001c0: 6ae7 a446 742e d545 1b79 d546 76bc 6846
000001d0: 700b dec3 c889 f0c6 1a27 15c7 c540 13c7
000001e0: eb07 49c7 7cfa 5fc7 967c 53c7 b4d9 7bc7
000001f0: 4e87 84c7 fd6d 70c7 e40c 19c7 fe2d 23c7
00000200: abf3 00c7 8c1f 4ec7 39f5 51c7 7e1c 22c7
00000210: 7a88 44c7 e64e 40c7 4878 0bc7 7b5f 0fc7
00000220: ad0c 20c7 e231 04c7 8e0d 05c7 1a1d 0dc7
00000230: 1983 dbc6 4d3c b7c6 5d89 b4c6 32a6 62c6
00000240: 42cb 6347 f5ae 6147 406d 3447 704e 8847
00000250: c6fc 7947 3490 3847 8fc1 7d47 43d5 5847
00000260: 9691 0c47 5c32 aa44 8c6f aa46 91b3 0847
00000270: e937 b446 047d 2347 8da2 4b47 eec5 1147
00000280: 86bd 4d47 e9c1 6747 0396 2ec6 c064 5ec6
00000290: 51c9 4fc6 3c10 bec6 c0ae ddc6 3e84 cfc6
000002a0: c0b9 e4c6 a347 00c7 a80e edc6 ccb4 48c7
000002b0: cbd0 3ec7 bf63 15c7 9606 6ac7 4219 59c7
000002c0: 3578 2ac7 3009 5cc7 44fd 47c7 1123 18c7
000002d0: 255b 6347 f811 5c47 0de6 1f47 8464 8747
000002e0: aad8 7647 16a2 2947 6ac6 6c47 be89 4847
000002f0: 909c e646 fc6c 0e47 9b9b 2047 ba6a 0647
00000300: 3e22 4e47 ae8e 5c47 5974 3747 4eb3 6747
00000310: 12b7 6f47 3a8b 4447 a1f5 88c6 02f3 6ac6
00000320: 4e5e 1fc6 b658 d0c6 8217 c0c6 8ee7 98c6
00000330: 0ac3 00c7 0e49 f8c6 cdbf d1c6 8b1a 44c7
00000340: b6a1 72c7 e84f 71c7 00a8 71c7 1232 8fc7
00000350: 107b 8dc7 28cc 67c7 12ed 86c7 cac1 83c7
00000360: c4ee 17c7 e205 22c7 2124 08c7 7003 12c7
00000370: 9032 13c7 0e84 e8c6 8e0a b2c6 8a91 a0c6
00000380: 3f19 35c6

exp_avg_sq f4 [25, 1, 3, 3]
8.923842e+08 9.387634e+08 9.252208e+08 8.737848e+08 8.827175e+08 8.537001e+08 8.220876e+08 8.005695e+08
7.673875e+08 2.3338273e+09 3.0472694e+09 3.174762e+09 2.6635674e+09 3.394492e+09 3.493218e+09 2.6698437e+09
3.3051174e+09 3.3496684e+09 1.3506098e+10 1.6460403e+10 1.6457962e+10 1.6784513e+10 2.0297103e+10 2.013103e+10
1.752825e+10 2.0831478e+10 2.044255e+10 1.1376526e+09 1.002478e+09 8.0075046e+08 9.895372e+08 8.945775e+08
7.877686e+08 6.991823e+08 6.9371885e+08 7.286257e+08 1.2223436e+10 1.4818298e+10 1.4698247e+10 1.2370706e+10
1.5200519e+10 1.5284961e+10 9.983454e+09 1.2523405e+10 1.2860361e+10 2.70472e+10 3.040357e+10 2.9848144e+10
2.9524849e+10 3.2574384e+10 3.1347268e+10 2.8120988e+10 3.0084286e+10 2.8173662e+10 4.5467513e+10 5.1742634e+10
4.9956925e+10 4.8207483e+10 5.408889e+10 5.1636593e+10 4.2617766e+10 4.709837e+10 4.4550038e+10 4.2791453e+10
4.6559044e+10 4.309729e+10 4.812407e+10 5.1286303e+10 4.6425944e+10 4.5949633e+10 4.7807726e+10 4.2323894e+10
5.4250717e+10 4.4404634e+10 2.9816881e+10 5.8833904e+10 4.65571e+10 2.9649035e+10 5.488963e+10 4.200867e+10
2.550495e+10 7.314183e+09 5.9649285e+09 4.3003996e+09 9.326767e+09 7.853194e+09 5.811266e+09 1.0274462e+10
8.788599e+09 6.5796127e+09 1.690675e+09 1.3198038e+09 1.0266026e+09 1.5236694e+09 1.1132595e+09 8.3992314e+08
1.3862703e+09 9.888576e+08 7.6697824e+08 1.9054584e+10 2.0735451e+10 1.8843916e+10 2.2855408e+10 2.5063006e+10
2.3032375e+10 2.3316892e+10 2.5751435e+10 2.3945839e+10 3.1884595e+09 3.6810542e+09 4.428059e+09 4.473141e+09
5.359039e+09 6.385563e+09 5.608553e+09 6.888971e+09 8.104848e+09 2.4852342e+09 3.940923e+09 5.284445e+09
3.6309396e+09 5.382907e+09 6.727306e+09 4.6658355e+09 6.475945e+09 7.607633e+09 3.7790454e+09 4.2833144e+09
3.9679703e+09 4.6056376e+09 5.3154145e+09 4.9449564e+09 4.3800837e+09 5.070385e+09 4.7536824e+09 5.2884465e+09
5.2048394e+09 4.1979945e+09 6.1994655e+09 6.043114e+09 4.8634506e+09 6.0731935e+09 5.8930053e+09 4.771513e+09
1.3426572e+10 1.276024e+10 9.859598e+09 1.3964503e+10 1.2768082e+10 9.503623e+09 1.1988981e+10 1.0569415e+10
7.6077624e+09 5.743967e+09 8.348545e+09 1.0711916e+10 8.043951e+09 1.1597995e+10 1.440947e+10 1.0127944e+10
1.4103999e+10 1.6880702e+10 9.927553e+08 1.9952202e+09 3.4658473e+09 1.5255154e+09 3.2982845e+09 5.4043566e+09
2.0424283e+09 4.3415757e+09 6.774136e+09 7.476863e+09 6.902483e+09 5.3545324e+09 8.722678e+09 7.983233e+09
6.1845053e+09 8.585718e+09 7.8253665e+09 6.0711624e+09 3.1138042e+10 2.8805603e+10 2.1694783e+10 3.3946464e+10
3.0765193e+10 2.2607796e+10 3.0796894e+10 2.730701e+10 1.9582929e+10 4.6295117e+09 5.635435e+09 5.751962e+09
6.9541565e+09 8.2794076e+09 8.2264863e+09 8.646624e+09 1.0075441e+10 9.852691e+09 9.780381e+08 1.1717947e+09
1.5794692e+09 1.0876929e+09 1.3632739e+09 1.8688326e+09 1.2121037e+09 1.6021386e+09 2.200014e+09 9.068089e+09
1.0635227e+10 1.0790402e+10 1.1925282e+10 1.3935533e+10 1.4166909e+10 1.2991688e+10 1.5010214e+10 1.5211899e+10
1.9583206e+09 2.8634532e+09 3.2618286e+09 2.873622e+09 4.0250616e+09 4.513493e+09 3.4003796e+09 4.593496e+09
5.0863094e+09
00000000: cfc2 544e 92d1 5f4e ff96 5c4e 9853 504e
00000010: cd74 524e b889 4b4e 3f00 444e e2de 3e4e
00000020: 9ef5 364e 611b 0b4f a4a1 354f 063b 3d4f
00000030: d0c2 1e4f d653 4a4f 4736 504f 9522 1f4f
00000040: 1700 454f e2a7 474f ad41 4950 7447 7550
00000050: 253e 7550 d61b 7a50 a739 9750 e4fc 9550
00000060: 7c98 8250 e434 9b50 124f 9850 679e 874e
00000070: 6702 6f4e eee9 3e4e 8fec 6b4e ad48 554e
00000080: 94d1 3b4e b3b2 264e 3d65 254e c9b7 2d4e
00000090: b524 3650 52cf 5c50 5d05 5b50 8056 3850
000000a0: 6181 6250 80c3 6350 dbc3 1450 009d 3a50
000000b0: 62a2 3f50 7184 c950 3586 e250 d162 de50
000000c0: 2efa db50 b5b2 f250 2b8e e950 8784 d150
000000d0: 3925 e050 ffe8 d150 3361 2951 9fc1 4051
000000e0: a31a 3a51 3d96 3351 2f7f 4951 7e5c 4051
000000f0: 78c3 1e51 8174 2f51 3af6 2551 1c69 1f51
00000100: 2a72 2d51 c78c 2051 b146 3351 6e0e 3f51
00000110: 3bf3 2c51 fc2c 2b51 0019 3251 36ab 1d51
00000120: 8419 4a51 8f6b 2551 3027 de50 622c 5b51
00000130: 4f70 2d51 0ce7 dc50 d57a 4c51 977e 1c51
00000140: d506 be50 cafa d94f cbc4 b14f 7229 804f
00000150: cbfa 0a50 1e0b ea4f 7130 ad4f f619 1950
00000160: d8f5 0250 7616 c44f 4e8b c94e 3755 9d4e
00000170: dac2 744e b3a2 b54e fcb5 844e d740 484e
00000180: 9d41 a54e 14c3 6b4e a3dc 364e bcf7 8d50
00000190: bc7d 9a50 eb65 8c50 3b49 aa50 e4bb ba50
000001a0: c59a ab50 71b9 ad50 f7dc bf50 1069 b250
000001b0: 080c 3e4f 6e68 5b4f 69f7 834f 5c4f 854f
000001c0: 39b6 9f4f fb4d be4f dd25 a74f ad4e cd4f
000001d0: 158b f14f aa21 144f b6e5 6a4f 1e7d 9d4f
000001e0: be6b 584f 526c a04f 467d c84f 800d 8b4f
000001f0: 8aff c04f a2b9 e24f a83f 614f 314e 7f4f
00000200: 6c82 6c4f 3a42 894f 6569 9e4f 065f 934f
00000210: 6389 824f f81b 974f b8ab 8d4f a59b 9d4f
00000220: c61d 9b4f 5038 7a4f 2bc2 b84f 4d19 b44f
00000230: 2ff1 904f cafe b44f 10a0 af4f c133 8e4f
00000240: 4f12 4850 7424 3e50 62eb 1250 5a16 5050
00000250: 5e42 3e50 729d 0d50 55a6 3250 1e7f 1d50
00000260: 9fba e24f fe2e ab4f 58ce f84f b79e 1f50
00000270: 7aba ef4f d7d2 2c50 c4b7 5650 0aeb 1650
00000280: 7d2a 5250 c58a 7b50 fab0 6c4e 4ad9 ed4e
00000290: a294 4e4f 09db b54e d497 444f f80f a14f
000002a0: f779 f34e 9863 814f 8ee2 c94f f0d3 de4f
000002b0: c4b5 cd4f d793 9f4f 60fa 0150 3ceb ed4f
000002c0: 0850 b84f d4df ff4f cf36 e94f 4bef b44f
000002d0: 1aff e750 549e d650 84a3 a150 beeb fc50
000002e0: f337 e550 f370 a850 6a74 e550 fd73 cb50
000002f0: 79e7 9150 5ff8 894f f5f2 a74f fd6b ab4f
00000300: 0140 cf4f debe f64f 1c2b f54f 41d8 0050
00000310: c222 1650 09d1 1250 b52e 694e 56b0 8b4e
00000320: 9349 bc4e c1a9 814e d183 a24e 3fc8 de4e
00000330: 787e 904e 64fd be4e 8d21 034f 0420 0750
00000340: 2c7a 1e50 1eca 2050 57b3 3150 d7a7 4f50
00000350: 781a 5350 5b97 4150 6cab 5f50 caac 6250
00000360: 3473 e94e d4ac 2a4f 8e6b 424f fe47 2b4f
00000370: 91e9 6f4f 3883 864f adad 4a4f 98e5 884f
00000380: 7695 974f

exp_avg f4 [25]
4950.3633 -4789.992 5743.697 1744.438 16822.906 -36864.195 10100.312 5139.4697
18203.777 -2802.5156 -13158.271 -3379.4312 -272.9596 4778.1445 14566.279 -2114.2026
13044.766 9083.58 4530.3525 -4953.3584 11765.019 -20081.348 6954.577 -3180.8013
-16935.465
00000000: e8b2 9a45 f0af 95c5 937d b345 040e da44
00000010: d06d 8346 3200 10c7 3fd1 1d46 c29b a045
00000020: 8e37 8e46 4028 2fc5 1699 4dc6 e636 53c5
00000030: d47a 88c3 2851 9545 1e99 6346 3e23 04c5
00000040: 10d3 4b46 52ee 0d46 d292 8d45 deca 9ac5
00000050: 13d4 3746 b2e2 9cc6 9e54 d945 d2cc 46c5
00000060: ee4e 84c6

exp_avg_sq f4 [25]
6.128245e+08 5.590837e+09 1.2614623e+09 2.2189243e+09 8.7809805e+08 3.4328845e+09 3.3330944e+09 4.465261e+09
9.218082e+09 1.7306405e+09 6.2944384e+08 1.3458412e+09 2.9310656e+08 4.772083e+09 2.423515e+09 1.8780968e+09
8.177435e+08 1.4280997e+09 5.4341165e+08 3.3836073e+09 3.3090624e+09 2.3225472e+09 4.409284e+09 1.8945512e+09
8.53494e+08
00000000: d71b 124e b49e a64f c660 964e 1942 044f
00000010: da5a 514e a99d 4c4f fcaa 464f 3d13 854f
00000020: 315c 0950 f54e ce4e 3412 164e d06f a04e
00000030: 9cc3 8b4d 1b38 8e4f e773 104f f7e2 df4e
00000040: 1af7 424e 253e aa4e 378f 014e c0ad 494f
00000050: 493c 454f 426f 0a4f 2b68 834f 1dd9 e14e
00000060: 247d 4b4e

exp_avg f4 [50, 25, 3, 3]
3386.9492 3191.1 1642.2585 4863.8384 4179.2515 2165.2666 3528.5728 2378.4792
125.92438 1691.1074 920.2893 494.36615 168.5409 -468.84937 -693.7531 -210.7832
-568.75934 -493.32825 2137.7207 2564.5154 2324.794 2937.7646 3125.7456 2594.8945
2695.221 2538.397 1786.8962 3076.683 4312.9736 5444.737 1888.8945 3146.6255
4317.503 1719.2056 2930.2612 4044.8975 -3358.2603 -4405.4814 -4288.685 -5572.1885
-6156.5264 -5492.55 -5867.7715 -5904.8906 -4670.5186 9243.293 8911.131 7783.9917
8423.504 7917.8296 6623.9814 7420.634 6785.2163 5596.404 -2441.4556 -2761.2324
-2593.0474 -2725.794 -2865.3254 -2506.1182 -2415.2876 -2330.7017 -1840.594 -3359.3123
-3485.6765 -2781.2505 -5691.565 -5472.55 -4252.618 -6129.3203 -5470.412 -3804.785
374.9086 181.8468 -754.63513 696.0611 133.14236 -1101.1714 -871.8502 -1824.5615
-3166.607 954.95966 1074.3419 839.3844 1423.2959 1379.2058 995.8197 1006.1245
828.6253 312.54395 4129.3223 4165.2266 4410.0654 3009.6455 3102.7148 3404.4204
2838.7668 3051.5186 3414.732 468.5119 1520.5914 2138.1846 1916.687 2854.7085
3222.867 2497.2852 3153.2395 3174.6528 -4225.05 -4613.452 -4369.2896 -4345.169
-4556.367 -4122.574 -4067.1746 -4118.952 -3554.0127 7061.9434 7206.1035 6667.0547
5430.216 5232.1836 4515.8633 3422.7136 2961.4536 2263.0479 6459.4707 7907.175
7455.037 9862.69 10610.24 9255.837 10156.675 10021.086 7803.411 -2731.8496
-1760.4209 -1072.1213 14.613205 1029.0414 1542.9226 1694.4287 2519.8179 2671.1436
-6920.756 -7277.6455 -6887.5312 -6177.2827 -6227.999 -5601.0103 -5463.9785 -5272.0186
-4535.486 -4444.4688 -4003.481 -2841.3547 -5081.322 -4329.541 -2893.4126 -4572.633
-3617.8975 -2055.333 -2134.6335 -1490.022 -1381.9039 106.29614 480.48453 217.09128
27.839417 -6.731262 -708.37665 6043.4707 4871.0273 3103.8308 4652.152 3241.4602
1401.8442 2595.182 1167.6328 -421.2358 -6278.6133 -7447.616 -6860.0107 -8867.551
-9428.885 -8108.811 -8922.395 -8767.566 -6784.45 -213.86446 -1218.5934 -1617.4211
-1718.2559 -2665.6523 -2901.3452 -2649.3774 -3414.4119 -3395.2712 2914.6707 3659.6416
4155.503 3206.667 3838.7593 4168.9688 3916.9297 4372.1553 4476.928 5312.812
5953.975 5955.6963 6430.879 6834.1743 6478.7617 7853.4727 7947.454 7245.167
3002.8826 4079.4302 5107.8477 3959.7556 5099.8887 5977.865 6177.6426 7250.7876
7813.5957 -4787.661 -8973.376 -12230.838 -9878.716 -13605.836 -16072.206 -13313.125
-16276.723 -17798.887 -2101.5876 -483.94302 1230.3744 -265.7567 1548.592 3285.3467
1691.9977 3476.5122 5003.074 -165.01445 -2554.7568 -4719.038 -2765.5486 -5070.8867
-6896.5605 -4788.503 -6760.411 -8132.3677 3107.136 2557.1091 1579.4973 3590.044
00000000: 30af 5345 9a71 4745 4648 cd44 b5fe 9745
00000010: 039a 8245 4454 0745 2a89 5c45 aba7 1445
00000020: 48d9 fb42 7063 d344 8412 6644 de2e f743
00000030: 788a 2843 b86c eac3 3370 2dc4 80c8 52c3
00000040: 9930 0ec4 04aa f6c3 889b 0545 3f48 2045
00000050: b44c 1145 3c9c 3745 ee5b 4345 502e 2245
00000060: 8973 2845 5aa6 1e45 ae5c df44 ee4a 4045
00000070: cac7 8645 e525 aa45 a01c ec44 02aa 4445
00000080: 06ec 8645 94e6 d644 2e24 3745 5cce 7c45
00000090: 2ae4 51c5 daab 89c5 7b05 86c5 8221 aec5
000000a0: 3664 c0c5 66a4 abc5 2c5e b7c5 2087 b8c5
000000b0: 26f4 91c5 2c6d 1046 863c 0b46 ef3f f345
000000c0: 049e 0346 a36e f745 daff ce45 12e5 e745
000000d0: bb09 d445 3be3 ae45 4a97 18c5 b893 2cc5
000000e0: c210 22c5 b45c 2ac5 3515 33c5 e4a1 1cc5
000000f0: 9af4 16c5 3aab 11c5 0213 e6c4 fff4 51c5
00000100: d3da 59c5 02d4 2dc5 85dc b1c5 6604 abc5
00000110: f2e4 84c5 908a bfc5 4cf3 aac5 8fcc 6dc5
00000120: 4d74 bb43 c8d8 3543 a6a8 3cc4 e903 2e44
00000130: 7224 0543 7ca5 89c4 6af6 59c4 f811 e4c4
00000140: b6e9 45c5 6bbd 6e44 f14a 8644 9ad8 5144
00000150: 78e9 b144 9666 ac44 76f4 7844 f887 7b44
00000160: 0528 4f44 a045 9c43 940a 8145 d029 8245
00000170: 86d0 8945 541a 3c45 70eb 4145 bac6 5445
00000180: 456c 3145 4cb8 3e45 b66b 5545 8641 ea43
00000190: ed12 be44 f4a2 0545 fc95 ef44 566b 3245
000001a0: df6d 4945 9014 1c45 d513 4545 726a 4645
000001b0: 6608 84c5 9e2b 90c5 518a 88c5 5ac9 87c5
000001c0: f062 8ec5 98d4 80c5 cb32 7ec5 9eb7 80c5
000001d0: 3420 5ec5 8caf dc45 d430 e145 7058 d045
000001e0: bab1 a945 7881 a345 e81e 8d45 6beb 5545
000001f0: 4217 3945 c470 0d45 c4db c945 6619 f745
00000200: 4cf8 e845 c31a 1a46 f6c8 2546 599f 1046
00000210: b3b2 1e46 5894 1c46 4adb f345 98bd 2ac5
00000220: 780d dcc4 e203 86c4 b0cf 6941 53a1 8044
00000230: 86dd c044 b8cd d344 167d 1d45 4cf2 2645
00000240: 0c46 d8c5 2a6d e3c5 403c d7c5 430a c1c5
00000250: fe9f c2c5 1508 afc5 d4bf aac5 26c0 a4c5
00000260: e3bb 8dc5 c0e3 8ac5 b237 7ac5 ad95 31c5
00000270: 93ca 9ec5 544c 87c5 9ad6 34c5 10e5 8ec5
00000280: 5c1e 62c5 5475 00c5 236a 05c5 b440 bac4
00000290: edbc acc4 a097 d442 053e f043 5e17 5943
000002a0: 20b7 de41 8066 d7c0 1b18 31c4 c4db bc45
000002b0: 3838 9845 4bfd 4145 3761 9145 5d97 4a45
000002c0: 043b af44 e932 2245 40f4 9144 2f9e d2c3
000002d0: e834 c4c5 eebc e8c5 1660 d6c5 348e 0ac6
000002e0: 8a53 13c6 7d66 fdc5 9469 0bc6 44fe 08c6
000002f0: 9a03 d4c5 4ddd 55c3 fd52 98c4 7a2d cac4
00000300: 30c8 d6c4 709a 26c5 8655 35c5 0a96 25c5
00000310: 9766 55c5 5734 54c5 bb2a 3645 44ba 6445
00000320: 06dc 8145 ac6a 4845 26ec 6f45 c047 8245
00000330: e0ce 7445 3ea1 8845 6de7 8b45 7f06 a645
00000340: cd0f ba45 921d ba45 08f7 c845 6591 d545
00000350: 1876 ca45 c86b f545 a25b f845 5669 e245
00000360: 1fae 3b45 e2f6 7e45 c89e 9f45 177c 7745
00000370: 1c5f 9f45 ecce ba45 240d c145 4d96 e245
00000380: c42c f445 4a9d 95c5 8135 0cc6 5a1b 3fc6
00000390: dd5a 1ac6 5897 54c6 d320 7bc6 8004 50c6
000003a0: e452 7ec6 c60d 8bc6 6759 03c5 b5f8 f1c3
000003b0: fbcb 9944 dce0 84c3 f292 c144 8c55 4d45
000003c0: ed7f d344 3248 5945 9858 9c45 b303 25c3
000003d0: 1cac 1fc5 4e78 93c5 c7d8 2cc5 1877 9ec5
000003e0: 7c84 d7c5 06a4 95c5 4a43 d3c5 f122 fec5
000003f0: 2d32 4245 bfd1 1f45 ea6f c544 b460 6045

exp_avg_sq f4 [50, 25, 3, 3]
2.9857392e+08 2.8916835e+08 2.4360888e+08 3.0475302e+08 2.9079392e+08 2.4137797e+08 2.6763979e+08 2.5212082e+08
2.0832877e+08 1.107375e+07 1.3839471e+07 1.569112e+07 1.1747474e+07 1.5292143e+07 1.7211226e+07 1.1958772e+07
1.5200209e+07 1.6490829e+07 3.964882e+07 4.1622944e+07 3.75437e+07 4.1816016e+07 4.29603e+07 3.768784e+07
3.7487492e+07 3.742801e+07 3.209351e+07 7.0710475e+06 9.011879e+06 1.224542e+07 6.805305e+06 7.4101685e+06
9.444144e+06 7.320294e+06 7.233233e+06 8.441773e+06 1.18587736e+08 1.2700592e+08 1.1661426e+08 1.3775155e+08
1.4364446e+08 1.2773596e+08 1.353147e+08 1.3648066e+08 1.1711334e+08 5.439028e+07 4.53119e+07 3.3035358e+07
5.002118e+07 3.9986864e+07 2.7506002e+07 4.0000212e+07 3.090406e+07 2.0960018e+07 7.4158275e+06 7.7679925e+06
6.7047895e+06 7.7059435e+06 7.6082135e+06 6.1606605e+06 6.3249215e+06 5.794786e+06 4.387249e+06 7.810228e+07
7.314893e+07 5.8305316e+07 9.967523e+07 9.115601e+07 7.020973e+07 1.0436295e+08 9.245015e+07 6.885048e+07
5.2993024e+07 5.3469268e+07 4.7681972e+07 4.577992e+07 4.544004e+07 4.048891e+07 3.473008e+07 3.4777996e+07
3.2477796e+07 8.1737375e+06 8.670198e+06 7.7867605e+06 8.152944e+06 8.463559e+06 7.4468345e+06 6.716641e+06
6.854711e+06 5.99499e+06 2.1052652e+07 2.2981848e+07 2.3849768e+07 1.9709486e+07 2.1871058e+07 2.277722e+07
1.8154682e+07 2.0398646e+07 2.1283326e+07 1.2685012e+07 1.7399892e+07 2.0003398e+07 1.6768149e+07 2.2369372e+07
2.45742e+07 1.8647154e+07 2.3528458e+07 2.4399536e+07 4.752299e+07 4.7712976e+07 4.111865e+07 4.8772148e+07
4.8007668e+07 4.0459904e+07 4.335164e+07 4.191437e+07 3.4685024e+07 2.012856e+07 2.0131478e+07 1.729129e+07
1.2300114e+07 1.152748e+07 9.413098e+06 6.385771e+06 6.0440005e+06 5.3299675e+06 3.8822467e+08 4.0478752e+08
3.622237e+08 4.450873e+08 4.5293414e+08 3.9351693e+08 4.3282454e+08 4.27008e+08 3.5965997e+08 1.424475e+07
1.6817102e+07 1.8498702e+07 1.9743122e+07 2.5190212e+07 2.7734648e+07 2.7159878e+07 3.3719412e+07 3.51938e+07
2.8362704e+07 2.818891e+07 2.4011376e+07 2.4284074e+07 2.2576482e+07 1.791006e+07 1.8490278e+07 1.625016e+07
1.2263218e+07 4.374057e+07 3.5262976e+07 2.3467944e+07 4.8229316e+07 3.7759784e+07 2.4311922e+07 4.3831388e+07
3.3358562e+07 2.0906866e+07 5.6916e+07 6.55887e+07 6.6264668e+07 5.9716376e+07 6.866181e+07 6.8264664e+07
5.6776948e+07 6.3912828e+07 6.2434456e+07 2.7760396e+07 1.747887e+07 8.0752515e+06 1.78971e+07 9.556145e+06
3.5526095e+06 8.2486095e+06 3.660244e+06 1.6824088e+06 3.6759978e+08 3.789367e+08 3.3602016e+08 4.0897984e+08
4.1326714e+08 3.5771722e+08 3.8901114e+08 3.8364794e+08 3.2409366e+08 2.2956768e+07 2.7631498e+07 2.8989372e+07
2.9155496e+07 3.5258092e+07 3.6459984e+07 3.2583704e+07 3.8715812e+07 3.8962864e+07 7.5457325e+06 9.076953e+06
9.870617e+06 7.583332e+06 9.078717e+06 9.701679e+06 8.0275375e+06 9.28208e+06 9.506306e+06 1.6826582e+07
1.8604038e+07 1.8039202e+07 2.4905614e+07 2.4781952e+07 2.152572e+07 3.3491728e+07 3.0952424e+07 2.4865152e+07
1.6949246e+07 1.9563438e+07 2.153133e+07 1.6431369e+07 2.0073612e+07 2.2671348e+07 2.0802896e+07 2.543968e+07
2.7712858e+07 1.763342e+09 1.9809405e+09 1.9861994e+09 1.8820984e+09 2.1484431e+09 2.1779264e+09 1.7948577e+09
2.0650844e+09 2.1085865e+09 4.28343e+07 6.1332468e+07 8.375165e+07 4.760655e+07 7.142902e+07 9.900697e+07
5.333171e+07 8.021156e+07 1.0923398e+08 2.0441435e+08 2.5032573e+08 2.7428582e+08 2.1996059e+08 2.752888e+08
3.051221e+08 2.1386246e+08 2.6922346e+08 2.987273e+08 4.4356428e+07 2.342339e+07 8.515223e+06 6.6930372e+07
00000000: 035f 8e4d dfe2 894d d352 684d 4c51 914d
00000010: 4ea9 8a4d 2b32 664d bf3d 7f4d ef70 704d
00000020: 84ad 464d d6f8 284b 6f2c 534b 706d 6f4b
00000030: 9240 334b ef56 694b ad4f 834b f479 364b
00000040: d1ef 674b 4da1 7b4b 8d3f 174c 68c7 1e4c
00000050: c537 0f4c f483 1f4c 6be1 234c 88c4 0f4c
00000060: e100 0f4c cac6 0e4c a3da f44b 8fca d74a
00000070: a782 094b acd9 3a4b 72ae cf4a f123 e24a
00000080: 301b 104b cc65 df4a a2bd dc4a adcf 004b
00000090: 2b30 e24c 9c3e f24c 8e6c de4c c05e 034d
000000a0: 73fd 084d 13a3 f34c d10b 014d 7928 024d
000000b0: 4060 df4c 827b 4f4c e7d9 2c4c 2f0a fc4b
000000c0: cfd0 3e4c ac89 184c a9da d14b b596 184c
000000d0: 7ec7 eb4b 89e9 9f4b 2750 e24a 710f ed4a
000000e0: 2b9d cc4a af2a eb4a 2b2f e84a 2902 bc4a
000000f0: 7305 c14a c4d7 b04a 62e3 854a e1f7 944c
00000100: 4085 8b4c c96a 5e4c 8c1d be4c c5dd ad4c
00000110: 18ea 854c 790e c74c ad55 b04c 6652 834c
00000120: 0027 4a4c 15f8 4b4c 6de4 354c f4a2 2e4c
00000130: 0a57 2d4c f473 1a4c 187c 044c e3aa 044c
00000140: 32c9 f74b 5371 f94a f64b 044b 11a2 ed4a
00000150: e0ce f84a c724 014b 6542 e34a c2f9 cc4a
00000160: 6e30 d14a dcf3 b64a 769e a04b 6c56 af4b
00000170: 94f5 b54b 175f 964b e9dc a64b c2c6 ad4b
00000180: 5d82 8a4b 1ba1 9b4b ff60 a24b d48e 414b
00000190: 2ac0 844b 239d 984b 95dc 7f4b 2eaa aa4b
000001a0: 7c7c bb4b 3944 8e4b 0582 b34b 5827 ba4b
000001b0: 2c49 354c b402 364c eeda 1c4c 0d0d 3a4c
000001c0: 7d22 374c a057 1a4c 965f 254c 00e4 1f4c
000001d0: 1850 044c 9891 994b 4b97 994b 0dec 834b
000001e0: 52af 3b4b 38e5 2f4b eaa1 0f4b d6e0 c24a
000001f0: c172 b84a 5fa8 a24a b51e b94d 8a04 c14d
00000200: c3b8 ac4d f23b d44d d0f9 d74d bca4 bb4d
00000210: 0763 ce4d 009d cb4d ce7f ab4d 8e5b 594b
00000220: e74d 804b 4722 8d4b c9a0 964b a22f c04b
00000230: 3c99 d34b a336 cf4b 1da1 004c f240 064c
00000240: e863 d84b 7710 d74b 3831 b74b d545 b94b
00000250: b13e ac4b 96a4 884b d311 8d4b 30f5 774b
00000260: 321f 3b4b 66db 264c 8084 064c d40b b34b
00000270: f1fa 374c ca0a 104c 397c b94b 1734 274c
00000280: 7181 fe4b b981 9f4b 081e 594c 7733 7a4c
00000290: 97c7 7c4c c6cc 634c 46f6 824c 5b34 824c
000002a0: 3d96 584c dfce 734c 262b 6e4c 86cb d34b
000002b0: 6b5a 854b e76f f64a 468b 884b b1d0 114b
000002c0: 86d5 584a 43ba fb4a 5067 5f4a 465f cd49
000002d0: 0549 af4d ecb0 b44d 163a a04d 4c04 c34d
000002e0: a60f c54d a792 aa4d b67e b94d 06f0 b64d
000002f0: 378a 9a4d 7025 af4b c5cf d24b de2b dd4b
00000300: 5470 de4b bb7f 064c 7415 0b4c 0c98 f84b
00000310: 69b0 134c aca1 144c 0947 e64a d980 0a4b
00000320: 199d 164b c86c e74a bd87 0a4b 2f09 144b
00000330: 23fb f44a 20a2 0d4b 020e 114b 6b60 804b
00000340: 03f0 8d4b d1a0 894b c703 be4b 4012 bd4b
00000350: 6c3a a44b 8885 ff4b f425 ec4b c0b4 bd4b
00000360: ff4f 814b d741 954b 6145 a44b 09b9 7a4b
00000370: 4626 994b faf7 ac4b a8b6 9e4b e016 c24b
00000380: ad6e d34b ed34 d24e 8225 ec4e ffc5 ec4e
00000390: 165d e04e a40e 004f 85d0 014f b6f6 d54e
000003a0: 602d f64e f45c fb4e 5f66 234c fdf6 694c
000003b0: 5cbe 9f4c c69a 354c 743d 884c 3fd7 bc4c
000003c0: c071 4b4c cdfd 984c e858 d04c d9f1 424d
000003d0: aeba 6e4d 28ca 824d 51c5 514d 9744 834d
000003e0: 5a7e 914d 84f4 4b4d 3160 804d bc71 8e4d
000003f0: d334 294c cfb4 b24b 97ee 014b b151 7f4c

exp_avg f4 [50]
-14457.617 -11152.345 -2248.1511 -9562.471 3334.5264 -8151.1133 13382.408 -8151.214
-5486.855 -7138.449 -12185.448 1495.4683 -9422.807 -895.238 -19028.273 1890.1155
-9488.583 -3957.2551 -6869.7744 2715.3862 1036.7708 4768.366 -5906.6265 -2748.1138
-16232.178 -3049.267 4190.345 -253.63556 -931.26855 -11490.023 -7299.0522 -5324.438
-5833.789 -14029.891 -18355.344 1601.8533 444.41498 -14606.971 -14656.346 -406.4604
-8405.144 6480.9453 -11024.461 -679.00684 -14492.075 -15235.278 4214.984 3047.549
-6167.6504 -204.80524
00000000: 78e6 61c6 6141 2ec6 6b82 0cc5 e269 15c6
00000010: 6c68 5045 e8b8 fec5 a219 5146 b6b9 fec5
00000020: d776 abc5 9813 dfc5 cb65 3ec6 fcee ba44
00000030: 3a3b 13c6 3bcf 5fc4 8ca8 94c6 b243 ec44
00000040: 5542 14c6 1554 77c5 32ae d6c5 2eb6 2945
00000050: aa98 8144 ee02 9545 0395 b8c5 d2c1 2bc5
00000060: b6a0 7dc6 4694 3ec5 c3f2 8245 b4a2 7dc3
00000070: 30d1 68c4 1888 33c6 6b18 e4c5 8163 a6c5
00000080: 504e b6c5 9037 5bc6 b066 8fc6 4e3b c844
00000090: 1e35 de43 e23b 64c6 6201 65c6 ee3a cbc3
000000a0: 9354 03c6 9087 ca45 d841 2cc6 70c0 29c4
000000b0: 4d70 62c6 1d0d 6ec6 dfb7 8345 c978 3e45
000000c0: 34bd c0c5 24ce 4cc3

exp_avg_sq f4 [50]
2.3687907e+08 8.8598035e+08 3.3189402e+09 2.3164245e+08 5.2737904e+07 3.9063222e+08 7.576299e+08 1.1647212e+08
7.27784e+08 5.7405005e+08 1.8633408e+08 1.183965e+09 2.7519442e+09 4.1970604e+07 1.8136408e+08 5.1107113e+09
3.9379526e+08 3.5479942e+08 1.1085804e+09 6.992354e+08 2.1930168e+09 2.4266908e+09 4.5290723e+08 1.180937e+09
2.2546122e+08 8.732671e+07 9.345348e+07 2.436084e+09 1.6160152e+09 5.0149168e+08 1.1457618e+09 3.099704e+09
5.0932573e+08 2.1396539e+09 4.0804918e+09 9.521102e+08 2.7100508e+09 2.3700616e+08 3.1192596e+09 7.608826e+08
8.577593e+08 1.5469887e+09 4.9763725e+08 1.3662864e+10 9.005146e+08 2.121799e+09 1.505813e+09 1.3754816e+08
1.702933e+09 1.2261964e+09
00000000: cee7 614d f33b 534e 02d3 454f 55e9 5c4d
00000010: dc2d 494c 9944 ba4d 0fa2 344e 2727 de4c
00000020: 6984 2d4e 3cdd 084e b8b3 314d bf23 8d4e
00000030: 5607 244f eb1a 204c 57f6 2c4d a24f 984f
00000040: b6c6 bb4d 7a2e a94d 3027 844e f1b5 264e
00000050: c8b6 024f 5da4 104f 87f6 d74d 56c7 8c4e
00000060: 3e04 574d ff8f a64c 953f b24c b133 114f
00000070: dfa4 c04e 3f21 ef4d e095 884e bbc1 384f
00000080: 8ddd f24d 0e11 ff4e 5d37 734f 3200 634e
00000090: 1888 214f d506 624d 20ec 394f 9768 354e
000000a0: 7981 4c4e 596a b84e bc4a ed4d b197 4b50
000000b0: 0db3 564e 2bf0 fc4e c481 b34e 182d 034d
000000c0: 6401 cb4e 8b2c 924e
