models/sigma0.01_step0.0002_lr0.0004/ckpt/model_epoch_700.pth (torch, 282369 bytes, 18 tensors)

layer1.weight f4 [25, 1, 3, 3]
000000 2b f2 2f bd 5c 74 de bc 3a 73 19 bd 28 97 8c 3d
       -0.04295556 -0.027155094 -0.037463404 0.06864768
000010 5b f5 5b be 45 e2 23 be 9a b7 f4 bd ae d4 0e 3e
       -0.21480314 -0.16004284 -0.11949082 0.13948318
000020 28 ea 46 be 12 e0 32 be f9 2f 3b be 46 c1 ac 3d
       -0.19425261 -0.17468289 -0.18280019 0.084353015
000030 6f d9 99 bd be d5 1d 3e d0 c1 0c be 2e 61 18 be
       -0.07512175 0.15413567 -0.13745809 -0.14880821
000040 cd fe 1c 3c bd 6b f6 3d dd 23 6e be 1a fc 03 3d
       0.009582234 0.12032268 -0.23255868 0.032222845
000050 01 fc dd bd b2 8c e5 bd ad 16 0d bd 96 40 cd 3c
       -0.108390816 -0.11208476 -0.034445453 0.025055211
000060 d0 1c 93 3a d8 ed 28 3e af d3 72 bd ba 16 21 be
       0.0011223797 0.1649698 -0.05928391 -0.15731326
000070 d5 74 21 be 35 fb 27 bd 4d de a8 3d 31 90 b4 3d
       -0.15767224 -0.041011054 0.082455255 0.08816565
000080 c5 96 cf 3d 34 0c de bd 8c 35 e2 bd cc 65 2b be
       0.10136179 -0.10842171 -0.110453695 -0.16738051
000090 71 3b 10 3e 1a 8d 10 3d 07 c8 b3 3d 6f 4a 27 3d
       0.14085175 0.035290815 0.087783866 0.04084247
0000a0 ec e5 50 3d 28 20 0b bd 4b 6c 20 3c 30 60 1a be
       0.05100052 -0.033966213 0.009791444 -0.15075755
0000b0 d6 ef 06 3e 8d 10 5c bd 74 5b d5 3d 0e 6c f0 bd
       0.13177428 -0.05372672 0.10417834 -0.1173936
0000c0 90 34 66 bd eb c0 54 bd 1a aa 26 3e 28 7f 57 be
       -0.05620247 -0.051941793 0.16275826 -0.210446
0000d0 79 ec b2 bd 3d ed 93 3b d8 af a4 bc c1 6f 8e bc
       -0.0873651 0.004514365 -0.02010338 -0.017387273
0000e0 bc 60 38 bc bf e1 5a bd 5d 4a 69 3d ea 79 b2 bd
       -0.011253532 -0.053437945 0.056955684 -0.087146595
0000f0 db 71 51 bc a9 3f b8 bd 81 48 52 3e 73 21 2a 3d
       -0.012783493 -0.08996517 0.2053547 0.041535806
000100 dd b8 1c bc 77 ba 9a bd 2f 04 d9 3d 28 de 05 3e
       -0.009565559 -0.075550966 0.10596501 0.13073027
000110 2e 29 2d bd d7 8e 12 be 52 54 e8 3b a8 b7 ab bd
       -0.0422756 -0.14312302 0.00709013 -0.08384639
000120 3f 17 91 bd 88 e8 88 3d fb ab 37 3c 07 d1 bb bc
       -0.07084512 0.06684977 0.011210437 -0.02292682
000130 cf e5 b2 bd 14 30 5b bd db 74 c7 bd 12 e4 d8 3a
       -0.08735239 -0.053512648 -0.09739085 0.0016547462
000140 2d 5b 5d 3d b7 e6 05 3d 08 dd 19 be ce 62 3c bc
       0.05404203 0.03269073 -0.15025723 -0.011498166
000150 96 38 ae 3c 1f 58 97 3c d4 5d 32 bd 56 b2 06 3e
       0.021267217 0.018474637 -0.043546513 0.13153967
000160 63 c4 99 3d 40 83 23 3d 94 ea 27 3d 7a 8d 81 bd
       0.07508161 0.03992009 0.040995196 -0.06325813
000170 61 4f 9d 3c c3 df 05 3e 5d 93 14 bd 7d b9 dd bc
       0.01920289 0.1307364 -0.03627335 -0.027065987
000180 61 cc 11 3d ad 7e bd 3b 40 62 7c 3d f8 8a 50 bd
       0.0355953 0.005782923 0.061617136 -0.05091378
000190 ea a8 b0 3d bf 53 cc 3d 2f 0b 11 3e 3e 79 4c bd
       0.08625968 0.09976911 0.14164422 -0.049920313
0001a0 91 f2 7a 3b dc 3a 98 3d a7 bc a3 3d e6 01 da bd
       0.0038291554 0.074331015 0.07994967 -0.10644893
0001b0 0e 5e b6 bd 59 7d 14 3d a3 c4 dc 3d 80 7c ae 3c
       -0.08904658 0.036252353 0.10779693 0.0212996
0001c0 39 f1 01 3e 3b 8b a3 bd 02 d2 94 bd 06 a6 6b bd
       0.12689675 -0.079855405 -0.07266618 -0.05753138
0001d0 8c b6 35 3c 71 aa 2f 3c 39 e1 0f be 29 ee 7f 3b
       0.011090886 0.010721789 -0.1405076 0.0039051867
0001e0 2b 1e a8 bc 95 1a b2 bd d6 fe 1b 3d 25 e2 c6 bc
       -0.020522198 -0.08696476 0.038084827 -0.024277756
0001f0 d0 80 6d 3d a9 45 2d be c0 44 5f 3d 46 44 3d 3c
       0.057984173 -0.16921104 0.054508924 0.011551922
000200 1f 61 11 be b6 1c 3f bd 2a d8 41 bd b6 fa 0b be
       -0.14197205 -0.04665824 -0.04732529 -0.13669857
000210 e9 9d 96 bd 07 45 94 3d f9 48 73 3d 9c b9 75 3d
       -0.07354338 0.072397284 0.059395764 0.059991464
000220 52 c8 9f 3d 06 f6 2f 3e 8b 57 2c be bf f6 c4 3c
       0.0780188 0.17183694 -0.1683027 0.024043439
000230 e5 67 69 be 74 ee c3 3d ba b2 c6 3d 0a 75 19 bd
       -0.22793539 0.09566966 0.09702058 -0.037465133
000240 29 98 de 3d 10 5c a8 3d 2f 8f 0f bd c7 dc d8 3c
       0.10868866 0.082206845 -0.03504866 0.026472462
000250 8c d0 52 3e f0 a7 84 bb 2b a9 50 3e 33 61 53 bd
       0.20587367 -0.00404834 0.20377032 -0.05160637
000260 35 27 ff 3c c0 73 86 3d 23 d7 80 bd 38 ec 08 3e
       0.031146625 0.06565046 -0.06291034 0.1337136
000270 c1 7c d1 3d 7c 4a 0a 3d 94 94 fb 3c a6 a9 ba 3c
       0.10228873 0.03376244 0.030710496 0.022785973
000280 03 4e 61 bd ee 5f 85 3b 9e b1 04 3e 58 4c dd bc
       -0.05500604 0.0040702736 0.1295838 -0.027013943
000290 3e 17 2f bd 49 21 fd 3d 70 da 2d bd 35 2f bb 3d
       -0.042746775 0.12359864 -0.042444646 0.091398634
0002a0 88 49 8a 3d 85 62 8c 3d e7 25 0b be 5b e0 a6 3d
       0.06752306 0.068547286 -0.13588677 0.08148261
0002b0 94 3c d0 3d ed 6b a2 bc 92 54 fd bd 42 04 62 3d
       0.10167804 -0.019826854 -0.12369646 0.05517984
0002c0 ff 76 dc 3d 6a 75 1e bd d0 e0 68 bc 7c 50 60 3d
       0.10764884 -0.038686194 -0.014213756 0.054764256
0002d0 e9 46 7f bd b3 38 18 bc 01 75 87 bd f0 6d f9 bd
       -0.062323485 -0.009290862 -0.066141136 -0.12179172
0002e0 1e 8e 13 be 9f 76 28 3e 4d d4 f0 bd 96 b0 e8 bc
       -0.14409682 0.164515 -0.11759243 -0.028404515
0002f0 f5 c0 a7 3b aa 35 84 3b 7a 10 b9 3d c3 80 4a 3e
       0.005119438 0.0040347176 0.09036346 0.19775681
000300 1a 29 81 bd f8 63 82 ba 9e b8 50 bd be fc c7 bd
       -0.063066676 -0.0009948006 -0.050957315 -0.097650036
000310 26 c6 9b be 62 18 ad 3d 9d ca 2f 3d 60 0e b9 bc
       -0.30424613 0.08451916 0.042917836 -0.022589862
000320 e7 cb f5 bc 2a 6d ae bd 42 2d 48 bd 84 a4 ea bd
       -0.030004455 -0.08516915 -0.048871286 -0.1145716
000330 12 f2 d3 bd f7 79 a6 3c b8 07 c9 3d de df fd bd
       -0.103489056 0.02032183 0.09815925 -0.12396215
000340 48 4a b2 bd fb bf 6e 3d 58 75 b2 bd 40 a1 d1 bd
       -0.08705574 0.058288556 -0.08713788 -0.10235834
000350 d7 36 5a 3e 83 7a e6 3b dc 80 a4 bc ab 33 8f bd
       0.21309982 0.0070336475 -0.020080976 -0.06992277
000360 30 79 c0 3c cb ed 47 3d 3b 42 0e bd e9 1c 4a be
       0.023495287 0.04881076 -0.03473113 -0.19737591
000370 82 00 d4 3d ee 4e 21 bd 97 05 3c be 16 c2 db 3d
       0.10351659 -0.039381914 -0.18361507 0.10730378
000380 25 1e f7 bd
       -0.120662965

layer1.bias f4 [25]
000000 c0 9b 95 bd 6f c8 53 be bd dd ef bd 97 5e 7e 3c
       -0.073050976 -0.20681928 -0.11712215 0.015525482
000010 27 89 e5 bd 29 29 e2 3c 74 b3 4f 3e 6a a5 16 3e
       -0.112078 0.027607517 0.202833 0.14711538
000020 37 73 10 be 4d fe 0a 3e d8 ff 97 3d e9 a9 8b be
       -0.14106451 0.1357357 0.07421845 -0.2727807
000030 d9 0a a0 be 1f 53 9f be fd 03 0f 3c 33 ba 98 3e
       -0.31258276 -0.31118104 0.008728978 0.2982956
000040 50 1d f8 bc 3c 87 4d be 62 50 46 3e 24 72 a0 3e
       -0.030287415 -0.20071119 0.19366601 0.31337082
000050 86 52 7c be 79 c9 9c 3e b6 b5 4f be b5 9d a7 3e
       -0.24640855 0.3062246 -0.20284161 0.32737508
000060 32 d9 6a bc
       -0.01433401

layer2.weight f4 [50, 25, 3, 3]
000000 12 b5 30 3d 7a d2 98 3d 00 f6 03 3d de 31 2c 3d
       0.043141432 0.0746202 0.032217026 0.042039745
000010 45 65 11 3d 87 b9 99 bd 62 b7 1d 3c 6a 21 0d bd
       0.03549697 -0.0750609 0.009626241 -0.034455694
000020 b7 07 81 3d 8e f2 8d bc 15 5b ea bc 62 0a 87 3c
       0.063002996 -0.017327573 -0.028607884 0.016484443
000030 82 43 99 bb e6 59 65 3d 08 52 d1 3c e7 61 06 bd
       -0.004677237 0.055993937 0.02555181 -0.03280821
000040 c9 24 3f bd ff 43 40 bd b0 c6 e6 3d 97 95 20 3b
       -0.04666594 -0.046939846 0.112683654 0.0024503225
000050 d9 39 a3 3b 10 d7 ad 3d 6e 7c dd 3b 25 5e 51 3d
       0.004981261 0.084882855 0.006759218 0.051115174
000060 8d f3 bb bd f1 1f 8a bc a5 38 c1 bd f4 93 5b bd
       -0.09177313 -0.016860934 -0.09434632 -0.053607896
000070 2d 91 40 bb 36 cf 52 3d a2 ef d5 3d 02 76 6a 3d
       -0.0029383407 0.051467143 0.10446097 0.057241447
000080 bc 4e a8 3d 65 45 d5 ba c0 25 d4 bc 53 6f ac bd
       0.082181424 -0.0016271292 -0.025896907 -0.08419671
000090 95 55 86 bd 73 92 2b 3d 9d d0 07 3d 6c 3d 17 3d
       -0.06559292 0.04188771 0.033157934 0.03692381
0000a0 d4 70 3f bd f0 4b 70 3c a1 39 d4 3c 42 4e 92 3a
       -0.04673846 0.014666542 0.025906386 0.0011162239
0000b0 0d a4 91 3d 1e 95 23 bd b1 5e 13 bd 5e 3d 10 bd
       0.07111368 -0.03993713 -0.035978977 -0.035214774
0000c0 1c 26 42 bd 6d 45 38 3d b8 c8 9c 3c 69 eb bc bc
       -0.047399625 0.044988085 0.019138679 -0.023061471
0000d0 a9 77 a3 bb fc e5 23 bd a9 41 db 3d 33 51 82 bc
       -0.00498863 -0.040014252 0.10705883 -0.01590786
0000e0 86 6f 0e 3d 95 8b 85 3d 59 14 6f 3c 79 9d 81 3d
       0.034774326 0.06520764 0.014592254 0.06328864
0000f0 6c d4 49 3d 1b bc 06 bb 12 9b da bd f1 bf ab 3d
       0.049274847 -0.0020558897 -0.106741086 0.08386219
000100 26 19 f2 3d bc 9d be 3d ff bb 9d 3d 8f 67 36 3d
       0.11821203 0.09307429 0.07701873 0.044532355
000110 34 2e 53 bd ee 45 a0 bd fb 65 6e bd fe e1 9e 3c
       -0.051557735 -0.07825838 -0.058202725 0.01939487
000120 7b d3 eb 3d 62 9f 95 bd 76 76 10 3d 11 bf 3c bd
       0.11514946 -0.073057905 0.035269223 -0.046080653
000130 83 a0 e2 3d c0 d6 9d bc 62 8d c3 bc b9 3b 37 3d
       0.110657714 -0.01926744 -0.023871128 0.04473469
000140 9a d3 c8 bd 55 02 97 bd bc 17 5a 3d db 7a 1f bd
       -0.09805985 -0.07373492 0.05324529 -0.038935523
000150 f7 ea 07 3e eb c3 ad bc 66 b6 9c 3c c7 76 92 3d
       0.13273226 -0.021211585 0.019129943 0.07151561
000160 e7 f2 93 bd f5 28 08 3d 99 a1 0e 3c 24 8d e9 3c
       -0.07224064 0.033242185 0.00870552 0.028509684
000170 1f 5a e1 3c 0d f2 44 bd d5 7f a0 bc f8 58 05 bc
       0.027508793 -0.0480824 -0.019592205 -0.008138888
000180 69 9f 59 3d 82 85 1e bd 02 e6 17 3d a6 e9 5d 3c
       0.05313054 -0.03870154 0.037084587 0.013544476
000190 c7 ed 00 3d 74 2f 22 bd 21 2f 14 bd eb 44 62 bd
       0.031476762 -0.039596036 -0.036177758 -0.055241507
0001a0 87 9b 81 3d 37 2a a3 bc 33 b6 e4 3c a1 52 f3 3c
       0.063284926 -0.01991759 0.02791891 0.029702486
0001b0 7a d9 26 3b ca c3 75 3c ea 8f fe 38 cf f6 f9 bc
       0.0025459216 0.015000293 0.0001213847 -0.030513195
0001c0 f3 cb 47 bc 80 f5 9c bd 53 8c 76 bc 36 dc b3 3b
       -0.012194621 -0.07664013 -0.015048104 0.0054888977
0001d0 8a 4f 71 bd c2 a2 97 3d 7f e1 20 3d 86 25 c3 bb
       -0.058913745 0.074040905 0.03927755 -0.005955401
0001e0 6e 3d cb ba 58 ad 3e bc 4e 70 5c 3c ce 81 93 3b
       -0.0015505978 -0.011638008 0.01345451 0.004501558
0001f0 be a2 cd 3d 51 58 79 3d 05 4b 19 bd 95 91 4a 3d
       0.10040806 0.06087524 -0.03742506 0.049455244
000200 40 a5 f9 bc 50 66 05 bd 84 8c 05 bd 75 da 45 3d
       -0.030474305 -0.032568276 -0.03260471 0.04830404
000210 26 7f 2e bd f5 15 d9 bc 43 90 8c 3b 81 06 c8 3d
       -0.042601727 -0.026499728 0.0042896583 0.097668655
000220 d8 3c 5b bd fc d0 05 bd d2 57 ad 3c 84 d9 3b 3c
       -0.053524822 -0.032670006 0.02116004 0.011465434
000230 68 c3 d2 3c 28 7f 07 bd 0c 10 b4 3d 3e 9c 26 bd
       0.025727943 -0.03308025 0.08792123 -0.040676348
000240 c1 91 75 bd 7f f1 36 be cd f0 f2 bc ed 53 55 bd
       -0.059953455 -0.17865561 -0.029655838 -0.05208199
000250 80 e2 24 3c 31 fd 27 bb a4 ac a5 bd fb ff 7e bc
       0.010063767 -0.0025633092 -0.08089569 -0.01556396
000260 2e 38 a1 3d a1 4a d8 3c 5f 6b 48 3d e9 64 99 bd
       0.078720436 0.026402773 0.048930522 -0.0748995
000270 0a b5 18 bd 79 20 b2 bc 02 a4 a8 3c 73 20 be bd
       -0.037282027 -0.021744 0.020586018 -0.09283533
000280 c0 41 32 bd 3d c6 b5 bd 65 54 69 3b a5 27 0b bd
       -0.043519735 -0.088757016 0.0035603282 -0.033973355
000290 5e e6 2a 3d bc 82 be 3d bc 9f 2d bd eb 32 07 bc
       0.0417236 0.09302279 -0.042388663 -0.008251886
0002a0 ea 21 9c 3d e7 f7 bc 3c c7 9e e0 bc 32 fa 22 3d
       0.07623656 0.023067428 -0.027419461 0.039789386
0002b0 17 d5 64 3d ab fd 06 bd 06 73 5b 3d ab 7d 8e 3d
       0.05586728 -0.03295676 0.05357649 0.06957563
0002c0 ab c6 17 bc 56 23 92 3b a9 c7 ac 3c d1 52 f6 bc
       -0.009263675 0.004459779 0.0210913 -0.030068787
0002d0 6d 32 8f 3d 4a dd fc 3a 1f 30 b3 bd ea fb 8b 3d
       0.0699204 0.0019292023 -0.08749413 0.06835158
0002e0 f0 5a 73 3b d0 9f 37 3d e4 86 e1 bc cf fa da 3c
       0.003713306 0.044830143 -0.027530141 0.026730923
0002f0 d9 61 8d 3d 93 62 0f 3c 95 d4 81 bd 11 57 8f 3d
       0.069034286 0.008751529 -0.06339375 0.069990285
000300 82 97 16 3d 48 89 d2 3c 86 ef b9 3d a3 ed 1d bd
       0.036765583 0.025700226 0.090788886 -0.038556706
000310 e9 c7 a5 3d c2 96 b4 3b b9 ba e3 3c bf 89 4e 3d
       0.080947705 0.005511136 0.027798997 0.050424334
000320 5d 1e fa 3c a3 5b f2 3d 87 16 67 bc 63 e3 29 bd
       0.030532056 0.118338846 -0.014104492 -0.04147662
000330 ad dc b9 bc 55 d5 d5 3c 5b fb 3c bc a8 16 dd 3c
       -0.022688234 0.026102701 -0.011534537 0.026988342
000340 cc 84 9e 3b 34 39 94 3d 42 ff c9 3b cd a9 a0 bd
       0.004837608 0.07237473 0.0061644623 -0.07844887
000350 bf fb 40 bd f6 c8 12 bd 69 c4 40 3c 70 17 65 ba
       -0.047115084 -0.035836183 0.011765578 -0.0008739149
000360 c8 7b b7 3d 86 07 3d 3d 98 be c3 bd 7a 5c 84 3d
       0.08959156 0.046149753 -0.09557837 0.06462951
000370 ba 5a 95 bd df 97 0c bd 9e f3 6c bc 2f e6 52 3c
       -0.07292695 -0.034324523 -0.01446238 0.012872263
000380 8f 17 3b 3d 03 7e 47 3d 2e 6f fc 3d ac 33 8a 3d
       0.045676764 0.04870416 0.12325893 0.06748137
000390 70 44 ce bc c0 57 51 3d 7c c5 84 3d 43 98 d2 3d
       -0.025179118 0.051109076 0.0648298 0.10282948
0003a0 c2 85 b6 bd fd e5 97 3b 9b 3e 18 3c 6c f0 18 bd
       -0.08912231 0.004635571 0.00929227 -0.03733866
0003b0 c6 8f 7c bb 90 98 96 bc aa a9 e2 3d 2b 2a 5e bd
       -0.0038537844 -0.018383294 0.11067517 -0.054239433
0003c0 13 2c 38 bd f6 eb fb bd 42 a5 36 bc 23 f3 42 3c
       -0.044963907 -0.12300865 -0.011147799 0.011898789
0003d0 4d 92 aa 3d 7b aa a2 3d 57 63 4d 3d f8 49 11 bb
       0.08328686 0.07942673 0.050143566 -0.0022169333
0003e0 a6 d9 01 3e de c3 cf 3a 30 79 cb 3c 70 ac 17 3d
       0.12680683 0.001585122 0.02483806 0.037029684
0003f0 4a 3b dc bc 2c b5 4a 3d da 99 bc 3d 12 20 53 3c
       -0.02688374 0.049489185 0.09209032 0.012886064

layer2.bias f4 [50]
000000 bd c2 e2 bc 04 4e fb 3c c3 d8 81 bb b8 42 2e 3d
       -0.02768075 0.03067685 -0.0039626076 0.042544097
000010 3c 38 81 3d fd 30 77 3d c5 67 98 3c 3a ca 6b 3d
       0.06309554 0.060349453 0.018604169 0.057565905
000020 61 b2 0e 3d dc b3 36 bd 8b 05 94 3d 22 a2 54 bd
       0.034838084 -0.04460512 0.0722762 -0.051912434
000030 a3 8a 0b 3c 9b 05 01 3c 0c b4 0d 3d b4 70 31 3d
       0.00851694 0.007874872 0.034595534 0.043320373
000040 19 9a 05 bd fe b2 a8 3c b1 e8 59 3c 6e dc 1d bd
       -0.032617662 0.020593163 0.013300107 -0.038540296
000050 a2 38 83 bd 3a 5b 9e bc ca e2 6e bd 4a ee 76 bd
       -0.06407286 -0.01933061 -0.05832175 -0.060285844
000060 0f e9 29 bd 45 1f 85 3d c2 93 49 bd f6 6b b2 3c
       -0.041482028 0.06500105 -0.04921318 0.021779995
000070 0f fa 85 3b 32 08 04 bd f9 75 3a bd 86 50 fe 3b
       0.004088647 -0.03223438 -0.045522664 0.007761064
000080 88 20 51 bc 2b 0b 0a bd e1 1a 78 bd 23 9d 20 bc
       -0.012764104 -0.033702057 -0.06057251 -0.009803089
000090 17 55 32 3d d1 14 da 3c c3 f6 1c 3d 17 6b 18 bc
       0.04353818 0.026621254 0.038321268 -0.009302876
0000a0 43 fe c3 3b 06 b9 03 3d c5 9b 41 3c c2 f9 1b 3d
       0.005981238 0.032158874 0.0118169235 0.038079984
0000b0 60 1f 14 3c 66 51 a8 3c 82 f6 db 3c 03 f9 f3 bc
       0.0090406835 0.020546626 0.026850943 -0.029781824
0000c0 33 8b 27 bd ee eb a5 3c
       -0.040904235 0.020254102

layer4.weight f4 [25, 50, 3, 3]
000000 a0 14 c5 bd bd 41 52 bd 93 73 04 bd bd e5 5a 3d
       -0.096230745 -0.051332224 -0.032336783 0.05344175
000010 8b e1 3c 3d 0a 1b ac bc 6c 70 08 bd 63 32 eb 3c
       0.046113532 -0.021008987 -0.03331034 0.02871055
000020 8e c4 c3 bc 8b dc cd bb 9a 7c 46 bd 7c e6 9d ba
       -0.023897436 -0.0062823943 -0.048458673 -0.0012046839
000030 cc 41 5b b9 cc 51 26 3d c4 7f 74 bd 6c 8a 81 bd
       -0.00020909979 0.04060535 -0.05969216 -0.0632523
000040 2f 53 6d 3c a9 e2 0a be a0 83 0b be e4 18 cf bd
       0.014485165 -0.13563026 -0.1362443 -0.101121694
000050 54 24 fd 3d 30 ab 48 3c fc 2d f2 bc fe c1 b5 3d
       0.12360445 0.0122478455 -0.029562943 0.08874892
000060 9c fb 29 bd ce b4 78 3d 93 72 6e bd e0 57 fd 3d
       -0.04149972 0.060719304 -0.058214735 0.123702765
000070 a4 c7 41 3c 80 5c 37 3c f3 39 cf 3d 5b 52 13 3d
       0.011827383 0.011191487 0.10118475 0.035967212
000080 e0 6c 9b 3d ef 65 25 3d fb 4a c2 3d 59 bf 28 bd
       0.07589126 0.040380415 0.09486958 -0.04119811
000090 6e 70 69 3c 71 ba a8 3c a9 19 a4 3d e8 d6 58 bb
       0.014247997 0.020596715 0.08012707 -0.0033087078
0000a0 4e 2d d6 bd 7a e9 84 bd cd 3c bd bd 4a eb 7d bd
       -0.1045786 -0.064898446 -0.092401125 -0.061991967
0000b0 19 35 cb 3b 97 a9 63 3d 17 c7 65 3a b0 78 4e bc
       0.006201398 0.055581655 0.00087653234 -0.012602016
0000c0 05 57 7f 3b bd e8 e6 bc 0b ab 63 3c 3d ea 61 bd
       0.003896178 -0.02818715 0.01389576 -0.055155028
0000d0 e5 67 22 3d 48 d8 1f bd 9e 9c 3b bd c1 ff 50 bd
       0.039649863 -0.03902462 -0.04580366 -0.051025156
0000e0 89 c8 c1 3c c9 c0 89 bc 06 25 88 bb c7 9b db 3c
       0.023655193 -0.01681556 -0.004154804 0.026807679
0000f0 c3 e8 8b 3d d0 c7 71 bc b5 09 9f 3d 63 fd 8c bc
       0.06831505 -0.014757112 0.07765523 -0.017210668
000100 c7 fa 30 3d e9 94 f7 3c 53 e8 b9 3a 73 17 94 bd
       0.04320791 0.030222373 0.0014183618 -0.07231035
000110 1c 5a 19 3d cc 7a db bc e3 b2 27 3d 90 14 a3 3c
       0.03743945 -0.026791953 0.040942084 0.019907266
000120 26 81 52 3d 3b af f1 bd 3d 2d f8 bc cb f6 19 be
       0.051392697 -0.11801001 -0.030295009 -0.1503555
000130 4c 87 8e 3c 53 74 db 3d e0 fa 03 bd d0 b9 02 bd
       0.017398499 0.107155465 -0.032221675 -0.031915486
000140 d0 ca 2d bb 7c 37 92 3d 15 02 c2 bc 7b 50 e3 bb
       -0.002651859 0.07139489 -0.023682633 -0.0069370843
000150 ce 82 ed 38 01 ef 42 3b 07 af e7 3d 88 d1 64 bd
       0.00011325405 0.0029744508 0.11312681 -0.055863887
000160 01 9e 97 3d 98 44 98 3c 11 f5 45 3d c4 a3 8a bd
       0.07403184 0.018587396 0.048329417 -0.06769517
000170 82 a6 b9 bc 1c dc 54 bc f9 08 b0 bc 0c da a4 3c
       -0.022662405 -0.012991931 -0.021488653 0.020123504
000180 31 3b 51 bd 60 67 f0 bc 22 6b 2d bd dd 84 61 bd
       -0.05108184 -0.029346168 -0.042338498 -0.05505835
000190 24 89 1b 3d ad bb 03 bd 3c d5 b2 bc 4c 30 2b bd
       0.037972584 -0.032161403 -0.021830194 -0.041794106
0001a0 3a bc 02 3d 34 6f 93 bd dd 02 e0 bc 00 99 f7 3c
       0.031917788 -0.07198945 -0.027345115 0.030224323
0001b0 f5 c3 70 bb 6a 96 9d bc cd f0 c8 3d 8f 05 aa 3d
       -0.0036737893 -0.019236762 0.09811554 0.083018415
0001c0 b6 e8 1a 3d c9 43 76 bd d3 ef a2 bd 91 96 0f 3c
       0.037819587 -0.06012324 -0.07955899 0.008763925
0001d0 6a ba 1e 3c f2 5a d6 bd 2b bc 79 3d 0b 06 18 bd
       0.009687999 -0.10466565 0.060970467 -0.037115138
0001e0 be 39 af 3c 84 57 b3 3d 28 0f 33 bc 01 4f e4 3c
       0.021389838 0.08756927 -0.0109289065 0.027869703
0001f0 3b 1b af 3c 3b e1 19 bd a4 1e 25 bc 54 91 b1 3c
       0.02137529 -0.037568312 -0.010078106 0.021675743
000200 78 e9 aa 3c c7 0d 34 bd 57 e3 01 be 21 5c d6 bc
       0.02086328 -0.04395845 -0.1268438 -0.026166977
000210 f4 0b 9c 3c 17 70 34 bb b7 f3 ea 3c fd fb ac b9
       0.019048668 -0.002753263 0.028680665 -0.00032994142
000220 a0 78 84 bd d6 a0 be 3c ca ed 42 bd 20 fb df 3c
       -0.0646832 0.023270052 -0.047590055 0.027341425
000230 34 9b f3 3b 73 9e 24 bd e4 41 da bd 1c b0 5c 3c
       0.007434273 -0.04019017 -0.10657099 0.013469722
000240 10 f1 ca 3d ee f6 cb 3b 35 02 37 3d da 0b 44 3d
       0.0990926 0.0062245047 0.04467984 0.047862865
000250 e3 a5 f6 3c ff 65 75 bd 17 2b ee 3c 8f 0e 83 bd
       0.030108398 -0.059911724 0.029073281 -0.06399261
000260 38 bb f3 3b 31 54 ed 3d 6d 7e ab 3c 48 6a 8d 3c
       0.0074380897 0.11588324 0.020934308 0.017262593
000270 ce 50 60 3d 8e 18 59 3d aa 5f 46 3d 9c 98 0d bc
       0.05476456 0.053001933 0.048431076 -0.008642342
000280 89 a7 92 3c 9d 5d dc bc 87 ff 02 3d f5 52 01 3c
       0.017902153 -0.026900107 0.03198197 0.007893314
000290 e7 d7 03 be d2 d0 9f bc 66 04 b5 bb 8f 59 59 bd
       -0.12875329 -0.019508753 -0.005524206 -0.053063925
0002a0 d1 5d cd 3c d3 00 a1 3d d8 c5 d0 3d 40 ea 80 3b
       0.02506915 0.07861485 0.10193986 0.003934175
0002b0 5c 6b 95 3a 9c 7d b1 bc d3 3e 97 bd b1 f9 2c 3d
       0.0011399793 -0.02166634 -0.0738503 0.04223031
0002c0 a8 33 a5 3d 87 d9 11 bb 6f 8d a9 3c be a5 0a bc
       0.08066493 -0.00222549 0.020697324 -0.008462368
0002d0 b1 bf 09 bd 29 85 98 bd b6 74 2f bd 12 7b e8 bd
       -0.033630077 -0.07447273 -0.042835914 -0.11351599
0002e0 71 34 3d 3c 41 68 39 bd b6 16 b9 3c 0a 5a b4 3b
       0.011548148 -0.04526544 0.022593837 0.0055038976
0002f0 63 af 89 3d 42 53 f8 3d 0b 2d 71 3d 8f e8 c2 bd
       0.067229055 0.12125255 0.058880847 -0.09517013
000300 4a f5 0f 3c 3c 49 03 3d ac a7 99 bc 61 40 df 3c
       0.008786509 0.032052264 -0.01875671 0.027252378
000310 6d 04 60 3d 85 66 07 3c 78 c6 66 bd 5d 6f 87 bd
       0.05469172 0.008264189 -0.05634162 -0.06613038
000320 b7 b5 74 3d 55 39 4e 3d c8 a2 f0 bb ae 53 92 3d
       0.05974361 0.050347645 -0.007343624 0.07144867
000330 66 49 3d bd 5d 81 b3 bc 66 62 4d bd 48 15 97 bc
       -0.046212576 -0.021912271 -0.05014267 -0.018442765
000340 4b 36 e5 3d 42 c9 85 3b 99 3f e4 bc a3 1e 32 3d
       0.11191996 0.0040828297 -0.027862357 0.04348625
000350 e5 3a 7b 3d c1 63 d9 3c a2 5f 3a 3d ca a9 ed 3c
       0.061335463 0.026536824 0.04550136 0.029011626
000360 31 8f de bc a3 63 9e 3d c9 7d bd 3d 6e 2f a5 3b
       -0.027167888 0.07733848 0.09252507 0.0050410544
000370 1e cf 41 3c ff 2c 79 bd 5e 31 f1 3d 5d 9b 10 bd
       0.011829166 -0.060833927 0.11776994 -0.035304416
000380 7a 8c 54 bd e5 1b ff 3c 05 e0 3f 3d 51 1d 77 3d
       -0.05189178 0.03114123 0.0468445 0.060330693
000390 76 d1 1e bd a3 92 39 3c 3e 6d 1f bc 3f 90 0f 3d
       -0.038773976 0.011326465 -0.009730635 0.035049673
0003a0 82 4d 4c 3d 86 88 1d bc d5 72 a2 3d e7 42 9e bb
       0.049878605 -0.009615069 0.07932059 -0.0048297527
0003b0 4d 88 f5 3c ec 25 c0 bd eb 12 85 bd 3a 04 f9 3c
       0.02997222 -0.09382233 -0.06497749 0.030397523
0003c0 d2 b5 67 3b eb 68 2e 3d 57 8b 43 bd 3a de a4 3d
       0.0035356176 0.042580526 -0.047740307 0.08050199
0003d0 13 26 8d bd 18 9c a6 bd f4 8e b9 bc 3d 48 55 bd
       -0.06892028 -0.08135241 -0.022651173 -0.052070845
0003e0 72 ca de bc bb 3d 12 3d 98 83 99 3d 1d a2 5a bd
       -0.027196143 0.035703402 0.07495803 -0.05337726
0003f0 f7 18 49 3c 6b ed 26 bd 99 01 19 3d da a1 fc bc
       0.0122740185 -0.040753763 0.03735504 -0.030838896

layer4.bias f4 [25]
000000 23 a9 0f 3d 19 43 b5 bb e5 56 3b bb b0 71 b6 38
       0.03507341 -0.0055316803 -0.0028585729 8.699612e-05
000010 35 b0 06 bd 36 55 f5 bb 2f da ef bc 7c 73 5a bd
       -0.032882888 -0.0074869646 -0.029278843 -0.05333279
000020 f1 2e 37 3d 20 5a 0a bd e7 d0 c7 3b 67 3b 9c 39
       0.0447225 -0.033777356 0.006097901 0.00029798897
000030 9e c8 3b 3c 07 6e 12 3b 1d 14 ef 3c e0 cf c2 bc
       0.011461405 0.0022343413 0.029184395 -0.023780763
000040 ae c8 aa 3b 46 36 b0 bb 91 a6 ba bc e1 b0 12 3d
       0.005211911 -0.0053775636 -0.022784503 0.035813216
000050 49 bb 4a bc f2 db 5d bc b3 ad 47 bd bf 4c 90 bc
       -0.012373754 -0.013541209 -0.048749637 -0.01761472
000060 99 89 5f ba
       -0.00085272786

exp_avg f4 [25, 1, 3, 3]
000000 50 76 2b 47 6e a3 88 47 92 b4 a9 47 aa ea 41 47
       43894.312 69958.86 86889.14 49642.664
000010 da 99 95 47 6a 8c b7 47 a6 c7 1d 47 1a 4d 83 47
       76595.7 93976.83 40391.65 67226.2
000020 d4 70 a5 47 08 2b 8e 46 44 b0 1b 47 20 d0 5d 47
       84705.66 18197.516 39856.266 56784.125
000030 22 eb ac 46 e6 07 30 47 60 97 6b 47 12 72 a4 46
       22133.566 45063.9 60311.375 21049.035
000040 f0 d6 25 47 f4 b9 5c 47 8b 8f 84 47 07 83 cf 47
       42454.938 56505.953 67871.086 106246.055
000050 2a 98 f5 47 ce 89 87 47 36 a1 d5 47 c5 fb fe 47
       125744.33 69395.61 109378.42 130551.54
000060 3c 17 58 47 2a 46 b7 47 a8 e0 e0 47 52 ca 01 47
       55319.234 93836.33 115137.31 33226.32
000070 e8 d9 70 47 1d 3b 9f 47 70 02 3b 47 1a 00 95 47
       61657.906 81526.23 47874.438 76288.2
000080 4d 72 b7 47 1b b5 2a 47 96 3b 88 47 b4 e7 a5 47
       93924.6 43701.105 69751.17 84943.41
000090 d8 fc 62 c6 86 89 19 c7 16 b5 5f c7 2c 37 fb c5
       -14527.211 -39305.523 -57269.086 -8038.8965
0000a0 09 21 05 c7 48 42 53 c7 d8 16 64 43 52 ba c5 c6
       -34081.035 -54082.28 228.08923 -25309.16
0000b0 1a 6f 2e c7 75 09 0c 47 db 69 41 47 5c 9f 63 47
       -44655.1 35849.457 49513.855 58271.36
0000c0 a6 0c 04 47 88 60 35 47 da 90 57 47 ea 98 af 46
       33804.65 46432.53 55184.85 22476.457
0000d0 94 8e 02 47 0e cc 1d 47 ee d5 cc 46 bb fd aa 46
       33422.58 40396.055 26218.965 21886.865
0000e0 9a a4 37 46 8d 70 b0 46 91 f2 b0 46 fa 96 77 46
       11753.15 22584.275 22649.283 15845.744
0000f0 70 8a 3a 46 a6 37 6e 46 de 0e 54 46 ca b6 81 c6
       11938.609 15245.912 13571.717 -16603.395
000100 5e 5c 57 46 bd 7e 20 47 1d 1a 6d c6 28 81 a5 46
       13783.092 41086.74 -15174.528 21184.578
000110 d8 af 50 47 b0 73 a9 c6 92 b8 86 46 de be 4c 47
       53423.844 -21689.844 17244.285 52414.867
000120 92 53 be 46 f4 34 3f 47 68 4a 81 47 75 0b fb 46
       24361.785 48948.953 66196.81 32133.729
000130 40 0b 60 47 12 c6 90 47 55 d9 d4 46 a3 4b 46 47
       57355.25 74124.14 27244.666 50763.637
000140 62 16 82 47 32 e1 91 c6 bd e1 67 c6 f6 a7 8b c5
       66604.766 -18672.598 -14840.435 -4468.995
000150 0a dd 1e c7 2b 15 16 c7 a4 35 d8 c6 6f 98 52 c7
       -40669.04 -38421.168 -27674.82 -53912.434
000160 b1 ad 54 c7 65 07 2f c7 c6 c7 52 c7 44 25 a5 c7
       -54445.69 -44807.395 -53959.773 -84554.53
000170 45 5e bb c7 05 e6 7d c7 d2 18 c1 c7 01 d8 d9 c7
       -95932.54 -64998.02 -98865.64 -111536.01
000180 f2 bb 6a c7 34 bb b7 c7 b1 e1 d1 c7 84 2e 5e c7
       -60091.945 -94070.41 -107459.38 -56878.516
000190 10 ea b5 c7 9d 96 e4 c7 69 66 57 c7 72 04 b8 c7
       -93140.125 -117037.23 -55142.41 -94216.89
0001a0 7c 93 e9 c7 c6 1c 1e c7 94 78 97 c7 f2 ba c8 c7
       -119590.97 -40476.773 -77553.16 -102773.89
0001b0 55 16 1a c6 1a 23 0a c7 b3 1c 5d c7 9c 0d da c5
       -9861.583 -35363.1 -56604.7 -6977.701
0001c0 fe 81 06 c7 78 df 63 c7 40 2a 8a 45 9c ac b2 c6
       -34433.992 -58335.47 4421.2812 -22870.305
0001d0 ee 74 3a c7 d6 ca b9 46 12 5f 6b 47 07 76 b2 47
       -47732.93 23781.418 60255.07 91372.055
0001e0 4c 27 ba 46 78 28 7c 47 95 f7 c2 47 88 f8 7f 46
       23827.648 64552.47 99823.164 16382.133
0001f0 b2 e2 60 47 79 8e b6 47 5e d9 7d 46 20 ce 33 47
       57570.695 93468.945 16246.342 46030.125
000200 5c 1e 88 47 03 bb ac 46 b0 c8 51 47 37 4d 99 47
       69692.72 22109.506 53704.688 78490.43
000210 30 d6 c7 46 10 3e 5c 47 b2 fc 9c 47 8c 3f f4 c6
       25579.094 56382.062 80377.39 -31263.773
000220 38 eb a5 c6 33 41 23 c6 52 a2 f7 c6 48 9a 8d c6
       -21237.61 -10448.3 -31697.16 -18125.14
000230 e9 c6 ad c5 90 4e e9 c6 a4 d1 6b c6 64 30 12 c4
       -5560.864 -29863.281 -15092.41 -584.7561
000240 6c c1 5f c7 e2 b1 e2 c7 e9 df 15 c8 69 7d 7b c7
       -57281.42 -116067.766 -153471.64 -64381.41
000250 95 72 f1 c7 86 f2 1c c8 1e 31 4b c7 9a 10 d2 c7
       -123621.164 -160714.1 -52017.117 -107553.2
000260 3b 77 09 c8 7d a4 11 c7 30 d7 97 c7 6d a1 cd c7
       -140764.92 -37284.49 -77742.375 -105282.85
000270 a4 90 3a c7 d1 45 b3 c7 72 d0 ec c7 97 16 34 c7
       -47760.64 -91787.63 -121248.89 -46102.59
000280 da fb af c7 34 b7 e9 c7 54 aa 89 c6 ea aa 53 c6
       -90103.7 -119662.41 -17621.164 -13546.729
000290 2b 13 b8 c5 94 cd 80 c6 25 5b 7d c6 47 fb 36 c6
       -5890.396 -16486.79 -16214.786 -11710.819
0002a0 58 25 15 c6 54 1f 51 c6 7f 01 54 c6 92 2e c2 c6
       -9545.336 -13383.832 -13568.374 -24855.285
0002b0 8f a0 57 c7 32 24 9a c7 22 d3 cb c6 7e 75 68 c7
       -55200.56 -78920.39 -26089.566 -59509.492
0002c0 0d d1 a7 c7 fa dd 82 c6 64 0b 47 c7 f4 87 98 c7
       -85922.1 -16750.988 -50955.39 -78095.91
0002d0 a6 08 56 47 24 c2 b4 47 a1 a4 e1 47 f0 5f 52 47
       54792.65 92548.28 115529.26 53855.938
0002e0 e6 c7 ba 47 b3 3e ef 47 b8 64 16 47 c2 75 9d 47
       95631.8 122493.4 38500.72 80619.516
0002f0 00 04 d5 47 92 8d 03 46 64 1b d4 46 5a f2 17 47
       109064.0 8419.393 27149.695 38898.35
000300 72 a5 9d 46 e8 7e 1a 47 2f 4f 44 47 76 bb c6 46
       20178.723 39550.906 50255.184 25437.73
000310 18 f1 2a 47 fc b7 53 47 98 d3 92 46 29 03 3b 47
       43761.094 54199.984 18793.797 47875.16
000320 57 dd 87 47 cc 48 d7 46 76 10 6b 47 58 8c a3 47
       69562.68 27556.398 60176.46 83736.69
000330 2f b3 c7 46 d0 06 66 47 88 24 a1 47 d4 76 3a 47
       25561.592 58886.812 82505.06 47734.83
000340 62 ba 8b 47 8c 87 ac 47 5e 38 61 47 da 73 a4 47
       71540.766 88335.09 57656.367 84199.7
000350 ea 9e c8 47 24 d3 51 47 1a 44 9d 47 f8 fd c0 47
       102717.83 53715.14 80520.2 98811.94
000360 1a 0e f9 46 50 d9 91 47 a4 40 c7 47 d8 50 05 47
       31879.05 74674.625 102017.28 34128.844
000370 f4 4a 97 47 32 94 cc 47 46 97 a6 46 f0 ce 6c 47
       77461.91 104744.39 21323.637 60622.938
000380 ce f1 a6 47
       85475.61

exp_avg_sq f4 [25, 1, 3, 3]
000000 96 7f 08 4f 80 6a 4d 4f e9 96 82 4f 4d 08 21 4f
       2.2900628e+09 3.4463089e+09 4.3818563e+09 2.7016758e+09
000010 2d db 74 4f 80 98 9a 4f 18 7c 12 4f 0f e3 5d 4f
       4.1080046e+09 5.187371e+09 2.4576061e+09 3.7226452e+09
000020 aa ad 8d 4f 7d 52 08 50 f6 f1 39 50 75 b1 5e 50
       4.7539374e+09 9.148429e+09 1.2478568e+10 1.4944687e+10
000030 90 4a 09 50 dc 2e 39 50 d8 43 59 50 c5 3f f4 4f
       9.21346e+09 1.2427424e+10 1.4580408e+10 8.19564e+09
000040 0f 30 20 50 ea 7d 38 50 23 c3 d6 50 40 e1 fd 50
       1.0750017e+10 1.2381039e+10 2.8824902e+10 3.4075181e+10
000050 5b 87 fc 50 1a 3f eb 50 27 3c 0c 51 9e c2 0c 51
       3.3893833e+10 3.157425e+10 3.764404e+10 3.7785035e+10
000060 6c ea d9 50 9b ea 01 51 e6 0a 03 51 b3 ab 3a 4f
       2.9248152e+10 3.4874175e+10 3.5176473e+10 3.1318147e+09
000070 9c 3b 9c 4f 76 22 ce 4f 7a 6f 77 4f 11 52 c7 4f
       5.2423045e+09 6.91673e+09 4.151278e+09 6.6880886e+09
000080 24 90 f7 4f ed 3a 69 4f cb 41 b6 4f a2 de da 4f
       8.3068375e+09 3.912953e+09 6.11553e+09 7.344047e+09
000090 c5 49 37 4f e4 a5 7d 4f 3c 18 98 4f 59 8a 3a 4f
       3.075065e+09 4.2555075e+09 5.10345e+09 3.129629e+09
0000a0 46 cc 80 4f a3 87 9d 4f cc 0c 2d 4f 0c 32 68 4f
       4.321742e+09 5.285824e+09 2.903297e+09 3.895594e+09
0000b0 d6 4d 8d 4f 68 b3 01 50 9c af 24 50 3f ea 35 50
       4.741377e+09 8.704074e+09 1.1051889e+10 1.2208111e+10
0000c0 81 69 2c 50 59 5e 54 50 c0 30 64 50 24 5f 49 50
       1.1570382e+10 1.4251812e+10 1.53136e+10 1.3513822e+10
0000d0 c0 cb 70 50 76 83 7b 50 d7 24 45 4e 0e a9 51 4e
       1.6159539e+10 1.6878787e+10 8.268815e+08 8.793793e+08
0000e0 00 5c 54 4e 41 5c 11 4e 19 79 1f 4e 7a 6a 14 4e
       8.906998e+08 6.0968557e+08 6.688784e+08 6.225015e+08
0000f0 c3 93 a3 4d 7b fa c2 4d 54 61 c2 4d ae 29 90 4e
       3.4304624e+08 4.0889942e+08 4.076448e+08 1.2093253e+09
000100 6c 61 b0 4e 53 b2 0f 4f 98 23 c0 4e 64 9a 00 4f
       1.4795873e+09 2.4108285e+09 1.6117791e+09 2.1576018e+09
000110 13 c0 55 4f f2 85 00 4f ac 16 1b 4f 51 5a 75 4f
       3.5861348e+09 2.156262e+09 2.6019543e+09 4.116337e+09
000120 eb 9d d2 4f 64 6a f6 4f cd 86 00 50 bc 13 fa 4f
       7.0671293e+09 8.268335e+09 8.625272e+09 8.3911946e+09
000130 be ae 10 50 74 8f 13 50 b0 02 f1 4f 4c 6f 06 50
       9.709484e+09 9.902608e+09 8.0869704e+09 9.021764e+09
000140 71 04 05 50 6f a6 12 4e 38 e6 26 4e 61 75 3e 4e
       8.926643e+09 6.1509523e+08 7.000264e+08 7.988409e+08
000150 3f fe 79 4e e7 0d 8a 4e d0 fb 81 4e a1 ba c7 4e
       1.04854726e+09 1.1580835e+09 1.0903818e+09 1.6754484e+09
000160 be 77 e2 4e e1 12 cb 4e ea 35 5a 50 cd 5f 79 50
       1.8997491e+09 1.703506e+09 1.4643866e+10 1.6735221e+10
000170 d1 63 6c 50 ef 2f 7b 50 d8 d8 91 50 10 1a 8b 50
       1.5863858e+10 1.685689e+10 1.957526e+10 1.8669928e+10
000180 40 5f 70 50 83 6e 8b 50 c4 07 85 50 e1 28 9f 4f
       1.6131097e+10 1.8714204e+10 1.785503e+10 5.340513e+09
000190 8e 10 f7 4f 0a 6d 1b 50 6d a5 92 4f bc 4c f4 4f
       8.2901146e+09 1.0430458e+10 4.92063e+09 8.197339e+09
0001a0 dc 0e 1e 50 62 1f 51 4f f3 78 b8 4f 47 53 f9 4f
       1.0607096e+10 3.5084948e+09 6.1898685e+09 8.365969e+09
0001b0 25 39 47 4e e8 3b 89 4e ee 35 e2 4e fe 59 6d 4e
       8.3560275e+08 1.1512023e+09 1.8975926e+09 9.955245e+08
0001c0 ff 07 a2 4e b3 c5 04 4f d8 d5 83 4e fe cb 94 4e
       1.3592165e+09 2.227549e+09 1.1059149e+09 1.2481984e+09
0001d0 bf 04 e6 4e dc f7 23 4f 9c 11 93 4f 4a 50 e4 4f
       1.9295354e+09 2.75093e+09 4.9348096e+09 7.660934e+09
0001e0 aa f3 43 4f 17 4e b9 4f f3 d3 12 50 08 f1 46 4f
       3.287526e+09 6.2178053e+09 9.853455e+09 3.337685e+09
0001f0 2a ce bd 4f 9c 71 17 50 d3 91 86 4f e0 10 aa 4f
       6.36881e+09 1.016322e+10 4.5154074e+09 5.7064653e+09
000200 83 43 c4 4f 74 e9 97 4f b1 32 c4 4f a3 28 e4 4f
       6.5855176e+09 5.0973184e+09 6.583313e+09 7.655737e+09
000210 47 d8 92 4f 6f 5e c0 4f 14 a6 e1 4f e4 99 88 4f
       4.927295e+09 6.4548285e+09 7.5715154e+09 4.5835735e+09
000220 44 dd 95 4f 23 f7 99 4f 32 32 9a 4f 93 2e aa 4f
       5.028612e+09 5.166221e+09 5.1739617e+09 5.710358e+09
000230 62 f5 af 4f cf c1 a0 4f 66 30 b3 4f 9e 9f b9 4f
       5.9041884e+09 5.394112e+09 6.012587e+09 6.2284913e+09
000240 aa e1 4a 50 57 dc 99 50 a9 2b b9 50 57 19 69 50
       1.3615147e+10 2.0650834e+10 2.485317e+10 1.5643008e+10
000250 5e a5 ae 50 94 54 ce 50 f2 d6 55 50 9f ee 9c 50
       2.3440585e+10 2.7693195e+10 1.4350535e+10 2.1063072e+10
000260 e0 fd b4 50 3b 0b 8f 50 20 83 b6 50 18 9d ca 50
       2.4292295e+10 1.9199023e+10 2.4496374e+10 2.7194343e+10
000270 b4 49 b0 50 cb b9 e2 50 1a 65 fb 50 fc 53 b9 50
       2.3660962e+10 3.0430616e+10 3.3741656e+10 2.4874312e+10
000280 46 28 ed 50 9a cc 02 51 5b 8c 45 4f 99 07 74 4f
       3.1830716e+10 3.511115e+10 3.31431e+09 4.0941386e+09
000290 98 ad 82 4f 05 2f 6e 4f a6 bb 98 4f be 85 a6 4f
       4.3848294e+09 3.996059e+09 5.124869e+09 5.5875656e+09
0002a0 96 48 75 4f 34 a8 a2 4f 3d ce b6 4f 5b e3 f1 4e
       4.115175e+09 5.4578647e+09 6.1339387e+09 2.0291045e+09
0002b0 f7 c3 67 4f 40 a3 aa 4f 68 78 09 4f bf a7 88 4f
       3.8883796e+09 5.725651e+09 2.3063695e+09 4.5853896e+09
0002c0 2f d1 cb 4f 28 32 f3 4e d6 6c 76 4f 71 ba bb 4f
       6.838968e+09 2.0400753e+09 4.1343278e+09 6.299116e+09
0002d0 de a0 2c 50 cd 87 6f 50 78 98 8a 50 7b f0 42 50
       1.1584895e+10 1.6074618e+10 1.8601984e+10 1.308216e+10
0002e0 45 c6 88 50 c2 b4 a0 50 67 1e 36 50 78 94 7d 50
       1.8357561e+10 2.1569606e+10 1.2221783e+10 1.7017463e+10
0002f0 6d 44 96 50 f8 72 05 4f 8f f3 65 4f 34 3a a4 4f
       2.0168534e+10 2.2389043e+09 3.8579443e+09 5.5105556e+09
000300 67 ef 22 4f ba 81 8b 4f 87 a4 be 4f cf 0d 36 4f
       2.7335985e+09 4.6810696e+09 6.396907e+09 3.0543583e+09
000310 ea 8b 93 4f 38 2d c1 4f f0 91 bf 4f 46 96 e0 4f
       4.9508403e+09 6.4819323e+09 6.428025e+09 7.5358894e+09
000320 6b e3 e8 4f 83 3d 0a 50 62 24 25 50 1c 1b 2b 50
       7.8144364e+09 9.277148e+09 1.10825e+10 1.1482722e+10
000330 da 0b 21 50 d3 71 3f 50 bd 3a 44 50 ec 25 ad 4f
       1.0807634e+10 1.2847631e+10 1.3168735e+10 5.809887e+09
000340 e1 ca e8 4f 72 47 06 50 3f 6a c5 4f 00 24 0c 50
       7.81122e+09 9.011317e+09 6.624149e+09 9.404678e+09
000350 e6 c5 26 50 d4 e2 b0 4f 33 db 03 50 00 f3 20 50
       1.1191949e+10 5.935311e+09 8.848723e+09 1.0801119e+10
000360 bf bb 62 50 24 db 8e 50 89 9a 9b 50 a4 ca 68 50
       1.521582e+10 1.917381e+10 2.0884769e+10 1.5622377e+10
000370 53 91 92 50 d1 80 9e 50 c9 05 48 50 05 a1 74 50
       1.967198e+10 2.1273938e+10 1.3423289e+10 1.6416773e+10
000380 06 88 81 50
       1.7385402e+10

exp_avg f4 [25]
000000 44 39 82 c6 34 ef 70 c6 6c 90 00 c7 5a ce dd c6
       -16668.633 -15419.801 -32912.42 -28391.176
000010 60 47 6f c3 f5 31 df c6 68 b6 b7 c6 f5 52 c6 c5
       -239.27881 -28568.979 -23515.203 -6346.3696
000020 2d d0 5f c6 21 c9 ca 45 4e 91 6d 46 f0 c8 de 46
       -14324.044 6489.141 15204.326 28516.469
000030 53 dd 25 47 e2 f4 4c c7 dd 82 39 c6 84 8c 25 c6
       42461.324 -52468.883 -11872.716 -10595.129
000040 5a a3 9a 46 56 1e 83 46 50 0f 66 46 96 21 3e 47
       19793.676 16783.168 14723.828 48673.586
000050 ed 4a 83 c7 84 35 b5 c6 0c 54 db c6 9b 7f 67 46
       -67221.85 -23194.758 -28074.023 14815.901
000060 9a 9e 21 c7
       -41374.6

exp_avg_sq f4 [25]
000000 9b c8 8f 4e 20 98 df 4e 6a c4 f3 4e 5e 8c ad 4e
       1.2061444e+09 1.8756444e+09 2.0448678e+09 1.4558287e+09
000010 12 b7 52 4e ce ae b0 4e 4e f1 b2 4d 37 81 c4 4e
       8.8380326e+08 1.482123e+09 3.7526982e+08 1.6484013e+09
000020 e6 33 4b 4e 33 b7 9a 4e 36 a9 80 4f de 10 01 4f
       8.52294e+08 1.2978487e+09 4.317146e+09 2.1653663e+09
000030 13 ca 00 4f 00 5b 25 4f b3 22 fc 4d 81 ad 6d 4e
       2.1607268e+09 2.7742044e+09 5.2876656e+08 9.9689274e+08
000040 a2 12 e7 4e 54 9d 41 4f 90 d3 a2 4d 0f 2e 08 50
       1.938379e+09 3.2483133e+09 3.4147174e+08 9.138879e+09
000050 55 ea df 4f f8 dc 95 4e 2c 8e b0 4e 94 05 c9 4e
       7.5133527e+09 1.2571433e+09 1.4810537e+09 1.686293e+09
000060 ee 81 18 4f
       2.558652e+09

exp_avg f4 [50, 25, 3, 3]
000000 42 c5 bd c5 cb e1 e9 c5 c4 ad f2 c5 bb e5 b0 c5
       -6072.657 -7484.224 -7765.7207 -5660.7163
000010 04 21 e0 c5 71 7b ee c5 65 df 5c c5 b1 ef 94 c5
       -7172.127 -7631.43 -3533.9622 -4765.9614
000020 36 87 a4 c5 f2 39 9c 44 58 c0 1e c4 0f 1b 49 c5
       -5264.9014 1249.8108 -635.0054 -3217.6912
000030 33 ac a6 44 c6 b6 5a c4 d8 ba 63 c5 a0 ec 32 45
       1333.3812 -874.85583 -3643.6777 2862.789
000040 86 0e 4d 44 04 8a f1 c4 0c bf 7d c3 45 ad 95 c4
       820.2269 -1932.313 -253.74628 -1197.4147
000050 8c 8d 1e c5 4d fe 67 c4 0a 3d 0f c5 b8 c5 80 c5
       -2536.8467 -927.97345 -2291.815 -4120.715
000060 d0 92 bc 40 ec c9 a6 c4 4e 29 4c c5 13 49 69 c5
       5.8929214 -1334.31 -3266.5815 -3732.5671
000070 33 72 9a c5 43 0c ac c5 d6 72 5d c5 94 fb 97 c5
       -4942.275 -5505.5327 -3543.1772 -4863.4473
000080 aa b6 af c5 1a f5 52 c5 a7 5c 91 c5 05 c9 a7 c5
       -5622.833 -3375.3188 -4651.5815 -5369.1274
000090 72 2d 5e 45 97 c5 60 45 de 8e 51 45 c2 78 95 45
       3554.8403 3596.3494 3352.9292 4783.0947
0000a0 cd 7b a1 45 b7 22 a5 45 fe 05 a6 45 02 09 b7 45
       5167.475 5284.3394 5312.749 5857.126
0000b0 74 f7 bd 45 30 df c9 c4 64 18 3d c5 26 e8 8b c5
       6078.9316 -1614.9746 -3025.5244 -4477.0186
0000c0 80 a6 9a c4 8a b7 12 c5 74 20 65 c5 88 0f a6 c4
       -1237.2031 -2347.4712 -3666.0283 -1328.4854
0000d0 2e aa 03 c5 d0 de 3a c5 3c 89 b5 c4 f5 25 8e c4
       -2106.6362 -2989.9258 -1452.2886 -1137.1862
0000e0 ac c2 38 c4 b6 c8 39 c5 1b 78 2b c5 f6 70 0b c5
       -739.04175 -2972.5444 -2743.5066 -2231.06
0000f0 33 34 91 c5 83 53 8e c5 d2 55 79 c5 f2 e9 34 c5
       -4646.525 -4554.439 -3989.3638 -2894.6216
000100 87 b1 05 c5 43 42 8c c4 02 85 49 c5 b4 89 0a c5
       -2139.0955 -1122.0707 -3224.313 -2216.6064
000110 4a 84 7e c4 92 83 85 c5 22 52 53 c5 8c fe 07 c5
       -1018.067 -4272.4463 -3381.1333 -2175.9092
000120 cc af 80 43 0d 13 88 c4 ba 1f 22 c5 1c 63 6d 44
       257.3734 -1088.5953 -2593.983 949.5486
000130 d2 3d b2 c3 fc cb ea c4 88 e7 15 45 ef a2 ae 44
       -356.48297 -1878.3745 2398.4707 1397.0917
000140 c0 b4 bf 40 f7 26 10 c4 dc 3e 1f 44 54 87 05 45
       5.990814 -576.6088 636.9822 2136.458
000150 00 01 13 c5 3f 95 be c4 a8 04 f6 c2 17 f7 68 c5
       -2352.0625 -1524.664 -123.009094 -3727.443
000160 9e 16 50 c5 f9 ae 08 c5 3c 74 aa 43 0a 1d 92 44
       -3329.4136 -2186.9358 340.90808 1168.9075
000170 b3 08 0c 45 5a df bd c3 7a 20 b1 43 2a 36 be 44
       2240.5437 -379.74493 354.25372 1521.6926
000180 18 95 99 c4 c4 df 3a c4 1f 70 92 43 fc 1c 89 45
       -1228.6592 -747.49634 292.87595 4387.623
000190 82 b9 8d 45 99 a4 82 45 34 bf c0 45 07 87 c6 45
       4535.1885 4180.5747 6167.9004 6352.8784
0001a0 f4 ee b6 45 69 8d fc 45 fc e4 01 46 b7 1b ed 45
       5853.869 8081.6763 8313.246 7587.4644
0001b0 63 d3 66 45 38 04 1d 45 7a d0 09 44 f6 1f b3 45
       3693.2117 2512.2637 551.25745 5731.995
0001c0 f4 14 93 45 bd cd 29 45 aa 33 fc 45 1c 37 e6 45
       4706.619 2716.8586 8070.458 7366.8887
0001d0 28 08 a8 45 00 cd 08 40 a3 15 eb c4 e3 c7 58 c5
       5377.0195 2.1375122 -1880.6761 -3468.493
0001e0 1a 59 b1 44 4e 2f 16 c4 e3 31 14 c5 f8 60 86 45
       1418.7844 -600.73914 -2371.118 4300.121
0001f0 14 43 23 45 af ca 59 44 30 31 23 c5 10 d3 39 c5
       2612.1924 871.16693 -2611.0742 -2973.1914
000200 d8 01 39 c5 70 f4 5d c5 ab e2 75 c5 94 98 6f c5
       -2960.1152 -3551.2773 -3934.1667 -3833.5361
000210 3f 86 49 c5 6e 02 5c c5 44 40 53 c5 b8 e9 6e c5
       -3224.3904 -3520.1519 -3380.0166 -3822.6074
000220 5e 07 12 c5 04 76 34 c4 5b 75 87 c5 25 39 31 c5
       -2336.4604 -721.844 -4334.6694 -2835.5715
000230 f0 62 a1 c4 59 90 ae c5 f0 1d 83 c5 32 ec 2d c5
       -1291.0918 -5586.0435 -4195.742 -2782.7622
000240 5a cf 87 45 78 db c6 45 4f 3f f6 45 88 ba 89 45
       4345.919 6363.4336 7879.9136 4407.3164
000250 7a be cd 45 70 64 00 46 5b b4 64 45 f2 d8 ad 45
       6583.8096 8217.109 3659.2722 5563.118
000260 6c d4 d8 45 89 9e 85 45 30 c6 81 45 40 e0 63 45
       6938.5527 4275.817 4152.7734 3646.0156
000270 f6 31 b5 45 eb 10 b5 45 27 17 a9 45 3e 3a d8 45
       5798.245 5794.1147 5410.894 6919.2803
000280 08 08 da 45 36 11 cd 45 c2 33 b6 c4 d6 d5 9c 43
       6977.004 6562.1514 -1457.6174 313.6706
000290 ca 92 23 45 3f 25 04 c5 af 26 8a c3 9a a2 04 45
       2617.1743 -2114.328 -276.30222 2122.1626
0002a0 49 10 6b c5 22 fb 0d c5 00 40 eb 3f fa d4 50 c4
       -3761.0178 -2271.6958 1.8378906 -835.32776
0002b0 e6 a8 d2 43 73 7b a4 44 8c eb d9 c4 14 64 63 c3
       421.31952 1315.8578 -1743.3608 -227.39093
0002c0 7a a8 5b 44 85 00 8b c5 96 26 40 c5 7c 6c d9 c4
       878.63245 -4448.065 -3074.4116 -1739.3901
0002d0 30 72 6c 44 97 0f d1 c4 7c 5d 8b c5 ba 67 f0 44
       945.7842 -1672.4872 -4459.6855 1923.2415
0002e0 95 69 33 c4 5d e7 5f c5 c6 9c 76 45 d6 6d df 44
       -717.6497 -3582.4602 3945.7983 1787.4324
0002f0 a2 cb 32 c4 ab f6 8c c5 61 8a 9d c5 dc fa 9b c5
       -715.18176 -4510.8335 -5041.2974 -4991.3574
000300 aa 13 66 c5 1f b9 6b c5 d6 ba 56 c5 ce 73 9b c5
       -3681.229 -3771.57 -3435.6772 -4974.4756
000310 9c cc 94 c5 ca 26 7d c5 88 3a b7 43 ee 89 96 c4
       -4761.576 -4050.4243 366.45728 -1204.3103
000320 92 8b 33 c5 a3 00 4b 44 af ec 38 c4 c1 75 10 c5
       -2872.7231 812.00995 -739.6982 -2311.3596
000330 b3 e8 28 45 4f 29 bc 44 d0 1a b7 42 88 a6 71 c5
       2702.5437 1505.2909 91.55237 -3866.4082
000340 fe 3c 76 c5 ab e0 61 c5 5e 5f 9e c5 64 7b a9 c5
       -3939.812 -3614.0417 -5067.921 -5423.424
000350 6a 0a a7 c5 f6 57 e5 c5 82 4e f6 c5 12 20 ef c5
       -5345.302 -7338.995 -7881.8135 -7652.009
000360 f8 23 0c c5 9a 76 3c c5 00 18 84 c5 28 d8 c6 c4
       -2242.248 -3015.4126 -4227.0 -1590.7549
000370 5e 4f 04 c5 6b 0e 50 c5 37 fb 5c c4 d4 c2 88 c4
       -2116.9604 -3328.9011 -883.92523 -1094.0884
000380 33 a2 01 c5 57 f8 26 c6 20 93 4c c6 60 95 51 c6
       -2074.1375 -10686.085 -13092.781 -13413.344
000390 d0 2c 05 c6 b0 48 49 c6 eb ce 64 c6 92 4e 81 c5
       -8523.203 -12882.172 -14643.7295 -4137.8213
0003a0 5f 33 1c c6 54 a8 51 c6 4b 1b c1 44 80 cd 57 c4
       -9996.843 -13418.082 1544.8529 -863.21094
0003b0 c6 58 ce c4 c4 fa d2 44 9e b9 b0 c4 16 88 54 c5
       -1650.7742 1687.8364 -1413.8005 -3400.5054
0003c0 c8 b0 1b 45 cc b7 a6 c4 16 3c 81 c5 04 30 42 c5
       2491.0488 -1333.7437 -4135.5107 -3107.001
0003d0 82 7b 7b c5 96 c4 71 c5 b6 1a 4c c5 18 bc a6 c5
       -4023.7192 -3868.2866 -3265.6694 -5335.5117
0003e0 cc 22 bd c5 73 99 18 c5 e1 2e a9 c5 82 f0 e7 c5
       -6052.3496 -2441.5906 -5413.86 -7422.0635
0003f0 52 31 b3 c5 14 2f 15 c6 58 c7 33 c6 0d 3a 3c c5
       -5734.165 -9547.77 -11505.836 -3011.6282
