models/sigma0.01_step0.0002_lr0.0004/ckpt/model_epoch_400.pth (torch, 282369 bytes, 18 tensors)

layer1.weight f4 [25, 1, 3, 3]
000000 a3 ec bf 3d be 65 9b bd a3 eb 75 3d bf e2 60 3d
       0.09371307 -0.07587765 0.060039174 0.054903742
000010 e0 e6 50 3d 75 b2 cf 3c 49 6b 1a bc 36 b4 f0 3d
       0.05100143 0.02535365 -0.009424993 0.117531225
000020 c0 e4 27 3e 9a f4 9e bd 8e 94 86 3d b5 61 68 bd
       0.16395855 -0.07761498 0.06571303 -0.056733806
000030 d9 40 b6 3b 5e fa c7 bd 26 72 15 3d 6a 21 99 3a
       0.0055619297 -0.097645506 0.036485814 0.0011682932
000040 c0 d4 2c be bd fd 31 3e 8a 11 65 3c f6 af a1 bd
       -0.16878033 0.1738195 0.013981232 -0.0789489
000050 bc fd 05 3e af e5 02 3e 1b 0f c6 3c e8 ca e1 bd
       0.13085073 0.1278293 0.024177125 -0.110250294
000060 58 64 41 bd 3e 3e 23 3e 95 69 9a 3c 21 fc cf 3c
       -0.047214836 0.15941712 0.018849174 0.02538878
000070 03 f7 01 3d b6 60 fc bd e6 b7 22 3c d9 f1 f8 3c
       0.03172971 -0.12323134 0.00993154 0.03038876
000080 7e 26 e1 bd e8 46 d9 3d d6 dd 6a 3d bc af f7 bb
       -0.1099367 0.106092274 0.057340465 -0.007558791
000090 de b9 f9 bd d3 ac 6b 3d 1d d7 fb bd cd 65 ee 3c
       -0.121936545 0.057537865 -0.12296889 0.029101277
0000a0 7d 55 01 be 37 82 da bc d2 c6 f0 bd 2b 45 63 bd
       -0.12630267 -0.02667342 -0.11756672 -0.055485886
0000b0 a8 38 7e 3d 11 2c 41 bc f8 70 93 bd c7 7e 99 3c
       0.06206575 -0.011790291 -0.071992815 0.01873721
0000c0 ab f3 17 3e d1 b3 04 3e 20 17 dc bb ca f7 69 be
       0.14839046 0.1295922 -0.006716624 -0.2284843
0000d0 8e 81 57 3d b7 86 6a 3e cf c0 c2 3d b4 3c bd bd
       0.052613787 0.22902952 0.095094316 -0.09240094
0000e0 98 79 d4 3c 39 2d 6b bd 3a 58 b1 bd e7 87 ea 3c
       0.025936887 -0.057416175 -0.08659406 0.028629256
0000f0 36 bf 97 bc 89 c4 8b 3c 3a bd 1c bd a2 e8 4a bd
       -0.018523794 0.017061489 -0.038266398 -0.049538262
000100 b6 f0 02 3e c1 40 6d be 84 3e 1a be 42 48 42 3c
       0.12787136 -0.23169233 -0.1506291 0.011858048
000110 d3 b4 1c be 72 63 df 3c b5 6c 4b 3d 53 a9 31 3c
       -0.15303354 0.027269099 0.049664218 0.010843593
000120 9a de 4b be 8c 3a 0b 3e 60 f8 5e bd c2 3d ec 3d
       -0.19909135 0.13596553 -0.054436088 0.11535217
000130 07 21 07 bd ce 74 bd bb 92 47 ba 3d bd 37 5a 3d
       -0.03299048 -0.0057817465 0.09095682 0.053275812
000140 ac 85 a0 3d 86 a4 30 3d cb 6e 47 bd 22 37 ba bb
       0.07837996 0.04312565 -0.048689645 -0.005682842
000150 2c be 15 bc 38 92 f2 3c bf c4 84 3d c5 c2 ac 3d
       -0.009139579 0.029610738 0.06482839 0.08435587
000160 c0 7d 51 bd 04 1d d5 3c 77 a4 2e bd d1 a2 d7 bd
       -0.051145315 0.026014812 -0.042637315 -0.10529102
000170 fa 20 05 3c 3f 6b b1 3d e9 1f 26 3d 43 f4 89 3d
       0.008125538 0.08663034 0.040557776 0.06736042
000180 82 25 90 3c bf 33 4c be df 8e 8b 3d 28 10 45 bb
       0.01759601 -0.19941615 0.0681436 -0.0030069444
000190 c5 8d 13 3d 4b 27 3a 3d 7a 38 01 3e 5b 03 a8 3d
       0.036023874 0.04544763 0.126192 0.08203765
0001a0 7b 8d c7 bd f9 af 91 3d 1b 1a c2 bd 80 52 86 3c
       -0.09743782 0.07113642 -0.094776355 0.016396761
0001b0 98 8f 89 bd fc 36 f2 bc 4d 59 d0 3c 4c 53 44 bc
       -0.067168415 -0.029567234 0.025433207 -0.01198275
0001c0 b2 ad a5 3b 3a b1 11 bc 69 c7 8f bd d4 cf 48 3d
       0.0050561065 -0.008892352 -0.07020456 0.049026325
0001d0 9b 55 0d be 04 1c dc bd 0e 37 eb bd 37 31 74 bd
       -0.13802187 -0.10747531 -0.1148511 -0.059617247
0001e0 fb d6 48 3d 4b 17 33 3e ef b2 1e 3c 6b 3b db bb
       0.049033146 0.17489354 0.009686216 -0.006690433
0001f0 24 82 28 3e e2 18 55 3c 0f 40 b2 3d c2 81 02 3e
       0.16455895 0.013006421 0.087036245 0.12744811
000200 9d 40 6d 3d 7e 15 95 3d 3a 60 d1 bc cf 79 5d 3e
       0.05792295 0.0727949 -0.02555858 0.21628498
000210 47 02 66 3e a6 14 3c bd f2 42 53 bb 65 b8 3a 3e
       0.22461806 -0.04591813 -0.0032235947 0.18234403
000220 00 e9 26 3c fa 26 92 3d eb f5 d0 3b fd 79 c1 3d
       0.0101873875 0.071363404 0.006376972 0.094470955
000230 e0 49 69 bd c0 73 9a bd ae 04 61 3d 18 55 e7 bd
       -0.05695522 -0.07541609 0.054936104 -0.11295527
000240 2a 0d 2b 3c 81 a0 51 3c 2e 87 0a bc 70 95 f8 3c
       0.01044015 0.012794615 -0.008455081 0.030344695
000250 94 10 9b bd cf d1 51 ba b8 f1 18 bd e9 c4 bf bd
       -0.075715214 -0.0008003981 -0.037339896 -0.093637295
000260 dd 20 40 bd 8e b5 07 be 8a 09 33 3e a7 76 d1 bd
       -0.04690634 -0.13252851 0.17484108 -0.10227709
000270 a4 5b b0 3d fc 8d 9a bd 68 19 30 be e0 6f 8f 3d
       0.08611229 -0.075466126 -0.17197192 0.0700376
000280 84 a1 f2 bd 5f ca 8a 3c 29 6a 1f 3c fe 4d e8 bd
       -0.11847213 0.016942201 0.0097299 -0.11343001
000290 1b 0b fe 3d cf 15 1d 3e 46 47 82 3d 94 28 a1 bc
       0.12404462 0.1534035 0.063612506 -0.01967267
0002a0 6c 85 f6 3d 79 5d a2 bd e7 79 03 bd 5b a2 46 3d
       0.12037167 -0.07927985 -0.032098677 0.048494678
0002b0 01 9f 34 be 7f 33 4c bb bb 30 8c 3c 6e c4 a6 bc
       -0.1763878 -0.0031158624 0.01711308 -0.020357337
0002c0 57 6a ed 3d a1 d0 cf bd 1c 42 ce 3d 66 3b 58 3e
       0.11592548 -0.10147215 0.10071203 0.21116409
0002d0 66 6f 41 be ff cf 79 3c 0d 8f f5 bd 94 e5 bf bc
       -0.18890151 0.015247344 -0.119901754 -0.023424901
0002e0 0c 84 da bc bd 9e 4b bd 0c 38 fb bd fb 6d bc bd
       -0.026674293 -0.04971193 -0.122665495 -0.092006646
0002f0 33 01 79 bd a6 1b e0 bd ff 64 82 be f2 a8 f6 3d
       -0.06079216 -0.109427735 -0.2546768 0.120439425
000300 b1 04 bd 3d 72 c4 09 bd fd c6 61 3d 1e e4 85 bd
       0.092294104 -0.03363461 0.05512141 -0.065376505
000310 8c 90 6e bb 9c 0c 10 bd 08 9f 3b bc b5 52 16 3d
       -0.0036402075 -0.035168275 -0.01145149 0.03669997
000320 0f 88 36 3d 75 9f 30 bd da ab 92 3d 79 4a 1e 3c
       0.04456335 -0.04312082 0.07161684 0.00966131
000330 7e 4a df 3c dd a3 50 3d 2b 40 01 be 1f c7 f2 bc
       0.0272572 0.050937522 -0.12622134 -0.029635964
000340 9c e3 b6 3d 7e 2b 41 3e a1 83 2b bd dc dc f4 3d
       0.08930132 0.18864247 -0.041873578 0.11956188
000350 48 7c 44 bd 57 23 53 bd 98 1c 35 3d d6 57 94 bd
       -0.047970086 -0.051547375 0.044216722 -0.07243316
000360 5a 58 ad 3d 83 c1 4a 3d 25 e1 2b 3e 0b 81 c0 3c
       0.08464117 0.049500953 0.16785105 0.023499032
000370 6e 30 4b bd 51 5e 75 bd ac e5 f8 3c 5e c3 ee bd
       -0.049606733 -0.0599044 0.030382954 -0.11658357
000380 60 4f d0 bc
       -0.025428474

layer1.bias f4 [25]
000000 dd 21 6f 3e 22 27 16 be a4 2e 80 3d 55 e9 30 be
       0.23352762 -0.14663365 0.06258896 -0.17276509
000010 11 c3 97 bd 2a 44 85 be 2a 23 91 3c 08 2b da bc
       -0.07410253 -0.26028568 0.017716963 -0.026631847
000020 b7 c8 73 3e de 46 6c 3d 6a fa 8a be b6 78 12 3d
       0.23807035 0.05768477 -0.27144176 0.03575965
000030 49 dd 87 3d 9d ef 15 be 84 3d b5 3d 47 af 04 3e
       0.06634004 -0.14642186 0.08849624 0.12957488
000040 cf da 38 3e 0c 02 c5 3c 90 c7 85 3e 68 60 52 bd
       0.18052219 0.024048828 0.26128817 -0.05136147
000050 72 51 aa bd 60 4f 7e bd 5d 3c 24 be f8 07 6b be
       -0.08316316 -0.062087417 -0.16038652 -0.22952259
000060 37 58 8b be
       -0.2721574

layer2.weight f4 [50, 25, 3, 3]
000000 82 f4 9d bc ee 85 a0 bb d9 07 92 bd eb f5 39 3c
       -0.01928163 -0.004898778 -0.07130403 0.011350135
000010 fd 8f 98 bd 2e 0c d5 3c be c6 30 3c 91 dd 9e bd
       -0.074493386 0.026006784 0.010789571 -0.07757104
000020 2e f5 c1 3c 1a 47 9a bb 16 ba 08 3c a8 9b 56 bd
       0.023676481 -0.004708183 0.008345148 -0.05239454
000030 35 89 24 3a 6e a2 b8 3b 6a 3e c8 3b 5b 83 ef bc
       0.0006276549 0.0056345975 0.006110956 -0.02923744
000040 37 a3 04 3d a2 95 1a be 2e bc 87 bc 31 ea 1d 3c
       0.032382216 -0.15096143 -0.016569223 0.009638355
000050 93 9f b9 bd f1 52 1b bd d4 bc fe bd fb 32 ae bd
       -0.090636395 -0.037920896 -0.1243836 -0.085058175
000060 3e 4e bc bd 68 a5 84 bd 3c 49 57 bd d5 95 8e 3d
       -0.09194611 -0.06476861 -0.052560076 0.06962172
000070 2b 67 9e 3c 7c 4d 73 3a 3d c7 dd 3c f0 a0 5c 3d
       0.019336304 0.00092812604 0.027072543 0.05386442
000080 3a f4 9c 3d aa 33 07 bc 1c c3 08 bd b2 e3 3c bc
       0.0766377 -0.008252064 -0.033389196 -0.011528896
000090 78 fe 75 bd 8c 33 03 3d 13 9c bd bc e7 d2 6d bd
       -0.060057133 0.03203158 -0.023145711 -0.05806246
0000a0 0b a6 05 bc 0b ee 16 3b 66 d7 93 bc a0 60 a3 bd
       -0.0081572635 0.0023030068 -0.018047046 -0.07977414
0000b0 00 4d 61 3d 91 b2 3a bb e4 f9 21 3d d9 5d 23 bc
       0.055005074 -0.0028487782 0.039544955 -0.0099711055
0000c0 b1 20 3b 3b 82 cf 2a 3c f7 dc 7a 3c 9f 8b c0 3b
       0.002855342 0.01042545 0.015311471 0.005876019
0000d0 c2 bb 32 bd a6 a5 c4 3d 01 02 fa 3b d0 93 1b 3d
       -0.04363609 0.096019074 0.0076296334 0.03798276
0000e0 6f 3b 74 bb 0c 3c 9d bd 9c 5e fa 3d 5f ee 23 3d
       -0.003726687 -0.07677469 0.122250766 0.04002225
0000f0 e1 8a a1 3d 19 e4 c4 3d 91 8a de 3d 9f ae 37 3d
       0.07887817 0.09613819 0.10866273 0.044844266
000100 5e 46 38 bc c0 2a 05 3d 92 a6 18 3d 3a 18 67 bd
       -0.011247246 0.032511473 0.03726823 -0.05641959
000110 44 60 e4 bc 1f 16 0f bd a2 25 48 bd c6 87 38 bd
       -0.027877934 -0.034933206 -0.048864014 -0.04505136
000120 37 2f 98 3d 7c fe 7c bd ac 4a 8a bd 23 c5 1e bd
       0.074308805 -0.061766133 -0.06752524 -0.038762223
000130 81 c1 0a 3c 9d 10 db bb a9 f4 5b 3d 99 3b 3c bc
       0.0084689865 -0.00668533 0.053700123 -0.011488819
000140 9b f4 3c 3d 19 78 12 bd b5 91 c1 bc 25 6e 42 bd
       0.04613171 -0.035759065 -0.023629049 -0.047468323
000150 4d 37 17 be e6 37 1d bd 6a 47 1b 3c e8 4e b8 bd
       -0.1476719 -0.038383387 0.009477476 -0.08999425
000160 81 e0 03 3d 24 7a af bc 35 72 47 3d ad 82 ba 3d
       0.032196525 -0.021420546 0.0486929 0.09106956
000170 ef 37 da bb 6e 93 f7 3c bf a9 90 3c d3 30 8e ba
       -0.0066595 0.030221667 0.017659066 -0.0010848291
000180 4c b0 cb 3c df ac 62 3d 20 12 0c bd 82 2e bb 3d
       0.024864338 0.055340644 -0.034196973 0.0913973
000190 4f d6 36 bc d6 d5 1d bd 42 89 25 bc ec f5 7b 3d
       -0.011159494 -0.038534008 -0.010103526 0.061513826
0001a0 7f 24 d0 bc fb ae 8b bd 86 1e 8b bd da e3 2b 3c
       -0.025408028 -0.06820484 -0.06792931 0.010491336
0001b0 92 df 39 3c 4e 15 84 3c 6e 6a ce bd 76 03 b7 bd
       0.011344807 0.01612344 -0.100788936 -0.08936207
0001c0 fe b0 a7 bd d8 ce 40 3d 02 b5 56 bd e3 09 e8 3d
       -0.081880555 0.04707226 -0.052418716 0.11330011
0001d0 ef 81 9c 3d e2 00 87 bd 66 d7 01 3d 04 7b cf bb
       0.0764197 -0.06591965 0.03169956 -0.0063318033
0001e0 65 6e e4 bc 21 53 e7 3c 5d d3 3b bd c4 d7 40 bd
       -0.027884671 0.028237881 -0.04585587 -0.04708077
0001f0 8f c5 bb 3c 8f 79 f1 3c 7f d7 49 bc 36 72 98 3b
       0.022921352 0.029476909 -0.012319445 0.004652287
000200 94 bd 8f bd ec de 97 bd 78 20 31 bc ff e8 4b 3d
       -0.07018581 -0.07415566 -0.010810964 0.04978275
000210 54 6f a9 bb 80 c4 66 3d fa 82 c1 bd 46 20 bb bd
       -0.005170742 0.05633974 -0.0944881 -0.09137015
000220 d8 a6 ad bd cb c7 71 bd d6 12 36 bd 59 02 15 3d
       -0.084790885 -0.059028428 -0.044451557 0.036379192
000230 9c 57 d7 bc be 99 1b bd 59 c3 18 bd 6f 46 0c bd
       -0.026286893 -0.037988417 -0.037295673 -0.03424686
000240 9e 5c eb 3c d6 f5 f4 bd 83 cb 2f 3d 6e ab 52 bd
       0.028730687 -0.11960952 0.042918693 -0.05143302
000250 0b 17 10 3d b7 8a 93 3d 16 99 21 3d 65 3d b4 3d
       0.035178225 0.07204192 0.039452635 0.088007726
000260 fa 79 45 3d 96 29 83 bb 7f d0 1a bd 4d 66 a0 3c
       0.04821203 -0.00400276 -0.037796494 0.01958003
000270 3a 4f 37 3d bf eb 04 3d 92 52 2f bc 31 52 c6 3d
       0.04475329 0.032451387 -0.010700839 0.096836455
000280 9d dd 86 bd 86 40 94 bc 6a fa 37 bd d3 83 70 3d
       -0.06585238 -0.018097173 -0.044916548 0.058719467
000290 20 ce c5 3c 4a f9 3e 3d 62 33 ce bc bb 89 58 3c
       0.02414614 0.04662446 -0.025170986 0.013216431
0002a0 b2 db b9 bc 90 e1 9c bc 68 f8 c2 3d a5 ad 94 3d
       -0.022687767 -0.019150525 0.09520036 0.072596826
0002b0 19 91 2f be 05 be 31 3d 46 07 c3 3b 38 82 f2 3b
       -0.17145194 0.043394107 0.005951795 0.007400777
0002c0 d2 8b 89 bb a1 75 38 bd e9 42 7d bd 05 35 a4 3c
       -0.004197576 -0.045034055 -0.06183139 0.020044813
0002d0 25 bb f4 bc 21 99 22 bc aa 52 d2 3d dd 07 d0 3d
       -0.029874394 -0.009924204 0.10269673 0.1015775
0002e0 a3 f5 15 bd a4 f8 4a 3d 6f 6e 9a 3b 2e 7d 7f bd
       -0.03661121 0.04955353 0.0047128717 -0.06237524
0002f0 d6 1b 0c 3d 2c f5 97 bd 95 8a 50 3d d7 d4 4c 3d
       0.034206234 -0.0741981 0.050913412 0.050007667
000300 95 72 07 bd cb 75 bd 3c 07 20 02 bd 7b 19 8b bd
       -0.03306826 0.023127457 -0.031768825 -0.067919694
000310 fd 00 94 3d 5f 14 81 3d 3f d3 8c 3d bb 25 08 3d
       0.07226751 0.063027136 0.068762295 0.033239108
000320 df 9f 10 bd ea 06 2c bd de 32 99 3d 24 de 5d 3d
       -0.035308715 -0.04199878 0.07480405 0.054166928
000330 21 33 eb bc 04 79 63 3d 7d a6 70 3d bd 48 95 bc
       -0.028710904 0.05553533 0.058752526 -0.01822316
000340 79 4f e6 bc b4 16 a6 bd 06 6d 5f bb 30 84 9c bd
       -0.028114067 -0.08109799 -0.0034092083 -0.076424
000350 36 f2 41 3d 28 b7 7b bc e8 26 95 bc b2 2f dc bc
       0.04735013 -0.015363492 -0.018207029 -0.026878212
000360 0a e9 7b bc bb 57 39 bc 0c d9 23 3b 0f 90 97 bc
       -0.015375385 -0.0113124205 0.0025001196 -0.01850131
000370 01 9f f4 bd 43 a3 3b bd 0c 9c c4 bc 31 2b 5f bd
       -0.1194439 -0.045809995 -0.02400019 -0.05448455
000380 f3 a0 ef bc 27 b3 57 3d 15 83 d1 3c 61 09 05 3d
       -0.029251551 0.052661087 0.0255752 0.032479648
000390 84 bc 3e bd 5b cb 1b be 00 a5 ae bd 26 cb b4 bb
       -0.0465665 -0.15214293 -0.08527565 -0.0055173812
0003a0 f7 5a 17 bd db 22 84 bd 4a 3c 9f 3d 88 0a 4c 3c
       -0.036951985 -0.06451961 0.07775171 0.012453683
0003b0 45 5d 9a bb 74 b4 e0 3b b2 f5 17 3b 84 92 ed 3c
       -0.0047108256 0.006857449 0.0023187217 0.029000528
0003c0 8f 3b 08 bc 47 b2 54 bd 0b 1b 19 bd 60 58 be 3d
       -0.008314981 -0.05192783 -0.037379306 0.092942
0003d0 80 a9 2e 3d 35 be a2 bc 4a c8 99 3d a2 23 21 3d
       0.042642117 -0.019866088 0.07508905 0.039340623
0003e0 04 18 0c 3d c9 34 08 3e 02 3f ea 3c 6b d7 d3 3b
       0.03420259 0.13301386 0.028594498 0.006464889
0003f0 19 d8 3f 3d 9b a0 46 bd 6c 66 90 bd 40 63 7c 3c
       0.046836946 -0.04849301 -0.070507854 0.015404522

layer2.bias f4 [50]
000000 dc b3 26 bd e1 5e 3e bd 3b 57 51 3d 37 69 17 bd
       -0.04069887 -0.046477202 0.05110858 -0.036965575
000010 45 bb 6d 3c e4 c1 2c 3d 6a ba f8 bb 02 28 80 3d
       0.014509981 0.042177096 -0.0075905817 0.06257631
000020 3a 5e a6 bc 56 d8 30 3a 2d f7 68 3c b1 1a 08 3d
       -0.020308603 0.0006746104 0.014219088 0.03322858
000030 f0 6e a6 3c 13 8b 38 3b d8 ff 1b 3d fa 65 85 bd
       0.020316571 0.0028159067 0.03808579 -0.06513591
000040 60 c3 32 3d 80 0a 60 3d 3f 43 ae bc b7 b7 83 bd
       0.043643355 0.054697514 -0.0212723 -0.06431525
000050 0f e1 98 bc 21 61 46 3d cd 2c 6a 3d 16 27 18 3d
       -0.018662004 0.048432473 0.05717163 0.03714665
000060 03 3d 1e bd 3d 82 41 3d fa a5 91 bd 51 26 ed bc
       -0.038632404 0.047243346 -0.07111736 -0.028948935
000070 6b 90 df 3b 59 12 62 3d bf 5f 73 bc 4c a2 f8 bb
       0.006822636 0.05519328 -0.014854371 -0.0075877067
000080 64 45 92 bd 2c f0 03 bd 46 52 bc 3c c7 20 72 3d
       -0.071421415 -0.032211468 0.02298845 0.05911329
000090 6f f3 61 3d 39 58 5f 3c fa 85 52 bd 26 02 11 3c
       0.055163797 0.013631874 -0.0513973 0.00885061
0000a0 0e a3 49 3c a0 df 80 3a d7 d3 0e bd c0 3d a0 bc
       0.012306942 0.000983227 -0.034869995 -0.019560695
0000b0 16 19 d9 bc 7b 3c a5 3c d5 0e c5 bc 31 ea cd bc
       -0.02650122 0.02017044 -0.024054924 -0.025136085
0000c0 ff f9 a9 3b dd f3 ad bc
       0.0051872726 -0.021234447

layer4.weight f4 [25, 50, 3, 3]
000000 84 ca f8 3c e4 1b ac 3d 10 b6 bd bd a4 92 dc bc
       0.030370004 0.08403757 -0.09263241 -0.026925392
000010 ab e1 c3 bc 9b 25 e8 3c c6 9e 88 bd 40 d9 33 3d
       -0.023911318 0.028338244 -0.06670909 0.043908358
000020 5c 10 fb 3b 9d f2 f4 3d 37 30 25 bd c1 f3 8c bb
       0.0076618623 0.11960337 -0.040329184 -0.0043015187
000030 2f 2c 3c bc 9a f4 18 3d c9 ec 59 bb 2e fc 65 3d
       -0.011485144 0.037342645 -0.0033252707 0.0561487
000040 76 5a 0b 3c 4e fc e6 bc cf 0f 3c 3d 8a d0 85 bc
       0.008505454 -0.02819648 0.045913514 -0.01633479
000050 1f ba 63 3d 7d 0b 34 3d d3 4f 65 3d 18 3b ff 3c
       0.05559742 0.04395627 0.05598433 0.031156108
000060 96 e0 af bd 7d 40 11 3b 98 1a 60 bc ea 7a f2 3c
       -0.08587758 0.0022163682 -0.013678215 0.029599626
000070 4d d4 ea 3b 87 93 4f bd cd 9c e7 3c 99 39 96 3d
       0.0071664215 -0.050677802 0.02827301 0.07335205
000080 f5 95 16 bc 82 b4 93 3d cd 64 24 3c 41 f4 2a 3d
       -0.009191026 0.072121635 0.010033798 0.041736845
000090 f9 70 35 bd fc 07 81 3c f2 bb 76 3b 7e fd 6b 3c
       -0.044297192 0.015750878 0.0037648645 0.014403699
0000a0 0b 9b 92 3c bd 42 15 bc c3 58 02 bd 6e 45 44 bd
       0.017896196 -0.00911015 -0.03182293 -0.047917776
0000b0 2c f9 2d 3d 18 d3 47 3d 6a 8a 1f bc 21 a5 77 3c
       0.042473957 0.0487853 -0.00973759 0.015115053
0000c0 8c 49 82 bd 9b 75 2e 3d cc 06 5a bc 13 67 f4 3c
       -0.06361684 0.042592626 -0.013307285 0.029834306
0000d0 69 70 4c bd ab b0 86 3d a6 47 4f 3d a6 49 56 3d
       -0.04991189 0.065766655 0.05060544 0.05231633
0000e0 8e 95 cf bc 7e 50 8a 3d 0d bb 7e bd ca b0 82 3d
       -0.025339868 0.06753634 -0.062190104 0.06381376
0000f0 06 29 29 3d 0c e3 5e 3d dc 9b 9c bd 75 93 80 bd
       0.04129889 0.054415748 -0.07646915 -0.06278125
000100 7b eb 5c 3d c1 cd d0 3d 04 20 46 3d ac 48 eb 3c
       0.05393551 0.101954944 0.048370376 0.028721176
000110 3b 26 56 3d 62 cd aa 3d 9d a3 af 3d 46 57 92 3d
       0.052282553 0.08339955 0.08576129 0.07145552
000120 3a c4 05 bd 7e d6 01 bd 0f 37 6f bd 41 57 c3 3d
       -0.03265784 -0.031698696 -0.058402117 0.09538127
000130 81 96 8e ba 06 68 65 bd e6 03 a9 3c 31 dd 89 bd
       -0.0010878594 -0.056007408 0.020631742 -0.06731642
000140 46 b6 34 bd 76 d6 11 bd 47 2a 23 bc 01 a1 a9 3d
       -0.044119142 -0.035604917 -0.00995881 0.08282662
000150 9b d0 39 bb ac 77 99 3b 8b 15 80 3d 16 1d 11 3d
       -0.0028353098 0.0046834555 0.06254109 0.03542813
000160 68 a3 35 3d b4 f4 83 bc f1 f3 1d 3c 16 c3 9d 3d
       0.04434529 -0.016107894 0.00964068 0.07703225
000170 88 f8 54 bc 80 22 f8 3c f2 1c 95 3d 35 ce 3f 3c
       -0.012998708 0.030289888 0.072809115 0.011706878
000180 16 6e 82 bd e3 d9 81 3d e6 77 a3 3d 34 6e 70 bc
       -0.063686535 0.06340387 0.07981853 -0.014674712
000190 82 b7 99 bd 52 b4 81 3d 50 2c f0 bd 3e 72 92 bd
       -0.075057045 0.063332215 -0.11727202 -0.07150696
0001a0 ad 50 3c 3d 81 27 28 bd 31 dd a6 3c 10 42 d7 bb
       0.045975376 -0.0410533 0.020369144 -0.0065691546
0001b0 63 0b 7f 3d 81 b2 1f bc ee 06 a4 bd a6 4d f9 3c
       0.06226672 -0.0097471485 -0.08009134 0.030432533
0001c0 c9 71 a7 3c f2 e8 08 3c 8b da fe bc 7f 09 0a bc
       0.02044 0.00835632 -0.031110069 -0.008425116
0001d0 36 26 06 3d eb 21 91 3c 9d ab d0 bc 33 61 15 bb
       0.032751285 0.017716369 -0.025472457 -0.002279353
0001e0 ae 3e 81 bd 13 b0 9e 3d c9 6f a4 bc c1 a6 3b 3d
       -0.06310783 0.07748427 -0.020072835 0.045813326
0001f0 d3 07 fc 3c 41 cc 73 bd ef 05 e0 3c 2e f1 64 bc
       0.03076545 -0.059520964 0.02734658 -0.013973517
000200 21 e0 21 3d cf a4 81 bb 1c 4d 4d bd ba ae 82 bc
       0.039520387 -0.0039564143 -0.050122365 -0.015952457
000210 b5 fb d5 3c 46 c7 5a bd 5c 6c f2 3b 4c df 4f 3d
       0.026121 -0.0534127 0.0073981714 0.050750062
000220 1f 6a 6c ba 19 2b 34 bd cb 47 24 3d 82 7b 5a bc
       -0.0009018499 -0.043986414 0.04010753 -0.013335111
000230 67 ac e4 bc 7f 45 55 3c a4 3c cb bb ef 93 99 3b
       -0.02791424 0.013017057 -0.0062022973 0.0046868245
000240 83 b1 24 bd 44 b2 4a 3c 34 0d 4d 3c 5d a6 83 3a
       -0.04020835 0.012371603 0.012515355 0.0010044087
000250 41 7d a4 3c aa 29 67 3a db 31 c3 3c 74 01 cd 3c
       0.020079257 0.0008818159 0.023827484 0.025025107
000260 24 5b fa 3c 73 ee 6f bd 26 b0 0b bd 3d a0 00 3c
       0.030561037 -0.058577012 -0.034103535 0.007850704
000270 a7 b0 b5 bd 4b 99 8a bc 64 14 0b 3d 03 a8 26 bd
       -0.088715844 -0.016918799 0.033954993 -0.040687572
000280 83 a1 8d 3c 76 76 c5 3b 78 b0 3f 3d 0c 1e 4f bd
       0.017288929 0.0060260845 0.046799153 -0.050565764
000290 49 df 63 bc 96 1e 6e 3b 25 8c 26 3b 5c be c1 b8
       -0.013908216 0.0036334149 0.0025413122 -9.238414e-05
0002a0 42 cb f1 bc f3 10 e8 bc dd a6 99 bc c6 c7 47 3d
       -0.029515866 -0.028328395 -0.018756324 0.048774503
0002b0 02 6b 28 3d 98 81 e6 bd f6 54 39 bd d4 7d 8f ba
       0.041117676 -0.11255187 -0.04524704 -0.0010947534
0002c0 4d 0e 7a bd 87 f7 78 bc 8f 3a 8c 3d 35 c7 54 bd
       -0.061048795 -0.015195734 0.06847107 -0.05194779
0002d0 d6 40 99 bc f2 14 34 3b 0c 5d 26 b9 01 fe 94 bc
       -0.018707674 0.0027478305 -0.00015865656 -0.018187525
0002e0 3d da ab 3c 3c 92 4d bd 91 bb a0 3d 57 92 1b bd
       0.020978088 -0.050188288 0.078482755 -0.037981357
0002f0 e3 81 c1 bd 5d d9 1a bd 71 c1 a6 bd 55 ec c9 3c
       -0.09448602 -0.03780495 -0.08142365 0.024648825
000300 d0 87 07 3d c2 c5 7b 3c ed af 87 bd 9b e9 8a 3b
       0.033088505 0.015366973 -0.06625352 0.0042392737
000310 ae 62 61 bd b6 c7 a6 3c 99 36 93 3b 82 0b 81 3d
       -0.05502575 0.020358901 0.0044925925 0.06301023
000320 18 79 97 3a 09 aa 14 bd 6c 08 af bd b9 32 01 bd
       0.0011556474 -0.03629497 -0.08546528 -0.031542514
000330 ba 14 b9 3d d3 90 49 3c 3e e4 c4 3c 98 22 37 3d
       0.090371564 0.012302595 0.024034616 0.044710726
000340 a1 9e 0f bb bf 7f 2b 3c b6 79 43 bd 8f 85 14 3d
       -0.0021914619 0.010467469 -0.047723494 0.036260184
000350 d1 c4 a5 bc 4a a7 67 3d 1c 17 ab bd 33 c1 12 bd
       -0.020235451 0.056556024 -0.08354017 -0.03582878
000360 56 2c 58 3d a2 52 a1 bd e6 7f b6 3d 76 69 33 bc
       0.052776657 -0.07877089 0.089111134 -0.010950437
000370 30 13 a5 3d 79 8d 41 bd 92 94 ec bc 92 d1 6a bd
       0.080603 -0.04725406 -0.028879438 -0.057328768
000380 d7 7d 4c 3b 12 09 43 3d d3 7d df 3b 86 06 4d bc
       0.0031202936 0.047616072 0.0068204193 -0.012513762
000390 53 52 5c bc 1f 92 10 bc 63 ec ed 3d 57 ca a9 bb
       -0.013447362 -0.0088239005 0.11617353 -0.0051815915
0003a0 0b 11 97 3c 49 d4 24 bc e6 a1 41 bb 43 5c 3c 3b
       0.018440744 -0.010060378 -0.0029545962 0.0028741516
0003b0 2c c9 81 bd 44 49 99 3d bc 26 36 bd b9 5b cd bd
       -0.063371986 0.074846774 -0.044470534 -0.1002726
0003c0 62 a9 46 3d 04 8c cf bc 84 86 c8 3b db 46 8f bd
       0.04850138 -0.02533532 0.006119551 -0.069959365
0003d0 ce 70 ad bc b2 a0 49 bd cf fc 92 bb 6d d1 c8 3d
       -0.021171954 -0.049225517 -0.0044857035 0.0980557
0003e0 97 94 9c bd 07 7b 84 3b 75 8f 27 bd 13 4b bc 3d
       -0.07645529 0.0040429863 -0.040908296 0.09194007
0003f0 bd 2a 3a bd 8a bc a9 bd e5 ad 6c 3d 79 e0 09 bd
       -0.045450915 -0.08287914 0.057783026 -0.03366134

layer4.bias f4 [25]
000000 e7 32 1e 3c c4 6e eb 3c 31 b6 b7 3c ba bf ed 3b
       0.009655691 0.02873934 0.022425743 0.0072555216
000010 03 31 94 3c e8 c9 ba ba 8d f7 25 bd 91 06 32 bd
       0.018089777 -0.0014250847 -0.040519286 -0.043463293
000020 24 79 d1 bc 59 6b d5 3c 05 b6 c2 bc 8f 55 05 3c
       -0.02557046 0.026052164 -0.023768434 0.008138075
000030 ff a1 0b bd ed 77 30 bb a7 95 cf 3c 74 2e 14 3d
       -0.03409004 -0.002692695 0.025339914 0.036177114
000040 1c 4c 2e 3d 57 95 2f 3c b9 3f b1 3c c8 a2 87 bc
       0.042553052 0.010716758 0.02163683 -0.016557112
000050 b5 ee 14 3b db 3d 47 bd 5d 7b f9 3c 4e 31 31 bd
       0.0022725288 -0.048642974 0.030454332 -0.04325991
000060 fb f8 11 bb
       -0.0022273648

exp_avg f4 [25, 1, 3, 3]
000000 90 ca 0e c6 7a 6c 19 c6 db 15 03 c6 a0 b2 17 c6
       -9138.641 -9819.119 -8389.464 -9708.656
000010 aa 82 f9 c5 81 51 99 c5 c2 3c b8 c5 c7 2a df c4
       -7984.333 -4906.188 -5895.5947 -1785.3368
000020 5e af 2b 45 37 4d 01 47 d2 46 0f 47 b2 d9 fd 46
       2746.9604 33101.215 36678.82 32492.848
000030 b3 c3 e5 46 2e b5 ff 46 78 70 e5 46 a6 1a 8d 46
       29409.85 32730.59 29368.234 18061.324
000040 b4 fa a4 46 e0 9d 93 46 60 3f 91 c6 00 08 29 c7
       21117.352 18894.938 -18591.688 -43272.0
000050 bd 8d 54 c7 0f 29 19 c7 c0 9d 6e c7 31 a2 85 c7
       -54413.74 -39209.06 -61085.75 -68420.38
000060 12 8a 35 c7 be 5d 74 c7 cb 52 7e c7 ad 96 09 c7
       -46474.07 -62557.742 -65106.793 -35222.676
000070 3b 70 ee c6 e2 71 98 c6 d8 0b 01 c7 5d 37 cc c6
       -30520.115 -19512.941 -33035.844 -26139.682
000080 e4 5d 50 c6 50 73 b9 c6 1b a4 73 c6 9f ab 52 c5
       -13335.473 -23737.656 -15593.026 -3370.7263
000090 31 21 18 47 72 13 63 47 a2 dd 7b 47 68 fb 40 47
       38945.19 58131.445 64477.633 49403.406
0000a0 7e 2b 81 47 02 c2 88 47 2a 04 27 47 cf c8 5a 47
       66134.984 70020.016 42756.164 56008.81
0000b0 06 23 62 47 94 13 dc c6 fb c1 41 c7 84 ff 6d c7
       57891.023 -28169.79 -49601.98 -60927.516
0000c0 aa 7d 4b c7 94 8c 87 c7 f5 eb 93 c7 95 0f 71 c7
       -52093.664 -69401.16 -75735.914 -61711.582
0000d0 d4 bd 8b c7 84 73 8b c7 a9 66 70 47 6d cf ac 47
       -71547.66 -71399.03 61542.66 88478.85
0000e0 49 f6 bf 47 9c f3 87 47 60 92 b4 47 c2 2f c0 47
       98284.57 69607.22 92452.75 98399.516
0000f0 06 62 55 47 9e 02 8a 47 d8 73 8d 47 ce 4b 78 47
       54626.023 70661.234 72423.69 63563.805
000100 98 ce ab 47 d2 43 b6 47 1e cb 96 47 1a f9 bf 47
       87965.19 93319.64 77206.234 98290.2
000110 d0 7d c2 47 27 fb 8b 47 7e 36 a9 47 68 1f a3 47
       99579.625 71670.305 86636.984 83518.81
000120 50 a4 61 c7 75 b8 5e c7 c0 e2 36 c7 68 9c 92 c7
       -57764.312 -57016.457 -46818.75 -75064.81
000130 96 2f 88 c7 c4 16 4d c7 16 3e 99 c7 62 17 86 c7
       -69727.17 -52502.766 -78460.17 -68654.766
000140 90 3d 39 c7 a2 a3 33 c6 28 f0 b5 c6 5d 0b eb c6
       -47421.562 -11496.908 -23288.078 -30085.682
000150 88 15 ee c6 36 47 15 c7 02 3f 1c c7 dc 76 1e c7
       -30474.766 -38215.21 -39999.008 -40566.86
000160 f5 74 28 c7 55 fd 19 c7 bf 1c e1 c5 7f ea f5 c5
       -43124.957 -39421.332 -7203.5933 -7869.312
000170 65 ca a2 c5 c6 d0 17 c5 ee 9b 2c c5 98 42 8f c2
       -5209.2993 -2429.0483 -2761.7456 -71.630066
000180 67 a7 c1 45 05 34 b7 45 c0 65 02 46 26 2b 2c c7
       6196.9253 5862.5024 8345.4375 -44075.15
000190 f6 87 62 c7 1c 87 5e c7 51 06 62 c7 34 66 87 c7
       -57991.96 -56967.11 -57862.316 -69324.41
0001a0 e3 11 80 c7 48 fd 55 c7 bd 9f 75 c7 20 fd 5c c7
       -65571.77 -54781.28 -62879.74 -56573.125
0001b0 68 f1 0a 47 94 d9 e5 46 ce 73 8e 46 60 3c 10 47
       35569.406 29420.79 18233.902 36924.375
0001c0 ae bd d9 46 16 b7 5a 46 6d 67 ee 46 19 c0 99 46
       27870.84 13997.771 30515.713 19680.049
0001d0 2e dc 8e 45 62 8e c6 c6 ac b6 24 c7 62 81 46 c7
       4571.5225 -25415.191 -42166.67 -50817.383
0001e0 5b 9b 2f c7 6a 7f 6d c7 6e 73 83 c7 ab 1e 59 c7
       -44955.355 -60799.414 -67302.86 -55582.668
0001f0 8b bc 85 c7 fa ab 8b c7 7e 91 0d c7 52 00 3b c7
       -68473.086 -71511.95 -36241.492 -47872.32
000200 50 6d 3a c7 65 19 3f c7 2b 4f 68 c7 45 3a 5c c7
       -47725.312 -48921.395 -59471.168 -56378.27
000210 14 07 2e c7 62 01 4d c7 98 a2 39 c7 84 72 ec c6
       -44551.08 -52481.383 -47522.594 -30265.258
000220 31 af 25 c7 2f 3f 28 c7 ca c9 ca c6 4a 61 0b c7
       -42415.19 -43071.184 -25956.895 -35681.29
000230 fe 26 0a c7 d2 c7 4f c6 8c 62 97 c6 ea 54 89 c6
       -35366.992 -13297.955 -19377.273 -17578.457
000240 6a 0a 5e 47 24 eb 81 47 b8 d7 79 47 02 3e 7f 47
       56842.414 66518.28 63959.72 65342.008
000250 c4 d0 87 47 70 d4 70 47 02 8a 5d 47 02 d9 59 47
       69537.53 61652.438 56714.008 55769.008
000260 c2 11 2c 47 8e 26 22 c6 f5 84 54 46 60 42 f6 46
       44049.758 -10377.639 13601.239 31521.188
000270 44 ec 3b 46 f6 b8 05 47 ee 6a 40 47 9a bb d6 46
       12027.066 34232.96 49258.93 27485.8
000280 d2 b9 32 47 f0 40 5d 47 c5 c2 fa c5 c1 bf 62 c6
       45753.82 56640.938 -8024.346 -14511.938
000290 ea 5b 87 c6 67 fe a2 c6 24 39 e2 c6 b2 20 f6 c6
       -17325.957 -20863.201 -28956.57 -31504.348
0002a0 6a d0 c4 c6 0e bc 00 c7 44 69 08 c7 7a 37 33 c7
       -25192.207 -32956.055 -34921.266 -45879.477
0002b0 79 85 51 c7 6e fb 50 c7 d4 d4 4c c7 f4 a0 64 c7
       -53637.473 -53499.43 -52436.83 -58528.953
0002c0 62 4d 5f c7 c9 0b 35 c7 e8 a5 45 c7 cc ce 3b c7
       -57165.383 -46347.785 -50597.906 -48078.797
0002d0 06 4d 50 47 d4 71 7d 47 f8 32 71 47 00 f1 72 47
       53325.023 64881.83 61746.97 62193.0
0002e0 06 d2 87 47 70 0c 72 47 90 ec 42 47 dc c6 4d 47
       69540.05 61964.438 49900.562 52678.86
0002f0 7d fe 23 47 10 d6 15 47 9d 63 4c 47 16 a7 51 47
       41982.49 38358.062 52323.613 53671.086
000300 64 12 4d 47 ca 3d 81 47 28 25 7f 47 e0 17 59 47
       52498.39 66171.58 65317.156 55575.875
000310 33 4b 83 47 49 7f 7c 47 fa da 8f c6 7a d8 90 c6
       67222.4 64639.285 -18413.488 -18540.238
000320 0a 3b 79 c6 5c 50 cc c6 0e f6 d3 c6 54 fc c0 c6
       -15950.76 -26152.18 -27131.027 -24702.164
000330 30 6e ec c6 be 34 fc c6 ea 32 eb c6 ea a8 30 c7
       -30263.094 -32282.371 -30105.457 -45224.914
000340 80 4a 83 c7 94 a4 96 c7 7e 1b 53 c7 cc 7a 94 c7
       -67221.0 -77129.16 -54043.492 -76021.59
000350 62 14 a8 c7 3c 54 3b c7 76 c1 83 c7 32 db 94 c7
       -86056.766 -47956.234 -67458.92 -76214.39
000360 e9 6b e7 c6 8e 92 1c c7 46 be 23 c7 98 60 d0 c6
       -29621.955 -40082.555 -41918.273 -26672.297
000370 4f 51 07 c7 9b df 08 c7 96 fc 23 c6 ec b2 67 c6
       -34641.31 -35039.605 -10495.146 -14828.73
000380 a4 b8 4f c6
       -13294.16

exp_avg_sq f4 [25, 1, 3, 3]
000000 ed f3 4b 4e ca 37 56 4e 23 ed 52 4e 49 02 48 4e
       8.554402e+08 8.984951e+08 8.846891e+08 8.3889824e+08
000010 3f 63 49 4e 50 a0 42 4e 78 fd 3b 4e e7 99 36 4e
       8.4468115e+08 8.1632154e+08 7.884877e+08 7.6588486e+08
000020 14 7f 2f 4e 54 af 07 4f 12 82 30 4f a8 ad 36 4f
       7.3608525e+08 2.2764145e+09 2.9613143e+09 3.064834e+09
000030 51 9b 19 4f 81 69 43 4f b8 4a 48 4f dd 79 18 4f
       2.5770929e+09 3.2784714e+09 3.36034e+09 2.5581233e+09
000040 11 cb 3c 4f af 0e 3f 4f 72 04 40 50 a7 a1 6a 50
       3.1674248e+09 3.2054106e+09 1.2886067e+10 1.574585e+10
000050 92 e2 6a 50 c1 75 6f 50 1b 26 91 50 cb 04 90 50
       1.5762868e+10 1.6069887e+10 1.9481549e+10 1.9329866e+10
000060 cd 94 7a 50 52 1d 95 50 7e 41 92 50 1b cc 86 4e
       1.6816223e+10 2.0013814e+10 1.9630125e+10 1.1307616e+09
000070 b3 fc 69 4e c4 0a 38 4e 11 6d 6a 4e fb 52 4f 4e
       9.8141306e+08 7.719283e+08 9.832541e+08 8.695805e+08
000080 63 06 34 4e 54 28 24 4e ae 07 1f 4e c7 a6 26 4e
       7.5507936e+08 6.885266e+08 6.6702016e+08 6.9898694e+08
000090 51 cb 2e 50 4a 93 54 50 8b 0f 53 50 e5 90 31 50
       1.1730241e+10 1.426569e+10 1.4164045e+10 1.1916252e+10
0000a0 c8 c7 5a 50 51 13 5c 50 da 5d 0f 50 6b 40 34 50
       1.4682104e+10 1.4769014e+10 9.62117e+09 1.2096482e+10
0000b0 5a 1d 39 50 44 3a c0 50 05 76 d8 50 22 c3 d4 50
       1.2422834e+10 2.5800352e+10 2.9052905e+10 2.8556464e+10
0000c0 06 8a d2 50 0b b4 e8 50 d7 1d e0 50 c1 0a c9 50
       2.8258087e+10 3.1232907e+10 3.0080416e+10 2.6983401e+10
0000d0 98 48 d7 50 ba 9a c9 50 56 05 22 51 b2 a5 38 51
       2.8894872e+10 2.7058885e+10 4.349214e+10 4.956587e+10
0000e0 4a 53 32 51 e0 ea 2b 51 b9 1c 41 51 d1 59 38 51
       4.7868846e+10 4.6148747e+10 5.183816e+10 4.9486303e+10
0000f0 02 d4 17 51 07 e8 27 51 c3 c9 1e 51 98 84 18 51
       4.075606e+10 4.507202e+10 4.2624365e+10 4.0941224e+10
000100 92 50 26 51 e6 ff 19 51 06 ba 2b 51 d6 58 37 51
       4.464477e+10 4.1338954e+10 4.6097523e+10 4.921684e+10
000110 17 f4 25 51 0d e3 23 51 96 b7 2a 51 f6 0c 17 51
       4.4547797e+10 4.399306e+10 4.582653e+10 4.0547344e+10
000120 27 de 40 51 66 dd 1d 51 e8 e7 d3 50 a5 7e 51 51
       5.177255e+10 4.237652e+10 2.8441526e+10 5.6235807e+10
000130 4f bd 25 51 c0 db d2 50 43 a2 43 51 55 a3 15 51
       4.4490355e+10 2.8300935e+10 5.2515058e+10 4.016815e+10
000140 59 6a b5 50 24 a9 cf 4f 88 c1 a9 4f ed b9 75 4f
       2.4349166e+10 6.967937e+09 5.6960655e+09 4.1226028e+09
000150 20 f0 04 50 95 8b e0 4f 1c a9 a6 4f dc 05 13 50
       8.921317e+09 7.534488e+09 5.592201e+09 9.866539e+09
000160 8a 06 fc 4f 08 e2 bc 4f d2 87 c0 4e e3 52 96 4e
       8.456574e+09 6.3378596e+09 1.6150633e+09 1.2610072e+09
000170 08 8a 69 4e 6d 1b ad 4e e9 00 7d 4e c9 0b 3f 4e
       9.7953434e+08 1.4521279e+09 1.0611738e+09 8.0130515e+08
000180 c1 7e 9d 4e 9b 0a 61 4e a6 91 2f 4e 2e f6 87 50
       1.3211649e+09 9.4389216e+08 7.363895e+08 1.8248462e+10
000190 1b 20 94 50 7c 7b 86 50 2c 6b a3 50 ec 4f b3 50
       1.9881056e+10 1.8049917e+10 2.1933679e+10 2.4066875e+10
0001a0 ed 8b a4 50 1a a1 a6 50 0f 0e b8 50 18 df aa 50
       2.2085069e+10 2.2364606e+10 2.4703433e+10 2.293398e+10
0001b0 ed 02 38 4f 73 d0 52 4f 0c e3 7b 4f 9d 9e 80 4f
       3.0871995e+09 3.5368763e+09 4.225961e+09 4.315757e+09
0001c0 89 f2 98 4f a7 58 b5 4f 76 5b a0 4f 87 ee c3 4f
       5.132063e+09 6.084972e+09 5.380697e+09 6.5743785e+09
0001d0 58 ee e5 4f 82 d6 0f 4f 91 5b 64 4f 5a a6 98 4f
       7.715205e+09 2.4132e+09 3.8312061e+09 5.1220777e+09
0001e0 cd c6 54 4f e5 7d 9d 4f 25 cd c3 4f 5c 70 89 4f
       3.5697984e+09 5.284547e+09 6.570003e+09 4.6116844e+09
0001f0 f3 21 be 4f aa f3 dd 4f 2e a2 5b 4f a5 7c 79 4f
       6.379792e+09 7.447467e+09 3.684839e+09 4.1856955e+09
000200 d4 4d 66 4f 6b ab 86 4f 78 89 9b 4f 8c df 8f 4f
       3.8638602e+09 4.518762e+09 5.2189553e+09 4.8275845e+09
000210 50 6b 7f 4f b7 ce 93 4f 63 c2 89 4f 66 fc 97 4f
       4.285223e+09 4.959596e+09 4.622436e+09 5.0998016e+09
000220 11 5b 96 4f 5f a1 72 4f b7 67 b1 4f 7e 7e ad 4f
       5.045101e+09 4.070662e+09 5.9527286e+09 5.8214963e+09
000230 58 a0 8b 4f 1b 07 ad 4f e1 23 a8 4f a4 1e 88 4f
       4.6850826e+09 5.805848e+09 5.6418473e+09 4.567419e+09
000240 53 e6 40 50 38 bb 37 50 dd 00 0e 50 ef 5b 49 50
       1.294528e+10 1.233e+10 9.529685e+09 1.3512982e+10
000250 71 49 38 50 ab ff 08 50 fc ce 2c 50 00 51 18 50
       1.2367283e+10 9.193827e+09 1.1596984e+10 1.0221781e+10
000260 d7 b5 da 4f fd fe a2 4f 71 47 ed 4f fa ab 18 50
       7.3387003e+09 5.46924e+09 7.9617644e+09 1.024563e+10
000270 ad a8 e4 4f db 84 25 50 46 25 4e 50 ee 66 10 50
       7.672519e+09 1.110779e+10 1.3834197e+10 9.690659e+09
000280 a0 c3 49 50 5c d1 71 50 81 ee 62 4e 8f a2 e3 4e
       1.3540164e+10 1.6228119e+10 9.5182035e+08 1.9095407e+09
000290 0f 3d 45 4f 8b 28 b0 4e 9a 5c 3d 4f 79 60 9a 4f
       3.309113e+09 1.4777235e+09 3.1769626e+09 5.1800274e+09
0002a0 e6 0e ec 4e d3 4f 79 4f 28 96 c1 4f a3 98 d7 4f
       1.9801997e+09 4.1827581e+09 6.4956867e+09 7.2342093e+09
0002b0 fd 63 c7 4f 21 b9 9a 4f ab ce fb 4f 53 c3 e6 4f
       6.6904376e+09 5.1916477e+09 8.449251e+09 7.743121e+09
0002c0 02 ce b2 4f 7e 39 f7 4f be 89 e1 4f 23 f7 ae 4f
       5.999691e+09 8.2954803e+09 7.5678013e+09 5.870864e+09
0002d0 d7 ed dd 50 23 88 cd 50 1e c3 9a 50 4b 37 f2 50
       2.9786814e+10 2.758601e+10 2.0771828e+10 3.250968e+10
0002e0 16 ad db 50 7e 50 a1 50 92 7a db 50 75 a8 c2 50
       2.948443e+10 2.1651255e+10 2.9457945e+10 2.612656e+10
0002f0 c0 75 8b 50 88 76 85 4f 4d f3 a2 4f 6e e8 a5 4f
       1.8718e+10 4.4782756e+09 5.467708e+09 5.5669463e+09
000300 dd 11 c9 4f 8c eb ef 4f 67 a2 ed 4f c9 b8 f9 4f
       6.746782e+09 8.050383e+09 7.973687e+09 8.3792737e+09
000310 9d b5 11 50 27 0f 0e 50 17 87 61 4e 67 82 86 4e
       9.778394e+09 9.533431e+09 9.459317e+08 1.1283465e+09
000320 df 2b b4 4e d8 5c 7e 4e 42 53 9e 4e 17 bd d6 4e
       1.511387e+09 1.0668744e+09 1.3281283e+09 1.8013582e+09
000330 88 e8 8e 4e db 6a bb 4e d3 27 fe 4e ff 56 02 50
       1.1988019e+09 1.5721711e+09 2.1320114e+09 8.746958e+09
000340 18 b4 19 50 14 3e 1c 50 bc 7b 2b 50 17 62 49 50
       1.0314867e+10 1.0485256e+10 1.1508052e+10 1.3514595e+10
000350 8b 1e 4d 50 24 44 3a 50 24 15 58 50 d8 5d 5b 50
       1.3765324e+10 1.2500111e+10 1.4501057e+10 1.4721442e+10
000360 c2 a2 e6 4e 47 a1 27 4f 67 66 3d 4f dc 8c 26 4f
       1.9347131e+09 2.8123645e+09 3.1776049e+09 2.7942492e+09
000370 7a 6d 68 4f c2 a7 81 4f cd 41 42 4f 00 01 83 4f
       3.8994888e+09 4.35051e+09 3.2590922e+09 4.3957617e+09
000380 68 ca 90 4f
       4.858368e+09

exp_avg f4 [25]
000000 23 78 93 46 29 d3 10 c6 fc fc eb 46 15 3e 19 46
       18876.068 -9268.79 30206.492 9807.5205
000010 eb 32 71 c6 d0 c0 6e c4 47 4e 03 c7 bd f0 a6 c6
       -15436.7295 -955.0127 -33614.277 -21368.37
000020 05 eb 10 47 df 0a d4 46 eb 4a cd c5 44 e0 c5 46
       37099.02 27141.436 -6569.3647 25328.133
000030 18 75 89 c5 24 a9 e6 46 42 2e 0e 47 5b 22 86 46
       -4398.6367 29524.57 36398.258 17169.178
000040 d1 94 80 c6 73 14 29 c6 d2 53 99 46 16 56 89 46
       -16458.408 -10821.112 19625.91 17579.043
000050 20 da a0 c6 29 79 19 c7 9c 33 29 46 65 ec 97 46
       -20589.062 -39289.16 10828.902 19446.197
000060 b6 2c 98 45
       4869.589

exp_avg_sq f4 [25]
000000 23 91 0f 4e 55 d0 9e 4f 49 ca 96 4e 4d e2 fc 4e
       6.021634e+08 5.328907e+09 1.2649197e+09 2.1213446e+09
000010 12 98 53 4e a7 ba 45 4f a4 7d 44 4f 80 68 80 4f
       8.8748966e+08 3.317344e+09 3.2965683e+09 4.3086643e+09
000020 89 c6 03 50 8f 98 c7 4e 0f 60 10 4e eb 45 9f 4e
       8.843306e+09 1.674332e+09 6.055536e+08 1.3360797e+09
000030 0e aa 86 4d 96 aa 88 4f 92 88 0e 4f de ed d8 4e
       2.8241146e+08 4.585762e+09 2.391315e+09 1.8197338e+09
000040 76 7b 42 4e b4 ff a2 4e 17 b6 ff 4d 55 00 42 4f
       8.1571776e+08 1.3673334e+09 5.3626544e+08 3.2548017e+09
000050 0d 6b 3f 4f 0e 8c 07 4f b6 4a 7a 4f 5d 8c db 4e
       3.211464e+09 2.2741028e+09 4.1992003e+09 1.8417046e+09
000060 0f 15 49 4e
       8.434001e+08

exp_avg f4 [50, 25, 3, 3]
000000 ad 86 3a 45 bd 4f 90 45 14 17 94 45 90 fb 68 45
       2984.4172 4617.9673 4738.885 3727.7227
000010 ac 88 95 45 17 48 89 45 b4 30 ee 44 c2 37 0b 45
       4785.084 4393.011 1905.522 2227.4849
000020 15 f9 aa 44 c6 7d 3e 45 f8 fe e2 44 04 e9 4b 44
       1367.7838 3047.8608 1815.9678 815.64087
000030 26 c6 c9 44 fc cc f7 43 8b 7f 9c c3 38 8d 8c 44
       1614.1921 495.60144 -312.99643 1124.4131
000040 a0 54 a3 43 66 3a 04 c3 6e 05 d4 44 0a 29 3c 45
       326.66113 -132.22812 1696.1697 3010.565
000050 8e 8c 65 45 9a a9 0b 45 b3 5e 4c 45 1c 42 61 45
       3672.7847 2234.6 3269.9187 3604.1318
000060 40 48 e4 44 88 7c 15 45 1e 48 15 45 16 49 08 45
       1826.2578 2391.7832 2388.5073 2180.5679
000070 5a 8c 59 45 29 e4 9a 45 85 3e 6e 44 7c d5 06 45
       3480.772 4956.52 952.97687 2157.3428
000080 78 9e 5f 45 b8 33 51 44 f9 f9 eb 44 25 b6 43 45
       3577.9043 836.8081 1887.8116 3131.384
000090 10 5f 3a c5 c7 81 ac c5 99 48 d8 c5 db b4 95 c5
       -2981.9414 -5520.222 -6921.0747 -4790.607
0000a0 df 4c d7 c5 6a 5b f3 c5 ce 26 95 c5 8c 24 c1 c5
       -6889.609 -7787.427 -4772.8506 -6180.5684
0000b0 ab ce c6 c5 01 4a 36 46 f5 41 42 46 e2 7c 3d 46
       -6361.8335 11666.501 12432.489 12127.221
0000c0 22 92 22 46 34 e9 2a 46 ef 5d 23 46 b4 17 06 46
       10404.533 10938.301 10455.483 8581.926
0000d0 16 47 0a 46 28 e7 02 46 d6 36 1c c5 ba 10 52 c5
       8849.771 8377.789 -2499.4272 -3361.0454
0000e0 36 27 67 c5 c3 64 25 c5 96 06 4e c5 21 d1 55 c5
       -3698.4507 -2646.2976 -3296.4116 -3421.0706
0000f0 34 d6 07 c5 7b da 1d c5 16 5a 19 c5 10 9a 8e c5
       -2173.3877 -2525.655 -2453.6304 -4563.258
000100 ac a1 b7 c5 d4 2a c2 c5 c5 b8 ce c5 b9 26 f0 c5
       -5876.209 -6213.3535 -6615.096 -7684.8403
000110 67 bc ed c5 74 50 cd c5 f3 b7 df c5 84 aa ce c5
       -7607.5503 -6570.0566 -7158.9937 -6613.3145
000120 c8 84 60 c4 fc e0 93 c3 c4 8e f0 c3 9c 70 54 c4
       -898.0747 -295.7577 -481.11536 -849.7595
000130 52 22 3d c4 3c 41 ad c4 1a 79 15 c5 1e bc 34 c5
       -756.53625 -1386.0386 -2391.5688 -2891.7573
000140 64 dd 6d c5 e1 76 29 44 54 20 9d 44 a2 55 bb 44
       -3805.837 677.8575 1257.0103 1498.676
000150 6b c9 71 44 ca 3d a8 44 24 91 b1 44 a6 0f e0 43
       967.14716 1345.9309 1420.5356 448.12225
000160 8c a8 19 44 1a b0 ee 43 b4 87 af 45 82 c5 a7 45
       614.63354 477.3758 5616.963 5368.6885
000170 72 d3 a6 45 80 ad 90 45 01 dc 89 45 2b 84 8a 45
       5338.4307 4629.6875 4411.5005 4432.521
000180 df 94 84 45 dd 97 82 45 45 b7 85 45 28 f3 a2 c3
       4242.609 4178.983 4278.9087 -325.89966
000190 ce 4c a5 44 94 a2 27 45 64 37 76 44 d7 55 1e 45
       1322.4001 2682.1611 984.8655 2533.365
0001a0 9e c7 65 45 b0 7c ba 44 78 c9 29 45 48 2e 58 45
       3676.476 1491.8965 2716.5918 3458.8926
0001b0 83 bd 8e c5 00 7f b5 c5 73 88 c8 c5 1e 8f 87 c5
       -4567.689 -5807.875 -6417.056 -4337.8896
0001c0 02 74 a7 c5 4c 69 b4 c5 f3 06 68 c5 8c eb 8a c5
       -5358.501 -5773.162 -3712.4343 -4445.4434
0001d0 2c 42 90 c5 b4 ed e5 45 7b 3b ff 45 c4 fe 00 46
       -4616.2715 7357.713 8167.435 8255.691
0001e0 26 9c ac 45 a2 ae b4 45 95 ff ab 45 7f 76 4b 45
       5523.5186 5781.829 5503.9478 3255.406
0001f0 16 5a 3d 45 db 91 1f 45 d9 a7 c7 45 94 ff 20 46
       3029.6304 2553.116 6388.981 10303.895
000200 2a 91 40 46 ce 8a 0d 46 f0 7d 40 46 08 0e 53 46
       12324.291 9058.701 12319.484 13507.508
000210 82 04 08 46 45 25 29 46 50 e1 2a 46 82 5c 5d c5
       8705.127 10825.317 10936.328 -3541.7817
000220 98 d7 f8 c4 84 ab 20 c4 90 8d 71 c4 e1 a9 44 44
       -1990.7373 -642.67993 -966.2119 786.65436
000230 75 c3 04 45 4e c6 1f 44 02 45 0d 45 42 f5 4d 45
       2124.216 639.0985 2260.313 3295.3286
000240 5a 01 f5 c5 de 0e 0d c6 1d ed 12 c6 7f 48 d6 c5
       -7840.169 -9027.717 -9403.278 -6857.062
000250 97 47 ef c5 a3 b4 f1 c5 9b b5 b4 c5 36 70 c1 c5
       -7656.9487 -7734.5796 -5782.7007 -6190.0264
000260 52 04 bc c5 12 2e b7 c5 dc a9 c7 c5 01 2c ba c5
       -6016.54 -5861.759 -6389.2324 -5957.5005
000270 b8 d9 c0 c5 4f 4b c8 c5 a4 51 b3 c5 8b 16 a2 c5
       -6171.215 -6409.4136 -5738.205 -5186.818
000280 98 77 a0 c5 50 81 85 c5 c6 ae 6f c5 16 51 19 c5
       -5134.949 -4272.164 -3834.9233 -2453.0679
000290 04 9b b6 c4 66 4d de c4 8e 74 2c c4 d4 b0 a7 c2
       -1460.8442 -1778.4187 -689.82117 -83.84537
0002a0 e4 4e df c4 aa 5b 95 c4 5e c7 8d c4 4a 99 e9 45
       -1786.4653 -1194.8645 -1134.2302 7475.161
0002b0 8f 2b de 45 b0 fd b7 45 ee 49 b0 45 49 f7 98 45
       7109.445 5887.711 5641.241 4894.9106
0002c0 7a 5c 5a 45 ac 5f 3f 45 72 70 03 45 87 46 47 44
       3493.7798 3061.9795 2103.0278 797.102
0002d0 5c cb be c5 c8 57 16 c6 7d bc 31 c6 31 6f f7 c5
       -6105.42 -9621.945 -11375.122 -7917.899
0002e0 68 34 29 c6 3a d0 39 c6 cc 97 e5 c5 f1 e3 10 c6
       -10829.102 -11892.057 -7346.9746 -9272.985
0002f0 e2 6d 13 c6 f5 38 0b 44 27 3e a2 c4 58 31 23 c5
       -9435.471 556.88995 -1297.9423 -2611.084
000300 10 f1 15 c4 be f6 19 c5 97 98 67 c5 f0 e1 aa c4
       -599.7666 -2463.4214 -3705.5369 -1367.0605
000310 ae bf 3a c5 1e 26 76 c5 28 56 5d 45 6c c8 8c 45
       -2987.98 -3938.3823 3541.3848 4505.0527
000320 d4 b3 a3 45 aa 77 74 45 75 85 96 45 ef 99 a9 45
       5238.4785 3911.479 4816.682 5427.2417
000330 43 61 8d 45 20 c5 a4 45 be 24 b1 45 0c cd e5 45
       4524.1577 5272.6406 5668.593 7353.631
000340 1c 3c 08 46 26 c4 10 46 04 5c 04 46 41 73 18 46
       8719.027 9265.037 8471.004 9756.813
000350 9a ad 1d 46 bf 5b 14 46 bc 96 24 46 51 56 25 46
       10091.4 9494.937 10533.684 10581.579
000360 66 a2 8b 45 66 b8 b1 45 da 7f d8 45 7f 1e ad 45
       4468.3 5687.05 6927.9814 5539.812
000370 9b bf da 45 2c 2d 01 46 c6 52 eb 45 bc 71 0d 46
       6999.9507 8267.293 7530.3467 9052.434
000380 06 12 1e 46 b8 91 3d c5 7c b5 e9 c5 d0 73 27 c6
       10116.506 -3033.1074 -7478.6855 -10716.953
000390 6c 04 fa c5 ae af 3a c6 c8 46 60 c6 2c 86 32 c6
       -8000.5527 -11947.92 -14353.695 -11425.543
0003a0 be ab 62 c6 a8 54 78 c6 72 cc 3f c5 e6 9e a4 c4
       -14506.936 -15893.164 -3068.7778 -1316.9656
0003b0 d4 c1 d5 43 1e b5 9c c4 ec 94 2e 44 8f a5 18 45
       427.51428 -1253.6599 698.3269 2442.3474
0003c0 40 9c 3e 44 04 7b 26 45 28 45 82 45 28 ba b9 43
       762.4414 2663.6885 4168.6445 371.45435
0003d0 5e cb 01 c5 b7 4f 84 c5 c7 85 0a c5 41 80 8e c5
       -2076.7104 -4233.9644 -2216.361 -4560.0317
0003e0 44 f0 c6 c5 ad 34 85 c5 b3 69 c2 c5 61 e8 ea c5
       -6366.033 -4262.5845 -6221.2124 -7517.0474
0003f0 5d 0c fa 44 e0 2d d3 44 2c 03 31 44 b6 a5 15 45
       2000.3864 1689.4336 708.04956 2394.357
