models/sigma0.01_step0.0002_lr0.0005/ckpt/model_epoch_500.pth (torch, 282369 bytes, 18 tensors)

layer1.weight f4 [25, 1, 3, 3]
0.039277546 -0.03694919 0.16579118 -0.09833746 -0.041452963 0.18748422 0.0749841 0.03461291
0.029727925 -0.0376333 0.1252529 -0.24494243 -0.066190444 -0.024305135 0.0014902945 -0.008434167
-0.12526733 -0.00076582213 -0.039827887 -0.03024266 0.03491008 0.19375429 -0.06295973 -0.06620503
-0.07502817 -0.16060604 0.06686029 -0.09683548 0.093243465 0.010582105 0.08013785 0.013302792
0.18343042 0.010634418 -0.09270415 -0.095340095 -0.027050184 0.017252663 0.039026786 0.04724961
-0.18221682 0.24686237 -0.10781201 -0.19071917 0.11453476 0.043107904 -0.06472721 -0.10939192
-0.029854232 0.10398587 -0.047954977 0.07455149 -0.091280036 -0.113519356 -0.046323262 -0.018184967
-0.00011587972 0.12607291 -0.24813215 0.08398588 0.041843712 -0.11079392 -0.08496019 0.04010871
0.07489267 -0.07212784 -0.16339591 -0.14101622 -0.034419864 -0.1400892 0.049737927 0.0747443
-0.15139921 -0.04632098 0.066265635 0.057338536 -0.14880359 0.040725198 -0.14076048 -0.013806692
-0.034191784 -0.17563789 -0.14803715 0.004603691 -0.06430681 -0.020139463 0.061920766 -0.015912095
0.121985115 -0.098024786 0.014908 -0.032034118 -0.004648335 -0.16755348 -0.0018734833 -0.019894471
-0.032576155 -0.03428015 0.061371308 -0.022986732 -0.09181008 0.027525147 -0.0924083 0.006552316
-0.062420934 -0.121390894 0.19092695 -0.08424414 -0.058459606 -0.10030801 -0.17631347 0.13320749
-0.09740827 -0.045215853 -0.05621595 0.17101501 -0.0026654887 -0.11597363 -0.13900863 -0.044105094
-0.018785642 0.04244192 -0.034413513 -0.007124284 0.16168484 0.04808493 -0.038361374 -0.018203067
-0.08274253 -0.14869814 0.1329312 -0.16090055 -0.13569587 -0.103351966 0.04031256 0.087676235
0.10386253 -0.03308146 -0.100987926 -0.20415547 -0.0042087003 0.17342162 -0.059813313 -0.09342798
0.043334585 0.1509837 0.070028305 -0.042036057 -0.091554716 -0.029799838 -0.15056996 -0.0053492426
0.08391243 0.069724336 -0.03204814 0.053434983 0.050457023 -0.097781315 0.018843448 0.10751739
0.058808632 0.029950159 0.12490074 0.15701854 0.037457276 -0.004430864 -0.004733521 0.030597359
-0.046026703 -0.021976044 0.10185411 -0.0007010061 0.06376443 0.048857436 -0.03547069 0.18077634
0.11042447 -0.0979213 0.073053874 0.06897644 -0.12215217 -0.108930476 0.07823407 -0.009647619
-0.039992407 0.09084256 -0.060252186 -0.039012656 0.087310895 0.113918506 -0.00025825526 0.15529463
-0.116688296 -0.06546797 0.022201473 0.13223429 0.027096612 0.09424549 -0.056940608 -0.08440619
-0.022204455 -0.09223503 0.001857744 -0.07388037 -0.13000654 0.06038188 -0.21203358 -0.056334957
0.058474943 0.02441359 0.0552077 0.0025921552 0.04277574 -0.08501877 -0.0076958663 0.067727014
-0.060241856 0.10347601 0.075133294 -0.14223331 0.0821373 0.19193421 -0.08969989 0.033912238
0.037699863
00000000: 7ee1 203d 0958 17bd 2ac5 293e 2665 c9bd
00000010: 95ca 29bd ddfb 3f3e 4491 993d 44c6 0d3d
00000020: fa87 f33c 6025 1abd 4c42 003e 30d2 7abe
00000030: db8e 87bd 901b c7bc fc55 c33a 762f 0abc
00000040: 1446 00be 74c1 48ba 9122 23bd 74bf f7bc
00000050: dffd 0e3d 8667 463e 08f1 80bd 8196 87bd
00000060: 5fa8 99bd e975 24be 0cee 883d ae51 c6bd
00000070: 6ef6 be3d 9160 2d3c 501f a43d f4f3 593c
00000080: 2fd5 3b3e fb3b 2e3c acdb bdbd ab41 c3bd
00000090: 5998 ddbc 7555 8d3c 8dda 1f3d cf88 413d
000000a0: 0c97 3abe 7dc9 7c3e 8bcc dcbd e34b 43be
000000b0: 3391 ea3d ea91 303d b38f 84bd df08 e0bd
000000c0: dd90 f4bc 8bf6 d43d 706c 44bd 74ae 983d
000000d0: 07f1 babd d67c e8bd 76bd 3dbd a4f8 94bc
000000e0: 7304 f3b8 4219 013e 5b16 7ebe ca00 ac3d
000000f0: 5064 2b3d ece7 e2bd 9cff adbd 0849 243d
00000100: 5461 993d c3b7 93bd 4251 27be 8e66 10be
00000110: d8fb 0cbd 8b73 0fbe ffb9 4b3d 8a13 993d
00000120: 6508 1bbe 11bb 3dbd 47b6 873d d0db 6a3d
00000130: f85f 18be 77cf 263d 8423 10be 7735 62bc
00000140: af0c 0cbd 6bda 33be 0d97 17be 8fda 963b
00000150: 4ab3 83bd 84fb a4bc a1a0 7d3d 155a 82bc
00000160: 55d3 f93d 38c1 c8bd af40 743c 3536 03bd
00000170: 0f51 98bb 2493 2bbe ab8f f5ba bbf9 a2bc
00000180: 936e 05bd 5869 0cbd 7b60 7b3d ac4e bcbc
00000190: ec06 bcbd 6b7c e13c 9040 bdbd cfb4 d63b
000001a0: 18ad 7fbd ca9b f8bd 5b82 433e 3188 acbd
000001b0: 5773 6fbd 496e cdbd 858b 34be 8b67 083e
000001c0: fd7d c7bd 4234 39bd b242 66bd 8f1e 2f3e
000001d0: 7baf 2ebb 9583 edbd 4758 0ebe 8ba7 34bd
000001e0: 59e4 99bc 94d7 2d3d 2ff5 0cbd d372 e9bb
000001f0: b690 253e b4f4 443d d120 1dbd 991e 95bc
00000200: ea74 a9bd 5344 18be 1e1f 083e 1dc3 24be
00000210: dcf3 0abe 32aa d3bd c81e 253d 998f b33d
00000220: e1b5 d43d 6d80 07bd c2d2 cebd 220e 51be
00000230: 23e9 89bb 7095 313e cefe 74bd 2b57 bfbd
00000240: 9b7f 313d 799b 1a3e 006b 8f3d 002e 2cbd
00000250: 0a81 bbbd ca1e f4bc 032f 1abe b348 afbb
00000260: 48da ab3d a2cb 8e3d e944 03bd a4de 5a3d
00000270: 06ac 4e3d 9241 c8bd 935d 9a3c 1432 dc3d
00000280: 52e1 703d 095a f53c f6cb ff3d 78c9 203e
00000290: cd6c 193d c830 91bb a71b 9bbb 50a7 fa3c
000002a0: 7f86 3cbd 1b07 b4bc e398 d03d b9c3 37ba
000002b0: ed96 823d bc1e 483d b749 11bd 6f1d 393e
000002c0: 3926 e23d f68a c8bd 459d 953d 8543 8d3d
000002d0: eb2a fabd f116 dfbd 2f39 a03d 0c11 1ebc
000002e0: 14cf 23bd aa0b ba3d ffca 76bd bccb 1fbd
000002f0: 0ed0 b23d 1b4e e93d 6f66 87b9 8e05 1f3e
00000300: 46fa eebd 1214 86bd dddf b53c 6d68 073e
00000310: b7f9 dd3c c803 c13d 8e3a 69bd 27dd acbd
00000320: 1ee6 b5bc b8e5 bcbd 8b7f f33a 974e 97bd
00000330: 6f20 05be fd52 773d 551f 59be 7cbf 66bd
00000340: 6c83 6f3d 02ff c73c 7821 623d 26e1 293b
00000350: 9d35 2f3d 521e aebd 9b2d fcbb 76b4 8a3d
00000360: 2ac0 76bd 3beb d33d 7cdf 993d 9ca5 11be
00000370: 9a37 a83d 678a 443e 93b4 b7bd 8fe7 0a3d
00000380: 2c6b 1a3d

layer1.bias f4 [25]
-0.1713067 0.20774713 0.017424721 -0.22136155 0.113108136 -0.054012273 0.23739016 0.119752616
-0.07097066 -0.06001747 -0.16774742 0.27250266 -0.10733654 -0.1136992 -0.1717736 0.0777318
0.29917216 0.050411515 0.30442956 0.17620288 0.23919852 0.010676118 0.29150516 -0.08922939
0.30281684
00000000: 066b 2fbe aabb 543e 4abe 8e3c 9aac 62be
00000010: 3da5 e73d f93b 5dbd 6816 733e dc40 f53d
00000020: 1159 91bd e1d4 75bd fbc5 2bbe 7885 8b3e
00000030: 43d3 dbbd 20db e8bd 6be5 2fbe da31 9f3d
00000040: 182d 993e 4e7c 4e3d 31de 9b3e 876e 343e
00000050: 75f0 743e e2ea 2e3c 2a40 953e e6bd b6bd
00000060: cf0a 9b3e

layer2.weight f4 [50, 25, 3, 3]
0.033383865 0.0997127 0.07554012 -0.06892076 -0.029916277 0.048198227 0.06182996 0.020235881
0.038545236 0.09528702 -0.001974325 0.04412679 -0.04781635 -0.079468176 -0.045336757 0.071122706
0.019601848 0.037134092 0.0099189505 -0.0024313426 0.040342312 0.035474084 -0.051531743 0.008906683
-0.033804927 -0.040472813 -0.015145233 0.008661347 0.042082913 0.0038142686 -0.03506299 0.002957443
0.02573002 0.09712888 -0.033477254 0.06907129 -0.05537225 -0.0011632396 0.018905183 0.0016082457
-0.00035823946 -0.01823512 0.024447259 -0.0001385356 0.08308204 -0.0071735587 0.017105924 -0.08628456
0.01928414 -0.029754005 -0.0044542984 0.028066307 0.020171892 0.080480516 0.0039563077 0.021875095
-0.037196424 0.029153343 -0.09715811 -0.053859565 -0.056649435 -0.0092286775 0.025697088 -0.00016888331
-0.010477718 -0.0025208383 0.032591537 -0.011401772 -0.027672296 -0.029338788 -0.007951609 0.035132125
0.04035281 -0.004334076 -0.00082090026 -0.10003635 -0.12613612 -0.035405062 -0.030713873 0.020811493
-0.0851848 0.13959186 0.016558375 0.01785348 -0.124324925 -0.022551687 -0.00063098775 -0.048138563
0.056340467 -0.11253936 -0.08147791 0.049936753 0.013235006 -0.006744171 -0.06820964 -0.05257698
-0.104330055 -0.06653251 0.0602291 -0.005393987 -0.031106204 -0.019416057 -0.027922004 -0.0022051004
0.0072380495 -0.036942564 -0.07631809 -0.023987316 -0.02180212 -0.00093514967 -0.0068261866 0.07132197
0.007663545 -0.030397318 -0.09596045 -0.089023925 -0.04438144 -0.045603085 -0.0439238 -0.052335363
0.009413717 0.05142254 0.02657568 -0.06892184 0.09639937 -0.021569824 0.07846311 -0.08768738
0.028613636 -0.03099766 -0.061263226 -0.08559632 -0.03960503 0.017398665 -0.018336335 0.03326418
-0.037713025 0.12031212 0.0020072334 -0.02179865 -0.041555773 0.0035795234 0.0290448 0.014432169
-0.028311837 0.06832344 -0.055006016 0.06357851 0.010324633 0.013178209 -0.08278496 -0.02641273
0.005816859 -0.006188973 -0.009523999 -0.038567964 -0.024630707 -0.08924222 -0.009080947 0.07624538
0.019341104 -0.021778114 -0.03875517 0.13673756 -0.09853114 0.09856927 0.10233997 -0.011028008
0.02638534 0.043295264 -0.0645445 -0.024369415 -0.029320192 -0.098396756 0.02614469 -0.0002560567
0.046694122 -0.014456288 -0.024038553 -0.07454177 -0.0954607 -0.09054764 -0.082586765 0.03703688
0.004004637 -0.066758975 -0.0035783458 0.017736984 0.002872571 -0.1345999 0.012603443 0.026534874
0.04620895 -0.053451255 -0.0043180604 -0.05489932 -0.052228265 0.0232403 0.0010986475 0.07796172
-0.010179794 -0.024605135 -0.01935574 -0.0054159453 -0.00012388917 0.0024571859 -0.022800544 -0.037423193
-0.0070688543 0.084401816 -0.060635004 -0.061154354 0.057737928 -0.043330316 0.08723945 0.10038533
0.022877676 0.069245376 0.06252763 0.061957907 -0.0039005545 0.011170887 0.05333705 0.10543002
-0.018683072 0.008592173 -0.026379636 0.008293225 0.04513772 -0.06917483 0.071392134 0.09686138
0.017866312 0.05402845 -0.043210126 -0.09062705 0.011654872 0.051819995 -0.07855646 0.006978875
0.0021149921 -0.029621277 -0.08225945 -0.0032869994 0.0675265 0.113072865 0.082197234 0.004903379
0.06949059 -0.0814103 -0.016259057 0.043147266 0.008810191 0.03334008 -0.05315218 -0.06592258
00000000: 85bd 083d 2c36 cc3d c7b4 9a3d 5426 8dbd
00000010: fb12 f5bc 816b 453d 6a41 7d3d b8c5 a53c
00000020: 9ce1 1d3d d725 c33d ad63 01bb 4bbe 343d
00000030: 14db 43bd 36c0 a2bd 09b3 39bd c8a8 913d
00000040: 0e94 a03c eb19 183d 1883 223c 2957 1fbb
00000050: fb3d 253d 464d 113d f312 53bd 56ed 113c
00000060: 0977 0abd d2c6 25bd b623 78bc 53e8 0d3c
00000070: 225f 2c3d cff8 793b 369e 0fbd a9d1 413b
00000080: c3c7 d23c 82eb c63d 721f 09bd 4075 8d3d
00000090: 03ce 62bd d877 98ba 0bdf 9a3c c5cb d23a
000000a0: 16d2 bbb9 d261 95bc 9e45 c83c de43 11b9
000000b0: eb26 aa3d 2c10 ebbb b921 8c3c f6b5 b0bd
000000c0: c6f9 9d3c acbe f3bc 5df5 91bb 50eb e53c
000000d0: 863f a53c f8d2 a43d eaa3 813b 6633 b33c
000000e0: 475b 18bd fed2 ee3c d5fa c6bd d99b 5cbd
000000f0: 3d09 68bd e133 17bc b382 d23c 4516 31b9
00000100: bcaa 2bbc a634 25bb b47e 053d 7fce 3abc
00000110: 03b1 e2bc e657 f0bc 7747 02bc b4e6 0f3d
00000120: fd48 253d dd04 8ebb af31 57ba dcdf ccbd
00000130: d429 01be e604 11bd a99b fbbc dd7c aa3c
00000140: 5e75 aebd 2bf1 0e3e 6ea5 873c 7641 923c
00000150: 119e febd 51be b8bc df68 25ba f12c 45bd
00000160: 43c5 663d 097b e6bd e4dd a6bd 7b8a 4c3d
00000170: a3d7 583c 35fe dcbb 7fb1 8bbd f65a 57bd
00000180: ffaa d5bd 3242 88bd cab2 763d 0bc0 b0bb
00000190: 70d2 febc 6c0e 9fbc b0bc e4bc 7283 10bb
000001a0: 292d ed3b 1651 17bd a94c 9cbd 0c81 c4bc
000001b0: 5c9a b2bc d524 75ba 34ae dfbb 4111 923d
000001c0: 7a1e fb3b cc03 f9bc ea86 c4bd 2d52 b6bd
000001d0: 50c9 35bd 4dca 3abd 71e9 33bd 9b5d 56bd
000001e0: fe3b 1a3c 71a0 523d 3eb5 d93c e526 8dbd
000001f0: 086d c53d 33b3 b0bc 44b1 a03d 7195 b3bd
00000200: 2567 ea3c ceee fdbc 26ef 7abd 204d afbd
00000210: e238 22bd a587 8e3c 1536 96bc 0540 083d
00000220: f978 1abd 3366 f63d ca8b 033b 1593 b2bc
00000230: 6336 2abd 7096 6a3b 5cef ed3c e774 6c3c
00000240: 3aee e7bc 29ed 8b3d fd4d 61bd 7335 823d
00000250: a628 293c 6ae9 573c 298b a9bd 825f d8bc
00000260: 5a9b be3b decc cabb 8c0a 1cbc 71f9 1dbd
00000270: 56c6 c9bc a0c4 b6bd 41c8 14bc 8a26 9c3d
00000280: 3c71 9e3c 0468 b2bc bebd 1ebd ee04 0c3e
00000290: b2ca c9bd afde c93d 9e97 d13d d1ae 34bc
000002a0: 1226 d83c 6056 313d e82f 84bd 5ea2 c7bc
000002b0: e630 f0bc 3d84 c9bd 642d d63c 593f 86b9
000002c0: 5642 3f3d 11da 6cbc 80ec c4bc 5ba9 98bd
000002d0: e680 c3bd 0b71 b9bd 4023 a9bd fcb3 173d
000002e0: 5439 833b eeb8 88bd ae82 6abb 274d 913c
000002f0: bf41 3c3b 8ed4 09be ac7e 4e3c aa5f d93c
00000300: 9945 3d3d b4ef 5abd 847e 8dbb 1cde 60bd
00000310: 4eed 55bd 7162 be3c 7e00 903a 65aa 9f3d
00000320: 27c9 26bc b590 c9bc ee8f 9ebc 3e78 b1bb
00000330: 3fe8 01b9 bd08 213b 35c8 babc 1049 19bd
00000340: d9a1 e7bb dcda ac3d 695c 78bd fd7c 7abd
00000350: 9b7e 6c3d 217b 31bd 99aa b23d d396 cd3d
00000360: f769 bb3c 85d0 8d3d 7c0e 803d 93c7 7d3d
00000370: 72a0 7fbb 1906 373c f377 5a3d b2eb d73d
00000380: 3e0d 99bc 30c6 0c3c 1b1a d8bc 4fe0 073c
00000390: 54e2 383d 89ab 8dbd 0a36 923d 425f c63d
000003a0: 5f5c 923c f04c 5d3d 1afd 30bd ad9a b9bd
000003b0: 14f4 3e3c 3441 543d 36e2 a0bd 0caf e43b
000003c0: ae9b 0a3b 52a8 f2bc a477 a8bd b36a 57bb
000003d0: 554b 8a3d bf92 e73d 0657 a83d 86ac a03b
000003e0: 1551 8e3d 72ba a6bd b731 85bc 30bb 303d
000003f0: 9f58 103c 9c8f 083d 1ab6 59bd 6b02 87bd

layer2.bias f4 [50]
0.0565261 0.06327845 -0.0315957 0.010588369 0.061794057 0.014025111 -0.053031087 -0.061736748
-0.017527197 -0.049274456 0.06527304 -0.027761392 -0.043891445 -0.010940103 -0.0014955646 0.01345293
0.053904988 0.03274092 0.011751872 0.039103385 0.06530293 0.011385736 -0.06374532 -0.004433649
0.0025156797 -0.038326323 -0.0003038321 0.04583591 0.052414622 0.03846621 -0.06484324 -0.040587097
0.0350041 -0.032072004 0.014514614 0.0026672722 0.035237268 0.06438076 0.044390604 -0.054638617
0.048002124 -0.033752117 -0.052880123 0.01316024 0.04058605 0.013458747 -0.05227861 0.054654233
0.02829516 0.044182863
00000000: e987 673d 2298 813d 7e6a 01bd d77a 2d3c
00000010: c41b 7d3d 94c9 653c 2037 59bd acdf 7cbd
00000020: 3295 8fbc 03d4 49bd dfad 853d dc6b e3bc
00000030: 84c7 33bd 1e3e 33bc d206 c4ba ae69 5c3c
00000040: 7acb 5c3d 581b 063d ec8a 403c df2a 203d
00000050: 8bbd 853d 3d8b 3a3c e88c 82bd 2548 91bb
00000060: 1ade 243b 10fc 1cbd a74b 9fb9 6fbe 3b3d
00000070: b7b0 563d bf8e 1d3d 88cc 84bd a83e 26bd
00000080: 7660 0f3d ef5d 03bd b4ce 6d3c 67cd 2e3b
00000090: f454 103d 0fda 833d ecd2 353d becc 5fbd
000000a0: e09d 443d a93f 0abd d498 58bd 0c9e 573c
000000b0: 8f3d 263d 1482 5c3c 1922 56bd 1edd 5f3d
000000c0: 40cb e73c 17f9 343d

layer4.weight f4 [25, 50, 3, 3]
0.087755635 0.036543913 0.03706685 0.055773396 -0.015407358 0.060378175 0.015482519 0.07731236
0.044016752 0.036360666 -0.008167328 0.102355435 -0.03204915 -0.022094375 -0.03580765 -0.040509015
0.060032085 -0.045679532 -0.018352 -0.035882507 -0.098738685 -0.010413035 -0.039139643 -9.5723e-05
-0.046221312 0.02140604 -0.012627643 -0.050769307 -0.07974037 0.0036895534 0.014738694 0.07736856
0.032447048 0.058513105 0.015006173 -0.016644277 -0.014751714 0.008572987 0.004143188 -0.078740634
0.03492036 0.063119516 0.083830915 0.039370127 -0.021882936 0.018237647 0.024992734 -0.006520292
0.003367115 0.029294647 -0.06389429 0.04482984 0.024488512 -0.06776765 0.029794296 0.014697668
-0.044494905 -0.046457075 -0.0050704586 0.014912064 0.0033330135 -0.12775414 -0.05726128 -0.03913266
0.06864152 0.00061115297 -0.05267197 0.04211767 0.06967181 0.024555134 -0.011670029 0.010582291
0.010891452 0.06037065 0.040723085 -0.040938277 -0.0054527684 -0.042604793 0.008378898 0.04617268
-0.095808566 -0.030770173 -0.07640225 -0.000550297 -0.046093788 -0.005083562 0.11645997 -0.05514636
0.020612292 0.09363538 0.029265756 0.061155915 0.034035023 0.049510993 0.04952555 -0.05926379
-0.0004952822 0.010438236 0.03910764 0.013319358 0.012774922 -0.007971911 0.1048353 0.06317206
0.03612444 -0.005176806 -0.06194906 -0.030449828 -0.015880767 -0.035475396 -0.021417389 -0.020889813
0.068607025 0.00529742 0.102404535 0.12680204 -0.06834078 -0.044543196 0.13154505 0.025748668
0.036766835 0.07303669 0.04401998 0.06908077 -0.04422584 0.06109077 -0.028778257 -0.055749368
0.023990601 -0.017700622 -0.03168537 0.10719666 -0.032002177 -0.064779885 0.102558374 -0.059646405
0.010405615 0.026336718 -0.042894688 0.09071649 -0.027535489 -0.047733095 -0.04570636 0.07952952
-0.046622094 -0.08020729 -0.09215147 0.071286716 0.053081263 0.003144867 -0.05265652 0.03892901
-0.052173074 -0.015738558 0.00073327794 -0.07401585 0.025990292 0.012107943 0.09293096 0.04052307
0.03601101 -0.10056037 0.0584971 0.08466344 0.050910857 -0.023446366 -0.06910727 0.0685877
0.01570421 0.0791129 0.016093474 0.06465757 0.02326549 0.04143707 -0.04140667 -0.047283333
0.037685476 -0.05042136 0.052597813 -0.052376073 -0.00545418 -0.09656594 -0.04356665 -0.079013795
-0.019378178 -0.022319514 -0.020739077 -0.06542857 -0.020607313 0.12990372 0.052244954 0.14974704
-0.0066643218 -0.09656584 -0.0066473526 -0.0030794248 -0.10703859 0.103808545 -0.044993494 -0.023405185
-0.0074782697 -0.019546608 -0.01766413 -0.060507268 0.041164428 0.034220807 -0.059251845 -0.00469251
0.015538614 0.045873508 -0.053376444 -0.0069024516 0.05937822 0.02102993 0.055178385 -0.026115883
0.00086741504 0.037406467 0.01134081 -0.008180708 -0.07647417 0.008463788 -0.04538039 0.08536926
-0.05052041 0.041607868 -0.018404234 -0.06547933 -0.027777156 0.04994202 -0.0050173947 3.1770658e-05
-0.008842383 0.06729862 -0.019335115 0.036053132 -0.03658976 -0.05854305 -0.08673413 -0.007747877
-0.09605086 0.09441944 -0.12622806 0.03765408 0.03133349 -0.055550583 0.054074775 0.038392548
0.006255813 -0.07161587 0.07146612 0.03128403 -0.07451413 -0.0029922803 0.039859332 -0.023270123
00000000: 3ab9 b33d 12af 153d 69d3 173d a572 643d
00000010: 256f 7cbc 1b4f 773d 64aa 7d3c f155 9e3d
00000020: e94a 343d ecee 143d 42d0 05bc ba9f d13d
00000030: f845 03bd 43ff b4bc 0bab 12bd c8ec 25bd
00000040: 34e4 753d 761a 3bbd ef56 96bc 89f9 12bd
00000050: 8237 cabd 6f9b 2abc e450 20bd e5be c8b8
00000060: 8f52 3dbd b85b af3c 2ce4 4ebc 7af3 4fbd
00000070: eb4e a3bd 6fcc 713b 907a 713c 6873 9e3d
00000080: 32e7 043d 70ab 6f3d 74dc 753c 9459 88bc
00000090: 2cb1 71bc b775 0c3c 94c3 873b c542 a1bd
000000a0: a708 0f3d ce44 813d 8baf ab3d 9242 213d
000000b0: d843 b3bc 1e67 953c 90bd cc3c 2ca8 d5bb
000000c0: d1aa 5c3b 54fb ef3c 02db 82bd 7f9f 373d
000000d0: 229c c83c c4c9 8abd 2b13 f43c 7dce 703c
000000e0: 4a40 36bd c649 3ebd 1726 a6bb bb51 743c
000000f0: b06e 5a3b fbd1 02be ce8a 6abd 9149 20bd
00000100: ed93 8c3d c835 203a 90be 57bd 9483 2c3d
00000110: 18b0 8e3d d927 c93c a633 3fbc 5861 2d3c
00000120: 1072 323c 3747 773d 40cd 263d e5ae 27bd
00000130: 23ad b2bb 5d82 2ebd a547 093c 901f 3d3d
00000140: 4837 c4bd bb11 fcbc c878 9cbd ce41 10ba
00000150: d7cc 3cbd 0294 a6bb 9182 ee3d 26e1 61bd
00000160: 1cdb a83c e8c3 bf3d bdbe ef3c a07e 7a3d
00000170: 4f68 0b3d 0acc 4a3d 4edb 4a3d 96be 72bd
00000180: d3d5 01ba 2305 2b3c 552f 203d 7039 5a3c
00000190: e84d 513c 9e9c 02bc e4b3 d63d 5a60 813d
000001a0: 39f7 133d 32a2 a9bb 4cbe 7dbd eb71 f9bc
000001b0: 6218 82bc a64e 11bd 8573 afbc 1d21 abbc
000001c0: d781 8c3d fb95 ad3b 78b9 d13d 65d8 013e
000001d0: 40f6 8bbd ed72 36bd bfb3 063e dfee d23c
000001e0: d298 163d 4394 953d 4b4e 343d 387a 8d3d
000001f0: 2826 35bd 513a 7a3d 61c0 ebbc 7359 64bd
00000200: f087 c43c e500 91bc 85c8 01bd ec89 db3d
00000210: b714 03bd 51ab 84bd 200a d23d ca4f 74bd
00000220: 507c 2a3c 1ac0 d73c 57b2 2fbd 91c9 b93d
00000230: 1b92 e1bc c783 43bd 9836 3bbd 5fe0 a23d
00000240: cff6 3ebd b843 a4bd e9b9 bcbd c5fe 913d
00000250: bd6b 593d 1d1a 4e3b 5dae 57bd 0774 1f3d
00000260: 6fb3 55bd 26ee 80bc 7339 403a 9f95 97bd
00000270: 98e9 d43c 6560 463c 9652 be3d 85fb 253d
00000280: 4880 133d 98f2 cdbd a89a 6f3d 0764 ad3d
00000290: e787 503d 9812 c0bc 1d88 8dbd b577 8c3d
000002a0: 1ea6 803c f205 a23d 76d6 833c 306b 843d
000002b0: 4597 be3c ebb9 293d 0a9a 29bd 2bac 41bd
000002c0: 165c 1a3d a186 4ebd ce70 573d 4b88 56bd
000002d0: fab8 b2bb 5dc4 c5bd f272 32bd fcd1 a1bd
000002e0: fcbe 9ebc 6ad7 b6bc ffe4 a9bc 6aff 85bd
000002f0: abd0 a8bc 7b05 053e cefe 553d 4a57 193e
00000300: 6260 dabb 50c4 c5bd 09d2 d9bb 2dd0 49bb
00000310: 0c37 dbbd 9399 d43d 194b 38bd 3bbc bfbc
00000320: 460c f5bb 3520 a0bc 5eb4 90bc 78d6 77bd
00000330: 089c 283d 1e2b 0c3d 10b2 72bd a0c3 99bb
00000340: ac95 7e3c dce5 3b3d 42a1 5abd f62d e2bb
00000350: 9436 733d f646 ac3c bb02 623d faf0 d5bc
00000360: 3d63 633a 8637 193d cece 393c 6008 06bc
00000370: 7d9e 9cbd b3ab 0a3c cae0 39bd 14d6 ae3d
00000380: 7dee 4ebd 036d 2a3d 7ac4 96bc 071a 86bd
00000390: eb8c e3bc 0190 4c3d f568 a4bb 7c41 0538
000003a0: a4df 10bc dcd3 893d ad64 9ebc 73ac 133d
000003b0: 25df 15bd d6ca 6fbd aaa1 b1bd e7e1 fdbb
000003c0: 50b6 c4bd fb5e c13d ee41 01be 2a3b 1a3d
000003d0: 8c57 003d 0289 63bd 837d 5d3d 8141 1d3d
000003e0: 90fd cc3b 57ab 92bd d45c 923d af23 003d
000003f0: dd9a 98bd 221a 44bb 8a43 233d fca0 bebc

layer4.bias f4 [25]
0.0323049 -0.020951983 -0.019251775 -0.011914373 -0.021454139 -0.013476317 0.026776362 0.00070249964
0.0010211659 -0.013556152 0.017326 -0.02131247 -0.017839523 0.025575353 -0.0040166182 0.023773335
0.02160015 -0.01024663 -0.004672821 0.034841742 0.0011958468 0.007046865 0.01088919 0.027795264
-0.023830581
00000000: 2552 043d 7ea3 abbc e6b5 9dbc 8134 43bc
00000010: 97c0 afbc c5cb 5cbc 1a5a db3c f427 383a
00000020: a4d8 853a 9f1a 5ebc 41ef 8d3c 7d97 aebc
00000030: 3124 92bc 6783 d13c d69d 83bb 4cc0 c23c
00000040: ccf2 b03c 7be1 27bc 771e 99bb 37b6 0e3d
00000050: f6bd 9c3a 63e9 e63b 9368 323c e5b2 e33c
00000060: 5a38 c3bc

exp_avg f4 [25, 1, 3, 3]
-32378.809 -27156.727 -17062.125 -46901.92 -43529.438 -33323.727 -52666.605 -51256.734
-42774.242 -4131.505 -5591.98 -6760.002 221.3706 1194.5544 2830.3433 5120.1294
7630.813 11055.451 11311.89 18695.717 26542.598 22537.137 30266.297 37893.25
23539.646 31322.47 38603.58 -23399.312 -32383.918 -36876.5 -16773.373 -25178.8
-29145.256 -8942.405 -15859.518 -19855.477 3474.5376 4701.1084 3636.083 23277.586
19672.86 13326.467 38971.945 31650.11 19815.793 24500.186 25714.742 20607.473
48432.1 47731.46 38240.75 60249.57 56765.33 44192.93 52286.875 57020.836
47849.85 65160.46 69620.016 59996.117 62430.43 68127.195 58616.105 29757.553
30987.582 21069.896 51921.11 53663.164 41725.336 65276.53 67655.61 53997.43
41735.652 42938.45 34881.184 57366.703 58140.59 49036.156 63729.86 64814.766
55226.664 27633.414 34992.477 28299.996 44237.55 52501.457 45004.11 50748.305
59360.64 51240.992 24840.508 31699.467 31539.75 43255.08 52711.86 52457.0
53602.15 64210.72 63533.547 46156.23 55448.516 49754.4 54954.938 65529.03
58839.98 49589.223 60558.66 53728.844 17271.848 19502.795 17966.125 22723.09
23632.508 21479.82 22870.168 23684.52 21006.14 20171.857 21453.354 16421.004
13398.984 14582.16 9211.651 1795.0879 2204.5105 -2688.944 73415.914 64148.336
38219.73 87906.75 81667.375 55235.047 87002.734 83552.48 61044.383 38542.195
42365.426 36019.156 56391.246 58278.4 48922.23 63640.78 63210.758 51653.23
15047.975 10815.211 3002.4424 17917.719 14132.549 6558.281 16447.84 14680.979
8368.126 -37111.57 -32627.996 -15062.703 -43918.84 -39034.1 -20160.49 -41970.406
-36698.164 -18930.951 -22153.48 -30031.65 -28065.055 -41224.117 -50822.582 -48213.96
-50882.043 -60471.477 -57386.44 -9878.311 -25729.371 -33569.906 -27588.729 -43527.125
-49933.797 -37457.824 -52444.52 -56865.973 32634.197 32291.777 23372.266 43343.797
41539.008 29899.797 43746.164 39821.07 27056.613 -2962.821 -9410.802 -12571.127
-10289.228 -15216.688 -17155.592 -13873.848 -17709.293 -17797.447 26653.402 38730.03
43559.254 45804.375 55852.805 56535.09 57409.215 63464.484 59893.234 -18455.07
-31129.691 -40215.25 -29038.133 -43776.32 -51955.17 -30116.836 -44672.484 -51494.977
-40891.06 -40624.934 -31308.002 -61395.29 -61494.164 -51196.61 -72774.516 -73893.82
-63736.066
00000000: 9ef5 fcc6 7429 d4c6 404c 85c6 ec35 37c7
00000010: 7009 2ac7 ba2b 02c7 9bba 4dc7 bc38 48c7
00000020: 3e16 27c7 0a1c 81c5 d7bf aec5 0440 d3c5
00000030: e05e 5d43 be51 9544 7ee5 3045 0901 a045
00000040: 8176 ee45 cebd 2c46 8fbf 3046 6f0f 9246
00000050: 325d cf46 4612 b046 9874 ec46 4005 1447
00000060: 4be7 b746 f1b4 f446 94cb 1647 a0ce b6c6
00000070: d6ff fcc6 800c 10c7 bf0a 83c6 9ab5 c4c6
00000080: 83b2 e3c6 9fb9 0bc6 12ce 77c6 f41e 9bc6
00000090: 9a28 5945 dee8 9245 5441 6345 2cdb b546
000000a0: b8b1 9946 de39 5046 f23b 1847 3844 f746
000000b0: 96cf 9a46 5f68 bf46 7ce5 c846 f2fe a046
000000c0: 1a30 3d47 7673 3a47 c060 1547 9259 6b47
000000d0: 54bd 5d47 eea0 2c47 e03e 4c47 d6bc 5e47
000000e0: dae9 3a47 7688 7e47 02fa 8747 1e5c 6a47
000000f0: 6ede 7347 990f 8547 1bf8 6447 1b7b e846
00000100: 2a17 f246 cb9b a446 1cd1 4a47 2a9f 5147
00000110: 56fd 2247 88fc 7e47 ce23 8447 6eed 5247
00000120: a707 2347 73ba 2747 2f41 0847 b416 6047
00000130: 971c 6347 288c 3f47 dcf1 7847 c42e 7d47
00000140: aaba 5747 d4e2 d746 7ab0 0847 fe17 dd46
00000150: 8dcd 2c47 7515 4d47 1ccc 2f47 4e3c 4647
00000160: a4e0 6747 fe28 4847 0411 c246 efa6 f746
00000170: 8067 f646 14f7 2847 dce7 4d47 00e9 4c47
00000180: 2662 5147 b8d2 7a47 8c2d 7847 3b4c 3447
00000190: 8498 5847 665a 4247 f0aa 5647 08f9 7f47
000001a0: fbd7 6547 39b5 4147 a98e 6c47 d8e0 5147
000001b0: b2ef 8646 975d 9846 405c 8c46 2e86 b146
000001c0: 04a1 b846 a4cf a746 56ac b246 0a09 b946
000001d0: 481c a446 b797 9d46 b59a a746 024a 8046
000001e0: f05b 5146 a4d8 6346 9bee 0f46 d062 e044
000001f0: 2bc8 0945 1b0f 28c5 f563 8f47 5694 7a47
00000200: bb4b 1547 60b1 ab47 b081 9f47 0cc3 5747
00000210: 5eed a947 3d30 a347 6274 6e47 328e 1647
00000220: 6d7d 2547 28b3 0c47 3f47 5c47 66a6 6347
00000230: 3b1a 3f47 c898 7847 c2ea 7647 3bc5 4947
00000240: e61f 6b46 d8fc 2846 14a7 3b45 70fb 8b46
00000250: 32d2 5c46 3ff2 cc45 ae7f 8046 ea63 6546
00000260: 81c0 0246 92f7 10c7 fee7 fec6 d05a 6bc6
00000270: d78e 2bc7 1a7a 18c7 fb80 9dc6 68f2 23c7
00000280: 2a5a 0fc7 e7e5 93c6 f612 adc6 4d9f eac6
00000290: 1c42 dbc6 1e08 21c7 9586 46c7 f655 3cc7
000002a0: 0bc2 46c7 7a37 6cc7 712a 60c7 3e59 1ac6
000002b0: be02 c9c6 e821 03c7 7589 d7c6 2007 2ac7
000002c0: cc0d 43c7 d351 12c7 85dc 4cc7 f921 5ec7
000002d0: 65f4 fe46 8e47 fc46 8898 b646 cc4f 2947
000002e0: 0243 2247 9897 e946 2ae2 2a47 128d 1b47
000002f0: 3a61 d346 232d 39c5 350b 13c6 826c 44c6
00000300: e9c4 20c6 c1c2 6dc6 2f07 86c6 64c7 58c6
00000310: 965a 8ac6 e50a 8bc6 ce3a d046 084a 1747
00000320: 4127 2a47 60ec 3247 ce2c 5a47 17d7 5c47
00000330: 3741 6047 7ce8 7747 3cf5 6947 242e 90c6
00000340: 6233 f3c6 4017 1dc7 44dc e2c6 5200 2bc7
00000350: 2cf3 4ac7 ac49 ebc6 7c80 2ec7 fa26 49c7
00000360: 0fbb 1fc7 efb0 1ec7 0198 f4c6 4ad3 6fc7
00000370: 2a36 70c7 9cfc 47c7 4223 8ec7 e952 90c7
00000380: 11f8 78c7

exp_avg_sq f4 [25, 1, 3, 3]
4.62678e+09 4.5877934e+09 3.9577044e+09 5.9812705e+09 5.930349e+09 5.011992e+09 6.392599e+09 6.3778463e+09
5.393603e+09 2.6308147e+09 2.8631066e+09 2.7551716e+09 2.6461315e+09 2.935225e+09 2.8478856e+09 2.406347e+09
2.7078444e+09 2.6706296e+09 6.0409503e+09 6.966476e+09 6.9723776e+09 5.8722637e+09 7.058298e+09 7.35098e+09
5.2484055e+09 6.4897736e+09 6.951396e+09 4.6157435e+09 6.5729997e+09 7.8790026e+09 3.7903263e+09 5.4404664e+09
6.57454e+09 2.799196e+09 3.9917606e+09 4.8666875e+09 7.045899e+08 4.627029e+08 3.0972096e+08 9.6071066e+08
6.60878e+08 4.039383e+08 1.3069352e+09 8.73151e+08 4.61595e+08 7.519818e+09 6.3814216e+09 4.6452634e+09
9.237488e+09 7.94205e+09 5.7219123e+09 9.719877e+09 8.297884e+09 5.9166566e+09 7.1444065e+09 7.166901e+09
5.6366884e+09 1.0068146e+10 1.0083752e+10 8.040877e+09 1.0935022e+10 1.1041543e+10 8.878076e+09 3.6665352e+09
3.7956984e+09 3.1651776e+09 5.795537e+09 5.9566167e+09 4.800921e+09 7.470453e+09 7.6109225e+09 5.988593e+09
1.3601836e+09 1.4854019e+09 1.2731163e+09 2.8247793e+09 2.7464717e+09 2.1347055e+09 4.2955633e+09 4.0174833e+09
3.0146511e+09 7.65882e+09 8.817125e+09 8.3693937e+09 1.1502372e+10 1.3442173e+10 1.2853178e+10 1.4593392e+10
1.7163411e+10 1.6542762e+10 1.1236371e+09 1.2482335e+09 1.2323904e+09 2.6843128e+09 3.1833984e+09 3.1255644e+09
4.473713e+09 5.331341e+09 5.203852e+09 2.00951e+10 2.037388e+10 1.7176011e+10 2.0992442e+10 2.1628344e+10
1.8308626e+10 1.8062352e+10 1.88056e+10 1.5973832e+10 1.8864182e+09 9.455795e+08 4.732778e+08 3.6724388e+09
2.1515315e+09 9.509479e+08 5.223055e+09 3.4597427e+09 1.7413202e+09 8.310714e+08 9.7216896e+08 9.719525e+08
7.5643955e+08 8.935903e+08 9.246792e+08 5.9658976e+08 7.2965325e+08 8.3599706e+08 1.2972628e+10 1.1204142e+10
7.429928e+09 1.6271901e+10 1.4597658e+10 9.990085e+09 1.6520923e+10 1.5267444e+10 1.0934116e+10 3.0996249e+10
2.6880668e+10 1.9968307e+10 3.3790478e+10 2.94066e+10 2.1858636e+10 3.2269726e+10 2.8061649e+10 2.08876e+10
5.0209315e+08 5.2660714e+08 4.9383677e+08 5.169381e+08 5.370378e+08 4.8994154e+08 4.228741e+08 4.5463594e+08
4.1380797e+08 2.1226913e+09 2.1961418e+09 1.7871028e+09 2.5225503e+09 2.5461978e+09 1.9988954e+09 2.3632696e+09
2.3202324e+09 1.8206513e+09 9.129201e+09 1.0358855e+10 1.0184027e+10 1.1797763e+10 1.3860776e+10 1.3802711e+10
1.3435912e+10 1.6083241e+10 1.6214456e+10 2.3652626e+09 3.595769e+09 4.266355e+09 2.7590065e+09 4.2878945e+09
4.95374e+09 3.0501788e+09 4.5306424e+09 4.9619907e+09 4.575775e+09 5.1697725e+09 4.884022e+09 6.422648e+09
7.147097e+09 6.6917176e+09 7.1745654e+09 7.864232e+09 7.4034744e+09 6.829103e+08 8.4880864e+08 9.4487763e+08
6.476698e+08 7.8800646e+08 8.661499e+08 5.8271494e+08 6.693977e+08 7.053439e+08 4.767172e+09 5.683535e+09
5.7061007e+09 6.4159857e+09 7.398189e+09 7.0725673e+09 7.340126e+09 7.9627387e+09 7.1841367e+09 8.457881e+09
9.455804e+09 9.269966e+09 9.708137e+09 1.0909635e+10 1.0497039e+10 9.22388e+09 1.0265158e+10 9.625513e+09
1.922585e+10 1.7390698e+10 1.3155953e+10 2.4306434e+10 2.270129e+10 1.777217e+10 2.6195046e+10 2.5181174e+10
2.035563e+10
00000000: 88e3 894f 16ba 884f c7e5 6b4f 7941 b24f
00000010: f9bc b04f 775e 954f a983 be4f 1b13 be4f
00000020: edbd a04f 0ccf 1c4f 8aa7 2a4f 9538 244f
00000030: c3b8 1d4f fbf3 2e4f 49bf 294f f16d 0f4f
00000040: 6d66 214f 932e 1f4f cb08 b44f fe9d cf4f
00000050: 05cb cf4f d101 af4f 8a5a d24f 8713 db4f
00000060: 286a 9c4f 0b69 c14f f12a cf4f 548f 894f
00000070: 02e4 c34f 05d0 ea4f caeb 614f 7723 a24f
00000080: c2ef c34f 57d8 264f 6fed 6d4f e109 914f
00000090: c1fc 274e 4aa2 dc4d bcaf 934d 200d 654e
000000a0: cb90 1d4e e09c c04d 7fcc 9b4e e82c 504e
000000b0: 0c1b dc4d a91b e04f 622e be4f 8c70 8a4f
000000c0: 38a6 0950 08b1 ec4f ba86 aa4f 63d6 1050
000000d0: d54b f74f 8254 b04f 7feb d44f 1e97 d54f
000000e0: 85fc a74f ee06 1650 7642 1650 06a3 ef4f
000000f0: ccf1 2250 2588 2450 2c4b 0450 e38a 5a4f
00000100: c33d 624f c7a8 3c4f 70b8 ac4f 6185 b14f
00000110: 1f14 8f4f 09a3 de4f bbd2 e24f 5779 b24f
00000120: 8225 a24e de12 b14e 6dc4 974e b65e 284f
00000130: d5b3 234f 0b7a fe4e 8c04 804f ee75 6f4f
00000140: edaf 334f 2940 e44f aa62 0350 686d f94f
00000150: 1166 2b50 d24d 4850 fc86 3f50 5f75 5950
00000160: 38c1 7f50 a181 7650 aff2 854e 10cd 944e
00000170: 92e9 924e 5dff 1f4f cebe 3d4f 544c 3a4f
00000180: b953 854f e7e2 9e4f 3d16 9b4f 5db8 9550
00000190: 18cc 9750 48f1 7f50 e867 9c50 cb24 a150
000001a0: ef68 8850 3493 8650 d61c 8c50 5507 6e50
000001b0: eae0 e04e 9871 614e 2bad e14d f8e4 5a4f
000001c0: c43d 004f 41b9 624e bfa8 9b4f 7c37 4e4f
000001d0: e094 cf4e 9324 464e 7cc8 674e 46bb 674e
000001e0: 6859 344e 6c0c 554e f075 5c4e f33c 0e4e
000001f0: 80f6 2d4e 3651 474e a64e 4150 69f4 2650
00000200: da6d dd4f 6078 7250 a585 5950 26dd 1450
00000210: 522e 7650 ad80 6350 58ee 2250 a7f0 e650
00000220: ce46 c850 86c6 9450 39c2 fb50 a318 db50
00000230: 0adc a250 9e6d f050 5913 d150 ef9f 9b50
00000240: ab6a ef4d 191b fb4d cf7a eb4d cc7e f64d
00000250: 300a 004e 519f e94d 60a4 c94d 8dc9 d84d
00000260: ab51 c54d 660b fd4e 77e6 024f 0d0a d54e
00000270: 105b 164f e5c3 174f 7249 ee4e a2dc 0c4f
00000280: f04b 0a4f de09 d94e 2309 0850 e55b 1a50
00000290: fbc0 1750 e5cc 2f50 aa8a 4e50 2aad 4d50
000002a0: f035 4850 b2a8 6f50 3e9d 7150 0bfb 0c4f
000002b0: 1553 564f 694b 7e4f 1973 244f 1494 7f4f
000002c0: 09a2 934f 09ce 354f 0f06 874f fce0 934f
000002d0: 655e 884f 3c12 9a4f 218e 914f ea68 bf4f
000002e0: 0600 d54f c16d c74f 97d1 d54f 545f ea4f
000002f0: 07a4 dc4f 89d1 224e 2b5f 4a4e c146 614e
00000300: a16a 1a4e 19e0 3b4e 9881 4e4e 19ee 0a4e
00000310: cb98 1f4e c62a 284e a312 8e4f ee61 a94f
00000320: 180e aa4f 1636 bf4f b47b dc4f 68c7 d24f
00000330: b8c0 da4f e04e ed4f 9d1a d64f 8310 fc4f
00000340: 08e7 0c50 1d22 0a50 9ba9 1050 f490 2250
00000350: 076b 1c50 4f72 0950 78f6 1850 6b6e 0f50
00000360: 663e 8f50 2092 8150 fa09 4450 d818 b550
00000370: 4623 a950 b969 8450 162b c350 479d bb50
00000380: 48a9 9750

exp_avg f4 [25]
-37055.5 17530.266 -2556.3271 -16533.836 15399.717 15446.72 42784.15 23759.527
24193.668 -5340.0938 1253.9773 46630.344 22125.787 4888.799 38505.914 7097.7227
20134.93 -14477.568 901.73584 -16827.777 36988.04 -21291.492 26995.346 -31252.148
-24085.082
00000000: 80bf 10c7 88f4 8846 3cc5 1fc5 ac2b 81c6
00000010: de9e 7046 e15a 7146 2620 2747 0e9f b946
00000020: 5603 bd46 c0e0 a6c5 46bf 9c44 5826 3647
00000030: 93db ac46 64c6 9845 ea69 1647 c8cd dd45
00000040: dc4d 9d46 4636 62c6 186f 6144 8e77 83c6
00000050: 0a7c 1047 fc56 a6c6 b1e6 d246 4c28 f4c6
00000060: 2a2a bcc6

exp_avg_sq f4 [25]
7.634858e+08 2.898239e+08 2.047056e+09 8.7732774e+08 3.6838464e+08 9.7534726e+08 2.1371409e+09 1.5485473e+09
3.1825933e+08 3.5997053e+08 2.6120138e+08 2.5013763e+09 8.831111e+08 1.03316384e+09 1.8205997e+09 8.963844e+08
5.4588915e+08 1.038737e+09 4.6927664e+08 3.2730768e+08 8.1226746e+08 6.4039776e+08 7.906606e+08 1.1154682e+09
6.9777626e+08
00000000: 7a07 364e e532 8a4d 3107 f44e d62b 514e
00000010: d4a8 af4d 798a 684e 5dc4 fe4e ea99 b84e
00000020: 04c2 974d b7a5 ab4d de19 794d f917 154f
00000030: d38c 524e 5153 764e 4b08 d94e f6b6 554e
00000040: 6e26 024e 7aa7 774e bfc4 df4d 8d12 9c4d
00000050: dfa8 414e c7ae 184e 1882 3c4e 63f9 844e
00000060: e25c 264e

exp_avg f4 [50, 25, 3, 3]
-7658.647 -8404.777 -4976.759 -10211.83 -11507.088 -8339.59 -10687.984 -12532.211
-9877.613 7552.1284 8016.595 4298.026 9957.52 11049.574 7708.8447 9816.078
11624.119 8957.461 2765.835 3112.898 3783.2866 2945.3296 3602.3452 4532.7754
2754.1548 3700.4019 4784.843 -2962.1357 -1742.395 3440.7354 -5548.508 -4367.3916
817.5014 -5855.7744 -4928.611 -164.97644 306.62952 -592.17847 -1419.7913 34.93396
-684.2953 -1192.8192 -1606.2229 -2087.811 -2251.329 4520.573 5992.4688 7620.123
4969.8945 6854.3125 8681.514 5685.6094 7925.0244 9840.815 7169.1016 6297.841
2124.6704 9647.609 9201.646 5332.125 9260.066 9291.205 5957.257 4366.707
5134.6587 3779.5327 5257.995 6619.5225 5811.104 4627.4873 6655.2334 6626.926
4671.5767 6375.1953 9837.85 3575.5544 6195.8716 10509.055 2920.66 6277.049
11264.098 4000.7659 4980.287 6981.268 3479.8257 5245.488 7911.3975 3541.4517
5955.272 9269.033 1009.992 2874.521 7817.1943 -680.5541 1746.8403 7240.104
-771.45886 2187.3694 7994.0273 5450.96 4844.139 -1054.5916 7899.1484 7674.0186
2087.6255 7340.613 7502.871 2698.561 2455.2456 3372.597 5685.0273 2565.504
3934.8948 6475.2837 3987.0647 5747.608 8568.361 -482.8573 -228.76385 1896.6898
-1230.83 -683.6018 1667.9891 -452.9217 361.36108 2946.1274 5770.4414 9399.289
15201.971 4353.8555 9135.746 15898.807 4294.5503 10093.463 17522.957 4272.909
4453.5547 3144.8164 5754.9785 6093.251 4850.867 6080.9106 6678.7266 5575.421
1088.9503 -217.18127 -6443.9404 2904.567 1447.2549 -4796.8213 1419.7874 -69.66846
-5962.342 -3175.559 -5001.8535 -7138.9326 -2488.8462 -4903.721 -7527.8564 -2058.1384
-4927.5967 -7913.252 -3818.222 -6615.062 -14330.722 -1836.2385 -5554.2246 -13973.512
-2916.2612 -7344.105 -16059.311 -6556.613 -8949.557 -14246.984 -6276.211 -9535.163
-15451.953 -7473.1016 -11535.006 -17788.705 2409.0298 606.803 -4027.2861 3718.9097
2186.6653 -2109.7603 2526.814 1366.6233 -2289.933 -5813.615 -7651.916 -8743.296
-6141.1387 -8705.205 -10263.657 -6307.077 -9410.145 -11409.195 12316.805 13418.503
8444.14 15316.905 17514.094 13372.535 14594.14 17779.312 14845.334 -3130.698
-2900.3687 -831.19824 -4584.5225 -4452.785 -2391.2463 -4971.6577 -5000.877 -3089.455
-3068.8179 -5613.1577 -12854.74 -2059.014 -5092.5127 -12578.854 -4097.7847 -7531.384
-14853.545 9637.423 8174.9463 7075.1895 7624.529 5654.9766 4447.6133 5001.6953
2752.6577 1684.0366 -8511.058 -8657.78 -9107.847 -6591.2124 -6110.547 -6290.5093
-4152.552 -3070.768 -3131.143 -2922.9436 -3597.143 -2630.9187 -1539.5663 -2058.6616
-976.5966 -282.54428 -639.426 487.5735 4489.617 3863.5237 4804.75 4355.5225
00000000: 2d55 efc5 1c53 03c6 1286 9bc5 528f 1fc6
00000010: 5acc 33c6 5c4e 02c6 f0ff 26c6 d8d0 43c6
00000020: 7456 1ac6 0701 ec45 c384 fa45 3550 8645
00000030: 1496 1b46 4ca6 2c46 c2e6 f045 5060 1946
00000040: 7aa0 3546 d8f5 0b46 5cdd 2c45 5e8e 4245
00000050: 9674 6c45 4615 3845 8625 6145 34a6 8d45
00000060: 7a22 2c45 6e46 6745 be86 9545 2c22 39c5
00000070: a4cc d9c4 c40b 5745 1064 adc5 227b 88c5
00000080: 1760 4c44 32fe b6c5 e304 9ac5 f8f9 24c3
00000090: 9450 9943 6c0b 14c4 5279 b1c4 60bc 0b42
000000a0: e612 2bc4 371a 95c4 22c7 c8c4 fa7c 02c5
000000b0: 44b5 0cc5 9644 8d45 c043 bb45 fc20 ee45
000000c0: 284f 9b45 8032 d645 0ea6 0746 e0ac b145
000000d0: 32a8 f745 43c3 1946 d008 e045 bace c445
000000e0: baca 0445 70be 1646 96c6 0f46 00a1 a645
000000f0: 44b0 1046 d22c 1146 0e2a ba45 a875 8845
00000100: 4575 a045 8638 6c45 f64f a445 2edc ce45
00000110: d598 b545 e69b 9045 def9 cf45 6817 cf45
00000120: 9dfc 9145 9039 c745 66b7 1946 df78 5f45
00000130: f99e c145 3834 2446 8f8a 3645 6428 c445
00000140: 6400 3046 410c 7a45 4ca2 9b45 252a da45
00000150: 367d 5945 e7eb a345 2e3b f745 3a57 5d45
00000160: 2d1a ba45 22d4 1046 7d7f 7c44 56a8 3345
00000170: 8e49 f445 7623 2ac4 e45a da44 d540 e245
00000180: 5edd 40c4 e9b5 0845 38d0 f945 ae57 aa45
00000190: 1d61 9745 eed2 83c4 30d9 f645 26d0 ef45
000001a0: 027a 0245 e764 e545 f876 ea45 faa8 2845
000001b0: ee73 1945 8dc9 5245 38a8 b145 1058 2045
000001c0: 51ee 7545 455a ca45 0931 7945 dd9c b345
000001d0: 72e1 0546 bc6d f1c3 8cc3 64c3 1316 ed44
000001e0: 8fda 99c4 84e6 2ac4 a77f d044 fa75 e2c3
000001f0: 38ae b443 0a22 3845 8853 b445 28dd 1246
00000200: e287 6d46 d80e 8845 fcbe 0e46 3a6b 7846
00000210: 6734 8645 dab5 1d46 eae5 8846 4687 8545
00000220: 702c 8b45 108d 4445 d4d7 b345 026a be45
00000230: f096 9745 4907 be45 d0b5 d045 5e3b ae45
00000240: 691e 8844 682e 59c3 865f c9c5 1289 3545
00000250: 28e8 b444 92e6 95c5 3279 b144 4056 8bc2
00000260: bc52 bac5 f278 46c5 d44e 9cc5 7617 dfc5
00000270: 8a8d 1bc5 c53d 99c5 da3e ebc5 37a2 00c5
00000280: c6fc 99c5 044a f7c5 8da3 6ec5 7fb8 cec5
00000290: e3ea 5fc6 a287 e5c4 cc91 adc5 0c56 5ac6
000002a0: 2e44 36c5 d780 e5c5 3eed 7ac6 e7e4 ccc5
000002b0: 3ad6 0bc6 f09b 5ec6 b021 c4c5 a7fc 14c6
000002c0: d06f 71c6 d088 e9c5 063c 34c6 69f9 8ac6
000002d0: 7a90 1645 64b3 1744 94b4 7bc5 8e6e 6845
000002e0: a5aa 0845 2adc 03c5 06ed 1d45 f2d3 aa44
000002f0: ee1e 0fc5 ecac b5c5 541f efc5 2f9d 08c6
00000300: 1ce9 bfc5 d204 08c6 a15e 20c6 9e18 c5c5
00000310: 9408 13c6 c844 32c6 3873 4046 03aa 5146
00000320: 8ff0 0346 9f53 6f46 30d4 8846 24f2 5046
00000330: 8f08 6446 a0e6 8a46 56f5 6746 2bab 43c5
00000340: e645 35c5 b0cc 4fc4 2e44 8fc5 4826 8bc5
00000350: f173 15c5 435d 9bc5 0447 9cc5 4817 41c5
00000360: 16cd 3fc5 4369 afc5 f6da 48c6 39b0 00c5
00000370: 1a24 9fc5 6a8b 44c6 470e 80c5 125b ebc5
00000380: 2e16 68c6 b195 1646 9277 ff45 8419 dd45
00000390: 3b44 ee45 d0b7 b045 e8fc 8a45 904d 9c45
000003a0: 860a 2c45 2c81 d244 3bfc 04c6 1f47 07c6
000003b0: 634f 0ec6 b3f9 cdc5 60f4 bec5 1394 c4c5
000003c0: 6ac4 81c5 4aec 3fc5 4ab2 43c5 19af 36c5
000003d0: 4ad2 60c5 b36e 24c5 1f72 c0c4 96aa 00c5
000003e0: 2f26 74c4 ab45 8dc3 44db 1fc4 68c9 f343
000003f0: f04c 8c45 6178 7145 0026 9645 2e1c 8845

exp_avg_sq f4 [50, 25, 3, 3]
1.331043e+08 1.4028658e+08 1.1431497e+08 1.6123621e+08 1.8368958e+08 1.5464376e+08 1.8024894e+08 2.1719856e+08
1.9250256e+08 1.8703557e+08 2.1313893e+08 2.0160254e+08 2.0958341e+08 2.5172045e+08 2.4072214e+08 2.187291e+08
2.7817523e+08 2.776523e+08 4.7951668e+07 5.636917e+07 6.191161e+07 4.633113e+07 5.7193136e+07 6.680845e+07
4.323448e+07 5.6017372e+07 6.8070184e+07 1.5308444e+07 1.4816084e+07 1.9461228e+07 2.2132476e+07 1.8372656e+07
1.0769506e+07 2.2122162e+07 1.8047942e+07 6.28296e+06 9.601344e+06 2.8714648e+06 2.2086498e+06 1.387995e+07
5.9730935e+06 2.0058408e+06 1.7844366e+07 1.0869324e+07 5.0859135e+06 8.658889e+07 8.879332e+07 8.848864e+07
9.634172e+07 1.062885e+08 1.11501496e+08 1.05038136e+08 1.2326841e+08 1.33544936e+08 4.0994644e+07 3.8808708e+07
2.559456e+07 6.815247e+07 6.794738e+07 4.5723884e+07 7.805164e+07 8.320541e+07 6.2358924e+07 5.0674584e+07
7.067951e+07 8.18317e+07 5.541619e+07 8.105371e+07 9.532436e+07 5.7230196e+07 8.974337e+07 1.11917176e+08
1.3797757e+08 1.81106e+08 2.2638675e+08 1.3029974e+08 1.7966754e+08 2.4000925e+08 1.1919179e+08 1.7358069e+08
2.4805616e+08 1.3455909e+08 1.6334341e+08 1.8252318e+08 1.404112e+08 1.7796957e+08 2.0957086e+08 1.4042126e+08
1.8667589e+08 2.3390661e+08 5.334226e+07 6.786839e+07 9.317104e+07 5.5214636e+07 6.918468e+07 9.635766e+07
5.209095e+07 6.788405e+07 1.0285441e+08 2.4208028e+07 2.366231e+07 1.8113776e+07 4.237409e+07 4.24563e+07
2.0737386e+07 4.6298332e+07 5.0026664e+07 2.8981554e+07 1.046838e+08 9.621156e+07 8.285957e+07 1.2340134e+08
1.2066769e+08 1.11447576e+08 1.348653e+08 1.423629e+08 1.4475755e+08 4.429761e+07 4.8746868e+07 4.5923676e+07
5.760295e+07 6.3999e+07 6.0813056e+07 5.9215364e+07 6.719035e+07 6.766861e+07 4.2438378e+08 5.1313232e+08
5.951118e+08 4.21228e+08 5.3196058e+08 6.497738e+08 4.0602038e+08 5.4187296e+08 6.993885e+08 2.0271748e+07
2.1211106e+07 1.6644609e+07 3.2196024e+07 3.5752716e+07 2.9815836e+07 4.151585e+07 4.7870276e+07 4.111134e+07
1.1131574e+08 9.529674e+07 8.2504104e+07 1.3350722e+08 1.1840071e+08 9.6770296e+07 1.31868296e+08 1.23883336e+08
1.1262963e+08 8.399722e+07 1.0740716e+08 1.2737014e+08 7.9546536e+07 1.0705487e+08 1.3400039e+08 7.264888e+07
1.031303e+08 1.360419e+08 3.615217e+08 3.88317e+08 4.2317162e+08 3.809771e+08 4.2199517e+08 4.7519917e+08
3.7689027e+08 4.4107283e+08 5.3224672e+08 3.5614195e+08 3.7793846e+08 3.9990326e+08 3.7132957e+08 4.158177e+08
4.6668387e+08 3.8029088e+08 4.5349923e+08 5.38808e+08 2.784066e+07 1.9372578e+07 2.3618176e+07 3.264968e+07
2.1094782e+07 1.5506822e+07 2.783142e+07 1.785346e+07 1.1587153e+07 2.0445189e+08 2.3209595e+08 2.3816149e+08
2.0941754e+08 2.5215829e+08 2.7261654e+08 2.0734598e+08 2.6330736e+08 2.978877e+08 3.4733395e+08 4.1354928e+08
3.9932723e+08 4.016801e+08 5.0293174e+08 4.937577e+08 4.247978e+08 5.5788186e+08 5.7519795e+08 4.821316e+06
4.243197e+06 1.4613806e+06 1.0689391e+07 1.0101345e+07 4.0669758e+06 1.4841765e+07 1.4663302e+07 7.1472665e+06
2.1942515e+08 1.9920347e+08 2.0874317e+08 2.4124373e+08 2.2888658e+08 2.421218e+08 2.512969e+08 2.5810763e+08
2.9252362e+08 3.264742e+08 2.4533171e+08 1.6582176e+08 3.091785e+08 2.2391243e+08 1.4662032e+08 2.6402947e+08
1.8914968e+08 1.2480549e+08 5.072785e+08 4.5696806e+08 3.6953168e+08 4.9008022e+08 4.2807968e+08 3.3591075e+08
4.2560733e+08 3.640347e+08 2.8180883e+08 7.812605e+07 7.134435e+07 5.140033e+07 6.581803e+07 5.833162e+07
4.1521704e+07 4.8444216e+07 4.1743424e+07 3.016855e+07 3.3733084e+07 2.6566864e+07 2.6195674e+07 3.9285772e+07
00000000: 56e0 fd4c a7c9 054d db09 da4c 4fc4 194d
00000010: 172e 2f4d d37a 134d 17e6 2b4d fe22 4f4d
00000020: b295 374d fb5e 324d df43 4b4d 5f43 404d
00000030: d3df 474d 300f 704d 0e92 654d a998 504d
00000040: f0a4 844d 1a65 844d cdeb 364c 0408 574c
00000050: 8e2c 6c4c 3ebd 304c ac2c 5a4c a0da 7e4c
00000060: 2ced 244c 77b0 554c 65d5 814c 9c96 694b
00000070: 5413 624b 367a 944b 7edb a84b 182c 8c4b
00000080: 6254 244b 59c7 a84b e3b1 894b a0bd bf4a
00000090: 4081 124b a342 2f4a 27ce 064a 8eca 534b
000000a0: cb48 b64a 86da f449 4724 884b 4cda 254b
000000b0: b335 9b4a bb27 a54c 1d5c a94c 58c7 a84c
000000c0: dbc1 b74c aeba ca4c 17ac d44c 2758 c84c
000000d0: a71d eb4c 7db7 fe4c d561 1c4c 210b 144c
000000e0: 6045 c34b 93fd 814c 6e99 814c 3b6c 2e4c
000000f0: 27df 944c a4b3 9e4c 63e1 6d4c e64e 414c
00000100: 7bcf 864c e214 9c4c 6065 534c 0299 9a4c
00000110: 19d1 b54c dd50 5a4c 012c ab4c 0f77 d54c
00000120: ee95 034d 55b7 2c4d 34e6 574d ec86 f84c
00000130: 2558 2b4d 02e4 644d 1e57 e34c 198a 254d
00000140: 9690 6c4d 5753 004d c3c6 1b4d 5311 2e4d
00000150: 14e8 054d 9ab9 294d c3dc 474d 89ea 054d
00000160: 2b07 324d 1b12 5f4d 0d7c 4b4c dd72 814c
00000170: acb5 b14c 8ba0 524c 95f5 834c a4c9 b74c
00000180: 12b6 464c 827a 814c e12d c44c 4eb1 b84b
00000190: 7387 b44b 7832 8a4b f2a4 214c 3bf5 214c
000001a0: b536 9e4b 379d 304c 2ad6 3e4c 991c dd4b
000001b0: 23ab c74c 4d82 b74c c60a 9e4c 905e eb4c
000001c0: c527 e64c c391 d44c 199e 004d 91c4 074d
000001d0: 330d 0a4d 62fb 284c 5df4 394c 572f 2f4c
000001e0: e2bc 5b4c 0623 744c c0fb 674c 81e3 614c
000001f0: ca27 804c 5011 814c a95c ca4d 39ae f44d
00000200: bee2 0d4e 6fdb c84d 98a8 fd4d 0ceb 1a4e
00000210: 099b c14d 4d31 014e 49bf 264e 42a9 9a4b
00000220: f1d3 a14b 01fa 7d4b dca2 f54b c362 084c
00000230: 0e7a e34b d25e 1e4c 519c 364c cbd3 1c4c
00000240: 6451 d44c 9cc3 b54c 355d 9d4c 12a5 fe4c
00000250: d9d4 e14c 1f93 b84c d184 fb4c e949 ec4c
00000260: f0d2 d64c 4436 a04c e7dc cc4c 74f0 f24c
00000270: 15b9 974c e330 cc4c e195 ff4c 1691 8a4c
00000280: 98b4 c44c 5bbd 014d 1163 ac4d fa29 b94d
00000290: b1c8 c94d fea9 b54d 1539 c94d b697 e24d
000002a0: 1db7 b34d e651 d24d 86cb fd4d 5cd2 a94d
000002b0: 1137 b44d 51b0 be4d 5110 b14d ff46 c64d
000002c0: 3f88 de4d 3a56 b54d cb3e d84d 3b76 004e
000002d0: 4a68 d44b 11cd 934b 4031 b44b e818 f94b
000002e0: bff0 a04b 869d 6c4b 3e56 d44b 0a36 884b
000002f0: 51ce 304b 03fb 424d 0d58 5d4d e520 634d
00000300: 54b7 474d 157a 704d 63fe 814d 94bd 454d
00000310: 061c 7b4d 3f0b 8e4d 2a9f a54d 1732 c54d
00000320: 006a be4d 3789 bf4d 09d1 ef4d 2871 eb4d
00000330: 338f ca4d 6802 054e 4c23 094e 8822 934a
00000340: fa7d 814a 2564 b249 6f1b 234b 6122 1a4b
00000350: 7f3a 784a a577 624b 86be 5f4b 051e da4a
00000360: 9842 514d a9f9 3d4d b012 474d 6511 664d
00000370: 8348 5a4d c4e7 664d c8a7 6f4d 8f26 764d
00000380: 737c 8b4d cfac 9b4d 70f7 694d d423 1e4d
00000390: 846d 934d 1f8a 554d fad3 0b4d 52cc 7b4d
000003a0: 1f63 344d 2e0c ee4c a5e3 f14d 3ce6 d94d
000003b0: d934 b04d 3fb0 e94d d21f cc4d bb2c a04d
000003c0: 05f2 ca4d d495 ad4d 7e60 864d 7c03 954c
000003d0: 1c14 884c a213 444c 6c13 7b4c 7984 5e4c
000003e0: 8a64 1e4c cecc 384c 103d 1f4c f32a e64b
000003f0: 77ae 004c 68b0 ca4b 6ddb c74b 03dd 154c

exp_avg f4 [50]
9992.556 3579.901 -5701.0327 5679.843 19187.014 853.70905 -2748.8503 2722.3738
-6015.6523 -15116.604 -17154.434 -12180.508 -25038.932 5132.1416 -11232.586 14209.463
6374.351 -12358.457 -5050.8384 18242.236 2273.891 -5281.65 2507.3416 2706.5227
941.0846 5227.751 -4529.247 -4192.544 -1176.8845 12824.293 -6201.6987 -14653.834
1643.0796 31056.217 4650.4634 -8121.6914 2047.1407 -6764.081 -7881.3438 8532.044
1495.8917 -2118.6597 -3312.0396 1188.348 -13534.544 -9951.576 4496.7866 -1430.5645
388.40222 -10502.593
00000000: 3922 1c46 6abe 5f45 4328 b2c5 be7e b145
00000010: 07e6 9546 616d 5544 9bcd 2bc5 fb25 2a45
00000020: 38fd bbc5 6a32 6cc6 de04 86c6 0852 3ec6
00000030: dd9d c3c6 2261 a045 5882 2fc6 da05 5e46
00000040: cf32 c745 d419 41c6 b5d6 9dc5 7984 8e46
00000050: 421e 0e45 330d a5c5 77b5 1c45 5d28 2945
00000060: 6a45 6b44 025e a345 fa89 8dc5 5a04 83c5
00000070: 4e1c 93c4 2c61 4846 97cd c1c5 56f7 64c6
00000080: 8c62 cd44 6fa0 f246 b553 9145 88cd fdc5
00000090: 81e4 ff44 a660 d3c5 c04a f6c5 2d50 0546
000000a0: 89fc ba44 8e6a 04c5 a200 4fc5 238b 9444
000000b0: 2d7a 53c6 4e7e 1bc6 4b86 8c45 10d2 b2c4
000000c0: 7c33 c243 5f1a 24c6

exp_avg_sq f4 [50]
4.8308042e+08 1.6475078e+08 2.2104296e+08 9.8955896e+07 6.997239e+08 8.148809e+07 6.1940744e+07 1.1553464e+09
5.7826765e+08 2.4033086e+08 2.79294e+08 8.3368986e+08 6.5992474e+08 1.4305871e+09 5.5048372e+07 3.674476e+08
1.1493883e+08 1.5122502e+08 1.1960335e+09 1.00932717e+09 5.740859e+08 2.879348e+08 1.5462323e+08 1.1376885e+08
1.3343959e+08 1.3352044e+08 1.2056127e+08 1.3991083e+08 1.7389469e+08 6.618396e+08 1.3141278e+08 3.190811e+08
5.897279e+08 1.0250044e+09 2.0034142e+08 2.1355293e+09 3.525096e+08 5.234651e+08 8.975451e+07 6.8276525e+08
2.8917166e+09 2.231264e+08 1.5930688e+08 5.839963e+08 2.1838346e+08 2.2765837e+08 3.3992182e+08 1.7767242e+08
3.3222863e+09 4.718111e+08
00000000: c759 e64d 5c1e 1d4d 91cd 524d 4fbe bc4c
00000010: c2d3 264e 1b6d 9b4c 0249 6c4c 60ba 894e
00000020: a8de 094e 8732 654d 822d 854d 64c4 464e
00000030: 9c56 1d4e 0e8a aa4e 2dfe 514c 7236 af4d
00000040: 7a3a db4c 2c38 104d 0c94 8e4e 71a4 704e
00000050: 6cdf 084e 4a4c 894d d075 134d 32ff d84c
00000060: 0d84 fe4c 87ab fe4c cff3 e54c eb6d 054d
00000070: c2d6 254d 7ccb 1d4e 66a6 fa4c 5426 984d
00000080: 229a 0c4e 4e61 744e 7b0f 3f4d 2f93 fe4e
00000090: f516 a84d 8c9b f94d 7231 ab4c afc8 224e
000000a0: 185c 2c4f 38ca 544d 48ed 174d 4e3c 0b4e
000000b0: 4644 504d a81c 594d 5d16 a24d 0e71 294d
000000c0: 1106 464f 21fa e04d
