models/sigma0.01_step0.0002_lr0.0005/ckpt/model_epoch_150.pth (torch, 282369 bytes, 18 tensors)

layer1.weight f4 [25, 1, 3, 3]
0.039277088 -0.036949594 0.16579115 -0.09833818 -0.041453604 0.18748347 0.074983336 0.034612153
0.029727263 -0.03763327 0.1252529 -0.24494243 -0.06619026 -0.024304947 0.0014905136 -0.008433819
-0.12526697 -0.00076539983 -0.039827734 -0.030242434 0.03491041 0.19375446 -0.06295936 -0.066204645
-0.07502781 -0.16060548 0.06686073 -0.096835926 0.093243 0.010581561 0.08013745 0.0133022955
0.18342973 0.01063405 -0.09270452 -0.09534047 -0.027050078 0.017252931 0.039027102 0.04725055
-0.18221596 0.24686314 -0.10781047 -0.19071768 0.11453598 0.043108236 -0.06472682 -0.10939152
-0.029853603 0.10398661 -0.047954336 0.07455226 -0.09127927 -0.11351864 -0.046322625 -0.018184185
-0.00011511218 0.12607366 -0.24813141 0.083986625 0.04184446 -0.11079316 -0.084959455 0.040109176
0.07489314 -0.072127484 -0.16339517 -0.14101547 -0.034419216 -0.14008841 0.04973885 0.07474506
-0.15139805 -0.04631978 0.06626664 0.057339784 -0.14880212 0.040726382 -0.14075924 -0.013805426
-0.03419069 -0.17563772 -0.14803661 0.0046040593 -0.064306386 -0.020138945 0.06192118 -0.015911588
0.12198559 -0.098024406 0.014908621 -0.032033194 -0.004647261 -0.16755266 -0.0018722949 -0.019893244
-0.032575175 -0.03427907 0.061372355 -0.02298639 -0.091809705 0.027525559 -0.09240793 0.006552843
-0.06242045 -0.12139049 0.1909277 -0.08424374 -0.058459174 -0.10030727 -0.17631248 0.13320805
-0.0974077 -0.045215085 -0.05621556 0.1710155 -0.0026649486 -0.11597248 -0.13900763 -0.04410434
-0.018784748 0.04244268 -0.034413073 -0.007123915 0.16168508 0.04808489 -0.038360737 -0.018202474
-0.08274214 -0.14869739 0.13293195 -0.1608998 -0.13569513 -0.10335122 0.040313136 0.08767656
0.103862904 -0.033081178 -0.10098755 -0.204155 -0.0042083166 0.17342226 -0.059812907 -0.093427606
0.04333521 0.15098424 0.07002845 -0.042035174 -0.09155401 -0.029799499 -0.1505691 -0.005348364
0.08391286 0.06972346 -0.032048922 0.05343461 0.05045595 -0.097782254 0.018842965 0.10751624
0.058807697 0.029949708 0.124900565 0.15701853 0.037457008 -0.0044312775 -0.00473399 0.030596947
-0.046027187 -0.021976551 0.1018537 -0.0007011612 0.063764006 0.048856873 -0.035471324 0.1807756
0.11042369 -0.09792222 0.07305281 0.06897539 -0.1221517 -0.108930066 0.07823445 -0.009646925
-0.03999184 0.09084293 -0.060251527 -0.03901211 0.08731127 0.113918185 -0.0002588465 0.15529394
-0.11668903 -0.06546881 0.022200532 0.13223334 0.027095428 0.09424447 -0.056940224 -0.08440563
-0.022203779 -0.09223435 0.0018585733 -0.073879614 -0.13000579 0.06038278 -0.21203284 -0.056335177
0.058474574 0.024413103 0.055207334 0.0025916318 0.04277517 -0.08501914 -0.007696428 0.06772631
-0.060242098 0.103475645 0.07513298 -0.14223377 0.08213693 0.19193375 -0.08970029 0.03391172
0.037699416
00000000: 03e1 203d 7558 17bd 28c5 293e 8765 c9bd
00000010: 41cb 29bd abfb 3f3e dd90 993d 79c5 0d3d
00000020: 9786 f33c 5825 1abd 4c42 003e 30d2 7abe
00000030: c28e 87bd 2b1b c7bc 565d c33a 002e 0abc
00000040: fc45 00be 1da5 48ba 6822 23bd fbbe f7bc
00000050: 38fe 0e3d 9267 463e d6f0 80bd 4d96 87bd
00000060: 2ea8 99bd c375 24be 47ee 883d ea51 c6bd
00000070: 30f6 be3d 495e 2d3c 1a1f a43d dff1 593c
00000080: 01d5 3b3e 703a 2e3c dedb bdbd dd41 c3bd
00000090: 2098 ddbc 0556 8d3c e2da 1f3d cb89 413d
000000a0: d296 3abe b1c9 7c3e bccb dcbd 7f4b 43be
000000b0: d791 ea3d 4392 303d 7f8f 84bd a908 e0bd
000000c0: 8b8f f4bc eff6 d43d c46b 44bd dbae 983d
000000d0: a0f0 babd 767c e8bd cbbc 3dbd 00f7 94bc
000000e0: 6268 f1b8 7419 013e 2916 7ebe 2e01 ac3d
000000f0: 1965 2b3d 86e7 e2bd 39ff adbd 8549 243d
00000100: 9361 993d 93b7 93bd 1051 27be 5c66 10be
00000110: 2afb 0cbd 5673 0fbe f7ba 4b3d f013 993d
00000120: 1708 1bbe cfb9 3dbd ceb6 873d 1fdd 6a3d
00000130: 955f 18be b5d0 263d 3123 10be 2730 62bc
00000140: 890b 0cbd 60da 33be e996 17be a6dd 963b
00000150: 11b3 83bd 6efa a4bc 10a1 7d3d 0559 82bc
00000160: 95d3 f93d 05c1 c8bd 4a43 743c 3d35 03bd
00000170: 0d48 98bb ed92 2bbe cb67 f5ba 28f7 a2bc
00000180: 8c6d 05bd 3668 0cbd 9461 7b3d f44d bcbc
00000190: ba06 bcbd 487d e13c 5e40 bdbd 3bb9 d63b
000001a0: 96ac 7fbd 949b f8bd 8d82 433e fb87 acbd
000001b0: e372 6fbd e66d cdbd 428b 34be b167 083e
000001c0: b07d c7bd 7433 39bd 4942 66bd b01e 2f3e
000001d0: 6ba6 2ebb fb82 edbd 0458 0ebe c1a6 34bd
000001e0: 79e2 99bc 60d8 2d3d b9f4 0cbd bb6f e9bb
000001f0: c690 253e a9f4 443d 2620 1dbd 5b1d 95bc
00000200: b674 a9bd 2144 18be 501f 083e ebc2 24be
00000210: aaf3 0abe cea9 d3bd 631f 253d c58f b33d
00000220: 13b6 d43d 2180 07bd 90d2 cebd 020e 51be
00000230: ebe5 89bb 9b95 313e 61fe 74bd f956 bfbd
00000240: 4380 313d 9d9b 1a3e 136b 8f3d 132d 2cbd
00000250: ab80 bbbd 141e f4bc c92e 1abe 5441 afbb
00000260: 81da ab3d 2ccb 8e3d bb45 03bd 40de 5a3d
00000270: e6aa 4e3d 1042 c8bd 905c 9a3c 7931 dc3d
00000280: 57e0 703d 1759 f53c decb ff3d 77c9 203e
00000290: 856c 193d 4034 91bb 961f 9bbb 73a6 fa3c
000002a0: 0187 3cbd 2b08 b4bc ac98 d03d 22ce 37ba
000002b0: b496 823d 251e 483d 614a 11bd 3d1d 393e
000002c0: d125 e23d 728b c8bd b69c 953d f842 8d3d
000002d0: ac2a fabd ba16 dfbd 6239 a03d 230e 1ebc
000002e0: 7cce 23bd dc0b ba3d 4eca 76bd 2acb 1fbd
000002f0: 40d0 b23d f04d e93d cab5 87b9 6005 1f3e
00000300: a8fa eebd 8314 86bd e4dd b53c 2d68 073e
00000310: 3bf7 dd3c 3f03 c13d 273a 69bd dcdc acbd
00000320: b3e4 b5bc 5de5 bcbd 5f9b f33a 324e 97bd
00000330: 3d20 05be ef53 773d 231f 59be b7bf 66bd
00000340: 0983 6f3d fdfd c73c 1621 623d 5ed8 293b
00000350: 0435 2f3d 841e aebd 5132 fcbb 17b4 8a3d
00000360: 6bc0 76bd 0aeb d33d 52df 993d bba5 11be
00000370: 6837 a83d 488a 443e c9b4 b7bd 04e7 0a3d
00000380: b46a 1a3d

layer1.bias f4 [25]
-0.17130809 0.20774834 0.017424522 -0.22136225 0.113108836 -0.05401209 0.23739089 0.11975303
-0.07096958 -0.060018405 -0.16774844 0.2725036 -0.10733601 -0.11369909 -0.17177309 0.077731594
0.29917338 0.050411202 0.30443028 0.1762023 0.23919992 0.010674978 0.29150578 -0.08923055
0.30281645
00000000: 636b 2fbe fbbb 543e dfbd 8e3c c9ac 62be
00000010: 9ba5 e73d c83b 5dbd 9916 733e 1441 f53d
00000020: 8058 91bd dcd5 75bd 3fc6 2bbe 9885 8b3e
00000030: fbd2 dbbd 12db e8bd 49e5 2fbe be31 9f3d
00000040: 412d 993e fa7b 4e3d 49de 9b3e 606e 343e
00000050: d3f0 743e 1ae6 2e3c 3f40 953e 82be b6bd
00000060: c20a 9b3e

layer2.weight f4 [50, 25, 3, 3]
0.033383247 0.099712014 0.075539745 -0.06892159 -0.02991726 0.048197586 0.061829112 0.020234868
0.038544517 0.09528748 -0.0019737838 0.044127025 -0.04781564 -0.07946743 -0.045336302 0.07112345
0.019602617 0.037134636 0.009919272 -0.0024309868 0.040342722 0.035474453 -0.05153133 0.008907236
-0.03380455 -0.04047238 -0.015144646 0.008660197 0.042082217 0.0038150458 -0.035065114 0.0029557347
0.02573005 0.09712657 -0.03347948 0.06907086 -0.055371873 -0.0011632505 0.018904245 0.0016085567
-0.00035818404 -0.018235696 0.024447147 -0.00013893515 0.08308124 -0.0071732523 0.017106403 -0.08628386
0.019284472 -0.02975346 -0.0044535124 0.028066715 0.020172516 0.080481306 0.0039578197 0.021876408
-0.037196048 0.02915505 -0.097156614 -0.05385868 -0.056648 -0.00922728 0.025698012 -0.00016834347
-0.010477169 -0.0025205326 0.03259222 -0.011401009 -0.027671754 -0.029338147 -0.007950844 0.035132725
0.040352963 -0.0043337904 -0.0008203647 -0.10003628 -0.12613599 -0.03540452 -0.030713804 0.020811798
-0.085184194 0.1395919 0.016558541 0.017853813 -0.12432486 -0.02255149 -0.0006305703 -0.048138447
0.056340747 -0.112538904 -0.08147813 0.049936783 0.013235677 -0.006744644 -0.06820972 -0.052576434
-0.10433052 -0.06653253 0.060229737 -0.0053923866 -0.03110486 -0.01941636 -0.02792006 -0.0022032938
0.007238615 -0.03694088 -0.07631662 -0.023986679 -0.021802157 -0.0009350501 -0.0068257456 0.07132195
0.007663691 -0.03039688 -0.09596031 -0.08902363 -0.044380866 -0.045603458 -0.04392412 -0.05233533
0.009413264 0.051422197 0.026575686 -0.06892216 0.09639921 -0.02156965 0.07846316 -0.08768716
0.028614137 -0.030997649 -0.06126302 -0.08559584 -0.03960501 0.017398935 -0.018335756 0.03326522
-0.037711933 0.12031292 0.002008501 -0.02179735 -0.041554805 0.0035807013 0.029046029 0.014433179
-0.028311457 0.06832368 -0.05500655 0.063579045 0.010325057 0.013177919 -0.08278454 -0.026412465
0.005816477 -0.0061891316 -0.009524319 -0.038568456 -0.024630798 -0.08924254 -0.009081527 0.07624533
0.019340763 -0.021778712 -0.0387551 0.13673751 -0.09853167 0.09856943 0.102339946 -0.011028521
0.02638543 0.043295134 -0.06454506 -0.024369538 -0.02932046 -0.09839734 0.02614457 -0.0002563681
0.046693526 -0.014456498 -0.024038943 -0.07454245 -0.095460065 -0.090547346 -0.08258762 0.037037857
0.0040054424 -0.06675937 -0.0035774654 0.017737672 0.0028720943 -0.1346 0.012603056 0.026534423
0.046208665 -0.053451695 -0.004318618 -0.054899644 -0.052228767 0.023239698 0.0010992999 0.07796235
-0.010179452 -0.024604289 -0.019354884 -0.005415351 -0.00012308544 0.0024580322 -0.02279992 -0.03742551
-0.0070711174 0.084401175 -0.060637344 -0.06115671 0.057736304 -0.04333234 0.087237544 0.100383826
0.022877743 0.069245234 0.062526874 0.061958045 -0.003900648 0.011170181 0.053337038 0.10542977
-0.018683871 0.008592904 -0.026378976 0.00829393 0.045138285 -0.06917437 0.07139254 0.09686181
0.017866539 0.054028552 -0.043210614 -0.09062751 0.011654247 0.05181958 -0.07855685 0.006978446
0.0021146669 -0.029621493 -0.08225964 -0.0032874618 0.06752602 0.113072485 0.08219692 0.004903023
0.06949047 -0.08141041 -0.01625918 0.043147422 0.0088113975 0.033341225 -0.053150665 -0.06592155
00000000: dfbc 083d d035 cc3d 95b4 9a3d c326 8dbd
00000010: 0b15 f5bc d56a 453d 8640 7d3d 98c3 a53c
00000020: dbe0 1d3d 1526 c33d 995a 01bb 8abe 343d
00000030: 55da 43bd d2bf a2bd 8fb2 39bd 2ca9 913d
00000040: ab95 a03c 7d1a 183d 7184 223c 3151 1fbb
00000050: 693e 253d a94d 113d 8412 53bd a8ef 113c
00000060: a476 0abd 5ec6 25bd 4021 78bc 80e3 0d3c
00000070: 675e 2c3d d905 7a3b 70a0 0fbd 00b5 413b
00000080: d3c7 d23c 4cea c63d c721 09bd 0675 8d3d
00000090: 9ecd 62bd 3678 98ba 13dd 9a3c 35d6 d23a
000000a0: a6ca bbb9 0763 95bc 6245 c83c 1faf 11b9
000000b0: 7f26 aa3d 9a0d ebbb ba22 8c3c 98b5 b0bd
000000c0: 78fa 9d3c 87bd f3bc c5ee 91bb 2bec e53c
000000d0: d540 a53c 62d3 a43d 99b0 813b 2736 b33c
000000e0: e25a 18bd 92d6 ee3c 0cfa c6bd eb9a 5cbd
000000f0: bc07 68bd 042e 17bc a384 d23c 5b85 30b9
00000100: 6fa8 2bbc 852f 25bb 6b7f 053d 4ccb 3abc
00000110: e0af e2bc 8e56 f0bc 4244 02bc 55e7 0f3d
00000120: 2649 253d 7802 8ebb be0d 57ba d2df ccbd
00000130: cb29 01be 5404 11bd 849b fbbc 817d aa3c
00000140: 0d75 aebd 2ef1 0e3e c7a5 873c 2942 923c
00000150: 089e febd e7bd b8bc db4c 25ba d22c 45bd
00000160: 8ec5 663d cc7a e6bd 01de a6bd 838a 4c3d
00000170: 74da 583c 2d02 ddbb 8ab1 8bbd 635a 57bd
00000180: 3dab d5bd 3542 88bd 75b3 763d 9eb2 b0bb
00000190: 9fcf febc 0f0f 9fbc 9cb8 e4bc 2365 10bb
000001a0: e731 ed3b 524f 17bd e34b 9cbd b67f c4bc
000001b0: 709a b2bc 261e 75ba 81aa dfbb 3e11 923d
000001c0: b31f fb3b e102 f9bc d786 c4bd 0552 b6bd
000001d0: b6c8 35bd b1ca 3abd c7e9 33bd 925d 56bd
000001e0: 173a 1a3c 15a0 523d 41b5 d93c 1027 8dbd
000001f0: f36c c53d d6b2 b0bc 4bb1 a03d 5395 b3bd
00000200: 3268 ea3c c8ee fdbc efee 7abd df4c afbd
00000210: dd38 22bd 3688 8e3c de34 96bc 1c41 083d
00000220: d477 1abd 9f66 f63d 0ea1 033b 5b90 b2bc
00000230: 5f35 2abd 33aa 6a3b f0f1 ed3c 2479 6c3c
00000240: 6eed e7bc 49ed 8b3d 8c4e 61bd bb35 823d
00000250: 6e2a 293c 33e8 573c f18a a9bd f45e d8bc
00000260: 2598 be3b 33ce cabb e40b 1cbc f5f9 1dbd
00000270: 87c6 c9bc cbc4 b6bd afca 14bc 8326 9c3d
00000280: 8570 9e3c 4569 b2bc abbd 1ebd eb04 0c3e
00000290: f9ca c9bd c5de c93d 9b97 d13d f8b0 34bc
000002a0: 4226 d83c 3d56 313d 3330 84bd a0a2 c7bc
000002b0: 7631 f0bc 8b84 c9bd 232d d63c 2569 86b9
000002c0: b641 3f3d f3da 6cbc 51ed c4bc b6a9 98bd
000002d0: 9180 c3bd e370 b9bd b323 a9bd 02b5 173d
000002e0: 1640 833b 23b9 88bd e973 6abb 984e 913c
000002f0: bf39 3c3b 95d4 09be 0c7d 4e3c b85e d93c
00000300: 4c45 3d3d 2af0 5abd 3283 8dbb 73de 60bd
00000310: d5ed 55bd 2e61 be3c 6216 903a b9aa 9f3d
00000320: b7c7 26bc ef8e c9bc 228e 9ebc 4273 b1bb
00000330: 7f10 01b9 f016 213b e6c6 babc 7e4b 19bd
00000340: d5b4 e7bb 86da ac3d dd5e 78bd 757f 7abd
00000350: e77c 6c3d 407d 31bd 99a9 b23d 0996 cd3d
00000360: 1b6a bb3c 72d0 8d3d 170e 803d b8c7 7d3d
00000370: 04a2 7fbb 2303 373c f077 5a3d 90eb d73d
00000380: eb0e 99bc 40c9 0c3c b918 d8bc 44e3 073c
00000390: ece2 383d 4bab 8dbd 4136 923d 7c5f c63d
000003a0: d95c 923c 0b4d 5d3d 9dfd 30bd ea9a b9bd
000003b0: 74f1 3e3c c540 543d 6ae2 a0bd 73ab e43b
000003c0: 3996 0a3b c6a8 f2bc be77 a8bd 7572 57bb
000003d0: 154b 8a3d 8c92 e73d dc56 a83d 8aa9 a03b
000003e0: 0551 8e3d 80ba a6bd f931 85bc 5abb 303d
000003f0: ae5d 103c cf90 083d 83b4 59bd e101 87bd

layer2.bias f4 [50]
0.05652699 0.06327853 -0.031596214 0.010589097 0.061794702 0.014025008 -0.053031832 -0.06173665
-0.017527563 -0.049275693 0.06527201 -0.027761756 -0.043892104 -0.010939968 -0.0014971195 0.013454111
0.053905915 0.032740302 0.0117516825 0.0391041 0.06530281 0.011385738 -0.063745245 -0.0044336957
0.0025159614 -0.0383259 -0.00030457287 0.04583584 0.052414924 0.038466614 -0.0648439 -0.040587932
0.03500404 -0.032070868 0.014514959 0.002667192 0.035237458 0.06438004 0.044390175 -0.05463822
0.04800215 -0.03375239 -0.052880026 0.013160191 0.04058534 0.013458323 -0.05227848 0.05465445
0.028295161 0.044182688
00000000: d888 673d 2d98 813d 086b 01bd e47d 2d3c
00000010: 711c 7d3d 26c9 653c e837 59bd 92df 7cbd
00000020: f795 8fbc 4fd5 49bd 55ad 853d 9f6c e3bc
00000030: 35c8 33bd 8d3d 33bc ff3a c4ba a26e 5c3c
00000040: 73cc 5c3d b21a 063d 218a 403c 9f2b 203d
00000050: 7bbd 853d 3f8b 3a3c de8c 82bd 8948 91bb
00000060: d4e2 243b 9efb 1cbd 14af 9fb9 5dbe 3b3d
00000070: 08b1 563d 2b8f 1d3d e1cc 84bd 883f 26bd
00000080: 6560 0f3d be5c 03bd 27d0 6d3c 0ecc 2e3b
00000090: 2755 103d afd9 833d 79d2 353d 54cc 5fbd
000000a0: e79d 443d f23f 0abd ba98 58bd d79d 573c
000000b0: d03c 263d 4c80 5c3c f621 56bd 58dd 5f3d
000000c0: 41cb e73c e8f8 343d

layer4.weight f4 [25, 50, 3, 3]
0.08775487 0.036543187 0.037066273 0.055773024 -0.015407687 0.06037799 0.015482682 0.0773125
0.044017006 0.03636138 -0.008166676 0.10235582 -0.032048486 -0.022093806 -0.035807233 -0.0405086
0.06003242 -0.045679327 -0.018351564 -0.035882156 -0.09873838 -0.010412641 -0.03913935 -9.55277e-05
-0.046221085 0.021406181 -0.012627601 -0.050768938 -0.079739995 0.0036897354 0.014738993 0.07736891
0.032447215 0.058513284 0.015006273 -0.016644254 -0.01475107 0.008573635 0.004143616 -0.07874024
0.03492085 0.06311989 0.08383092 0.03937027 -0.02188293 0.018238273 0.024993334 -0.006519678
0.0033674447 0.029294997 -0.063893914 0.044829633 0.024488393 -0.06776765 0.0297947 0.014697941
-0.044494744 -0.046456765 -0.0050702654 0.014912145 0.0033331204 -0.12775414 -0.057261363 -0.039133035
0.06864115 0.00061075616 -0.05267229 0.04211731 0.06967144 0.024555027 -0.011670175 0.010582173
0.010890655 0.0603699 0.040722385 -0.040938903 -0.0054534073 -0.042605355 0.008378522 0.04617233
-0.09580891 -0.030767554 -0.07640009 -0.0005489685 -0.046091076 -0.0050812582 0.116461016 -0.055144195
0.020613424 0.09363491 0.029265167 0.061155416 0.03403462 0.049510732 0.049525365 -0.05926395
-0.0004950926 0.010438477 0.03910787 0.013318296 0.012773968 -0.007972928 0.104834594 0.06317166
0.036123928 -0.0051768394 -0.061948877 -0.030449713 -0.01588137 -0.035475973 -0.021417907 -0.020890083
0.06860665 0.0052971947 0.10240489 0.12680204 -0.06834047 -0.044543196 0.13154505 0.025748668
0.036766835 0.07303669 0.04401998 0.06908077 -0.04422584 0.06109077 -0.02878066 -0.05575177
0.023988547 -0.017702548 -0.031687405 0.10719523 -0.032001127 -0.06477954 0.10255901 -0.059646655
0.0104056215 0.026336713 -0.042894885 0.09071649 -0.02753548 -0.047733255 -0.045706294 0.07952952
-0.046623025 -0.08020806 -0.09215209 0.07128604 0.053080764 0.0031445425 -0.052656792 0.038928825
-0.052173097 -0.015739435 0.00073240476 -0.07401658 0.025989687 0.012107286 0.09293054 0.040522862
0.03601076 -0.10056044 0.05849716 0.08466344 0.05091067 -0.023446288 -0.06910727 0.06858752
0.0157043 0.0791129 0.016093355 0.06465838 0.023266051 0.04143739 -0.04140614 -0.047283035
0.03768562 -0.050421435 0.052597534 -0.05237642 -0.0054535954 -0.096565224 -0.043566223 -0.0790134
-0.019377647 -0.022319151 -0.020739006 -0.06542821 -0.020607151 0.12990241 0.052243717 0.14974584
-0.0066650193 -0.09656633 -0.0066475184 -0.003078955 -0.10703754 0.10381038 -0.04499323 -0.023404853
-0.007477206 -0.019545678 -0.017663445 -0.060506318 0.041165493 0.034221604 -0.05925093 -0.0046924343
0.015538896 0.045873694 -0.053376608 -0.0069023655 0.05937822 0.021029433 0.05517816 -0.026116228
0.0008663622 0.037405405 0.011339913 -0.008181152 -0.07647463 0.0084634805 -0.045379914 0.08536957
-0.05051998 0.04160811 -0.018404027 -0.0654791 -0.02777698 0.049942195 -0.0050172736 3.190172e-05
-0.00884231 0.06729862 -0.01933403 0.03605402 -0.036589198 -0.058542274 -0.08673341 -0.00774747
-0.096050486 0.09441981 -0.12622806 0.037653744 0.031333115 -0.055550955 0.05407541 0.038392946
0.0062561682 -0.07161388 0.07146769 0.03128533 -0.07451492 -0.0029932722 0.039858542 -0.02327054
00000000: d3b8 b33d 4fae 153d ced2 173d 4172 643d
00000010: 8670 7cbc e94e 773d 13ab 7d3c 0456 9e3d
00000020: 2d4b 343d acef 143d 86cd 05bc ee9f d13d
00000030: 4645 03bd 12fe b4bc 9baa 12bd 59ec 25bd
00000040: 8ee4 753d 3f1a 3bbd 0556 96bc 2bf9 12bd
00000050: 5937 cabd c899 2abc 9550 20bd 0b56 c8b8
00000060: 5252 3dbd 045c af3c ffe3 4ebc 17f3 4fbd
00000070: b94e a3bd 7dcf 713b d17b 713c 9773 9e3d
00000080: 5fe7 043d a0ab 6f3d dfdc 753c 8859 88bc
00000090: 79ae 71bc 6e78 0c3c 2cc7 873b 9042 a1bd
000000a0: 2a09 0f3d 0045 813d 8caf ab3d b842 213d
000000b0: d543 b3bc 6e68 953c d2be cc3c 06a3 d5bb
000000c0: 59b0 5c3b 10fc ef3c d0da 82bd 479f 373d
000000d0: e29b c83c c4c9 8abd 0414 f43c a2cf 703c
000000e0: 1f40 36bd 7349 3ebd 7824 a6bb 1252 743c
000000f0: 7b70 5a3b fbd1 02be e48a 6abd f649 20bd
00000100: bb93 8c3d 271b 203a e6be 57bd 3383 2c3d
00000110: e6af 8e3d a027 c93c 4334 3fbc da60 2d3c
00000120: b86e 323c 6e46 773d 84cc 263d 8daf 27bd
00000130: 7fb2 b2bb f482 2ebd 1146 093c 321f 3d3d
00000140: 7637 c4bd 3d0c fcbc a677 9cbd a7e8 0fba
00000150: ffc9 3cbd af80 a6bb 1d83 ee3d e1de 61bd
00000160: 7cdd a83c a9c3 bf3d 81bd ef3c 1a7e 7a3d
00000170: e367 0b3d c4cb 4a3d 1cdb 4a3d c1be 72bd
00000180: 1ac9 01ba 2506 2b3c 932f 203d fb34 5a3c
00000190: e849 513c e2a0 02bc 85b3 d63d 2560 813d
000001a0: aff6 133d 7aa2 a9bb 1bbe 7dbd ad71 f9bc
000001b0: a619 82bc 414f 11bd 9b74 afbc ae21 abbc
000001c0: a581 8c3d 1794 ad3b a8b9 d13d 65d8 013e
000001d0: 17f6 8bbd ed72 36bd bfb3 063e dfee d23c
000001e0: d298 163d 4394 953d 4b4e 343d 387a 8d3d
000001f0: 2826 35bd 513a 7a3d 6bc5 ebbc f85b 64bd
00000200: a183 c43c ef04 91bc a7ca 01bd 2c89 db3d
00000210: 9d13 03bd 23ab 84bd 750a d23d 0d50 74bd
00000220: 577c 2a3c 17c0 d73c 8cb2 2fbd 91c9 b93d
00000230: 1692 e1bc f283 43bd 8636 3bbd 5fe0 a23d
00000240: c9f7 3ebd 2044 a4bd 3cba bcbd 6afe 913d
00000250: 376b 593d ab14 4e3b a6ae 57bd d573 1f3d
00000260: 75b3 55bd fdef 80bc dafe 3f3a 0196 97bd
00000270: 53e8 d43c a35d 463c 5e52 be3d 4dfb 253d
00000280: 0580 133d a2f2 cdbd b89a 6f3d 0764 ad3d
00000290: b587 503d 6e12 c0bc 1d88 8dbd 9d77 8c3d
000002a0: 4ea6 803c f205 a23d 36d6 833c 9d6b 843d
000002b0: 7298 be3c 41ba 293d 7c99 29bd dbab 41bd
000002c0: 3d5c 1a3d b586 4ebd 8370 573d a888 56bd
000002d0: 13b4 b2bb fdc3 c5bd 7f72 32bd c7d1 a1bd
000002e0: dfbd 9ebc a7d6 b6bc d9e4 a9bc 3aff 85bd
000002f0: 54d0 a8bc 2305 053e 82fd 553d f956 193e
00000300: 3c66 dabb 91c4 c5bd 6dd3 d9bb 4bc8 49bb
00000310: 7f36 dbbd 899a d43d d24a 38bd 89bb bfbc
00000320: 5a03 f5bb 421e a0bc eeb2 90bc 79d5 77bd
00000330: 269d 283d f42b 0c3d 1ab1 72bd fec2 99bb
00000340: db96 7e3c 0ee6 3b3d 6ea1 5abd 3d2d e2bb
00000350: 9436 733d eb45 ac3c 7f02 623d b3f1 d5bc
00000360: 951c 633a 6936 193d 0bcb 393c 3d0a 06bc
00000370: bb9e 9cbd 69aa 0a3c 4ae0 39bd 3ed6 ae3d
00000380: 0aee 4ebd 446d 2a3d 0bc4 96bc e819 86bd
00000390: 8d8c e3bc 3090 4c3d f167 a4bb 36ce 0538
000003a0: 56df 10bc dcd3 893d 6662 9ebc 61ad 133d
000003b0: 8ede 15bd 06ca 6fbd 49a1 b1bd 7dde fdbb
000003c0: 1eb6 c4bd 2c5f c13d ee41 01be d03a 1a3d
000003d0: 2757 003d 6689 63bd 2d7e 5d3d ec41 1d3d
000003e0: 8b00 cd3b 4caa 92bd a75d 923d 0c25 003d
000003f0: 479b 98bd c62a 44bb b642 233d dca1 bebc

layer4.bias f4 [25]
0.03230519 -0.020952139 -0.01925131 -0.011913647 -0.021453878 -0.013477128 0.026775679 0.00070209516
0.0010221134 -0.013556577 0.017325502 -0.02131272 -0.017839415 0.025575044 -0.0040163114 0.023773126
0.021600604 -0.01024728 -0.0046739397 0.03484216 0.0011960757 0.0070474474 0.010889092 0.027795613
-0.023829421
00000000: 7252 043d d2a3 abbc ecb4 9dbc 7531 43bc
00000010: 0bc0 afbc 2ccf 5cbc ab58 db3c cf0c 383a
00000020: 6ff8 853a 681c 5ebc 36ee 8d3c 0398 aebc
00000030: f723 92bc c182 d13c 439b 83bb dcbf c23c
00000040: c0f3 b03c 35e4 27bc d927 99bb a7b6 0e3d
00000050: a4c5 9c3a 46ee e63b 2a68 323c a0b3 e33c
00000060: eb35 c3bc

exp_avg f4 [25, 1, 3, 3]
-31080.053 -27437.61 -18395.01 -47727.52 -44298.613 -33209.75 -54790.29 -51293.49
-39649.418 2744.1848 2732.7324 2150.6436 9020.102 10381.723 11390.529 14604.127
16165.996 17449.285 8081.9404 14776.263 21711.695 19861.875 25880.125 31386.191
20791.242 25733.531 29646.34 -37710.78 -44600.895 -45396.594 -31078.328 -36773.03
-36331.66 -22696.875 -26391.967 -25532.43 10022.448 10755.619 8378.829 31302.162
26128.965 17383.45 47099.637 37065.645 21773.34 29518.047 31399.68 26121.74
55339.945 52576.312 40112.79 67637.97 58919.89 40246.6 52503.594 57136.87
46697.625 67528.67 69435.805 55817.766 65649.08 65788.3 49120.336 28966.273
29547.223 18730.652 53688.57 52073.14 36415.316 67848.7 63799.797 43358.383
39611.21 41346.266 33725.22 56591.6 55999.305 45430.117 63509.402 60952.5
47660.875 29701.852 34975.14 25201.436 47545.43 51532.137 38555.117 54104.234
55926.586 39695.656 23051.195 31853.703 32179.355 44058.086 53664.094 51755.438
55786.64 64127.43 59185.273 45369.12 53318.28 45903.11 55602.64 61776.14
50177.82 50846.42 54236.367 39263.895 11971.049 14035.52 12478.749 18027.404
17101.844 13246.991 18646.336 15834.419 9548.663 19930.125 19842.713 13224.863
13072.32 11682.441 3592.3105 864.2412 -2326.4282 -10729.109 63431.383 54692.156
30091.785 79872.125 71178.53 43029.047 79425.266 69943.97 42045.215 43292.27
46517.242 38694.504 61741.85 60227.137 46682.195 68717.3 61813.58 43163.6
17296.148 12753.654 4560.669 21629.223 16730.762 8001.5225 20502.293 16730.018
8500.755 -37556.484 -32350.512 -13272.614 -45769.766 -38248.094 -15712.49 -44032.504
-33883.414 -10201.758 -14725.622 -22287.414 -19539.855 -35639.414 -42424.25 -36422.63
-46670.258 -50588.57 -41119.812 -10724.204 -27417.592 -34738.332 -31591.049 -46822.87
-50567.28 -44010.773 -56192.1 -55489.586 34505.89 34342.81 25267.168 46497.945
42497.7 28144.871 46998.47 38298.82 20308.5 -9909.252 -16581.174 -19347.137
-18289.406 -22695.68 -23354.715 -21937.455 -24406.43 -22298.996 27159.984 40448.414
44849.023 49195.258 58666.42 56632.016 62515.195 65706.56 56808.824 -26168.68
-37868.438 -44865.55 -38245.312 -50848.97 -55552.9 -39521.25 -50655.508 -52592.242
-33576.28 -35164.223 -27706.715 -56310.023 -56360.094 -45799.75 -69391.234 -68039.06
-54888.75
00000000: 1bd0 f2c6 385b d6c6 05b6 8fc6 856f 3ac7
00000010: 9d0a 2dc7 c0b9 01c7 4a06 56c7 7d5d 48c7
00000020: 6be1 1ac7 f582 2b45 b8cb 2a45 4c6a 0645
00000030: 68f0 0c46 e436 2246 1efa 3146 8230 6446
00000040: fc97 7c46 9252 8846 868f fc45 0de1 6646
00000050: 649f a946 c02b 9b46 4030 ca46 6234 f546
00000060: 7c6e a246 100b c946 ae9c e746 c84e 13c7
00000070: e538 2ec7 9854 31c7 a8cc f2c6 08a5 0fc7
00000080: a9eb 0dc7 c051 b1c6 ef2f cec6 dc78 c7c6
00000090: cb99 1c46 7a0e 2846 51eb 0246 538c f446
000000a0: ee21 cc46 e6ce 8746 a3fb 3747 a5c9 1047
000000b0: ae1a aa46 189c e646 5c4f f546 7b13 cc46
000000c0: f22b 5847 5060 4d47 cab0 1c47 fc1a 8447
000000d0: e427 6647 9a36 1d47 9817 4d47 df30 5f47
000000e0: a069 3647 56e4 8347 e79d 8747 c409 5a47
000000f0: 8a38 8047 267e 8047 56e0 3f47 8c4c e246
00000100: 72d6 e646 4e55 9246 92b8 5147 2469 4b47
00000110: 513f 0e47 5a84 8447 cc37 7947 625e 2947
00000120: 36bb 1a47 4482 2147 38bd 0347 9a0f 5d47
00000130: 4ebf 5a47 1e76 3147 6715 7847 8018 6e47
00000140: e02c 3a47 b40b e846 249f 0847 dfe2 c446
00000150: 6eb9 3947 234c 4947 1e9b 1647 3c58 5347
00000160: 9676 5a47 a80f 1b47 6416 b446 68db f846
00000170: b666 fb46 161a 2c47 18a0 5147 702b 4a47
00000180: a4ea 5947 6e7f 7a47 4631 6747 1f39 3147
00000190: 4846 5047 1c4f 3347 a432 5947 2450 7147
000001a0: d201 4447 6c9e 4647 5edc 5347 e55f 1947
000001b0: 320c 3b46 144e 5b46 fffa 4246 cfd6 8c46
000001c0: b09b 8546 f7fb 4e46 acac 9146 ad69 7746
000001d0: a732 1546 40b4 9b46 6d05 9b46 74a3 4e46
000001e0: 4841 4c46 c489 3646 f884 6045 700f 5844
000001f0: da66 11c5 70a4 27c6 62c7 7747 28a4 5547
00000200: 9217 eb46 1000 9c47 4405 8b47 0c15 2847
00000210: a220 9b47 fc9b 8847 373d 2447 451c 2947
00000220: 3eb5 3547 8126 1747 da2d 7147 2343 6b47
00000230: 325a 3647 a636 8647 9475 7147 9a9b 2847
00000240: 4c20 8746 9e46 4746 5a85 8e45 72fa a846
00000250: 86b5 8246 2e0c fa45 962c a046 09b4 8246
00000260: 05d3 0446 7cb4 12c7 06bd fcc6 7562 4fc6
00000270: c4c9 32c7 1868 15c7 f681 75c6 8100 2cc7
00000280: 6a5b 04c7 0867 1fc6 7d16 66c6 d41e aec6
00000290: b6a7 98c6 6a37 0bc7 40b8 25c7 a146 0ec7
000002a0: 424e 36c7 929c 45c7 d09f 20c7 d190 27c6
000002b0: 2f33 d6c6 55b2 07c7 19ce f6c6 dfe6 36c7
000002c0: 4887 45c7 c6ea 2bc7 1a80 5bc7 96c1 58c7
000002d0: e4c9 0647 cf26 0647 5666 c546 f2a1 3547
000002e0: b301 2647 bee1 db46 7896 3747 d29a 1547
000002f0: 00a9 9e46 02d5 1ac6 598a 81c6 4626 97c6
00000300: d0e2 8ec6 5c4f b1c6 6e75 b6c6 e962 abc6
00000310: dcac bec6 fe35 aec6 f82f d446 6a00 1e47
00000320: 0631 2f47 422b 4047 6c2a 6547 0438 5d47
00000330: 3233 7447 4855 8047 d3e8 5d47 5c71 ccc6
00000340: 70ec 13c7 8d41 2fc7 5065 15c7 f8a0 46c7
00000350: e600 59c7 4061 1ac7 82df 45c7 3e70 4dc7
00000360: 4828 03c7 395c 09c7 6e75 d8c6 06f6 5bc7
00000370: 1828 5cc7 c0e7 32c7 9e87 87c7 88e3 84c7
00000380: c068 56c7

exp_avg_sq f4 [25, 1, 3, 3]
6.1625626e+09 6.2070287e+09 5.4822113e+09 7.507408e+09 7.555846e+09 6.605587e+09 7.7196073e+09 7.797977e+09
6.8145705e+09 3.6951273e+09 4.0252575e+09 3.8653033e+09 3.695659e+09 4.0986806e+09 3.9652165e+09 3.2904852e+09
3.692078e+09 3.6111388e+09 8.50868e+09 9.731273e+09 9.600294e+09 8.0739103e+09 9.598014e+09 9.836043e+09
7.1205284e+09 8.732258e+09 9.244204e+09 6.1953454e+09 8.749513e+09 1.0506994e+10 5.1173407e+09 7.2998963e+09
8.862599e+09 3.8119043e+09 5.421929e+09 6.639787e+09 9.819404e+08 6.305632e+08 4.1007654e+08 1.1044017e+09
7.3992365e+08 4.69738e+08 1.124329e+09 7.5745e+08 4.6524547e+08 1.0340233e+10 8.664199e+09 6.276542e+09
1.1857119e+10 1.0061551e+10 7.3239316e+09 1.1792177e+10 1.0070852e+10 7.385128e+09 9.023667e+09 8.784208e+09
6.9793777e+09 1.2274087e+10 1.2060658e+10 9.785778e+09 1.3384117e+10 1.334261e+10 1.1005484e+10 4.8236964e+09
4.9659054e+09 4.2643978e+09 6.9628754e+09 7.1649516e+09 6.0631777e+09 8.4871516e+09 8.727162e+09 7.293389e+09
1.3315868e+09 1.4444454e+09 1.3548797e+09 2.7174433e+09 2.5840584e+09 2.1204724e+09 4.380119e+09 4.0104207e+09
3.1254113e+09 1.0516489e+10 1.1954195e+10 1.1487644e+10 1.5316205e+10 1.775773e+10 1.7313755e+10 1.9246365e+10
2.2596649e+10 2.2281085e+10 1.3598431e+09 1.3626184e+09 1.3071252e+09 2.9948828e+09 3.2898716e+09 3.2234985e+09
4.939677e+09 5.639803e+09 5.5973366e+09 2.753621e+10 2.7550579e+10 2.3290081e+10 2.8199178e+10 2.8663206e+10
2.4462064e+10 2.4113064e+10 2.4823687e+10 2.1365133e+10 2.499633e+09 1.1350871e+09 4.9453043e+08 4.8906465e+09
2.7392983e+09 1.103571e+09 7.050795e+09 4.57325e+09 2.2239e+09 8.713348e+08 1.05853114e+09 1.1795252e+09
8.7824525e+08 1.0734316e+09 1.2077089e+09 7.791632e+08 9.713808e+08 1.1293484e+09 1.6462889e+10 1.4405665e+10
9.99684e+09 1.9938427e+10 1.8073426e+10 1.3015591e+10 2.007958e+10 1.876201e+10 1.4069117e+10 4.3304706e+10
3.7326967e+10 2.7732505e+10 4.6383616e+10 4.0149524e+10 2.9964007e+10 4.3675136e+10 3.7908873e+10 2.8470393e+10
6.3196243e+08 6.9752864e+08 6.8413984e+08 5.994688e+08 6.7395725e+08 6.689699e+08 4.6784157e+08 5.435351e+08
5.5213606e+08 2.4170363e+09 2.6446175e+09 2.4123072e+09 2.6469166e+09 2.898406e+09 2.6408968e+09 2.4035776e+09
2.620714e+09 2.4062395e+09 1.2727649e+10 1.4307006e+10 1.4098931e+10 1.5918055e+10 1.8501466e+10 1.8587498e+10
1.7719896e+10 2.1123279e+10 2.1606689e+10 3.25823e+09 4.792533e+09 5.5510185e+09 3.4684854e+09 5.14512e+09
5.891407e+09 3.4458337e+09 4.9834245e+09 5.5312783e+09 6.0235807e+09 6.8583537e+09 6.657578e+09 8.169797e+09
9.29377e+09 9.057408e+09 9.11231e+09 1.0320906e+10 1.0123231e+10 9.305902e+08 1.1056664e+09 1.2003173e+09
8.105268e+08 9.362956e+08 1.0212249e+09 6.614435e+08 7.250918e+08 7.904763e+08 6.44205e+09 7.375637e+09
7.204021e+09 8.097585e+09 9.0131e+09 8.551785e+09 8.71609e+09 9.315027e+09 8.5349243e+09 1.1834959e+10
1.2967586e+10 1.2419765e+10 1.3331113e+10 1.4564711e+10 1.3684861e+10 1.2543525e+10 1.3565635e+10 1.2471e+10
2.6681274e+10 2.4084017e+10 1.831396e+10 3.2936063e+10 3.0685735e+10 2.4197e+10 3.4813264e+10 3.3404828e+10
2.7245402e+10
00000000: 9fa8 b74f dffb b84f f461 a34f fabc df4f
00000010: 882e e14f a1dc c44f ee0f e64f d865 e84f
00000020: 0c17 cb4f 2b3f 5c4f 8eec 6f4f d963 664f
00000030: 4847 5c4f e74c 744f 6758 6c4f d220 444f
00000040: a410 5c4f 9b3d 574f 1494 fd4f dc01 1150
00000050: 370e 0f50 0c9f f04f 8505 0f50 8791 1250
00000060: 5235 d44f ec1e 0250 d7bf 0950 bca2 b84f
00000070: be60 0250 0091 1c50 3682 984f ca8d d94f
00000080: 2210 0450 0b35 634f 0996 a14f 8ee1 c54f
00000090: e31c 6a4e 8656 164e 2c8a c34d aaa7 834e
000000a0: 5b69 304e 10fd df4d cc07 864e 1497 344e
000000b0: a9d8 dd4d dc14 1a50 4c1b 0150 370e bb4f
000000c0: 52af 3050 c5ed 1550 2a45 da4f 96b7 2f50
000000d0: 4011 1650 0e18 dc4f 8f76 0650 18e5 0250
000000e0: 6d00 d04f ede5 3650 c2b7 3350 c8d1 1150
000000f0: 5b70 4750 05d2 4650 97fe 2350 e2c1 8f4f
00000100: dafe 934f 8c2d 7e4f 8682 cf4f 3e88 d54f
00000110: 60b2 b44f d4ef fc4f 7b0b 0250 245c d94f
00000120: cebc 9e4e fa30 ac4e a683 a14e e5f8 214f
00000130: 9a05 1a4f afc7 fc4e a889 824f 2a0a 6f4f
00000140: fe49 3a4f 39b5 1c50 a321 3250 e22d 2b50
00000150: af3a 6450 2f4e 8450 5eff 8050 8765 8f50
00000160: b05b a850 cc01 a650 1e1b a24e d06f a24e
00000170: 4cd2 9b4e 4982 324f 7517 444f af22 404f
00000180: bf36 934f 4814 a84f 4ad0 a64f 2729 cd50
00000190: 8f44 cd50 4e86 ad50 aa19 d250 ba8e d550
000001a0: af41 b650 05a8 b350 6df3 b850 c22e 9f50
000001b0: 5ffd 144f 1c50 874e 7ccf eb4d acc0 914f
000001c0: 6046 234f 508e 834e 4c21 d24f 214b 884f
000001d0: 058e 044f 0ebe 4f4e 9d5f 7c4e 419c 8c4e
000001e0: d663 514e 11ed 7f4e 5af8 8f4e 59c4 394e
000001f0: 6198 674e faa0 864e f050 7550 40a9 5650
00000200: ebf6 1450 888d 9450 53a8 8650 8af2 4150
00000210: c29a 9550 b2c9 8b50 6ca5 5150 9652 2151
00000220: c50d 0b51 8e9f ce50 ddca 2c51 9291 1551
00000230: cf3f df50 dbb3 2251 b838 0d51 f71e d450
00000240: edab 164e c54d 264e 951c 234e acec 0e4e
00000250: 16af 204e af7e 1f4e 9115 df4d c096 014e
00000260: b6a3 034e 0c11 104f a9a1 1d4f e3c8 0f4f
00000270: bec4 1d4f 2ac2 2c4f e368 1d4f af43 0f4f
00000280: ec34 1c4f 4d6c 0f4f 21a8 3d50 e630 5550
00000290: 2717 5250 9032 6d50 bfd8 8950 d77c 8a50
000002a0: 0506 8450 7561 9d50 7dfb a050 a534 424f
000002b0: 20d4 8e4f e96e a54f e3bc 4e4f 2656 994f
000002c0: de93 af4f 4063 4d4f 8384 944f 4ed8 a44f
000002d0: 4684 b34f 1665 cc4f 4a69 c64f 9b7a f34f
000002e0: eb7c 0a50 45f7 0650 b4c8 0750 22cb 1950
000002f0: 10d9 1650 b8de 5d4e 43ce 834e c716 8f4e
00000300: a13e 414e f33a 5f4e 9f7a 734e 4fb3 1d4e
00000310: 17e0 2c4e d876 3c4e f1fc bf4f a5cf db4f
00000320: 52b2 d64f ac53 f14f 3f4e 0650 f1dc fe4f
00000330: 3fe1 0150 02ce 0a50 4e5c fe4f c95a 3050
00000340: 6a3b 4150 a511 3950 29a6 4650 f707 5950
00000350: 9aeb 4b50 c0e9 3a50 ca24 4a50 17d5 3950
00000360: 7eca c650 9e70 b350 1b73 8850 8e64 f550
00000370: 65a0 e450 1d48 b450 84b0 0151 a7e2 f850
00000380: 7bfe ca50

exp_avg f4 [25]
-33986.117 18329.654 -2101.1958 -16832.406 17768.957 19623.746 40689.223 28991.156
21032.049 1787.0293 106.81055 46557.605 22965.29 5503.5723 37910.508 8147.638
24997.42 -20265.047 -1802.8552 -15787.835 37234.406 -24358.355 25226.793 -35486.332
-21046.262
00000000: 1ec2 04c7 4f33 8f46 2253 03c5 d080 83c6
00000010: ead1 8a46 7e4f 9946 39f1 1e47 507e e246
00000020: 1950 a446 f060 df44 009f d542 9bdd 3547
00000030: 946a b346 94fc ab45 8216 1447 1b9d fe45
00000040: d74a c346 1852 9ec6 5e5b e1c4 57af 76c6
00000050: 6872 1147 b64c bec6 9615 c546 559e 0ac7
00000060: 866c a4c6

exp_avg_sq f4 [25]
5.794679e+08 2.3701061e+08 2.8278382e+09 1.0849393e+09 4.14737e+08 1.0909857e+09 2.3140047e+09 1.8239361e+09
1.8088862e+08 2.5800485e+08 1.8526186e+08 2.6434358e+09 1.0227655e+09 1.4330547e+09 1.9368515e+09 1.05101e+09
5.802397e+08 1.2815485e+09 4.2253104e+08 2.4698522e+08 5.8527904e+08 6.586069e+08 7.825382e+08 1.08734e+09
6.94096e+08
00000000: ea27 0a4e eb07 624d 638d 284f b855 814e
00000010: 13c3 c54d 3e0e 824e e9ec 094f 1d6e d94e
00000020: 4382 2c4d 770d 764d f2ad 304d a18f 1d4f
00000030: a7d8 734e 5cd5 aa4e 04e4 e64e 8f94 7a4e
00000040: 0557 0a4e c2c5 984e 7f7a c94d 208b 6b4d
00000050: 998a 0b4e 2d06 1d4e 5792 3a4e fc9e 814e
00000060: 427c 254e

exp_avg f4 [50, 25, 3, 3]
-6204.451 -7260.5244 -4166.55 -8777.348 -10256.861 -7295.253 -9288.004 -11128.18
-8530.493 6066.6616 6615.878 3176.5864 8574.3125 9634.508 6428.1904 8584.068
10188.66 7485.189 1896.7123 2288.124 3147.919 2140.3557 2773.875 3809.3428
2019.2561 2852.2974 3957.8423 -3376.8909 -2120.9707 2983.1238 -5954.306 -4740.553
374.02155 -6270.919 -5259.3516 -532.1233 565.9564 -906.76514 -1856.054 457.05765
-834.1545 -1532.1333 -930.57263 -1982.4755 -2391.7754 2609.879 4554.9 6567.02
3067.4744 5306.292 7430.5 3758.671 6224.7495 8333.098 6530.6094 5570.7305
1666.0879 9027.83 8382.972 4655.615 8724.58 8404.356 5072.0703 2900.5964
3533.0 2310.8596 4020.6304 5179.6836 4386.453 3634.8699 5340.1113 5163.5957
1580.2109 3307.1604 7114.958 769.5331 3291.2856 7795.716 411.45978 3526.1367
8514.523 1064.9878 2210.283 4597.1855 756.2408 2609.2327 5580.574 1053.1143
3463.87 6960.384 -1441.4601 581.38727 5780.963 -2894.4622 -369.12988 5305.7666
-2794.1235 196.7858 6071.2207 5134.375 4294.9155 -1585.8232 7654.4834 7150.4062
1506.4324 7242.28 7032.3467 2072.5117 109.404785 1620.066 4436.1514 293.00583
2207.099 5231.7295 1756.6836 3981.4675 7223.7803 -2083.2397 -1570.238 809.92786
-2723.8633 -1896.6577 742.89453 -1847.8037 -739.52893 2136.187 1330.2612 5357.6104
11662.301 263.48172 5272.078 12341.822 498.4596 6319.5957 13807.566 3781.0266
4126.405 3029.414 5226.413 5644.5283 4546.366 5481.164 6048.3027 4993.5264
3094.1558 1125.0492 -5515.4463 4926.3115 2835.835 -3857.2373 3528.5198 1403.4348
-4959.462 -1174.1489 -3078.8232 -5368.972 -658.2331 -3061.8608 -5728.8193 -400.55316
-3160.74 -6065.5723 667.3457 -2843.5266 -11253.266 2439.9497 -1853.144 -10866.2705
1224.1765 -3638.2412 -12793.951 -2607.8245 -5738.0186 -11799.391 -2473.726 -6286.5884
-12820.627 -3722.0547 -8118.062 -14779.357 2617.1738 277.64484 -4416.6084 4056.383
2001.5573 -2398.865 3111.6003 1419.589 -2385.3726 -3278.0984 -5449.491 -6899.885
-3723.899 -6488.6953 -8271.332 -4024.0176 -7170.302 -9242.821 9633.898 10730.836
6131.499 12817.352 14799.933 10792.027 12351.747 15043.053 11958.251 -2857.8872
-2769.1084 -860.2606 -4266.387 -4230.3057 -2299.2725 -4608.124 -4668.3257 -2843.859
231.45592 -3312.6035 -11283.461 1214.5645 -2684.9644 -10836.596 -708.5219 -4855.9165
-12732.598 10136.473 7596.278 5530.6235 7708.745 4390.4736 2000.4199 4256.1353
450.2339 -1923.4146 -9618.633 -8815.183 -8193.357 -7433.3037 -5715.7827 -4537.289
-4293.761 -1732.7394 -255.38062 -3435.0396 -3497.8809 -1949.4633 -1903.8113 -1691.6403
75.20178 -372.63007 62.39807 1911.1765 5036.094 4183.2676 4868.877 4823.414
00000000: 9ce3 c1c5 32e4 e2c5 6634 82c5 6425 09c6
00000010: 7243 20c6 06fa e3c5 0420 11c6 b8e0 2dc6
00000020: f949 05c6 4b95 bd45 06bf ce45 6289 4645
00000030: 40f9 0546 088a 1646 86e1 c845 4620 0646
00000040: a432 1f46 83e9 e945 cb16 ed44 fc01 0f45
00000050: b4be 4445 b1c5 0545 005e 2d45 7c15 6e45
00000060: 3268 fc44 c244 3245 7a5d 7745 410e 53c5
00000070: 888f 04c5 fb71 3a45 7312 bac5 6d24 94c5
00000080: c202 bb43 5af7 c3c5 d05a a4c5 e407 05c4
00000090: 367d 0d44 f8b0 62c4 ba01 e8c4 6187 e443
000000a0: e389 50c4 4484 bfc4 a6a4 68c4 37cf f7c4
000000b0: 687c 15c5 101e 2345 3357 8e45 2938 cd45
000000c0: 97b7 3f45 56d2 a545 0034 e845 bcea 6a45
000000d0: ff85 c245 6434 0246 e014 cc45 d815 ae45
000000e0: d042 d044 520f 0d46 e3fb 0246 ec7c 9145
000000f0: 5252 0846 6d51 0346 9080 9e45 8b49 3545
00000100: 00d0 5c45 c16d 1045 164a 7b45 78dd a145
00000110: a013 8945 eb2d 6345 e4e0 a645 c45c a145
00000120: c086 c544 91b2 4e45 aa57 de45 1e62 4044
00000130: 92b4 4d45 ba9d f345 daba cd43 3062 5c45
00000140: 180a 0546 9c1f 8544 8724 0a45 7ca9 8f45
00000150: 690f 3d44 b913 2345 9864 ae45 a8a3 8344
00000160: ec7d 5845 1283 d945 b92e b4c4 c958 1144
00000170: b4a7 b445 65e7 34c5 a090 b8c3 22ce a545
00000180: faa1 2ec5 2ac9 4443 c4b9 bd45 0073 a045
00000190: 5337 8645 583a c6c4 de33 ef45 4073 df45
000001a0: d64d bc44 3d52 e245 c6c2 db45 3088 0145
000001b0: 40cf da42 1d82 ca44 36a1 8a45 bf80 9243
000001c0: 96f1 0945 d67d a345 e095 db44 7bd7 7845
000001d0: 3ebe e145 d633 02c5 9e47 c4c4 627b 4a44
000001e0: d03d 2ac5 0c15 edc4 40b9 3944 b8f9 e6c4
000001f0: dae1 38c4 fe82 0545 5c48 a644 e26c a745
00000200: 3439 3646 a9bd 8343 a0c0 a445 4ad7 4046
00000210: d43a f943 c47c c545 44be 5746 6d50 6c45
00000220: 3df3 8045 a056 3d45 4e53 a345 3a64 b045
00000230: ee12 8e45 5049 ab45 6c02 bd45 360c 9c45
00000240: 7e62 4145 93a1 8c44 925b acc5 7ef2 9945
00000250: 5c3d 3145 cc13 71c5 5188 5c45 ea6d af44
00000260: b2fb 9ac5 c4c4 92c4 2c6d 40c5 c7c7 a7c5
00000270: eb8e 24c4 c65d 3fc5 8e06 b3c5 ce46 c8c3
00000280: d78b 45c5 948c bdc5 20d6 2644 6db8 31c5
00000290: 10d5 2fc6 327f 1845 9ca4 e7c4 15c9 29c6
000002a0: a605 9944 dc63 63c5 cee7 47c6 31fd 22c5
000002b0: 2650 b3c5 905d 38c6 9e9b 1ac5 b574 c4c5
000002c0: 8252 48c6 e0a0 68c5 7fb0 fdc5 6eed 66c6
000002d0: c892 2345 8ad2 8a43 de04 8ac5 2186 7d45
000002e0: d531 fa44 d7ed 15c5 9b79 4245 d972 b144
000002f0: f615 15c5 93e1 4cc5 ee4b aac5 149f d7c5
00000300: 62be 68c5 90c5 cac5 543d 01c6 4880 7bc5
00000310: 6a12 e0c5 496b 10c6 9887 1646 58ab 2746
00000320: fe9b bf45 6845 4846 bb3f 6746 1ca0 2846
00000330: fdfe 4046 360c 6b46 01d9 3a46 329e 32c5
00000340: bc11 2dc5 ae10 57c4 1953 85c5 7232 84c5
00000350: 5cb4 0fc5 fe00 90c5 9be2 91c5 bebd 31c5
00000360: b774 6743 a809 4fc5 d84d 30c6 10d2 9744
00000370: 6ecf 27c5 6252 29c6 6721 31c4 55bf 97c5
00000380: 64f2 46c6 e461 1e46 3962 ed45 fdd4 ac45
00000390: f6e5 f045 ca33 8945 700d fa44 1501 8545
000003a0: f01d e143 446d f0c4 884a 16c6 bbbc 09c6
000003b0: 6e05 00c6 6e4a e8c5 439e b2c5 50ca 8dc5
000003c0: 172e 86c5 a997 d8c4 7061 7fc3 a2b0 56c5
000003d0: 189e 5ac5 d3ae f3c4 f6f9 edc4 7d74 d3c4
000003e0: 5067 9642 a650 bac3 a097 7942 a6e5 ee44
000003f0: c160 9d45 24ba 8245 0427 9845 50bb 9645

exp_avg_sq f4 [50, 25, 3, 3]
1.6551043e+08 1.7070354e+08 1.5101112e+08 1.8628488e+08 2.0687094e+08 1.9078651e+08 2.0850965e+08 2.4418275e+08
2.3372235e+08 2.4283086e+08 2.7672493e+08 2.7709286e+08 2.5641883e+08 3.071885e+08 3.1662762e+08 2.6923277e+08
3.384912e+08 3.6073555e+08 6.5225812e+07 7.622951e+07 8.233847e+07 6.250783e+07 7.617826e+07 8.6958776e+07
5.855268e+07 7.436802e+07 8.804828e+07 1.6543144e+07 1.8669658e+07 2.353315e+07 1.5133739e+07 1.5301377e+07
1.4834459e+07 1.2667432e+07 1.1833254e+07 8.2646165e+06 1.2689316e+07 3.6601848e+06 2.3351468e+06 1.8558848e+07
7.8565155e+06 2.2402288e+06 2.3798574e+07 1.3661677e+07 5.4054495e+06 1.14725144e+08 1.1237526e+08 1.0399557e+08
1.2732271e+08 1.3346463e+08 1.3057719e+08 1.3756571e+08 1.524072e+08 1.5454203e+08 3.6059464e+07 3.762391e+07
3.341905e+07 5.528367e+07 5.8901416e+07 5.1748984e+07 7.114974e+07 7.9093464e+07 7.223659e+07 6.4603388e+07
9.003765e+07 1.094623e+08 6.7531976e+07 9.7634424e+07 1.2140785e+08 7.195448e+07 1.0921696e+08 1.4099205e+08
1.8727046e+08 2.4165947e+08 2.862699e+08 1.7910035e+08 2.4058005e+08 3.0078134e+08 1.6512506e+08 2.3236614e+08
3.0702506e+08 1.8416813e+08 2.2175506e+08 2.4092747e+08 1.9339362e+08 2.4151477e+08 2.7420365e+08 1.937819e+08
2.517072e+08 3.0069632e+08 7.208728e+07 9.136649e+07 1.1091918e+08 7.3210936e+07 9.420188e+07 1.1840771e+08
6.938954e+07 9.276507e+07 1.2410998e+08 2.067313e+07 2.2901968e+07 2.4432236e+07 3.0376212e+07 3.2834404e+07
2.6370394e+07 3.8121e+07 4.344535e+07 3.650704e+07 1.4352405e+08 1.30333896e+08 1.0546805e+08 1.6966163e+08
1.6345754e+08 1.4225384e+08 1.8401173e+08 1.8901013e+08 1.785072e+08 5.9973972e+07 6.6666892e+07 6.3288496e+07
7.736105e+07 8.740903e+07 8.413664e+07 8.103172e+07 9.295214e+07 9.212603e+07 5.854435e+08 6.940759e+08
7.612093e+08 5.851285e+08 7.228219e+08 8.31425e+08 5.657104e+08 7.3285037e+08 8.842862e+08 2.1029134e+07
2.156305e+07 1.9215586e+07 3.1777862e+07 3.514631e+07 3.2484932e+07 4.321071e+07 4.9221452e+07 4.5551692e+07
1.5107419e+08 1.3123124e+08 1.0359108e+08 1.756616e+08 1.5982846e+08 1.2943953e+08 1.7772429e+08 1.6997112e+08
1.4800059e+08 1.15100056e+08 1.4336426e+08 1.623331e+08 1.10034216e+08 1.4328144e+08 1.6980765e+08 1.0111409e+08
1.3798094e+08 1.7099605e+08 4.9887866e+08 5.300773e+08 5.291646e+08 5.2645606e+08 5.804157e+08 6.060592e+08
5.2280986e+08 6.03253e+08 6.665688e+08 4.8606394e+08 5.0444083e+08 4.9362973e+08 5.091059e+08 5.55113e+08
5.760038e+08 5.1876403e+08 5.961988e+08 6.5192275e+08 3.5419336e+07 2.6619106e+07 2.7164648e+07 3.7194324e+07
2.5983814e+07 2.0359904e+07 3.341868e+07 2.2530296e+07 1.4775524e+07 2.7744637e+08 3.0780067e+08 3.094813e+08
2.8315616e+08 3.3006634e+08 3.4791763e+08 2.7993706e+08 3.4177213e+08 3.7535517e+08 4.3432195e+08 5.1670634e+08
5.3540714e+08 4.7520525e+08 5.908921e+08 6.2816224e+08 5.138049e+08 6.6310944e+08 7.275704e+08 2.6639765e+06
2.3321108e+06 1.5711478e+06 6.153193e+06 5.7696595e+06 3.156937e+06 1.0309796e+07 9.977341e+06 5.924722e+06
3.0051248e+08 2.6719747e+08 2.3754674e+08 3.312922e+08 3.103467e+08 2.880053e+08 3.4535347e+08 3.443554e+08
3.3900557e+08 4.1257008e+08 3.1248422e+08 2.1001816e+08 4.031582e+08 2.9871258e+08 1.971031e+08 3.5521674e+08
2.6076786e+08 1.7240475e+08 6.7617363e+08 6.0594944e+08 4.817431e+08 6.629968e+08 5.819539e+08 4.5432112e+08
5.8457594e+08 5.050649e+08 3.9094333e+08 1.0525555e+08 9.432942e+07 6.952397e+07 9.08409e+07 7.996104e+07
5.809408e+07 6.772775e+07 5.8308996e+07 4.1941944e+07 3.4963744e+07 2.7239096e+07 2.3124928e+07 4.2696108e+07
00000000: d2d7 1d4d abcb 224d f303 104d b5a7 314d
00000010: 9a49 454d bdf2 354d add9 464d eede 684d
00000020: 1fe5 5e4d e194 674d e6f3 834d d020 844d
00000030: 418a 744d 997a 924d d5fa 964d 5461 804d
00000040: ba67 a14d 1a03 ac4d 15d1 784c 7165 914c
00000050: 550c 9d4c ce72 6e4c 6a4c 914c 57dc a54c
00000060: 5a5c 5f4c 82d8 8d4c 53f0 a74c a86d 7c4b
00000070: 2d70 8e4b 2f8b b34b 2bec 664b 017b 694b
00000080: 1b5b 624b 284a 414b a68f 344b 5137 fc4a
00000090: a49f 414b 6366 5f4a ab86 0e4a c097 8d4b
000000a0: 07c3 ef4a 93bb 084a 9791 b54b ed75 504b
000000b0: 13f6 a44a 23d2 da4c bc56 d64c 165b c64c
000000c0: 4bd9 f24c 4790 fe4c 650e f94c 6131 034d
000000d0: ca58 114d fd61 134d 528e 094c 1a86 0f4c
000000e0: 95f7 fe4b f6e3 524c eab0 604c 1e68 454c
000000f0: 16b5 874c dbdb 964c c6c7 894c 3f71 764c
00000100: b2bb ab4c 64c8 d04c 99ce 804c 0f39 ba4c
00000110: 2d91 e74c 063e 894c 9850 d04c e375 064d
00000120: 5498 324d e576 664d 0e81 884d accd 2a4d
00000130: 5d6f 654d 796c 8f4d bc79 1d4d 049a 5d4d
00000140: a566 924d eca2 2f4d 6b7b 534d 2fc4 654d
00000150: 3d6f 384d 9153 664d 20c0 824d 09ce 384d
00000160: f40b 704d 1862 8f4d de7e 894c 8b44 ae4c
00000170: c28f d34c 87a3 8b4c 03ad b34c 44d8 e14c
00000180: 9c59 844c 72ef b04c 94b8 ec4c 35b9 9d4b
00000190: 68ba ae4b 3667 ba4b 8ac0 e74b b281 fa4b
000001a0: ad30 c94b 8a6b 114c 1abb 254c 6843 0b4c
000001b0: 0de0 084d 9997 f84c 122a c94c 4ccd 214d
000001c0: a0e2 1b4d f1a9 074d bd7c 2f4d 0d41 344d
000001d0: dc3c 2a4d 55c8 644c 6350 7e4c 2c6d 714c
000001e0: f38d 934c 31b8 a64c 587a a04c 458e 9a4c
000001f0: ca4a b14c 6ab7 af4c a394 0b4e 087b 254e
00000200: 877c 354e 6981 0b4e 8c55 2c4e 283a 464e
00000210: 39e0 064e a3b9 2e4e 8cd4 524e 8770 a04b
00000220: 5583 a44b 719a 924b 2372 f24b 9212 064c
00000230: 22d7 f74b f6d5 244c d3c3 3b4c 13c4 2d4c
00000240: 5913 104d c14d fa4c 9595 c54c 2286 274d
00000250: 9f6c 184d e5e2 f64c b87d 294d db18 224d
00000260: f524 0d4d 3389 db4c 0ab9 084d 1bd0 1a4d
00000270: a5df d14c d2a4 084d f2f0 214d 1ddc c04c
00000280: c196 034d 1513 234d 46e2 ed4d b4c2 fc4d
00000290: 4a53 fc4d a808 fb4d c361 0a4e eb7e 104e
000002a0: 904b f94d a4d3 0f4e 22ec 1e4e fac5 e74d
000002b0: 4089 f04d 8961 eb4d b7c2 f24d 6959 044e
000002c0: 7b54 094e b05d f74d 1625 0e4e 356e 1b4e
000002d0: 321d 074c 7116 cb4b f43f cf4b 95e2 0d4c
000002e0: a33d c64b 7055 9b4b dcf6 fe4b 7ce4 ab4b
000002f0: e474 614b f74b 844d 53c5 924d 7b92 934d
00000300: f604 874d 4d63 9d4d 6ae6 a54d 017c 854d
00000310: 3bf8 a24d b9fb b24d d119 cf4d 8162 f64d
00000320: 514d ff4d 7498 e24d 31e1 0c4e fbc3 154e
00000330: 5300 f54d fd18 1e4e 6077 2d4e a298 224a
00000340: 3b57 0e4a 5eca bf49 d2c7 bb4a 7713 b04a
00000350: 24af 404a a450 1d4b fd3d 184b e4ce b44a
00000360: a74b 8f4d c2d1 7e4d cf8a 624d f1f8 9d4d
00000370: 1efc 934d e654 894d 68ad a44d 9233 a44d
00000380: 84a6 a14d 8fba c44d 0c01 954d f749 484d
00000390: a63d c04d f06f 8e4d e0f8 3b4d 6b61 a94d
000003a0: 07b0 784d 016b 244d 5d36 214e 3878 104e
000003b0: 88b6 e54d 1d12 1e4e a6bf 0a4e 1fa3 d84d
000003c0: af5f 0b4e 6ed5 f04d 936a ba4d 50c2 c84c
000003d0: 4aeb b34c 409b 844c e843 ad4c 7a83 984c
000003e0: 809c 5d4c 312e 814c 616e 5e4c eefe 1f4c
000003f0: 4860 054c 5cd1 cf4b e06d b04b 6bdf 224c

exp_avg f4 [50]
13963.961 3517.19 -3994.421 7867.2505 20265.367 1086.071 998.9756 2139.8975
-8503.907 -9552.312 -18107.102 -12432.151 -17403.768 6670.007 -5404.1665 15560.122
5317.418 -6651.8438 -3323.6006 20999.553 4421.5347 -2535.8542 2036.146 4663.926
1618.083 7830.7505 -3455.4275 -6729.2803 -378.0489 13460.736 -1154.1235 -13386.97
1486.0183 29974.32 7697.9316 -5496.7876 6571.718 -8002.654 -6817.8496 9668.924
8646.364 1054.7177 -3093.837 657.8045 -9907.15 -8784.285 6940.8716 129.93103
284.69678 -7367.7266
00000000: d82f 5a46 0ad3 5b45 bca6 79c5 01da f545
00000010: bc52 9e46 46c2 8744 70be 7944 5cbe 0545
00000020: a1df 04c6 3f41 15c6 3476 8dc6 9b40 42c6
00000030: 89f7 87c6 0e70 d045 55e1 a8c5 7d20 7346
00000040: 582b a645 c0de cfc5 9cb9 4fc5 1b0f a446
00000050: 472c 8a45 ab7d 1ec5 ac84 fe44 68bf 9145
00000060: a842 ca44 01b6 f445 d7f6 57c5 3e4a d2c5
00000070: 4206 bdc3 f252 5246 f443 90c4 e12b 51c6
00000080: 96c0 b944 a42c ea46 748f f045 4dc6 abc5
00000090: be5d cd45 3b15 fac5 cc0e d5c5 b213 1746
000000a0: 7519 0746 f7d6 8344 645d 41c5 7d73 2444
000000b0: 9acc 1ac6 2441 09c6 f9e6 d845 58ee 0143
000000c0: 3059 8e43 d03d e6c5

exp_avg_sq f4 [50]
5.703789e+08 2.0316958e+08 2.773323e+08 1.0654059e+08 8.58822e+08 1.0417461e+08 5.4257852e+07 1.6279854e+09
7.72495e+08 2.3614986e+08 2.613185e+08 1.1075886e+09 7.792515e+08 2.018893e+09 2.8831784e+07 3.89356e+08
1.2627774e+08 1.6452802e+08 1.6812255e+09 1.195408e+09 7.66268e+08 3.8465597e+08 2.1539416e+08 1.4729696e+08
1.7511419e+08 1.7423552e+08 1.4295456e+08 1.4579835e+08 2.2856245e+08 8.4096774e+08 1.5138078e+08 3.6388e+08
8.2581254e+08 1.05331046e+09 2.549583e+08 2.9880253e+09 4.7986442e+08 6.500381e+08 9.38157e+07 9.260019e+08
4.0482399e+09 2.933439e+08 2.0615384e+08 8.2376435e+08 2.4920371e+08 2.720402e+08 4.4980592e+08 2.3564045e+08
4.712643e+09 5.8845523e+08
00000000: 2afd 074e f3c1 414d 0a3e 844d c635 cb4c
00000010: 56c2 4c4e 82b2 c64c 2ffa 4e4c 2c12 c24e
00000020: 5a2d 384e c635 614d 7636 794d ec08 844e
00000030: bdc9 394e baab f04e 14f8 db4b cfa8 b94d
00000040: 0edb f04c f9e7 1c4d ee6a c84e f580 8e4e
00000050: 4ab1 364e 136b b74d 776a 4d4d 2c79 0c4d
00000060: 7d00 274d f829 264d 0455 084d 4d0b 0b4d
00000070: 61f9 594d 9980 484e 335e 104d f282 ad4d
00000080: 99e3 444e f820 7b4e ae25 734d a619 324f
00000090: 33d1 e44d 2dfb 1a4e 72f0 b24c acc6 5c4e
000000a0: 3d4b 714f 95e0 8b4d 879a 444d 9666 444e
000000b0: c0a8 6d4d 08b8 814d f37b d64d 68b9 604d
000000c0: 9d72 8c4f 754c 0c4e
