models/sigma0.01_step0.0002_lr0.0005/ckpt/model_epoch_650.pth (torch, 282369 bytes, 18 tensors)

layer1.weight f4 [25, 1, 3, 3]
0.039277546 -0.03694919 0.16579118 -0.09833746 -0.041452963 0.18748422 0.0749841 0.03461291
0.029727925 -0.0376333 0.1252529 -0.24494243 -0.066190444 -0.024305135 0.0014902945 -0.008434167
-0.12526733 -0.00076582213 -0.039827887 -0.03024266 0.03491008 0.19375429 -0.06295973 -0.06620503
-0.07502817 -0.16060604 0.06686029 -0.09683548 0.093243465 0.010582105 0.08013785 0.013302792
0.18343042 0.010634418 -0.09270415 -0.095340095 -0.027050184 0.017252663 0.039026786 0.04724961
-0.18221682 0.24686237 -0.10781201 -0.19071917 0.11453476 0.043107904 -0.06472721 -0.10939192
-0.029854232 0.10398587 -0.047954977 0.07455149 -0.091280036 -0.113519356 -0.046323262 -0.018184967
-0.00011587972 0.12607291 -0.24813215 0.08398588 0.041843712 -0.11079392 -0.08496019 0.04010871
0.07489267 -0.07212784 -0.16339591 -0.14101622 -0.034419864 -0.1400892 0.049737927 0.0747443
-0.15139921 -0.04632098 0.066265635 0.057338536 -0.14880359 0.040725198 -0.14076048 -0.013806692
-0.034191784 -0.17563789 -0.14803715 0.004603691 -0.06430681 -0.020139463 0.061920766 -0.015912095
0.121985115 -0.098024786 0.014908 -0.032034118 -0.004648335 -0.16755348 -0.0018734833 -0.019894471
-0.032576155 -0.03428015 0.061371308 -0.022986732 -0.09181008 0.027525147 -0.0924083 0.006552316
-0.062420934 -0.121390894 0.19092695 -0.08424414 -0.058459606 -0.10030801 -0.17631347 0.13320749
-0.09740827 -0.045215853 -0.05621595 0.17101501 -0.0026654887 -0.11597363 -0.13900863 -0.044105094
-0.018785642 0.04244192 -0.034413513 -0.007124284 0.16168484 0.04808493 -0.038361374 -0.018203067
-0.08274253 -0.14869814 0.1329312 -0.16090055 -0.13569587 -0.103351966 0.04031256 0.087676235
0.10386253 -0.03308146 -0.100987926 -0.20415547 -0.0042087003 0.17342162 -0.059813313 -0.09342798
0.043334585 0.1509837 0.070028305 -0.042036057 -0.091554716 -0.029799838 -0.15056996 -0.0053492426
0.08391243 0.069724336 -0.03204814 0.053434983 0.050457023 -0.097781315 0.018843448 0.10751739
0.058808632 0.029950159 0.12490074 0.15701854 0.037457276 -0.004430864 -0.004733521 0.030597359
-0.046026703 -0.021976044 0.10185411 -0.0007010061 0.06376443 0.048857436 -0.03547069 0.18077634
0.11042447 -0.0979213 0.073053874 0.06897644 -0.12215217 -0.108930476 0.07823407 -0.009647619
-0.039992407 0.09084256 -0.060252186 -0.039012656 0.087310895 0.113918506 -0.00025825526 0.15529463
-0.116688296 -0.06546797 0.022201473 0.13223429 0.027096612 0.09424549 -0.056940608 -0.08440619
-0.022204455 -0.09223503 0.001857744 -0.07388037 -0.13000654 0.06038188 -0.21203358 -0.056334957
0.058474943 0.02441359 0.0552077 0.0025921552 0.04277574 -0.08501877 -0.0076958663 0.067727014
-0.060241856 0.10347601 0.075133294 -0.14223331 0.0821373 0.19193421 -0.08969989 0.033912238
0.037699863
00000000: 7ee1 203d 0958 17bd 2ac5 293e 2665 c9bd
00000010: 95ca 29bd ddfb 3f3e 4491 993d 44c6 0d3d
00000020: fa87 f33c 6025 1abd 4c42 003e 30d2 7abe
00000030: db8e 87bd 901b c7bc fc55 c33a 762f 0abc
00000040: 1446 00be 74c1 48ba 9122 23bd 74bf f7bc
00000050: dffd 0e3d 8667 463e 08f1 80bd 8196 87bd
00000060: 5fa8 99bd e975 24be 0cee 883d ae51 c6bd
00000070: 6ef6 be3d 9160 2d3c 501f a43d f4f3 593c
00000080: 2fd5 3b3e fb3b 2e3c acdb bdbd ab41 c3bd
00000090: 5998 ddbc 7555 8d3c 8dda 1f3d cf88 413d
000000a0: 0c97 3abe 7dc9 7c3e 8bcc dcbd e34b 43be
000000b0: 3391 ea3d ea91 303d b38f 84bd df08 e0bd
000000c0: dd90 f4bc 8bf6 d43d 706c 44bd 74ae 983d
000000d0: 07f1 babd d67c e8bd 76bd 3dbd a4f8 94bc
000000e0: 7304 f3b8 4219 013e 5b16 7ebe ca00 ac3d
000000f0: 5064 2b3d ece7 e2bd 9cff adbd 0849 243d
00000100: 5461 993d c3b7 93bd 4251 27be 8e66 10be
00000110: d8fb 0cbd 8b73 0fbe ffb9 4b3d 8a13 993d
00000120: 6508 1bbe 11bb 3dbd 47b6 873d d0db 6a3d
00000130: f85f 18be 77cf 263d 8423 10be 7735 62bc
00000140: af0c 0cbd 6bda 33be 0d97 17be 8fda 963b
00000150: 4ab3 83bd 84fb a4bc a1a0 7d3d 155a 82bc
00000160: 55d3 f93d 38c1 c8bd af40 743c 3536 03bd
00000170: 0f51 98bb 2493 2bbe ab8f f5ba bbf9 a2bc
00000180: 936e 05bd 5869 0cbd 7b60 7b3d ac4e bcbc
00000190: ec06 bcbd 6b7c e13c 9040 bdbd cfb4 d63b
000001a0: 18ad 7fbd ca9b f8bd 5b82 433e 3188 acbd
000001b0: 5773 6fbd 496e cdbd 858b 34be 8b67 083e
000001c0: fd7d c7bd 4234 39bd b242 66bd 8f1e 2f3e
000001d0: 7baf 2ebb 9583 edbd 4758 0ebe 8ba7 34bd
000001e0: 59e4 99bc 94d7 2d3d 2ff5 0cbd d372 e9bb
000001f0: b690 253e b4f4 443d d120 1dbd 991e 95bc
00000200: ea74 a9bd 5344 18be 1e1f 083e 1dc3 24be
00000210: dcf3 0abe 32aa d3bd c81e 253d 998f b33d
00000220: e1b5 d43d 6d80 07bd c2d2 cebd 220e 51be
00000230: 23e9 89bb 7095 313e cefe 74bd 2b57 bfbd
00000240: 9b7f 313d 799b 1a3e 006b 8f3d 002e 2cbd
00000250: 0a81 bbbd ca1e f4bc 032f 1abe b348 afbb
00000260: 48da ab3d a2cb 8e3d e944 03bd a4de 5a3d
00000270: 06ac 4e3d 9241 c8bd 935d 9a3c 1432 dc3d
00000280: 52e1 703d 095a f53c f6cb ff3d 78c9 203e
00000290: cd6c 193d c830 91bb a71b 9bbb 50a7 fa3c
000002a0: 7f86 3cbd 1b07 b4bc e398 d03d b9c3 37ba
000002b0: ed96 823d bc1e 483d b749 11bd 6f1d 393e
000002c0: 3926 e23d f68a c8bd 459d 953d 8543 8d3d
000002d0: eb2a fabd f116 dfbd 2f39 a03d 0c11 1ebc
000002e0: 14cf 23bd aa0b ba3d ffca 76bd bccb 1fbd
000002f0: 0ed0 b23d 1b4e e93d 6f66 87b9 8e05 1f3e
00000300: 46fa eebd 1214 86bd dddf b53c 6d68 073e
00000310: b7f9 dd3c c803 c13d 8e3a 69bd 27dd acbd
00000320: 1ee6 b5bc b8e5 bcbd 8b7f f33a 974e 97bd
00000330: 6f20 05be fd52 773d 551f 59be 7cbf 66bd
00000340: 6c83 6f3d 02ff c73c 7821 623d 26e1 293b
00000350: 9d35 2f3d 521e aebd 9b2d fcbb 76b4 8a3d
00000360: 2ac0 76bd 3beb d33d 7cdf 993d 9ca5 11be
00000370: 9a37 a83d 678a 443e 93b4 b7bd 8fe7 0a3d
00000380: 2c6b 1a3d

layer1.bias f4 [25]
-0.1713067 0.20774713 0.017424721 -0.22136155 0.113108136 -0.054012273 0.23739016 0.119752616
-0.07097066 -0.06001747 -0.16774742 0.27250266 -0.10733654 -0.1136992 -0.1717736 0.0777318
0.29917216 0.050411515 0.30442956 0.17620288 0.23919852 0.010676118 0.29150516 -0.08922939
0.30281684
00000000: 066b 2fbe aabb 543e 4abe 8e3c 9aac 62be
00000010: 3da5 e73d f93b 5dbd 6816 733e dc40 f53d
00000020: 1159 91bd e1d4 75bd fbc5 2bbe 7885 8b3e
00000030: 43d3 dbbd 20db e8bd 6be5 2fbe da31 9f3d
00000040: 182d 993e 4e7c 4e3d 31de 9b3e 876e 343e
00000050: 75f0 743e e2ea 2e3c 2a40 953e e6bd b6bd
00000060: cf0a 9b3e

layer2.weight f4 [50, 25, 3, 3]
0.033383865 0.0997127 0.07554012 -0.06892076 -0.029916277 0.048198227 0.06182996 0.020235881
0.038545236 0.09528702 -0.001974325 0.04412679 -0.04781635 -0.079468176 -0.045336757 0.071122706
0.019601848 0.037134092 0.0099189505 -0.0024313426 0.040342312 0.035474084 -0.051531743 0.008906683
-0.033804927 -0.040472813 -0.015145233 0.008661347 0.042082913 0.0038142686 -0.03506299 0.002957443
0.02573002 0.09712888 -0.033477254 0.06907129 -0.05537225 -0.0011632396 0.018905183 0.0016082457
-0.00035823946 -0.01823512 0.024447259 -0.0001385356 0.08308204 -0.0071735587 0.017105924 -0.08628456
0.01928414 -0.029754005 -0.0044542984 0.028066307 0.020171892 0.080480516 0.0039563077 0.021875095
-0.037196424 0.029153343 -0.09715811 -0.053859565 -0.056649435 -0.0092286775 0.025697088 -0.00016888331
-0.010477718 -0.0025208383 0.032591537 -0.011401772 -0.027672296 -0.029338788 -0.007951609 0.035132125
0.04035281 -0.004334076 -0.00082090026 -0.10003635 -0.12613612 -0.035405062 -0.030713873 0.020811493
-0.0851848 0.13959186 0.016558375 0.01785348 -0.124324925 -0.022551687 -0.00063098775 -0.048138563
0.056340467 -0.11253936 -0.08147791 0.049936753 0.013235006 -0.006744171 -0.06820964 -0.05257698
-0.104330055 -0.06653251 0.0602291 -0.005393987 -0.031106204 -0.019416057 -0.027922004 -0.0022051004
0.0072380495 -0.036942564 -0.07631809 -0.023987316 -0.02180212 -0.00093514967 -0.0068261866 0.07132197
0.007663545 -0.030397318 -0.09596045 -0.089023925 -0.04438144 -0.045603085 -0.0439238 -0.052335363
0.009413717 0.05142254 0.02657568 -0.06892184 0.09639937 -0.021569824 0.07846311 -0.08768738
0.028613636 -0.03099766 -0.061263226 -0.08559632 -0.03960503 0.017398665 -0.018336335 0.03326418
-0.037713025 0.12031212 0.0020072334 -0.02179865 -0.041555773 0.0035795234 0.0290448 0.014432169
-0.028311837 0.06832344 -0.055006016 0.06357851 0.010324633 0.013178209 -0.08278496 -0.02641273
0.005816859 -0.006188973 -0.009523999 -0.038567964 -0.024630707 -0.08924222 -0.009080947 0.07624538
0.019341104 -0.021778114 -0.03875517 0.13673756 -0.09853114 0.09856927 0.10233997 -0.011028008
0.02638534 0.043295264 -0.0645445 -0.024369415 -0.029320192 -0.098396756 0.02614469 -0.0002560567
0.046694122 -0.014456288 -0.024038553 -0.07454177 -0.0954607 -0.09054764 -0.082586765 0.03703688
0.004004637 -0.066758975 -0.0035783458 0.017736984 0.002872571 -0.1345999 0.012603443 0.026534874
0.04620895 -0.053451255 -0.0043180604 -0.05489932 -0.052228265 0.0232403 0.0010986475 0.07796172
-0.010179794 -0.024605135 -0.01935574 -0.0054159453 -0.00012388917 0.0024571859 -0.022800544 -0.037423193
-0.0070688543 0.084401816 -0.060635004 -0.061154354 0.057737928 -0.043330316 0.08723945 0.10038533
0.022877676 0.069245376 0.06252763 0.061957907 -0.0039005545 0.011170887 0.05333705 0.10543002
-0.018683072 0.008592173 -0.026379636 0.008293225 0.04513772 -0.06917483 0.071392134 0.09686138
0.017866312 0.05402845 -0.043210126 -0.09062705 0.011654872 0.051819995 -0.07855646 0.006978875
0.0021149921 -0.029621277 -0.08225945 -0.0032869994 0.0675265 0.113072865 0.082197234 0.004903379
0.06949059 -0.0814103 -0.016259057 0.043147266 0.008810191 0.03334008 -0.05315218 -0.06592258
00000000: 85bd 083d 2c36 cc3d c7b4 9a3d 5426 8dbd
00000010: fb12 f5bc 816b 453d 6a41 7d3d b8c5 a53c
00000020: 9ce1 1d3d d725 c33d ad63 01bb 4bbe 343d
00000030: 14db 43bd 36c0 a2bd 09b3 39bd c8a8 913d
00000040: 0e94 a03c eb19 183d 1883 223c 2957 1fbb
00000050: fb3d 253d 464d 113d f312 53bd 56ed 113c
00000060: 0977 0abd d2c6 25bd b623 78bc 53e8 0d3c
00000070: 225f 2c3d cff8 793b 369e 0fbd a9d1 413b
00000080: c3c7 d23c 82eb c63d 721f 09bd 4075 8d3d
00000090: 03ce 62bd d877 98ba 0bdf 9a3c c5cb d23a
000000a0: 16d2 bbb9 d261 95bc 9e45 c83c de43 11b9
000000b0: eb26 aa3d 2c10 ebbb b921 8c3c f6b5 b0bd
000000c0: c6f9 9d3c acbe f3bc 5df5 91bb 50eb e53c
000000d0: 863f a53c f8d2 a43d eaa3 813b 6633 b33c
000000e0: 475b 18bd fed2 ee3c d5fa c6bd d99b 5cbd
000000f0: 3d09 68bd e133 17bc b382 d23c 4516 31b9
00000100: bcaa 2bbc a634 25bb b47e 053d 7fce 3abc
00000110: 03b1 e2bc e657 f0bc 7747 02bc b4e6 0f3d
00000120: fd48 253d dd04 8ebb af31 57ba dcdf ccbd
00000130: d429 01be e604 11bd a99b fbbc dd7c aa3c
00000140: 5e75 aebd 2bf1 0e3e 6ea5 873c 7641 923c
00000150: 119e febd 51be b8bc df68 25ba f12c 45bd
00000160: 43c5 663d 097b e6bd e4dd a6bd 7b8a 4c3d
00000170: a3d7 583c 35fe dcbb 7fb1 8bbd f65a 57bd
00000180: ffaa d5bd 3242 88bd cab2 763d 0bc0 b0bb
00000190: 70d2 febc 6c0e 9fbc b0bc e4bc 7283 10bb
000001a0: 292d ed3b 1651 17bd a94c 9cbd 0c81 c4bc
000001b0: 5c9a b2bc d524 75ba 34ae dfbb 4111 923d
000001c0: 7a1e fb3b cc03 f9bc ea86 c4bd 2d52 b6bd
000001d0: 50c9 35bd 4dca 3abd 71e9 33bd 9b5d 56bd
000001e0: fe3b 1a3c 71a0 523d 3eb5 d93c e526 8dbd
000001f0: 086d c53d 33b3 b0bc 44b1 a03d 7195 b3bd
00000200: 2567 ea3c ceee fdbc 26ef 7abd 204d afbd
00000210: e238 22bd a587 8e3c 1536 96bc 0540 083d
00000220: f978 1abd 3366 f63d ca8b 033b 1593 b2bc
00000230: 6336 2abd 7096 6a3b 5cef ed3c e774 6c3c
00000240: 3aee e7bc 29ed 8b3d fd4d 61bd 7335 823d
00000250: a628 293c 6ae9 573c 298b a9bd 825f d8bc
00000260: 5a9b be3b decc cabb 8c0a 1cbc 71f9 1dbd
00000270: 56c6 c9bc a0c4 b6bd 41c8 14bc 8a26 9c3d
00000280: 3c71 9e3c 0468 b2bc bebd 1ebd ee04 0c3e
00000290: b2ca c9bd afde c93d 9e97 d13d d1ae 34bc
000002a0: 1226 d83c 6056 313d e82f 84bd 5ea2 c7bc
000002b0: e630 f0bc 3d84 c9bd 642d d63c 593f 86b9
000002c0: 5642 3f3d 11da 6cbc 80ec c4bc 5ba9 98bd
000002d0: e680 c3bd 0b71 b9bd 4023 a9bd fcb3 173d
000002e0: 5439 833b eeb8 88bd ae82 6abb 274d 913c
000002f0: bf41 3c3b 8ed4 09be ac7e 4e3c aa5f d93c
00000300: 9945 3d3d b4ef 5abd 847e 8dbb 1cde 60bd
00000310: 4eed 55bd 7162 be3c 7e00 903a 65aa 9f3d
00000320: 27c9 26bc b590 c9bc ee8f 9ebc 3e78 b1bb
00000330: 3fe8 01b9 bd08 213b 35c8 babc 1049 19bd
00000340: d9a1 e7bb dcda ac3d 695c 78bd fd7c 7abd
00000350: 9b7e 6c3d 217b 31bd 99aa b23d d396 cd3d
00000360: f769 bb3c 85d0 8d3d 7c0e 803d 93c7 7d3d
00000370: 72a0 7fbb 1906 373c f377 5a3d b2eb d73d
00000380: 3e0d 99bc 30c6 0c3c 1b1a d8bc 4fe0 073c
00000390: 54e2 383d 89ab 8dbd 0a36 923d 425f c63d
000003a0: 5f5c 923c f04c 5d3d 1afd 30bd ad9a b9bd
000003b0: 14f4 3e3c 3441 543d 36e2 a0bd 0caf e43b
000003c0: ae9b 0a3b 52a8 f2bc a477 a8bd b36a 57bb
000003d0: 554b 8a3d bf92 e73d 0657 a83d 86ac a03b
000003e0: 1551 8e3d 72ba a6bd b731 85bc 30bb 303d
000003f0: 9f58 103c 9c8f 083d 1ab6 59bd 6b02 87bd

layer2.bias f4 [50]
0.0565261 0.06327845 -0.0315957 0.010588369 0.061794057 0.014025111 -0.053031087 -0.061736748
-0.017527197 -0.049274456 0.06527304 -0.027761392 -0.043891445 -0.010940103 -0.0014955646 0.01345293
0.053904988 0.03274092 0.011751872 0.039103385 0.06530293 0.011385736 -0.06374532 -0.004433649
0.0025156797 -0.038326323 -0.0003038321 0.04583591 0.052414622 0.03846621 -0.06484324 -0.040587097
0.0350041 -0.032072004 0.014514614 0.0026672722 0.035237268 0.06438076 0.044390604 -0.054638617
0.048002124 -0.033752117 -0.052880123 0.01316024 0.04058605 0.013458747 -0.05227861 0.054654233
0.02829516 0.044182863
00000000: e987 673d 2298 813d 7e6a 01bd d77a 2d3c
00000010: c41b 7d3d 94c9 653c 2037 59bd acdf 7cbd
00000020: 3295 8fbc 03d4 49bd dfad 853d dc6b e3bc
00000030: 84c7 33bd 1e3e 33bc d206 c4ba ae69 5c3c
00000040: 7acb 5c3d 581b 063d ec8a 403c df2a 203d
00000050: 8bbd 853d 3d8b 3a3c e88c 82bd 2548 91bb
00000060: 1ade 243b 10fc 1cbd a74b 9fb9 6fbe 3b3d
00000070: b7b0 563d bf8e 1d3d 88cc 84bd a83e 26bd
00000080: 7660 0f3d ef5d 03bd b4ce 6d3c 67cd 2e3b
00000090: f454 103d 0fda 833d ecd2 353d becc 5fbd
000000a0: e09d 443d a93f 0abd d498 58bd 0c9e 573c
000000b0: 8f3d 263d 1482 5c3c 1922 56bd 1edd 5f3d
000000c0: 40cb e73c 17f9 343d

layer4.weight f4 [25, 50, 3, 3]
0.087755635 0.036543913 0.03706685 0.055773396 -0.015407358 0.060378175 0.015482519 0.07731236
0.044016752 0.036360666 -0.008167328 0.102355435 -0.03204915 -0.022094375 -0.03580765 -0.040509015
0.060032085 -0.045679532 -0.018352 -0.035882507 -0.098738685 -0.010413035 -0.039139643 -9.5723e-05
-0.046221312 0.02140604 -0.012627643 -0.050769307 -0.07974037 0.0036895534 0.014738694 0.07736856
0.032447048 0.058513105 0.015006173 -0.016644277 -0.014751714 0.008572987 0.004143188 -0.078740634
0.03492036 0.063119516 0.083830915 0.039370127 -0.021882936 0.018237647 0.024992734 -0.006520292
0.003367115 0.029294647 -0.06389429 0.04482984 0.024488512 -0.06776765 0.029794296 0.014697668
-0.044494905 -0.046457075 -0.0050704586 0.014912064 0.0033330135 -0.12775414 -0.05726128 -0.03913266
0.06864152 0.00061115297 -0.05267197 0.04211767 0.06967181 0.024555134 -0.011670029 0.010582291
0.010891452 0.06037065 0.040723085 -0.040938277 -0.0054527684 -0.042604793 0.008378898 0.04617268
-0.095808566 -0.030770173 -0.07640225 -0.000550297 -0.046093788 -0.005083562 0.11645997 -0.05514636
0.020612292 0.09363538 0.029265756 0.061155915 0.034035023 0.049510993 0.04952555 -0.05926379
-0.0004952822 0.010438236 0.03910764 0.013319358 0.012774922 -0.007971911 0.1048353 0.06317206
0.03612444 -0.005176806 -0.06194906 -0.030449828 -0.015880767 -0.035475396 -0.021417389 -0.020889813
0.068607025 0.00529742 0.102404535 0.12680204 -0.06834078 -0.044543196 0.13154505 0.025748668
0.036766835 0.07303669 0.04401998 0.06908077 -0.04422584 0.06109077 -0.028778257 -0.055749368
0.023990601 -0.017700622 -0.03168537 0.10719666 -0.032002177 -0.064779885 0.102558374 -0.059646405
0.010405615 0.026336718 -0.042894688 0.09071649 -0.027535489 -0.047733095 -0.04570636 0.07952952
-0.046622094 -0.08020729 -0.09215147 0.071286716 0.053081263 0.003144867 -0.05265652 0.03892901
-0.052173074 -0.015738558 0.00073327794 -0.07401585 0.025990292 0.012107943 0.09293096 0.04052307
0.03601101 -0.10056037 0.0584971 0.08466344 0.050910857 -0.023446366 -0.06910727 0.0685877
0.01570421 0.0791129 0.016093474 0.06465757 0.02326549 0.04143707 -0.04140667 -0.047283333
0.037685476 -0.05042136 0.052597813 -0.052376073 -0.00545418 -0.09656594 -0.04356665 -0.079013795
-0.019378178 -0.022319514 -0.020739077 -0.06542857 -0.020607313 0.12990372 0.052244954 0.14974704
-0.0066643218 -0.09656584 -0.0066473526 -0.0030794248 -0.10703859 0.103808545 -0.044993494 -0.023405185
-0.0074782697 -0.019546608 -0.01766413 -0.060507268 0.041164428 0.034220807 -0.059251845 -0.00469251
0.015538614 0.045873508 -0.053376444 -0.0069024516 0.05937822 0.02102993 0.055178385 -0.026115883
0.00086741504 0.037406467 0.01134081 -0.008180708 -0.07647417 0.008463788 -0.04538039 0.08536926
-0.05052041 0.041607868 -0.018404234 -0.06547933 -0.027777156 0.04994202 -0.0050173947 3.1770658e-05
-0.008842383 0.06729862 -0.019335115 0.036053132 -0.03658976 -0.05854305 -0.08673413 -0.007747877
-0.09605086 0.09441944 -0.12622806 0.03765408 0.03133349 -0.055550583 0.054074775 0.038392548
0.006255813 -0.07161587 0.07146612 0.03128403 -0.07451413 -0.0029922803 0.039859332 -0.023270123
00000000: 3ab9 b33d 12af 153d 69d3 173d a572 643d
00000010: 256f 7cbc 1b4f 773d 64aa 7d3c f155 9e3d
00000020: e94a 343d ecee 143d 42d0 05bc ba9f d13d
00000030: f845 03bd 43ff b4bc 0bab 12bd c8ec 25bd
00000040: 34e4 753d 761a 3bbd ef56 96bc 89f9 12bd
00000050: 8237 cabd 6f9b 2abc e450 20bd e5be c8b8
00000060: 8f52 3dbd b85b af3c 2ce4 4ebc 7af3 4fbd
00000070: eb4e a3bd 6fcc 713b 907a 713c 6873 9e3d
00000080: 32e7 043d 70ab 6f3d 74dc 753c 9459 88bc
00000090: 2cb1 71bc b775 0c3c 94c3 873b c542 a1bd
000000a0: a708 0f3d ce44 813d 8baf ab3d 9242 213d
000000b0: d843 b3bc 1e67 953c 90bd cc3c 2ca8 d5bb
000000c0: d1aa 5c3b 54fb ef3c 02db 82bd 7f9f 373d
000000d0: 229c c83c c4c9 8abd 2b13 f43c 7dce 703c
000000e0: 4a40 36bd c649 3ebd 1726 a6bb bb51 743c
000000f0: b06e 5a3b fbd1 02be ce8a 6abd 9149 20bd
00000100: ed93 8c3d c835 203a 90be 57bd 9483 2c3d
00000110: 18b0 8e3d d927 c93c a633 3fbc 5861 2d3c
00000120: 1072 323c 3747 773d 40cd 263d e5ae 27bd
00000130: 23ad b2bb 5d82 2ebd a547 093c 901f 3d3d
00000140: 4837 c4bd bb11 fcbc c878 9cbd ce41 10ba
00000150: d7cc 3cbd 0294 a6bb 9182 ee3d 26e1 61bd
00000160: 1cdb a83c e8c3 bf3d bdbe ef3c a07e 7a3d
00000170: 4f68 0b3d 0acc 4a3d 4edb 4a3d 96be 72bd
00000180: d3d5 01ba 2305 2b3c 552f 203d 7039 5a3c
00000190: e84d 513c 9e9c 02bc e4b3 d63d 5a60 813d
000001a0: 39f7 133d 32a2 a9bb 4cbe 7dbd eb71 f9bc
000001b0: 6218 82bc a64e 11bd 8573 afbc 1d21 abbc
000001c0: d781 8c3d fb95 ad3b 78b9 d13d 65d8 013e
000001d0: 40f6 8bbd ed72 36bd bfb3 063e dfee d23c
000001e0: d298 163d 4394 953d 4b4e 343d 387a 8d3d
000001f0: 2826 35bd 513a 7a3d 61c0 ebbc 7359 64bd
00000200: f087 c43c e500 91bc 85c8 01bd ec89 db3d
00000210: b714 03bd 51ab 84bd 200a d23d ca4f 74bd
00000220: 507c 2a3c 1ac0 d73c 57b2 2fbd 91c9 b93d
00000230: 1b92 e1bc c783 43bd 9836 3bbd 5fe0 a23d
00000240: cff6 3ebd b843 a4bd e9b9 bcbd c5fe 913d
00000250: bd6b 593d 1d1a 4e3b 5dae 57bd 0774 1f3d
00000260: 6fb3 55bd 26ee 80bc 7339 403a 9f95 97bd
00000270: 98e9 d43c 6560 463c 9652 be3d 85fb 253d
00000280: 4880 133d 98f2 cdbd a89a 6f3d 0764 ad3d
00000290: e787 503d 9812 c0bc 1d88 8dbd b577 8c3d
000002a0: 1ea6 803c f205 a23d 76d6 833c 306b 843d
000002b0: 4597 be3c ebb9 293d 0a9a 29bd 2bac 41bd
000002c0: 165c 1a3d a186 4ebd ce70 573d 4b88 56bd
000002d0: fab8 b2bb 5dc4 c5bd f272 32bd fcd1 a1bd
000002e0: fcbe 9ebc 6ad7 b6bc ffe4 a9bc 6aff 85bd
000002f0: abd0 a8bc 7b05 053e cefe 553d 4a57 193e
00000300: 6260 dabb 50c4 c5bd 09d2 d9bb 2dd0 49bb
00000310: 0c37 dbbd 9399 d43d 194b 38bd 3bbc bfbc
00000320: 460c f5bb 3520 a0bc 5eb4 90bc 78d6 77bd
00000330: 089c 283d 1e2b 0c3d 10b2 72bd a0c3 99bb
00000340: ac95 7e3c dce5 3b3d 42a1 5abd f62d e2bb
00000350: 9436 733d f646 ac3c bb02 623d faf0 d5bc
00000360: 3d63 633a 8637 193d cece 393c 6008 06bc
00000370: 7d9e 9cbd b3ab 0a3c cae0 39bd 14d6 ae3d
00000380: 7dee 4ebd 036d 2a3d 7ac4 96bc 071a 86bd
00000390: eb8c e3bc 0190 4c3d f568 a4bb 7c41 0538
000003a0: a4df 10bc dcd3 893d ad64 9ebc 73ac 133d
000003b0: 25df 15bd d6ca 6fbd aaa1 b1bd e7e1 fdbb
000003c0: 50b6 c4bd fb5e c13d ee41 01be 2a3b 1a3d
000003d0: 8c57 003d 0289 63bd 837d 5d3d 8141 1d3d
000003e0: 90fd cc3b 57ab 92bd d45c 923d af23 003d
000003f0: dd9a 98bd 221a 44bb 8a43 233d fca0 bebc

layer4.bias f4 [25]
0.0323049 -0.020951983 -0.019251775 -0.011914373 -0.021454139 -0.013476317 0.026776362 0.00070249964
0.0010211659 -0.013556152 0.017326 -0.02131247 -0.017839523 0.025575353 -0.0040166182 0.023773335
0.02160015 -0.01024663 -0.004672821 0.034841742 0.0011958468 0.007046865 0.01088919 0.027795264
-0.023830581
00000000: 2552 043d 7ea3 abbc e6b5 9dbc 8134 43bc
00000010: 97c0 afbc c5cb 5cbc 1a5a db3c f427 383a
00000020: a4d8 853a 9f1a 5ebc 41ef 8d3c 7d97 aebc
00000030: 3124 92bc 6783 d13c d69d 83bb 4cc0 c23c
00000040: ccf2 b03c 7be1 27bc 771e 99bb 37b6 0e3d
00000050: f6bd 9c3a 63e9 e63b 9368 323c e5b2 e33c
00000060: 5a38 c3bc

exp_avg f4 [25, 1, 3, 3]
-35445.598 -29287.531 -17129.502 -50818.96 -45566.46 -32532.057 -56787.055 -52724.53
-40847.78 -413.8816 -2444.7432 -4681.335 5178.6567 5100.41 5208.9297 11043.654
12038.293 13400.328 10271.959 16710.184 23125.316 19860.22 26226.717 32198.768
18721.729 24770.4 30280.215 -33122.54 -42358.23 -45809.344 -27336.387 -35340.406
-37588.5 -20046.438 -25991.129 -27850.598 10996.465 11761.254 9046.316 32107.785
27449.617 18891.46 47874.03 38766.734 24190.635 33718.258 32854.36 24583.852
57008.254 53042.68 39446.605 67394.28 59545.61 42188.324 59984.0 62370.336
49121.023 72603.89 73125.01 58085.883 68459.1 68722.7 52723.91 33183.844
31759.734 18291.469 55144.195 52945.266 36486.52 67453.05 64713.18 45806.15
45194.734 44657.64 34524.58 61162.36 59283.688 47421.652 67226.75 64821.383
51865.18 33760.125 39732.67 29933.998 48877.4 54370.72 42792.074 53333.094
57945.51 44890.0 28883.56 35482.504 33603.64 47062.04 54987.164 51972.1
56262.734 63945.09 59386.523 50587.53 55914.348 45445.594 58452.54 63418.094
50808.14 51818.727 55954.59 42483.93 12967.254 11884.803 7614.671 17403.16
14494.627 9243.938 17050.188 13782.388 7883.389 18729.484 17462.434 10512.572
11499.213 9922.96 2482.1133 -561.0232 -2849.0918 -9707.709 75296.055 61040.367
29764.238 89145.375 76835.5 44467.344 86867.78 76536.69 47722.625 48267.094
49388.004 39379.055 64734.188 62720.234 48899.1 70221.805 64834.42 48210.844
17965.49 13996.549 5990.202 21362.715 17404.004 9328.094 19560.818 17110.688
9999.174 -42223.33 -34937.605 -13806.793 -48417.945 -39694.312 -16523.459 -45134.367
-35177.645 -12606.61 -19814.898 -25718.02 -20812.03 -38316.414 -44631.96 -38114.156
-47699.164 -52828.484 -45040.32 -17653.914 -33272.96 -38488.54 -35600.082 -49637.047
-52037.96 -45486.07 -57110.07 -56388.46 38644.07 36803.242 25558.113 48607.6
44248.914 29430.395 47874.14 40493.49 23900.527 -9126.257 -15504.219 -17867.959
-16497.383 -21053.082 -21952.863 -19425.654 -22605.637 -21466.875 36848.977 47472.125
48429.824 56007.84 63281.234 59031.22 66350.34 68392.31 58938.59 -25960.727
-39637.074 -47905.695 -37723.523 -52470.184 -58924.668 -38581.08 -52130.016 -56373.008
-45231.355 -41703.645 -28462.652 -65849.23 -61544.164 -46464.21 -77261.445 -73149.89
-57638.18
00000000: 9975 0ac7 10cf e4c6 01d3 85c6 f682 46c7
00000010: 76fe 31c7 1d28 fec6 0ed3 5dc7 88f4 4dc7
00000020: c88f 1fc7 d8f0 cec3 e4cb 18c5 ae4a 92c5
00000030: 41d5 a145 4863 9f45 70c7 a245 9e8e 2c46
00000040: 2c19 3c46 5061 5146 d67f 2046 5e8c 8246
00000050: a2aa b446 7128 9b46 6fe5 cc46 898d fb46
00000060: 7543 9246 cd84 c146 6e90 ec46 8a62 01c7
00000070: 3b76 25c7 58f1 32c7 c690 d5c6 680c 0ac7
00000080: 80d4 12c7 e09c 9cc6 420e cbc6 3295 d9c6
00000090: dcd1 2b46 04c5 3746 4459 0d46 92d7 fa46
000000a0: 3c73 d646 ec96 9346 0802 3b47 bc6e 1747
000000b0: 45fd bc46 42b6 0347 5c56 0047 b40f c046
000000c0: 41b0 5e47 ae32 4f47 9b16 1a47 24a1 8347
000000d0: 9c99 6847 53cc 2447 0050 6a47 56a2 7347
000000e0: 06e1 3f47 f2cd 8d47 81d2 8e47 e2e5 6247
000000f0: 8db5 8547 5a39 8647 e9f3 4d47 d89f 0147
00000100: 781f f846 f0e6 8e46 3268 5747 44d1 4e47
00000110: 8586 0e47 86be 8347 2ec9 7c47 26ee 3247
00000120: bc8a 3047 a471 2e47 94dc 0647 5cea 6e47
00000130: b093 6747 a73d 3947 604d 8347 6235 7d47
00000140: 2e99 4a47 20e0 0347 ac34 1b47 ffdb e946
00000150: 66ed 3e47 b862 5447 1328 2747 1855 5047
00000160: 8359 6247 005a 2f47 1fa7 e146 819a 0a47
00000170: a443 0347 0ad6 3747 2acb 5647 1a04 4b47
00000180: bcc6 5b47 17c9 7947 86fa 6747 889b 4547
00000190: 596a 5a47 9885 3147 8a54 6447 18ba 7747
000001a0: 2478 4647 ba6a 4a47 9792 5a47 eef3 2547
000001b0: 049d 4a46 36b3 3946 5ef5 ed45 52f6 8746
000001c0: 827a 6246 c16f 1046 6034 8546 8d59 5746
000001d0: 1d5b f645 f852 9246 de6c 8846 4a42 2446
000001e0: daac 3346 d70b 1b46 d021 1b45 7c41 0cc4
000001f0: 7811 32c5 d6ae 17c6 0710 9347 5e70 6e47
00000200: 7a88 e846 b01c ae47 c011 9647 58b3 2d47
00000210: e4a9 a947 587c 9547 a06a 3a47 188b 3c47
00000220: 01ec 4047 0ed3 1947 30de 7c47 3c00 7547
00000230: 1a03 3f47 e726 8947 6c42 7d47 d852 3c47
00000240: fb5a 8c46 32b2 5a46 9e31 bb45 6ee5 a646
00000250: 02f8 8746 60c0 1146 a3d1 9846 60ad 8546
00000260: b23c 1c46 54ef 24c7 9b79 08c7 2cbb 57c6
00000270: f221 3dc7 500e 1bc7 eb16 81c6 5e4e 30c7
00000280: a569 09c7 71fa 44c6 cccd 9ac6 0aec c8c6
00000290: 0f98 a2c6 6aac 15c7 f657 2ec7 28e2 14c7
000002a0: 2a53 3ac7 7c5c 4ec7 52f0 2fc7 d4eb 89c6
000002b0: f6f8 01c7 8a58 16c7 1510 0bc7 0ce5 41c7
000002c0: f645 4bc7 12ae 31c7 1216 5fc7 7644 5cc7
000002d0: 12f4 1647 3ec3 0f47 3aac c746 9adf 3d47
000002e0: ead8 2c47 caec e546 2402 3b47 7d2d 1e47
000002f0: 0eb9 ba46 0799 0ec6 e040 72c6 eb97 8bc6
00000300: c4e2 80c6 2a7a a4c6 ba81 abc6 4fc3 97c6
00000310: 469b b0c6 c0b5 a7c6 faf0 0f47 2070 3947
00000320: d32d 3d47 d7c7 5a47 3c31 7747 3897 6647
00000330: 2c97 8147 2894 8547 973a 6647 74d1 cac6
00000340: 13d5 1ac7 b221 3bc7 865b 13c7 2ff6 4cc7
00000350: ab2c 66c7 14b5 16c7 04a2 4bc7 0235 5cc7
00000360: 5baf 30c7 a5e7 22c7 4e5d dec6 9d9c 80c7
00000370: 2a68 70c7 3680 35c7 b9e6 96c7 f2de 8ec7
00000380: 2e26 61c7

exp_avg_sq f4 [25, 1, 3, 3]
4.1218048e+09 4.050958e+09 3.4490173e+09 5.49362e+09 5.401477e+09 4.4847846e+09 5.9840794e+09 5.929106e+09
4.9326674e+09 2.2757112e+09 2.4760847e+09 2.3859195e+09 2.2959286e+09 2.5473784e+09 2.475476e+09 2.1131625e+09
2.381474e+09 2.358798e+09 5.222404e+09 6.0467814e+09 6.0938803e+09 5.1450993e+09 6.214901e+09 6.5204925e+09
4.6336164e+09 5.7481395e+09 6.1881887e+09 4.1029898e+09 5.865083e+09 7.019789e+09 3.3587374e+09 4.8354693e+09
5.8268273e+09 2.4679572e+09 3.525068e+09 4.2869512e+09 6.1180755e+08 4.0664525e+08 2.758629e+08 9.1413306e+08
6.3321715e+08 3.796854e+08 1.3717234e+09 9.10802e+08 4.580312e+08 6.5830164e+09 5.618607e+09 4.0943936e+09
8.384505e+09 7.2422866e+09 5.183803e+09 9.070234e+09 7.729719e+09 5.4346977e+09 6.526144e+09 6.622234e+09
5.170377e+09 9.362266e+09 9.435026e+09 7.4491146e+09 1.0166216e+10 1.0303801e+10 8.175542e+09 3.28415e+09
3.4015744e+09 2.790406e+09 5.425117e+09 5.5566484e+09 4.370977e+09 7.1693665e+09 7.2569805e+09 5.554396e+09
1.3795611e+09 1.5025622e+09 1.2424677e+09 2.8874609e+09 2.8169943e+09 2.1440626e+09 4.3095127e+09 4.0499453e+09
2.9929009e+09 6.713466e+09 7.771476e+09 7.3226593e+09 1.0255932e+10 1.2015727e+10 1.1363402e+10 1.3084177e+10
1.5380437e+10 1.463946e+10 1.0462249e+09 1.208612e+09 1.1991905e+09 2.5961608e+09 3.155196e+09 3.086411e+09
4.349924e+09 5.2499686e+09 5.0767667e+09 1.7628266e+10 1.7981456e+10 1.5122898e+10 1.8621102e+10 1.9299949e+10
1.6256269e+10 1.6088373e+10 1.6832101e+10 1.4192344e+10 1.680636e+09 8.7687514e+08 4.5772656e+08 3.270862e+09
1.9544701e+09 8.950442e+08 4.6259323e+09 3.0940997e+09 1.5808755e+09 8.125582e+08 9.3643866e+08 8.96573e+08
7.1346995e+08 8.2996026e+08 8.273741e+08 5.354558e+08 6.48222e+08 7.380327e+08 1.1813354e+10 1.0123105e+10
6.5559434e+09 1.5078911e+10 1.3440422e+10 8.96744e+09 1.5390515e+10 1.4128642e+10 9.892284e+09 2.6912983e+10
2.3407954e+10 1.7378638e+10 2.9632258e+10 2.5849428e+10 1.916484e+10 2.8525386e+10 2.4818323e+10 1.8380128e+10
4.6010304e+08 4.696125e+08 4.299879e+08 4.9234426e+08 4.921773e+08 4.2990307e+08 4.115483e+08 4.265724e+08
3.678999e+08 2.0272832e+09 2.0431236e+09 1.5743498e+09 2.4939948e+09 2.431449e+09 1.7821917e+09 2.3711322e+09
2.229592e+09 1.6270282e+09 7.9383823e+09 9.046775e+09 8.875372e+09 1.0452353e+10 1.2331895e+10 1.2210481e+10
1.2055229e+10 1.4438609e+10 1.4432815e+10 2.0664243e+09 3.1981962e+09 3.8342228e+09 2.5342666e+09 4.0136973e+09
4.6437586e+09 2.9436378e+09 4.4046566e+09 4.787187e+09 4.102179e+09 4.610676e+09 4.2918397e+09 5.860727e+09
6.443595e+09 5.907614e+09 6.556969e+09 7.0640573e+09 6.5068175e+09 6.0084966e+08 7.6411034e+08 8.6030694e+08
5.949953e+08 7.401949e+08 8.155845e+08 5.5923296e+08 6.534049e+08 6.789625e+08 4.2086484e+09 5.115126e+09
5.191889e+09 5.86937e+09 6.865011e+09 6.57017e+09 6.915745e+09 7.5342817e+09 6.7390817e+09 7.33809e+09
8.2906204e+09 8.220126e+09 8.5129743e+09 9.703086e+09 9.439708e+09 8.1327283e+09 9.180898e+09 8.6875e+09
1.6752204e+10 1.5165283e+10 1.14356e+10 2.1465872e+10 2.0064176e+10 1.5640324e+10 2.338687e+10 2.2490468e+10
1.8088432e+10
00000000: c0ad 754f b774 714f d493 4d4f ffb8 a34f
00000010: 00fa a04f 31a8 854f e756 b24f 7db3 b04f
00000020: 4401 934f 99a4 074f 0e96 134f 3e36 0e4f
00000030: 17d9 084f e9d5 174f c48c 134f 9ae8 fb4e
00000040: 69f2 0d4f 6798 0c4f c8a3 9b4f 4835 b44f
00000050: 9e9c b54f fe55 994f ef37 b94f 6953 c24f
00000060: b017 8a4f d34e ab4f 226c b84f a88e 744f
00000070: 08cb ae4f bd34 d14f 4432 484f b41b 904f
00000080: 2aa7 ad4f 0a1a 134f 451c 524f af85 7f4f
00000090: c5dd 114e 50e7 c14d ac8a 834d 41f2 594e
000000a0: 82f8 164e 510c b54d ad85 a34e f126 594e
000000b0: 0368 da4d 6e30 c44f 9272 a74f 7d0b 744f
000000c0: b2e0 f94f 43d6 d74f 477d 9a4f 3228 0750
000000d0: 135d e64f 74f7 a14f 877e c24f a35b c54f
000000e0: d916 9a4f 3682 0b50 c597 0c50 3c00 de4f
000000f0: 097d 1750 e289 1950 6fa6 f34f 27c0 434f
00000100: e8bf 4a4f 3752 264f 5cae a14f dd99 a54f
00000110: e843 824f eda9 d54f 5e46 d84f ae88 a54f
00000120: dd74 a44e 8f1e b34e 1b1d 944e 281b 2c4f
00000130: ece7 274f 9997 ff4e f96e 804f 4365 714f
00000140: 0b64 324f ae13 c84f a89b e74f 753b da4f
00000150: 47d3 1850 5c0c 3350 f053 2950 2df8 4250
00000160: b62f 6550 1c25 5a50 8070 794e e913 904e
00000170: 64f4 8e4e 45be 1a4f 7810 3c4f e5f6 374f
00000180: 49a3 814f 1576 9c4f a84c 974f 4057 8350
00000190: e8f8 8550 4759 6150 efbc 8a50 bbcb 8f50
000001a0: bf3c 7250 46bc 6f50 5fd1 7a50 7f7b 5350
000001b0: f158 c84e 3610 514e d342 da4d 65f5 424f
000001c0: b2fd e84e 2a65 554e 10dd 894f 376c 384f
000001d0: 7e74 bc4e 9eba 414e ae43 5f4e 79c2 554e
000001e0: c01a 2a4e c1e0 454e e842 454e 4253 ff4d
000001f0: 558c 1a4e f1f5 2f4e 5f08 3050 95d8 1650
00000200: e161 c34f 7bb1 6050 2447 4850 12a0 0550
00000210: 2856 6550 7e88 5250 1268 1350 7184 c850
00000220: 2167 ae50 1f7b 8150 0cc7 dc50 df97 c050
00000230: 08ca 8e50 db87 d450 32e9 b850 50f1 8850
00000240: ec64 db4d bfed df4d c208 cd4d 9ec4 ea4d
00000250: 3db0 ea4d 67fe cc4d d43d c44d d467 cb4d
00000260: a86d af4d c6ab f14e 2f8f f34e 58ad bb4e
00000270: 57a7 144f f8ec 104f 2d74 d44e 9b54 0d4f
00000280: e0e4 044f f6f4 c14e 0d95 ec4f b5ce 0650
00000290: db40 0450 90c0 1b50 72c2 3750 4af3 3550
000002a0: 0da3 3350 ec26 5750 d210 5750 4456 f64e
000002b0: 9aa0 3e4f 9989 644f d70d 174f 293c 6f4f
000002c0: 1165 8a4f 5974 2f4f dd44 834f 57ab 8e4f
000002d0: 4982 744f ab68 894f 47d0 7f4f cca9 ae4f
000002e0: ba08 c04f 850f b04f b469 c34f 7b86 d24f
000002f0: 14eb c14f f440 0f4e 982d 364e f81c 4d4e
00000300: a2db 0d4e e979 304e 5473 424e df54 054e
00000310: acc8 1b4e 95e0 214e e1da 7a4f 5071 984f
00000320: f8ba 9a4f bdeb ae4f e197 cc4f 6bce c34f
00000330: f21a ce4f 028a e04f 1dd7 c84f 2fb1 da4f
00000340: 6a14 f74f 96fa f44f d7b4 fd4f 5696 1050
00000350: a1a9 0c50 cb5f f24f 59ce 0850 2f74 0150
00000360: 96a0 7950 f7fa 6150 5a67 2a50 e7ee 9f50
00000370: 617d 9550 1a0f 6950 ea3e ae50 2a91 a750
00000380: f2c4 8650

exp_avg f4 [25]
-53390.957 27311.578 9233.315 -13653.489 27053.66 46566.992 71116.875 53610.64
42771.98 27164.709 25255.455 77123.66 36738.75 11157.303 70037.21 32986.418
28404.152 -40097.938 -32106.672 -38456.043 62963.92 -24731.576 48114.97 -42452.836
-44933.83
00000000: f58e 50c7 285f d546 4345 1046 f555 55c6
00000010: 525b d346 fee6 3547 70e6 8a47 a46a 5147
00000020: fb13 2747 6b39 d446 e94e c546 d4a1 9647
00000030: c082 0f47 3655 2e46 9bca 8847 6bda 0047
00000040: 4ee8 dd46 f0a1 1cc7 58d5 fac6 0b38 16c7
00000050: ecf3 7547 2737 c1c6 f8f2 3b47 d6d4 25c7
00000060: d485 2fc7

exp_avg_sq f4 [25]
8.384952e+08 3.098912e+08 1.7830089e+09 8.071143e+08 3.5869062e+08 9.425937e+08 2.0944428e+09 1.4689472e+09
3.7408806e+08 3.81585e+08 2.7505526e+08 2.47992e+09 8.447483e+08 8.995846e+08 1.8094619e+09 8.4027834e+08
5.3987994e+08 9.624352e+08 4.691322e+08 3.5454186e+08 9.030334e+08 6.3627744e+08 8.0192416e+08 1.1313307e+09
7.139364e+08
00000000: b0e9 474e 84c4 934d 1d8d d44e 596e 404e
00000010: 7a09 ab4d 5bbb 604e 52ad f94e b61c af4e
00000020: 0c61 b24d 33f4 b54d 1528 834d 94d0 134f
00000030: 5867 494e 497a 564e 65b4 d74e 8556 484e
00000040: a8b7 004e 6276 654e 1db3 df4d 090f a94d
00000050: c94c 574e 4bb3 174e 9131 3f4e 79dd 864e
00000060: 3837 2a4e

exp_avg f4 [50, 25, 3, 3]
-5545.269 -6044.4946 -2757.6577 -8009.996 -9023.646 -5973.8193 -8724.834 -10266.002
-7706.8003 5515.4062 5642.374 1969.285 7833.034 8551.648 5235.2256 7978.321
9398.63 6741.6543 2046.0845 2299.3755 2889.1138 2279.753 2836.0576 3675.9316
2171.145 3015.0461 4016.4736 -2131.3523 -823.13885 4159.3945 -4521.1143 -3236.4434
1747.709 -4985.414 -3936.7349 649.7964 477.63153 -591.02765 -1614.7747 224.15512
-652.71063 -1356.7865 -1291.8616 -1911.102 -2235.288 3146.5596 4521.6973 6125.801
3658.07 5417.742 7202.3906 4431.533 6539.6924 8393.915 5576.2686 4507.2217
414.80206 7970.4756 7301.335 3484.9365 7879.747 7673.103 4383.0454 3060.2017
3444.3267 1930.5033 3977.2393 4943.672 3961.8853 3576.306 5206.4414 4994.2617
3296.4636 4611.2896 7675.9595 2394.1472 4596.8643 8466.031 1880.2968 4811.904
9346.585 2694.143 3363.9058 5092.968 2226.9119 3631.1196 5972.035 2361.077
4387.7036 7344.4253 368.15253 2005.3591 6586.169 -1126.9636 1058.0981 6173.2295
-1225.2493 1492.904 6911.4736 4177.3203 3257.7822 -2538.546 6477.5923 5914.481
403.04254 6197.6016 6011.6675 1259.3169 1228.6008 2073.3342 4316.75 1297.2631
2559.5596 5002.938 2660.0344 4272.7754 6966.7666 -795.90466 -601.046 1387.5188
-1580.9541 -1126.897 1063.8895 -912.56946 -222.33174 2175.1785 3714.65 6860.6543
12200.51 2576.0867 6835.4536 13097.299 2631.1038 7906.474 14814.592 3240.6604
3364.5498 2138.6782 4745.1504 5018.4756 3853.414 5235.3516 5760.242 4714.953
1254.3048 -200.6187 -6287.593 2972.651 1393.8555 -4692.793 1727.1521 136.83508
-5577.6436 -2209.1333 -3755.661 -5670.4893 -1658.3457 -3775.589 -6155.414 -1316.8008
-3894.7227 -6634.157 -2218.9612 -4803.3345 -12120.357 -465.97662 -3917.8372 -11885.711
-1477.7694 -5610.924 -13837.465 -4364.2734 -6555.2983 -11604.174 -4284.2104 -7298.4346
-12926.202 -5556.595 -9344.77 -15271.178 2021.9072 -10.17981 -4681.201 3182.1978
1396.907 -2956.0586 2182.6057 762.9096 -2948.7803 -4082.2231 -5637.553 -6613.385
-4466.966 -6714.3823 -8121.875 -4756.287 -7531.2754 -9368.973 9234.593 9731.973
4728.289 12210.882 13749.34 9518.557 11970.195 14485.787 11427.283 -2332.3372
-2065.8901 -114.9765 -3719.3794 -3535.0105 -1583.2075 -4206.8203 -4173.7427 -2353.3376
-1618.9386 -4207.8765 -11291.145 -802.096 -3853.4219 -11160.262 -2720.6252 -6143.12
-13253.129 9687.393 7476.497 5890.498 6625.9297 3805.6096 2127.5718 2949.241
-230.65161 -1678.5765 -8408.044 -7984.3223 -8119.366 -5539.3955 -4300.9688 -4065.8555
-2150.7563 -142.11133 229.34839 -3211.071 -3581.186 -2308.2861 -1376.1226 -1538.9897
-114.95047 220.41748 264.9016 1720.4719 3749.3586 2814.1458 3898.2651 3295.7651
00000000: 274a adc5 f5e3 bcc5 865a 2cc5 f84f fac5
00000010: 96fe 0cc6 8eae bac5 5653 08c6 0268 20c6
00000020: 67d6 f0c5 405b ac45 fe52 b045 1f29 f644
00000030: 46c8 f445 989e 0546 ce99 a345 9152 f945
00000040: 85da 1246 3cad d245 b4c2 ff44 02b6 0f45
00000050: d291 3445 0c7c 0e45 ec40 3145 e8be 6545
00000060: 52b2 0745 bd70 3c45 9407 7b45 a335 05c5
00000070: e3c8 4dc4 28fb 8145 ea48 8dc5 1847 4ac5
00000080: b076 da44 50cb 9bc5 c20b 76c5 f872 2244
00000090: d6d0 ee43 c5c1 13c4 cad8 c9c4 b627 6043
000000a0: 7b2d 23c4 2b99 a9c4 927b a1c4 44e3 eec4
000000b0: 9cb4 0bc5 f4a8 4445 944d 8d45 686e bf45
000000c0: 1fa1 6445 f04d a945 2013 e145 447c 8a45
000000d0: 8a5d cc45 a927 0346 2642 ae45 c6d9 8c45
000000e0: aa66 cf43 ce13 f945 ae2a e445 fcce 5945
000000f0: fa3d f645 d3c8 ef45 5df8 8845 3a43 3f45
00000100: 3a45 5745 1b50 f144 d493 7845 607d 9a45
00000110: 2a9e 7745 e584 5f45 88b3 a245 1812 9c45
00000120: 6b07 4e45 511a 9045 addf ef45 5ba2 1545
00000130: eaa6 8f45 2048 0446 7f09 eb44 3b5f 9645
00000140: 570a 1246 4a62 2845 7e3e 5245 be27 9f45
00000150: 972e 0b45 eaf1 6245 48a0 ba45 3b91 1345
00000160: a11d 8945 6783 e545 8613 b843 7eab fa44
00000170: 5ad1 cd45 d6de 8cc4 2443 8444 d6e9 c045
00000180: fa27 99c4 ee9c ba44 cafb d745 908a 8245
00000190: 849c 4b45 bca8 1ec5 bd6c ca45 d9d3 b845
000001a0: 7285 c943 d0ac c145 57dd bb45 246a 9d44
000001b0: 3a93 9944 5995 0145 00e6 8645 6b28 a244
000001c0: f4f8 1f45 8157 9c45 8d40 2645 3486 8545
000001d0: 22b6 d945 e6f9 46c4 f242 16c4 9a70 ad44
000001e0: 889e c5c4 b4dc 8cc4 77fc 8444 7224 64c4
000001f0: ed54 5ec3 dbf2 0745 662a 6845 3c65 d645
00000200: 0aa2 3e46 6301 2145 a19b d545 32a5 4c46
00000210: a971 2445 cb13 f745 5e7a 6746 918a 4a45
00000220: cc48 5245 daaa 0545 3449 9445 ced3 9c45
00000230: a0d6 7045 d09a a345 f001 b445 a057 9345
00000240: c1c9 9c44 639e 48c3 be7c c4c5 6aca 3945
00000250: 603b ae44 58a6 92c5 dee4 d744 c8d5 0843
00000260: 264d aec5 2212 0ac5 93ba 6ac5 ea33 b1c5
00000270: 104b cfc4 6df9 6bc5 505b c0c5 a099 a4c4
00000280: 906b 73c5 4251 cfc5 61af 0ac5 ad1a 96c5
00000290: 6e61 3dc6 02fd e8c3 65dd 74c5 d8b6 39c6
000002a0: 9fb8 b8c4 6457 afc5 dc35 58c6 3062 88c5
000002b0: 63da ccc5 b250 35c6 afe1 85c5 7a13 e4c5
000002c0: cff8 49c6 c3a4 adc5 1403 12c6 b69c 6ec6
000002d0: 08bd fc44 80e0 22c1 9c49 92c5 2ae3 4645
000002e0: 069d ae44 f0c0 38c5 b169 0845 37ba 3e44
000002f0: 7c4c 38c5 9223 7fc5 6d2c b0c5 14ab cec5
00000300: ba97 8bc5 0fd3 d1c5 00cf fdc5 4ca2 94c5
00000310: 345a ebc5 e463 12c6 5f4a 1046 e40f 1846
00000320: 50c2 9345 87cb 3e46 5cd5 5646 3aba 1446
00000330: c808 3b46 2657 6246 228d 3246 65c5 11c5
00000340: 3e1e 01c5 f8f3 e5c2 1276 68c5 2bf0 5cc5
00000350: a4e6 c5c4 9076 83c5 f16d 82c5 6715 13c5
00000360: 095e cac4 037f 83c5 946c 30c6 2586 48c4
00000370: c0d6 70c5 0c61 2ec6 010a 2ac5 f6f8 bfc5
00000380: 8414 4fc6 925d 1746 faa3 e945 fc13 b845
00000390: 700f cf45 c1d9 6d45 26f9 0445 db53 3845
000003a0: d0a6 66c3 73d2 d1c4 2d60 03c6 9482 f9c5
000003b0: eeba fdc5 2a1b adc5 c067 86c5 b01d 7ec5
000003c0: 1a6c 06c5 801c 0ec3 3059 6543 23b1 48c5
000003d0: fad2 5fc5 9444 10c5 ec03 acc4 ac5f c0c4
000003e0: a4e6 e5c2 e06a 5c43 6873 8443 1a0f d744
000003f0: bd55 6a45 55e2 2f45 3ea4 7345 3efc 4d45

exp_avg_sq f4 [50, 25, 3, 3]
1.22205784e+08 1.2999716e+08 1.0198042e+08 1.5281389e+08 1.7581106e+08 1.4244643e+08 1.7084848e+08 2.0814042e+08
1.786552e+08 1.6837443e+08 1.9181246e+08 1.7637587e+08 1.9392045e+08 2.330849e+08 2.1529168e+08 2.019202e+08
2.5800832e+08 2.4987408e+08 4.223853e+07 4.9787424e+07 5.5143676e+07 4.1002184e+07 5.0926748e+07 6.0160132e+07
3.8198104e+07 4.997376e+07 6.1490852e+07 1.4732107e+07 1.3409597e+07 1.8281442e+07 2.4143122e+07 1.910177e+07
9.427355e+06 2.4933554e+07 1.9794204e+07 5.567701e+06 8.532623e+06 2.5881755e+06 2.1728448e+06 1.2269724e+07
5.312354e+06 1.9170926e+06 1.5820919e+07 9.921201e+06 4.9813375e+06 7.72472e+07 8.101241e+07 8.345033e+07
8.613442e+07 9.740194e+07 1.053669e+08 9.4400216e+07 1.1382455e+08 1.2686435e+08 4.2422028e+07 3.894277e+07
2.2897194e+07 7.215045e+07 7.058833e+07 4.347746e+07 8.0089864e+07 8.422359e+07 5.8816604e+07 4.607515e+07
6.4230172e+07 7.260237e+07 5.1469236e+07 7.558723e+07 8.665089e+07 5.2449732e+07 8.3382744e+07 1.0231967e+08
1.216694e+08 1.6107264e+08 2.0670432e+08 1.142248e+08 1.5966475e+08 2.2025304e+08 1.0412203e+08 1.5441933e+08
2.2910808e+08 1.1798861e+08 1.4384338e+08 1.6308821e+08 1.228084e+08 1.5688672e+08 1.882063e+08 1.2280681e+08
1.6526571e+08 2.1203549e+08 4.6986196e+07 6.002254e+07 8.753841e+07 4.9056584e+07 6.083601e+07 8.936996e+07
4.619935e+07 5.967296e+07 9.62893e+07 2.5167726e+07 2.3683246e+07 1.6076965e+07 4.6022876e+07 4.5263676e+07
1.8733506e+07 4.869076e+07 5.1833572e+07 2.6312086e+07 9.157541e+07 8.473635e+07 7.534398e+07 1.0788989e+08
1.0637371e+08 1.0126768e+08 1.1853879e+08 1.2694362e+08 1.337709e+08 3.8922196e+07 4.2640576e+07 4.009282e+07
5.0872516e+07 5.607406e+07 5.3006024e+07 5.1851972e+07 5.8545364e+07 5.956182e+07 3.7085933e+08 4.5324698e+08
5.406204e+08 3.6690637e+08 4.690848e+08 5.905692e+08 3.5329942e+08 4.7933174e+08 6.3961536e+08 1.9978502e+07
2.1035188e+07 1.5744927e+07 3.231077e+07 3.5904588e+07 2.8879262e+07 4.095635e+07 4.7400484e+07 3.9603684e+07
9.771799e+07 8.308632e+07 7.576381e+07 1.1897045e+08 1.0421337e+08 8.603092e+07 1.1618669e+08 1.0823916e+08
1.0108378e+08 7.3708296e+07 9.555204e+07 1.15898936e+08 6.949415e+07 9.5182e+07 1.2235105e+08 6.3286796e+07
9.1767784e+07 1.24755464e+08 3.1541648e+08 3.4103232e+08 3.8866995e+08 3.3215728e+08 3.692474e+08 4.3262288e+08
3.282198e+08 3.874787e+08 4.8902912e+08 3.1289286e+08 3.3598333e+08 3.6927798e+08 3.256804e+08 3.6988378e+08
4.3122035e+08 3.3473018e+08 4.0684163e+08 5.0255754e+08 2.5217476e+07 1.691687e+07 2.2641412e+07 3.0946236e+07
1.931683e+07 1.3981948e+07 2.5790732e+07 1.6153239e+07 1.0602511e+07 1.8023944e+08 2.0702219e+08 2.1455643e+08
1.8508042e+08 2.265028e+08 2.478405e+08 1.8348994e+08 2.3759584e+08 2.725274e+08 3.1830224e+08 3.7893728e+08
3.537608e+08 3.77283e+08 4.734967e+08 4.4873907e+08 3.9542435e+08 5.22925e+08 5.2435997e+08 5.485041e+06
4.820457e+06 1.4045975e+06 1.2125945e+07 1.1457104e+07 4.3171485e+06 1.6284432e+07 1.6140311e+07 7.4951395e+06
1.9215826e+08 1.765648e+08 1.9989637e+08 2.1099958e+08 2.0180003e+08 2.2769304e+08 2.1999126e+08 2.2974e+08
2.7824646e+08 2.9730432e+08 2.2218154e+08 1.5019093e+08 2.7754784e+08 1.9850398e+08 1.2930309e+08 2.3365483e+08
1.6519026e+08 1.0888016e+08 4.5085238e+08 4.0672467e+08 3.3108218e+08 4.3241984e+08 3.764354e+08 2.9578858e+08
3.7288634e+08 3.1705078e+08 2.4530349e+08 6.913984e+07 6.365398e+07 4.529489e+07 5.7527344e+07 5.111838e+07
3.5990444e+07 4.2048244e+07 3.6230504e+07 2.6266266e+07 3.3057102e+07 2.6010934e+07 2.6732604e+07 3.7890704e+07
00000000: cb16 e94c 2df3 f74c 2083 c24c 14bc 114d
00000010: 9faa 274d f6d8 074d 0eef 224d 887f 464d
00000020: fe60 2a4d 0a93 204d 37ed 364d 8434 284d
00000030: dcef 384d 7e49 5e4d 7251 4d4d ec90 404d
00000040: 500e 764d 6a4c 6e4d 9020 214c 88ec 3d4c
00000050: 3f5b 524c 3269 1c4c 2745 424c 217e 654c
00000060: d6b6 114c 80a2 3e4c a991 6a4c 4bcb 604b
00000070: 3d9d 4c4b f179 8b4b 8932 b84b 25bc 914b
00000080: 9bd9 0f4b 593a be4b 8e04 974b aae9 a94a
00000090: 8f32 024b 3ef8 1d4a b39e 044a 9c38 3b4b
000000a0: c41e a24a 2505 ea49 7768 714b b162 174b
000000b0: b304 984a 5c56 934c d784 9a4c 3b2b 9f4c
000000c0: d249 a44c 8ac7 b94c aef8 c84c db0d b44c
000000d0: 651a d94c 7cf9 f14c c3d3 214c 0c8e 144c
000000e0: 15b1 ae4b b69d 894c f5a2 864c 75da 254c
000000f0: 61c2 984c cda4 a04c 175e 604c 44c3 2f4c
00000100: c704 754c 607a 8a4c ed56 444c d42b 904c
00000110: 0146 a54c 7114 484c 3b0a 9f4c c728 c34c
00000120: e310 e84c 609c 194d ec20 454d d4dd d94c
00000130: a744 184d b70c 524d d698 c64c 0844 134d
00000140: 977e 5a4d a00b e14c 032e 094d 7588 1b4d
00000150: 0a3d ea4c 6c9e 154d ce7c 334d 433c ea4c
00000160: 139c 1d4d 7a36 4a4d f53c 334c c3f7 644c
00000170: 5df7 a64c d222 3b4c 2a12 684c ad75 aa4c
00000180: 8e3c 304c 60a2 634c 42a8 b74c b703 c04b
00000190: 57b0 b44b a550 754b 3790 2f4c cfaa 2c4c
000001a0: e1ec 8e4b 92bd 394c b9ba 454c cbbe c84b
000001b0: 8eaa ae4c 2c9f a14c 0eb5 8f4c 9cc8 cd4c
000001c0: 4ae4 ca4c 1c27 c14c 4518 e24c 3020 f24c
000001d0: d225 ff4c f579 144c 30a9 224c 25f1 184c
000001e0: 3110 424c d3e7 554c b233 4a4c b1cc 454c
000001f0: 3555 5f4c d735 634c ead6 b04d 0020 d84d
00000200: dae4 004e 60f4 ae4d 54ad df4d 7ccd 0c4e
00000210: 5f77 a84d 2d90 e44d 067f 184e 836c 984b
00000220: 5a7c a04b 9f3f 704b f982 f64b 13f7 084c
00000230: cf54 dc4b 703c 1c4c 89d1 344c 7913 174c
00000240: dd61 ba4c 7e79 9e4c 0c82 904c 0aeb e24c
00000250: 6fc5 c64c 4917 a44c c89b dd4c 2773 ce4c
00000260: 50cd c04c 6196 8c4c 4540 b64c 470f dd4c
00000270: b18c 844c 968b b54c b95d e94c 836b 714c
00000280: 7d08 af4c c1f3 ed4c fd66 964d ec9d a24d
00000290: 1055 b94d 8b62 9e4d 2512 b04d 694a ce4d
000002a0: e581 9c4d a5c3 b84d f02f e94d ee32 954d
000002b0: 9735 a04d e115 b04d e84b 9b4d d45f b04d
000002c0: 349f cd4d 9e9c 9f4d 49ff c14d 5ba3 ef4d
000002d0: e264 c04b c310 814b 82bd ac4b de19 ec4b
000002e0: 2f60 934b fc58 554b 86c4 c44b 977a 764b
000002f0: 0fc8 214b c5e3 2b4d 876e 454d f19d 4c4d
00000300: a681 304d 8902 584d ef5b 6c4d 59fd 2e4d
00000310: cc96 624d 81f3 814d 41c7 974d feb0 b44d
00000320: b1af a84d 0ee7 b34d e4c7 e14d b8f9 d54d
00000330: 938d bc4d 9e59 f94d c908 fa4d e263 a74a
00000340: d21b 934a ac75 ab49 f906 394b 50d2 2e4b
00000350: b9bf 834a 107b 784b 1748 764b c7bb e44a
00000360: a341 374d a462 284d d3a2 3e4d 9239 494d
00000370: 9673 404d 1f25 594d cecc 514d de18 5b4d
00000380: a2ad 844d 08c4 8d4d 8ae3 534d b53b 0f4d
00000390: 5a58 844d e34e 3d4d 46a0 f64c a3d4 5e4d
000003a0: a789 1d4d 24ac cf4c b1fb d64d 02f1 c14d
000003b0: 4edf 9d4d a031 ce4d 967f b34d 010b 8d4d
000003c0: 5ace b14d 7d2e 974d 8cf0 694d b0df 834c
000003d0: 17d2 724c 4ac9 2c4c 0c73 5b4c 4b00 434c
000003e0: eb4a 094c bd66 204c 5a35 0a4c 4d65 c84b
000003f0: a734 fc4b 9b72 c64b 1ef4 cb4b a48a 104c

exp_avg f4 [50]
8183.2407 13158.841 234.07397 9482.277 27032.27 6714.61 10096.486 471.80933
-4801.151 -9897.509 -28214.15 -22131.227 -28967.629 7593.188 -14967.094 12104.357
-3037.0698 -14107.471 -3615.9456 17389.547 17936.59 -12557.402 2470.5903 5994.067
-6986.629 10037.485 2223.5308 -20789.352 -4901.155 26651.691 2936.3872 -14905.811
7140.503 38100.42 15356.716 -15382.63 9590.93 2887.977 -13662.432 7947.7246
13094.396 7166.269 -9173.112 280.19324 -18482.271 -21094.803 15202.524 -4418.186
1139.1833 -25753.629
00000000: edb9 ff45 5d9b 4d46 f012 6a43 1c29 1446
00000010: 8a30 d346 e1d4 d145 f2c1 1d46 98e7 eb43
00000020: 3509 96c5 09a6 1ac6 4d6c dcc6 74e6 acc6
00000030: 424f e2c6 8149 ed45 60dc 69c6 6e21 3d46
00000040: 1ed1 3dc5 e26d 5cc6 21ff 61c5 18db 8746
00000050: 2e21 8c46 9c35 44c6 7269 1a45 8950 bb45
00000060: 0855 dac5 f1d5 1c46 7ef8 0a45 b46a a2c6
00000070: 3d29 99c5 6237 d046 3286 3745 3ee7 68c6
00000080: 0624 df45 6cd4 1447 ddf2 6f46 855a 70c6
00000090: b8db 1546 a27f 3445 ba79 55c6 cc5d f845
000000a0: 9699 4c46 27f2 df45 7354 0fc6 bc18 8c43
000000b0: 8b64 90c6 9bcd a4c6 198a 6d46 7d11 8ac5
000000c0: de65 8e44 4233 c9c6

exp_avg_sq f4 [50]
4.4930912e+08 1.5108722e+08 2.013165e+08 9.739263e+07 6.499057e+08 7.3643416e+07 6.2918308e+07 9.98944e+08
5.1462826e+08 2.3977443e+08 2.9072627e+08 7.449395e+08 6.257678e+08 1.2356038e+09 6.3503616e+07 3.5647165e+08
1.09346984e+08 1.4659723e+08 1.03372e+09 9.49923e+08 5.0913686e+08 2.5591254e+08 1.3442693e+08 1.0362412e+08
1.1938068e+08 1.21073336e+08 1.1183937e+08 1.3876003e+08 1.550282e+08 6.0279795e+08 1.2321524e+08 3.059462e+08
5.1069568e+08 1.0177882e+09 1.8252165e+08 1.8535761e+09 3.1058154e+08 4.7662694e+08 8.974823e+07 6.01094e+08
2.507229e+09 1.9855074e+08 1.4387726e+08 5.041832e+08 2.089967e+08 2.1386915e+08 3.0309578e+08 1.5786219e+08
2.8602552e+09 4.3491798e+08
00000000: 4e3f d64d 8716 104d 89fd 3f4d ffc2 b94c
00000010: 19f3 1a4e b376 8c4c a903 704c b42a 6e4e
00000020: d564 f54d aeaa 644d 0ca1 8a4d 809b 314e
00000030: d631 154e a34b 934e 403f 724c 9bfa a94d
00000040: 1590 d04c 57ce 0b4d 4375 764e b37a 624e
00000050: 7fc6 f24d a60e 744d 1333 004d b7a5 c54c
00000060: 59b3 e34c d7ed e64c 1151 d54c f654 044d
00000070: aed8 134d deb7 0f4e b103 eb4c f3e2 914d
00000080: c884 f34d dda8 724e f310 2e4d a7f6 dc4e
00000090: c918 944d 0046 e34d 612e ab4c de4f 0f4e
000000a0: 4771 154f 4d5a 3d4d 4936 094d cd69 f04d
000000b0: 9650 474d 26f6 4b4d ff86 904d 938c 164d
000000c0: 087c 2a4f 9362 cf4d
