models/sigma0.01_step0.0002_lr0.0005/ckpt/model_epoch_100.pth (torch, 282369 bytes, 18 tensors)

layer1.weight f4 [25, 1, 3, 3]
0.039268788 -0.036956906 0.1657861 -0.0983499 -0.041464623 0.1874745 0.07496998 0.034599293
0.029716156 -0.037633456 0.12525252 -0.2449434 -0.06618819 -0.024302613 0.001493073 -0.00842933
-0.125262 -0.000759815 -0.039825104 -0.030238375 0.034916054 0.19376014 -0.062952645 -0.06619673
-0.075021215 -0.16059808 0.066868894 -0.09684323 0.0932349 0.0105735045 0.08013108 0.013295071
0.18342264 0.010629254 -0.09271026 -0.095346145 -0.027047321 0.017258191 0.03903283 0.04726692
-0.18219858 0.2468781 -0.10778338 -0.190691 0.11455666 0.043113858 -0.064720154 -0.10938516
-0.029843185 0.10399765 -0.047944274 0.07456527 -0.09126638 -0.11350754 -0.046311054 -0.018171005
-0.000102624595 0.12608685 -0.2481173 0.08399984 0.041857135 -0.11077982 -0.0849475 0.040118158
0.07490257 -0.07212063 -0.16338126 -0.14100166 -0.034408096 -0.14007244 0.049754485 0.07475776
-0.15137611 -0.04629747 0.06628523 0.05736238 -0.14877868 0.040747635 -0.14073902 -0.013784372
-0.03417126 -0.17563188 -0.1480295 0.0046099084 -0.064298116 -0.020130085 0.06192858 -0.015902903
0.121994466 -0.098017186 0.01492122 -0.03201513 -0.0046281754 -0.16753551 -0.0018519139 -0.01987291
-0.032557815 -0.03425989 0.06139082 -0.02298022 -0.09180243 0.02753248 -0.092400335 0.0065613827
-0.062412616 -0.12138283 0.19093621 -0.084236346 -0.058451265 -0.10029439 -0.17629543 0.1332156
-0.09739773 -0.045201987 -0.05620918 0.17102306 -0.0026565157 -0.11595473 -0.13899136 -0.044092923
-0.018772034 0.042453986 -0.034406886 -0.0071198423 0.16168784 0.048083097 -0.038349345 -0.018191813
-0.0827348 -0.14868434 0.13294446 -0.16089033 -0.13568206 -0.103338644 0.04032297 0.08768065
0.103867725 -0.033076573 -0.10098164 -0.20414871 -0.0042024376 0.1734292 -0.059805848 -0.09342144
0.043346886 0.15099259 0.07003097 -0.042019304 -0.09154203 -0.029793747 -0.1505514 -0.0053340863
0.08392064 0.06970697 -0.032062937 0.05342772 0.050436333 -0.09779862 0.018834453 0.10749591
0.058791462 0.029941881 0.12489664 0.15701328 0.037452087 -0.0044384357 -0.004742033 0.030589614
-0.046035774 -0.021985516 0.10184578 -0.0007045263 0.063756004 0.048847266 -0.035482313 0.18076183
0.1104096 -0.097937785 0.073035724 0.068958886 -0.122142605 -0.10892143 0.07824082 -0.009635998
-0.03998214 0.09084979 -0.060240775 -0.039003205 0.08731698 0.113914214 -0.00026649507 0.15528502
-0.1166993 -0.06548141 0.02218791 0.1322187 0.027079137 0.09422997 -0.056933373 -0.08439574
-0.02219245 -0.09222294 0.0018718262 -0.073866144 -0.12999164 0.060397666 -0.21201874 -0.056338917
0.058468524 0.024405254 0.05520149 0.0025835189 0.042765595 -0.085025616 -0.0077050747 0.067716464
-0.060246892 0.103470534 0.07512853 -0.14224079 0.082129695 0.19192713 -0.0897086 0.03390326
0.03769165
00000000: 4fd8 203d 2060 17bd d5c3 293e ac6b c9bd
00000010: cfd6 29bd 51f9 3f3e dc89 993d fdb7 0d3d
00000020: 4c6f f33c 8a25 1abd 3242 003e 71d2 7abe
00000030: ac8d 87bd 4616 c7bc 37b3 c33a 2c1b 0abc
00000040: af44 00be 522e 47ba a61f 23bd 78b6 f7bc
00000050: 2304 0f3d 0f69 463e 51ed 80bd 2792 87bd
00000060: b9a4 99bd d373 24be 8ff2 883d be55 c6bd
00000070: f0f1 be3d 7e3c 2d3c c31b a43d 92d3 593c
00000080: 25d3 3b3e 5326 2e3c e0de bdbd d744 c3bd
00000090: 5892 ddbc 0d61 8d3c e4e0 1f3d f59a 413d
000000a0: 4492 3abe 9dcd 7c3e 88bd dcbd 8044 43be
000000b0: af9c ea3d 2898 303d 008c 84bd 5405 e0bd
000000c0: b279 f4bc b8fc d43d 3761 44bd adb5 983d
000000d0: dee9 babd a476 e8bd a9b0 3dbd 5cdb 94bc
000000e0: 2938 d7b8 e91c 013e 7612 7ebe 1c08 ac3d
000000f0: 6372 2b3d 88e0 e2bd f4f8 adbd f052 243d
00000100: 8566 993d fbb3 93bd 6b4d 27be bd62 10be
00000110: 81ef 0cbd 266f 0fbe 5ccb 4b3d 991a 993d
00000120: 5702 1bbe 6aa2 3dbd 8dc0 873d d1f4 6a3d
00000130: 7059 18be fee6 263d e41d 10be d9d7 61bc
00000140: 2af7 0bbd d8d8 33be 0c95 17be b70e 973b
00000150: bbae 83bd d9e7 a4bc d3a8 7d3d ce46 82bc
00000160: 3cd8 f93d 3cbd c8bd 2278 743c 4c22 03bd
00000170: f3a7 97bb 6e8e 2bbe ebbb f2ba 83cc a2bc
00000180: 585b 05bd 1954 0cbd f174 7b3d 0441 bcbc
00000190: ea02 bcbd cc8b e13c 633c bdbd de00 d73b
000001a0: 5fa4 7fbd 9097 f8bd c884 433e 1b84 acbd
000001b0: 986a 6fbd 2567 cdbd ca86 34be ac69 083e
000001c0: 7678 c7bd b825 39bd 993b 66bd ab20 2f3e
000001d0: f018 2ebb ac79 edbd c053 0ebe c89a 34bd
000001e0: cfc7 99bc 3be4 2d3d 3cee 0cbd 914d e9bb
000001f0: 7f91 253e c8f2 443d 3414 1dbd ff06 95bc
00000200: dd70 a9bd b540 18be 9822 083e 6fc0 24be
00000210: 3df0 0abe 36a3 d3bd b329 253d ea91 b33d
00000220: 9ab8 d43d 4d7b 07bd 76cf cebd 5c0c 51be
00000230: 9ab4 89bb 6d97 313e faf6 74bd bd53 bfbd
00000240: 818c 313d cd9d 1a3e 666c 8f3d 6f1c 2cbd
00000250: 637a bbbd 0412 f4bc 252a 1abe 8fc9 aebb
00000260: 96de ab3d 87c2 8e3d 6d54 03bd 06d7 5a3d
00000270: 5496 4e3d a54a c8bd b64a 9a3c d126 dc3d
00000280: 51cf 703d ad48 f53c cfc9 ff3d 17c8 203e
00000290: 5c67 193d 4c70 91bb 0e63 9bbb 1297 fa3c
000002a0: 0290 3cbd f81a b4bc 8594 d03d f6af 38ba
000002b0: 8292 823d 1214 483d e755 11bd a119 393e
000002c0: 6e1e e23d 9b93 c8bd c193 953d 513a 8d3d
000002d0: e725 fabd 3312 dfbd b93c a03d 4ee0 1dbc
000002e0: 50c4 23bd 740f ba3d 08bf 76bd d3c1 1fbd
000002f0: 3fd3 b23d db4b e93d 5db8 8bb9 0903 1f3e
00000300: 0b00 efbd 1e1b 86bd 6bc3 b53c 5764 073e
00000310: 11d5 dd3c a4fb c03d f832 69bd acd7 acbd
00000320: f1cc b5bc 61df bcbd 1158 f53a 2247 97bd
00000330: 871c 05be 8b63 773d 711b 59be a3c3 66bd
00000340: b17c 6f3d 87ed c73c f51a 623d 4150 293b
00000350: fa2a 2f3d e921 aebd da7a fcbb eeae 8a3d
00000360: 72c5 76bd 5ce8 d33d fddc 993d 92a7 11be
00000370: 9d33 a83d 8c88 443e 24b9 b7bd 25de 0a3d
00000380: 8f62 1a3d

layer1.bias f4 [25]
-0.17134127 0.20777613 0.017422598 -0.22137456 0.11312633 -0.05400016 0.23740932 0.11976648
-0.070929356 -0.060020644 -0.1677489 0.27252322 -0.10732155 -0.11369674 -0.1717553 0.07773721
0.2991945 0.050400164 0.30443028 0.17617641 0.23923491 0.010653469 0.29152563 -0.0892545
0.30279672
00000000: 1674 2fbe 44c3 543e d6b9 8e3c 03b0 62be
00000010: c7ae e73d 462f 5dbd 6e1b 733e 2148 f53d
00000020: 6943 91bd 35d8 75bd 5ec6 2bbe 2a88 8b3e
00000030: 67cb dbbd d6d9 e8bd 9fe0 2fbe b034 9f3d
00000040: 0630 993e 6770 4e3d 49de 9b3e 9767 343e
00000050: fff9 743e e38b 2e3c d942 953e 10cb b6bd
00000060: 2c08 9b3e

layer2.weight f4 [50, 25, 3, 3]
0.033371657 0.099699296 0.07553208 -0.068936735 -0.029933538 0.048185594 0.061813924 0.020218443
0.038531594 0.095296964 -0.0019643465 0.044131737 -0.04780293 -0.0794546 -0.045327753 0.07113588
0.019615602 0.0371441 0.0099254865 -0.0024243484 0.04035069 0.03548145 -0.05152344 0.008916699
-0.033797782 -0.040464167 -0.015134745 0.008642854 0.04207204 0.0038287223 -0.03509869 0.0029293282
0.025732355 0.09708687 -0.03351396 0.06906627 -0.055368178 -0.0011677251 0.018885674 0.0016108294
-0.00036112702 -0.018250044 0.02444249 -0.00014860161 0.08306327 -0.007166355 0.01711655 -0.08626971
0.019291935 -0.029742604 -0.0044390126 0.028075198 0.020184455 0.080496475 0.003983094 0.02189794
-0.037188835 0.029183168 -0.09713095 -0.053843267 -0.056624006 -0.009204826 0.025712667 -0.00015838258
-0.010467176 -0.0025142184 0.032604806 -0.011387843 -0.02766163 -0.029327102 -0.007938072 0.03514369
0.04035773 -0.004327269 -0.00080991857 -0.10003282 -0.12612948 -0.03539341 -0.030711034 0.020818638
-0.08517229 0.13959567 0.016563397 0.017861405 -0.12432174 -0.022546267 -0.0006221386 -0.048134953
0.05634699 -0.1125291 -0.081479006 0.049940247 0.01324901 -0.0067494246 -0.06820861 -0.0525646
-0.10433549 -0.06653036 0.06024273 -0.0053663575 -0.031083448 -0.019421281 -0.02788798 -0.0021739132
0.007247328 -0.036913764 -0.07629129 -0.023976764 -0.021800315 -0.0009310711 -0.006816151 0.07132395
0.0076682623 -0.03038718 -0.095956065 -0.089016534 -0.044368904 -0.0456076 -0.04392715 -0.052332398
0.009408023 0.05141873 0.026577896 -0.06892526 0.09639832 -0.021564608 0.07846616 -0.08768143
0.028624188 -0.030995715 -0.06125751 -0.08558569 -0.03960297 0.017405188 -0.018324785 0.033284444
-0.037691966 0.12032764 0.0020298683 -0.021775836 -0.041537255 0.0036001082 0.02906589 0.014450087
-0.028307213 0.06832539 -0.055017978 0.06358596 0.010329546 0.013170927 -0.08277988 -0.026410436
0.005808055 -0.00619338 -0.0095313275 -0.038578704 -0.024633996 -0.089249514 -0.009092205 0.07624276
0.019333549 -0.02178997 -0.03875626 0.1367336 -0.09854293 0.09857005 0.10233712 -0.011038702
0.026384966 0.043290824 -0.06455639 -0.024373755 -0.029327054 -0.09840924 0.026140612 -0.0002631972
0.04668146 -0.014461578 -0.02404724 -0.07455565 -0.09545048 -0.09054421 -0.082603686 0.03705252
0.004016003 -0.066768035 -0.003565681 0.01774618 0.0028618835 -0.13460569 0.0125953425 0.026525296
0.04620242 -0.05346046 -0.004328961 -0.05490625 -0.052238222 0.023228519 0.0011107302 0.077973776
-0.01017278 -0.024590107 -0.019340396 -0.005404932 -0.00010988368 0.0024720526 -0.022789039 -0.037466787
-0.007112364 0.08438772 -0.060677633 -0.06119721 0.0577078 -0.04336592 0.08720328 0.10035701
0.022876412 0.069240145 0.06251111 0.061957996 -0.0039046288 0.011156412 0.053334747 0.10542336
-0.018698968 0.0086039845 -0.026368586 0.008304224 0.04514739 -0.06916713 0.07139853 0.09686843
0.017870076 0.054029796 -0.043218512 -0.09063566 0.011645155 0.051812988 -0.07856292 0.0069721667
0.002109747 -0.029624965 -0.08226267 -0.0032948765 0.06751734 0.1130657 0.08219198 0.0048974836
0.069488116 -0.08141276 -0.016261427 0.04314986 0.008829073 0.033358388 -0.053128112 -0.06590563
00000000: b8b0 083d 252f cc3d 90b0 9a3d b42e 8dbd
00000010: 2e37 f5bc 425e 453d 9930 7d3d 26a1 a53c
00000020: 4ed3 1d3d 0e2b c33d 44bc 00bb 7bc3 343d
00000030: 01cd 43bd 18b9 a2bd 98a9 39bd b0af 913d
00000040: e6b0 a03c 6924 183d 829e 223c d1e1 1ebb
00000050: c446 253d ff54 113d 3e0a 53bd 5917 123c
00000060: 8b6f 0abd c1bd 25bd b9f7 77bc c29a 0d3c
00000070: bb53 2c3d 4deb 7a3b a5c3 0fbd f9f9 3f3b
00000080: a9cc d23c 7bd5 c63d ef45 09bd 9e72 8d3d
00000090: bec9 62bd 5a0e 99ba 21b6 9a3c 7722 d33a
000000a0: a655 bdb9 1e81 95bc 9e3b c83c f1d1 1bb9
000000b0: 131d aa3d bed3 eabb 0238 8c3c 2cae b0bd
000000c0: 1f0a 9e3c c3a6 f3bc 2375 91bb f5fd e53c
000000d0: df59 a53c 56db a43d 9d84 823b 4f63 b33c
000000e0: 5253 18bd 8a11 ef3c 97ec c6bd c28a 5cbd
000000f0: 93ee 67bd d7cf 16bc 5fa3 d23c 8013 26b9
00000100: 857e 2bbc 96c5 24bb 9e8c 053d 1394 3abc
00000110: a59a e2bc 643f f0bc b00e 02bc d4f2 0f3d
00000120: 264e 253d c3cb 8dbb b750 54ba 02de ccbd
00000130: 1628 01be aef8 10bd b595 fbbc d98b aa3c
00000140: cf6e aebd 2bf2 0e3e f6af 873c 1552 923c
00000150: 659c febd f3b2 b8bc 0417 23ba 2829 45bd
00000160: 1acc 663d a875 e6bd 77de a6bd 258e 4c3d
00000170: 6012 593c 472a ddbb f5b0 8bbd fa4d 57bd
00000180: d8ad d5bd 1241 88bd 15c1 763d 45d8 afbb
00000190: b7a2 febc 6119 9fbc 5575 e4bc 3678 0ebb
000001a0: fe7a ed3b e332 17bd 9c3e 9cbd eb6a c4bc
000001b0: 9396 b2bc 2013 74ba 055a dfbb 4b12 923d
000001c0: 0c46 fb3b 89ee f8bc 9d84 c4bd 4d4e b6bd
000001d0: 2bbc 35bd 09cf 3abd f5ec 33bd 7f5a 56bd
000001e0: 1c24 1a3c 729c 523d e3b9 d93c b028 8dbd
000001f0: 7b6c c53d 43a8 b0bc deb2 a03d 5292 b3bd
00000200: 467d ea3c baea fdbc 28e9 7abd 8d47 afbd
00000210: b936 22bd 5395 8e3c dc1d 96bc 4555 083d
00000220: e462 1abd 566e f63d 8a07 053b 3d63 b2bc
00000230: f822 2abd cbef 6b3b 971b ee3c 0fc0 6c3c
00000240: 87e4 e7bc 2fee 8b3d 885a 61bd 5b39 823d
00000250: 423d 293c dfca 573c 7f88 a9bd b35a d8bc
00000260: 7f51 be3b d6f1 cabb 4929 1cbc b404 1ebd
00000270: 3ccd c9bc 73c8 b6bd 79f7 14bc 2a25 9c3d
00000280: 6461 9e3c e180 b2bc e2be 1ebd e503 0c3e
00000290: e0d0 c9bd 18df c93d 2096 d13d acdb 34bc
000002a0: 4925 d83c b851 313d 2436 84bd 78ab c7bc
000002b0: 4a3f f0bc c98a c9bd d624 d63c bbfd 89b9
000002c0: 0f35 3f3d 41f0 6cbc b8fe c4bc a2b0 98bd
000002d0: 8b7b c3bd 3e6f b9bd 1f2c a9bd 62c4 173d
000002e0: ad98 833b aebd 88bd 33ae 69bb 7060 913c
000002f0: 708e 3b3b 13d6 09be b25c 4e3c 944b d93c
00000300: c03e 3d3d 5bf9 5abd f5d9 8dbb 60e5 60bd
00000310: bff7 55bd bc49 be3c ec95 913a b7b0 9f3d
00000320: bbab 26bc 3171 c9bc c06f 9ebc db1b b1bb
00000330: 5a71 e6b8 2902 223b 14b0 babc c676 19bd
00000340: d50e e9bb 78d3 ac3d 1c89 78bd eda9 7abd
00000350: 045f 6c3d 77a0 31bd a297 b23d fa87 cd3d
00000360: 5067 bb3c c7cd 8d3d d305 803d abc7 7d3d
00000370: cde4 7fbb 62c9 363c 8975 5a3d 34e8 d73d
00000380: 942e 99bc baf7 0c3c ef02 d8bc 710e 083c
00000390: 78ec 383d 7fa7 8dbd 6439 923d f562 c63d
000003a0: 4464 923c 594e 5d3d e505 31bd 309f b9bd
000003b0: 52cb 3e3c db39 543d 99e5 a0bd c676 e43b
000003c0: ae43 0a3b 0eb0 f2bc 5579 a8bd dbee 57bb
000003d0: 8846 8a3d fd8e e73d 4554 a83d 127b a03b
000003e0: c94f 8e3d bcbb a6bd af36 85bc e8bd 303d
000003f0: d1a7 103c cea2 083d dd9c 59bd 88f9 86bd

layer2.bias f4 [50]
0.05653888 0.063283294 -0.031603906 0.010607155 0.06180893 0.014027182 -0.053035524 -0.06173587
-0.017534303 -0.049293615 0.065247335 -0.027770277 -0.04390705 -0.010937605 -0.0015320741 0.013473079
0.053915054 0.03272552 0.0117489295 0.039119158 0.06530553 0.011381094 -0.06374336 -0.004428583
0.0025165498 -0.03831794 -0.00030945244 0.045824364 0.0524158 0.038477186 -0.06485224 -0.040603403
0.035003964 -0.03204923 0.014523866 0.0026641106 0.03524335 0.06437301 0.044375204 -0.054631766
0.048004396 -0.03375297 -0.05288373 0.013160118 0.04057048 0.013445245 -0.0522739 0.054653738
0.028295036 0.044172686
00000000: 5095 673d ac9a 813d 1973 01bd a2c9 2d3c
00000010: 5c2b 7d3d 44d2 653c c73b 59bd c0de 7cbd
00000020: 19a4 8fbc 1ae8 49bd 65a0 853d 7e7e e3bc
00000030: e1d7 33bd a433 33bc e0cf c8ba 30be 5c3c
00000040: 08d6 5c3d 320b 063d 957e 403c 693b 203d
00000050: e8be 853d c577 3a3c e18b 82bd a61d 91bb
00000060: b3ec 243b 46f3 1cbd 013e a2b9 54b2 3b3d
00000070: f3b1 563d 419a 1d3d 40d1 84bd c14f 26bd
00000080: 5160 0f3d 0e46 03bd 82f5 6d3c 5c98 2e3b
00000090: 555b 103d ffd5 833d c6c2 353d 8fc5 5fbd
000000a0: 42a0 443d 8e40 0abd 9c9c 58bd 899d 573c
000000b0: 3b2d 263d 7249 5c3c 281d 56bd 99dc 5f3d
000000c0: feca e73c 6bee 343d

layer4.weight f4 [25, 50, 3, 3]
0.087740004 0.03652995 0.037055645 0.05576598 -0.015413618 0.06037432 0.015485172 0.07731511
0.044021107 0.0363736 -0.0081563825 0.10236361 -0.03203734 -0.02208426 -0.03580022 -0.040502075
0.060037788 -0.045676325 -0.018344093 -0.035876516 -0.0987344 -0.010406264 -0.039134692 -9.2469876e-05
-0.046217125 0.02140842 -0.012626986 -0.050763007 -0.0797354 0.0036926297 0.014743939 0.07737276
0.032449566 0.058515582 0.0150077315 -0.016644055 -0.014741608 0.008583408 0.004150137 -0.078733735
0.034928177 0.06312442 0.083830714 0.039371666 -0.021883542 0.018248547 0.025003327 -0.006509977
0.003372227 0.02930065 -0.06388763 0.04482548 0.024485866 -0.06776862 0.029801354 0.014702417
-0.04449231 -0.046452034 -0.0050673555 0.014913328 0.003334426 -0.12775435 -0.05726294 -0.039139703
0.06863413 0.0006041579 -0.05267744 0.042111743 0.06966639 0.024552988 -0.011672706 0.01058009
0.010877391 0.060356855 0.040710077 -0.040949795 -0.005463878 -0.042614926 0.008372397 0.04616676
-0.09581344 -0.030720245 -0.0763598 -0.0005264849 -0.046044454 -0.0050422004 0.11647887 -0.055109497
0.020629609 0.09362533 0.029254714 0.061146643 0.034026943 0.04950571 0.049521856 -0.05926664
-0.0004922674 0.010442276 0.03911187 0.013299848 0.012757335 -0.007990673 0.104823254 0.06316295
0.036114167 -0.0051777926 -0.061946224 -0.030448265 -0.015891962 -0.035486475 -0.021427032 -0.020894738
0.068601705 0.0052933847 0.10240982 0.12680563 -0.06833664 -0.044542436 0.13154586 0.025749281
0.0367666 0.073036596 0.0440197 0.06908048 -0.044226095 0.06109016 -0.028824458 -0.055794194
0.023951644 -0.017735526 -0.03172129 0.107169084 -0.031981263 -0.064773194 0.10256982 -0.059651684
0.010405139 0.026335979 -0.042899173 0.09071669 -0.027535904 -0.047736485 -0.045705356 0.079529464
-0.046640024 -0.08022277 -0.09216324 0.07127504 0.053071745 0.003138661 -0.05266196 0.0389252
-0.05217418 -0.01575398 0.0007177134 -0.074029244 0.025979076 0.012096448 0.09292183 0.04051868
0.036005944 -0.100563236 0.058498636 0.08466405 0.050908245 -0.02344494 -0.06910672 0.06858488
0.01570581 0.079114065 0.016091775 0.06467257 0.023275085 0.041442696 -0.041397694 -0.047278754
0.037687764 -0.05042324 0.052592363 -0.052383065 -0.005444888 -0.09655483 -0.043559052 -0.07900744
-0.019369176 -0.022313261 -0.020738797 -0.06542419 -0.0206049 0.1298802 0.052221 0.14972305
-0.0066771526 -0.096576296 -0.006652087 -0.0030720748 -0.107021265 0.10384098 -0.044984818 -0.02339614
-0.0074575134 -0.019527746 -0.017649839 -0.060488127 0.041185364 0.03423683 -0.059234433 -0.004691724
0.015543263 0.04587634 -0.053379934 -0.0069014123 0.0593775 0.02102032 0.05517371 -0.026122553
0.0008483471 0.037386324 0.011324159 -0.008188773 -0.07648427 0.008457515 -0.045372047 0.08537341
-0.050513376 0.04161305 -0.018400077 -0.06547537 -0.027773596 0.04994469 -0.005014904 3.4325054e-05
-0.0088408 0.067300044 -0.019317312 0.036068883 -0.03657991 -0.058529772 -0.08672247 -0.007741346
-0.09604518 0.0944244 -0.12622698 0.037647955 0.031325832 -0.055557795 0.054086015 0.03839917
0.006261295 -0.07157772 0.071494766 0.0313077 -0.074530154 -0.0030102467 0.03984388 -0.023278303
00000000: 08b1 b33d 6ea0 153d a9c7 173d de6a 643d
00000010: 6689 7cbc 104b 773d 85b5 7d3c 6257 9e3d
00000020: 7a4f 343d 7cfc 143d 59a2 05bc 03a4 d13d
00000030: 9639 03bd 0dea b4bc 40a3 12bd 81e5 25bd
00000040: 2fea 753d 1917 3bbd 5a46 96bc 41f3 12bd
00000050: 4335 cabd 097f 2abc b34b 20bd 63ec c1b8
00000060: 2b4e 3dbd b660 af3c 6be1 4ebc dfec 4fbd
00000070: 504c a3bd 0c00 723b 9090 713c 9c75 9e3d
00000080: d6e9 043d 09ae 6f3d fde2 753c 1d59 88bc
00000090: c986 71bc 6ca1 0c3c dffd 873b 273f a1bd
000000a0: d910 0f3d 6047 813d 70af ab3d 2f44 213d
000000b0: 1d45 b3bc fa7d 953c c7d3 cc3c a551 d5bb
000000c0: 9500 5d3b eb07 f03c 85d7 82bd ec9a 373d
000000d0: 9596 c83c 46ca 8abd f821 f43c 68e2 703c
000000e0: 923d 36bd 7d44 3ebd 0f0c a6bb 0857 743c
000000f0: 6386 5a3b 09d2 02be 8b8c 6abd f450 20bd
00000100: 0d90 8c3d 5a60 1e3a 4dc4 57bd 5d7d 2c3d
00000110: 41ad 8e3d 5923 c93c e13e 3fbc 1d58 2d3c
00000120: 1637 323c c038 773d 9cbf 263d f9ba 27bd
00000130: 550a b3bb fd8c 2ebd 612c 093c 5b19 3d3d
00000140: d639 c4bd 06a9 fbbc 8762 9cbd ce03 0aba
00000150: 1c99 3cbd 0b39 a5bb 798c ee3d 7fba 61bd
00000160: 6dff a83c a3be bf3d 95a7 ef3c e774 7a3d
00000170: d65f 0b3d 80c6 4a3d 6ed7 4a3d 94c1 72bd
00000180: 820b 01ba 1416 2b3c c533 203d 9be7 593c
00000190: 2404 513c 50eb 02bc 93ad d63d 945b 813d
000001a0: 73ec 133d 79aa a9bb 53bb 7dbd a46e f9bc
000001b0: dc2f 82bc 445a 11bd be87 afbc 712b abbc
000001c0: 0d7f 8c3d 2174 ad3b 3dbc d13d 56d9 013e
000001d0: 15f4 8bbd 2172 36bd f5b3 063e 28f0 d23c
000001e0: 9398 163d 3694 953d 004e 343d 117a 8d3d
000001f0: 6c26 35bd ad39 7a3d 4521 ecbc 7488 64bd
00000200: 3d36 c43c 184a 91bc 2fee 01bd 777b db3d
00000210: c9fe 02bd cfa7 84bd 2010 d23d 5355 74bd
00000220: 517a 2a3c 8dbe d73c 0bb7 2fbd acc9 b93d
00000230: fa92 e1bc 5587 43bd 8a35 3bbd 58e0 a23d
00000240: 9c09 3fbd d64b a4bd 15c0 bcbd a6f8 913d
00000250: c261 593d feb1 4d3b 11b4 57bd 0870 1f3d
00000260: 98b4 55bd 7e0e 81bc ee24 3c3a a59c 97bd
00000270: 12d2 d43c 2e30 463c cd4d be3d eaf6 253d
00000280: f87a 133d 19f4 cdbd 449c 6f3d 5864 ad3d
00000290: 2a85 503d 9a0f c0bc d387 8dbd 3b76 8c3d
000002a0: 79a9 803c 8e06 a23d e6d2 833c 0d73 843d
000002b0: 64ab be3c d1bf 293d a190 29bd 5ea7 41bd
000002c0: 7c5e 1a3d 9988 4ebd 176b 573d a08f 56bd
000002d0: 086b b2bb 8abe c5bd fa6a 32bd a7ce a1bd
000002e0: 1bac 9ebc 4dca b6bc 69e4 a9bc 1efd 85bd
000002f0: 9bcb a8bc 51ff 043e b0e5 553d 0051 193e
00000300: 04cc dabb cbc9 c5bd c0f9 d9bb dd54 49bb
00000310: f72d dbbd 94aa d43d 0042 38bd 43a9 bfbc
00000320: 285e f4bb a7f8 9fbc 6596 90bc 66c2 77bd
00000330: fcb1 283d eb3b 0c3d ce9f 72bd 09bd 99bb
00000340: 2ca9 7e3c d4e8 3b3d eba4 5abd 3e25 e2bb
00000350: d235 733d ce32 ac3c d4fd 613d f7fe d5bc
00000360: 9c63 5e3a 6722 193d f788 393c 342a 06bc
00000370: c9a3 9cbd 6491 0a3c 0ad8 39bd 41d8 ae3d
00000380: 1de7 4ebd 7272 2a3d c2bb 96bc f317 86bd
00000390: 7485 e3bc ce92 4c3d 1054 a4bb 3ff8 0f38
000003a0: 01d9 10bc 9bd4 893d 573f 9ebc f7bc 133d
000003b0: d1d4 15bd eabc 6fbd 8d9b b1bd 1eab fdbb
000003c0: 56b3 c4bd 9461 c13d a541 01be be34 1a3d
000003d0: 844f 003d 9290 63bd 4c89 5d3d 7348 1d3d
000003e0: 8d2b cd3b 5797 92bd d96b 923d 813c 003d
000003f0: 44a3 98bd 8f47 45bb 5633 233d 24b2 bebc

layer4.bias f4 [25]
0.032307763 -0.020956153 -0.01924371 -0.0119039025 -0.021450879 -0.013492975 0.026763627 0.00069492403
0.0010318338 -0.013564917 0.017316133 -0.021318233 -0.017837994 0.025568426 -0.0040133293 0.023768438
0.021606054 -0.010259537 -0.0046940153 0.034847423 0.0011955185 0.007054886 0.010886118 0.02780065
-0.023814835
00000000: 2555 043d 3dac abbc fca4 9dbc 9608 43bc
00000010: c1b9 afbc a411 5dbc 653f db3c 902b 363a
00000020: 993e 873a 633f 5ebc 90da 8d3c 93a3 aebc
00000030: fc20 92bc e074 d13c 3f82 83bb 07b6 c23c
00000040: 2eff b03c 9e17 28bc 41d0 99bb 2cbc 0e3d
00000050: f2b2 9c3a ac2c e73b b05b 323c 30be e33c
00000060: 5417 c3bc

exp_avg f4 [25, 1, 3, 3]
-26758.98 -24013.453 -14657.178 -43155.297 -41523.227 -31022.031 -51477.17 -50794.3
-40742.766 6272.3584 6205.335 4327.006 12682.75 14705.496 14938.223 20071.53
23047.23 24162.145 6536.3984 10991.361 15365.543 18240.875 22233.262 25540.02
20175.969 23576.664 25735.693 -38830.695 -46504.664 -47315.11 -38823.367 -45779.594
-45111.992 -35512.008 -41027.336 -40064.85 5455.8276 5236.129 2190.1675 27544.729
22091.887 13085.379 45940.195 36176.984 20877.293 31099.145 34450.55 28939.84
54268.75 54356.7 42857.598 66168.45 61616.402 45194.46 51848.33 55604.78
43791.445 65828.72 68003.3 54021.47 64935.47 66785.68 50934.21 21016.354
20574.754 8436.983 45894.598 44144.688 27979.61 63334.14 60196.453 39983.555
33136.367 34042.062 25365.08 49125.21 48378.92 37288.58 56723.008 54841.9
41768.53 29098.328 33664.91 22830.957 46934.27 50699.477 37140.414 55267.266
57938.168 41857.258 15036.258 22440.004 21404.64 33069.094 41881.414 39292.742
44978.844 53447.04 48534.71 45716.293 52821.93 43284.477 57593.297 64106.6
51322.984 54698.637 59807.203 44893.562 11053.887 12263.014 9351.202 15378.8125
14506.478 10160.826 15412.935 13675.722 7953.1797 22087.352 21956.88 14839.58
16452.684 15406.975 7128.5127 5586.0454 3194.8328 -5014.34 58590.066 49143.188
23435.332 72120.875 64121.94 36334.457 72726.93 65524.03 39421.906 45425.047
49038.902 39980.664 62867.016 62885.953 49060.03 70458.44 66409.47 48691.227
10539.971 6963.999 -548.5933 15098.775 11399.918 3371.3115 16644.816 14214.464
6559.356 -32325.902 -27671.328 -9029.279 -38779.78 -32619.457 -11414.92 -37705.117
-29836.064 -8286.004 -8883.721 -14354.716 -10341.262 -28024.387 -33495.695 -26948.684
-39693.04 -43549.402 -34630.88 -12881.543 -30581.793 -37803.91 -33239.47 -49861.96
-53870.438 -46741.242 -61109.508 -61308.516 34257.914 34755.242 24804.418 45414.848
43176.61 28848.898 46030.586 40189.344 23259.297 -12605.733 -20896.94 -24327.996
-20864.643 -26973.297 -28386.746 -25305.826 -29492.125 -28173.752 26202.379 39603.3
43359.72 44022.805 54452.887 52725.312 56048.375 61055.08 53373.652 -22776.531
-35199.426 -42297.617 -38930.55 -52393.82 -57120.875 -44381.723 -56659.883 -58595.203
-37870.406 -38859.21 -29919.264 -54451.96 -54929.676 -44223.062 -63792.93 -64047.12
-52197.508
00000000: f60d d1c6 e89a bbc6 b604 65c6 4c93 28c7
00000010: 3a33 22c7 105c f2c6 2c15 49c7 4d6a 46c7
00000020: c426 1fc7 de02 c445 aeea c145 0c38 8745
00000030: 002b 4646 fcc5 6546 e468 6946 0fcf 9c46
00000040: 760e b446 4ac4 bc46 3043 cc45 72bd 2b46
00000050: 2c16 7046 c081 8e46 86b2 ad46 0a88 c746
00000060: f09f 9d46 5431 b846 630f c946 b2ae 17c7
00000070: aaa8 35c7 1cd3 38c7 5ea7 17c7 98d3 32c7
00000080: fe37 30c7 02b8 0ac7 5643 20c7 da80 1cc7
00000090: 9f7e aa45 08a1 a345 aee2 0845 7531 d746
000000a0: c697 ac46 8475 4c46 3274 3347 fc50 0d47
000000b0: 961a a346 4af6 f246 8d92 0647 ae17 e246
000000c0: c0fc 5347 b354 5447 9969 2747 3a3c 8147
000000d0: 67b0 7047 768a 3047 5488 4a47 c834 5947
000000e0: 720f 2b47 5c92 8047 a6d1 8447 7805 5347
000000f0: 78a7 7d47 d770 8247 36f6 4647 b530 a446
00000100: 82bd a046 efd3 0346 9946 3347 b070 2c47
00000110: 3897 da46 2466 7747 7424 6b47 8e2f 1c47
00000120: 5e70 0147 10fa 0447 292a c646 36e5 3f47
00000130: ecfa 3c47 94a8 1147 0293 5d47 e639 5647
00000140: 8828 2347 a854 e346 e980 0347 ea5d b246
00000150: 4556 3747 7a0b 4647 6a14 1147 44e3 5747
00000160: 2b52 6247 4281 2347 08f1 6a46 0250 af46
00000170: 4839 a746 182d 0147 6a99 2347 be7c 1947
00000180: d8b2 2f47 0ac7 5047 b696 3d47 4b94 3247
00000190: ee55 4e47 7a14 2947 4cf9 6047 9a6a 7a47
000001a0: fc7a 4847 a3aa 5547 349f 6947 905d 2f47
000001b0: 8cb7 2c46 0e9c 3f46 cf1c 1246 404b 7046
000001c0: e9a9 6246 4ec3 1e46 bdd3 7046 e3ae 5546
000001d0: 7089 f845 b48e ac46 c389 ab46 52de 6746
000001e0: 5e89 8046 e6bb 7046 1ac4 de45 5d90 ae45
000001f0: 53ad 4745 b8b2 9cc5 11de 6447 30f7 3f47
00000200: aa16 b746 70dc 8c47 f179 7a47 75ee 0d47
00000210: 770b 8e47 08f4 7f47 e8fd 1947 0c71 3147
00000220: e78e 3f47 aa2c 1c47 0493 7547 f4a5 7547
00000230: 08a4 3f47 389d 8947 bcb4 8147 3a33 3e47
00000240: e2af 2446 fe9f d945 f925 09c4 1aeb 6b46
00000250: ac1f 3246 fcb4 5245 a209 8246 db19 5e46
00000260: d9fa cc45 ce8b fcc6 a82e d8c6 1e15 0dc6
00000270: c87b 17c7 ead6 fec6 ae5b 32c6 1e49 13c7
00000280: 2118 e9c6 0478 01c6 e2ce 0ac6 dd4a 60c6
00000290: 0c95 21c6 c6f0 dac6 b2d7 02c7 5e89 d2c6
000002a0: 0a0d 1bc7 671d 2ac7 e146 07c7 2c46 49c6
000002b0: 96eb eec6 e9ab 13c7 78d7 01c7 f6c5 42c7
000002c0: 706e 52c7 3e95 36c7 82b5 6ec7 847c 6fc7
000002d0: ead1 0547 3ec3 0747 d6c8 c146 d966 3147
000002e0: 9ca8 2847 cc61 e146 96ce 3347 58fd 1c47
000002f0: 98b6 b546 eff6 44c6 e141 a3c6 fe0f bec6
00000300: 4901 a3c6 98ba d2c6 7ec5 ddc6 a7b3 c5c6
00000310: 4068 e6c6 811b dcc6 c2b4 cc46 4db3 1a47
00000320: b85f 2947 cef6 2b47 e3b4 5447 50f5 4d47
00000330: 60f0 5a47 147f 6e47 a77d 5047 10f1 b1c6
00000340: 6d7f 09c7 9e39 25c7 8d12 18c7 d2a9 4cc7
00000350: e020 5fc7 b95d 2dc7 e253 5dc7 34e3 64c7
00000360: 68ee 13c7 36cb 17c7 87be e9c6 f6b3 54c7
00000370: ad91 56c7 10bf 2cc7 ee30 79c7 1f2f 7ac7
00000380: 82e5 4bc7

exp_avg_sq f4 [25, 1, 3, 3]
6.427164e+09 6.486155e+09 5.7461847e+09 7.7723213e+09 7.8378885e+09 6.883137e+09 7.954115e+09 8.048441e+09
7.065742e+09 3.8813335e+09 4.2286815e+09 4.059868e+09 3.879827e+09 4.3031485e+09 4.162269e+09 3.4469404e+09
3.8669207e+09 3.779548e+09 8.936802e+09 1.0210433e+10 1.0055443e+10 8.4561336e+09 1.003892e+10 1.0267667e+10
7.4470134e+09 9.123203e+09 9.644023e+09 6.469806e+09 9.128217e+09 1.0964902e+10 5.348094e+09 7.6240906e+09
9.262056e+09 3.9876695e+09 5.6712724e+09 6.9494164e+09 1.02987994e+09 6.590552e+08 4.270904e+08 1.1265158e+09
7.517484e+08 4.8039e+08 1.0901207e+09 7.362197e+08 4.6579034e+08 1.0829905e+10 9.062271e+09 6.5639e+09
1.2315142e+10 1.0435696e+10 7.6104745e+09 1.2161522e+10 1.0390356e+10 7.6526106e+09 9.343607e+09 9.058802e+09
7.2099804e+09 1.2656251e+10 1.2403846e+10 1.0091102e+10 1.3817063e+10 1.3750355e+10 1.1383211e+10 5.0219546e+09
5.166783e+09 4.45496e+09 7.164812e+09 7.3755126e+09 6.2847406e+09 8.67006e+09 8.928799e+09 7.527647e+09
1.3232763e+09 1.4341076e+09 1.3673368e+09 2.6969152e+09 2.5544102e+09 2.117775e+09 4.3964216e+09 4.011155e+09
3.147125e+09 1.1010979e+10 1.2496501e+10 1.2028171e+10 1.5978643e+10 1.8508042e+10 1.8090428e+10 2.005991e+10
2.354662e+10 2.3283542e+10 1.3989044e+09 1.3779657e+09 1.3163186e+09 3.0448579e+09 3.30261e+09 3.23644e+09
5.019445e+09 5.691481e+09 5.6656287e+09 2.8824545e+10 2.879471e+10 2.4353774e+10 2.9454266e+10 2.9891426e+10
2.553987e+10 2.5174006e+10 2.588185e+10 2.2314836e+10 2.606548e+09 1.169014e+09 5.001077e+08 5.105206e+09
2.84466e+09 1.1337441e+09 7.373203e+09 4.7715087e+09 2.3125174e+09 8.81342e+08 1.0767444e+09 1.2178249e+09
9.023192e+08 1.1075697e+09 1.2585981e+09 8.121202e+08 1.0144377e+09 1.180544e+09 1.7054098e+10 1.495151e+10
1.0440183e+10 2.0569893e+10 1.8674915e+10 1.3543094e+10 2.0706202e+10 1.9379055e+10 1.4624629e+10 4.5440877e+10
3.9141556e+10 2.9083613e+10 4.857342e+10 4.2020418e+10 3.1378401e+10 4.566487e+10 3.9629484e+10 2.9797515e+10
6.532872e+08 7.263917e+08 7.1702285e+08 6.12323e+08 6.9667366e+08 6.996654e+08 4.7460672e+08 5.582336e+08
5.7588154e+08 2.46323e+09 2.7188572e+09 2.519923e+09 2.665953e+09 2.9580086e+09 2.7523564e+09 2.412174e+09
2.6744724e+09 2.5092764e+09 1.3352693e+10 1.4991218e+10 1.4777989e+10 1.6634978e+10 1.9308106e+10 1.941982e+10
1.8469173e+10 2.2003202e+10 2.2547628e+10 3.4146844e+09 4.9995525e+09 5.774605e+09 3.5930166e+09 5.2958633e+09
6.0588897e+09 3.5195858e+09 5.069283e+09 5.639842e+09 6.2743434e+09 7.1512684e+09 6.966054e+09 8.475512e+09
9.66933e+09 9.471032e+09 9.454096e+09 1.0752573e+10 1.0599618e+10 9.749517e+08 1.1525175e+09 1.2476748e+09
8.4058426e+08 9.650218e+08 1.0520167e+09 6.772777e+08 7.381426e+08 8.093141e+08 6.731643e+09 7.6670797e+09
7.464341e+09 8.3892915e+09 9.293722e+09 8.8119e+09 8.959203e+09 9.554822e+09 8.776443e+09 1.2420493e+10
1.3576241e+10 1.2966743e+10 1.3959965e+10 1.5200498e+10 1.4241812e+10 1.3121179e+10 1.4142195e+10 1.297085e+10
2.797211e+10 2.5242712e+10 1.9208362e+10 3.4433933e+10 3.2072038e+10 2.5314255e+10 3.6316107e+10 3.483962e+10
2.8449468e+10
00000000: 5f8b bf4f 6f4d c14f e93f ab4f 1ba2 e74f
00000010: 5896 e94f 2b22 cd4f 150d ed4f bbdc ef4f
00000020: 5593 d24f 7358 674f 8f0c 7c4f abfc 714f
00000030: 7641 674f 6b3e 804f 2f17 784f 2374 4d4f
00000040: 877c 664f 5347 614f 322b 0550 b625 1850
00000050: 79d6 1550 2e03 fc4f 7197 1550 0b00 1950
00000060: 34f0 dd4f 42f2 0750 07b5 0f50 b4d0 c04f
00000070: 6205 0850 c863 2350 b862 9f4f 3237 e34f
00000080: f103 0a50 02af 6d4f 6004 a94f d71b cf4f
00000090: e28a 754e 8a21 1d4e 0fa7 cb4d 894a 864e
000000a0: 153b 334e 5c11 e54d d8f3 814e 4987 2f4e
000000b0: 2c1b de4d cf60 2150 d209 0750 959e c34f
000000c0: 8a82 3750 0581 1b50 50cf e24f 8638 3550
000000d0: 10d4 1a50 c910 e44f 083b 0b50 96fc 0650
000000e0: c9df d64f c497 3c50 ebd4 3850 805e 1650
000000f0: eae3 4d50 71e5 4c50 819f 2950 79aa 954f
00000100: 6dfb 994f a6c4 844f 2d87 d54f b2ce db4f
00000110: c44c bb4f a731 0150 aa0c 0550 6457 e04f
00000120: 30bf 9d4e 7ef5 aa4e cfff a24e a9bf 204f
00000130: 3541 184f 5d75 fc4e 0906 834f 5e15 6f4f
00000140: 5195 3b4f 8d13 2450 5e36 3a50 d53b 3350
00000150: b019 6e50 4ae5 8950 c1c8 8650 3e75 9550
00000160: 9d6f af50 d579 ad50 2dc3 a64e 2d44 a44e
00000170: dbea 9c4e d87c 354f d4d9 444f 28e8 404f
00000180: 5497 954f 8e9e a94f 51d9 a84f 75c2 d650
00000190: 8d89 d650 2373 b550 8e73 db50 5fb5 de50
000001a0: 7049 be50 9b8f bb50 b6d5 c050 2c42 a650
000001b0: c45c 1b4f 7a5b 8b4e 4e78 ee4d a125 984f
000001c0: 118e 294f 2027 874e 13bd db4f b933 8e4f
000001d0: 37d6 094f d920 524e a25b 804e 112d 914e
000001e0: 3221 574e 5808 844e 5e09 964e e29f 414e
000001f0: 5ddc 714e 58bb 8c4e 3920 7e50 7ccb 5e50
00000200: 2392 1b50 f541 9950 9323 8b50 cece 4950
00000210: f245 9a50 9d62 9050 88ec 5950 cc47 2951
00000220: 4cd0 1151 97b0 d850 39f3 3451 cb89 1c51
00000230: 8dc9 e950 6a1d 2a51 9fa1 1351 4002 de50
00000240: 7cc1 1b4e 6e2f 2d4e 9af3 2a4e 3bfd 114e
00000250: 9619 264e 30d0 264e 644f e24d e017 054e
00000260: 054d 094e e8d1 124f 780e 224f f932 164f
00000270: 37e7 1e4f a14f 304f a00d 244f dbc6 0f4f
00000280: 3669 1f4f 8590 154f 7bf8 4650 f562 5f50
00000290: 8e35 5c50 68e1 7750 4adb 8f50 5eb0 9050
000002a0: 279b 8950 c7ef a350 30fe a750 f387 4b4f
000002b0: 8fff 944f bd18 ac4f 1529 564f 3bd4 9d4f
000002c0: a991 b44f 9ec8 514f 8f13 974f 9414 a84f
000002d0: 71fd ba4f d91f d54f c69a cf4f 0697 fc4f
000002e0: 9115 1050 1f21 0d50 84e0 0c50 d039 2050
000002f0: 55f2 1d50 5472 684e 0b64 894e 03bc 944e
00000300: 3169 484e 4214 664e 01d2 7a4e c079 214e
00000310: a6fc 2f4e 9df4 404e 5c9e c84f 2d7f e44f
00000320: 6774 de4f 3705 fa4f bc7c 0a50 bb4e 0350
00000330: a680 0550 c160 0e50 79c7 0250 6c14 3950
00000340: 404d 4a50 3338 4150 0a05 5050 4c81 6250
00000350: 3438 5450 5385 4350 31bc 5250 de47 4150
00000360: 9168 d050 a712 bc50 0b1d 8f50 c246 0051
00000370: 8ff4 ee50 1c9b bc50 bd49 0751 a7c9 0151
00000380: 0ef7 d350

exp_avg f4 [25]
-21694.709 14453.979 -7162.4375 -4977.012 18941.738 11023.245 23686.5 15681.633
3621.4097 -3788.455 -13633.695 30493.953 6201.62 1699.9032 18426.121 -9135.047
21943.21 -18766.215 10661.182 16.84253 35593.37 -22649.775 7896.2734 -23785.652
2455.12
00000000: 6b7d a9c6 ead7 6146 80d3 dfc5 1988 9bc5
00000010: 7afb 9346 fb3c 2c46 000d b946 8806 7546
00000020: 8e56 6245 48c7 6cc5 c806 55c6 e83b ee46
00000030: f6cc c145 e77c d444 3ef4 8f46 30bc 0ec6
00000040: 6c6e ab46 6e9c 92c6 ba94 2646 80bd 8641
00000050: 5f09 0b47 8df3 b0c6 30c2 f645 4ed3 b9c6
00000060: ec71 1945

exp_avg_sq f4 [25]
5.2947622e+08 2.2252106e+08 2.9671524e+09 1.116567e+09 4.1776074e+08 1.106201e+09 2.3202627e+09 1.859094e+09
1.4698338e+08 2.5151866e+08 1.7964923e+08 2.6384714e+09 1.04175744e+09 1.5037394e+09 1.9353064e+09 1.0806886e+09
5.787418e+08 1.317924e+09 4.2671898e+08 2.2408909e+08 5.2700288e+08 6.556909e+08 7.689943e+08 1.0669178e+09
6.823708e+08
00000000: 5479 fc4d 6e36 544d 27db 304f ec1a 854e
00000010: 2f34 c74d 93de 834e 664c 0a4f 0c9f dd4e
00000020: 9d2c 0c4d ecdd 6f4d ad53 2b4d e143 1d4f
00000030: d45f 784e 7c42 b34e ddb4 e64e 00d4 804e
00000040: 99fb 094e d91b 9d4e b879 cb4d 40b5 554d
00000050: 684b fb4d 3254 1c4e b057 374e 7f5f 7e4e
00000060: 9cb0 224e

exp_avg f4 [50, 25, 3, 3]
-4448.0806 -4881.671 -1311.4048 -7236.093 -8138.8164 -4735.5547 -8084.4414 -9447.583
-6452.562 5129.1245 4930.3896 710.00867 7882.9004 8230.635 4288.787 8222.253
9227.6875 5862.0894 1069.1311 1065.0195 1622.0769 1404.0122 1686.2085 2463.1099
1433.4171 1972.2909 2865.4805 -4073.479 -2785.6753 2571.3855 -6822.343 -5561.6064
-175.51509 -7321.3335 -6287.4863 -1288.9093 2454.0957 752.4867 -844.2855 2633.9204
1139.7502 -156.70189 1363.4084 164.46948 -766.44104 -27.23938 1335.4238 3192.3818
326.19086 2017.8641 4009.5469 1114.7092 3085.0962 5089.423 6391.172 4971.127
450.18567 9358.508 8288.809 3970.9727 9523.779 8854.248 4979.868 2682.9482
2506.3142 350.62567 3829.6987 4220.6626 2551.626 3669.155 4726.789 3778.562
33.004333 532.4099 3274.9517 -987.0709 353.91687 3851.2388 -1326.9481 706.697
4796.5557 -191.84161 -96.431885 1392.3606 -885.9595 -106.63513 1953.7769 -835.2167
527.1466 3158.077 -3085.559 -1947.8887 2646.1355 -4998.6553 -3336.443 1775.318
-5063.1016 -2875.523 2513.716 6083.622 4866.831 -1745.9401 8956.913 8084.6064
1702.8337 8845.68 8336.539 2677.0269 -2281.8308 -1463.4575 1098.3274 -2653.2559
-1461.1005 1292.9081 -1556.3352 -56.97107 2918.7563 -2774.5093 -2716.0454 -621.1185
-3988.993 -3683.671 -1376.3381 -3625.6467 -3088.1826 -562.3439 -2234.4644 164.40295
5365.334 -3791.3127 -335.18408 5722.546 -3581.1196 840.8462 7458.365 2616.4097
2743.87 1548.4507 4247.212 4479.6597 3305.8066 4914.995 5346.5312 4239.078
5853.626 4224.825 -2710.3074 8363.664 6653.716 -297.59158 7476.0903 5802.2617
-778.3951 189.59503 -947.2215 -2633.8262 804.4233 -877.56976 -2991.876 1018.08905
-1105.6312 -3532.9065 4802.1714 2650.6453 -5152.5107 7369.727 4431.8584 -3988.3433
6533.007 2995.498 -5619.0796 1842.1892 -3.0324707 -5514.744 2451.6045 -123.56897
-6156.127 1146.6237 -2094.5947 -8326.87 5046.157 2457.358 -3049.1372 6783.52
4452.2095 -773.4515 5895.7334 3948.2622 -649.53876 -956.3286 -2216.3193 -3062.623
-1328.825 -3229.2725 -4452.339 -1682.6804 -4055.0352 -5633.4043 8300.963 8108.7725
2133.9736 11943.465 12718.182 7390.056 12105.104 13771.576 9487.908 -2298.8303
-2092.1426 -107.10538 -3826.855 -3676.234 -1659.9683 -4346.366 -4309.205 -2397.3203
5254.0273 2556.9695 -5531.8247 6920.6797 3836.4604 -4459.9775 5168.928 1812.9271
-6226.948 10349.629 7373.0 4903.323 8092.6187 4260.8125 1409.9995 4988.5176
601.60297 -2286.4873 -9921.117 -8610.611 -7569.945 -7999.5273 -5743.6646 -4084.742
-5218.2676 -2076.5454 -82.06415 -3678.231 -3662.1436 -1998.7982 -2246.9243 -1931.2134
-10.335068 -910.82025 -375.7672 1635.5834 4971.9673 3700.6853 4164.693 4896.9746
00000000: a500 8bc5 5e8d 98c5 f4ec a3c4 be20 e2c5
00000010: 8856 fec5 70fc 93c5 88a3 fcc5 559e 13c6
00000020: 7fa4 c9c5 ff48 a045 1e13 9a45 8e80 3144
00000030: 3457 f645 8a9a 0046 4c06 8645 0379 0046
00000040: c02e 1046 b730 b745 32a4 8544 a020 8544
00000050: 76c2 ca44 6480 af44 acc6 d244 c2f1 1945
00000060: 592d b344 4f89 f644 b017 3345 aa97 7ec5
00000070: ce1a 2ec5 2bb6 2045 be32 d5c5 dacc adc5
00000080: dd83 2fc3 abca e4c5 e47b c4c5 191d a1c4
00000090: 8861 1945 261f 3c44 4612 53c4 ba9e 2445
000000a0: 0278 8e44 afb3 1cc3 126d aa44 3078 2443
000000b0: 3a9c 3fc4 40ea d9c1 90ed a644 1c86 4745
000000c0: 6e18 a343 a73b fc44 c098 7a45 b256 8b44
000000d0: 8ad1 4045 620b 9f45 60b9 c745 0459 9b45
000000e0: c417 e143 083a 1246 3c83 0146 902f 7845
000000f0: 1ecf 1446 fe58 0a46 f29e 9b45 2caf 2745
00000100: 07a5 1c45 1650 af43 2e5b 6f45 4de5 8345
00000110: 047a 1f45 7b52 6545 50b6 9345 fe28 6c45
00000120: 7004 0442 3c1a 0544 3aaf 4c45 8ac4 76c4
00000130: 5cf5 b043 d2b3 7045 57de a5c4 9cac 3044
00000140: 72e4 9545 74d7 3fc3 20dd c0c2 8a0b ae44
00000150: 687d 5dc4 3045 d5c2 dc38 f444 decd 50c4
00000160: 62c9 0344 3b61 4545 f2d8 40c5 707c f3c4
00000170: 2b62 2545 3e35 9cc5 1787 50c5 2dea dd44
00000180: d038 9ec5 5eb8 33c5 751b 1d45 fa1c be45
00000190: a616 9845 153e dac4 a7f3 0b46 daa4 fc45
000001a0: aeda d444 b836 0a46 2842 0246 6e50 2745
000001b0: 4b9d 0ec5 a4ee b6c4 7a4a 8944 18d4 25c5
000001c0: 37a3 b6c4 0f9d a144 ba8a c2c4 60e2 63c2
000001d0: 1a6c 3645 2668 2dc5 bac0 29c5 9647 1bc4
000001e0: e34f 79c5 bc3a 66c5 d20a acc4 599a 62c5
000001f0: ec02 41c5 0296 0cc4 6ea7 0bc5 2867 2443
00000200: acaa a745 01f5 6cc5 9097 a7c3 5ed4 b245
00000210: ead1 5fc5 2836 5244 ec12 e945 8e86 2345
00000220: ec7d 2b45 6c8e c144 b2b9 8445 47fd 8b45
00000230: e89c 4e45 f697 9945 4014 a745 a078 8445
00000240: 02ed b645 9a06 8445 eb64 29c5 a8ae 0246
00000250: baed cf45 b9cb 94c3 b9a0 e945 1852 b545
00000260: 4999 42c4 5498 3d43 2dce 6cc4 389d 24c5
00000270: 171b 4944 7764 5bc4 04fe 3ac5 b385 7e44
00000280: 3334 8ac4 81ce 5cc5 5f11 9645 53aa 2545
00000290: 1604 a1c5 d14d e645 de7e 8a45 7e45 79c5
000002a0: 0e28 cc45 f837 3b45 a398 afc5 0e46 e644
000002b0: 0014 42c0 f455 acc5 ac39 1945 5023 f7c2
000002c0: 0461 c0c5 f553 8f44 84e9 02c5 7b1b 02c6
000002d0: 42b1 9d45 ba95 1945 3292 3ec5 29fc d345
000002e0: ad21 8b45 e55c 41c4 de3d b845 32c4 7645
000002f0: 7b62 22c4 0815 6fc4 1c85 0ac5 f869 3fc5
00000300: 661a a6c4 5cd4 49c5 b622 8bc5 c655 d2c4
00000310: 9070 7dc5 3c0b b0c5 dab3 0146 2e66 fd45
00000320: 945f 0545 dc9d 3a46 bab8 4646 73f0 e645
00000330: 6a24 3d46 4e2e 5746 a23f 1446 49ad 0fc5
00000340: 48c2 02c5 f435 d6c2 ae2d 6fc5 bec3 65c5
00000350: fc7e cfc4 eed2 87c5 a4a9 86c5 20d5 15c5
00000360: 3830 a445 83cf 1f45 99de acc5 7045 d845
00000370: 5ec7 6f45 d25f 8bc5 6d87 a145 ab9d e244
00000380: 9697 c2c5 84b6 2146 0068 e645 963a 9945
00000390: f3e4 fc45 8026 8545 fc3f b044 24e4 9b45
000003a0: 9766 1644 cce7 0ec5 7804 1bc6 728a 06c6
000003b0: 8f8f ecc5 38fc f9c5 517d b3c5 df4b 7fc5
000003c0: 2412 a3c5 bac8 01c5 d820 a4c2 b2e3 65c5
000003d0: 4ce2 64c5 8bd9 f9c4 ca6e 0cc5 d466 f1c4
000003e0: 705c 25c1 7fb4 63c4 34e2 bbc3 ab72 cc44
000003f0: bd5f 9b45 f74a 6745 8b25 8245 cc07 9945

exp_avg_sq f4 [50, 25, 3, 3]
1.7114811e+08 1.759956e+08 1.5743659e+08 1.9070614e+08 2.1097003e+08 1.9713773e+08 2.1355045e+08 2.490094e+08
2.4099566e+08 2.5254018e+08 2.877965e+08 2.902717e+08 2.6466181e+08 3.1694077e+08 3.2991232e+08 2.7817974e+08
3.4916234e+08 3.7531418e+08 6.822748e+07 7.968071e+07 8.588109e+07 6.532319e+07 7.948194e+07 9.0459016e+07
6.1221264e+07 7.756486e+07 9.152384e+07 1.6808062e+07 1.9378848e+07 2.4209474e+07 1.4046897e+07 1.4882062e+07
1.5553245e+07 1.1195475e+07 1.0907124e+07 8.642553e+06 1.3255075e+07 3.804218e+06 2.3467218e+06 1.940601e+07
8.1972235e+06 2.2764335e+06 2.4833248e+07 1.4135241e+07 5.4422795e+06 1.1964257e+08 1.1645871e+08 1.0662316e+08
1.3272236e+08 1.3815621e+08 1.3381159e+08 1.432172e+08 1.574239e+08 1.5810389e+08 3.5269492e+07 3.7489344e+07
3.481823e+07 5.3255144e+07 5.753481e+07 5.290974e+07 7.021673e+07 7.8647464e+07 7.410918e+07 6.7036556e+07
9.342036e+07 1.1431069e+08 6.967173e+07 1.0055614e+08 1.2598661e+08 7.457364e+07 1.12683736e+08 1.4612542e+08
1.9592584e+08 2.5224195e+08 2.9661738e+08 1.8768226e+08 2.5122352e+08 3.1127517e+08 1.7319248e+08 2.4262806e+08
3.1721085e+08 1.9288086e+08 2.319835e+08 2.5108488e+08 2.0269832e+08 2.5262056e+08 2.854129e+08 2.0313266e+08
2.63041e+08 3.1224288e+08 7.549833e+07 9.555785e+07 1.139259e+08 7.654721e+07 9.869542e+07 1.2217401e+08
7.257409e+07 9.719922e+07 1.2772394e+08 2.013215e+07 2.2835356e+07 2.5537106e+07 2.849961e+07 3.1360004e+07
2.7415942e+07 3.695795e+07 4.255568e+07 3.79137e+07 1.5040856e+08 1.3636147e+08 1.0938767e+08 1.7783595e+08
1.7097566e+08 1.4757062e+08 1.9262586e+08 1.9712578e+08 1.8426125e+08 6.28042e+07 6.988567e+07 6.634174e+07
8.094311e+07 9.161741e+07 8.8244024e+07 8.494854e+07 9.753765e+07 9.639248e+07 6.13728e+08 7.256483e+08
7.8984595e+08 6.139403e+08 7.5611104e+08 8.627348e+08 5.937219e+08 7.6609395e+08 9.161457e+08 2.1164886e+07
2.163134e+07 1.9670196e+07 3.1728518e+07 3.506673e+07 3.2966804e+07 4.35627e+07 4.952066e+07 4.6373028e+07
1.582299e+08 1.3765406e+08 1.0713051e+08 1.8339555e+08 1.6735302e+08 1.3507056e+08 1.8604698e+08 1.7825022e+08
1.5405301e+08 1.2054816e+08 1.496239e+08 1.6837082e+08 1.1538031e+08 1.4959043e+08 1.7599565e+08 1.0610093e+08
1.4404698e+08 1.7704027e+08 5.2319763e+08 5.549866e+08 5.4726515e+08 5.5233146e+08 6.083052e+08 6.2849254e+08
5.486314e+08 6.316413e+08 6.894906e+08 5.088433e+08 5.2649773e+08 5.096517e+08 5.3324416e+08 5.793467e+08
5.9466477e+08 5.4293856e+08 6.209359e+08 6.7120806e+08 3.680535e+07 2.7903096e+07 2.772211e+07 3.8130012e+07
2.6928714e+07 2.1176862e+07 3.452162e+07 2.3434774e+07 1.5307103e+07 2.9016957e+08 3.209467e+08 3.2183232e+08
2.960056e+08 3.4358672e+08 3.6095008e+08 2.9257795e+08 3.5538045e+08 3.887548e+08 4.494771e+08 5.3467738e+08
5.5919866e+08 4.882298e+08 6.064366e+08 6.517487e+08 5.296747e+08 6.818491e+08 7.54413e+08 2.2936015e+06
2.0069829e+06 1.5971565e+06 5.384957e+06 5.0388655e+06 3.0126982e+06 9.557997e+06 9.200407e+06 5.7351165e+06
3.1493008e+08 2.7916314e+08 2.4221285e+08 3.473518e+08 3.246999e+08 2.9562906e+08 3.6195885e+08 3.5938883e+08
3.4664496e+08 4.277901e+08 3.244284e+08 2.1793642e+08 4.198144e+08 3.119761e+08 2.0605475e+08 3.7126998e+08
2.733115e+08 1.8068496e+08 7.057966e+08 6.321676e+08 5.0160195e+08 6.933994e+08 6.09047e+08 4.7522733e+08
6.124422e+08 5.2975213e+08 4.1001997e+08 1.0997423e+08 9.8341944e+07 7.268953e+07 9.520761e+07 8.374112e+07
6.0977604e+07 7.10974e+07 6.1197292e+07 4.3972348e+07 3.535718e+07 2.7533098e+07 2.2810582e+07 4.3500052e+07
00000000: 3538 234d add7 274d ab24 164d 1edf 354d
00000010: 5b32 494d 5401 3c4d 57a8 4b4d 5079 6d4d
00000020: d5d4 654d 51d7 704d 693b 894d 8f69 8a4d
00000030: b366 7c4d 0f21 974d 8050 9d4d 7da5 844d
00000040: 5b7e a64d b8f6 b24d 3322 824c 99fa 974c
00000050: 20ce a34c 2e30 794c 8a99 974c 7189 ac4c
00000060: 648a 694c 78f1 934c 6091 ae4c 3f3c 804b
00000070: 50d9 934b 21b4 b84b b156 564b 0e15 634b
00000080: dd52 6d4b 53d4 2a4b f46d 264b f9df 034b
00000090: a341 4a4b e830 684a 873b 0f4a 5d0e 944b
000000a0: cf28 fa4a 46f1 0a4a 7076 bd4b c9af 574b
000000b0: cf15 a64a 3933 e44c 9b20 de4c 175e cb4c
000000c0: d725 fd4c 8bc1 034d b139 ff4c 2395 084d
000000d0: 9221 164d 95c7 164d dd8a 064c b002 0f4c
000000e0: 2ed2 044c fa26 4b4c 567a 5b4c abd5 494c
000000f0: 83ed 854c 1502 964c 205a 8d4c 63b9 7f4c
00000100: 692f b24c c407 da4c 66e3 844c aecb bf4c
00000110: e64c f04c e93c 8e4c 5bed d64c 275b 0b4d
00000120: 75d9 3a4d 828e 704d 2d70 8d4d ddfc 324d
00000130: de95 6f4d 756d 944d 522b 254d 5e63 674d
00000140: 0742 974d 0ef2 374d 993c 5d4d 0574 6f4d
00000150: e54e 414d f1ea 704d 7118 884d efb8 414d
00000160: feda 7a4d 96e3 944d 6b00 904c 1b43 b64c
00000170: e24b d94c 9100 924c 203f bc4c 4707 e94c
00000180: 916c 8a4c 8e64 b94c 349d f34c 9b98 994b
00000190: 4e38 ae4b 29d5 c24b 4d6f d94b 0242 ef4b
000001a0: c32a d14b c0fb 0c4c 4856 224c 19a1 104c
000001b0: d770 0f4d 600b 024d f3a3 d04c fb98 294d
000001c0: 1b0e 234d fcbb 0c4d ccb3 374d 69fe 3b4d
000001d0: a8b9 2f4d 3a94 6f4c dd4b 854c db12 7d4c
000001e0: 0163 9a4c 10bf ae4c e74f a84c c806 a24c
000001f0: ce09 ba4c a4da b74c fc52 124e 0f02 2d4e
00000200: 5f50 3c4e f15f 124e 5b45 344e 27b1 4d4e
00000210: e98d 0d4e aaa6 364e 196d 5a4e ab79 a14b
00000220: b608 a54b 5a12 964b c311 f24b dac4 054c
00000230: 4a84 fb4b b32d 264c 05e8 3c4c 29e6 304c
00000240: 59e6 164d f346 034d d255 cc4c 4ee6 2e4d
00000250: ac99 1f4d 36d0 004d a06d 314d 1ffe 294d
00000260: 99ea 124d 68ed e54c 46b1 0e4d 2892 204d
00000270: 0b12 dc4c 1aa9 0e4d b0d7 274d 185f ca4c
00000280: b85f 094d b9d6 284d e67a f94d b251 044e
00000290: 6a7a 024e a3af 034e 0108 114e 24d8 154e
000002a0: cecd 024e 5398 164e 2b63 244e a9a2 f24d
000002b0: be0d fb4d 5805 f34d 4845 fe4d 8420 0a4e
000002c0: 75c7 0d4e 5772 014e eb0a 144e 4a07 204e
000002d0: ba66 0c4c 3ce2 d44b bf80 d34b 5774 114c
000002e0: 2573 cd4b 0f91 a14b 85b0 034c 0bcb b24b
000002f0: 5f91 694b 175d 8a4d 100a 994d 2c76 994d
00000300: 7f25 8d4d bdd5 a34d 4a1d ac4d 1583 8b4d
00000310: 6775 a94d 6c5f b94d cf53 d64d 3cf4 fe4d
00000320: c752 054e 5dce e84d f495 104e 9563 1b4e
00000330: 8e91 fc4d c490 224e b7dd 334e 86fd 0b4a
00000340: 37fe f449 24f7 c249 fa55 a44a 23c6 994a
00000350: 69e1 374a edd7 114b 1763 0c4b 9905 af4a
00000360: 9d2b 964d 881d 854d fffd 664d 58a1 a54d
00000370: 38d4 9a4d 88f7 8c4d 6e98 ac4d b55e ab4d
00000380: 0f4b a54d 79fc cb4d 14b3 9a4d 22d7 4f4d
00000390: e02e c84d 05c3 944d 5682 444d 0b09 b14d
000003a0: 3853 824d 8a50 2c4d 6846 284e 73b8 164e
000003b0: b52e ef4d be51 254e 4735 114e 269b e24d
000003c0: 8104 124e 029b fc4d 4483 c34d 5bc2 d14c
000003d0: 8792 bb4c efa4 8a4c 1798 b54c 38b9 9f4c
000003e0: 719c 684c 879b 874c fb72 694c bfbd 274c
000003f0: 7fe0 064c 950f d24b eb07 ae4b 85f0 254c

exp_avg f4 [50]
23826.857 4758.7407 -5211.7505 -467.0276 19733.633 4927.791 3837.4507 -442.3003
-7988.2715 -15538.258 -10090.67 -12161.777 -9945.3 6792.849 -2063.767 18691.852
9461.868 -2135.0217 -7141.9565 8464.094 6711.177 1813.3353 509.9643 -1581.1321
1064.2899 6714.9775 -5151.2754 -8586.496 9369.355 11424.631 -1647.8776 -7198.38
544.3436 31553.406 6455.5522 -3228.7688 6509.879 -12590.947 -814.74756 10516.965
-2770.6907 -1573.0974 5223.079 -3360.9248 -11285.728 -3776.1506 4047.541 6268.7207
1738.4229 -337.53613
00000000: b725 ba46 edb5 9445 01de a2c5 8883 e9c3
00000010: 442b 9a46 54fe 9945 36d7 6f45 7026 ddc3
00000020: 2ca2 f9c5 08c9 72c6 aeaa 1dc6 1c07 3ec6
00000030: 3365 1bc6 cb46 d445 46fc 00c5 b407 9246
00000040: 79d7 1346 5970 05c5 a72f dfc5 6040 0446
00000050: 6ab9 d145 bbaa e244 6efb fe43 3aa4 c5c4
00000060: 4709 8544 d2d7 d145 34fa a0c5 fc29 06c6
00000070: 6c65 1246 8682 3246 15fc cdc4 0af3 e0c5
00000080: fe15 0844 d082 f646 6bbc c945 4dcc 49c5
00000090: 086f cb45 cabb 44c6 d8af 4bc4 dc53 2446
000000a0: 0d2b 2dc5 1ea3 c4c4 a238 a345 cc0e 52c5
000000b0: e956 30c6 6902 6cc5 a8f8 7c45 c4e5 c345
000000c0: 884d d944 a0c4 a8c3

exp_avg_sq f4 [50]
5.888215e+08 2.1011426e+08 2.8824554e+08 1.06216344e+08 8.815676e+08 1.0848328e+08 5.4089684e+07 1.7103821e+09
8.0573094e+08 2.3813254e+08 2.5397158e+08 1.1526674e+09 7.9692416e+08 2.1209651e+09 2.4330846e+07 3.9280525e+08
1.3018225e+08 1.6587931e+08 1.7657508e+09 1.2195807e+09 8.0052314e+08 4.016298e+08 2.2598653e+08 1.5288862e+08
1.8274789e+08 1.8125725e+08 1.4813182e+08 1.4618648e+08 2.3875019e+08 8.6882963e+08 1.5627061e+08 3.7168874e+08
8.672741e+08 1.050579e+09 2.6367824e+08 3.134759e+09 5.0097085e+08 6.757771e+08 9.3705896e+07 9.690127e+08
4.2483722e+09 3.0647658e+08 2.1446747e+08 8.6552326e+08 2.5312235e+08 2.7837325e+08 4.6911363e+08 2.4617666e+08
4.9541094e+09 6.0726483e+08
00000000: d062 0c4e 6d61 484d 3972 894d 7397 ca4c
00000010: 9e2e 524e 5aea ce4c f555 4e4c b8e4 cb4e
00000020: ea19 404e d419 634d c834 724d 9e68 894e
00000030: 6400 3e4e b8d6 fc4e 2fa1 b94b dc4d bb4d
00000040: 8d4d f84c e131 1e4d 707e d24e a662 914e
00000050: 0edc 3e4e 1383 bf4d 7e84 574d 53ce 114d
00000060: 2f48 2e4d 42dc 2c4d ff44 0d4d 0f6a 0b4d
00000070: 9fb0 634d 2725 4f4e 0108 154d 293c b14d
00000080: 36c6 4e4e 417a 7a4e 9276 7b4d a0d8 3a4f
00000090: abe1 ee4d 291e 214e d5ba b24c d707 674e
000000a0: 0439 7d4f b123 924d 3988 4c4d 595b 4e4e
000000b0: 7365 714d 1cbd 844d d9b0 df4d b9c5 6a4d
000000c0: dba4 934f 81c8 104e
