models/500/sigma0.005_step0.0001_lr0.0005_gamma0.01/ckpt/model_epoch_200.pth (torch, 282369 bytes, 18 tensors)

layer1.weight f4 [25, 1, 3, 3]
00000000: 71f0 3b3e 3d8e ae3d 1b4a f3bc c3d5 eb3b
00000010: cee4 34bb d712 47bc 494c 5b3d dd01 60bd
00000020: 10ff 63bd fbdb 823d 0558 bbbd e313 e43d
00000030: 4e70 1d3e 79fc 55be 3587 1fbe beb3 e9bc
00000040: 9790 0ebe 6223 8d3b a18e 903c 98dd b63c
00000050: 6053 02be 0caf aa3c e867 40bd a8ed 3f3d
00000060: 2b22 d6bd a240 9cbd c28c 063d d322 bcbc
00000070: 2077 ff3d 521e b33d 2596 123e 23bd bd3c
00000080: cb96 ea3d e957 10bd 068c 8b3d c854 2b3e
00000090: 0e48 bdbb 8df2 863d 9ee2 ddbd 3738 953d
000000a0: 7fb9 b23d a2e2 3e3d 0337 313d 52f1 de3d
000000b0: 48fa 4fbd 2f64 16be 5754 ebbd 559c bfbc
000000c0: aa82 f7bd 9f8b 8ebd c254 3abd 4651 02be
000000d0: a313 913d 6ebf 203d 7225 803c 41ee 8ebd
000000e0: f3f3 383d be6b a8bd a234 bc3d 356c f4bc
000000f0: 4cf9 493e c66e 253d fde8 cb3d e67c 56bd
00000100: 1b42 3a3e d7d1 cbbb 8610 0fbe 43f4 4e3b
00000110: 351f cebd 45b6 983c 3005 cc3c 4745 b1bc
00000120: cb41 413e a87f fe3d b2b3 48bd 27d0 6b3d
00000130: 4d4b 27bc 23c5 523d 6aca 4a3d 4a92 303c
00000140: f2b5 d7bd a3e3 f63c c592 913d dc4d 9dbc
00000150: 9cde ad3c 889c 0dbe 21c4 2d3d 957a b2bd
00000160: fbb4 e2bd abe9 993d 436f 9bbd d9ba 173d
00000170: e781 953d 5095 8d3d 1a3b 17bc 03ea 91bd
00000180: 0d7b 78bd 6f7a 95bd de80 93b9 df51 e7bd
00000190: ea8d 14bd ddc3 06bc b523 283e 52d4 bc3c
000001a0: 65d2 20bc f916 a23d 7700 f6bd 44da b9bd
000001b0: 24a9 b7bd 451a e93d f33e 363d 40ed 463e
000001c0: 9082 053e f9cb 01bd 7695 9a3c 3be1 0f3e
000001d0: be27 443d 02f2 f7bd a8ad 24be dacf 013e
000001e0: ed27 ccbd b28f 073d db4e 893a ea28 01be
000001f0: 3edf f23a cdab 78bc 26ab 82bd 5652 e93d
00000200: de79 ab3d dd0b bb3d bfde 1e3e ca44 ef3d
00000210: f255 183d 991d e53c dc34 a2bd e70e e13d
00000220: deb4 303c 2bb0 5c3c 3b28 9abd 9815 733e
00000230: 1572 28be fc15 613d d5c8 b6bd abf3 6cbe
00000240: 89e9 b1bd afe9 c5bd 76ff da3c 6c53 f4bc
00000250: 802f 7fbc 2b3d 54bd 81a5 763d 5c01 dbbd
00000260: d481 a93d 3511 1dbe 707f 203c ef73 e7bd
00000270: 6a55 f43d fd86 efbd f718 633d 2c9d e3bd
00000280: 09cc 6f3d bc5a 95bd 1945 42bc 02de 203d
00000290: f41a 94bc 86a0 72bd 63ee 033d e112 2c3d
000002a0: aabb e23d c6bb 16be 9d04 923d 855e 38bd
000002b0: 7d48 4dbc d875 763d 2db6 afbd 15d6 6ebd
000002c0: c15e 183d 0c18 5d3d 34d2 08be 4ddc acbc
000002d0: c2ff f13d a61f 873d 4f98 d03d 90c9 233d
000002e0: 8dc3 06bd 06cf 613d ed88 f63d c24c 043e
000002f0: 9fe6 a73d df2d 8ebd 766c f9bd 17bf 68ba
00000300: 0f88 a6b9 73f5 103e 7d44 403e 54a7 9dbd
00000310: 1e60 9e3c 6101 a4bd d8b4 3a3d dfdb 3b3d
00000320: a8c7 a53d 3d43 0a3e c6ef d63d 36bb 7b3c
00000330: b111 563d 0390 b93c 142f 8f3c ca42 60b9
00000340: 9615 58bd a7d7 6cbd 0c8e 7d3d 5a13 dc3d
00000350: 6816 023d 57ca 2a3c 644d 783c bd58 ee3d
00000360: 2954 5e3c f767 b5bb 1e0b b3bb 94af 9c3d
00000370: 847a d4bb 6aa7 093e c42c 28be 00e6 44be
00000380: 8956 8f3b
0.1835344 0.085232235 -0.029698422 0.0071971132 -0.0027602199 -0.012150488 0.053539548 -0.054689277
-0.05566317 0.06389614 -0.09147648 0.111366056 0.15374872 -0.20897092 -0.15578921 -0.02852809
-0.13922344 0.0043071965 0.017646136 0.022322461 -0.12727118 0.020835422 -0.046974093 0.046857506
-0.10455736 -0.07629515 0.03284908 -0.022965824 0.12473893 0.087460175 0.14315088 0.023161476
0.11454543 -0.035240088 0.06813817 0.1673156 -0.005776412 0.06589232 -0.108342394 0.07286113
0.08726787 0.046602853 0.043265354 0.10885872 -0.050775796 -0.14686655 -0.11490696 -0.023389975
-0.12085469 -0.06960224 -0.045490988 -0.12726316 0.070838235 0.03924506 0.015642855 -0.06979037
0.045154523 -0.08223675 0.091897264 -0.029836753 0.19724005 0.040388845 0.09956548 -0.052365206
0.1818928 -0.006220083 -0.13971147 0.0031578697 -0.10064546 0.0186416 0.024904817 -0.02163948
0.18872754 0.12426692 -0.048999496 0.057571556 -0.010210824 0.051457535 0.049509443 0.0107770655
-0.1053275 0.030137843 0.07108072 -0.019202165 0.021224312 -0.13829243 0.04242337 -0.08714787
-0.110696755 0.07515272 -0.07589581 0.037043426 0.073001675 0.06913245 -0.0092303995 -0.07124712
-0.060664225 -0.07298743 -0.00028134038 -0.112949125 -0.036268152 -0.008225408 0.16419871 0.023050461
-0.009815787 0.07914538 -0.120118074 -0.09074834 -0.08967808 0.11381964 0.044493627 0.19426441
0.13038087 -0.031688664 0.018870097 0.14050762 0.047889464 -0.12106706 -0.1608187 0.12676945
-0.09968553 0.033096023 0.0010475771 -0.12613264 0.0018529666 -0.015177679 -0.063803 0.113926575
0.08372854 0.09133122 0.15514658 0.11683042 0.03719134 0.027968215 -0.079202384 0.109891705
0.01078531 0.013469736 -0.075272046 0.23738706 -0.16449769 0.054952607 -0.089250244 -0.23139827
-0.086871214 -0.09663712 0.026733141 -0.029824935 -0.01557529 -0.051816147 0.06021643 -0.10693619
0.08276716 -0.15338595 0.0097960085 -0.113014095 0.11930354 -0.11695669 0.05544373 -0.111139625
0.058544192 -0.07292697 -0.0118572945 0.039274223 -0.018079259 -0.05923512 0.032209765 0.04201019
0.1107095 -0.14720067 0.07129786 -0.045012016 -0.01252949 0.06017098 -0.08579669 -0.058309633
0.03719974 0.05397801 -0.13361436 -0.021101141 0.1181636 0.06597833 0.101853006 0.039987147
-0.032901336 0.055129074 0.12037835 0.12919906 0.08198284 -0.06942343 -0.121788904 -0.0008878572
-0.0003176336 0.14156131 0.18776126 -0.07697931 0.019332942 -0.080080755 0.045582622 0.045863982
0.08094722 0.13502212 0.10494952 0.015364459 0.052262966 0.022651678 0.017478503 -0.00021387186
-0.05275496 -0.05782285 0.061903045 0.107458785 0.03175965 0.010424218 0.01515517 0.11638019
0.01356987 -0.005536075 -0.0054639718 0.07650676 -0.0064843316 0.1344277 -0.16423327 -0.19228363
0.0043743295

layer1.bias f4 [25]
00000000: 93a7 6a3d aac1 ec3d 9ea7 66be b8b1 15be
00000010: 9537 b03d 73d8 843d 5082 96bd c472 843e
00000020: 8c67 233e 9e41 bb39 df10 0d3e 3303 733e
00000030: 7b46 13be 14b8 143e e8ec 043e ed94 bd3d
00000040: d078 103d 56fb bebd cdaa 913e 2583 0ebe
00000050: 3964 503e f77e 65be 9e18 033e 7958 76bb
00000060: 960c 6f3e
0.057288717 0.11560376 -0.22524878 -0.14618576 0.086043514 0.06486597 -0.07349074 0.2586881
0.15957469 0.00035716308 0.13775967 0.23731689 -0.14382355 0.14523345 0.12980998 0.09256921
0.035271466 -0.09325282 0.28450623 -0.13917215 0.20350732 -0.22411714 0.1280236 -0.0037589355
0.23344645

layer2.weight f4 [50, 25, 3, 3]
00000000: 01a1 f53c 2d01 663c 6801 3bbc 5bcf d3bc
00000010: fe40 3fbd 5d0a b93b f151 6abd 0317 a53b
00000020: 5132 ce3c 111c 0fbd 0f88 d73d 6539 1f3d
00000030: 4589 363d b71f 0b3d 37bb 353d ef44 003c
00000040: 8e3a 993d 9b72 e8bc e404 053c 9b55 3b3d
00000050: 23fa 003e 4e8f f83d 1a55 59bc 9061 87bd
00000060: d3ae a1bd 2b21 fbbc d7a9 743d f917 803d
00000070: 146d 08bd d370 48bd b663 803d 8772 89bd
00000080: 5e81 cdbc f7d4 88b9 2f1d 7d3c ffa8 943c
00000090: d963 f43c 776f 2c3d 30ab c8bc 8086 153c
000000a0: 6020 a5bd 333c b53d 8d6e 64bd 4d1f 753b
000000b0: c49f 67bd 8506 4bbd b4a1 bbbd 0b74 f33c
000000c0: 3eb0 ce3c fc22 073c de92 053d 5e0a b23a
000000d0: 43c7 f5bc bb3b bf3d 0c38 173c f2ef 27bd
000000e0: fdd5 bfbd 9718 13bd f978 dd3d 4fff 5f3d
000000f0: 29ca c53c 8f14 ce3d 7374 443d 5e72 4bbb
00000100: 72e1 d5bc 7680 6dbc 66b3 dd3d 7e20 23bc
00000110: 88b7 64bc deea 9c3c 514d 933c 065b d03b
00000120: b4ba d93a 05ad 663c 3e4c 903d 6713 863b
00000130: 80f4 0c3c 8650 51bd d499 adbc 4e0e eabb
00000140: 01f9 04bc c92f 45bd 356f 233d 5691 f5bc
00000150: bc52 623c 7120 a43d bb14 9cbd 4f39 f0bb
00000160: fb52 fb3c 7fb3 953c d164 86bb 9d54 f83d
00000170: 8158 173d a565 453d 33d6 013d 5a4d f2bd
00000180: a358 1cbd 1a38 f5bc 7bb6 2c3d 516e f6bb
00000190: e92b 653c 4482 b43d 26bb 81bc 6d3d 0c3d
000001a0: 9fe7 8bbc 479d f0bc 9ac5 12bd 532a 5b3d
000001b0: 7458 64bd ec74 3abd 3d0f 693d 64a0 503c
000001c0: bfc2 6f3d a247 d53c ef3d 233d 50fc 67bc
000001d0: 5f20 4fbb fbc6 193d 5cd6 f3bc b1cd 4e3d
000001e0: a348 e43d d445 2c39 cfa5 09be 69b1 9d3b
000001f0: 19f1 79bd c377 bc3c d90d a8bd 0fa8 cfbd
00000200: 6b13 d1bb 088d 86bd 3083 eabc 6df7 c03b
00000210: 33c8 e4bd 01e0 89bd 1c87 8d3c 6055 063e
00000220: 0f25 693d 88cb b03c c629 9dbd 7df9 1bbd
00000230: 0e09 00bd e085 48bd dd6a e5ba 196a 9a3d
00000240: a4e5 e7bc d235 f13c aade 923d 6576 2d3d
00000250: b473 2d3d 97c9 c53d abd0 113d 5166 59bd
00000260: d6cb a33d 59cf ff3c 08e9 903d e8fb 94bc
00000270: 6636 63bb adfc c5bc 6f78 583d 7330 c63d
00000280: b466 ca3c 4330 8d3c f2a6 943d ce73 dbbb
00000290: fa2a 11bb d922 50bd da9b 193e ae6e f03b
000002a0: 5715 0c3d e78c c43c 873e 7abd e1c7 ccbc
000002b0: e3ce a13d 144d b639 e6e1 153c 068d 7fbd
000002c0: 5d1f 4bbc e572 aabc 88d8 18bb 0ef5 003d
000002d0: 2b69 c8bd 6265 83bc d0a6 89bc ecc6 083d
000002e0: c618 10be ce84 50bd eadc 4abd 1f97 8d3d
000002f0: 9238 57bd 3e1a 6c3d f748 743d 00da adbd
00000300: 602e 68bb d545 d9bd a15d abbd 3282 70bc
00000310: 40dc 163d 3944 e0bd 31bd 11bd 749e 15bd
00000320: ffca 5fbc badc 0fbd ee57 cbbc 7820 c83c
00000330: de35 3a3d ebed c9bd 9f2b 073d 17a1 7bbd
00000340: 639d b13c adf1 91bc 78d9 853d 3522 1d3d
00000350: c1fc 50bd 1d95 90bc 2ff3 ddb8 09f7 5dbd
00000360: ce0c cd3d 6f0f 1dbc d318 1ebd 5010 0abd
00000370: 8252 22bd f1d7 5f3c adfa 993c 0647 72bd
00000380: 4d21 933d d6f0 db3c 60e5 213d 55a7 a6ba
00000390: 1265 d43c 0f44 e43c 09ff cc3c 12ce 86bd
000003a0: dc1b 45bc 247f da3c b224 53bd f67e 7a3c
000003b0: 48dc fcbd 2425 0cbd 9095 0fbd e0d1 59bd
000003c0: 5e4d 59bd cfff 4bbc 1050 303d b8f7 54bd
000003d0: 0a47 b13d 246f 633c 366c adbd f3c1 86bc
000003e0: 19f0 21bd 430c 693d ac32 15bc c4ec f4bb
000003f0: b61f 443d 228e 0c3c 83d4 fbbd 7ea5 83bb
0.029984 0.014038366 -0.0114139095 -0.02585571 -0.04669284 0.0056469874 -0.05720705 0.0050381436
0.025170477 -0.034938876 0.10523998 0.038873095 0.044564504 0.033965793 0.044367995 0.007828935
0.074818715 -0.02837496 0.008118842 0.045735937 0.1259542 0.12136708 -0.013264919 -0.066104054
-0.07894673 -0.030655464 0.059732284 0.062545724 -0.03330715 -0.048935723 0.06269018 -0.067112975
-0.025086101 -0.00026098613 0.015448852 0.01814699 0.029832767 0.04209849 -0.024495691 0.009126306
-0.08062816 0.08849373 -0.055769492 0.003740269 -0.05654885 -0.049566764 -0.09161702 0.02971842
0.025230523 0.008248087 0.032610767 0.0013583412 -0.030002242 0.093375646 0.009229671 -0.041000314
-0.09366987 -0.035912123 0.10814089 0.05468684 0.024144249 0.10062515 0.047962617 -0.003104351
-0.026108477 -0.0144959595 0.10825233 -0.009956477 -0.013959773 0.019154962 0.017981203 0.006358507
0.0016611428 0.014079337 0.07045792 0.0040916684 0.008603215 -0.051102184 -0.021191515 -0.0071428185
-0.008116008 -0.048141275 0.039900977 -0.029976528 0.013813671 0.08014 -0.076211415 -0.0073310505
0.030679217 0.018274067 -0.0041013737 0.12125514 0.03694964 0.04819264 0.031698417 -0.1183116
-0.038170468 -0.029933978 0.042166214 -0.007520475 0.01398752 0.08813909 -0.01583631 0.034238268
-0.017078219 -0.02937187 -0.03583298 0.05350716 -0.055748418 -0.04552166 0.056899298 0.012733553
0.058535334 0.026035134 0.039853986 -0.014159277 -0.0031604988 0.03754328 -0.0297653 0.05048913
0.11146667 0.00016429211 -0.13442157 0.0048124087 -0.061020944 0.023006326 -0.08205766 -0.101394765
-0.0063804886 -0.06569868 -0.028627008 0.0058888705 -0.111709975 -0.067321785 0.01727634 0.13118505
0.056920107 0.021581426 -0.07673983 -0.038079727 -0.031258635 -0.0489558 -0.0017503161 0.07539768
-0.028307743 0.029444609 0.07171376 0.042349238 0.04234667 0.09657591 0.035599392 -0.053076092
0.07997863 0.0312268 0.07075697 -0.018186525 -0.0034669875 -0.024168337 0.05284923 0.0967721
0.024707176 0.017234927 0.07258405 -0.0066971546 -0.002215086 -0.050814483 0.15000859 0.007337413
0.03420004 0.023992969 -0.061094787 -0.024997653 0.07900789 0.00034771173 0.009148097 -0.06239035
-0.012397614 -0.02080674 -0.0023322422 0.031483702 -0.09785684 -0.016039554 -0.016803175 0.03339283
-0.1407195 -0.050907902 -0.049527086 0.0691359 -0.052544184 0.057642214 0.059639897 -0.08488846
-0.0035428032 -0.106090225 -0.08367468 -0.0146794785 0.03683114 -0.109505124 -0.035580818 -0.036528066
-0.013659238 -0.03512261 -0.024822202 0.024429545 0.045461528 -0.098598324 0.033000585 -0.061432924
0.021681493 -0.017815435 0.065356195 0.0383627 -0.051022295 -0.017649228 -0.00010583398 -0.05419067
0.10012208 -0.009586199 -0.038597893 -0.033706963 -0.039629467 0.013662324 0.01879629 -0.059149764
0.07184086 0.026848238 0.03952539 -0.0012714664 0.0259271 0.027864484 0.025023954 -0.065822735
-0.012030568 0.026671953 -0.051548667 0.015289059 -0.12346703 -0.034215108 -0.035054743 -0.053178668
-0.0530523 -0.012451126 0.043045104 -0.051994056 0.08656128 0.013881478 -0.08467905 -0.016449904
-0.039535616 0.05689646 -0.009106319 -0.0074745137 0.047881804 0.008578809 -0.12296393 -0.004017531

layer2.bias f4 [50]
00000000: 5816 26bc 44f4 a5bc 2e50 39bd dec5 97bb
00000010: 52e0 6abc eabd f1bc ab8e 5c3c bbe8 3f3c
00000020: 55e9 c43c 7413 b43b 6517 cfbc be00 81bd
00000030: 0b04 5c39 b45d 6cbc b927 f83c 50e3 113d
00000040: 6802 543d 5594 0abc f62b 343d 7b6c 3a3d
00000050: 3a58 6abd 8d23 a73c e56b 103c d0c6 033d
00000060: f694 26bd 49ff 1f3b 839e d13c af4d 9ebb
00000070: ac4b 9d3c e69f ff3c aaf3 59bd e236 083c
00000080: 67b4 75bc a59f 6339 dda3 073d 01cb 5a3c
00000090: 4c8f 12bc b801 5fbc 5a29 593b 1f02 0dbd
000000a0: 8993 383d 0131 dabc fa04 cdbb 8798 00bd
000000b0: 4e70 913b 3909 6f3d 5f0f ebbc 7add 213d
000000c0: 3f0b 1bbd 0a52 51bd
-0.010137163 -0.020258076 -0.04524248 -0.004631742 -0.014335709 -0.029509503 0.013461749 0.011713202
0.024037043 0.005495483 -0.02527971 -0.0629897 0.00020982341 -0.014426637 0.030292379 0.035617173
0.051760107 -0.008458217 0.043987237 0.04551361 -0.057213046 0.020402694 0.008814787 0.032172024
-0.040669404 0.0024413636 0.02558828 -0.004831038 0.019201122 0.031204175 -0.05321089 0.008313866
-0.014996625 0.00021707879 0.033115257 0.013354064 -0.008945297 -0.01361125 0.003313622 -0.03442585
0.045062575 -0.026634695 -0.006256697 -0.03139546 0.0044384366 0.058358405 -0.028693853 0.039517857
-0.037852522 -0.05110363

layer4.weight f4 [25, 50, 3, 3]
00000000: a011 fa3c 3b7d 24be bb3c 67bd f68b 3f3d
00000010: 4e4c 2d3d e80c d0bc 5db8 68bd 9edd b6bc
00000020: 3cc1 0dbd 22ce 2f3d d54d ba3b bda5 ee3c
00000030: 5a54 1a3d faeb 3a3d 240d 333d 85d4 fbbc
00000040: dbd4 7b3d 0011 dcbd 337a d53b 5616 1b3c
00000050: c11b 9fbd cc44 323d 5a81 533d 3e08 3abd
00000060: e5d5 95bd 450a 06bd c372 e1bc 4c80 b53d
00000070: 937a 0b3d b73a 9c3a 97cc 13bc e144 c83d
00000080: cf37 2a3d eddb 37bd e57f 4e3d 34e5 80bd
00000090: bd2b 3bbc 47c6 b8bd 55fb 903c 03e8 943d
000000a0: ce98 843b 1be1 e5bd 0ee7 13bd 2d0e 9dbc
000000b0: ef1c e6bb 8b0e 90bd 31fc 67bd 7445 953d
000000c0: b6fd 8dbd e005 c63c d197 f33a 9813 b7b9
000000d0: ce4e b53a f89c 9dbc 26e5 e0b8 f4f4 263d
000000e0: b70a 61bb dd96 00be 60d6 063c 5d44 18bc
000000f0: 3c0a 8e3c bc7a 81bd 1de5 823d 5007 25bc
00000100: 9715 9e3d 256d 60bd 324a b7bc 85e5 a83c
00000110: fa5e 3ebc 6536 023d ba9c f83c 500f 983d
00000120: 3218 a43a 715a 74bc 4c39 4d3d ae9a 9a3c
00000130: 5ecb 2f3d abc6 6cbd 52d7 8a3d 7934 10be
00000140: 2d4b 3abb 18dc 9aba 5faf 01bd de06 e3bb
00000150: 0b05 5bbb ad49 9abc 9489 73bd 6f5e cbbc
00000160: 477b f1bc 6845 973d f67f 5b3d 6e4e e73b
00000170: 070a 403d b5b7 f8bd 31fc a5bd 2ad4 08bd
00000180: edb4 39bc 85aa 0b3d 2438 303d 7658 f2bc
00000190: 87e4 393d 43bf 9abc e42f 203d a77f bb3d
000001a0: df87 b8bd 3f59 223d d50e 4dbd 9b93 633c
000001b0: a92b ffbc d99c 58bd 0c17 cd3d 2cc0 93bd
000001c0: 9128 fabc f982 03bd 55d1 313c 2110 a63d
000001d0: 73cf 6b3b 9063 093d 2709 773d de43 43bd
000001e0: bc44 1fbd dc24 07bd 8a13 02bd 9207 aa3c
000001f0: a6e6 633d 367e 86bb 64fd dbbc 0eca 01bd
00000200: 9c8b d6bc 7fe9 2dbb ee7d f5bc 6282 203d
00000210: f9ff 85bc 6016 a7bc 8ae9 b0bd cf2f 473d
00000220: 5f08 c03c 9a1f af3c 8e7e 813c ffc3 3cbd
00000230: c85b 58bd 176a b03c 1503 2abc 84d9 bd3c
00000240: 8174 f9bc 7ade 50bc a334 ba3b 29d4 e5bc
00000250: 8d5f 80bb 7a03 edbc a5f3 dfbc d422 453d
00000260: b683 d23d f814 a93b 3572 3c3d fd76 13bc
00000270: c367 213d d85a dfbd 7aa3 243c 299c 02bd
00000280: 5cfb 2dbd 3315 73bd bedd 08bc a514 72bc
00000290: ad03 49bd 1f46 fdbd 109d 81bc 8c8c 433d
000002a0: f21e 46bc 9828 723d 0461 803d f751 fbbb
000002b0: e819 7bbb 655e d8bc 2bf5 083c 6d71 28bd
000002c0: b113 03bc 1b2e 99bd 594a 31bd 36ae 483c
000002d0: d66e cd3b 3176 263e 096a 273d 5c7b 5ebd
000002e0: acb1 bc3d c3cb ef3c 928f 8ebc 762b 913d
000002f0: 4e8f d5bd 3ab8 92bd 3406 9dbd f26f 33bd
00000300: dd42 d4bc 8669 a2bc 67a6 5f3d e87c 9d39
00000310: a5c1 d73d 2360 bebc d99c abbb ac3a e03c
00000320: 2c66 cb3d a2e8 43bd 4ff5 ce3c 8f76 e03b
00000330: e1ae 253d fded 883d 553e a23c 24f1 063c
00000340: f1b9 873d ea0c 69bd d08f 913d c007 3e3d
00000350: 00c0 2f3c 81b1 1a3d d698 ba3d a48a dabd
00000360: 792f febc 2a3f 933c 4eb4 0ebc 00af 993b
00000370: f2ed 42bd 32fc debc d545 cfbc dd47 9cbd
00000380: 09aa 813c 5c33 e5bd 794a 543d 54f4 ae3c
00000390: e660 16be 47ee 8dbc 33ff 19bb 5160 0abd
000003a0: 8cff cd3d f151 30bd 77a2 00bd 5298 273d
000003b0: 1536 923d 0a75 a13b ac85 c83d d47d 64bb
000003c0: 9b73 5f3d 734e c63c aacb aa3c 403d fb3c
000003d0: b027 193c 5292 44bd 0310 24bd c169 b53c
000003e0: 6913 14bd ef19 c0bb ad76 22bd aff6 59bb
000003f0: 61c9 80bc fe3c a03d a0b0 56bd d41e a03c
0.030525982 -0.16063397 -0.0564544 0.046764337 0.042309098 -0.02539678 -0.056816448 -0.022322472
-0.03460811 0.042921193 0.005685548 0.029131765 0.0376781 0.0456352 0.043713704 -0.030740986
0.06148229 -0.1074543 0.0065148114 0.0094657745 -0.077689655 0.04352264 0.05163703 -0.045418017
-0.07316188 -0.032724638 -0.027520543 0.08862361 0.034052443 0.0011919354 -0.009020946 0.097787626
0.04155713 -0.044887472 0.05041494 -0.06293717 -0.011424002 -0.090221934 0.01769797 0.07270815
0.004046536 -0.11224576 -0.036109023 -0.019171799 -0.007022492 -0.07034024 -0.056636993 0.07288638
-0.06933157 0.024172723 0.0018584674 -0.00034919078 0.001383269 -0.019239888 -0.000107238346 0.04076095
-0.0034338662 -0.1255755 0.008229822 -0.009293643 0.017338865 -0.06322238 0.06391356 -0.010072544
0.07718962 -0.05479159 -0.022374246 0.020617256 -0.011619324 0.031790156 0.03034817 0.07424796
0.0012519418 -0.014914141 0.05010347 0.018872585 0.042918555 -0.057806652 0.0677935 -0.14082517
-0.0028426156 -0.0011814861 -0.031661388 -0.006928309 -0.0033419754 -0.01883396 -0.059457377 -0.024825303
-0.029477729 0.07386285 0.05358883 0.00705891 0.046884563 -0.12144414 -0.08104742 -0.03340546
-0.01133464 0.034098167 0.04302229 -0.029583197 0.045383956 -0.018890029 0.039108172 0.09155207
-0.0901029 0.039635893 -0.050062973 0.013890172 -0.031148748 -0.052883957 0.100141615 -0.07214388
-0.030536922 -0.032107327 0.010853131 0.08108545 0.0035981804 0.033542216 0.060311463 -0.047672145
-0.03888391 -0.032994136 -0.031756915 0.020755563 0.055639885 -0.004104401 -0.026854225 -0.031686835
-0.026189618 -0.002653688 -0.029967275 0.039186843 -0.016357409 -0.020396411 -0.08638294 0.04862958
0.023441492 0.021377373 0.015807416 -0.046085354 -0.052821904 0.021534963 -0.010376711 0.023175009
-0.030451061 -0.012748355 0.0056825443 -0.028055267 -0.0039176405 -0.028932322 -0.027337858 0.048128918
0.10279028 0.0051599704 0.046007354 -0.009000537 0.039405596 -0.10905999 0.0100487415 -0.031887207
-0.042476043 -0.05934639 -0.008353649 -0.01477543 -0.04907577 -0.1236689 -0.015821964 0.047741458
-0.012092339 0.059120744 0.06268504 -0.007669683 -0.0038315002 -0.026412198 0.008359234 -0.041123796
-0.0080003 -0.07479497 -0.043283794 0.012248566 0.006269316 0.16256024 0.040872607 -0.054316863
0.09213576 0.029271966 -0.017402444 0.07088368 -0.10427724 -0.07164045 -0.07667199 -0.04380793
-0.02591079 -0.019825708 0.054602053 0.00030038436 0.10534982 -0.023239201 -0.0052372036 0.027371727
0.09931597 -0.047829278 0.025263457 0.006850071 0.04044998 0.06686018 0.019805113 0.008236203
0.066272624 -0.05689708 0.07107508 0.04639411 0.010726929 0.037766937 0.091111824 -0.10670975
-0.031028496 0.017974455 -0.00870998 0.004690051 -0.047590204 -0.027219865 -0.025301853 -0.07630894
0.01582815 -0.11191437 0.051828835 0.02135674 -0.14685401 -0.017325534 -0.0023498058 -0.03378326
0.10058507 -0.043046895 -0.03140494 0.04091675 0.071392216 0.004927282 0.09791121 -0.0034865038
0.05455361 0.02420733 0.020849068 0.030668855 0.009347841 -0.047991104 -0.040054332 0.022145154
-0.036151323 -0.0058624665 -0.03966396 -0.0033258607 -0.015721025 0.07824133 -0.052414536 0.01954595

layer4.bias f4 [25]
00000000: e18b 21bd 673f 23bb 377d 00bc 8b6c 1c3d
00000010: 5be2 52bc 0f6b 10bd c8c7 c6bb 4f0e f43b
00000020: bc60 a93c ae49 be3b 6055 03bd 91c3 193c
00000030: 2e72 18bd 33c0 d6ba 4f0c 70bc a4f5 7abc
00000040: e992 4fbc 9381 b6bc 8e54 e7bc 4b2e eabc
00000050: 6a91 08bd dfa8 9dbc f646 b8bc db97 45bd
00000060: a703 23bc
-0.03944004 -0.0024909617 -0.007842354 0.038189452 -0.01287135 -0.03525835 -0.0060662962 0.007447995
0.02067601 0.005807123 -0.03206384 0.009385006 -0.037218265 -0.0016384184 -0.014651372 -0.015317354
-0.012669303 -0.022278583 -0.028238561 -0.028586527 -0.033341803 -0.019245563 -0.022494774 -0.048240524
-0.009949601

exp_avg f4 [25, 1, 3, 3]
00000000: aa91 84c8 8699 88c8 fb3e 76c8 f6ad 63c8
00000010: f849 65c8 8d2b 49c8 a652 13c8 c826 0fc8
00000020: 8a53 e7c7 58c9 3848 9cf0 5f48 259f 5e48
00000030: 51a6 4b48 64ab 6548 567b 5748 a2a6 2f48
00000040: 7a6f 3948 9af8 2148 cc4d 6247 c058 8747
00000050: 26cc 7247 26dd aa47 a2e1 e547 92a1 f547
00000060: 0cec b647 2fdf 0748 05aa 1e48 00d8 07c8
00000070: 1639 20c8 7850 1ec8 52df 0fc8 23b7 29c8
00000080: 0a1a 26c8 9c58 d7c7 c6e7 fdc7 14da f8c7
00000090: aecb e0c7 24f1 05c8 7a1c 08c8 8820 e5c7
000000a0: 1d68 03c8 00a1 01c8 dc2f c0c7 2c43 d3c7
000000b0: aa65 cac7 5950 0d48 c865 1d48 0c0a 1648
000000c0: 51b3 2f48 c87f 4448 6af2 3a48 30c5 2948
000000d0: 7e7f 4048 02fb 3648 e8ff c5c7 2e9a dcc7
000000e0: 404f c8c7 004c b9c7 98ec d9c7 3cd4 d7c7
000000f0: 4215 5dc7 be74 98c7 3287 a5c7 e61b 6147
00000100: c1a4 5647 ec49 4247 8473 3947 8f1a 3747
00000110: 138c 2f47 923d fb46 8c16 0847 540b 0f47
00000120: 7ede ddc7 1a95 fec7 50d9 00c8 0af8 94c7
00000130: 9415 b7c7 3278 bec7 c237 e9c6 d2fd 37c7
00000140: e6de 5fc7 900d f747 404a f747 2a7c aa47
00000150: 120d f547 e084 f847 c5d1 b947 aca8 a647
00000160: 9c13 b147 6712 8447 bf98 de47 f6bc 2d48
00000170: 146f 5248 b537 fd47 be65 3748 3059 5848
00000180: 6c06 d247 cf8a 1348 093e 2d48 c820 b546
00000190: 5727 3247 3abe 0f47 6bb5 4046 0d03 1647
000001a0: 993a 0f47 161a 5fc6 9578 5546 df02 8846
000001b0: e272 86c8 f838 97c8 9dc8 8bc8 f6a2 76c8
000001c0: dc61 8dc8 d2be 83c8 ad41 2fc8 bb3e 4dc8
000001d0: e066 3fc8 6a2c 8f47 3ed1 6747 55e2 3d47
000001e0: 1a96 7347 2c51 3247 1472 eb46 0c78 0d47
000001f0: e65d 8446 5454 8944 230e 6fc8 4a56 7ec8
00000200: 8542 64c8 4e12 82c8 1359 8bc8 d9aa 7ec8
00000210: a2fc 5bc8 fad9 6fc8 a117 5dc8 94ee 9247
00000220: 0ec2 a147 3a36 8d47 01b7 eb47 16d9 f447
00000230: 11a3 ce47 f275 0c48 140e 0d48 eb10 ec47
00000240: dca5 8748 bea3 9148 b887 8148 360f 7848
00000250: 4a07 8848 572a 7648 1e33 2948 ad10 3f48
00000260: a808 2f48 04d4 8747 13f1 ca47 4464 d947
00000270: 268e a947 ee88 f647 304d 0948 7673 8c47
00000280: f401 e447 d24e 0348 4f57 8d46 37a0 d146
00000290: 80bb f146 9c4c 8546 9e0f 0b47 d8d0 3b47
000002a0: da38 c245 7ba2 da46 659a 3d47 e82f bd47
000002b0: 7e82 fa47 4a71 0148 d44c 9347 74cc d547
000002c0: b85d e847 f85e 0f47 9d21 8147 688f 9847
000002d0: 497e 61c8 8313 72c8 6e54 52c8 f244 53c8
000002e0: ba04 68c8 46fb 4cc8 c95a 1cc8 d3e5 2dc8
000002f0: 1488 1cc8 ce8e 1746 3cf1 76c6 e1c3 d8c6
00000300: 5cec 5cc6 c022 3ac7 88a3 7fc7 2064 f1c6
00000310: 4e94 87c7 d8b4 b3c7 ceb8 f1c7 77c5 03c8
00000320: a9d5 c9c7 fcc6 03c8 94ef 0cc8 7eab dcc7
00000330: 173b cdc7 58e4 dec7 2ead a7c7 19f3 4ec8
00000340: 220a 67c8 0cc5 5fc8 7667 49c8 deae 5cc8
00000350: d584 52c8 4870 14c8 5c62 1fc8 bee4 11c8
00000360: 7330 a147 3462 c047 c822 cd47 0d42 a047
00000370: 8e23 c447 bf3f d947 44ec 6d47 33af 9e47
00000380: 9eaf bb47
-271501.3 -279756.2 -252155.92 -233143.84 -234791.88 -205998.2 -150858.6 -146587.12
-118439.08 189221.38 229314.44 227964.58 208537.27 235181.56 220653.34 179866.53
189885.9 165858.4 57933.797 69297.5 62156.15 87482.3 117699.266 125763.14
93656.09 139132.73 162472.08 -139104.0 -164068.34 -162113.88 -147325.28 -173788.55
-170088.16 -110257.22 -129999.55 -127412.16 -115095.36 -137156.56 -139377.9 -117313.06
-134560.45 -132740.0 -98399.72 -108166.34 -103627.33 144705.39 161175.12 153640.19
179917.27 201215.12 191433.66 173844.75 197117.97 187372.03 -101375.81 -112948.36
-102558.5 -94872.0 -111577.19 -110504.47 -56597.258 -78057.484 -84750.39 57627.9
54948.754 49737.92 47475.516 46874.56 44940.074 32158.785 34838.547 36619.33
-113596.984 -130346.2 -131941.25 -76272.08 -93739.16 -97520.39 -29851.879 -47101.82
-57310.9 126491.125 126612.5 87288.33 125466.14 127241.75 95139.54 85329.34
90663.22 67620.805 113969.49 177907.84 215484.31 129647.414 187798.97 221540.75
107532.84 151083.23 177400.14 23184.39 45607.34 36798.227 12333.3545 38403.05
36666.598 -14278.521 13662.1455 17409.436 -275351.06 -309703.75 -286276.9 -252555.84
-289550.88 -269814.56 -179462.7 -210170.92 -195995.5 73304.83 59345.242 48610.332
62358.1 45649.17 30137.04 36216.047 16942.95 1098.6353 -244792.55 -260441.16
-233738.08 -266386.44 -285384.6 -260779.39 -225266.53 -245607.9 -226398.52 75229.16
82820.11 72300.45 120686.01 125362.17 105798.13 143831.78 144440.31 120865.836
277806.88 298269.94 265277.75 254012.84 278586.3 252073.36 173260.47 195650.7
179234.62 69544.03 103906.15 111304.53 86812.3 126225.86 140596.75 71910.92
116739.91 134459.28 18091.654 26832.107 30941.75 17062.305 35599.617 48080.844
6215.1064 27985.24 48538.395 96863.81 128260.984 132549.16 75417.66 109464.91
118971.44 36702.97 66115.23 78110.81 -230905.14 -247886.05 -215377.72 -216339.78
-237586.9 -209901.1 -160107.14 -178071.3 -160288.31 9699.701 -15804.309 -27745.94
-14139.09 -47650.75 -65443.53 -30898.062 -69416.61 -92009.69 -123761.61 -134933.86
-103339.32 -134939.94 -144318.31 -112982.984 -105078.18 -114120.69 -85850.36 -211916.39
-236584.53 -229140.19 -206237.84 -225979.47 -215571.33 -152001.12 -163209.44 -149394.97
82528.9 98500.41 105029.56 82052.1 100423.11 111231.49 60908.266 81246.4
96095.234

exp_avg_sq f4 [25, 1, 3, 3]
00000000: 02fe 9f52 5bef a952 a34d 9d52 1ff0 a252
00000010: d532 ae52 39b8 a252 7933 9052 bd1e 9b52
00000020: 8747 9252 4163 2c52 72fb 3b52 4327 3152
00000030: 5f4b 0d52 02f7 1752 1683 0d52 cb39 be51
00000040: 36e6 c651 2770 b551 0f71 d650 75b1 f650
00000050: 875e ef50 9319 0c51 75ce 2e51 4034 3651
00000060: 5f7f 1151 a3ff 4251 4b14 5951 6610 0e51
00000070: 4946 3c51 964a 5151 53d8 7b51 cd4f a451
00000080: 326e b351 7130 ac51 ad58 db51 b428 ec51
00000090: 8472 5d51 0316 6f51 a91e 5f51 20db 6451
000000a0: f30d 7b51 81c2 6d51 0449 4e51 cf3c 6651
000000b0: ec79 5e51 db5e 1551 07a7 1651 7be3 0251
000000c0: fe61 2151 a7ce 2751 d64b 1351 75d1 0c51
000000d0: 7f47 1551 5de3 0351 e89a b050 c5c4 f050
000000e0: 2525 0351 17ca 9c50 3694 df50 7839 0051
000000f0: 252f 5850 943d a150 39e1 c250 336d 0851
00000100: b87c 2151 e0cb 2351 7964 1251 79d1 2f51
00000110: adda 3251 59cb 1251 4354 3251 d04f 3651
00000120: 06ce a750 40e1 9150 1687 7c50 cb0a d450
00000130: 1249 aa50 91bd 8550 aa1f fa50 e23c c050
00000140: 03d2 8c50 4fb2 8451 fb5d 9551 bf0a 8b51
00000150: f9fe 5151 905f 6d51 42ab 6051 a0ae f950
00000160: f7fa 0d51 3198 0951 fffd e651 9b9a 3c52
00000170: 4459 7452 2de4 0152 74d9 5252 db21 8852
00000180: 3303 f251 8a88 4252 236a 7a52 ff72 9d50
00000190: d72a 8050 33b9 3f50 2bab 0551 aaad cd50
000001a0: 9b67 8150 3662 3651 9ef2 0a51 febc a550
000001b0: a3f1 e252 26c7 f752 07ce e352 4917 e852
000001c0: b502 0053 633f ee52 f685 ca52 0b99 e052
000001d0: ec73 d352 16f5 0652 37f0 0a52 a80f f751
000001e0: 64f2 3352 a1e8 3e52 268d 2e52 9c33 4f52
000001f0: 1707 6152 7aaa 5252 51c6 8552 3804 8052
00000200: ae27 4d52 3f52 9652 917b 9052 250e 6952
00000210: 7c01 8d52 726a 8752 e7ea 5a52 ebfc 4252
00000220: 39c7 2652 139f f551 4b20 5652 691c 3552
00000230: d8bd 0252 8ee6 4c52 fbd5 2b52 1691 f551
00000240: 97cf 3752 ec26 5452 b3e2 4652 284c 2a52
00000250: 0789 4852 3232 4052 4ada fb51 2ad9 1652
00000260: c022 1452 d3db 8b50 06a2 aa50 0635 a850
00000270: bb96 d750 4cdd fb50 82ab f450 0908 0951
00000280: d1f4 1951 2098 1151 a77e 1f52 a757 3152
00000290: 2861 2852 7446 2552 0945 3b52 c8f0 3452
000002a0: 0ee7 1052 ffd2 2652 864d 2452 c7e9 4251
000002b0: 1f6f a051 fcd9 cf51 1677 1251 56b9 7c51
000002c0: 9b50 ab51 6d69 bf50 9ba4 2751 022c 6c51
000002d0: c4ec 0a52 a51b 0d52 901d ec51 fb3c 0052
000002e0: b882 0252 6755 dc51 b249 c951 b5b0 ca51
000002f0: 6c91 ac51 4db1 a550 96d8 c750 18c0 dc50
00000300: 3ccc a350 f274 bb50 7d69 c750 56f9 9650
00000310: 9488 a350 aae8 a650 11d2 da51 e1a0 c651
00000320: f501 a651 e6e2 f151 98b1 cd51 beaf 9f51
00000330: 250b e251 389e b451 1ade 8151 520c 9051
00000340: fd4c b951 de62 c151 85ed 8151 b025 a251
00000350: a58b a551 16f1 4b51 7831 7051 c432 6b51
00000360: 6a2b 9351 5ac6 9e51 98da 9751 557b 9151
00000370: 58cf 9f51 e9c8 9c51 4a33 7851 e6f2 8951
00000380: da48 8a51
3.4358067e+11 3.649326e+11 3.378062e+11 3.4990663e+11 3.7408856e+11 3.4943772e+11 3.0966943e+11 3.3311782e+11
3.1413263e+11 1.850999e+11 2.0184436e+11 1.9021698e+11 1.5171373e+11 1.6317104e+11 1.5194741e+11 1.0212667e+11
1.0678323e+11 9.7408836e+10 2.878187e+10 3.31106e+10 3.2127597e+10 3.760778e+10 4.6924255e+10 4.891004e+10
3.90567e+10 5.2344533e+10 5.8271773e+10 3.813503e+10 5.0539565e+10 5.618122e+10 6.760413e+10 8.821418e+10
9.633099e+10 9.2443386e+10 1.177607e+11 1.26786896e+11 5.9444314e+10 6.4179155e+10 5.9893256e+10 6.1433053e+10
6.7391926e+10 6.3823155e+10 5.5374266e+10 6.1803917e+10 5.9720516e+10 4.0096346e+10 4.044046e+10 3.513514e+10
4.332086e+10 4.504541e+10 3.953953e+10 3.7800595e+10 4.007185e+10 3.5403452e+10 2.3703536e+10 3.2315419e+10
3.5203994e+10 2.1043919e+10 3.0008259e+10 3.442e+10 1.4507873e+10 2.1641339e+10 2.615632e+10 3.6621726e+10
4.3348886e+10 4.3968758e+10 3.929693e+10 4.7195853e+10 4.801081e+10 3.9404802e+10 4.7869866e+10 4.8938942e+10
2.2522376e+10 1.9579666e+10 1.6946846e+10 2.8459817e+10 2.2855324e+10 1.7950345e+10 3.3571033e+10 2.5801724e+10
1.8900589e+10 7.12409e+10 8.019086e+10 7.464759e+10 5.637037e+10 6.3719408e+10 6.030912e+10 3.3511768e+10
3.8112555e+10 3.693524e+10 1.2401298e+11 2.0251193e+11 2.6236741e+11 1.3946973e+11 2.2639785e+11 2.9234178e+11
1.2992947e+11 2.088786e+11 2.6888063e+11 2.1132474e+10 1.720233e+10 1.2866342e+10 3.58814e+10 2.7605684e+10
1.7368406e+10 4.8958235e+10 3.7298495e+10 2.2245011e+10 4.873583e+11 5.3209904e+11 4.8920707e+11 4.9841154e+11
5.498012e+11 5.1163283e+11 4.3491544e+11 4.8232015e+11 4.5409147e+11 1.4490937e+11 1.491839e+11 1.3263995e+11
1.9321645e+11 2.0498666e+11 1.874231e+11 2.2248102e+11 2.4162165e+11 2.2620081e+11 2.8727892e+11 2.749133e+11
2.202835e+11 3.2281248e+11 3.102742e+11 2.5024117e+11 3.0280765e+11 2.9080322e+11 2.3506097e+11 2.0936673e+11
1.7907674e+11 1.3186698e+11 2.299162e+11 1.9446643e+11 1.403827e+11 2.2001035e+11 1.8450735e+11 1.3183764e+11
1.9736545e+11 2.2779652e+11 2.1355173e+11 1.8285553e+11 2.153231e+11 2.0636896e+11 1.35212384e+11 1.6197213e+11
1.5905954e+11 1.8771515e+10 2.290196e+10 2.2576378e+10 2.8935838e+10 3.3804673e+10 3.2839045e+10 3.6784083e+10
4.1327333e+10 3.9082656e+10 1.7125617e+11 1.9041994e+11 1.8079613e+11 1.774629e+11 2.0107928e+11 1.9428344e+11
1.5558794e+11 1.7912612e+11 1.7641882e+11 5.232161e+10 8.613238e+10 1.11589425e+11 3.9316447e+10 6.7840074e+10
9.197397e+10 2.569086e+10 4.5001322e+10 6.3396913e+10 1.4916944e+11 1.5151355e+11 1.2676353e+11 1.3769472e+11
1.4013471e+11 1.182907e+11 1.080656e+11 1.08818506e+11 9.264677e+10 2.2238882e+10 2.6822881e+10 2.9628613e+10
2.1984567e+10 2.5160028e+10 2.6764634e+10 2.0263383e+10 2.1949096e+10 2.2402126e+10 1.174784e+11 1.0663783e+11
8.9124676e+10 1.2986173e+11 1.1043098e+11 8.573103e+10 1.213562e+11 9.696857e+10 6.972213e+10 7.733525e+10
9.9482575e+10 1.03823426e+11 6.975446e+10 8.7052124e+10 8.887656e+10 5.4745194e+10 6.447638e+10 6.3135564e+10
7.901107e+10 8.524158e+10 8.152593e+10 7.810493e+10 8.579731e+10 8.41732e+10 6.6625774e+10 7.406071e+10
7.424097e+10

exp_avg f4 [25]
00000000: 7f77 7747 10fd 9b46 7d6c 3ec8 a02d a846
00000010: 8c07 bd47 370c b9c7 f3fc c847 623e 96c7
00000020: db82 0f47 7088 7cc7 39f9 0547 0df5 41c6
00000030: bb88 de47 f689 67c7 c5cb 5248 8e66 2547
00000040: f2b1 e5c7 faf8 d2c7 50ed 81c7 7d4e b8c7
00000050: feb1 5348 d6d3 8447 71a4 2448 06a7 0848
00000060: f2da c9c6
63351.496 19966.531 -194993.95 21526.812 96783.09 -94744.43 102905.9 -76924.766
36738.855 -64648.438 34297.223 -12413.263 113937.46 -59273.96 215855.08 42342.555
-117603.89 -108017.95 -66522.625 -94364.98 216775.97 68007.67 168593.77 139932.1
-25837.473

exp_avg_sq f4 [25]
00000000: a6df e74f facc 8d51 466b 1e51 c73a 5551
00000010: 5ca4 ed4f 4448 8751 1972 2150 756a 7e50
00000020: 6fd4 624f 4b68 d84f 7c4a 0750 e5bc cb51
00000030: aaa8 1650 41e1 c54f a1a5 9150 a4ce af4f
00000040: 325c 8650 4ac7 8d4f 0ecc 874f 5a13 1150
00000050: 0d54 5350 9952 b14f dbe3 dd50 d49e 7e4f
00000060: c3f6 9450
7.780388e+09 7.6128666e+10 4.2525286e+10 5.7238385e+10 7.9739433e+09 7.2629125e+10 1.0834437e+10 1.7073559e+10
3.8055729e+09 7.261427e+09 9.079222e+09 1.09380936e+11 1.0110544e+10 6.6397476e+09 1.9548408e+10 5.8991104e+09
1.8033512e+10 4.757296e+09 4.556594e+09 9.735858e+09 1.4182004e+10 5.9499607e+09 2.978158e+10 4.2718218e+09
1.9993598e+10

exp_avg f4 [50, 25, 3, 3]
00000000: 5ad4 8cc6 5127 37c6 5c6f 75c4 5b0b 50c6
00000010: d211 acc5 3617 c545 ea7d 07c6 54f8 cfc3
00000020: a452 3146 1736 01c7 369d 40c7 c430 56c7
00000030: a63e 07c7 f4a4 41c7 d631 52c7 6fea f8c6
00000040: 39cf 2dc7 de99 38c7 64d1 3846 e931 8245
00000050: 4038 0943 935b 0c46 9831 ff44 3831 26c4
00000060: 60bf cc45 74f6 a144 0060 3443 d1be 3c47
00000070: 4491 8e47 ad52 a947 9d34 5d47 e681 9d47
00000080: 863f b647 5ffb 5f47 a573 9947 9688 ad47
00000090: 1f7e 9ac5 96f4 0046 86ea 9846 947f 3fc5
000000a0: 3413 1346 8d4c 9e46 1eac 1ac5 71a7 fb45
000000b0: 9399 8546 1669 97c5 1a22 c6c6 3aaf 3cc7
000000c0: 46f3 6bc6 ec46 0fc7 6066 69c7 2403 a5c6
000000d0: fc13 22c7 f02d 74c7 583a ae46 9ebf 0447
000000e0: 30c2 2947 305a b546 08cc 0147 461f 1f47
000000f0: 2d15 ae46 1abd e846 895e 0947 9c93 d3c6
00000100: e19d e2c6 cd23 08c7 d13c d8c6 b1a3 e2c6
00000110: a497 07c7 6518 cac6 f0d9 cfc6 bba1 f7c6
00000120: b6c5 bbc6 ae49 38c6 52a3 3845 5242 87c6
00000130: ab13 69c5 ec2a 3b46 2a5e 35c6 9e50 ce44
00000140: 2523 8146 25dd 8fc4 b748 09c6 ff1e 77c6
00000150: 4629 d3c4 041a 00c6 9e68 5bc6 6af8 eac4
00000160: a2d2 cfc5 8084 2ac6 0b66 78c6 1ec5 a5c6
00000170: 5bf6 d2c6 2470 72c6 38e2 9cc6 9cf7 c6c6
00000180: 4de9 5cc6 d13f 8bc6 0b42 b0c6 2196 fdc6
00000190: 0e3c 13c7 266a 14c7 e7ef 00c7 346e 15c7
000001a0: 37b2 17c7 7afd f7c6 722b 10c7 3612 15c7
000001b0: a4b8 ee46 c035 5c47 ab9a 9447 604e 1247
000001c0: 35eb 7247 4773 9d47 3ace 1847 b4c0 6c47
000001d0: 9616 9447 9461 a3c5 fd7b a2c6 1e6a 22c7
000001e0: 765e 19c6 1ce2 c8c6 7001 37c7 cfa4 47c6
000001f0: abe8 d8c6 b096 38c7 ef97 b145 745e c646
00000200: f22e 1047 7ad5 6546 de9a 0647 2dc1 2f47
00000210: 334b 9046 3dfe 0c47 4c14 2d47 d6d8 1fc7
00000220: ee53 23c7 5a4a 09c7 7e97 12c7 a8a8 0dc7
00000230: d6ee ddc6 a87a f6c6 f2d6 e1c6 de1a 9fc6
00000240: 24e9 e6c4 ac60 44c6 d6d8 a8c6 d253 cac5
00000250: f43f 8bc6 e2f1 d6c6 d09a 0ec6 d3d1 9cc6
00000260: c8db e4c6 74fe 26c4 fa2c 2ac6 1e6c 8fc6
00000270: 6618 afc5 dce5 7fc6 5fb4 b6c6 d7e3 09c6
00000280: f6ff 90c6 bca2 c2c6 1a80 8bc6 361f 94c6
00000290: ba01 b0c6 9ca5 8cc6 1a37 94c6 dccd b3c6
000002a0: 551b 8bc6 56c9 94c6 5e63 b5c6 fcda 0f46
000002b0: 7c84 05c4 2f23 f2c5 313b 0846 b42f 0ac4
000002c0: 5333 f4c5 b42f 0346 90cf 4844 955c abc5
000002d0: c5a0 c345 9c1f e746 f860 3247 0062 5946
000002e0: 472d 0e47 feb6 4747 fe26 8946 1aad 0f47
000002f0: f6fa 3d47 26ce f546 258b 0147 f9db f346
00000300: da90 fb46 dc25 0247 7e3a f146 4cfa e446
00000310: 4a0e ea46 1b8e d546 e045 ba44 7f52 a346
00000320: 0847 0d47 c70b 0f46 e410 df46 367c 2847
00000330: 16f0 4a46 9299 ea46 eb4b 2547 6ed8 6746
00000340: cae7 b946 291b e646 6a92 6246 b046 af46
00000350: 98f2 d546 0486 3e46 56b5 8d46 9c0b ab46
00000360: ef27 9ac6 2275 e8c6 80d3 22c7 0acb 95c6
00000370: c277 d6c6 49fb 13c7 90ad 93c6 ec6d c6c6
00000380: e94d 04c7 3c9f 67c6 161d 6dc6 3d56 4ac6
00000390: cdc3 99c6 b89a 93c6 8c7d 65c6 eaf1 8ac6
000003a0: 8e9b 73c6 9a90 20c6 3ec6 d046 ea55 5b46
000003b0: 0bbc bdc4 e25c 9546 649b bd45 1a3b 17c6
000003c0: 21d1 8a46 54e1 ae45 a153 11c6 30f3 d2c3
000003d0: 3159 0ec6 1e87 7cc6 8ec4 7345 0ecd b3c5
000003e0: 1c1d 51c6 d943 0dc5 6dad 39c6 e41a 95c6
000003f0: f8d3 48c7 76aa efc6 eafb 40c5 ec3b 2bc7
-18026.176 -11721.829 -981.74 -13314.839 -5506.2275 6306.9014 -8671.479 -415.94006
11348.66 -33078.09 -49309.21 -54832.766 -34622.65 -49572.953 -53809.836 -31861.217
-44495.223 -47257.867 11828.348 4166.239 137.21973 8982.894 2041.5498 -664.76904
6551.922 1295.7017 180.375 48318.816 72994.53 86693.35 56628.613 80643.8
93311.05 57339.37 78567.29 88849.17 -4943.765 8253.146 19573.262 -3063.9736
9412.801 20262.275 -2474.7573 8052.93 17100.787 -4845.1357 -25361.05 -48303.227
-15100.818 -36678.92 -59750.375 -21121.57 -41491.984 -62509.938 22301.172 33983.617
43458.188 23213.094 33228.03 40735.273 22282.588 29790.55 35166.535 -27081.805
-29006.94 -34851.8 -27678.408 -29009.846 -34711.64 -25868.197 -26604.969 -31696.865
-24034.855 -11794.42 2954.2075 -17313.16 -3729.2292 11978.73 -11607.541 1650.5193
16529.572 -1150.9108 -8786.179 -15815.749 -1689.2898 -8198.504 -14042.154 -1879.763
-6650.329 -10913.125 -15897.511 -21218.559 -27003.178 -15516.035 -20081.11 -25467.805
-14138.325 -17823.908 -22561.021 -32459.064 -37692.055 -37994.15 -33007.902 -38254.203
-38834.215 -31742.738 -36907.445 -38162.21 30556.32 56373.75 76085.336 37454.375
62187.207 80614.555 39118.227 60608.703 75821.17 -5228.1973 -20797.994 -41578.117
-9815.615 -25713.055 -46849.438 -12777.202 -27764.334 -47254.688 5682.9917 25391.227
36910.945 14709.369 34458.867 44993.176 18469.6 36094.24 44308.297 -40920.836
-41811.93 -35146.35 -37527.492 -36264.656 -28407.418 -31549.328 -28907.473 -20365.434
-1847.2856 -12568.168 -21612.418 -6474.4775 -17823.977 -27512.941 -9126.703 -20072.912
-29293.89 -667.9758 -10891.244 -18358.059 -5603.05 -16377.465 -23386.186 -8824.96
-18559.98 -24913.367 -17856.05 -18959.605 -22528.863 -18002.805 -18971.55 -23014.93
-17805.666 -19044.668 -23217.684 9206.746 -534.07007 -7748.398 8718.798 -552.74536
-7814.4155 8395.926 803.24316 -5483.5728 6260.096 29583.805 45664.97 13912.5
36397.277 51126.992 17555.496 36781.1 48634.96 31463.074 33163.145 31213.986
32200.426 33317.86 30877.246 29309.148 29959.145 27335.053 1490.1836 20905.248
36167.03 9154.944 28552.445 43132.21 12988.021 30028.785 42315.918 14838.107
23795.895 29453.58 14500.604 22435.344 27385.297 12193.504 18138.668 21893.805
-19731.967 -29754.566 -41683.5 -19173.52 -27451.879 -37883.285 -18902.781 -25398.96
-33869.91 -14823.809 -15175.271 -12949.56 -19681.9 -18893.36 -14687.387 -17784.957
-15590.889 -10276.15 26723.121 14037.479 -1517.8763 19118.441 6067.424 -9678.775
17768.564 5596.166 -9300.907 -421.8999 -9110.298 -16161.779 3900.2847 -5753.632
-13383.277 -2260.2405 -11883.356 -19085.445 -51411.97 -30677.23 -3087.7446 -43835.92

exp_avg_sq f4 [50, 25, 3, 3]
00000000: 829d 954c a6e5 2c4c 4361 e34c bea1 594c
00000010: b832 b74c aa5f 814d 8e54 814c be06 254d
00000020: 2e5d c44d e983 164f 9f2c 3f4f 96e3 444f
00000030: 15ca 144f d3f8 364f 1a75 374f 648a 014f
00000040: 1fcf 184f 4887 144f b469 2a4c 85d7 9d4c
00000050: 4626 004d 9537 4d4c 11e9 ca4c 7350 0f4d
00000060: 4576 4a4c 572b bc4c fca6 ea4c 662a 0750
00000070: 7935 3250 42d8 4450 1c0d 1750 4398 4250
00000080: 0f58 5350 7ef9 1250 07d2 3750 5b7b 4350
00000090: 2603 ad4d 52a1 2e4e db64 894e c9b5 b94d
000000a0: 80a4 324e 1ab3 884e d543 ac4d 31ea 1a4e
000000b0: 8a6f 634e 13fc f74e 477b 584f aafc 9f4f
000000c0: 230e 264f 7f35 8b4f 7ed0 c54f c80c 3e4f
000000d0: ee55 974f db07 ce4f 65b1 c14e c9ae 064f
000000e0: bf10 214f a53e bb4e 5cbf f84e ce3a 0f4f
000000f0: 8304 a14e d8e0 c94e 62a7 de4e 88fc 194e
00000100: dd97 254e b7db 3f4e 0176 0e4e 47f7 154e
00000110: caf0 2d4e 0c15 f94d 0201 004e 37b3 124e
00000120: df2d 614d bd28 c74d 1bc9 4a4e bc96 944d
00000130: 6637 204e bbef 984e f716 bd4d 609d 4a4e
00000140: f6ef b24e b9d7 964c 77cb 214d 697b 874d
00000150: 59c3 834c 80fd 024d 6ea2 514d 8047 4e4c
00000160: b995 b74c 5b0a 094d 80dc bd4d e917 f64d
00000170: c060 174e dc75 a74d 264b d44d 7d37 024e
00000180: c9af 894d 1ac5 a84d 0895 cc4d bb62 9a4e
00000190: 6e2f 9c4e 1bf9 8a4e 7f0e 9d4e bd83 9f4e
000001a0: 5dd2 8f4e 6731 914e f5e9 934e 3027 884e
000001b0: 5d80 a64f f6cb f44f 6534 1750 ebf5 b84f
000001c0: 2464 0350 6b32 1e50 c6d8 b44f ab0a f64f
000001d0: 615f 0f50 d45a c34e b14e 284f 3656 7e4f
000001e0: 44c2 e34e e76f 3f4f f8a5 8d4f b947 ee4e
000001f0: 4552 404f b7ae 894f 7b81 ef4e b137 404f
00000200: 61f6 6d4f 770c 1c4f de0c 6e4f d999 8d4f
00000210: e6b6 274f ef8a 724f 2b92 8a4f 6a6e c34e
00000220: 0403 a94e 33c7 654e 25fa 9d4e 47f5 784e
00000230: 747b 164e fee9 5c4e 4d49 1c4e f286 a14d
00000240: 06e6 884d 041a f94d bf40 364e 45c1 c34d
00000250: 2123 2b4e 4d06 734e 2ec3 e94d a361 424e
00000260: 1643 854e f0e8 e94d 9768 454e a771 814e
00000270: 6e7a 204e 2977 814e e52f a34e fa71 324e
00000280: 6821 894e 43b7 a74e 04e4 004d 2e7e e54c
00000290: e1fd 064d f753 f14c 13de d64c 9791 034d
000002a0: bc10 e64c 0479 ce4c c23f 014d f0e0 d04c
000002b0: 0c7f 6a4d 9bb1 c54d 78c8 de4c c335 6c4d
000002c0: e108 c54d fdeb c44c 5e28 414d ebd0 9d4d
000002d0: 9369 5e4f 9364 b14f 5c14 e04f 725b 844f
000002e0: 0b0d ca4f 0e34 f74f be4e 844f 5c9f c04f
000002f0: 6bc0 e34f e5e6 044e 73e5 d14d b44e 944d
00000300: 5b0d f94d 13c8 bb4d 8776 7d4d 7ae3 d24d
00000310: bbf4 974d ae7d 444d 83c3 f54e 636b 4d4f
00000320: 0fe1 884f 01d7 194f 8ced 754f e32c 9e4f
00000330: 18e5 214f 87b9 754f 8126 984f 1030 224e
00000340: cc14 644e 91b8 844e 6d5a 104e 0c2a 454e
00000350: 65f7 614e 1ada e04d 0d26 124e b5fa 224e
00000360: 2cb1 284e a4d1 754e 8857 aa4e 215a 114e
00000370: 3cab 4a4e 0c4f 894e d1ef ef4d 6244 1d4e
00000380: ea6d 4d4e 05ba c14e 4be9 a44e de52 6f4e
00000390: b570 c24e 70bc 944e 431e 394e 181e a64e
000003a0: bb29 624e 4e6b f24d 4b84 834e c60a 6d4e
000003b0: efe1 874e 51c9 9a4e 2bcf a24e 656c bc4e
000003c0: 9f8b ad4e 2f06 bb4e 0893 cb4e 3d79 b84e
000003d0: 9ac8 824e 1109 4b4e 6b1a 964e a434 4b4e
000003e0: 42be 1c4e 7d89 714e 327a 294e 74af 0b4e
000003f0: 95eb ac4f 21c0 534f fadf 204f 3835 af4f
7.844149e+07 4.532393e+07 1.1921257e+08 5.705087e+07 9.604858e+07 2.713163e+08 6.780632e+07 1.7304266e+08
4.1180512e+08 2.5252273e+09 3.2073725e+09 3.3032494e+09 2.4962716e+09 3.0697603e+09 3.077905e+09 2.1733304e+09
2.5637107e+09 2.4918938e+09 4.467272e+07 8.27546e+07 1.343745e+08 5.3796436e+07 1.06383496e+08 1.5027589e+08
5.3074196e+07 9.8654904e+07 1.2302538e+08 9.070811e+09 1.1959395e+10 1.3210028e+10 1.0136875e+10 1.3059034e+10
1.4183054e+10 9.863297e+09 1.233598e+10 1.3118565e+10 3.628331e+08 7.32452e+08 1.1525441e+09 3.894623e+08
7.492813e+08 1.1467195e+09 3.6126582e+08 6.497598e+08 9.5393446e+08 2.0802461e+09 3.6319578e+09 5.368272e+09
2.7859443e+09 4.671078e+09 6.6375506e+09 3.1885087e+09 5.077982e+09 6.9132426e+09 1.6248142e+09 2.2596017e+09
2.7022292e+09 1.5707224e+09 2.0866452e+09 2.4029957e+09 1.3507137e+09 1.6934779e+09 1.8677558e+09 6.45866e+08
6.945483e+08 8.047119e+08 5.9752454e+08 6.290027e+08 7.295597e+08 5.2236326e+08 5.368874e+08 6.1530464e+08
2.3611749e+08 4.1766698e+08 8.505443e+08 3.116133e+08 6.719963e+08 1.2829239e+09 3.9654986e+08 8.4982784e+08
1.5010353e+09 7.9085e+07 1.6965413e+08 2.841265e+08 6.90818e+07 1.3735322e+08 2.198177e+08 5.407488e+07
9.6251336e+07 1.4369733e+08 3.9816806e+08 5.1609526e+08 6.3492506e+08 3.511899e+08 4.4521184e+08 5.4616864e+08
2.8874986e+08 3.539362e+08 4.2903987e+08 1.2950808e+09 1.310177e+09 1.1657906e+09 1.3174865e+09 1.3381055e+09
1.2064641e+09 1.217967e+09 1.2407917e+09 1.1421348e+09 5.5868605e+09 8.214015e+09 1.0147173e+10 6.2062484e+09
8.817512e+09 1.0616417e+10 6.0682107e+09 8.2557885e+09 9.621571e+09 1.6387548e+09 2.8237294e+09 4.2670628e+09
1.9105797e+09 3.211782e+09 4.752929e+09 1.9988389e+09 3.226617e+09 4.6198574e+09 2.0091201e+09 3.2248753e+09
3.992347e+09 2.6180626e+09 3.9938207e+09 4.75134e+09 2.8137815e+09 4.0691914e+09 4.64967e+09 1.6393966e+09
1.4177736e+09 9.637593e+08 1.3252082e+09 1.044206e+09 6.3116826e+08 9.265806e+08 6.555124e+08 3.3874694e+08
2.8709702e+08 5.2240397e+08 7.644241e+08 4.105279e+08 7.1780154e+08 1.0193191e+09 4.9023533e+08 8.1529466e+08
1.1178831e+09 4.9054464e+08 8.279915e+08 1.0858546e+09 6.730945e+08 1.0860351e+09 1.3689125e+09 7.484535e+08
1.150334e+09 1.4069027e+09 1.3515168e+08 1.2032037e+08 1.4154907e+08 1.2652537e+08 1.1265244e+08 1.3795979e+08
1.2062051e+08 1.0825117e+08 1.3552746e+08 1.0951258e+08 2.4588717e+08 4.145939e+08 1.168025e+08 2.4768414e+08
4.1321168e+08 1.0324375e+08 2.0254051e+08 3.3096432e+08 3.7314609e+09 5.952317e+09 7.5188613e+09 4.441171e+09
6.779705e+09 8.2947676e+09 4.439506e+09 6.4633385e+09 7.6420767e+09 5.574311e+08 4.4018442e+08 3.1102323e+08
5.2230026e+08 3.9380643e+08 2.6577522e+08 4.422654e+08 3.1867478e+08 2.0603568e+08 2.0616155e+09 3.446367e+09
4.5929016e+09 2.5810045e+09 4.1259858e+09 5.3074836e+09 2.7161457e+09 4.1225766e+09 5.1053204e+09 6.802647e+08
9.5664205e+08 1.1133441e+09 6.054613e+08 8.269668e+08 9.477717e+08 4.7154874e+08 6.129918e+08 6.8358483e+08
7.0754586e+08 1.0310392e+09 1.4289316e+09 6.0965075e+08 8.500549e+08 1.1518295e+09 5.031839e+08 6.596261e+08
8.6163315e+08 1.6250968e+09 1.3833763e+09 1.00379635e+09 1.6310831e+09 1.2476887e+09 7.7644205e+08 1.393495e+09
9.485964e+08 5.0838982e+08 1.1032426e+09 9.9422656e+08 1.1398655e+09 1.2984424e+09 1.365743e+09 1.5806102e+09
1.4558043e+09 1.5688723e+09 1.7077053e+09 1.5474766e+09 1.0970924e+09 8.5159226e+08 1.2591569e+09 8.523062e+08
6.574286e+08 1.0130799e+09 7.108394e+08 5.858829e+08 5.8022405e+09 3.552584e+09 2.699033e+09 5.879001e+09

exp_avg f4 [50]
00000000: 91eb afc7 7487 6e47 e264 98c7 bca8 a145
00000010: f82e 2fc7 a8b0 6fc6 df2a 6747 6b11 d945
00000020: 8ae3 6a47 01d0 12c7 1aaf 21c7 9c53 cb46
00000030: ca4a 1a46 5151 9ac7 d2d4 80c7 aca1 72c7
00000040: 8e57 a246 58bf 41c8 fbbf a8c7 1b7f 1347
00000050: ae56 cb46 7672 32c7 9e45 04c7 0a18 16c7
00000060: 28ac 6fc7 c1d9 5dc7 ee81 9845 ae0b 8346
00000070: c7e2 3cc7 b027 93c7 87b2 f8c6 657a 3ec7
00000080: b2e6 f1c6 8e03 88c7 4d76 41c5 35a4 0947
00000090: b28b a346 7465 1fc7 ec7a 2dc6 8db0 2e46
000000a0: 6778 a6c7 4e88 cac6 007a d941 d335 7346
000000b0: 4bfa 7fc6 b83c 68c7 af1f 92c7 2666 bac7
000000c0: 7095 aac7 e0c8 bfc5
-90071.13 61063.453 -78025.766 5173.092 -44846.97 -15340.164 59178.87 6946.1772
60131.54 -37584.004 -41391.1 26025.805 9874.697 -79010.63 -65961.64 -62113.67
20779.777 -198397.38 -86399.96 37759.105 26027.34 -45682.46 -33861.617 -38424.04
-61356.156 -56793.754 4880.241 16773.84 -48354.777 -75343.375 -31833.264 -48762.395
-30963.348 -69639.11 -3095.3938 35236.207 20933.848 -40805.453 -11102.73 11180.138
-85232.805 -25924.152 27.18457 15565.456 -16382.573 -59452.72 -74815.37 -95436.3
-87338.875 -6137.1094

exp_avg_sq f4 [50]
00000000: 5931 914f 7786 2e50 5638 cc4e 8377 f64d
00000010: c933 c550 cf09 8d51 178a a051 66c4 324f
00000020: 54c1 4351 10a1 8e4f 266f 234f 295a 6a4f
00000030: 22d6 844f 5e59 b54f fa66 ec50 ad28 1250
00000040: b730 db4e 59b2 cf50 a205 994f 69b5 8a50
00000050: 2e41 8f4f 0cdb d250 7f23 7151 9cda 7850
00000060: 76a3 0850 0ac1 a64f ff3e 2e50 13e2 5b51
00000070: f117 a850 e224 804f b3ea 4d4f c3e8 9c4e
00000080: 74f0 4e50 a360 b24f c4b0 5150 2995 924e
00000090: 7752 4350 8881 d94e 7a3a 3a50 e023 6050
000000a0: e75b 014f d08d 8250 67e6 cf4f 6d71 cb4e
000000b0: deef 324e 5503 334e 2c6e 5d50 0262 5150
000000c0: 906c 494f 4ca9 ff4f
4.8718607e+09 1.1712191e+10 1.713122e+09 5.1687843e+08 2.6468043e+10 7.571937e+10 8.618894e+10 2.9992156e+09
5.2547633e+10 4.78584e+09 2.7419704e+09 3.9317773e+09 4.457252e+09 6.0850657e+09 3.1729373e+10 9.808557e+09
1.8387014e+09 2.7876575e+10 5.1345664e+09 1.8617158e+10 4.806827e+09 2.8300567e+10 6.4730165e+10 1.6700305e+10
9.169656e+09 5.5953377e+09 1.1693456e+10 5.902442e+10 2.256113e+10 4.2998016e+09 3.4547105e+09 1.31625e+09
1.3887459e+10 5.9853553e+09 1.4072091e+10 1.2296244e+09 1.3107846e+10 1.8245724e+09 1.2497578e+10 1.504179e+10
2.1702838e+09 1.7522655e+10 6.9759667e+09 1.7066042e+09 7.505161e+08 7.50835e+08 1.485994e+10 1.4051445e+10
3.3793352e+09 8.57857e+09
