models/probabilistic_training/upscaling_network/500/sigma0.005_step0.0001_lr0.0005_gamma0.01/ckpt/model_epoch_400.pth (torch, 282369 bytes, 18 tensors)

layer1.weight f4 [25, 1, 3, 3]
00000000: 71f0 3b3e 3d8e ae3d 1b4a f3bc c3d5 eb3b
00000010: cee4 34bb d712 47bc 494c 5b3d dd01 60bd
00000020: 10ff 63bd fbdb 823d 0558 bbbd e313 e43d
00000030: 4e70 1d3e 79fc 55be 3587 1fbe beb3 e9bc
00000040: 9790 0ebe 6223 8d3b a18e 903c 98dd b63c
00000050: 6053 02be 0caf aa3c e867 40bd a8ed 3f3d
00000060: 2b22 d6bd a240 9cbd c28c 063d d322 bcbc
00000070: 2077 ff3d 521e b33d 2596 123e 23bd bd3c
00000080: cb96 ea3d e957 10bd 068c 8b3d c854 2b3e
00000090: 0e48 bdbb 8df2 863d 9ee2 ddbd 3738 953d
000000a0: 7fb9 b23d a2e2 3e3d 0337 313d 52f1 de3d
000000b0: 48fa 4fbd 2f64 16be 5754 ebbd 559c bfbc
000000c0: aa82 f7bd 9f8b 8ebd c254 3abd 4651 02be
000000d0: a313 913d 6ebf 203d 7225 803c 41ee 8ebd
000000e0: f3f3 383d be6b a8bd a234 bc3d 356c f4bc
000000f0: 4cf9 493e c66e 253d fde8 cb3d e67c 56bd
00000100: 1b42 3a3e d7d1 cbbb 8610 0fbe 43f4 4e3b
00000110: 351f cebd 45b6 983c 3005 cc3c 4745 b1bc
00000120: cb41 413e a87f fe3d b2b3 48bd 27d0 6b3d
00000130: 4d4b 27bc 23c5 523d 6aca 4a3d 4a92 303c
00000140: f2b5 d7bd a3e3 f63c c592 913d dc4d 9dbc
00000150: 9cde ad3c 889c 0dbe 21c4 2d3d 957a b2bd
00000160: fbb4 e2bd abe9 993d 436f 9bbd d9ba 173d
00000170: e781 953d 5095 8d3d 1a3b 17bc 03ea 91bd
00000180: 0d7b 78bd 6f7a 95bd de80 93b9 df51 e7bd
00000190: ea8d 14bd ddc3 06bc b523 283e 52d4 bc3c
000001a0: 65d2 20bc f916 a23d 7700 f6bd 44da b9bd
000001b0: 24a9 b7bd 451a e93d f33e 363d 40ed 463e
000001c0: 9082 053e f9cb 01bd 7695 9a3c 3be1 0f3e
000001d0: be27 443d 02f2 f7bd a8ad 24be dacf 013e
000001e0: ed27 ccbd b28f 073d db4e 893a ea28 01be
000001f0: 3edf f23a cdab 78bc 26ab 82bd 5652 e93d
00000200: de79 ab3d dd0b bb3d bfde 1e3e ca44 ef3d
00000210: f255 183d 991d e53c dc34 a2bd e70e e13d
00000220: deb4 303c 2bb0 5c3c 3b28 9abd 9815 733e
00000230: 1572 28be fc15 613d d5c8 b6bd abf3 6cbe
00000240: 89e9 b1bd afe9 c5bd 76ff da3c 6c53 f4bc
00000250: 802f 7fbc 2b3d 54bd 81a5 763d 5c01 dbbd
00000260: d481 a93d 3511 1dbe 707f 203c ef73 e7bd
00000270: 6a55 f43d fd86 efbd f718 633d 2c9d e3bd
00000280: 09cc 6f3d bc5a 95bd 1945 42bc 02de 203d
00000290: f41a 94bc 86a0 72bd 63ee 033d e112 2c3d
000002a0: aabb e23d c6bb 16be 9d04 923d 855e 38bd
000002b0: 7d48 4dbc d875 763d 2db6 afbd 15d6 6ebd
000002c0: c15e 183d 0c18 5d3d 34d2 08be 4ddc acbc
000002d0: c2ff f13d a61f 873d 4f98 d03d 90c9 233d
000002e0: 8dc3 06bd 06cf 613d ed88 f63d c24c 043e
000002f0: 9fe6 a73d df2d 8ebd 766c f9bd 17bf 68ba
00000300: 0f88 a6b9 73f5 103e 7d44 403e 54a7 9dbd
00000310: 1e60 9e3c 6101 a4bd d8b4 3a3d dfdb 3b3d
00000320: a8c7 a53d 3d43 0a3e c6ef d63d 36bb 7b3c
00000330: b111 563d 0390 b93c 142f 8f3c ca42 60b9
00000340: 9615 58bd a7d7 6cbd 0c8e 7d3d 5a13 dc3d
00000350: 6816 023d 57ca 2a3c 644d 783c bd58 ee3d
00000360: 2954 5e3c f767 b5bb 1e0b b3bb 94af 9c3d
00000370: 847a d4bb 6aa7 093e c42c 28be 00e6 44be
00000380: 8956 8f3b
0.1835344 0.085232235 -0.029698422 0.0071971132 -0.0027602199 -0.012150488 0.053539548 -0.054689277
-0.05566317 0.06389614 -0.09147648 0.111366056 0.15374872 -0.20897092 -0.15578921 -0.02852809
-0.13922344 0.0043071965 0.017646136 0.022322461 -0.12727118 0.020835422 -0.046974093 0.046857506
-0.10455736 -0.07629515 0.03284908 -0.022965824 0.12473893 0.087460175 0.14315088 0.023161476
0.11454543 -0.035240088 0.06813817 0.1673156 -0.005776412 0.06589232 -0.108342394 0.07286113
0.08726787 0.046602853 0.043265354 0.10885872 -0.050775796 -0.14686655 -0.11490696 -0.023389975
-0.12085469 -0.06960224 -0.045490988 -0.12726316 0.070838235 0.03924506 0.015642855 -0.06979037
0.045154523 -0.08223675 0.091897264 -0.029836753 0.19724005 0.040388845 0.09956548 -0.052365206
0.1818928 -0.006220083 -0.13971147 0.0031578697 -0.10064546 0.0186416 0.024904817 -0.02163948
0.18872754 0.12426692 -0.048999496 0.057571556 -0.010210824 0.051457535 0.049509443 0.0107770655
-0.1053275 0.030137843 0.07108072 -0.019202165 0.021224312 -0.13829243 0.04242337 -0.08714787
-0.110696755 0.07515272 -0.07589581 0.037043426 0.073001675 0.06913245 -0.0092303995 -0.07124712
-0.060664225 -0.07298743 -0.00028134038 -0.112949125 -0.036268152 -0.008225408 0.16419871 0.023050461
-0.009815787 0.07914538 -0.120118074 -0.09074834 -0.08967808 0.11381964 0.044493627 0.19426441
0.13038087 -0.031688664 0.018870097 0.14050762 0.047889464 -0.12106706 -0.1608187 0.12676945
-0.09968553 0.033096023 0.0010475771 -0.12613264 0.0018529666 -0.015177679 -0.063803 0.113926575
0.08372854 0.09133122 0.15514658 0.11683042 0.03719134 0.027968215 -0.079202384 0.109891705
0.01078531 0.013469736 -0.075272046 0.23738706 -0.16449769 0.054952607 -0.089250244 -0.23139827
-0.086871214 -0.09663712 0.026733141 -0.029824935 -0.01557529 -0.051816147 0.06021643 -0.10693619
0.08276716 -0.15338595 0.0097960085 -0.113014095 0.11930354 -0.11695669 0.05544373 -0.111139625
0.058544192 -0.07292697 -0.0118572945 0.039274223 -0.018079259 -0.05923512 0.032209765 0.04201019
0.1107095 -0.14720067 0.07129786 -0.045012016 -0.01252949 0.06017098 -0.08579669 -0.058309633
0.03719974 0.05397801 -0.13361436 -0.021101141 0.1181636 0.06597833 0.101853006 0.039987147
-0.032901336 0.055129074 0.12037835 0.12919906 0.08198284 -0.06942343 -0.121788904 -0.0008878572
-0.0003176336 0.14156131 0.18776126 -0.07697931 0.019332942 -0.080080755 0.045582622 0.045863982
0.08094722 0.13502212 0.10494952 0.015364459 0.052262966 0.022651678 0.017478503 -0.00021387186
-0.05275496 -0.05782285 0.061903045 0.107458785 0.03175965 0.010424218 0.01515517 0.11638019
0.01356987 -0.005536075 -0.0054639718 0.07650676 -0.0064843316 0.1344277 -0.16423327 -0.19228363
0.0043743295

layer1.bias f4 [25]
00000000: 93a7 6a3d aac1 ec3d 9ea7 66be b8b1 15be
00000010: 9537 b03d 73d8 843d 5082 96bd c472 843e
00000020: 8c67 233e 9e41 bb39 df10 0d3e 3303 733e
00000030: 7b46 13be 14b8 143e e8ec 043e ed94 bd3d
00000040: d078 103d 56fb bebd cdaa 913e 2583 0ebe
00000050: 3964 503e f77e 65be 9e18 033e 7958 76bb
00000060: 960c 6f3e
0.057288717 0.11560376 -0.22524878 -0.14618576 0.086043514 0.06486597 -0.07349074 0.2586881
0.15957469 0.00035716308 0.13775967 0.23731689 -0.14382355 0.14523345 0.12980998 0.09256921
0.035271466 -0.09325282 0.28450623 -0.13917215 0.20350732 -0.22411714 0.1280236 -0.0037589355
0.23344645

layer2.weight f4 [50, 25, 3, 3]
00000000: 01a1 f53c 2d01 663c 6801 3bbc 5bcf d3bc
00000010: fe40 3fbd 5d0a b93b f151 6abd 0317 a53b
00000020: 5132 ce3c 111c 0fbd 0f88 d73d 6539 1f3d
00000030: 4589 363d b71f 0b3d 37bb 353d ef44 003c
00000040: 8e3a 993d 9b72 e8bc e404 053c 9b55 3b3d
00000050: 23fa 003e 4e8f f83d 1a55 59bc 9061 87bd
00000060: d3ae a1bd 2b21 fbbc d7a9 743d f917 803d
00000070: 146d 08bd d370 48bd b663 803d 8772 89bd
00000080: 5e81 cdbc f7d4 88b9 2f1d 7d3c ffa8 943c
00000090: d963 f43c 776f 2c3d 30ab c8bc 8086 153c
000000a0: 6020 a5bd 333c b53d 8d6e 64bd 4d1f 753b
000000b0: c49f 67bd 8506 4bbd b4a1 bbbd 0b74 f33c
000000c0: 3eb0 ce3c fc22 073c de92 053d 5e0a b23a
000000d0: 43c7 f5bc bb3b bf3d 0c38 173c f2ef 27bd
000000e0: fdd5 bfbd 9718 13bd f978 dd3d 4fff 5f3d
000000f0: 29ca c53c 8f14 ce3d 7374 443d 5e72 4bbb
00000100: 72e1 d5bc 7680 6dbc 66b3 dd3d 7e20 23bc
00000110: 88b7 64bc deea 9c3c 514d 933c 065b d03b
00000120: b4ba d93a 05ad 663c 3e4c 903d 6713 863b
00000130: 80f4 0c3c 8650 51bd d499 adbc 4e0e eabb
00000140: 01f9 04bc c92f 45bd 356f 233d 5691 f5bc
00000150: bc52 623c 7120 a43d bb14 9cbd 4f39 f0bb
00000160: fb52 fb3c 7fb3 953c d164 86bb 9d54 f83d
00000170: 8158 173d a565 453d 33d6 013d 5a4d f2bd
00000180: a358 1cbd 1a38 f5bc 7bb6 2c3d 516e f6bb
00000190: e92b 653c 4482 b43d 26bb 81bc 6d3d 0c3d
000001a0: 9fe7 8bbc 479d f0bc 9ac5 12bd 532a 5b3d
000001b0: 7458 64bd ec74 3abd 3d0f 693d 64a0 503c
000001c0: bfc2 6f3d a247 d53c ef3d 233d 50fc 67bc
000001d0: 5f20 4fbb fbc6 193d 5cd6 f3bc b1cd 4e3d
000001e0: a348 e43d d445 2c39 cfa5 09be 69b1 9d3b
000001f0: 19f1 79bd c377 bc3c d90d a8bd 0fa8 cfbd
00000200: 6b13 d1bb 088d 86bd 3083 eabc 6df7 c03b
00000210: 33c8 e4bd 01e0 89bd 1c87 8d3c 6055 063e
00000220: 0f25 693d 88cb b03c c629 9dbd 7df9 1bbd
00000230: 0e09 00bd e085 48bd dd6a e5ba 196a 9a3d
00000240: a4e5 e7bc d235 f13c aade 923d 6576 2d3d
00000250: b473 2d3d 97c9 c53d abd0 113d 5166 59bd
00000260: d6cb a33d 59cf ff3c 08e9 903d e8fb 94bc
00000270: 6636 63bb adfc c5bc 6f78 583d 7330 c63d
00000280: b466 ca3c 4330 8d3c f2a6 943d ce73 dbbb
00000290: fa2a 11bb d922 50bd da9b 193e ae6e f03b
000002a0: 5715 0c3d e78c c43c 873e 7abd e1c7 ccbc
000002b0: e3ce a13d 144d b639 e6e1 153c 068d 7fbd
000002c0: 5d1f 4bbc e572 aabc 88d8 18bb 0ef5 003d
000002d0: 2b69 c8bd 6265 83bc d0a6 89bc ecc6 083d
000002e0: c618 10be ce84 50bd eadc 4abd 1f97 8d3d
000002f0: 9238 57bd 3e1a 6c3d f748 743d 00da adbd
00000300: 602e 68bb d545 d9bd a15d abbd 3282 70bc
00000310: 40dc 163d 3944 e0bd 31bd 11bd 749e 15bd
00000320: ffca 5fbc badc 0fbd ee57 cbbc 7820 c83c
00000330: de35 3a3d ebed c9bd 9f2b 073d 17a1 7bbd
00000340: 639d b13c adf1 91bc 78d9 853d 3522 1d3d
00000350: c1fc 50bd 1d95 90bc 2ff3 ddb8 09f7 5dbd
00000360: ce0c cd3d 6f0f 1dbc d318 1ebd 5010 0abd
00000370: 8252 22bd f1d7 5f3c adfa 993c 0647 72bd
00000380: 4d21 933d d6f0 db3c 60e5 213d 55a7 a6ba
00000390: 1265 d43c 0f44 e43c 09ff cc3c 12ce 86bd
000003a0: dc1b 45bc 247f da3c b224 53bd f67e 7a3c
000003b0: 48dc fcbd 2425 0cbd 9095 0fbd e0d1 59bd
000003c0: 5e4d 59bd cfff 4bbc 1050 303d b8f7 54bd
000003d0: 0a47 b13d 246f 633c 366c adbd f3c1 86bc
000003e0: 19f0 21bd 430c 693d ac32 15bc c4ec f4bb
000003f0: b61f 443d 228e 0c3c 83d4 fbbd 7ea5 83bb
0.029984 0.014038366 -0.0114139095 -0.02585571 -0.04669284 0.0056469874 -0.05720705 0.0050381436
0.025170477 -0.034938876 0.10523998 0.038873095 0.044564504 0.033965793 0.044367995 0.007828935
0.074818715 -0.02837496 0.008118842 0.045735937 0.1259542 0.12136708 -0.013264919 -0.066104054
-0.07894673 -0.030655464 0.059732284 0.062545724 -0.03330715 -0.048935723 0.06269018 -0.067112975
-0.025086101 -0.00026098613 0.015448852 0.01814699 0.029832767 0.04209849 -0.024495691 0.009126306
-0.08062816 0.08849373 -0.055769492 0.003740269 -0.05654885 -0.049566764 -0.09161702 0.02971842
0.025230523 0.008248087 0.032610767 0.0013583412 -0.030002242 0.093375646 0.009229671 -0.041000314
-0.09366987 -0.035912123 0.10814089 0.05468684 0.024144249 0.10062515 0.047962617 -0.003104351
-0.026108477 -0.0144959595 0.10825233 -0.009956477 -0.013959773 0.019154962 0.017981203 0.006358507
0.0016611428 0.014079337 0.07045792 0.0040916684 0.008603215 -0.051102184 -0.021191515 -0.0071428185
-0.008116008 -0.048141275 0.039900977 -0.029976528 0.013813671 0.08014 -0.076211415 -0.0073310505
0.030679217 0.018274067 -0.0041013737 0.12125514 0.03694964 0.04819264 0.031698417 -0.1183116
-0.038170468 -0.029933978 0.042166214 -0.007520475 0.01398752 0.08813909 -0.01583631 0.034238268
-0.017078219 -0.02937187 -0.03583298 0.05350716 -0.055748418 -0.04552166 0.056899298 0.012733553
0.058535334 0.026035134 0.039853986 -0.014159277 -0.0031604988 0.03754328 -0.0297653 0.05048913
0.11146667 0.00016429211 -0.13442157 0.0048124087 -0.061020944 0.023006326 -0.08205766 -0.101394765
-0.0063804886 -0.06569868 -0.028627008 0.0058888705 -0.111709975 -0.067321785 0.01727634 0.13118505
0.056920107 0.021581426 -0.07673983 -0.038079727 -0.031258635 -0.0489558 -0.0017503161 0.07539768
-0.028307743 0.029444609 0.07171376 0.042349238 0.04234667 0.09657591 0.035599392 -0.053076092
0.07997863 0.0312268 0.07075697 -0.018186525 -0.0034669875 -0.024168337 0.05284923 0.0967721
0.024707176 0.017234927 0.07258405 -0.0066971546 -0.002215086 -0.050814483 0.15000859 0.007337413
0.03420004 0.023992969 -0.061094787 -0.024997653 0.07900789 0.00034771173 0.009148097 -0.06239035
-0.012397614 -0.02080674 -0.0023322422 0.031483702 -0.09785684 -0.016039554 -0.016803175 0.03339283
-0.1407195 -0.050907902 -0.049527086 0.0691359 -0.052544184 0.057642214 0.059639897 -0.08488846
-0.0035428032 -0.106090225 -0.08367468 -0.0146794785 0.03683114 -0.109505124 -0.035580818 -0.036528066
-0.013659238 -0.03512261 -0.024822202 0.024429545 0.045461528 -0.098598324 0.033000585 -0.061432924
0.021681493 -0.017815435 0.065356195 0.0383627 -0.051022295 -0.017649228 -0.00010583398 -0.05419067
0.10012208 -0.009586199 -0.038597893 -0.033706963 -0.039629467 0.013662324 0.01879629 -0.059149764
0.07184086 0.026848238 0.03952539 -0.0012714664 0.0259271 0.027864484 0.025023954 -0.065822735
-0.012030568 0.026671953 -0.051548667 0.015289059 -0.12346703 -0.034215108 -0.035054743 -0.053178668
-0.0530523 -0.012451126 0.043045104 -0.051994056 0.08656128 0.013881478 -0.08467905 -0.016449904
-0.039535616 0.05689646 -0.009106319 -0.0074745137 0.047881804 0.008578809 -0.12296393 -0.004017531

layer2.bias f4 [50]
00000000: 5816 26bc 44f4 a5bc 2e50 39bd dec5 97bb
00000010: 52e0 6abc eabd f1bc ab8e 5c3c bbe8 3f3c
00000020: 55e9 c43c 7413 b43b 6517 cfbc be00 81bd
00000030: 0b04 5c39 b45d 6cbc b927 f83c 50e3 113d
00000040: 6802 543d 5594 0abc f62b 343d 7b6c 3a3d
00000050: 3a58 6abd 8d23 a73c e56b 103c d0c6 033d
00000060: f694 26bd 49ff 1f3b 839e d13c af4d 9ebb
00000070: ac4b 9d3c e69f ff3c aaf3 59bd e236 083c
00000080: 67b4 75bc a59f 6339 dda3 073d 01cb 5a3c
00000090: 4c8f 12bc b801 5fbc 5a29 593b 1f02 0dbd
000000a0: 8993 383d 0131 dabc fa04 cdbb 8798 00bd
000000b0: 4e70 913b 3909 6f3d 5f0f ebbc 7add 213d
000000c0: 3f0b 1bbd 0a52 51bd
-0.010137163 -0.020258076 -0.04524248 -0.004631742 -0.014335709 -0.029509503 0.013461749 0.011713202
0.024037043 0.005495483 -0.02527971 -0.0629897 0.00020982341 -0.014426637 0.030292379 0.035617173
0.051760107 -0.008458217 0.043987237 0.04551361 -0.057213046 0.020402694 0.008814787 0.032172024
-0.040669404 0.0024413636 0.02558828 -0.004831038 0.019201122 0.031204175 -0.05321089 0.008313866
-0.014996625 0.00021707879 0.033115257 0.013354064 -0.008945297 -0.01361125 0.003313622 -0.03442585
0.045062575 -0.026634695 -0.006256697 -0.03139546 0.0044384366 0.058358405 -0.028693853 0.039517857
-0.037852522 -0.05110363

layer4.weight f4 [25, 50, 3, 3]
00000000: a011 fa3c 3b7d 24be bb3c 67bd f68b 3f3d
00000010: 4e4c 2d3d e80c d0bc 5db8 68bd 9edd b6bc
00000020: 3cc1 0dbd 22ce 2f3d d54d ba3b bda5 ee3c
00000030: 5a54 1a3d faeb 3a3d 240d 333d 85d4 fbbc
00000040: dbd4 7b3d 0011 dcbd 337a d53b 5616 1b3c
00000050: c11b 9fbd cc44 323d 5a81 533d 3e08 3abd
00000060: e5d5 95bd 450a 06bd c372 e1bc 4c80 b53d
00000070: 937a 0b3d b73a 9c3a 97cc 13bc e144 c83d
00000080: cf37 2a3d eddb 37bd e57f 4e3d 34e5 80bd
00000090: bd2b 3bbc 47c6 b8bd 55fb 903c 03e8 943d
000000a0: ce98 843b 1be1 e5bd 0ee7 13bd 2d0e 9dbc
000000b0: ef1c e6bb 8b0e 90bd 31fc 67bd 7445 953d
000000c0: b6fd 8dbd e005 c63c d197 f33a 9813 b7b9
000000d0: ce4e b53a f89c 9dbc 26e5 e0b8 f4f4 263d
000000e0: b70a 61bb dd96 00be 60d6 063c 5d44 18bc
000000f0: 3c0a 8e3c bc7a 81bd 1de5 823d 5007 25bc
00000100: 9715 9e3d 256d 60bd 324a b7bc 85e5 a83c
00000110: fa5e 3ebc 6536 023d ba9c f83c 500f 983d
00000120: 3218 a43a 715a 74bc 4c39 4d3d ae9a 9a3c
00000130: 5ecb 2f3d abc6 6cbd 52d7 8a3d 7934 10be
00000140: 2d4b 3abb 18dc 9aba 5faf 01bd de06 e3bb
00000150: 0b05 5bbb ad49 9abc 9489 73bd 6f5e cbbc
00000160: 477b f1bc 6845 973d f67f 5b3d 6e4e e73b
00000170: 070a 403d b5b7 f8bd 31fc a5bd 2ad4 08bd
00000180: edb4 39bc 85aa 0b3d 2438 303d 7658 f2bc
00000190: 87e4 393d 43bf 9abc e42f 203d a77f bb3d
000001a0: df87 b8bd 3f59 223d d50e 4dbd 9b93 633c
000001b0: a92b ffbc d99c 58bd 0c17 cd3d 2cc0 93bd
000001c0: 9128 fabc f982 03bd 55d1 313c 2110 a63d
000001d0: 73cf 6b3b 9063 093d 2709 773d de43 43bd
000001e0: bc44 1fbd dc24 07bd 8a13 02bd 9207 aa3c
000001f0: a6e6 633d 367e 86bb 64fd dbbc 0eca 01bd
00000200: 9c8b d6bc 7fe9 2dbb ee7d f5bc 6282 203d
00000210: f9ff 85bc 6016 a7bc 8ae9 b0bd cf2f 473d
00000220: 5f08 c03c 9a1f af3c 8e7e 813c ffc3 3cbd
00000230: c85b 58bd 176a b03c 1503 2abc 84d9 bd3c
00000240: 8174 f9bc 7ade 50bc a334 ba3b 29d4 e5bc
00000250: 8d5f 80bb 7a03 edbc a5f3 dfbc d422 453d
00000260: b683 d23d f814 a93b 3572 3c3d fd76 13bc
00000270: c367 213d d85a dfbd 7aa3 243c 299c 02bd
00000280: 5cfb 2dbd 3315 73bd bedd 08bc a514 72bc
00000290: ad03 49bd 1f46 fdbd 109d 81bc 8c8c 433d
000002a0: f21e 46bc 9828 723d 0461 803d f751 fbbb
000002b0: e819 7bbb 655e d8bc 2bf5 083c 6d71 28bd
000002c0: b113 03bc 1b2e 99bd 594a 31bd 36ae 483c
000002d0: d66e cd3b 3176 263e 096a 273d 5c7b 5ebd
000002e0: acb1 bc3d c3cb ef3c 928f 8ebc 762b 913d
000002f0: 4e8f d5bd 3ab8 92bd 3406 9dbd f26f 33bd
00000300: dd42 d4bc 8669 a2bc 67a6 5f3d e87c 9d39
00000310: a5c1 d73d 2360 bebc d99c abbb ac3a e03c
00000320: 2c66 cb3d a2e8 43bd 4ff5 ce3c 8f76 e03b
00000330: e1ae 253d fded 883d 553e a23c 24f1 063c
00000340: f1b9 873d ea0c 69bd d08f 913d c007 3e3d
00000350: 00c0 2f3c 81b1 1a3d d698 ba3d a48a dabd
00000360: 792f febc 2a3f 933c 4eb4 0ebc 00af 993b
00000370: f2ed 42bd 32fc debc d545 cfbc dd47 9cbd
00000380: 09aa 813c 5c33 e5bd 794a 543d 54f4 ae3c
00000390: e660 16be 47ee 8dbc 33ff 19bb 5160 0abd
000003a0: 8cff cd3d f151 30bd 77a2 00bd 5298 273d
000003b0: 1536 923d 0a75 a13b ac85 c83d d47d 64bb
000003c0: 9b73 5f3d 734e c63c aacb aa3c 403d fb3c
000003d0: b027 193c 5292 44bd 0310 24bd c169 b53c
000003e0: 6913 14bd ef19 c0bb ad76 22bd aff6 59bb
000003f0: 61c9 80bc fe3c a03d a0b0 56bd d41e a03c
0.030525982 -0.16063397 -0.0564544 0.046764337 0.042309098 -0.02539678 -0.056816448 -0.022322472
-0.03460811 0.042921193 0.005685548 0.029131765 0.0376781 0.0456352 0.043713704 -0.030740986
0.06148229 -0.1074543 0.0065148114 0.0094657745 -0.077689655 0.04352264 0.05163703 -0.045418017
-0.07316188 -0.032724638 -0.027520543 0.08862361 0.034052443 0.0011919354 -0.009020946 0.097787626
0.04155713 -0.044887472 0.05041494 -0.06293717 -0.011424002 -0.090221934 0.01769797 0.07270815
0.004046536 -0.11224576 -0.036109023 -0.019171799 -0.007022492 -0.07034024 -0.056636993 0.07288638
-0.06933157 0.024172723 0.0018584674 -0.00034919078 0.001383269 -0.019239888 -0.000107238346 0.04076095
-0.0034338662 -0.1255755 0.008229822 -0.009293643 0.017338865 -0.06322238 0.06391356 -0.010072544
0.07718962 -0.05479159 -0.022374246 0.020617256 -0.011619324 0.031790156 0.03034817 0.07424796
0.0012519418 -0.014914141 0.05010347 0.018872585 0.042918555 -0.057806652 0.0677935 -0.14082517
-0.0028426156 -0.0011814861 -0.031661388 -0.006928309 -0.0033419754 -0.01883396 -0.059457377 -0.024825303
-0.029477729 0.07386285 0.05358883 0.00705891 0.046884563 -0.12144414 -0.08104742 -0.03340546
-0.01133464 0.034098167 0.04302229 -0.029583197 0.045383956 -0.018890029 0.039108172 0.09155207
-0.0901029 0.039635893 -0.050062973 0.013890172 -0.031148748 -0.052883957 0.100141615 -0.07214388
-0.030536922 -0.032107327 0.010853131 0.08108545 0.0035981804 0.033542216 0.060311463 -0.047672145
-0.03888391 -0.032994136 -0.031756915 0.020755563 0.055639885 -0.004104401 -0.026854225 -0.031686835
-0.026189618 -0.002653688 -0.029967275 0.039186843 -0.016357409 -0.020396411 -0.08638294 0.04862958
0.023441492 0.021377373 0.015807416 -0.046085354 -0.052821904 0.021534963 -0.010376711 0.023175009
-0.030451061 -0.012748355 0.0056825443 -0.028055267 -0.0039176405 -0.028932322 -0.027337858 0.048128918
0.10279028 0.0051599704 0.046007354 -0.009000537 0.039405596 -0.10905999 0.0100487415 -0.031887207
-0.042476043 -0.05934639 -0.008353649 -0.01477543 -0.04907577 -0.1236689 -0.015821964 0.047741458
-0.012092339 0.059120744 0.06268504 -0.007669683 -0.0038315002 -0.026412198 0.008359234 -0.041123796
-0.0080003 -0.07479497 -0.043283794 0.012248566 0.006269316 0.16256024 0.040872607 -0.054316863
0.09213576 0.029271966 -0.017402444 0.07088368 -0.10427724 -0.07164045 -0.07667199 -0.04380793
-0.02591079 -0.019825708 0.054602053 0.00030038436 0.10534982 -0.023239201 -0.0052372036 0.027371727
0.09931597 -0.047829278 0.025263457 0.006850071 0.04044998 0.06686018 0.019805113 0.008236203
0.066272624 -0.05689708 0.07107508 0.04639411 0.010726929 0.037766937 0.091111824 -0.10670975
-0.031028496 0.017974455 -0.00870998 0.004690051 -0.047590204 -0.027219865 -0.025301853 -0.07630894
0.01582815 -0.11191437 0.051828835 0.02135674 -0.14685401 -0.017325534 -0.0023498058 -0.03378326
0.10058507 -0.043046895 -0.03140494 0.04091675 0.071392216 0.004927282 0.09791121 -0.0034865038
0.05455361 0.02420733 0.020849068 0.030668855 0.009347841 -0.047991104 -0.040054332 0.022145154
-0.036151323 -0.0058624665 -0.03966396 -0.0033258607 -0.015721025 0.07824133 -0.052414536 0.01954595

layer4.bias f4 [25]
00000000: e18b 21bd 673f 23bb 377d 00bc 8b6c 1c3d
00000010: 5be2 52bc 0f6b 10bd c8c7 c6bb 4f0e f43b
00000020: bc60 a93c ae49 be3b 6055 03bd 91c3 193c
00000030: 2e72 18bd 33c0 d6ba 4f0c 70bc a4f5 7abc
00000040: e992 4fbc 9381 b6bc 8e54 e7bc 4b2e eabc
00000050: 6a91 08bd dfa8 9dbc f646 b8bc db97 45bd
00000060: a703 23bc
-0.03944004 -0.0024909617 -0.007842354 0.038189452 -0.01287135 -0.03525835 -0.0060662962 0.007447995
0.02067601 0.005807123 -0.03206384 0.009385006 -0.037218265 -0.0016384184 -0.014651372 -0.015317354
-0.012669303 -0.022278583 -0.028238561 -0.028586527 -0.033341803 -0.019245563 -0.022494774 -0.048240524
-0.009949601

exp_avg f4 [25, 1, 3, 3]
00000000: 3a02 69c8 d6e1 8bc8 45c7 8ec8 eb1c 3ac8
00000010: 1eb8 66c8 aa04 6fc8 2992 c0c7 1825 09c8
00000020: c612 14c8 7e6d 2148 4a56 7048 4eb1 8748
00000030: 58fa 3548 0fb9 7a48 f311 8748 45f7 1a48
00000040: e991 5048 29c3 5a48 2965 8b47 8fc6 d247
00000050: bc0b dd47 b45a ba47 798e 1548 77c3 2a48
00000060: a680 b947 3a16 2548 fec9 4948 789b d9c7
00000070: e858 2ac8 205e 48c8 ecaf e5c7 b354 36c8
00000080: fd9e 55c8 809e 94c7 2667 0ac8 f2f3 2cc8
00000090: 905e a0c7 fdd6 f0c7 76b3 0bc8 a612 90c7
000000a0: 42b2 dbc7 24e8 fec7 c4cd 34c7 1d94 98c7
000000b0: 44f3 b8c7 e887 1948 e9bb 3b48 e57d 3f48
000000c0: 147c 3348 ce8e 5b48 fffd 5d48 c027 2348
000000d0: 84fb 4c48 54d1 4f48 5862 c9c7 2c04 04c8
000000e0: 9525 08c8 9861 afc7 9014 00c8 042b 10c8
000000f0: c62c 1dc7 c557 aec7 32d0 e2c7 c0be b847
00000100: b508 ae47 d7af 9147 c66e 9647 30bf 8c47
00000110: 48c4 6947 fc7b 4647 bef7 3847 92c1 1447
00000120: 2e20 e6c7 c832 10c8 4519 1ac8 0d74 93c7
00000130: a09a d1c7 85ab ebc7 5255 bdc6 8975 5cc7
00000140: 6208 96c7 6cd4 eb47 a52b 0f48 be0d f647
00000150: 30d2 ea47 eea8 1248 5eaa 0648 ffb0 9b47
00000160: b014 df47 9676 d947 7baf db47 02d7 4a48
00000170: 6656 8448 9f54 f947 1adb 5648 da79 8948
00000180: a875 c547 6a5b 3048 42ec 6548 13a1 d146
00000190: a2b2 8747 f4eb 9647 a43f 8e46 d776 8447
000001a0: 8449 a547 77cb 04c6 27e0 2f47 996d 8647
000001b0: 7914 81c8 fe84 aac8 4714 b2c8 8ffc 61c8
000001c0: d630 9ec8 9f8b a9c8 9265 0ec8 1c0c 65c8
000001d0: 00b1 81c8 e655 8b47 7a4e 7647 58ca 5547
000001e0: 9ca8 5347 f9c0 2847 066b ef46 2e40 a646
000001f0: fc65 e045 fc7b b4c5 1813 54c8 12e6 8ac8
00000200: c8cd 8fc8 b0cc 60c8 a3cf 94c8 d2f7 9bc8
00000210: e897 2ec8 fa5d 7ac8 e34f 87c8 254e 8847
00000220: 964c c347 b0bc d147 77ff e747 d56a 1048
00000230: d19a 0f48 0707 0848 06dc 2148 6616 1e48
00000240: 6a05 8248 8049 a148 d7ed a048 b4e0 6348
00000250: c491 9548 593b 9a48 22e4 0948 6b52 5148
00000260: 5cea 6648 e750 2c47 3a61 c547 1c17 fa47
00000270: 30f8 6047 77cc ee47 bc62 1a48 d4a0 1247
00000280: 85e7 d447 d3ee 1148 43f6 3747 5667 6247
00000290: 90d4 6b47 2e31 1b47 407c 6d47 49bd 8c47
000002a0: 4a3a 9a46 a09a 2b47 6dad 7847 ecf4 6747
000002b0: f5d1 eb47 1bf6 1248 9085 ff46 ec4a c247
000002c0: 7e4c 0548 4fc5 1ac6 8f6c 4f47 df4b b647
000002d0: 5a1d 46c8 212d 7fc8 b3b3 7cc8 8c89 2ec8
000002e0: b054 70c8 1811 76c8 6727 dcc7 2f04 2fc8
000002f0: 7ed0 40c8 e84a 92c4 0559 21c7 ccaf 6ac7
00000300: 9273 95c6 50eb 84c7 3a44 b7c7 5edb d5c6
00000310: 98db 9fc7 0274 ddc7 ab8f 01c8 3235 30c8
00000320: 1ad0 27c8 4f83 0cc8 2b5f 3bc8 04d5 33c8
00000330: 698e d5c7 6aaf 19c8 758c 14c8 3e56 37c8
00000340: c09f 73c8 51e5 85c8 0a05 2ac8 1b8e 65c8
00000350: cedd 7dc8 7e68 d6c7 c4b7 20c8 81a1 37c8
00000360: 04c2 8847 475c d147 0b82 fa47 f33b 8747
00000370: fe8f d847 96cc 0548 6000 3b47 e44f b447
00000380: cdc8 ee47
-238600.9 -286478.7 -292410.16 -190579.67 -236256.47 -244754.66 -98596.32 -140436.38
-151627.1 165301.97 246105.16 277898.44 186345.38 256740.23 276623.6 158685.08
213575.64 224012.64 71370.32 107917.12 113175.47 95413.41 153145.89 174861.86
94977.3 169048.9 206631.97 -111414.94 -174435.62 -205176.5 -117599.84 -186706.8
-218747.95 -76093.0 -141724.6 -177103.78 -82109.125 -123309.98 -143053.84 -73765.3
-112484.516 -130512.28 -46285.766 -78120.23 -94694.53 157215.62 192239.64 196087.58
183792.31 224827.22 227319.98 167071.0 209902.06 212805.31 -103108.69 -135184.69
-139414.33 -89795.19 -131154.25 -147628.06 -40236.773 -89263.54 -116128.39 94589.5
89105.414 74591.68 77021.55 72062.375 59844.28 50811.984 47351.742 38081.57
-117824.36 -147659.12 -157797.08 -75496.1 -107317.25 -120663.04 -24234.66 -56437.535
-76816.766 120744.84 146606.58 125979.484 120228.375 150179.72 137897.47 79713.99
114217.375 111341.17 112478.96 207708.03 271027.2 127657.24 220012.4 281550.8
101099.31 180589.66 235441.03 26832.537 69477.266 77271.91 18207.82 67821.68
84627.03 -8498.866 45024.152 68827.195 -264355.78 -349223.94 -364706.22 -231410.23
-323974.7 -347228.97 -145814.28 -234544.44 -265608.0 71339.8 63054.477 54730.344
54184.61 43200.973 30645.512 21280.09 7180.748 -5775.498 -217164.38 -284464.56
-294510.25 -230194.75 -304765.1 -319422.56 -178783.62 -256375.9 -277119.1 69788.29
99993.17 107385.375 118782.93 147883.33 147051.27 139292.11 165744.1 161881.6
266283.3 330316.0 329582.72 233346.81 306318.12 315866.78 141200.53 214345.67
236457.44 44112.902 101058.45 128046.22 57592.188 122264.93 158090.94 37536.83
109007.04 149435.3 47094.26 57959.336 60372.562 39729.18 60796.25 72058.57
19741.145 43930.625 63661.426 59380.92 120739.914 150488.42 32706.781 99477.84
136497.97 -9905.327 53100.56 93335.74 -202869.4 -261300.52 -258766.8 -178726.19
-246098.75 -251972.38 -112718.805 -179216.73 -197441.97 -1170.3408 -41305.02 -60079.797
-19129.785 -68054.625 -93832.45 -27373.684 -81847.19 -113384.016 -132670.67 -180436.78
-171840.4 -143885.23 -191868.67 -184148.06 -109340.82 -157373.66 -152113.83 -187736.97
-249471.0 -274218.53 -174100.16 -235064.42 -259959.22 -109776.984 -164575.06 -188038.02
70020.03 107192.555 128260.086 69239.9 110879.984 137010.34 47872.375 92319.78
122257.6

exp_avg_sq f4 [25, 1, 3, 3]
00000000: 01bd 8852 fa79 9252 0cfc 8752 252b 8952
00000010: d59b 9352 9a3d 8a52 63b6 6e52 4beb 8052
00000020: 239b 7352 f7a2 1152 4972 2252 4546 1b52
00000030: 17df f151 653f 0552 451d fb51 ea53 a351
00000040: d98e ae51 2ba3 a051 9988 b850 250c d850
00000050: 1008 d250 c9d9 f150 7d13 1c51 de49 2551
00000060: 0522 fa50 5147 2f51 86b0 4851 0356 0051
00000070: b70c 2f51 4813 4551 de2e 5951 1918 9151
00000080: 2f3b a051 0854 8f51 b0f8 b851 e324 c951
00000090: ae9f 3d51 2b7a 5051 63e9 4451 2943 4251
000000a0: c3dc 5751 f4f6 4d51 fccf 2c51 1809 4251
000000b0: 8031 3c51 6aae 0951 5093 0f51 c286 fd50
000000c0: a19f 1851 71f0 2451 822a 1351 c57c 0451
000000d0: 3763 1251 058b 0351 4425 a050 14f4 da50
000000e0: bedd eb50 6b4f 8b50 15e4 c950 fd23 e850
000000f0: 1070 3650 7c18 8c50 1863 ac50 3f03 eb50
00000100: b8e8 0851 412d 0951 cf30 f750 edd5 1251
00000110: b344 1451 9c13 f450 3167 1351 1c2a 1651
00000120: 6616 9a50 3b3f 9150 f7d1 8450 2231 b450
00000130: ca85 9850 99a4 7c50 98cd cd50 4e1b a150
00000140: c4a1 7450 9229 6351 5881 8051 8629 6c51
00000150: fadf 3451 a08d 4e51 cbb8 4151 c558 d450
00000160: fbf9 f550 5d01 ee50 fbf3 c151 70ed 2052
00000170: 4576 5252 9741 da51 9d9b 3352 54d2 6952
00000180: 57d6 c951 62d3 2352 635a 5452 8be6 8350
00000190: 54da 6050 d164 2c50 5c92 dc50 6893 ae50
000001a0: 4261 6450 41ff 1551 eb85 e650 651c 8d50
000001b0: 76b1 c052 4ab4 d452 6b20 c452 bbfd c252
000001c0: 6479 d952 3f2b cb52 38f3 a752 7cc8 bb52
000001d0: 9a8a b152 2f4b df51 f146 e551 e99c cb51
000001e0: 011b 1452 85d0 1c52 f934 0f52 83e7 2952
000001f0: 045c 3852 b18d 2c52 ff59 6552 49b1 5f52
00000200: 508d 3552 c14c 8052 dca4 7b52 0d0a 4e52
00000210: 545e 6d52 5126 6852 7e80 3e52 2f15 2152
00000220: e792 0a52 9930 cd51 e62a 3252 bdf3 1752
00000230: e7c8 dc51 9956 2b52 6704 1152 6bb4 d051
00000240: 7cf5 2352 8640 3f52 9ac1 3252 6c39 1552
00000250: e848 3252 6308 2b52 08d3 d551 bc00 0252
00000260: 6569 0052 a7c4 7450 ad35 9d50 f697 9f50
00000270: 50cb b850 ee4d e350 cd02 e650 1462 e450
00000280: 3bb2 0551 a385 0351 ace5 0252 a89b 1152
00000290: a842 0a52 bd84 0752 72bf 1952 f2b5 1452
000002a0: 9968 ed51 f4cc 0852 bff9 0652 9871 2551
000002b0: daa5 8951 7d4f b251 326c f550 3b19 5751
000002c0: 087f 9251 acd4 9e50 e02b 0c51 7c30 4751
000002d0: 97db f551 bc4c ff51 e7dc d651 d4b3 df51
000002e0: 3cdb e951 2c8b c751 6c25 ab51 9c7d b051
000002f0: cdb5 9851 44ef 8850 be30 a750 1d11 ba50
00000300: 58ca 8750 48fc 9f50 1dce ad50 6c05 7c50
00000310: f4d0 8e50 48d3 9750 4ce1 bb51 96b2 ae51
00000320: 1fce 9151 58a4 ce51 a18b b451 9408 8d51
00000330: 9ff8 bd51 b495 9b51 dd2e 6251 4f33 8551
00000340: a75c ad51 ef71 b551 4cc6 6d51 92bf 9651
00000350: f1ef 9a51 3b95 3251 f001 5651 f19d 5351
00000360: 5dc1 7651 c4aa 8651 12fb 8151 f226 7351
00000370: 3d57 8751 bb5b 8651 119a 4d51 97ac 6751
00000380: 2b78 6b51
2.9364326e+11 3.1455583e+11 2.920246e+11 2.9456718e+11 3.169873e+11 2.968695e+11 2.5631554e+11 2.768517e+11
2.6156995e+11 1.5637609e+11 1.7442552e+11 1.6672471e+11 1.2985374e+11 1.4307356e+11 1.3481598e+11 8.768594e+10
9.371511e+10 8.624153e+10 2.4767678e+10 2.8997396e+10 2.818995e+10 3.2460655e+10 4.1896366e+10 4.4369306e+10
3.3572268e+10 4.7050985e+10 5.387219e+10 3.444993e+10 4.6989537e+10 5.2902003e+10 5.8299638e+10 7.789682e+10
8.602346e+10 7.694877e+10 9.930578e+10 1.0798841e+11 5.0901737e+10 5.5962677e+10 5.2858073e+10 5.21469e+10
5.794511e+10 5.5288218e+10 4.6388986e+10 5.2086014e+10 5.051777e+10 3.6958544e+10 3.854074e+10 3.4027737e+10
4.0969572e+10 4.4275536e+10 3.9504585e+10 3.556431e+10 3.929561e+10 3.5310817e+10 2.1494374e+10 2.9387432e+10
3.1657423e+10 1.8697902e+10 2.7097344e+10 3.1157381e+10 1.224319e+10 1.8803319e+10 2.3137403e+10 3.1542868e+10
3.6751245e+10 3.682311e+10 3.3177369e+10 3.9415894e+10 3.9800484e+10 3.2759407e+10 3.9568216e+10 4.0309473e+10
2.0681273e+10 1.9494722e+10 1.7826822e+10 2.418495e+10 2.0471239e+10 1.6954582e+10 2.7622425e+10 2.162337e+10
1.6416969e+10 6.097844e+10 6.899073e+10 6.339431e+10 4.855324e+10 5.544621e+10 5.2001812e+10 2.85007e+10
3.3014405e+10 3.1944534e+10 1.0412775e+11 1.7279458e+11 2.2598184e+11 1.1717541e+11 1.9285248e+11 2.5106403e+11
1.0836056e+11 1.7590652e+11 2.2801238e+11 1.7703393e+10 1.5089619e+10 1.1569153e+10 2.9604635e+10 2.3431168e+10
1.5326317e+10 4.0264536e+10 3.094029e+10 1.8939587e+10 4.138055e+11 4.567789e+11 4.2117874e+11 4.1874027e+11
4.6702225e+11 4.3630196e+11 3.6067004e+11 4.0326123e+11 3.8126728e+11 1.19879885e+11 1.2309221e+11 1.0931386e+11
1.5902705e+11 1.6837832e+11 1.5376726e+11 1.824334e+11 1.9795444e+11 1.8527789e+11 2.4626435e+11 2.4018801e+11
1.9493998e+11 2.7552177e+11 2.7020067e+11 2.2123297e+11 2.5487245e+11 2.4926881e+11 2.0454988e+11 1.7296128e+11
1.4879252e+11 1.1016045e+11 1.9130597e+11 1.6315733e+11 1.1853292e+11 1.8397307e+11 1.5571103e+11 1.1204751e+11
1.7604955e+11 2.0535532e+11 1.9193807e+11 1.6022838e+11 1.9143184e+11 1.8364503e+11 1.1479607e+11 1.3958952e+11
1.3788101e+11 1.6426114e+10 2.1100325e+10 2.142029e+10 2.4802656e+10 3.0508282e+10 3.0871546e+10 3.0653063e+10
3.5888804e+10 3.5305173e+10 1.4054975e+11 1.5634543e+11 1.4845595e+11 1.4551189e+11 1.6508548e+11 1.5967692e+11
1.2745776e+11 1.4688852e+11 1.4492892e+11 4.441096e+10 7.389913e+10 9.572972e+10 3.2940069e+10 5.774008e+10
7.864956e+10 2.1317902e+10 3.762697e+10 5.3469495e+10 1.3199389e+11 1.3706301e+11 1.1535364e+11 1.2009934e+11
1.2555069e+11 1.0712918e+11 9.1883405e+10 9.47527e+10 8.198564e+10 1.8379055e+10 2.2439916e+10 2.497347e+10
1.822548e+10 2.1472887e+10 2.332773e+10 1.6912855e+10 1.916847e+10 2.037765e+10 1.0086734e+11 9.379006e+10
7.827855e+10 1.1094006e+11 9.692959e+10 7.571679e+10 1.0199e+11 8.352894e+10 6.0715553e+10 7.151143e+10
9.307297e+10 9.741257e+10 6.3827132e+10 8.093239e+10 8.318131e+10 4.793799e+10 5.744722e+10 5.6805495e+10
6.623788e+10 7.229882e+10 6.978288e+10 6.5270653e+10 7.2660525e+10 7.2133075e+10 5.519082e+10 6.2189564e+10
6.3208337e+10

exp_avg f4 [25]
00000000: 1a2d f745 6e0f bf47 6af1 bbc7 de86 21c6
00000010: 477d 8447 19c8 13c7 4037 6347 ec1c 00c7
00000020: cae1 ae46 105a 09c4 2f6a 9a47 ca07 dd46
00000030: fd3c bb46 3074 16c7 1883 b747 841a aa47
00000040: c03f 88c6 99fd 64c7 f643 dec6 cce2 07c7
00000050: b22d a647 3015 9243 54e4 7e47 7a6b 3d47
00000060: 085c 6046
7909.6377 97822.86 -96226.83 -10337.717 67834.555 -37832.098 58167.25 -32796.92
22384.895 -549.4072 79060.37 28291.895 23966.494 -38516.188 93958.19 87093.03
-17439.875 -58621.598 -28449.98 -34786.797 85083.39 292.16553 65252.33 48491.477
14359.008

exp_avg_sq f4 [25]
00000000: cbba e74f 95ba 7051 ff4f 0e51 1572 3451
00000010: 2ba4 f84f 27ce 6151 0992 1750 7cd2 5850
00000020: 3c4b 4f4f 0b0a c64f fe31 0950 ffad a751
00000030: 2598 2450 ce41 b34f 19de a050 6521 b64f
00000040: b8f0 7e50 a1a4 a14f 8cba 6e4f 6915 0b50
00000050: cd15 7950 c31b 9e4f c7ec c950 c1ae b34f
00000060: 10d0 7750
7.775557e+09 6.4620155e+10 3.8201717e+10 4.8438006e+10 8.343017e+09 6.0614144e+10 1.0171721e+10 1.4550692e+10
3.4778143e+09 6.645094e+09 9.20702e+09 9.002234e+10 1.1045737e+10 6.0148685e+09 2.159128e+10 6.1112837e+09
1.7108754e+10 5.423842e+09 4.005203e+09 9.333745e+09 1.6715822e+10 5.305239e+09 2.7101903e+10 6.0291487e+09
1.6630432e+10

exp_avg f4 [50, 25, 3, 3]
00000000: 734a 9ac6 12ca 16c6 5bad 6145 32f5 74c6
00000010: 4fcc 6bc5 e935 2746 8701 3ec6 58a2 b143
00000020: 888b 6646 3f76 e4c6 321a 36c7 bde5 52c7
00000030: c83f e1c6 fa5c 2ec7 9476 45c7 21b5 bfc6
00000040: 5261 12c7 2e52 22c7 96eb 9f45 e624 0dc6
00000050: 5ece 63c6 52e0 3a45 6a64 20c6 1d13 5fc6
00000060: 1a8c 9744 25f0 1bc6 3a15 3dc6 a2ec 2447
00000070: c425 8c47 b468 b047 3cbd 3547 bc36 9347
00000080: 42b6 b547 a8dd 2847 bf11 8647 3c80 a347
00000090: 8c50 c7c5 f01a 3d46 75ed cd46 7705 c3c5
000000a0: 009a 3246 16ce c346 6591 d0c5 864b 0646
000000b0: ffac 9b46 2472 8745 1799 afc6 c483 48c7
000000c0: 4402 43c5 9344 f4c6 56bc 6bc7 4453 c3c5
000000d0: 308f 00c7 76ef 68c7 523f 6d46 32d2 e646
000000e0: 948b 2347 2cdc 6146 07f8 d046 90dc 0f47
000000f0: 0b8e 4546 d2a0 a946 462c e446 ec6f 6dc6
00000100: 7309 5cc6 232e a6c6 d257 64c6 1666 49c6
00000110: 5299 9cc6 5cb7 3fc6 a814 19c6 64ec 7ec6
00000120: 86a9 b4c6 a3df 59c5 8abc 6a46 849e 8bc6
00000130: 8605 5645 aeda b346 5e76 5bc6 e61d d945
00000140: f27c c746 442f 0b45 06bf e5c5 e236 78c6
00000150: cd86 1145 0ce2 b7c5 4620 4ac6 0201 0245
00000160: 8e29 78c5 b088 0cc6 2ca9 fdc5 c66d 46c6
00000170: 903b 9bc6 aa36 d9c5 70ca 25c6 5243 87c6
00000180: 2318 a2c5 cb3d f1c5 1213 54c6 349a c9c6
00000190: dbef d7c6 37d1 dcc6 95f4 c9c6 e202 d8c6
000001a0: 16e7 dfc6 d05d b7c6 d004 c5c6 8c6b d3c6
000001b0: 9b1a 9e46 1c97 4647 2044 9447 e016 b946
000001c0: ea69 4f47 0ad0 9547 ce34 b146 d2b4 3b47
000001d0: cc71 8447 a040 0546 a018 1ec6 7f17 0cc7
000001e0: 32cf ba45 efbb 4cc6 b813 19c7 66e9 8f45
000001f0: 60fc 4ec6 dc87 11c7 45b1 1746 44e9 1147
00000200: 7134 4d47 764b 7c46 2a85 2b47 8ddb 6247
00000210: e891 8646 9cc6 2547 f4e1 5247 94d2 1cc7
00000220: 86c1 1bc7 e958 00c7 e27d 0ac7 2a2b ffc6
00000230: 2384 bfc6 d2fa dfc6 6ae2 bbc6 5470 6ec6
00000240: 5adc 6a44 fc33 3cc6 92fd b5c6 6d52 1ec5
00000250: 6a10 7fc6 ec1c ddc6 6d03 67c5 b48c 85c6
00000260: 2ea8 dec6 5070 1fc5 4dff 8dc6 a65d dcc6
00000270: def8 c0c5 d4d9 aec6 8cef f9c6 212f ecc5
00000280: b80e b0c6 65b4 f5c6 c4b6 d0c5 5105 1bc5
00000290: daab bfc5 de68 dbc5 5ee3 29c5 4440 d5c5
000002a0: 1d4c dec5 badc 46c5 bf8c e6c5 f24a e045
000002b0: 795d f3c5 4f9f 85c6 f0a7 fe45 465c c5c5
000002c0: 2c38 74c6 be64 0a46 1973 62c5 8ccf 35c6
000002d0: 9ea9 0c46 42c6 2b47 300b 8047 7ede 4e46
000002e0: ec7f 3847 8aab 8347 261b 5246 0bb7 2947
000002f0: 9a91 6b47 c4d6 cc46 4cc4 b846 26e3 a446
00000300: 26ea cd46 6cd3 b446 867b 9d46 bed7 b446
00000310: c6a8 9746 b8dc 7e46 7482 0d45 0ca6 ed46
00000320: 0b7f 4447 1f74 dc45 c1bd 0947 56c3 5447
00000330: 814e fe45 9add 0247 368b 4347 2682 4146
00000340: 8076 bc46 d458 f846 3056 1e46 f0a0 a146
00000350: 78c1 d746 c7ac d045 9ab4 6646 4015 9e46
00000360: 7ad7 99c5 5c4f 53c6 c29a d9c6 aab2 71c5
00000370: 7208 21c6 4c47 b1c6 d0cf 77c5 2f11 fbc5
00000380: f869 8bc6 d292 6ec6 0c7e 75c6 b2a4 50c6
00000390: 5b31 9dc6 c2e9 97c6 440d 6bc6 2838 91c6
000003a0: 3016 80c6 653c 27c6 3875 c546 ea24 3b46
000003b0: 4a8b 8fc5 e8fb 8d46 7cc8 8545 66f7 45c6
000003c0: b0e9 8646 9b0d 7f45 73de 3cc6 4ae1 d244
000003d0: d1a8 f3c5 84de 70c6 f23f c245 8816 89c5
000003e0: 3fee 46c6 c636 3244 e0ec 1bc6 cb9f 8cc6
000003f0: 240d 3ec7 76fa d1c6 b673 0645 ae12 23c7
-19749.225 -9650.518 3610.8347 -15677.299 -3772.7693 10701.478 -12160.382 355.2683
14754.883 -29243.123 -46618.195 -53989.74 -28831.89 -44636.977 -50550.58 -24538.564
-37473.32 -41554.18 5117.448 -9033.225 -14579.592 2990.02 -10265.104 -14276.778
1212.3782 -9980.036 -12101.307 42220.633 71755.53 90321.41 46525.234 75373.47
93036.516 43229.656 68643.49 83712.47 -6378.0684 12102.734 26358.729 -6240.683
11430.5 25063.043 -6674.1743 8594.881 19926.498 4334.2676 -22476.545 -51331.766
-3120.1416 -31266.287 -60348.336 -6250.408 -32911.188 -59631.46 15183.83 29545.098
41867.58 14455.043 26748.014 36828.562 12643.511 21712.41 29206.137 -15195.98
-14082.362 -21271.068 -14613.955 -12889.521 -20044.66 -12269.84 -9797.164 -16315.098
-23124.762 -3485.9773 15023.135 -17871.258 3424.3452 23021.34 -14045.592 6947.7373
25534.473 2226.954 -7351.878 -15885.721 2328.425 -5884.256 -12936.068 2080.063
-3970.5972 -8994.172 -8117.1465 -12699.443 -19869.781 -6950.833 -10610.609 -17313.66
-5187.017 -7719.724 -13572.768 -25805.102 -27639.928 -28264.607 -25850.291 -27649.441
-28659.543 -23470.906 -25218.406 -27061.773 20237.303 50839.11 75912.25 23691.438
53097.914 76704.08 22682.402 48052.82 67811.59 8528.156 -10118.156 -35863.496
5977.8994 -13102.983 -39187.72 4605.175 -13247.094 -37255.86 9708.317 37353.266
52532.44 16146.865 43909.164 58075.55 17224.953 42438.61 53985.953 -40146.58
-39873.523 -32856.91 -35453.883 -32661.582 -24514.068 -28669.41 -24049.207 -15260.082
939.443 -12044.996 -23294.785 -2533.1516 -16324.104 -28302.46 -3696.214 -17094.352
-28500.09 -2551.0195 -18175.65 -28206.824 -6175.1084 -22380.914 -31991.773 -7557.891
-22535.36 -31450.197 -6678.8457 -2480.3323 -6133.4814 -7021.1084 -2718.2104 -6824.033
-7113.514 -3181.7954 -7377.5933 7177.368 -7787.684 -17103.654 8148.992 -6315.534
-15630.043 8857.186 -3623.1936 -11635.887 9002.404 43974.258 65558.375 13239.623
47231.92 67415.08 13446.787 43447.043 60305.6 26219.383 23650.148 21105.574
26357.074 23145.71 20157.762 23147.871 19412.387 16311.18 2264.1533 30419.023
50303.043 7054.515 35261.754 54467.336 8137.813 33501.6 50059.21 12384.537
24123.25 31788.414 10133.547 20688.469 27616.734 6677.597 14765.15 20234.625
-4922.9346 -13523.84 -27853.379 -3867.1665 -10306.111 -22691.648 -3964.9883 -8034.148
-17844.984 -15268.705 -15711.512 -13353.174 -20120.678 -19444.879 -15043.316 -18588.078
-16395.094 -10703.099 25274.61 11977.229 -4593.411 18173.953 4281.0605 -12669.85
17268.844 4080.8503 -12087.612 1687.0403 -7797.102 -15415.629 6215.993 -4386.8164
-12731.562 712.85583 -9979.219 -17999.896 -48653.14 -26877.23 2151.232 -41746.68

exp_avg_sq f4 [50, 25, 3, 3]
00000000: aac1 d94c eb64 464c 416c ce4c 311e 944c
00000010: 62e4 a14c 479e 6d4d ddbf 8d4c 8fb9 0c4d
00000020: 3395 b44d 7534 074f 05cb 344f 685a 3e4f
00000030: 2765 054f 1837 2c4f 4e17 304f 022f e64e
00000040: 11cb 0d4f 8723 0c4f 35f0 3d4c 89c8 994c
00000050: f458 fb4c 9c04 514c d334 c34c 987b 094d
00000060: 146d 484c 34d0 b34c 9f8f dc4c 1fe0 eb4f
00000070: d9ef 2050 50e0 3550 afe5 0350 0682 2f50
00000080: c7ce 4250 6980 ff4f 7a60 2450 f334 3250
00000090: cbd1 914d e585 174e f36c 7b4e b73e 9d4d
000000a0: f83f 1a4e 38db 774e a30e 944d 83a5 044e
000000b0: d219 4a4e a6f6 cf4e 79f6 3b4f a1b0 924f
000000c0: cd84 0b4f 2eaa 734f 7c38 b64f 2620 204f
000000d0: c540 844f 7f59 bc4f 7005 a84e fe85 f24e
000000e0: 1962 164f fd26 a24e 9e49 de4e 24fb 034f
000000f0: 7a6e 8b4e 37f3 b24e ef79 ca4e f0ee 124e
00000100: bc03 1b4e 4e83 3d4e 49f9 084e a5b1 0c4e
00000110: 3f9d 2c4e 8e79 ed4d 6b38 ed4d 5694 0f4e
00000120: 995b 804d eb7e aa4d 9326 314e 2ff0 8f4d
00000130: 91f9 064e 328b 874e fe81 aa4d d7e9 2a4e
00000140: a269 9e4e d0e7 804c c740 134d 83cc 844d
00000150: e8ff 654c 417f ed4c 6e80 4a4d bba5 384c
00000160: 72c6 a54c df8f 014d 585f aa4d 680c e24d
00000170: 0b3b 124e 32f2 954d 2377 c14d d281 f94d
00000180: 8a91 754d 334b 984d 3ecc c14d a704 924e
00000190: b07b 954e 4330 874e 0021 944e f440 984e
000001a0: 9ad1 8b4e 7414 884e bd5c 8c4e ca41 844e
000001b0: ea14 8e4f c4bd d94f b74f 0b50 2c2b 9e4f
000001c0: af7b e94f 923f 1150 0389 9a4f 631f d94f
000001d0: d321 0250 07cd a24e e396 0e4f a9c6 624f
000001e0: 53ba bd4e f588 224f 47e6 7c4f 8aee c64e
000001f0: 5864 234f a3d5 744f 0ca9 c94e 0ddb 2b4f
00000200: 24c8 5a4f 5133 044f 4bc8 554f fe4e 824f
00000210: 3d18 0e4f 7100 584f 808b 7b4f 0b99 c04e
00000220: ab90 a84e ce47 644e 7437 9b4e 3bc7 754e
00000230: 1029 134e 2b1d 584e c2f0 184e d47e 9b4d
00000240: c9d2 684d c884 e14d 66b7 2e4e 09b3 a64d
00000250: 7ddd 1b4e 63fd 694e 3b1f c74d f3c1 2f4e
00000260: e56b 7d4e acbf c44d f048 304e 9609 704e
00000270: 3e5c 074e 083c 684e de24 974e 0614 174e
00000280: d8d7 744e 163d 9a4e 8d66 094d ac39 ee4c
00000290: 9b69 154d da19 054d d859 e54c 6c8b 164d
000002a0: 5194 004d 7f34 df4c 1d4c 164d fbee c04c
000002b0: 3a32 4d4d a6e7 b44d 6ae7 d34c 5f80 4c4d
000002c0: 5b87 b14d c55e c64c 5e5f 264d e2da 8a4d
000002d0: 8a87 394f 4353 9b4f 070b ca4f 7d43 5d4f
000002e0: 8c9d b04f 25c8 dd4f 848d 5d4f df54 a74f
000002f0: 9f19 ca4f 93a2 0f4e dfd1 e74d 6d1a ab4d
00000300: 6a83 094e d590 d44d 1ee3 964d 384d e64d
00000310: 8fb6 a94d f6ef 664d c27d cc4e ef05 334f
00000320: b251 774f 694a 004f 2ad8 564f d9cb 8e4f
00000330: 344c 074f d36b 554f 81cf 874f d5ca 0e4e
00000340: d66f 544e 5c29 804e 4951 fc4d 6a59 354e
00000350: b342 574e b7e2 c24d 4c8e 034e 6e4b 174e
00000360: c352 144e eb65 5e4e 5205 a44e b223 004e
00000370: 8046 364e 21dc 824e 25f7 d54d 7228 0e4e
00000380: 83cd 434e cca3 a34e 9351 8c4e d2e9 4b4e
00000390: 0112 a84e 410d 824e 17f4 214e 7399 8f4e
000003a0: 1018 454e 67ad d14d 4e8e 7a4e 1d6c 4d4e
000003b0: ac67 5f4e 62c3 884e 9012 874e 1714 9c4e
000003c0: 6f45 974e 1ad0 9a4e 4b38 a84e e650 974e
000003d0: 889f 594e 7dbf 304e f061 774e 53c8 274e
000003e0: bc71 074e 2a2b 464e 95e9 0f4e 4d7a 004e
000003f0: 79ba 9d4f 8443 3a4f 6cee 044f b102 9c4f
1.1416712e+08 5.2007852e+07 1.0822503e+08 7.7656456e+07 8.48781e+07 2.4916082e+08 7.4317544e+07 1.4756069e+08
3.787096e+08 2.268362e+09 3.033204e+09 3.193596e+09 2.2379988e+09 2.8892918e+09 2.9543173e+09 1.9309202e+09
2.3788956e+09 2.3511386e+09 4.9791188e+07 8.062676e+07 1.3177846e+08 5.4792816e+07 1.02344344e+08 1.4416115e+08
5.2540496e+07 9.427395e+07 1.15637496e+08 7.9146675e+09 1.0800293e+10 1.2205507e+10 8.851471e+09 1.1778136e+10
1.3073325e+10 8.573211e+09 1.1031144e+10 1.1959258e+10 3.0580566e+08 6.3553363e+08 1.0545553e+09 3.2976662e+08
6.469709e+08 1.0395848e+09 3.104984e+08 5.563599e+08 8.4767245e+08 1.744524e+09 3.1534922e+09 4.922098e+09
2.3407363e+09 4.0880164e+09 6.11431e+09 2.6864614e+09 4.4376745e+09 6.3199636e+09 1.4094643e+09 2.0344338e+09
2.5230113e+09 1.3602321e+09 1.8646833e+09 2.214274e+09 1.1696366e+09 1.5011419e+09 1.6984943e+09 6.1628314e+08
6.501783e+08 7.9487475e+08 5.7450963e+08 5.901131e+08 7.239966e+08 4.980208e+08 4.974872e+08 6.022158e+08
2.6918582e+08 3.5755555e+08 7.430238e+08 3.0186032e+08 5.6612563e+08 1.1370232e+09 3.5758074e+08 7.168629e+08
1.3288614e+09 6.758362e+07 1.54406e+08 2.7849942e+08 6.0293024e+07 1.2451687e+08 2.123384e+08 4.8404204e+07
8.691394e+07 1.358556e+08 3.572969e+08 4.74058e+08 6.1333574e+08 3.144597e+08 4.057263e+08 5.2325434e+08
2.5749725e+08 3.1938314e+08 4.064235e+08 1.2248892e+09 1.2539556e+09 1.1340435e+09 1.2425953e+09 1.2771968e+09
1.1728847e+09 1.1415209e+09 1.177444e+09 1.109452e+09 4.7674706e+09 7.3061847e+09 9.349029e+09 5.307259e+09
7.834394e+09 9.74745e+09 5.185341e+09 7.2854257e+09 8.733019e+09 1.3656728e+09 2.3922532e+09 3.8046702e+09
1.5915524e+09 2.7268846e+09 4.24295e+09 1.6687608e+09 2.7412623e+09 4.1076416e+09 1.6916495e+09 2.8832596e+09
3.6705495e+09 2.2179556e+09 3.5866734e+09 4.37243e+09 2.3839532e+09 3.6239076e+09 4.2202235e+09 1.6156276e+09
1.4140266e+09 9.5747776e+08 1.3020513e+09 1.0308687e+09 6.1723546e+08 9.0644755e+08 6.414788e+08 3.2609754e+08
2.4413301e+08 4.7294694e+08 7.328137e+08 3.495939e+08 6.53746e+08 9.814243e+08 4.175891e+08 7.3718086e+08
1.06292666e+09 4.1261197e+08 7.393925e+08 1.00679e+09 5.6774234e+08 9.740621e+08 1.2678879e+09 6.33668e+08
1.02694656e+09 1.2938473e+09 1.4407496e+08 1.2489866e+08 1.5667038e+08 1.395665e+08 1.2024595e+08 1.5785747e+08
1.3482523e+08 1.17023736e+08 1.5759816e+08 1.0115273e+08 2.151638e+08 3.7938502e+08 1.110987e+08 2.1443531e+08
3.7230474e+08 1.0400311e+08 1.7445424e+08 2.9120006e+08 3.1126676e+09 5.21185e+09 6.7794406e+09 3.7121876e+09
5.92623e+09 7.441763e+09 3.717039e+09 5.6147144e+09 6.7813535e+09 6.024491e+08 4.8616138e+08 3.5882947e+08
5.7677274e+08 4.457827e+08 3.1643334e+08 4.8297754e+08 3.559142e+08 2.4215536e+08 1.7153969e+09 3.0035105e+09
4.1493263e+09 2.1523602e+09 3.6044908e+09 4.791448e+09 2.2699182e+09 3.5806134e+09 4.5570463e+09 5.9891437e+08
8.910248e+08 1.0750971e+09 5.291482e+08 7.60634e+08 9.0286816e+08 4.0870474e+08 5.517852e+08 6.3457574e+08
6.2211296e+08 9.328053e+08 1.375906e+09 5.3745574e+08 7.645184e+08 1.0977322e+09 4.4871798e+08 5.962538e+08
8.212564e+08 1.3727104e+09 1.1770781e+09 8.552746e+08 1.4098761e+09 1.0909533e+09 6.792821e+08 1.2045992e+09
8.266721e+08 4.3972528e+08 1.0509075e+09 8.6160365e+08 9.3702835e+08 1.147253e+09 1.1330703e+09 1.3092812e+09
1.268955e+09 1.2986647e+09 1.4111308e+09 1.2693307e+09 9.127777e+08 7.4133485e+08 1.0375977e+09 7.037309e+08
5.6809446e+08 8.311794e+08 6.036125e+08 5.388747e+08 5.292487e+09 3.124987e+09 2.2302177e+09 5.234844e+09

exp_avg f4 [50]
00000000: 3ac6 04c7 686f 5347 5930 4dc7 1db4 88c5
00000010: e75b 35c7 cc1e 17c7 f42c 1a47 c480 dbc5
00000020: 2d14 0047 160d 20c6 f87a 32c7 a384 9e46
00000030: 1c5a 0846 3c37 a6c7 e8ec dec6 4db7 4ac7
00000040: 4cc3 5b45 885b 0cc8 0c6e 1dc7 28bd 2147
00000050: aafb bb46 46bf 69c7 7ed9 33c7 4817 3ac7
00000060: 0ce0 7cc6 4ecc f0c6 b8bb bdc5 ef09 6346
00000070: 2c2a 1ac7 55c9 23c7 48dc c0c6 e5a9 80c7
00000080: 8665 d4c6 11dc afc7 20d7 25c6 68a5 e246
00000090: be73 abc6 a170 6fc7 098a 33c5 0d79 2e46
000000a0: 1845 31c7 b0c3 fdc6 2c45 45c6 dc91 9e46
000000b0: ae1b 5ec6 19bb 88c6 4746 b9c6 f971 4cc7
000000c0: 073f 7cc7 e235 04c5
-33990.227 54127.406 -52528.348 -4374.514 -46427.902 -38686.797 39468.953 -7024.0957
32788.176 -10243.271 -45690.97 20290.318 8726.527 -85102.47 -28534.453 -51895.3
3516.206 -143726.12 -40302.047 41405.156 24061.832 -59839.273 -46041.492 -47639.28
-16184.012 -30822.152 -6071.465 14530.483 -39466.17 -41929.332 -24686.14 -65875.79
-27186.762 -90040.13 -10613.781 29010.703 -21945.871 -61296.63 -2872.6272 11166.263
-45381.094 -32481.844 -12625.293 20296.93 -14214.92 -17501.549 -23715.139 -52337.973
-64575.027 -2115.3677

exp_avg_sq f4 [50]
00000000: e3d4 8b4f b121 1a50 0e89 0a4f c195 da4d
00000010: 97b5 a450 8ac4 6851 0c1c 8451 f47f 134f
00000020: c137 2251 4024 734f 2484 1c4f f5ed 4a4f
00000030: 8a4a 5a4f 344c be4f 6a2c c550 9090 0050
00000040: 30c0 c24e 8696 cf50 e603 914f dcc9 6950
00000050: b466 7a4f afce b050 2a46 4951 d90b 5350
00000060: b6d4 e94f 8df4 954f aa57 0f50 722d 3451
00000070: 8ba8 8c50 1da6 714f 8ba9 334f 8af6 ef4e
00000080: 647a 2e50 3a9c b54f ce4f 2f50 9602 9b4e
00000090: b968 2650 4201 f04e afd7 1850 6bd7 3750
000000a0: d381 134f 0678 5950 be8e ae4f 57a0 b54e
000000b0: 2189 1e4e a959 674e 8be8 3c50 07e4 3d50
000000c0: d971 814f 6271 d14f
4.6919695e+09 1.0343597e+10 2.3242378e+09 4.5840592e+08 2.2106913e+10 6.248311e+10 7.092578e+10 2.4746363e+09
4.3545006e+10 4.0792392e+09 2.6259057e+09 3.4045924e+09 3.662318e+09 6.38533e+09 2.6464178e+10 8.627831e+09
1.6336876e+09 2.7861987e+10 4.8659036e+09 1.5689282e+10 4.2010348e+09 2.3730682e+10 5.40291e+10 1.4163076e+10
7.846063e+09 5.031664e+09 9.619548e+09 4.8366035e+10 1.8878847e+10 4.0541955e+09 3.0142328e+09 2.0129559e+09
1.1709026e+10 6.093829e+09 1.1764972e+10 1.300319e+09 1.1167524e+10 2.0133071e+09 1.0257087e+10 1.2337393e+10
2.474759e+09 1.4594087e+10 5.8571807e+09 1.5235921e+09 6.6494675e+08 9.703532e+08 1.2677426e+10 1.2743351e+10
4.343444e+09 7.0277376e+09
