models/100/sigma0.01_step0.0002_lr0.0005/ckpt/model_epoch_700.pth (torch, 282369 bytes, 18 tensors)

layer1.weight f4 [25, 1, 3, 3]
00000000: 2503 6fbd ddc9 a53b 7812 3d3e 45ec 9a3d
00000010: 1b65 ee3d ff66 a33d b955 a8bc 5ac2 4fbd
00000020: 60ff 80bd 0c59 02be 9fd1 1d3d 47cf a13d
00000030: 3c36 a13d bc8e 2ebe 0ec4 34be 4718 1a3e
00000040: c5f3 8b3d 7f84 39bd ea16 c3bc 82df 25bd
00000050: 9335 563e 5bce bb3c 2c28 643e 35fa 92bb
00000060: a41c 4a3d f4c2 283e 2ab2 873b d437 bebd
00000070: 3c29 27bd 148a 54be 6ec6 12be 8fac 8bbb
00000080: a60f 603d 6462 01bd a946 f6ba e000 893d
00000090: 0bb8 e03d bd37 8d3c 0e37 5d3d ed89 c3bd
000000a0: b99a 07bc b978 28bd 4939 d03c 06b4 1a3e
000000b0: b249 0a3e ac70 a4bd 2798 1e3d 5fff cdbd
000000c0: cd72 9a3d 4918 903d 6f9c 1c3d 8cea ae3d
000000d0: c199 f33d e521 a33d f5c5 17bc b782 5c3e
000000e0: c764 b8bc cfce ce3b 1cb3 a33d 0ad4 d6bd
000000f0: 70dd 4e3e 0ac2 c13d b018 18bc 9ba1 013d
00000100: cf61 8e3d 3f76 e4bc eb98 7a3d 4a3f 44bd
00000110: dc04 0b3d 82df 93bc f1ea 003e bfc4 26bc
00000120: c8f3 453e 14c7 8bbd e3ff 193d 702f 7f3e
00000130: b550 383e 21e3 383e a1b0 febc 1070 b9bd
00000140: 827d 773e 2d4a 05be e296 65bc bf66 c2bd
00000150: b4a5 b53d 47dc 6e3d b8c0 02be dd05 023e
00000160: 569f 1f3c 2758 cd3d 7999 e6bd 7b83 223e
00000170: 45ad fe3c 0f87 d6bd 5f3a f5bd 44a5 bfbd
00000180: ec19 1b3d 9edb eb3d 9d35 1d3d 6fea 903d
00000190: dbd0 e93d 4aa0 1ebd 6c03 973d 0543 d33d
000001a0: 35bd 353d 3353 1bbd d8da a93d b987 8f3d
000001b0: 57ee eb3d 3988 31bb 35b0 d53c 98ff 0b3d
000001c0: f262 f73d f0c9 27be f0ee bdbc 4b4c 223d
000001d0: 5250 d73c 1ca3 163d 71b9 b43d 2763 373c
000001e0: ad8b c1bd 474d 323d a7ce c83d ddef 103d
000001f0: fbde 073d 81f3 5cbd f4ff d7bc 3350 b1bd
00000200: 7def 323d 03be b33d c8e0 aa3d 1ba6 bebd
00000210: 37dd ad3d 0025 8a3c ff02 333c bcfa b93d
00000220: e8a3 83ba df55 503d 4121 883c 918d 27bd
00000230: 9451 08bd 0f7f 91bd 6c15 283d 1af2 d03d
00000240: e9e3 093e 1e8e 9a3d 1e32 e5bc ceb7 5abc
00000250: 2c2a 16bd 8435 053e 4d15 203c 1a32 06be
00000260: e1df 93bd 9a3c a3bd 29cb 42bb 70aa 583d
00000270: bc29 0a3e 6439 d1bd 2e79 4b3d 74f9 933c
00000280: 4d7c a1bd c6de a3bd d94e 4a3c 57c6 aebd
00000290: 2514 e5bc 2cfe 52bd 1fd6 193d 19f7 fd3d
000002a0: 7f4d 853c 1ebd eebc b364 213d f3d5 32bd
000002b0: e256 21bd 012f e2bc 3923 48be f10e 48bd
000002c0: a515 29bd 46a4 cbbd 27ef fabd 29f5 1abe
000002d0: 8f74 2e3d 4891 10bc 20e4 97bd 7617 3d3d
000002e0: 4cc8 f5bc 3176 033e 6cd8 39bd 6c78 013d
000002f0: 49fc a43d b74c bc3d 136c b5bd 98e9 e23c
00000300: db31 ab3d 06c6 86bc 4131 833c c895 13bc
00000310: ef78 0dbe 718a 753d 6422 7a3d 9c45 823c
00000320: 4c4b b53d 8ffd da3d cc83 b8bc ac1f c7bc
00000330: 550f 9dbd 4ff7 c33d 23cb 0c3e 9538 8fbd
00000340: 3359 ce3c dadc a7bd 0519 e33d 85c6 5e3b
00000350: c0d5 d4bd 266f 46bd 685b 5e3d 9530 3d3e
00000360: d241 69bd 52b9 023d 23a4 25be f999 743d
00000370: 3bbe 78bd 23ff 07be a7e7 debd e8a6 a1bd
00000380: 2bf1 f43d
-0.05835261 0.0050594644 0.18464077 0.07564596 0.11640378 0.07978629 -0.020548688 -0.050722457
-0.06298709 -0.12729281 0.03852999 0.07900863 0.078716725 -0.17046636 -0.17652914 0.15048324
0.06833605 -0.045292374 -0.023814637 -0.040496357 0.20918874 0.022925546 0.2228095 -0.0044853934
0.04934372 0.16480619 0.004141112 -0.09287992 -0.04081081 -0.20755798 -0.14333507 -0.004262514
0.054702424 -0.031587973 -0.0018789369 0.0668962 0.109726034 0.017238492 0.054007582 -0.09547792
-0.008276635 -0.041130755 0.02541794 0.15107736 0.13504675 -0.08029303 0.038719323 -0.10058474
0.07541428 0.07035882 0.038235124 0.0854083 0.118945606 0.07965449 -0.009263505 0.21534239
-0.022508992 0.0063112746 0.07993147 -0.10489662 0.20201659 0.09460838 -0.00928323 0.03164826
0.06952249 -0.027888415 0.06118099 -0.04791192 0.03394018 -0.018050913 0.12589623 -0.010178744
0.19331276 -0.068250805 0.03759755 0.2492044 0.17999537 0.18055393 -0.031090083 -0.09054577
0.24168971 -0.13016577 -0.014013024 -0.094922535 0.08869496 0.05831554 -0.12768829 0.12697549
0.0097425785 0.10026579 -0.11259741 0.15870468 0.03108848 -0.10474979 -0.11974024 -0.09357694
0.037866518 0.11516498 0.038381208 0.07075965 0.11416789 -0.038727082 0.073736995 0.10315517
0.044369895 -0.03792114 0.08293694 0.07008309 0.11520069 -0.0027089252 0.026084999 0.0341793
0.12079419 -0.16385627 -0.023185223 0.03962354 0.026283417 0.036776647 0.08824433 0.011193073
-0.09450469 0.04353073 0.09805041 0.035385 0.033171635 -0.05394316 -0.026367165 -0.08657875
0.043685425 0.08776476 0.08343655 -0.09309026 0.08489459 0.016863346 0.010926007 0.09081027
-0.0010043355 0.050863143 0.01661742 -0.040906493 -0.033280924 -0.07104313 0.041036054 0.10202427
0.13465847 0.07546638 -0.027978 -0.0133494865 -0.036661312 0.13008696 0.0097707035 -0.1310505
-0.07220436 -0.07970543 -0.0029723144 0.052896917 0.13492483 -0.102160245 0.049676113 0.018063284
-0.078850366 -0.08001475 0.0123479 -0.08533924 -0.027963707 -0.05151193 0.037557717 0.12400646
0.016272305 -0.029142912 0.039402675 -0.04366107 -0.0393895 -0.027610304 -0.19544686 -0.048842374
-0.041280407 -0.09943442 -0.12252646 -0.15132584 0.042591628 -0.0088237 -0.07416558 0.046164952
-0.030002736 0.12838055 -0.04537241 0.031608984 0.08055932 0.0919432 -0.08858504 0.027699277
0.083591186 -0.016451847 0.016014697 -0.009007879 -0.13815664 0.05994648 0.061067954 0.015902333
0.08852252 0.10692894 -0.022523783 -0.024307095 -0.0766894 0.09568655 0.13749366 -0.06993214
0.025189018 -0.08196421 0.110887565 0.0033992839 -0.10392332 -0.048445843 0.05428639 0.18475564
-0.056947537 0.031915016 -0.16175894 0.059717152 -0.060728293 -0.1328092 -0.10884028 -0.07893163
0.11960062

layer1.bias f4 [25]
00000000: db77 6bbe e837 ab3d 0890 4ebc 8498 213e
00000010: 0f22 5a3e 373b 9d3d b574 4b3e 482e 563e
00000020: c340 243e 84ae 4cbd c476 1b3e 30ea 33be
00000030: dbb2 7f3e 356b 083e 3173 a03e 5435 323e
00000040: 3e30 b23d 9290 423e dcd9 863e 695d 9abe
00000050: 960f b43d a46b 8e3e 8278 0bbc 57da 92be
00000060: 6316 9cbe
-0.2299494 0.08360273 -0.012607582 0.15780836 0.21302055 0.0767731 0.19868739 0.20916092
0.1604033 -0.04997112 0.15182024 -0.17569804 0.24970572 0.13322146 0.31337884 0.17403156
0.08700608 0.19000462 0.2633809 -0.3014939 0.08792035 0.27816498 -0.008512618 -0.28682205
-0.3048583

layer2.weight f4 [50, 25, 3, 3]
00000000: 6325 5bbd 6939 efbc d3c4 2b3c 8ed3 7b3c
00000010: 4b9e 7bbc 7c17 823c ca10 963d 4c3d 2ebd
00000020: 3a8f dc3c a6b5 753d 66be 3ebc df6b 3a3d
00000030: ab9e a5bc 5c55 9d3c 5040 6b3d 734f 883c
00000040: c3db b7bc 3fef 4bbc fa13 18be 9ea3 60bd
00000050: f9cc ad3d 7a0e 19be c508 c03c 8c20 443d
00000060: 98a6 463d 91b3 d539 2f52 6dbb 6615 c9bd
00000070: 7af2 80bc da3f 83bd 25a7 363d d18b 9ebc
00000080: c2ae 96bc 99d9 2ebc dd50 f33b c04f bbbd
00000090: 31f1 23bd d45f a63d f285 5dbd dd4b e33c
000000a0: 7b7e 383d 2e03 e6bd 3150 043d c7da 6b3d
000000b0: b302 463d 89a9 e3bb 9d98 243c 8bcb a0bd
000000c0: 0134 4cbd d5c9 9fbb 6c53 b83c 7cbf 0c3c
000000d0: 149b bf3d 678b 283c 4866 803d 949b fabc
000000e0: 4614 3e3c 2d8e 6f3d df3c e8bc 0a5d 173c
000000f0: 787f 163c f770 02bd 88ea 06bc 8dba 2bbd
00000100: 6cfa 483b fb4d bd3d 5476 a9bc 606d b33b
00000110: 2702 bebd dd37 b8bd bd50 883d 020c 14bd
00000120: 9fc9 93bc c6ef abbd f4b5 51bd 4fdf 58bd
00000130: eaad 84ba dca9 a13d 138a 8b3c 5759 8cbb
00000140: cdb9 f4bd 2ad7 603d 95b8 50bd c801 993b
00000150: 3737 79bd 2c04 a9bd 7534 58bd ed00 693c
00000160: 59ea 023d 3e24 0dbd 6a59 543d 30ae 5b3d
00000170: 00cd 8abd 2a52 92bd ffe8 94bd 8766 b6ba
00000180: 6360 04bc 80e5 bcbb 0348 143d ebd7 65bd
00000190: 27d8 6a3d 7452 d53c fcce 3f3d 1b2c b63d
000001a0: 25ae c63c cec3 77bb 4a14 993c 697f 2d3d
000001b0: 8993 3d3d 9643 8a3d 96f6 173d 14a2 0e3c
000001c0: ff31 dbbb 1b48 aabd ebf3 9a3c 9bf6 e0bc
000001d0: 6fec 213d 843d 993c 4bc3 b13b f3df 2f3d
000001e0: f19d bcbc 4bb0 5d3d fd19 ee3c 604b 32bc
000001f0: 0895 1a3d b4f9 943d 91dc 85bd 1a59 003d
00000200: 7158 f3bb 975b 583d 79dc aabd ddcc 963d
00000210: 46ae 47bd 6305 543d b2be d53d f1eb 7dbc
00000220: 322b 28bc a1bc 86bd 921a f4bc e2cc 17bd
00000230: 4c9a 3abc 81b3 363c 7b18 6abd 17ba 503d
00000240: 9514 6b3d e1de 77bc dd8f ae3c d761 23bd
00000250: 90b9 b13d eec4 8f3d 3f85 313d 924a ba3d
00000260: de01 053d 986b cebb fe26 643b 3376 36bd
00000270: 2497 8a3c c62e c73b fe5a cc3d df48 4d3d
00000280: e726 46bd ba3c 29ba 9de0 f93c 7649 6abd
00000290: 4263 22be 8a77 b7bd 3a18 693c 255d cdbc
000002a0: c2df e63d 97d2 06be 1855 983c 8b94 ac3d
000002b0: 8d6c 74bd 3ff9 3ebd 4a5e d33a 3aea 533c
000002c0: effe ecbd a9cf 0b3e ac52 813c ad18 27bd
000002d0: 7b6e 2cbd dbb1 6abd 8e7d 953c 3108 dabc
000002e0: c17b 70bc 6627 043e d137 12bc bbc4 be3d
000002f0: 3f2f 75bd a17f c33c 4446 463d d0c9 c4bc
00000300: 20d1 f93c 6f5d 2e3d b200 ed3d 3c75 03bd
00000310: 7679 91bd 7668 c1bc e362 d73d 748d d4bd
00000320: 9589 9ebc f8ea 84bd dffb c53b ef47 6a3a
00000330: fa04 84bc bc7f 42bb 1bc9 003d 4916 92bc
00000340: b0b0 01bc b6ba a1bd cb4b 903d 803c 113d
00000350: dd9c 003d dab1 24bd 6f3d f03c 5a6e b1bd
00000360: 7663 973b 3b76 d23d c955 113d c60b 1fbd
00000370: 4f77 10bd c216 95bd ce8a b93c 71c6 2bbc
00000380: 3e6c aebc 4055 31bd 6feb dd3c 8bb1 7cbd
00000390: 83e5 f43d 46fe 3f3d 6527 d23d a66b 58bd
000003a0: 3a7d a23d 5a80 81bc e31c ccbc 899c 4cbc
000003b0: 5e79 7b3d 2352 4d3d 0e07 623c 8fdd 823d
000003c0: a148 62bb f77a 43bd 560b 2fbb f1f1 85bc
000003d0: f265 cb3d 4e7c a5bd 5a1a 003e e093 933d
000003e0: 02a0 033d 8496 033d 4b5f 9f3c 342e b6ba
000003f0: 0ead 3a3c 72da d8bb 8a93 85bd e7dd e53c
-0.05350245 -0.02920218 0.010483938 0.015370263 -0.015357564 0.015880339 0.07327421 -0.042538926
0.026923764 0.059987687 -0.011642074 0.04551303 -0.02021726 0.019205742 0.05743438 0.016639447
-0.022443658 -0.012447177 -0.1485137 -0.054843538 0.08486361 -0.14946929 0.023441682 0.0478826
0.04849872 0.00040760313 -0.0036212315 -0.098185346 -0.015740622 -0.06408663 0.044592995 -0.019353779
-0.018393878 -0.0106719965 0.007425411 -0.091460705 -0.04002494 0.081237465 -0.05408282 0.027746135
0.045042496 -0.11231075 0.03230304 0.05758169 0.048342418 -0.0069477004 0.0100461515 -0.07851323
-0.049854282 -0.004876355 0.022500716 0.008590575 0.09355751 0.010287142 0.062695086 -0.030591764
0.011601513 0.0584852 -0.028349338 0.009238491 0.009185664 -0.031846013 -0.008234628 -0.041925956
0.0030666841 0.09243389 -0.020686306 0.005475685 -0.09277754 -0.0899503 0.066560246 -0.036144264
-0.018040476 -0.083953425 -0.051198915 -0.05294734 -0.0010122631 0.07893726 0.017033612 -0.004283111
-0.11949501 0.054892696 -0.05095728 0.004669402 -0.060843673 -0.08252749 -0.052784402 0.014221412
0.031961773 -0.03445839 0.051843084 0.053632915 -0.06777382 -0.07144578 -0.07271003 -0.0013916054
-0.008079621 -0.005764663 0.03620149 -0.05611412 0.057335045 0.026040293 0.046828255 0.08895131
0.02425296 -0.0037805918 0.018686432 0.042357836 0.04628328 0.06751172 0.037100397 0.008705635
-0.0066893096 -0.08314534 0.018915137 -0.02746134 0.03953212 0.01870609 0.005424892 0.042938184
-0.023024531 0.054123204 0.029065127 -0.010882229 0.037739784 0.072741896 -0.0653621 0.031334974
-0.0074263145 0.052821722 -0.08342833 0.07363293 -0.048750184 0.05176295 0.10436763 -0.015498147
-0.010264205 -0.06578947 -0.029797826 -0.037060626 -0.011389326 0.0111511955 -0.057152253 0.05095872
0.057392675 -0.015128822 0.021308834 -0.03988823 0.08677971 0.07019983 0.043339964 0.090962544
0.032472484 -0.0062994473 0.003481328 -0.044546317 0.016917773 0.006078574 0.09978293 0.050118323
-0.048376944 -0.00064558873 0.030502612 -0.057198964 -0.15858176 -0.08958347 0.0142269675 -0.025068829
0.11273147 -0.13166271 0.018595263 0.0842677 -0.059673835 -0.04662442 0.0016126123 0.012934262
-0.11572062 0.13653435 0.015786491 -0.040795017 -0.04209755 -0.057298522 0.018248346 -0.026615234
-0.014677943 0.12905654 -0.0089244405 0.09314867 -0.05985951 0.02386457 0.048406854 -0.024022013
0.030495226 0.042569574 0.11572398 -0.032094225 -0.07103245 -0.023609381 0.10516908 -0.103785425
-0.019352714 -0.06490129 0.0060419883 0.00089371105 -0.016115654 -0.0029678186 0.03144179 -0.017832892
-0.007915661 -0.078969404 0.07045706 0.035458088 0.031399596 -0.040208675 0.029326169 -0.08663626
0.004620011 0.10276457 0.0354822 -0.038829587 -0.03527003 -0.07279731 0.022649195 -0.010484324
-0.021291848 -0.04329419 0.027089803 -0.061692756 0.119578384 0.046873353 0.1026142 -0.052837037
0.07934041 -0.015808273 -0.024916118 -0.012488493 0.06139504 0.05012716 0.013795627 0.06389915
-0.0034528153 -0.04772469 -0.0026709638 -0.016350718 0.09931554 -0.0808035 0.12510052 0.07205939
0.032135017 0.032125965 0.019454619 -0.0013899268 0.0113937985 -0.0066178376 -0.065222815 0.028059913

layer2.bias f4 [50]
00000000: d8bc 7bbd 4c36 88bd 8991 89bd ca22 3a3b
00000010: bc0f e7bc a149 00bc 35c7 0e3d d00c 973d
00000020: 740d 193d 3f64 66bc a331 e1bc cbdc 243d
00000030: e408 8f3b a549 09bd 3553 ecbc 0498 c03c
00000040: d23c 4ebd d94d c43c 399c 293d a09e 7a3d
00000050: 1810 90b9 f76e 1bbd 784d 763c 36a2 143c
00000060: 768d 833d 578f 4ebd 0358 643d b306 12bd
00000070: 56c2 dd3c 8c8d 1cbc 69ec 0dbd 7102 b2bc
00000080: b3ed b73c 5308 70bd 64d6 20bc 22cf 3bbd
00000090: 5401 6c3c 7fe6 363d c080 1e3d d225 7dbd
000000a0: 4e0f 8ebd a8c5 45bc 40a0 5bbc 1755 803d
000000b0: bbf0 4dbd c267 f53c 08c4 ce3b 297c 70bc
000000c0: cc4a 623d 74ca 69bc
-0.061459392 -0.06650981 -0.06717212 0.0028402084 -0.028205745 -0.0078300545 0.034857947 0.07375491
0.037366346 -0.0140619865 -0.027489489 0.040249627 0.0043650735 -0.0335175 -0.02884827 0.023509987
-0.05035097 0.023962902 0.04140875 0.061186433 -0.0002747781 -0.03794762 0.015033118 0.009071877
0.06423466 -0.05042967 0.055747997 -0.03565092 0.027070206 -0.009555232 -0.034649286 -0.02172968
0.022452211 -0.05860169 -0.00981674 -0.045851834 0.0144046135 0.044653412 0.038697004 -0.061803646
-0.06936513 -0.012071051 -0.013404906 0.062662296 -0.050278407 0.029956702 0.00630999 -0.01467804
0.055247113 -0.01426946

layer4.weight f4 [25, 50, 3, 3]
00000000: ca1d 303d 9086 a33d efaf 023c 73a1 45bd
00000010: db63 403d 8e92 bbbc 96d4 7d3d e53a 81ba
00000020: 1e2a 0fbd a037 3d3d 6288 1d3d 1766 cc3c
00000030: 412b 7dbd 7155 d03c 7189 fd3b 5b08 8d3c
00000040: 8cec cd3d a702 973c 0ddd e3bc 2a60 323d
00000050: 13bd 883d 9846 6ebd 8ac1 86bd 13bc c03d
00000060: 7e97 8d3d 4286 86bd f4ef c9bd 6129 583c
00000070: 371f 253d 6026 dfbd a50b bc3d 714d 863d
00000080: 6253 103d 74c9 293d c4a4 4d3c 05a5 1d3e
00000090: 48e4 efbc ed7a 9e3d d3f0 9bbd 2c61 82bd
000000a0: 9a91 17bd 64d9 8ebb 5d6a 6d3d c49f 01be
000000b0: a05e a5bd 2daa 523d 486b 8bbc 529f 7abb
000000c0: e5d6 843b 8f99 df3d 6cd8 62bd 2e7c af3c
000000d0: 6f1e 333d 08f3 be3c 039e 903d b6fb 6d3d
000000e0: 0678 7cbd 1658 8bbc 1788 acbd aac1 41bd
000000f0: 13d8 bebc 21f1 a3bd 84f4 0a3c 0593 bf3d
00000100: bfb2 813c fe48 eebd 3e4d 1bbe b2ce 9abc
00000110: 4b49 873d 6133 4f3b 4a1a a2bb 70e1 95bd
00000120: 4a63 6abc 5cc1 8f3c 2ced 353d 0923 8e3d
00000130: 8730 c7bc 0e6e d23c e52a 2fbd 5064 003d
00000140: 7373 d13c c87c aebc e15e b73c cfc7 623d
00000150: 0e72 6bbb b0c6 163c 88af 883d d861 303c
00000160: 6aa3 6fbd 567f 0ebd b7ac 36bc 1c27 bb3c
00000170: dd96 0b3d 0752 56bd 5c9d fdba 7258 443c
00000180: 51fa 2ebd dfb5 38bd c2b9 253e dab6 81bc
00000190: e352 c33d 3e84 23bc 6b67 2a3d e64c 0f3d
000001a0: 941f 80bc 8eb5 87bc 3a65 853d 1aa8 213d
000001b0: 1ebc 73bd dd18 9fbb 460d d7bb 7f04 333c
000001c0: 2776 f13d 783f a2bd 9199 483d ab0f 213c
000001d0: f0c5 cd3c 4dfe 1cbd c0cd 5fbd f549 9bbd
000001e0: 5bdd 9b3b 0027 bf3a 2ec6 43bb aa44 4fbd
000001f0: 5f60 9abc 8342 cabb 4aba 8abd b9fd 02bd
00000200: 1568 193d 93cf bc3c a203 383d 10d6 c73d
00000210: e781 53bd d826 2d3c 69c2 7a3d 78ef 8dbc
00000220: c0ad 773d 0f6e 143d 063a 943d 224d 1e3c
00000230: edfa 2bbd 9439 d03b db03 1cbd 7f17 e33c
00000240: e810 47bd 537d 2f3d 19e0 8cbd 6b67 793d
00000250: 768b 20bc e675 29bd bd7a 99bd ff9c 99bd
00000260: 9a4b a0bc 5a1c f6bb 45f3 a3bd e94c fcbb
00000270: 4d94 71bd a63d bd3b 11fa acbc 2f33 bbbd
00000280: 00a0 6e3d ff66 90bd 8005 81bd 3ffa 003d
00000290: 4148 d93a e208 08bd 1051 8bbc eca9 a93d
000002a0: fbe5 9f3d fa42 143d d47c 3bbd 3e81 983d
000002b0: 8995 e43c 13d9 84ba 2eed ecbb a94e 2a3d
000002c0: cff8 9b3d 2766 193d f216 533c d629 4dbb
000002d0: c708 8ebd fc87 0c3b 4acb 0c3d 316d 383d
000002e0: 5411 e13c 5b19 c1bc d612 d53d ac5b bebb
000002f0: 0e2b bcbd 09cf 3a3d 01ab 2d3d 9a11 ebbd
00000300: af4a 47bd d96c 23bd 5e50 c5bc 0452 88bd
00000310: 1d46 6a3c 4438 ce3d 2a63 e0bd f7bb 24bd
00000320: 7eba c6bc b8cb 3cbd e530 94bd 8d2c 1b3d
00000330: 10b8 8d3d 5855 6cbd d730 3d3c 0a8a e7bb
00000340: 123e 873d 2aab 8dbc ceee fdbd 20fb a23d
00000350: 5710 a5bc 1dd2 2cbd 4844 20bc 5adf b93d
00000360: 93a6 3bbd 471a 88bd 1520 293d 7ad5 cb3c
00000370: d735 8dbb d51c 723c 4bb6 f43c 1557 d43d
00000380: ff4a db3d 5054 b03b 946e dcbb d6ba 81bd
00000390: 864c 713d 6a7c eabc 2f3d 83bd 5682 d0bc
000003a0: 15b7 803a a965 293d 85d1 0f3e ea04 1fbd
000003b0: 4897 72bb 005f 703d aa8b a2bd 8556 deba
000003c0: 940b 183d 61bf dfbc 85bb 70bd 8fe8 1bbd
000003d0: 0b8e 4abd 21ea 863d d75d f53b 8292 e93c
000003e0: 6989 adbd ae77 bb3c dd6f bdbd 4834 373c
000003f0: 3027 1fbd ae08 81bd 086e 96bd 6a9e 98bc
0.04299716 0.0798465 0.007976516 -0.048249673 0.04697023 -0.022897031 0.061970316 -0.0009859471
-0.034952275 0.046195626 0.038460143 0.024951024 -0.06180883 0.025431367 0.0077373316 0.017215898
0.10054883 0.018433882 -0.027815366 0.04354874 0.06676688 -0.058172792 -0.065798834 0.09410872
0.069136605 -0.065685764 -0.098602206 0.013193459 0.040312972 -0.10895991 0.091819085 0.065577395
0.03523577 0.041451886 0.01255149 0.15394981 -0.029283658 0.0773829 -0.07614293 -0.0636619
-0.03700409 -0.004359411 0.057962764 -0.12658602 -0.08074689 0.051431824 -0.01701893 -0.0038241935
0.0040539377 0.10917961 -0.055382177 0.021421518 0.043730196 0.023309246 0.07061388 0.05810138
-0.0616379 -0.017009776 -0.084243946 -0.047303833 -0.023296392 -0.08004976 0.008481149 0.093542136
0.015832303 -0.11635016 -0.15166184 -0.018897388 0.066057764 0.0031616318 -0.0049469816 -0.073183894
-0.014305899 0.017548256 0.044415638 0.06940276 -0.024315132 0.025687244 -0.042765517 0.031345665
0.025567746 -0.021299735 0.022384109 0.055366334 -0.0035926136 0.009202644 0.06674105 0.010765515
-0.058505453 -0.034789406 -0.011149577 0.022845797 0.03407942 -0.05232432 -0.0019349265 0.011983978
-0.04271919 -0.04509532 0.16184142 -0.01583426 0.09537294 -0.009980259 0.041602533 0.034985445
-0.015640058 -0.016566064 0.06513448 0.039466955 -0.059505574 -0.004855259 -0.0065628616 0.010926365
0.11790114 -0.07922262 0.048974577 0.009830396 0.025118798 -0.038328458 -0.054639578 -0.075824656
0.0047566122 0.0014583766 -0.0029872763 -0.050602593 -0.018844781 -0.0061724796 -0.06773813 -0.03198025
0.037452776 0.023048198 0.04492534 0.09757626 -0.051637556 0.010568343 0.06122056 -0.017326102
0.060468435 0.036237773 0.072376296 0.009661945 -0.04198735 0.00635452 -0.038089614 0.027721165
-0.048600107 0.042844128 -0.06878681 0.060889643 -0.009798875 -0.041372202 -0.074941136 -0.07500648
-0.0195673 -0.007510704 -0.08005384 -0.007699598 -0.05897932 0.0057751713 -0.021115335 -0.09140622
0.058258057 -0.07050895 -0.06299877 0.031488653 0.001657732 -0.033211596 -0.017006427 0.08284363
0.07807537 0.036196686 -0.045773342 0.07446526 0.027903335 -0.0010135494 -0.0072304225 0.041578922
0.07615816 0.037450936 0.012883889 -0.0031305454 -0.06935268 0.0021443358 0.03437356 0.045026008
0.027474083 -0.02357166 0.10403983 -0.005809268 -0.091878995 0.0456076 0.04239941 -0.114779666
-0.04865521 -0.039898727 -0.024086174 -0.06656268 0.014298943 0.100693256 -0.10956414 -0.04021832
-0.024258848 -0.04609272 -0.072358884 0.037884284 0.06919873 -0.057698578 0.011547289 -0.007066016
0.06603636 -0.017293531 -0.12399064 0.079580545 -0.020149393 -0.042192567 -0.0097819045 0.09075804
-0.045813154 -0.06645637 0.04129036 0.024882067 -0.0043093967 0.014777382 0.02987208 0.10368172
0.10707664 0.0053811446 -0.006727049 -0.06334464 0.05891087 -0.028623778 -0.06408154 -0.025452774
0.0009820188 0.041356716 0.14044769 -0.038823046 -0.003701644 0.05868435 -0.07936795 -0.0016963041
0.037120417 -0.027312936 -0.058772583 -0.038063582 -0.04945187 0.06587625 0.007487993 0.028512243
-0.084734745 0.022884216 -0.09249852 0.011181898 -0.03885573 -0.06300484 -0.073452055 -0.018630225

layer4.bias f4 [25]
00000000: 8c01 dcbc c505 2fbd a6d6 76bc bf56 05bd
00000010: 6d69 05bd 5117 04bd 315f 2fbd a12e dbbc
00000020: 0fdc 9dbc 2bd1 c6bc 30f3 fd3c 509a 26bd
00000030: bb01 b7bb 5222 5cbb b9bc 993c 6560 733c
00000040: 37ad 52bd 8f67 3a3d 847f ffbc 1563 b3bc
00000050: 7e18 453c 9d1e 163d 74ab 02bd df09 f6bb
00000060: 5504 fe3c
-0.026856206 -0.04273011 -0.015065825 -0.03255343 -0.032571245 -0.0322488 -0.04281539 -0.026755633
-0.019269971 -0.024269661 0.03099975 -0.040674508 -0.005584923 -0.0033589792 0.018766748 0.014854525
-0.05143472 0.045508917 -0.031188734 -0.021897832 0.012029765 0.03665029 -0.03190179 -0.007508501
0.031007925

exp_avg f4 [25, 1, 3, 3]
00000000: 890b bac6 2279 e4c6 711a b6c6 0ead ffc6
00000010: ca93 21c7 74f9 0fc7 5bb3 00c7 a26d 2ec7
00000020: 0b5c 23c7 bf38 af46 cc57 0047 c40c 0d47
00000030: 5491 f946 065a 2947 0c6c 3647 6aff 0447
00000040: 49c5 3247 66e4 3f47 d540 76c7 1292 8bc7
00000050: b7a8 88c7 4efa 55c7 84ab 84c7 4d4a 8dc7
00000060: aaf0 0dc7 f07f 4ec7 fdf2 72c7 a288 8747
00000070: 7b2a 9047 e0c3 7647 4d0d 9447 e255 a047
00000080: ffef 8c47 4301 8547 d98e 9147 b114 8147
00000090: f46b 2bc7 9592 3cc7 cfec 2dc7 8731 30c7
000000a0: ec24 4fc7 fafb 49c7 1521 11c7 2a24 3ac7
000000b0: dc73 40c7 5d2f 6fc7 372b a1c7 4592 afc7
000000c0: 203c 92c7 0720 c2c7 7ce7 d1c7 e8b6 8dc7
000000d0: 6ef9 bdc7 2870 cec7 064a fac6 2444 21c7
000000e0: 1b3d 29c7 3fa4 29c7 52cd 6ac7 583e 82c7
000000f0: 4232 37c7 f806 87c7 f4c5 9cc7 72c2 b4c6
00000100: 4cbd 06c7 e412 0ec7 1c5e 0ac7 f681 36c7
00000110: 1ccb 34c7 038b 2cc7 2912 51c7 ca28 46c7
00000120: 760b 57c7 e286 5ec7 99fc 3bc7 d48d 7cc7
00000130: 1a34 7cc7 2eea 4cc7 8008 7dc7 abfd 77c7
00000140: b037 40c7 9634 0246 0cc5 80c5 5c00 0cc6
00000150: 9670 34c6 a014 e8c6 84f0 12c7 14f3 bac6
00000160: 0ca5 33c7 ee4f 5ac7 7fdf f146 a05b 2747
00000170: ecda 1d47 fc56 1147 ae2e 4947 d6c9 4547
00000180: 110a 1d47 47ca 5f47 f1cb 6147 ec3d 4ec7
00000190: 8b0f 3dc7 a8b0 ecc6 864f 8fc7 8250 87c7
000001a0: 3061 3fc7 3a29 9dc7 4847 97c7 7fab 60c7
000001b0: 5c05 bac6 d412 d0c6 9c9b b6c6 643e b7c6
000001c0: 5514 c6c6 5034 a4c6 5a82 9dc6 8097 a3c6
000001d0: 483a 6cc6 6421 11c7 5225 3fc7 1212 62c7
000001e0: 92fe 03c7 f028 49c7 9a21 80c7 fe8d bac6
000001f0: 6f20 37c7 3e77 80c7 00c9 a346 f619 ad46
00000200: 281a c446 d7be 0746 0dda 1b46 64bb 5246
00000210: 6bb3 61c5 b9ba fbc4 9454 6045 d316 19c7
00000220: b0aa 13c7 d647 dac6 94e0 31c7 18f5 20c7
00000230: 28ec d7c6 5839 39c7 c4b4 1ec7 9e5c bec6
00000240: 5c57 d4c6 4e05 bfc6 2637 9dc6 7705 05c6
00000250: 7a17 41c6 da70 75c6 bf77 1146 8d03 9ac3
00000260: a547 2ac6 8f47 2947 76e8 3d47 f0ab 3447
00000270: 6e37 4e47 f9b1 6247 8ec2 5547 dc40 4747
00000280: a264 5b47 dcd8 4c47 a345 8246 fa73 e346
00000290: 5c1a 0a47 0f28 2446 d0e4 c246 1b37 0347
000002a0: 0012 1441 096f 6a46 8e0a c646 5dda 3347
000002b0: a230 4d47 153c 3247 d2b6 6147 b801 8147
000002c0: 0c63 6547 6256 7647 eaaf 8c47 3cf7 7c47
000002d0: 960b 28c7 f103 3ac7 cc1a 23c7 5c37 43c7
000002e0: 450d 54c7 9cd9 33c7 e28d 46c7 f2d0 54c7
000002f0: 0c7e 32c7 4a54 9e46 a461 b046 2249 9b46
00000300: e8eb 0047 ddf9 1447 7804 0e47 cc71 1147
00000310: 5cb5 3147 051e 3447 cb10 90c7 7842 8dc7
00000320: 2c4c 63c7 31b6 87c7 71ff 81c7 2c3c 49c7
00000330: a0bf 5ec7 9619 4cc7 8089 12c7 8a45 4bc7
00000340: 55a0 4dc7 a44b 24c7 6e8d 44c7 5fbd 4cc7
00000350: 017f 25c7 f829 1bc7 b68c 28c7 9046 07c7
00000360: 7623 2a46 aa15 5646 10f4 4a46 abe3 b646
00000370: b812 d246 6ecb c846 a6ec 0547 f533 1947
00000380: e7cf 1447
-23813.768 -29244.566 -23309.22 -32726.527 -41363.79 -36857.453 -32947.355 -44653.633
-41820.043 22428.373 32855.797 36108.766 31944.664 43354.023 46700.047 34047.414
45765.285 49124.4 -63040.832 -71460.14 -69969.43 -54778.305 -67927.03 -72340.6
-36336.664 -52863.938 -62194.99 69393.266 73812.96 63171.875 75802.6 82091.766
72159.99 68098.52 74525.695 66089.38 -43883.953 -48274.582 -44524.81 -45105.527
-53028.92 -51707.977 -37153.082 -47652.164 -49267.86 -61231.363 -82518.43 -89892.54
-74872.25 -99392.055 -107470.97 -72557.81 -97266.86 -105696.31 -32037.012 -41284.14
-43325.105 -43428.246 -60109.32 -66684.69 -46898.258 -69133.94 -80267.91 -23137.223
-34493.297 -36370.89 -35422.11 -46721.96 -46283.11 -44171.01 -53522.16 -50728.79
-55051.46 -56966.883 -48124.598 -64653.83 -64564.1 -52458.18 -64776.5 -63485.668
-49207.688 8333.146 -4120.631 -8960.09 -11548.146 -29706.312 -37616.516 -23929.54
-45989.047 -55887.93 30959.748 42843.625 40410.92 37206.984 51502.68 50633.836
40202.066 57290.277 57803.94 -52797.92 -48399.543 -30296.328 -73375.05 -69281.016
-48993.188 -80466.45 -77454.56 -57515.496 -23810.68 -26633.414 -23373.805 -23455.195
-25354.166 -21018.156 -20161.176 -20939.75 -15118.57 -37153.39 -48933.32 -57874.07
-33790.57 -51496.938 -65603.2 -23878.996 -46880.434 -65774.484 20964.5 22156.98
25101.078 8687.71 9974.513 13486.848 -3611.2136 -2013.8351 3589.2861 -39190.824
-37802.688 -27939.918 -45536.58 -41205.094 -27638.078 -47417.344 -40628.766 -24366.309
-27179.68 -24450.652 -20123.574 -8513.366 -12357.869 -15708.213 9309.937 -308.02774
-10897.911 43335.56 48616.46 46251.938 52791.43 58033.973 54722.555 51008.86
56164.633 52440.86 16674.818 29113.988 35354.36 10506.015 24946.406 33591.105
9.254395 15003.759 25349.277 46042.363 52528.633 45628.082 57782.82 66051.44
58723.047 63062.383 72031.83 64759.234 -43019.586 -47619.94 -41754.797 -49975.36
-54285.27 -46041.61 -50829.883 -54480.945 -45694.047 20266.145 22576.82 19876.566
33003.906 38137.863 36356.47 37233.797 45493.36 46110.02 -73761.586 -72324.94
-58188.17 -69484.38 -66558.88 -51516.17 -57023.625 -52249.586 -37513.5 -52037.54
-52640.332 -42059.64 -50317.43 -52413.37 -42367.004 -39721.97 -43148.71 -34630.562
10888.865 13701.416 12989.016 23409.834 26889.36 25701.715 34284.65 39219.957
38095.902

exp_avg_sq f4 [25, 1, 3, 3]
00000000: 18bf 834f 15e5 874f 7866 6a4f 70bf 8f4f
00000010: 4892 994f 41c5 864f f9e8 864f bbd8 934f
00000020: bd25 844f 0c2c 844e e59b 8f4e a05c 8f4e
00000030: 3a44 c04e ff44 d04e ed22 c64e 3d68 e84e
00000040: 851b f64e 3be3 e04e a872 2d50 9c4a 4e50
00000050: 941d 4f50 d71b 1150 2884 3750 6651 4450
00000060: fc50 c84f 51fd 0650 5d46 1a50 3aaf 2c4f
00000070: 4c91 444f 262f 1b4f 0c91 504f f51a 704f
00000080: 639f 404f b512 344f f842 4d4f 9adf 244f
00000090: 18d5 1e4f ee07 374f a70d 274f 932d 1b4f
000000a0: 7f13 434f 14f6 3d4f 4acf e74e 140a 204f
000000b0: 4fe3 274f 6d4d 8650 2d3c a350 3ac6 a850
000000c0: 977e 8d50 c7de b150 5850 bb50 a011 7850
000000d0: 105f 9f50 b6c7 aa50 f96d 2950 4a1b 4b50
000000e0: df4f 5450 43c2 3f50 a77a 7350 b744 8450
000000f0: bd57 4050 7f9b 7f50 49f0 8f50 ac70 c34e
00000100: 99d3 fb4e dd2f f44e dbba 0f4f 3394 2e4f
00000110: e57a 1c4f 6541 334f 7bdb 494f ef2c 294f
00000120: b2cc a84f f5e4 b04f afb7 924f d632 dd4f
00000130: 733e df4f 2d79 b14f 6660 f24f 22fc ee4f
00000140: 8f33 b94f 5053 8e4f 9005 d04f 1c28 0350
00000150: 1e18 794f 4b4b cb4f aa39 0750 38e5 494f
00000160: aa3b b64f 5cf9 fc4f 5b5e 274f b88a 524f
00000170: fe6c 4c4f 4a28 454f a91b 7c4f 9467 764f
00000180: 1c8a 554f 685d 8a4f fbf2 864f 4180 694f
00000190: 3647 2c4f 71b1 b44e 15ce ca4f 3f8c 9a4f
000001a0: 115a 224f a458 0350 fb6b cd4f 4ba2 634f
000001b0: ff56 db4f 33b3 d14f 56e3 ac4f 338b fe4f
000001c0: c5e4 f14f fea7 c54f b871 0450 01ad fb4f
000001d0: ac84 cd4f 351a af4f 9829 ee4f 8b4e 0e50
000001e0: a015 a04f 7e0b e84f e32c 1250 cc88 744f
000001f0: 465f be4f 2d6d 0050 4df5 864e d377 6e4e
00000200: 1021 4e4e af4b 524e bbef 3d4e b371 204e
00000210: 69b3 434e d9e1 364e ef24 174e 406c 944f
00000220: 5c42 904f 32cc 634f 6227 b44f 03d5 a74f
00000230: 6997 7b4f 005a bc4f 79cb a84f 6987 714f
00000240: ad5c 924f 81f5 814f e27b 4a4f 9ee0 884f
00000250: d428 834f 977f 604f 4967 7b4f 6d49 7b4f
00000260: f905 664f c662 be4e fbee ed4e a29f ef4e
00000270: bf5c df4e e513 064f e09e fe4e 6713 d34e
00000280: 4954 f44e 55cb da4e 95ac 874f 3dde c54f
00000290: f562 f64f 74d9 6d4f fa2d b14f 5be3 e34f
000002a0: 255e 384f 04a3 884f 318f b44f cc36 1a50
000002b0: 1694 2150 b984 0850 8bd3 3850 51a4 4250
000002c0: 2a78 2350 a576 3f50 e6d4 4850 063e 2750
000002d0: 4b3e 214f ed9c 3a4f 002f 294f 6b2e 294f
000002e0: db3b 404f fe40 234f cc1f 1c4f b509 2c4f
000002f0: 1d17 0b4f 09f5 1e4e 1201 274e f191 144e
00000300: 5420 634e 0f23 884e 61f8 804e b269 814e
00000310: 4359 ad4e 7d1a b44e 9701 db4f 0e43 d44f
00000320: 2f4a a64f 2662 d64f 0e10 cc4f b210 a04f
00000330: e9fd b94f 1313 b04f b094 8f4f 21d0 7c4f
00000340: ecc4 7a4f 8d1b 474f 8982 854f 3a0a 884f
00000350: 5baa 5e4f 1e17 7c4f 9fff 824f a69d 5f4f
00000360: 1c54 d74e f4a8 e44e 7648 d34e 3334 ea4e
00000370: 213c fd4e ff51 e94e 5f67 044f 9345 124f
00000380: 93bc 064f
4.4206776e+09 4.5598746e+09 3.932584e+09 4.823376e+09 5.1530015e+09 4.5221484e+09 4.52683e+09 4.960909e+09
4.4341315e+09 1.1087396e+09 1.2046793e+09 1.2026061e+09 1.6128484e+09 1.7470913e+09 1.6620888e+09 1.9495727e+09
2.0644993e+09 1.8864941e+09 1.163989e+10 1.3843984e+10 1.3899289e+10 9.738083e+09 1.2315566e+10 1.3174675e+10
6.721501e+09 9.058993e+09 1.035321e+10 2.8971648e+09 3.2978565e+09 2.6035584e+09 3.4991667e+09 4.0282985e+09
3.231671e+09 3.0211249e+09 3.4437181e+09 2.7661174e+09 2.6647654e+09 3.0707502e+09 2.8026898e+09 2.6034552e+09
3.2728348e+09 3.1870208e+09 1.9445609e+09 2.685015e+09 2.816692e+09 1.8025769e+10 2.190904e+10 2.2652506e+10
1.899107e+10 2.3873337e+10 2.5140838e+10 1.6647619e+10 2.1390459e+10 2.292172e+10 1.1370227e+10 1.3630253e+10
1.4248017e+10 1.2868718e+10 1.6339607e+10 1.7752766e+10 1.2907902e+10 1.7153523e+10 1.9319114e+10 1.6394706e+09
2.1124742e+09 2.0483887e+09 2.4113876e+09 2.928948e+09 2.6252997e+09 3.0074074e+09 3.3866043e+09 2.8382943e+09
5.6639744e+09 5.93559e+09 4.923023e+09 7.4221926e+09 7.4908237e+09 5.955017e+09 8.1328077e+09 8.0190024e+09
6.214328e+09 4.7756493e+09 6.980051e+09 8.801776e+09 4.1791073e+09 6.8214185e+09 9.074813e+09 3.3872425e+09
6.114727e+09 8.488401e+09 2.8079788e+09 3.5323064e+09 3.429695e+09 3.307752e+09 4.2296712e+09 4.1339832e+09
3.5825981e+09 4.6427546e+09 4.528142e+09 3.9174966e+09 2.890348e+09 1.5157638e+09 6.805007e+09 5.185765e+09
2.7238116e+09 8.814498e+09 6.892812e+09 3.819064e+09 7.3598234e+09 7.0363643e+09 5.8011597e+09 8.541071e+09
8.1166034e+09 6.632242e+09 8.888181e+09 8.4448384e+09 6.896048e+09 5.8754606e+09 7.9914066e+09 9.550048e+09
5.3715436e+09 7.7861345e+09 9.809661e+09 4.1026058e+09 6.38783e+09 8.618554e+09 1.1321115e+09 1.00020755e+09
8.645683e+08 8.8204384e+08 7.966512e+08 6.729515e+08 8.2082874e+08 7.670636e+08 6.33945e+08 4.9802445e+09
4.840536e+09 3.8218102e+09 6.04496e+09 5.63151e+09 4.221004e+09 6.3200297e+09 5.663814e+09 4.0521833e+09
4.9110943e+09 4.3607004e+09 3.3971164e+09 4.592844e+09 4.400982e+09 3.766458e+09 4.21785e+09 4.2158932e+09
3.859151e+09 1.5970721e+09 1.995931e+09 2.0101082e+09 1.8736987e+09 2.2494508e+09 2.1359124e+09 1.7706321e+09
2.0495822e+09 1.8353793e+09 4.552469e+09 6.6393523e+09 8.267361e+09 3.9904512e+09 5.9451607e+09 7.646656e+09
3.0931776e+09 4.5847695e+09 6.058566e+09 1.034913e+10 1.0843347e+10 9.161598e+09 1.2403486e+10 1.3062194e+10
1.0970245e+10 1.2848895e+10 1.3477583e+10 1.1223439e+10 2.7052142e+09 3.1308465e+09 2.8384297e+09 2.8383916e+09
3.2251482e+09 2.7389455e+09 2.6193295e+09 2.8863173e+09 2.3335478e+09 6.667147e+08 7.004663e+08 6.231481e+08
9.526367e+08 1.1419995e+09 1.0818807e+09 1.0855939e+09 1.4541541e+09 1.5108174e+09 7.348629e+09 7.1223286e+09
5.579759e+09 7.193513e+09 6.8472084e+09 5.3708974e+09 6.2408504e+09 5.90808e+09 4.8177725e+09 4.2414984e+09
4.2072095e+09 3.3404716e+09 4.479849e+09 4.564743e+09 3.7357064e+09 4.2293734e+09 4.395581e+09 3.7516508e+09
1.8063068e+09 1.9181389e+09 1.7723707e+09 1.9646447e+09 2.1242881e+09 1.9572325e+09 2.221367e+09 2.4540332e+09
2.2605053e+09

exp_avg f4 [25]
00000000: 2b16 c146 ceda 1fc7 9481 4547 fbf9 04c7
00000010: 7be5 3547 9425 5947 ba0b 7947 33af 9d46
00000020: 9fc8 8147 66a1 1745 522f 5dc6 1013 3547
00000030: c999 1f47 509f 0c47 109e fcc5 65fc 7947
00000040: 4296 8145 b67f 29c7 7477 afc6 9a82 93c7
00000050: 81bb 8547 6cd0 38c6 9af7 7847 3231 0447
00000060: d806 17c7
24715.084 -40922.805 50561.58 -34041.98 46565.48 55589.58 63755.727 20183.6
66449.24 2426.0874 -14155.83 46355.062 40857.785 35999.312 -8083.758 63996.395
4146.782 -43391.71 -22459.727 -75525.2 68471.01 -11828.105 63735.6 33841.195
-38662.844

exp_avg_sq f4 [25]
00000000: 319c 5b4e d91c 2e4f eb8e 2c4f f383 8d4e
00000010: b44e c64e 1e07 d44e 2b16 4e4f 02e2 da4d
00000020: 3216 054f bd38 bd4e 37da a34e c5da d54e
00000030: b546 284f 861c 604f 69c2 034e 67e9 594f
00000040: 6aa8 214e 2bd1 3f4f cbcd d64e e3e1 8d4f
00000050: fb47 3c4f d421 ff4e b6e1 214f 3e9d 494e
00000060: cbff c04e
9.211116e+08 2.9211261e+09 2.8950474e+09 1.1871174e+09 1.6635233e+09 1.7786181e+09 3.4575593e+09 4.590306e+08
2.2328243e+09 1.5873061e+09 1.3744936e+09 1.7939421e+09 2.8232061e+09 3.7599657e+09 5.5263904e+08 3.6559521e+09
6.7804224e+08 3.2181563e+09 1.8019055e+09 4.7607823e+09 3.158834e+09 2.1402035e+09 2.715924e+09 8.4563136e+08
1.6189946e+09

exp_avg f4 [50, 25, 3, 3]
00000000: 0a2f d145 9c6b 6745 6bd9 8d43 1290 a745
00000010: 1a7b e644 8d48 f5c4 49c7 8b45 8c34 5644
00000020: 05b8 3ac5 ee6f 28c4 543a 5744 badc 0445
00000030: ff6e 30c4 d151 7d44 4e4c 1e45 e80c 6cc4
00000040: d258 2b44 ca04 0b45 d861 be45 bfdb 8fc3
00000050: 400d d5c5 306f 9145 31b8 f1c4 2a76 05c6
00000060: f0e3 1e45 5811 64c5 4775 17c6 f14e 1cc6
00000070: bc6a d3c5 ae4b 16c5 769a 0dc6 3aa3 a1c5
00000080: 6447 89c3 142c f9c5 5d01 71c5 e5fa 9344
00000090: 2090 f4c4 ee2e a6c5 e601 ffc5 1c00 dfc4
000000a0: c45e 9cc5 af4c f2c5 0811 1cc5 451f a7c5
000000b0: 9e6c f1c5 16e8 1445 bf03 90c4 6286 95c5
000000c0: 85f9 d544 f0a3 b9c4 952f 95c5 6b05 5943
000000d0: 08f6 16c5 d6a3 9cc5 73ef 8445 60d9 b543
000000e0: eca4 74c5 a663 8145 a6fa 4443 33b4 81c5
000000f0: 530e 2645 1210 8bc4 7afd 9ec5 45bd 9ac4
00000100: b362 41c5 dbd6 92c5 ddd7 34c4 6e3e 1ec5
00000110: a601 82c5 8bd5 8bc4 b3f3 2cc5 2db8 84c5
00000120: c2bc b145 d4a1 21c5 6293 2dc6 3a7c a745
00000130: 44b1 42c5 f545 3bc6 6abc 5445 084c 8dc5
00000140: f288 47c6 eb99 3045 6af1 1945 9ad6 c544
00000150: 9176 0245 443e 0745 4ca0 dc44 08b0 9144
00000160: 76e8 c544 babd d244 4ed8 9ec5 c802 98c5
00000170: e6d0 71c5 a9cd 95c5 aa3f 89c5 30ce 48c5
00000180: 0e89 90c5 2112 82c5 4218 38c5 f4e3 1446
00000190: 229e 8d45 7029 96c4 ae4f 0246 fe61 4045
000001a0: 923e 33c5 082d d745 cc76 f144 f93a 65c5
000001b0: 1580 80c4 771b ffc4 2ddc 39c5 6028 20c1
000001c0: 33cb 81c4 ef2b 04c5 eade 5dc2 c234 8cc4
000001d0: b8fc 09c5 62b4 82c4 6074 38c5 82cd 8bc5
000001e0: b491 44c4 1fd3 32c5 744e 8fc5 ee92 81c4
000001f0: c29d 41c5 a6ff 95c5 c876 61c5 7e1e 85c5
00000200: 6bea 90c5 967b 32c5 8dcd 4ac5 c3a0 57c5
00000210: 1957 4cc5 0601 5dc5 b6ba 5ac5 7e1f 36c5
00000220: 5aa8 82c5 9da6 9bc5 eb32 0ec5 484e 5cc5
00000230: e786 89c5 fcfa 07c5 12be 50c5 984b 83c5
00000240: 2aed 50c2 e055 3741 2017 3441 809e 3f44
00000250: ed1d e343 00d9 97c1 4470 9f44 28fa 2044
00000260: 5f3e 46c3 7684 88c5 8031 38c5 ade3 96c4
00000270: cdfb 5cc5 21f5 05c5 8fef f8c3 d813 40c5
00000280: 715a efc4 f54d fcc3 7aa4 d8c5 5c46 e4c5
00000290: 38ef d3c5 1ffc bec5 0a98 c2c5 2ce6 adc5
000002a0: 9265 b9c5 7610 b7c5 9cca 9cc5 63a7 3cc5
000002b0: 209d 7d45 1eff 2e46 6296 2cc5 1eb6 8245
000002c0: 3a1c 3046 4427 09c4 4a18 b445 ef80 3c46
000002d0: 54dc 91c4 34eb 37c5 58bf 8ac5 0201 81c4
000002e0: 83d6 26c5 f50d 80c5 0ad3 a6c4 4a7b 27c5
000002f0: 8e51 71c5 cc5e a6c5 76ec 94c5 4965 6cc5
00000300: 8721 79c5 6994 53c5 0e52 1ec5 5264 55c5
00000310: 4c1d 37c5 46e8 0ac5 32be 4e45 60de f1c3
00000320: b586 88c5 de1f 2d45 035e 8bc4 f1e5 9ec5
00000330: ea0c e844 38ba dac4 f9b8 aac5 e805 ca45
00000340: a610 9e45 0a85 3945 9aa1 9e45 2bab 7345
00000350: 74fa 0445 655f 8445 7d58 5745 2709 0245
00000360: 4139 1445 3ad6 b345 4b6a 0646 8990 fb44
00000370: 041d af45 2698 0746 949d 3145 353d c745
00000380: 3a50 1146 6cc8 d4c5 6209 83c5 1448 bec4
00000390: 8ca6 0bc6 25a3 e0c5 d627 a1c5 0f59 04c6
000003a0: 3a3b f9c5 f13e dcc5 0625 8745 9c1d 1e45
000003b0: a2fe 0644 14fd c545 08ee 9d45 42d0 5045
000003c0: 1212 d045 c845 c145 2817 9f45 c645 60c6
000003d0: 37a5 37c6 5abf fec5 164d 3ec6 0eb6 3ac6
000003e0: fe31 25c6 6e09 0dc6 d8ae 2fc6 df62 41c6
000003f0: 2ced 3046 f37a 0a46 472c b645 ce6c 2f46
6693.88 3702.7256 283.69858 5362.009 1843.8469 -1962.2672 4472.9106 856.82104
-2987.5012 -673.7489 860.9114 2125.7954 -705.7343 1013.2784 2532.769 -944.20166
685.3878 2224.2993 6092.2305 -287.71677 -6817.6562 4653.8984 -1933.756 -8541.541
2542.246 -3649.084 -9693.319 -10003.735 -6765.342 -2404.73 -9062.615 -5172.4033
-274.55774 -7973.51 -3856.0852 1183.8405 -1956.5039 -5317.866 -8160.2373 -1784.0034
-5003.8457 -7753.5854 -2497.0645 -5347.9087 -7725.577 2382.5054 -1152.1171 -4784.798
1711.7975 -1485.123 -4773.9478 217.02116 -2415.377 -5012.4795 4253.931 363.69824
-3914.3076 4140.456 196.9791 -4150.525 2656.8953 -1112.5022 -5087.6846 -1237.9147
-3094.1687 -4698.857 -723.37286 -2531.9019 -4160.206 -1118.6732 -2767.2312 -4247.022
5687.5947 -2586.1143 -11108.846 5359.5283 -3115.079 -11985.489 3403.776 -4521.504
-12770.236 2825.6199 2463.0884 1582.7063 2087.4104 2163.8916 1765.0093 1165.501
1583.2644 1685.929 -5083.038 -4864.3477 -3869.0562 -4793.7075 -4391.958 -3212.8867
-4625.132 -4162.266 -2945.516 9528.988 4531.7666 -1201.2949 8339.92 3078.1245
-2867.9106 6885.629 1931.7124 -3667.6858 -1028.0026 -2040.8583 -2973.761 -10.009857
-1038.35 -2114.7458 -55.46769 -1121.6487 -2207.795 -1045.637 -2951.2734 -4473.6885
-786.2766 -2861.195 -4585.8066 -1036.5916 -3097.8599 -4799.956 -3607.4238 -4259.8115
-4637.3022 -2855.724 -3244.847 -3450.0476 -3269.4436 -3536.064 -3499.6694 -2913.9683
-4181.044 -4980.8267 -2275.1824 -3524.8926 -4400.863 -2175.6865 -3339.8794 -4201.449
-52.231606 11.458466 11.255646 766.47656 454.2338 -18.980957 1275.5083 643.9087
-198.24364 -4368.5576 -2947.0938 -1207.1149 -3535.7375 -2143.3206 -497.87155 -3073.2402
-1914.8263 -504.60904 -6932.5596 -7304.795 -6781.9023 -6111.515 -6227.005 -5564.7715
-5932.6963 -5858.0576 -5017.326 -3018.4617 4057.8203 11199.779 -2761.399 4182.7646
11271.057 -548.6135 5763.036 12064.233 -1166.8853 -2942.7002 -4439.918 -1032.0315
-2669.407 -4097.7446 -1334.595 -2679.7056 -3861.0972 -5323.8496 -4765.5576 -3782.3303
-3986.0955 -3385.2756 -2533.1284 -3414.27 -2929.831 -2222.517 3307.8872 -483.7373
-4368.8384 2769.9917 -1114.9379 -5084.7427 1856.4036 -1749.8193 -5463.1216 6464.7383
5058.081 2968.315 5076.2 3898.698 2127.6533 4235.9243 3445.5305 2080.572
2371.5784 5754.7783 8602.573 2012.5167 5603.627 8678.037 2841.8486 6375.651
9300.057 -6809.0527 -4193.173 -1522.2524 -8937.637 -7188.393 -5156.9795 -8470.265
-7975.4033 -7047.8677 4324.628 2529.8506 539.97864 6335.635 5053.754 3341.016
6658.259 6184.7227 5090.8945 -14353.443 -11753.304 -8151.919 -12179.271 -11949.514
-10572.498 -9026.357 -11243.711 -12376.718 11323.293 8862.737 5829.5347 11227.201

exp_avg_sq f4 [50, 25, 3, 3]
00000000: 75ce 3c4d 003c 364d 9f8f 2c4d dd5b 4d4d
00000010: 9534 464d ead0 3d4d 792f 514d bf91 484d
00000020: d557 3f4d 36d7 3c4b 46c2 214b dece 1e4b
00000030: cf75 584b f985 3f4b d77e 454b 9ddd 664b
00000040: 34a0 4a4b 3785 4a4b 0875 b04d ade6 b34d
00000050: c41c ba4d 96b8 b74d 8258 ba4d 7acb bf4d
00000060: 331b ae4d ae6c b04d 42d9 b34d 10aa 284d
00000070: cf60 264d dd59 214d 52ec 3c4d 7d44 3a4d
00000080: 8313 384d 5178 454d 4cba 424d 3bc1 414d
00000090: 14c4 954b 901c eb4b b2da 314c 6720 924b
000000a0: 63b4 da4b 86fa 214c c9ec 8b4b 995c d44b
000000b0: e2d1 174c 0259 5d4c cb32 674c 5356 834c
000000c0: c68c 434c 7629 4b4c ac48 634c 3f8e 1b4c
000000d0: e155 264c ab15 394c b5bd 964c 2134 a84c
000000e0: f007 c64c b094 a24c b262 b14c deb9 ca4c
000000f0: c3d3 964c 8c19 a84c e166 c04c aeeb 894a
00000100: 4534 de4a eb98 404b 7352 824a e8e5 bf4a
00000110: d347 274b 43fa 894a 891f d64a 8d61 304b
00000120: 4daa 024e 3263 0c4e 20ab 184e 14f2 0c4e
00000130: ca97 144e fbd3 1e4e 9ae8 074e a169 0e4e
00000140: 4c24 164e 78c5 954a b242 854a bb0b 3c4a
00000150: ccac 174a ed42 1d4a 411a ef49 d1c3 a749
00000160: 446a c249 67cb bb49 f52c 914b 9623 994b
00000170: 902e 8b4b 3469 954b 89fb 9b4b b058 904b
00000180: 009d 9d4b baf2 a44b 3840 9b4b a5c9 924d
00000190: 7a60 8e4d 625a 8b4d f153 984d 3f6d 944d
000001a0: cc82 924d 743b 924d 66d0 8e4d eda1 8c4d
000001b0: 1aba 484b 38b7 204b 606f 1a4b 8c86 2f4b
000001c0: d138 014b 43aa f04a 1c74 184b ccd5 e94a
000001d0: 7ec9 eb4a 06b5 4c4a 40d6 c84a 9a8d 314b
000001e0: 2091 6d4a cfe5 d84a b337 414b a471 864a
000001f0: 9fde f54a 4b99 514b 0c2d 754b 24d8 6e4b
00000200: ef5f 744b 5d98 644b 82a8 544b ee17 524b
00000210: 0b53 834b 0352 7c4b 7596 764b 0eef e04a
00000220: d3e7 2b4b 439e 654b f6b6 b54a 5d2c 0b4b
00000230: b305 424b ebad b04a fa28 044b 4894 374b
00000240: df0d 984a c293 554a 09fa 084a 8f61 434a
00000250: 6557 e049 0c92 6649 dfb3 154a 05c2 9249
00000260: f478 2949 1a73 294c 481c 144c 0664 004c
00000270: 5f72 194c 5765 084c 58fb f34b c33e 084c
00000280: 51dc f54b 6ee8 dd4b 5d60 ef4b 9a98 074c
00000290: cd21 054c f924 df4b 8607 f74b 4b23 f44b
000002a0: 0596 ec4b 2ef7 ff4b f409 fb4b ca32 844d
000002b0: 368f 964d ffbd af4d ab67 894d cd2b 984d
000002c0: 2e83 ac4d 0f26 7e4d b036 8d4d 2df9 9d4d
000002d0: 43b0 e749 6c96 914a 4665 104b d37a b449
000002e0: 44b3 6d4a 3615 f64a dec0 b849 91c8 674a
000002f0: ae42 dd4a 17bc ea4b 821a c74b ce01 a14b
00000300: b10c ba4b aa8c 9c4b 4f16 834b 676a a24b
00000310: ea7e 8b4b 1ed3 714b 0f0b 094d 2b9b 0c4d
00000320: 66e8 104d ef3e 104d 2cc1 124d f0d9 154d
00000330: 6880 094d a4f1 0a4d 805e 0c4d b5c5 af4c
00000340: 589c 9f4c c606 8b4c 25ca 954c ff9f 894c
00000350: 770c 754c 320c 7a4c ebe6 674c 925e 514c
00000360: 6062 f24b 0480 364c 2249 7d4c 14cd 0b4c
00000370: 8a09 454c 5d85 844c 6877 154c afce 514c
00000380: 0a4b 894c aca7 a04d 73b1 a44d 14e8 9a4d
00000390: 0ce7 a94d 9e04 b54d 2f9d ae4d 5a29 8d4d
000003a0: 74d2 a14d e4c2 a54d 3511 754c f9f6 4b4c
000003b0: 2835 104c 6259 994c 5c7c 8e4c b940 5f4c
000003c0: 99c3 884c 9dec 914c 1e6b 824c f8c7 474e
000003d0: f233 634e 54d7 6b4e 1a4d 164e 88bc 3b4e
000003e0: c70c 524e 7ca6 c04d ca84 064e b292 264e
000003f0: 7285 a24d 2f9c ae4d ed8b b04d 0a02 9c4d
1.9797794e+08 1.910866e+08 1.8094334e+08 2.1533435e+08 2.0783342e+08 1.9903658e+08 2.1934683e+08 2.1031218e+08
2.0063778e+08 1.2375862e+07 1.060103e+07 1.0407646e+07 1.4185935e+07 1.2551673e+07 1.2943063e+07 1.5130013e+07
1.3279284e+07 1.3272375e+07 3.7005747e+08 3.772799e+08 3.9030592e+08 3.8529094e+08 3.9079533e+08 4.022229e+08
3.6512726e+08 3.6998906e+08 3.7717e+08 1.7685734e+08 1.7446014e+08 1.6918882e+08 1.9810026e+08 1.9531566e+08
1.930179e+08 2.0706229e+08 2.0418682e+08 2.0316664e+08 1.963012e+07 3.0816544e+07 4.662343e+07 1.9153102e+07
2.8666054e+07 4.246172e+07 1.8340242e+07 2.7834674e+07 3.9798664e+07 5.802497e+07 6.0607276e+07 6.885852e+07
5.126223e+07 5.325769e+07 5.9581104e+07 4.077798e+07 4.3603844e+07 4.8518828e+07 7.903172e+07 8.8187144e+07
1.0382528e+08 8.523917e+07 9.30011e+07 1.0628683e+08 7.907689e+07 8.81327e+07 1.0087399e+08 4.519383e+06
7.2811865e+06 1.2622059e+07 4.2703935e+06 6.288116e+06 1.0962899e+07 4.5212495e+06 7.0163885e+06 1.1559309e+07
5.480497e+08 5.888278e+08 6.403379e+08 5.911688e+08 6.232439e+08 6.661731e+08 5.70042e+08 5.973218e+08
6.297403e+08 4.907708e+06 4.366681e+06 3.0809428e+06 2.485043e+06 2.5765712e+06 1.9587281e+06 1.3743301e+06
1.5926485e+06 1.5384129e+06 1.9028458e+07 2.0072236e+07 1.8242848e+07 1.9583592e+07 2.0444946e+07 1.8919776e+07
2.0658688e+07 2.1620084e+07 2.034904e+07 3.0783606e+08 2.9858592e+08 2.9224454e+08 3.1945475e+08 3.1127344e+08
3.0725568e+08 3.0667123e+08 2.995028e+08 2.9492778e+08 1.3154842e+07 1.0532664e+07 1.0121056e+07 1.1503244e+07
8.468689e+06 7.8861135e+06 9.991196e+06 7.66231e+06 7.726271e+06 3.3539215e+06 6.581024e+06 1.1636122e+07
3.892296e+06 7.1073035e+06 1.2662707e+07 4.405458e+06 8.0566555e+06 1.3736267e+07 1.6067852e+07 1.56529e+07
1.6015343e+07 1.4981213e+07 1.393677e+07 1.3768686e+07 1.721295e+07 1.6536067e+07 1.6160373e+07 7.370631e+06
1.1266003e+07 1.5048259e+07 5.954427e+06 9.120861e+06 1.2715443e+07 5.7894295e+06 8.661242e+06 1.2031048e+07
4.9825115e+06 3.4992485e+06 2.2442262e+06 3.2011238e+06 1.8378046e+06 944416.75 2.4527278e+06 1.2022406e+06
694159.25 4.44202e+07 3.882627e+07 3.3656856e+07 4.0225148e+07 3.5755356e+07 3.1979184e+07 3.5715852e+07
3.2225442e+07 2.9085916e+07 3.1375546e+07 3.5545704e+07 3.4899764e+07 2.9247986e+07 3.2378636e+07 3.1999638e+07
3.1009802e+07 3.3549916e+07 3.2904168e+07 2.7724013e+08 3.15746e+08 3.6855805e+08 2.8815907e+08 3.1912592e+08
3.6178477e+08 2.6649419e+08 2.9614643e+08 3.312941e+08 1.8979924e+06 4.770614e+06 9.46311e+06 1.4784904e+06
3.894481e+06 8.063643e+06 1.5134998e+06 3.7975402e+06 7.250263e+06 3.076715e+07 2.60969e+07 2.1103516e+07
2.438589e+07 2.0519252e+07 1.7181854e+07 2.1288142e+07 1.8283988e+07 1.5848222e+07 1.4370021e+08 1.4743621e+08
1.5194685e+08 1.5125272e+08 1.5388333e+08 1.571305e+08 1.4418086e+08 1.4569325e+08 1.4718771e+08 9.2155304e+07
8.368198e+07 7.28899e+07 7.8532904e+07 7.215513e+07 6.4238044e+07 6.554849e+07 6.0791724e+07 5.4884936e+07
3.1769792e+07 4.7841296e+07 6.639732e+07 3.6648016e+07 5.1652136e+07 6.9479144e+07 3.918173e+07 5.499974e+07
7.198114e+07 3.369179e+08 3.453866e+08 3.248626e+08 3.5631142e+08 3.7962234e+08 3.661921e+08 2.960372e+08
3.393655e+08 3.4762662e+08 6.42429e+07 5.3468132e+07 3.780317e+07 8.039912e+07 7.470358e+07 5.8524388e+07
7.170375e+07 7.6506344e+07 6.837682e+07 8.379428e+08 9.529581e+08 9.891894e+08 6.304088e+08 7.8742374e+08
8.810132e+08 4.0401702e+08 5.6421235e+08 6.986579e+08 3.408318e+08 3.661839e+08 3.7024502e+08 3.271724e+08

exp_avg f4 [50]
00000000: 1827 75c6 c88f 2346 0d2c 72c6 fa53 f045
00000010: 6645 d5c5 e28c ab46 36a3 b746 1c17 8bc6
00000020: 436a fcc4 fae1 69c6 a637 e244 e533 20c6
00000030: 1262 2fc6 19c4 37c5 237b 5ac5 c87f b046
00000040: b29e af45 b5fc 13c7 76f0 cc45 e8f3 e446
00000050: 83b9 b145 1ada 32c6 988a cfc6 e841 5bc7
00000060: d498 efc4 06c5 8ec6 6aef d345 1f93 40c5
00000070: f3e3 b1c6 8dcd 94c6 95a3 1747 1422 6d46
00000080: c04f 87c6 91d2 a646 5c93 e9c6 fcae 2ec6
00000090: a069 7ec6 b5e6 27c5 4a77 92c6 40e2 8541
000000a0: b046 c4c3 0a1e e1c6 720e 1ac6 bbe6 0ec7
000000b0: 8de4 a9c6 9cbf 9746 e745 5ec6 698f 8546
000000c0: 960f c345 ee2c 42c6
-15689.773 10467.945 -15499.013 7690.497 -6824.675 21958.441 23505.605 -17803.555
-2019.3207 -14968.494 1809.739 -10252.974 -11224.518 -2940.256 -3495.696 22591.89
5619.837 -37884.707 6558.0576 29305.953 5687.189 -11446.525 -26565.297 -56129.906
-1916.7759 -18274.512 6781.927 -3081.195 -22769.975 -19046.775 38819.582 15176.52
-17319.875 21353.283 -29897.68 -11179.746 -16282.406 -2686.4192 -18747.645 16.735474
-392.55225 -28815.02 -9859.611 -36582.73 -21746.275 19423.805 -14225.476 17095.705
6241.948 -12427.232

exp_avg_sq f4 [50]
00000000: 1b90 1c4e e03b c74d 3b3c 6d4e 4c3b 184e
00000010: 236c f94d eb40 314e 17d4 c94e 280f 674d
00000020: fc7a 084c 737b 364d 31a6 544c 5a75 074d
00000030: 761c 974e eb3e 394d a2b3 a24c 910f bc4d
00000040: fede 084e 9aa2 ae4e 8e3a be4f 78e2 1f4f
00000050: 9541 784e ad4a e44c a381 2a4e 6e46 3c4f
00000060: 8411 364c a5a2 804e 3775 c74c 0fa3 c74d
00000070: e4c4 854d 0968 884e ea17 784e d361 3f4f
00000080: 72aa d94d 9a0e 504e d731 b64e fccb 324d
00000090: e880 db4d 175b 4e4e b1df bf4d f675 694d
000000a0: 26b5 244c b3f9 cd4d 6c23 e24c d6e8 f74e
000000b0: dfe3 f94d c4cb 9c4e a734 904d 59d5 bb4e
000000c0: aac7 1d4d da91 554f
6.5667245e+08 4.1782374e+08 9.9503686e+08 6.385057e+08 5.230767e+08 7.434554e+08 1.69306e+09 2.4228314e+08
3.577752e+07 1.9134648e+08 5.5744708e+07 1.4203843e+08 1.2676124e+09 1.9424427e+08 8.530254e+07 3.943921e+08
5.7407885e+08 1.4649459e+09 6.383017e+09 2.6824192e+09 1.0412619e+09 1.196906e+08 7.1515565e+08 3.1587323e+09
4.7728144e+07 1.0790714e+09 1.0457337e+08 4.1866902e+08 2.8053414e+08 1.1442597e+09 1.0405792e+09 3.2108593e+09
4.5647827e+08 8.7265446e+08 1.5283598e+09 1.8748205e+08 4.603323e+08 8.6551904e+08 4.023885e+08 2.4480138e+08
4.317711e+07 4.319617e+08 1.1856163e+08 2.0796157e+09 5.2405757e+08 1.3152998e+09 3.0242122e+08 1.5756607e+09
1.6544426e+08 3.5831055e+09
