models/downscaling/100samples/lr0.01_gamma0.5/ckpt/best_model.pth (torch, 21291 bytes, 15 tensors)

layer1.weight f4 [10, 1, 3, 3]
000000 9f 60 af bd 94 74 8f be f9 fc b7 3d 25 05 32 3e
       -0.08563351 -0.2801863 0.089837976 0.17384775
000010 39 5f b5 be 58 41 0b 3e 33 e2 cc bd 79 e0 88 be
       -0.35424212 0.13599145 -0.100040816 -0.2673376
000020 35 eb 2e 3e 71 02 40 3e 24 9d da 3d 57 48 a3 be
       0.17081912 0.18750931 0.106745034 -0.31891128
000030 ef 73 07 bd db f3 cb 3d 0a e2 75 be 4f 1b 1b be
       -0.033069547 0.09958621 -0.24012008 -0.15147136
000040 c6 3b 7a 3b 12 1e b0 bd d7 ed 73 bd 62 ce e1 3c
       0.00381826 -0.085994855 -0.059552994 0.027564231
000050 00 b3 04 be 2a 7d 3a be 76 18 37 3d d8 3c 17 bd
       -0.12958908 -0.18211809 0.044701062 -0.03692326
000060 42 5d 29 3d 69 10 48 be 04 8a 99 bd 03 7e 38 be
       0.041348703 -0.1953751 -0.074970275 -0.1801682
000070 b6 61 21 3e 13 e7 66 3d 60 f6 6c 3d 1c 11 70 be
       0.1575993 0.056372713 0.05785215 -0.23444027
000080 85 54 70 be b4 59 27 bd a3 8f 0b be 68 a7 c0 bd
       -0.23469742 -0.040857032 -0.13629012 -0.0940693
000090 5f fe a4 bd e3 3a 01 be 87 2f de 3e 94 e4 03 be
       -0.0805633 -0.1262012 0.43395635 -0.12880164
0000a0 48 cd fd bd 42 34 d5 3d 12 1e c8 3d 30 f6 54 3d
       -0.1239267 0.10410358 0.097713605 0.051992595
0000b0 ad cc de bd e6 1b f6 3d 89 26 f3 bd 33 a6 1e 3c
       -0.108788826 0.1201704 -0.118725844 0.00968318
0000c0 a7 f4 50 bd 5b 36 45 3d 21 3f 10 3e 26 dc 02 3e
       -0.05101457 0.04814754 0.14086582 0.12779292
0000d0 92 04 fd 3c a3 eb c3 3d 70 6f 1d 3e 37 00 41 bd
       0.030885968 0.095664285 0.15374541 -0.047119346
0000e0 56 02 b3 bd aa 5f b8 bd ae ef 8c 3d 2f dd d2 bd
       -0.0874068 -0.090026215 0.06881653 -0.10296094
0000f0 f5 e5 ef 3d bd 46 f2 bd 5b bf 8f 3d 92 c3 ee 3d
       0.11713783 -0.118298985 0.0701892 0.11658396
000100 4c ed bb 3b de 92 dd 3d 4a 78 65 bd dd b6 53 3c
       0.005735075 0.10819028 -0.05602292 0.012922016
000110 f0 4c 8a be ac d3 e8 bd 9b fd 8e bd c6 98 00 be
       -0.27011824 -0.11368498 -0.06981965 -0.12558278
000120 b5 7c 4b be d6 a4 e0 3d de 80 cf 3c db 26 b1 be
       -0.1987179 0.1096894 0.025330003 -0.34599957
000130 61 bf 27 3c 4f 7d 01 bf a3 f7 d9 be 8b ed 3a bd
       0.010238499 -0.5058183 -0.42571744 -0.045636695
000140 f9 99 2d 3d d1 59 3d be 52 ce 19 bd b4 ed de bd
       0.042383168 -0.18491293 -0.037550278 -0.10885182
000150 89 fb 55 3e b0 4e 94 3d 49 0f f8 bd 06 44 1e be
       0.20896734 0.07241571 -0.121122904 -0.15455636
000160 05 21 86 bd b4 bc e0 be
       -0.06549267 -0.4389397

layer1.bias f4 [10]
000000 0b f2 96 3e 49 e8 20 3d 80 17 6f 3e fb 0d 81 bd
       0.2948154 0.039284024 0.23348808 -0.06301495
000010 3b f8 8d 3e 70 3b 0e be 7b 15 05 3e 20 6e 38 3e
       0.27728447 -0.13889861 0.12996475 0.1801076
000020 53 af 41 be 89 03 cc bc
       -0.18914537 -0.02490403

layer2.weight f4 [10, 10, 3, 3]
000000 11 d4 ef bc ea ac 2b bd fc ca 9d 3c ba 8c a0 bc
       -0.029275926 -0.04191295 0.01926183 -0.019598354
000010 54 67 2f bc cc e3 1c 3c 0d 63 40 3d c7 22 00 3e
       -0.010705788 0.009575795 0.046969462 0.12513267
000020 a7 c2 c7 bd 12 58 34 3e 86 be 38 3e 6e 37 da bb
       -0.09753924 0.17611721 0.18041429 -0.0066594398
000030 14 db 2f bc d3 06 10 3e 54 a4 88 3d a0 35 1f be
       -0.010733385 0.14065103 0.06671968 -0.155478
000040 7c 34 a7 bc 9c f0 ac bd f5 0f 07 bd 6c 1f 9b bc
       -0.020410769 -0.0844433 -0.032974202 -0.018935882
000050 6a 75 43 3d 6d 9d 27 bd 48 a4 87 bd 97 b0 e2 3c
       0.047719397 -0.040921617 -0.06623131 0.027672095
000060 80 4e 04 3e 9b 81 c4 bc ed 54 a4 bd 09 f1 5d ba
       0.1292057 -0.023987582 -0.08024011 -0.0008466398
000070 2b 1f 89 3e 79 e7 02 3e 2f fe 07 3e 6e ff 43 3d
       0.26781592 0.12783612 0.13280557 0.04785102
000080 00 8c 3f bc cf fb c7 3d bd dc 94 bc 36 cf 56 3e
       -0.011691093 0.097648256 -0.018171662 0.20977482
000090 cc 20 29 be b3 9c 23 be b4 e8 68 be 96 db 7f be
       -0.16516417 -0.15977745 -0.22745019 -0.24986109
0000a0 6e 99 69 3d ea f1 8c b9 4a 51 6e bc 83 26 a1 3c
       0.057031088 -0.0002688312 -0.014545748 0.019671684
0000b0 a8 07 c6 bc 1c 03 ce 3d ac 56 dd bd f4 9f 37 3e
       -0.024173573 0.10059187 -0.10807547 0.17932111
0000c0 fa d7 53 3c 6f 89 8b bd 60 f7 2b 3d 92 f6 25 bd
       0.012929911 -0.06813323 0.041983962 -0.04051835
0000d0 44 8f c9 3d 83 98 06 bc d3 13 21 3e ed 55 99 ba
       0.09841779 -0.008215073 0.15730219 -0.0011698582
0000e0 01 9d a7 3d a7 7c 93 3d 7d 70 2c bd 22 49 b6 3d
       0.08184243 0.0720151 -0.042099465 0.08900668
0000f0 7f 94 85 3d b1 8a 9b 3d ea 3e ae 3d fc 65 fe 3d
       0.06522464 0.07594813 0.08508094 0.12421796
000100 c0 de 04 3d 35 21 e1 bc 8a 09 d5 bd bf 35 bd 3c
       0.032438993 -0.027481655 -0.1040221 0.023096917
000110 6b 84 ac bd 80 5d 04 3c 3b b8 ef bd 59 ba 20 3b
       -0.08423694 0.008078933 -0.11705061 0.0024525134
000120 45 ac 82 3e 20 15 c3 3c 6f ea af 3b 43 97 9e 3e
       0.25522056 0.023813784 0.005368523 0.3097478
000130 ed b1 f5 bc 9c f7 a1 3d cf f3 1e 3e 22 ec 1b 3e
       -0.029992068 0.07908556 0.15522693 0.15226796
000140 e3 de 0b bd 09 7d 3c be 57 80 dc bd 3a 89 87 3d
       -0.03414811 -0.18407072 -0.107666664 0.06617971
000150 34 62 39 3e a6 ca 57 3e 55 47 63 bd 57 0c 68 3e
       0.18103868 0.21073398 -0.05548795 0.22660957
000160 17 15 88 3c e4 fc 8a bd 61 51 79 bd ad 14 54 bd
       0.016611619 -0.06786516 -0.060868625 -0.05177753
000170 b1 2c ee 3c d7 d3 ff 3d dc 00 42 3d 2c 03 18 bd
       0.029074045 0.12491577 0.0473641 -0.0371124
000180 bf 20 45 bd 33 cd 1f bd 8e 48 b3 3a 8a e9 39 be
       -0.048126932 -0.039014053 0.0013678239 -0.18155494
000190 81 f6 03 3d 19 1f 8b 3e 53 d3 70 3e 77 1e 1e 3e
       0.032217506 0.27172163 0.23518114 0.15441309
0001a0 b3 10 5f 3d e5 98 23 3e 64 a6 2a 3e 31 c4 29 3d
       0.054459285 0.15976293 0.16665035 0.04144687
0001b0 30 c0 0c 3e fd a8 14 3c 64 d3 b2 bc 11 e8 81 3c
       0.13745189 0.009073493 -0.021829315 0.015857728
0001c0 ca 6c 20 bd bc 1d c1 3d b0 43 5e bb f2 a8 82 3d
       -0.03916625 0.094294995 -0.0033914857 0.0637988
0001d0 bc 89 16 be 8e 3f 8e bd 5c b8 a4 3d 88 5b 2f 3e
       -0.14700979 -0.06945716 0.08042976 0.1712476
0001e0 12 12 c9 3d 57 19 00 3e 28 76 21 3e a6 aa 17 3b
       0.098179 0.12509666 0.1576773 0.0023142486
0001f0 d8 5e 07 3e b7 85 03 3e 92 e7 2e bd 2e fe c5 3d
       0.13219774 0.12843977 -0.04270131 0.096676216
000200 e2 ae d8 3b 09 07 94 bd d1 34 92 bd b4 d2 50 3d
       0.0066126445 -0.07227904 -0.0713898 0.050982192
000210 2d 34 ac bd 53 dc e3 3c c4 f8 29 3e f0 e4 25 be
       -0.08408389 0.02781502 0.16598803 -0.16200614
000220 16 67 49 bd f1 c1 09 3e 6f 22 32 3d 5d 44 0f bd
       -0.049170576 0.13452889 0.04348987 -0.034977306
000230 3d bc 85 bd 3f 32 8f 3e 0d d4 06 bd a2 b0 ac bd
       -0.06530044 0.27968022 -0.03291707 -0.084321275
000240 c8 76 82 be 56 7c a9 b8 9e c8 94 3d 82 63 71 3d
       -0.25481248 -8.081707e-05 0.07264827 0.05893279
000250 d7 3d 4c 3d 2e 7b 4a bc bf 17 ff 3d 16 4d 47 3b
       0.049863663 -0.01235847 0.12455701 0.0030410937
000260 f6 75 17 bd d6 9f ad bd 1e 11 89 3e ae 19 50 3e
       -0.03697773 -0.08477752 0.26770872 0.20322296
000270 6c d9 10 bd 4f 2f 4e 3d 99 f8 d9 3d 0a 2e ca bd
       -0.0353636 0.050338086 0.10643119 -0.098720625
000280 34 4a 85 3c b8 ba 0c 3d 41 fa 0e 3e 75 20 1c bd
       0.016270734 0.034357756 0.13962652 -0.03811689
000290 54 d1 a3 bc 8e 10 96 3e f2 75 d1 3d 6c 83 24 3e
       -0.019997276 0.29309505 0.102275744 0.16065758
0002a0 3a a7 d0 bc fc fc 29 be 4b 99 c0 3d 6d 1e b4 bd
       -0.025470365 -0.16600412 0.09404238 -0.08794866
0002b0 3e 6b 43 bd 76 e1 8f 3d 1f 06 98 3e b7 a5 37 3e
       -0.047709696 0.07025425 0.2969217 0.17934309
0002c0 23 2e 98 bd a7 77 3e 3c 86 8e 25 3e 20 d4 4d 3d
       -0.07430675 0.011625207 0.1616765 0.050251126
0002d0 c1 5c 1b 3e 87 fd e4 3d fc 0a 8c bd 3d db 89 bd
       0.15172102 0.11181169 -0.068380326 -0.067312695
0002e0 e2 85 16 be 93 29 95 bd 8f 7f f5 3c 74 bb 43 3e
       -0.1469951 -0.0728332 0.029968051 0.19114476
0002f0 60 c2 19 be e0 69 e2 3d b0 ad 8f bd 62 eb f5 bd
       -0.15015554 0.1105535 -0.0701555 -0.12007786
000300 18 0d f8 bd 99 b7 d2 bd 7f f0 23 3d 64 c3 03 be
       -0.121118724 -0.10288925 0.040024277 -0.12867504
000310 f1 23 c3 3d bb f1 c0 3d 5c 97 9a 3d b1 7d 8f bd
       0.0952834 0.094211064 0.07548401 -0.070063956
000320 f5 7f d4 3a c5 68 45 3e dc d5 ec bd e2 2c 44 bd
       0.001621245 0.19278248 -0.11564228 -0.047894366
000330 75 b5 99 be 3b 5a e7 bd bb 96 86 bc fb f1 d8 bd
       -0.30021253 -0.11296507 -0.016429296 -0.10593029
000340 82 69 7f bc 0e b0 1a be 56 79 13 3e f5 66 61 bd
       -0.01558912 -0.15106222 0.14401755 -0.055029828
000350 c0 f8 39 bd 0b e8 06 be 24 2e f4 bc 6c 6d d1 3d
       -0.045403242 -0.13174455 -0.029807158 0.10225949
000360 1c 7b d5 3d da 8f 34 bc c0 56 26 3b a5 60 cf bc
       0.10423872 -0.011020625 0.0025381297 -0.025314638
000370 84 46 4b bb d1 a5 4b bc 9c 4f fb 3a 90 de be 3d
       -0.0031017372 -0.01242967 0.0019173506 0.09319794
000380 8d a9 d8 3d b3 6b c7 3c 3a ad 1d bd 4b f5 a9 3d
       0.10579214 0.024343347 -0.03849528 0.08298739
000390 e8 c3 a2 3d 6e f7 7a be a1 12 f2 3d 77 30 2f bd
       0.079475224 -0.2450845 0.118199594 -0.04277083
0003a0 e9 22 27 bc 5f 7f 60 3d b2 0c 35 3e a2 d1 f6 bc
       -0.010201194 0.05480897 0.17680624 -0.030129258
0003b0 40 65 cb 3d af 2f 86 bc 99 39 4c 3d 2b 7d b1 bc
       0.09931421 -0.01638016 0.049859617 -0.02166613
0003c0 21 07 bf 3d 06 8a e0 bd 5a 15 7c bd 88 82 b8 bd
       0.093275316 -0.10963826 -0.0615438 -0.09009272
0003d0 81 54 18 bd b9 73 cb bd ad 06 ef bd 4a c7 15 be
       -0.037189964 -0.09934182 -0.11671195 -0.14626804
0003e0 9f 6f 11 3e 6d ce 0e be 04 34 6a 3c d0 90 32 bd
       0.14202736 -0.13945933 0.014294628 -0.043595135
0003f0 78 80 f2 bd 4a 0f 80 bd 2a ea 6b 3e 89 00 2a bd
       -0.1184091 -0.06252916 0.23038545 -0.041504417

layer2.bias f4 [10]
000000 45 85 f8 3c ba ef 9c bc cd 7e a2 bd 96 a0 9f 3d
       0.030336985 -0.01915728 -0.079343416 0.07794301
000010 00 e8 99 bd 47 a8 ba bd 55 92 77 bc a6 8c 7c 3d
       -0.075149536 -0.091141276 -0.015110572 0.06165757
000020 c3 32 89 bd 42 1a 0a 3e
       -0.06699135 0.13486579

layer4.weight f4 [1, 10, 3, 3]
000000 2e 72 a8 be b9 cd c8 be c9 be d4 bc 89 39 1d be
       -0.32899612 -0.39219454 -0.02596988 -0.15353979
000010 70 94 bf 3d dc 8a 82 bd a9 9b e0 3d f2 fb 38 be
       0.09354484 -0.063741416 0.1096719 -0.1806486
000020 fb 9a 2a 3d d9 23 0c be b5 44 e1 bc 7e 87 a1 bd
       0.041651707 -0.1368555 -0.027498582 -0.07887171
000030 38 46 be bd c5 49 ac bd e4 8f 09 be 9e b3 3f 3d
       -0.09290737 -0.08412508 -0.13433796 0.046802156
000040 8c 81 03 bf 85 11 d4 be d6 f0 8d 3e 63 c6 1d be
       -0.5136955 -0.41419616 0.27722806 -0.1540771
000050 d3 3d fc 3d 40 b7 84 bd 62 86 30 be 7b 81 33 be
       0.123164795 -0.06480265 -0.17238763 -0.17529862
000060 18 95 90 3e 8b 52 9d bd 89 f1 00 be ad 37 32 be
       0.2823875 -0.076817594 -0.12592138 -0.17404051
000070 d9 6c 9d 3d 30 af 57 be 58 d7 8c bc 3b 93 b6 bd
       0.07686777 -0.21062922 -0.017192528 -0.08914801
000080 06 d3 30 bc 89 23 55 3d eb 8a 9c be 31 5c 07 bd
       -0.010792499 0.052035842 -0.30574736 -0.033046905
000090 4c 6d 1b be c9 3b ae bd 6e c6 ad bd 5a 42 39 3d
       -0.15178412 -0.08507497 -0.08485113 0.045229293
0000a0 86 8a 28 bd 1b b8 06 3e d8 f4 36 bd c9 64 fc 3d
       -0.04114773 0.13156168 -0.044667095 0.12323911
0000b0 25 fe 2e 3e d1 60 1f 3e 5e 8f 0c 3e e3 be 04 3e
       0.17089136 0.15564276 0.13726565 0.12963443
0000c0 9e e9 98 3d 0a 0b 0c 3d 26 9e 1d be 39 22 f5 3b
       0.07466434 0.034190215 -0.1539236 0.0074808863
0000d0 dc 8e 54 3d 76 d5 b5 bd 6e a1 75 be 05 bf 98 bd
       0.051894054 -0.08878605 -0.23987362 -0.07458309
0000e0 4f a0 ad bc 4c 7f b3 bd bc 64 1c be 24 54 6f be
       -0.021194605 -0.08764514 -0.15272802 -0.23371941
0000f0 42 aa a3 bd bf 37 03 3d 06 81 84 be 97 65 8a bd
       -0.079914585 0.032035585 -0.25879687 -0.06757658
000100 a3 33 aa bd dd 2e ad bd 8f 12 77 bc 68 2c 62 3d
       -0.0831063 -0.08456204 -0.015080108 0.05521813
000110 e9 44 c0 3e 91 7e 82 3a a7 91 20 3e 74 89 94 3d
       0.37552574 0.0009955933 0.15680562 0.072527796
000120 4a ad 88 bc 41 2c 32 3e 6c 60 bc 3d 73 cd 60 3e
       -0.016684193 0.17399694 0.091980785 0.21953373
000130 98 eb 20 3e 67 b1 00 bd 83 e1 78 3e fd f4 e3 bd
       0.15714872 -0.031419184 0.24304776 -0.11130712
000140 97 23 35 3e b9 b2 77 be 1c e0 2b be 64 a8 50 be
       0.17689358 -0.24189271 -0.1678471 -0.20376736
000150 76 b1 1b bd a7 43 48 be 2e ef da bc 09 e8 76 bd
       -0.038011037 -0.19557057 -0.026725378 -0.06027988
000160 46 79 9b 3c 60 3d 58 ba
       0.018978726 -0.00082488917

exp_avg f4 [10, 1, 3, 3]
000000 07 fc 92 3e 07 ea 0c 3f 7c 6d 26 3f 30 84 8f 3e
       0.28707907 0.550446 0.6501081 0.2803054
000010 aa ed 0b 3f 32 e6 25 3f 2c c4 22 3e 89 8c da 3e
       0.5465952 0.64804375 0.15895146 0.42685345
000020 78 a7 07 3f d1 ce 98 3f f4 5c d2 3f 44 c0 ea 3f
       0.5298991 1.1938115 1.6434617 1.8339925
000030 91 a2 b5 3f c2 28 ef 3f 45 9c 03 40 4e 3f b5 3f
       1.4190236 1.8684313 2.056413 1.4159944
000040 46 a5 ee 3f 88 47 03 40 e3 24 d3 3d bd 6d 09 3e
       1.8644187 2.051241 0.1030977 0.13420768
000050 72 7e 16 3e c6 11 33 3e 56 c2 53 3e 00 bb 60 3e
       0.14696673 0.17487249 0.20679602 0.21946335
000060 96 fe 10 3e d3 bf 32 3e 88 6e 40 3e 99 4e e9 3f
       0.14159617 0.17455988 0.18792164 1.8227111
000070 28 5e 04 40 0e 2b 11 40 04 7d f7 3f c7 a7 0b 40
       2.0682468 2.2682528 1.9335027 2.1821153
000080 2f 91 18 40 26 3a f7 3f 31 b2 0b 40 6d bf 18 40
       2.3838613 1.931462 2.182751 2.3866837
000090 ae f4 87 3f f0 ea 8d 3f c0 ca 78 3f e3 5b 7c 3f
       1.0621545 1.1087322 0.9718437 0.9857771
0000a0 b0 4c 84 3f 50 f2 65 3f b4 30 7e 3f ef 73 85 3f
       1.0335903 0.89822865 0.99293065 1.0426005
0000b0 b6 d3 68 3f 5a b9 20 bf 82 9c 0c bf db 75 f1 be
       0.90948045 -0.62782824 -0.5492631 -0.4716023
0000c0 02 cc 21 bf a1 a6 0d bf 62 79 f3 be 75 8b 20 bf
       -0.63201916 -0.5533238 -0.47553545 -0.62712795
0000d0 c1 73 0c bf 51 28 f1 be 6e b3 e8 bd a4 90 c9 3d
       -0.54864126 -0.4710107 -0.113623485 0.09842041
0000e0 2f 88 b0 3e fe ae 04 be 5e 33 b6 3d 03 db ae 3e
       0.344789 -0.12957379 0.08896516 0.34151468
0000f0 67 83 a3 be 60 e7 c3 bd ef 31 26 3e a0 f5 93 bd
       -0.3193619 -0.09565616 0.16229986 -0.072245836
000100 60 e7 d6 3d c9 42 81 3e 20 72 4c 3e c7 49 bf 3e
       0.1049335 0.25246266 0.1996541 0.37360975
000110 60 0a 04 3f 16 75 9d 3e 82 d5 f4 3e 9e a5 1d 3f
       0.5157833 0.30753392 0.47819144 0.61580837
000120 20 b8 9a 3f cc 38 ae 3f 7d 43 c0 3f c7 b3 a8 3f
       1.208744 1.3611083 1.5020596 1.3179864
000130 8d 8f bc 3f 94 d4 ce 3f 1a cf a8 3f ec 00 bd 3f
       1.4731308 1.6158624 1.3188202 1.4765906
000140 6e 91 cf 3f 79 7f af 3f 00 bf cc 3f c6 9c e0 3f
       1.6216257 1.3710777 1.5995789 1.7547843
000150 7d 08 b7 3f d3 8e d4 3f 76 94 e8 3f 40 2f ae 3f
       1.4299465 1.6606086 1.8170307 1.360817
000160 bd e8 cb 3f 38 22 e0 3f
       1.5930401 1.7510443

exp_avg_sq f4 [10, 1, 3, 3]
000000 eb 80 05 42 51 df 06 42 f6 12 07 42 37 4c 07 42
       33.375896 33.718082 33.768517 33.82443
000010 21 a1 08 42 49 ca 08 42 b0 9d 08 42 31 e9 09 42
       34.157352 34.197544 34.15399 34.477726
000020 53 0e 0a 42 7a b8 17 43 8e dc 17 43 b8 1f 17 43
       34.51399 151.72061 151.86154 151.1239
000030 56 0f 18 43 48 3d 18 43 8b 8a 17 43 f0 0c 18 43
       152.0599 152.23938 151.54118 152.05054
000040 75 4a 18 43 1d ad 17 43 8d 61 d5 42 53 cc d6 42
       152.29085 151.67622 106.69053 107.39907
000050 8a 32 d7 42 db 9f d8 42 c0 d6 d9 42 39 05 da 42
       107.59871 108.31222 108.91943 109.0102
000060 ff e4 da 42 c7 e8 db 42 77 e3 db 42 1b 28 f0 42
       109.44726 109.95464 109.94427 120.07833
000070 d8 a1 f1 42 68 b7 f1 42 af 3f f3 42 a7 8e f4 42
       120.8161 120.858215 121.62438 122.27862
000080 1c 78 f4 42 55 18 f5 42 50 40 f6 42 e1 05 f6 42
       122.23459 122.54752 123.12561 123.01148
000090 45 56 7e 41 49 72 7f 41 a3 ac 7e 41 ee 50 80 41
       15.896062 15.965402 15.917148 16.039516
0000a0 ed ec 80 41 39 9e 80 41 e1 9f 80 41 2d 53 81 41
       16.115686 16.077257 16.078066 16.165613
0000b0 01 1d 81 41 01 e2 8b 42 bf 7f 8d 42 88 7c 8e 42
       16.139162 69.941414 70.749504 71.243225
0000c0 6a d1 8e 42 f8 aa 90 42 62 df 91 42 e7 cf 90 42
       71.40901 72.33392 72.936295 72.40606
0000d0 41 e2 92 42 b2 4c 94 42 68 6d 2e 43 69 0b 2f 43
       73.4419 74.149796 174.42737 175.04457
0000e0 73 56 2e 43 95 e0 2f 43 ef 33 30 43 4c 31 2f 43
       174.33769 175.87727 176.20287 175.19257
0000f0 74 58 30 43 5e 60 30 43 25 11 2f 43 0c 17 f8 42
       176.34552 176.37643 175.06697 124.04501
000100 31 5d f7 42 90 28 f5 42 5f 5e f7 42 60 5a f6 42
       123.682014 122.57922 123.68432 123.17651
000110 f6 e1 f3 42 75 4d f5 42 9d 06 f4 42 c2 58 f1 42
       121.94133 122.65128 122.01292 120.673355
000120 b9 87 90 41 3f 84 91 41 f3 93 91 41 dc a5 91 41
       18.06627 18.189573 18.19724 18.205986
000130 4c b7 92 41 b6 dc 92 41 41 6d 92 41 a5 9b 93 41
       18.3395 18.357769 18.303347 18.450998
000140 ea e0 93 41 6f 30 c8 42 68 c8 c9 42 38 4d ca 42
       18.484821 100.0946 100.89142 101.15082
000150 7d 75 c8 42 62 0c ca 42 0f 94 ca 42 b4 a6 c7 42
       100.22947 101.024185 101.28918 99.82559
000160 08 3f c9 42 e0 cf c9 42
       100.62311 100.906006

exp_avg f4 [10]
000000 66 7a e1 bf 38 8b 04 c0 08 79 ef be e6 35 a0 bf
       -1.7615478 -2.0709972 -0.46772027 -1.2516448
000010 5c 84 81 be 30 23 e2 be 70 5d bd bf 4c 8d b8 bf
       -0.25296295 -0.4416747 -1.479414 -1.441812
000020 d6 e3 5e bf c9 6e 7f bf
       -0.870664 -0.9977842

exp_avg_sq f4 [10]
000000 71 d5 c9 40 cd 4a d7 41 fa db 83 41 d7 d4 a0 41
       6.307305 26.911524 16.48241 20.103926
000010 24 e3 8e 40 cd 51 7a 41 51 31 ce 41 bc f2 9f 41
       4.465227 15.644971 25.77408 19.993523
000020 f4 49 66 40 87 58 8e 41
       3.5982637 17.793226

exp_avg f4 [10, 10, 3, 3]
000000 5e e0 53 be a0 6e 86 be 05 c9 93 be 4c 30 94 be
       -0.20691058 -0.26256275 -0.28864303 -0.28943098
000010 c6 24 b1 be 9c 5d be be 33 9a 94 be cb ad b1 be
       -0.34598368 -0.37180793 -0.29023895 -0.34702906
000020 71 00 bf be 80 a3 6d be 06 26 83 be c2 25 96 be
       -0.37305024 -0.23206902 -0.25614947 -0.29325682
000030 3f 67 7e be 72 b0 8b be 04 d6 9e be 0f 14 83 be
       -0.24844073 -0.27283055 -0.31022656 -0.2560124
000040 cd aa 8f be bc f4 a2 be 1d 52 7f be ce e8 98 be
       -0.28059998 -0.31827343 -0.24933667 -0.29865116
000050 7a 2d ad be 32 ed a3 be 40 a2 bd be cf 5a d2 be
       -0.33823758 -0.32016903 -0.3703785 -0.41084906
000060 f1 4c 9f be 78 39 b9 be 7f 3e ce be 0c 2d 8e be
       -0.3111339 -0.36176658 -0.40282056 -0.27768743
000070 ad 24 a4 be 65 fe b6 be 9d 64 95 be 72 cd ab be
       -0.3205923 -0.35740963 -0.29178324 -0.3355518
000080 13 fb be be 2c 87 99 be 14 53 b0 be 7a d1 c3 be
       -0.3730093 -0.2998594 -0.34438384 -0.38245755
000090 92 81 bc bd 30 b5 c1 bd c6 88 97 bd 31 f0 2b be
       -0.09204401 -0.09458387 -0.07399134 -0.16790845
0000a0 81 68 2e be e9 d4 18 be 37 b6 15 be b2 6c 17 be
       -0.17032053 -0.14924969 -0.1462029 -0.14787558
0000b0 fe 2b 01 be 42 c7 62 3e 98 81 95 3e f4 f8 b4 3e
       -0.12614438 0.22146323 0.29200435 0.35346186
0000c0 ee 35 6a 3e ce 1e 9b 3e c8 57 bc 3e 98 bb 58 3e
       0.22872135 0.3029694 0.36785722 0.21165311
0000d0 2f fd 93 3e f8 f2 b6 3e e0 9c 28 be 37 32 35 be
       0.289041 0.35732245 -0.16466093 -0.17694937
0000e0 b9 2b 35 be 34 ff 57 be 0a fa 64 be 76 02 65 be
       -0.1769246 -0.21093446 -0.22361007 -0.2236422
0000f0 06 96 54 be 10 a8 61 be ae bf 61 be b5 28 53 be
       -0.20760354 -0.22036767 -0.22045776 -0.20620997
000100 33 3a 7a be 87 1c 8e be f4 ce 81 be 53 b0 95 be
       -0.24436264 -0.2775614 -0.25353205 -0.29236087
000110 b5 db a6 be b9 e8 76 be e5 7a 8f be 49 b4 a0 be
       -0.32589498 -0.24112214 -0.2802345 -0.31387547
000120 90 28 fe be 54 1c 17 bf b7 85 2c bf 17 c1 05 bf
       -0.49640322 -0.590276 -0.6739153 -0.52247757
000130 64 4d 1e bf b4 23 34 bf e3 9b 0a bf 94 92 23 bf
       -0.6183684 -0.7036698 -0.54144114 -0.63895535
000140 79 cc 39 bf 17 4a c6 be db 81 e1 be b7 bf f7 be
       -0.72577626 -0.387284 -0.44044384 -0.48388454
000150 dd 57 ce be 0f 01 ea be 72 4e 00 bf af 00 d9 be
       -0.4030141 -0.45703933 -0.501197 -0.42383334
000160 ed 1b f5 be 07 0a 06 bf eb 89 21 bf c8 d4 33 bf
       -0.47872868 -0.5235905 -0.6310107 -0.70246553
000170 74 81 47 bf 89 6f 37 bf a5 b6 49 bf c4 03 5d bf
       -0.77931905 -0.71654564 -0.7879432 -0.8633387
000180 d5 d4 c9 be 2a 4d ee be 6d 1a 0a bf 68 02 da be
       -0.3942019 -0.46543247 -0.5394657 -0.4257996
000190 98 9d ee be da 7e f3 be 94 9f e8 be 56 f7 fc be
       -0.4660461 -0.47557718 -0.45434248 -0.49407452
0001a0 78 af 00 bf c1 51 c5 be 4d 68 d9 be 95 c3 dd be
       -0.50267744 -0.38538936 -0.42462388 -0.4331328
0001b0 83 52 26 bf 34 54 38 bf 45 2e 44 bf 8e 86 3c bf
       -0.6496965 -0.72003484 -0.766331 -0.73642814
0001c0 13 81 4e bf 7c 47 5a bf 67 4e e5 be 3e a7 04 bf
       -0.806657 -0.85265326 -0.4478638 -0.5181769
0001d0 bd 5a 10 bf a0 25 02 bf d6 9e 0e bf 8f c6 16 bf
       -0.56388456 -0.5083866 -0.55711114 -0.58896726
0001e0 c2 32 03 bf 56 c4 0f bf a5 fa 17 bf d3 d5 fd be
       -0.51249325 -0.5615896 -0.5936683 -0.49577197
0001f0 c0 b4 0b bf b5 29 14 bf 0f 85 fb be fd 75 f7 be
       -0.5457268 -0.5787614 -0.49124953 -0.48332205
000200 8a f1 f3 be df 25 03 bf 83 22 01 bf 2e e5 fe be
       -0.47645217 -0.5122966 -0.50443286 -0.49784225
000210 46 79 be bd 56 39 ae bd a5 11 a1 bd 99 45 ec 3e
       -0.09300475 -0.0850703 -0.078646936 0.4614685
000220 f1 6c 11 3f 6c 88 25 3f 92 81 d4 3e d0 c3 06 3f
       0.56806856 0.6466129 0.41505104 0.52642536
000230 ae ff 1b 3f 8e 0c 96 3e 3c 56 d1 3e 09 41 fe 3e
       0.6093701 0.29306453 0.40886104 0.49658993
000240 28 3f d3 be b8 c8 da be 3c 8d d4 be 8e 21 ea be
       -0.41259122 -0.4273126 -0.41514003 -0.45728725
000250 f3 8d f1 be 7b 12 eb be ab e2 8d be 6d 57 95 be
       -0.4717861 -0.45912537 -0.27711996 -0.29168263
000260 20 e5 8e be 3c 92 1e bf f2 b7 2d bf 23 fa 34 bf
       -0.27909184 -0.61941886 -0.67858803 -0.7069418
000270 d2 a5 24 bf cb a5 33 bf 6c cb 3a bf 73 c9 a4 be
       -0.6431552 -0.70174855 -0.7296665 -0.32184944
000280 75 e3 c2 be 0f 92 d1 be 6d 8c 6e bf d5 7c 85 bf
       -0.3806416 -0.40931746 -0.9318302 -1.0428721
000290 c0 2e 90 bf 20 eb 73 bf de 47 88 bf 4d 07 93 bf
       -1.1264267 -0.9528065 -1.0646932 -1.1486603
0002a0 f6 72 74 bf 79 a8 88 bf 94 9d 93 bf 92 50 35 bf
       -0.95487916 -1.0676414 -1.1532464 -0.70826066
0002b0 11 29 44 bf 3b c6 4a bf e6 0f 2f bf 69 03 3e bf
       -0.7662516 -0.79208726 -0.68383634 -0.74223953
0002c0 73 b3 44 bf 7f c2 2d bf e6 e4 3c bf ca 9d 43 bf
       -0.7683632 -0.678749 -0.7378677 -0.7641264
0002d0 b1 1c 94 bc 66 11 7c bd d4 0c 8e bd d0 b9 69 bc
       -0.018080087 -0.06154003 -0.069360405 -0.014265493
0002e0 fb 8c 6e bd 8e f0 89 bd c4 95 9a bd cb a9 f6 bd
       -0.05823992 -0.06735335 -0.07548097 -0.12044104
0002f0 ee e0 05 be 90 32 f1 bd a0 26 e0 bd 40 6c dc bd
       -0.13074085 -0.11777222 -0.10944867 -0.107628345
000300 18 b4 fb bd 84 8a eb bd fc 84 e8 bd 1c e8 04 be
       -0.122902095 -0.11501029 -0.1135349 -0.12979168
000310 8a 89 fa bd 14 8d f8 bd 6b b2 ae bd 92 21 d5 bd
       -0.12233265 -0.121362835 -0.08530124 -0.10406794
000320 2f af db bd b6 ff e1 bd 76 d0 04 be f5 7f 08 be
       -0.10726773 -0.11035101 -0.12970147 -0.13330062
000330 94 c5 10 be 7e ad 25 be 44 09 2b be bc a5 15 be
       -0.1413787 -0.16179463 -0.16702753 -0.14614004
000340 eb ed 18 be 06 cb 1d be 81 58 20 be 16 81 24 be
       -0.14934509 -0.15409479 -0.15658762 -0.16064867
000350 6a 1b 2a be b0 9b 27 be ac a7 2c be 98 0d 33 be
       -0.1661202 -0.16367984 -0.16860837 -0.17485654
000360 86 5c 3b 3d 04 aa 5a 3d a8 d9 93 3d c1 5b 07 3d
       0.045742534 0.053384796 0.07219249 0.033046488
000370 1f 22 28 3d a8 55 75 3d 0a 8a 05 3d b4 a6 26 3d
       0.041048165 0.05989614 0.032602347 0.040686324
000380 8e 47 74 3d 08 93 ba 3e a2 f0 b4 3e 5c 75 bb 3e
       0.059638552 0.364403 0.35339838 0.36612976
000390 8e 39 be 3e 50 8a b9 3e 0b ba c0 3e 6e 86 c8 3e
       0.37153286 0.36238337 0.3764194 0.39165062
0003a0 db d6 c4 3e 52 94 cc 3e 83 2b 66 bd d3 aa 8d bd
       0.38445172 0.3995691 -0.05619384 -0.06917348
0003b0 50 71 62 bd 0c bd 76 bd 46 0a 96 bd 16 be 72 bd
       -0.055283844 -0.060238883 -0.07326178 -0.05926331
0003c0 64 d7 8a bd 6e 9f a5 bd 6c e2 88 bd dc 00 8d bd
       -0.06779364 -0.080870494 -0.066838115 -0.068849295
0003d0 18 74 aa bd 6a 9b b3 bd b9 da df bd fc 8c ff bd
       -0.083229244 -0.08769877 -0.1093039 -0.124780625
0003e0 a4 75 05 be b1 3f 1f be 7c 75 30 be 46 32 37 be
       -0.13033158 -0.1555164 -0.17232317 -0.17890272
0003f0 6a 4c 99 be 90 e2 94 be 8b 12 9f be 1a eb a1 be
       -0.29941112 -0.29079103 -0.31068835 -0.3162468

exp_avg_sq f4 [10, 10, 3, 3]
000000 2d 1f 84 40 bb 6b 85 40 fe f6 85 40 85 17 86 40
       4.1288056 4.1694007 4.1864004 4.190371
000010 42 44 87 40 d4 a0 87 40 09 72 87 40 47 79 88 40
       4.2270823 4.2383823 4.2326703 4.2648044
000020 90 b2 88 40 2f d6 81 3e 1c eb 7f 3e 43 5f 7b 3e
       4.271797 0.25358722 0.24992031 0.24548058
000030 11 a1 82 3e c0 c0 80 3e 88 f5 7c 3e 13 a5 83 3e
       0.2551351 0.25147057 0.24703038 0.2571188
000040 8d db 81 3e e6 5d 7f 3e b7 a4 39 41 72 41 3a 41
       0.25362816 0.24938163 11.602714 11.640978
000050 d7 c6 39 41 f7 26 3c 41 c2 83 3c 41 47 bd 3b 41
       11.611045 11.759513 11.782167 11.73371
000060 22 a1 3d 41 8b b7 3d 41 d3 ae 3c 41 23 bf 96 3f
       11.851839 11.85731 11.792682 1.177708
000070 4e 20 97 3f b2 89 96 3f a7 77 98 3f f1 bd 98 3f
       1.1806734 1.1760771 1.1911515 1.1932966
000080 d2 0a 98 3f ae 5e 99 3f 52 8f 99 3f 1e c6 98 3f
       1.1878302 1.1982019 1.1996863 1.193546
000090 1d 76 a2 3f 14 5e a1 3f bc 7c 9e 3f bd 7e a8 3f
       1.2692295 1.2606835 1.2381816 1.3163677
0000a0 15 cd a7 3f 21 12 a5 3f 47 c3 aa 3f 5f 33 aa 3f
       1.3109461 1.2896158 1.3340844 1.3296927
0000b0 60 95 a7 3f 3a 74 da 40 dd dc db 40 fa aa db 40
       1.3092461 6.826688 6.870711 6.864621
0000c0 65 46 de 40 06 1b e0 40 3a 4e e0 40 eb 03 e1 40
       6.946093 7.0032988 7.009549 7.0317283
0000d0 9b 4c e3 40 89 e9 e3 40 76 14 41 3f bf 38 40 3f
       7.1031013 7.1222577 0.75421846 0.7508659
0000e0 d5 3e 3e 3f 61 9d 43 3f c6 8b 42 3f 34 3c 40 3f
       0.74314624 0.76412016 0.7599453 0.7509186
0000f0 71 8b 44 3f b2 31 43 3f 32 9b 40 3f 9a cd 41 3e
       0.7677527 0.76247704 0.7523681 0.18926087
000100 1b 3d 42 3e 15 c1 43 3e 34 6a 41 3e 12 33 42 3e
       0.18968622 0.19116624 0.1888817 0.18964794
000110 b2 95 43 3e a8 1d 43 3e 34 0d 44 3e 95 09 46 3e
       0.19100073 0.19054282 0.19145662 0.19339593
000120 16 06 77 41 66 13 79 41 1e 51 79 41 79 e3 7a 41
       15.438986 15.567236 15.582304 15.680535
000130 e0 9f 7c 41 6f 84 7c 41 ec 11 7d 41 b2 76 7e 41
       15.789032 15.782332 15.816875 15.903978
000140 45 06 7e 41 73 55 7e 40 c4 8e 7d 40 74 24 7b 40
       15.876531 3.9739654 3.9618387 3.9241
000150 ac 9f 80 40 60 18 80 40 b4 7a 7d 40 5b 44 81 40
       4.019491 4.0029755 3.9606142 4.039594
000160 78 99 80 40 20 37 7e 40 8d 04 73 41 24 7a 72 41
       4.018734 3.9721146 15.188611 15.1548195
000170 c5 fd 70 41 e2 89 71 41 63 c5 70 41 fe 1a 6f 41
       15.061955 15.096163 15.04819 14.94409
000180 a2 e9 6e 41 e8 f5 6d 41 1e 18 6c 41 05 3e 9a 3f
       14.932039 14.872536 14.755888 1.2050177
000190 89 6e 97 3f c0 14 94 3f 85 ba 98 3f 50 26 96 3f
       1.1830608 1.1568832 1.1931921 1.1730442
0001a0 d5 12 93 3f dd 70 97 3f f5 24 95 3f 6a a2 92 3f
       1.1490122 1.1831318 1.1651903 1.1455815
0001b0 47 62 1d 42 64 03 1c 42 55 bd 19 42 b4 fb 1b 42
       39.345974 39.00331 38.434895 38.995804
0001c0 ff 6c 1a 42 49 fa 17 42 36 ba 19 42 c2 ff 17 42
       38.60644 37.99442 38.431847 37.999763
0001d0 2f 69 15 42 b0 a1 9a 40 a6 76 99 40 e9 6f 97 40
       37.35272 4.8322372 4.7957335 4.732411
0001e0 8a c1 98 40 6f 98 97 40 05 9e 95 40 72 2d 96 40
       4.7736254 4.7373576 4.6755395 4.6930475
0001f0 10 11 95 40 7f 2e 93 40 af 38 24 40 f2 6c 22 40
       4.658333 4.599426 2.5659597 2.5378995
000200 d4 70 1f 40 28 09 27 40 2e 67 25 40 19 89 22 40
       2.4912615 2.6099339 2.5844226 2.5396178
000210 9e de 23 40 f1 33 22 40 67 44 1f 40 65 1e 8f 41
       2.5604625 2.5344203 2.48855 17.889841
000220 f6 48 90 41 99 8a 90 41 d3 fd 8f 41 65 59 91 41
       18.035625 18.067675 17.998938 18.16865
000230 ce cb 91 41 5d 49 90 41 20 d2 91 41 43 76 92 41
       18.224514 18.035822 18.2276 18.307745
000240 06 b1 1f 40 e3 9e 1d 40 85 99 1a 40 3d aa 1e 40
       2.4951797 2.4628227 2.41562 2.4791405
000250 b2 6f 1c 40 1c 3f 19 40 d8 21 1c 40 45 b5 19 40
       2.4443173 2.394477 2.4395657 2.4016888
000260 fc 6c 16 40 6f 7f 4d 3f f9 81 4d 3f 47 0f 4e 3f
       2.3504019 0.80272573 0.8027645 0.8049206
000270 c8 4c 4a 3f e3 b9 4a 3f 97 c7 4b 3f 6a c2 47 3f
       0.7902341 0.7918989 0.79601425 0.7803103
000280 2a 46 48 3f dd 8c 4a 3f c0 49 5c 42 ba 33 5b 42
       0.7823206 0.7912119 55.07202 54.800514
000290 bd 96 58 42 6c 22 5a 42 92 d0 58 42 14 02 56 42
       54.147205 54.533615 54.203682 53.50203
0002a0 48 8a 56 42 a8 01 55 42 77 0b 52 42 19 19 6c 41
       53.63504 53.251617 52.511196 14.756127
0002b0 6a e3 68 41 7a 39 64 41 40 40 69 41 46 f1 65 41
       14.555521 14.264032 14.578186 14.371405
0002c0 f3 3a 61 41 d5 f1 64 41 0a 95 61 41 ed e1 5c 41
       14.076892 14.309041 14.0988865 13.805158
0002d0 3b 27 15 42 26 82 18 42 b5 ff 1a 42 4c b1 16 42
       37.28831 38.127098 38.749714 37.67314
0002e0 54 cf 19 42 3e 0c 1c 42 2e 60 17 42 c2 3c 1a 42
       38.45247 39.011955 37.843925 38.559334
0002f0 08 3d 1c 42 a2 19 35 3f 9f 86 2a 3f 2f fd 1f 3f
       39.0596 0.7074224 0.66611665 0.624957
000300 da a8 2f 3f 8a 1f 25 3f 00 b5 1a 3f 4e 21 29 3f
       0.6861702 0.6450125 0.60432434 0.66066444
000310 4f b9 1e 3f f5 75 14 3f 8b 10 e8 42 4d 2d ec 42
       0.6200151 0.5799249 116.03231 118.08848
000320 0c b9 ee 42 12 f6 e9 42 d1 a6 ed 42 7e bf ef 42
       119.36142 116.980606 118.82581 119.87401
000330 e9 68 ea 42 11 9d ed 42 94 45 ef 42 1c 1b e2 40
       117.2049 118.80677 119.635895 7.0658092
000340 6b 0c e5 40 79 6f e6 40 60 bf e1 40 07 3a e4 40
       7.157766 7.2011075 7.054611 7.1320834
000350 7a 2a e5 40 15 cf df 40 0a d2 e1 40 e0 47 e2 40
       7.161435 6.9940286 7.0568895 7.071274
000360 8f fc ea 3f 41 dc ed 3f e1 37 ee 3f 94 79 ed 3f
       1.8358325 1.8582841 1.8610803 1.8552728
000370 52 57 f0 3f ad aa f0 3f a8 2f ef 3f 78 14 f2 3f
       1.8776648 1.8802086 1.8686419 1.8912497
000380 e7 6b f2 3f 6f 4d 61 41 a2 d8 68 41 63 f8 6f 41
       1.8939179 14.081405 14.552889 14.998141
000390 3b 25 63 41 9a ce 6a 41 99 14 72 41 8c 97 63 41
       14.196589 14.67544 15.130029 14.224499
0003a0 70 52 6b 41 a4 b0 72 41 21 b9 02 41 af 71 03 41
       14.707626 15.168125 8.1701975 8.215255
0003b0 70 8b 03 41 a3 78 03 41 e5 f8 03 41 8b da 03 41
       8.221542 8.216952 8.248265 8.240855
0003c0 ae 8a 03 41 8a d1 03 41 d2 79 03 41 0b ac 9d 3e
       8.221357 8.238657 8.217241 0.3079532
0003d0 cf 29 91 3e 01 60 87 3e f5 bd 8f 3e 02 bc 84 3e
       0.2835221 0.26440433 0.28074613 0.2592469
0003e0 4c 75 78 3e ca c5 83 3e 0b a5 73 3e c8 47 64 3e
       0.24263495 0.2573684 0.23793428 0.22293007
0003f0 14 e5 08 43 18 2c 0c 43 35 6c 0e 43 06 0e 0a 43
       136.89484 140.17224 142.42268 138.05478

exp_avg f4 [10]
000000 75 c3 92 bf ee 5e 28 c0 02 b5 70 be 47 af d0 bf
       -1.1465899 -2.630794 -0.23506549 -1.630349
000010 3e 4d 49 3e 7a e3 46 3f bb db 2d c0 da ed ed 3e
       0.19658372 0.7769085 -2.7165363 0.4647053
000020 07 16 a5 3f bd 04 f2 bf
       1.2897347 -1.8907696

exp_avg_sq f4 [10]
000000 8d 5e 9f 40 6e 13 8b 41 81 ea c5 41 31 a1 a1 40
       4.980292 17.384487 24.739504 5.0509267
000010 59 10 72 40 18 c6 c3 41 54 cf 04 42 86 3a b6 42
       3.7822478 24.471725 33.20247 91.1143
000020 7d 3e ae 42 b7 fb cb 40
       87.12205 6.374477

exp_avg f4 [1, 10, 3, 3]
000000 d6 01 47 3f 5f 86 8e 3f 8c 9f a8 3f 1d ad 50 3f
       0.77737176 1.1134757 1.317369 0.8151415
000010 5e 04 95 3f aa c8 af 3f 70 8b 2c 3f b8 d0 83 3f
       1.1641958 1.3733113 0.67400265 1.0298071
000020 dc c9 9f 3f 8d 68 98 3f aa ad bd 3f f3 10 cb 3f
       1.2483478 1.1906906 1.4818623 1.5864547
000030 a8 34 9f 3f ba fd c5 3f 40 20 d4 3f 87 7c 9c 3f
       1.2437944 1.5468056 1.6572342 1.2225503
000040 44 f7 c4 3f 6c 09 d4 3f 71 c3 84 3e 2a 18 06 be
       1.538796 1.6565375 0.2593036 -0.13095155
000050 33 6c 0e bf e0 8e d4 3e 40 7a 4b bc 17 23 f4 be
       -0.5563385 0.41515255 -0.012419283 -0.4768302
000060 9f bb f8 3e 60 7c 04 3d 93 19 ee be 28 f3 9b 3f
       0.48580644 0.032345176 -0.46503887 1.218358
000070 81 0a a8 3f ff 89 d1 3f ce 75 9c 3f c6 ba a9 3f
       1.3128206 1.6370238 1.2223451 1.3260124
000080 b1 01 d4 3f 60 ac 9c 3f 46 10 ac 3f a6 1b d7 3f
       1.6563016 1.2240105 1.3442466 1.6805313
000090 38 3b c6 3e 79 31 18 3f b6 81 2d 3f 38 bf c4 3e
       0.38717055 0.5945049 0.6777605 0.38427138
0000a0 7c 43 1a 3f 47 f0 31 3f 0e c0 8d 3e d2 31 00 3f
       0.60259223 0.6950726 0.2768559 0.5007602
0000b0 4f 12 1a 3f 60 58 09 be 42 51 cc bd d9 4c 21 be
       0.60184187 -0.13412619 -0.09976436 -0.15751971
0000c0 78 cf 09 be 20 3e c7 bd c4 2d 1d be 61 20 26 be
       -0.1345805 -0.09728646 -0.1534949 -0.16223289
0000d0 01 24 fa bd 84 20 34 be 17 91 93 3f a1 88 b7 3f
       -0.122138985 -0.17590529 1.1528653 1.4338571
0000e0 16 93 f2 3f 8c 7b 8f 3f 22 64 b5 3f fc 6d f1 3f
       1.8951137 1.1209579 1.4171183 1.886169
0000f0 09 46 88 3f c2 8c af 3f cf 69 ed 3f c0 dd 26 be
       1.0646373 1.3714831 1.8547915 -0.16295528
000100 fa fa 84 be 7b 4d c9 be 38 29 2a be 02 cc 8f be
       -0.2597273 -0.39316925 -0.16617286 -0.28085333
000110 38 2e dd be de 53 bb bd 9a a7 61 be 06 a1 c5 be
       -0.43199325 -0.09146856 -0.22036591 -0.38599414
000120 c8 2b 6d be e3 97 55 be 52 c8 6d be 60 98 84 be
       -0.23161232 -0.20858721 -0.23220947 -0.25897503
000130 ba d5 6f be bc b8 82 be 42 ed 60 be d2 bd 45 be
       -0.23421374 -0.25531566 -0.21965507 -0.19310692
000140 90 6e 59 be 86 ae ea 3f b5 4c 00 40 3d d7 24 40
       -0.21233582 1.833451 2.0046818 2.575637
000150 34 6c d4 3f 60 e5 ec 3f 91 7f 1b 40 87 0c ed 3f
       1.6595521 1.85075 2.429661 1.8519448
000160 d0 76 04 40 9f 84 2a 40
       2.0697517 2.6643445

exp_avg_sq f4 [1, 10, 3, 3]
000000 4c 3a 08 41 aa 3e 08 41 83 a8 05 41 cf c6 0a 41
       8.514233 8.515299 8.353641 8.673537
000010 f5 28 0b 41 48 e6 08 41 23 93 09 41 23 7d 0a 41
       8.697499 8.556221 8.598422 8.655551
000020 65 30 09 41 85 7a b9 41 68 34 bc 41 56 30 ba 41
       8.574315 23.184824 23.525589 23.273602
000030 70 8a bc 41 97 69 c0 41 36 5a bf 41 d5 01 ba 41
       23.567596 24.051558 23.919048 23.250895
000040 78 20 bf 41 b0 3a bf 41 7f cf 20 42 a5 43 26 42
       23.890854 23.903656 40.202633 41.56606
000050 57 5e 27 42 44 1c 2a 42 12 02 30 42 7f 54 31 42
       41.84213 42.527603 44.00202 44.332516
000060 ca 7c 2e 42 18 a4 34 42 03 17 36 42 f0 34 82 41
       43.621864 45.160248 45.522472 16.275848
000070 77 cf 85 41 21 f6 84 41 26 75 85 41 71 12 8a 41
       16.726301 16.62018 16.682201 17.259005
000080 ae c8 89 41 ce 02 85 41 a1 6f 8a 41 64 a4 8a 41
       17.222988 16.62637 17.304506 17.330269
000090 db cd 07 41 a8 04 0d 41 25 d4 0c 41 38 4c 11 41
       8.487758 8.813637 8.801793 9.081108
0000a0 99 e1 17 41 eb 9a 18 41 17 a7 16 41 11 61 1e 41
       9.492578 9.537822 9.415793 9.898698
0000b0 45 0f 20 41 ea 27 f4 40 ac 57 dd 40 0f 21 c3 40
       10.003728 7.6298723 6.916952 6.0977855
0000c0 ce 02 f2 40 83 80 d9 40 8b f9 bd 40 fa ed e8 40
       7.5628424 6.7969375 5.936712 7.27905
0000d0 42 a3 cf 40 8a d8 b3 40 ce 62 da 41 a8 a3 dc 41
       6.488679 5.620183 27.298244 27.57991
0000e0 14 99 d9 41 ce c1 d5 41 0c 05 d9 41 11 33 d7 41
       27.199745 26.719631 27.127464 26.899935
0000f0 8f 65 cb 41 6b b0 cf 41 3f 3a cf 41 f6 2c ea 42
       25.42459 25.961142 25.90344 117.087814
000100 88 ca f3 42 95 ef f4 42 11 c1 f3 42 1d 9b fe 42
       121.89557 122.46793 121.87708 127.302956
000110 2e 4c 00 43 23 01 f6 42 6a df 00 43 16 4a 02 43
       128.29758 123.00222 128.87271 130.2894
000120 d1 9d 75 41 3f 12 7e 41 a9 15 80 41 d4 63 80 41
       15.351029 15.879455 16.010576 16.048744
000130 59 34 85 41 8c b7 86 41 3b c7 81 41 ae 11 87 41
       16.65056 16.839622 16.22228 16.883633
000140 6b 08 89 41 d2 ed 96 41 14 53 99 41 e0 8f 97 41
       17.12911 18.866123 19.165565 18.945251
000150 9e 30 9b 41 d1 f5 9f 41 dc 4f 9f 41 40 92 9a 41
       19.398739 19.995028 19.913994 19.321411
000160 06 a2 a0 41 46 ff a0 41
       20.079113 20.124645
