models/probabilistic_training/upscaling_network/500/sigma0.005_step0.0001_lr0.0005/ckpt/model_epoch_250.pth (torch, 282369 bytes, 18 tensors)

layer1.weight f4 [25, 1, 3, 3]
00000000: a799 f9bc f775 353e b87e 41bd 52a4 21bd
00000010: dc5e 9ebd 3685 843c a094 43be 6e8f f2bd
00000020: 306b 223d e132 59be fbbe 9fbc 866b 6b3d
00000030: 6585 283e 2d34 9d3c ad28 ac3c 5b36 e43b
00000040: 8f3d 313c 2303 cbbc ff09 4dbc d528 84bd
00000050: 4a24 b93d 8398 cd3c a2eb 1cbc 800a 72bd
00000060: 05d1 b8bd 8272 d53c 1943 953d 2931 45bd
00000070: efee 933c f602 7fbd 3d21 2dbc 3da6 f0b9
00000080: eac1 913d 6572 573c caa0 2cbe beca 35bd
00000090: fdcf 053e b7b2 c3bc 4cb3 f13d aaa0 d83b
000000a0: b663 92bd f81c 45bd f7a6 49bc ff96 543e
000000b0: 8d4d 3a3d 75ea ecbd 3ac4 8bbd b966 8c3d
000000c0: ab09 f53d a762 e5bc 606b d03d db0b 3f3d
000000d0: 9675 953d a734 d83b 0da1 ee3c 497e 72bd
000000e0: c86d 843d 5586 07bc fbef 93bd db09 85bd
000000f0: d6a9 03be 190f a9bd 982a 21bd 21b3 26bc
00000100: 5ff2 813c 5c3d b53d e19e c5bc b787 bfbd
00000110: f329 df3d 1579 183d 7f0e 193d b149 143e
00000120: ef75 f5bc 3df6 f03b 5db2 7ebd b23e c93d
00000130: b744 513d 5d9c 4dbd 25ea 93ba ef0a acbc
00000140: 20f8 9ebd 4cb4 033e 480b 0e3e 5945 a43d
00000150: c960 5cbd 3cc8 0dbe 7ec4 7c3d baae 03bd
00000160: 7dbd 003e 3b1d e9bd 2da0 67bc b345 f4bd
00000170: b8c7 23be 604b 943b e9ba 11be c2ff 89bc
00000180: f1b4 7b3e ec42 e1bd 6dde 57bd 994b 76bd
00000190: e412 3b3d c5c8 9c3d 4d1f 3bbe 3f00 5abd
000001a0: 9709 993d c73d 423c b522 7d3e 1dfa dcbd
000001b0: 3157 083c 8572 b0bd 2e9b 1ebe 483f b63d
000001c0: 2f15 c43d 6cb2 d1bc 76e2 1fbd bd86 adbc
000001d0: 7c1a 83bc a952 e43d 55c5 903d 0b8f 293d
000001e0: 6b3c b33d 6e26 e0bd a94e 483e 9a54 aa3c
000001f0: bb58 243e d8fd 3bbd e10d 42bd a063 bbbd
00000200: 2667 9a3d 3d9b 933c 06ac 81bd c5cb 96bd
00000210: 3214 b3bd cd61 84bc 625f 7ebd 075e 7e3d
00000220: 63dd cabd 11ac 24bd c104 c23d 18b0 273d
00000230: c7aa 93bc e9e2 473d 69aa 233e bd49 38bc
00000240: 3d15 263d d44a 7c3c 405c 97bc 5e42 60bd
00000250: 2cf2 123e f63f 163e 0ae6 aebb 15d8 763d
00000260: 9210 0a3e 690d 5e3d 422e 933e f72b d33d
00000270: c3c8 053e 201a f83d caa2 ea3d d22b aabd
00000280: abbf 3fbd 0006 97bd 5a4e 00be 217d 86bd
00000290: 51d5 febd db5b 833d ac17 9a3d 71c8 4bbd
000002a0: c755 a73d 222d 5cbd 50e1 25be 0bec d93d
000002b0: 1e1d af3d 452a 433e bc43 8d3d 0ebe 443c
000002c0: 272d 063e 4731 40be 8de8 08bd 5f1b 8d3d
000002d0: e6dd 513c 9d86 2d3d 4422 d63c ddad 353e
000002e0: 9b0a 55be f03b c1bc 9057 d8bc 232f 1d3d
000002f0: e289 593e 776b d83a cbd6 1bbd 1752 39bd
00000300: 888d e83d d354 0ebc 1503 823d 9728 253e
00000310: be82 dd3b 7c60 b9bc 1012 173d 113d d13c
00000320: 5e68 803e 2e34 5fbe 5cb2 293d 2e9d 413d
00000330: 1809 863d 1b72 e23d 104b fd3c 07f9 3b3e
00000340: 17fb a93d cbb5 583d c2ab 8d3d a9fc 3ebe
00000350: 73a4 85bd 00f7 aebd 6428 8b3d d665 0c3e
00000360: cc3d 5f3d c1f2 eb3d 8283 9c3d 0214 89bc
00000370: 6067 1ebe 1576 a5bd d6e7 25be acb2 17b9
00000380: 133c 63be
-0.030468775 0.17720781 -0.04723999 -0.03946335 -0.07732937 0.016176801 -0.19099665 -0.11843763
0.039653003 -0.21210815 -0.019500246 0.05747559 0.16457136 0.019189918 0.02101549 0.0069644875
0.010817899 -0.02478177 -0.01251459 -0.064531006 0.09040125 0.025097137 -0.009577664 -0.059092045
-0.09024242 0.026055578 0.072881885 -0.048142586 0.018058268 -0.062258683 -0.010567007 -0.00045900224
0.07117064 0.013149832 -0.16858211 -0.044382803 0.13067622 -0.023888929 0.11801776 0.0066109495
-0.071479246 -0.04812333 -0.012307874 0.20760725 0.045484114 -0.11568157 -0.068245366 0.0685553
0.11964735 -0.028001143 0.1017673 0.046642166 0.07297818 0.0065980735 0.02912953 -0.059202466
0.064662516 -0.008271773 -0.07223507 -0.064960204 -0.12857756 -0.08254833 -0.03934726 -0.010174544
0.015862642 0.08849594 -0.02412361 -0.093520574 0.10896673 0.037224848 0.03736734 0.14481236
-0.029963462 0.0073535726 -0.06218182 0.09826411 0.051090922 -0.050197948 -0.001128499 -0.021001307
-0.0776217 0.12861747 0.13871491 0.080210395 -0.05380324 -0.13845915 0.061710827 -0.032149054
0.12572284 -0.113825284 -0.01413731 -0.119273566 -0.15994155 0.004525587 -0.14231457 -0.016845588
0.24580742 -0.109990925 -0.052702356 -0.06013069 0.045672312 0.07655481 -0.18273659 -0.05322289
0.07472532 0.011855549 0.24720271 -0.10789893 0.008321569 -0.08615593 -0.15488884 0.08898789
0.09574353 -0.025597773 -0.03903433 -0.021182412 -0.01600384 0.11148579 0.07068888 0.041396182
0.08751758 -0.1094483 0.19561256 0.020792294 0.16049473 -0.04589638 -0.047376517 -0.09149861
0.07539205 0.01801836 -0.06331639 -0.07363085 -0.08744086 -0.016159916 -0.062102683 0.06210139
-0.099055074 -0.040203158 0.09473563 0.04093942 -0.018025769 0.048800383 0.15982975 -0.011248049
0.0405476 0.0153987 -0.018476605 -0.054750793 0.14350194 0.14672837 -0.0053374814 0.060264666
0.13482884 0.054212008 0.2874623 0.1031112 0.13064866 0.12114358 0.11456831 -0.08309139
-0.04681365 -0.07374191 -0.12529889 -0.06566835 -0.124430306 0.064140044 0.07524046 -0.049751703
0.081706576 -0.05375398 -0.16199231 0.10640725 0.085504755 0.19059093 0.06897685 0.012008203
0.13103162 -0.18768798 -0.033424903 0.06889986 0.012809252 0.042364705 0.026139386 0.17742105
-0.20804827 -0.02358815 -0.02640894 0.03837503 0.21244004 0.0016511519 -0.03804664 -0.045244303
0.1135512 -0.008687216 0.06348244 0.16128765 0.0067599704 -0.022629015 0.03688246 0.025541814
0.25079626 -0.21797249 0.041429862 0.04726904 0.06544703 0.1105692 0.030919582 0.18356715
0.08299845 0.052907746 0.06917526 -0.1865107 -0.06525507 -0.08543205 0.06794813 0.13710722
0.054502293 0.11520911 0.076422706 -0.016733173 -0.15469122 -0.08079163 -0.1620172 -0.00014467043
-0.22190885

layer1.bias f4 [25]
00000000: d9d1 7fbe 900f 8f3e 8132 2fbe fc8d 763e
00000010: a236 783e dff4 23be 185c 0cbc 3a71 cd3d
00000020: 98d7 803e 8b0f 7b3e ef45 23be 2f73 6b3e
00000030: 6542 13be 9564 11bd 4e86 733e 1e2b 873e
00000040: 56a8 26be 8f76 273e 66ac 9b3e 3e37 963e
00000050: fdb5 15be 0ef5 e73d c14f bb3d ddf3 6ebe
00000060: ad3d 43bc
-0.24982394 0.2794156 -0.1710911 0.240776 0.24239591 -0.1601138 -0.008566879 0.10031362
0.25164485 0.24517648 -0.15944646 0.22993158 -0.14380796 -0.035496313 0.23781702 0.26400083
-0.16275153 0.1635382 0.30404967 0.2933902 -0.14620204 0.11326037 0.09146071 -0.23335214
-0.01191656

layer2.weight f4 [50, 25, 3, 3]
00000000: 0fe7 443d a9e7 f93d 9d38 04be d741 02be
00000010: cbcb a03c 88aa 83bd 630f 29bd 518b d1bd
00000020: dfc8 2cbd 0a26 c23c b523 3d3d 3b31 9d3d
00000030: 8f7d 9bbd 077b acba 636c f13c e059 063c
00000040: d9a1 483d 9d86 d13d 9108 9b3c 5721 0c3e
00000050: 72bc cd3b 0cac 01bd 0e69 2cbd a2d2 993b
00000060: 2a81 ad3c 16ce 01bd 6317 25bd 482a ab3d
00000070: e716 533d 00f9 9dbc d1da a53d 2c0d 223d
00000080: 3016 1dbd a846 593d d282 043e 58ba 30bd
00000090: 6c2f 973d bfed 673a 4a2f 8d3c 807f 9e3b
000000a0: 9519 373d 0e0c ce3d 872c de3d a8b1 253d
000000b0: 4cbe 0f3d 900b 6abd bddc 49bd 1a7b c73d
000000c0: 29c7 13bd ae5c 90bd e2fb 54bc 9096 b6bc
000000d0: 2f27 a03d a2e6 0e3d 592b 7a3d 9657 3bbd
000000e0: 3094 733d 9f3c e23c cf66 533d 195c b03d
000000f0: e165 a43d 5e37 e43c 9f28 86bd fba9 b73c
00000100: 015c 7dbb 9652 ae3d 34f4 ae3d 9f70 5bbc
00000110: 85ce e23b 8096 0c3c f33d eebc c389 a43c
00000120: 707e d2bc 8db7 e33c 20b6 53bd 6379 573d
00000130: 0b82 443d f7a2 593c 7ba7 7e3c 0b6a b1bc
00000140: fbf5 5abc 8bee ccbc 268a 55bd 20d2 0cbe
00000150: 2b73 cdbc bdae 7cbc d767 a03c 4f61 f93c
00000160: 37a0 a33c d50f 973c 6697 f4bc e4e6 763c
00000170: 760f c73c 02d6 e8bc 225c 363c 6ca0 423d
00000180: e04f a23d 9ff6 42bb dac0 a13d 7865 52bd
00000190: cf36 ac3a c23e 3d3d bd66 8a3d 6e47 813d
000001a0: 9e35 0abd 63f7 b63d aada 98bc d289 5fbd
000001b0: 68c8 a8bd 6774 f9bd c83f 3f3d dc42 0e3d
000001c0: cb3e 43bd f827 2b3d 5c2f 08be 6649 90bd
000001d0: af4f 203b b765 873d 511f ab3b 35de 323d
000001e0: 0657 623d a436 ebbb 0f4c 833d 9bb0 0b3c
000001f0: 0e30 4abd 03df 19bd 8fc0 81bd 81e0 bcbc
00000200: 4bc0 72bd fdb2 24bc 16ba 843d 5816 4f3d
00000210: 26ff 953c 47c9 4a3d 6141 963c 3230 35bd
00000220: e076 143d 5a7f 683d 34b2 473c c318 02bd
00000230: ba00 7b3b 8d6d 68bd cb0e e93c a3de 00be
00000240: 64e3 a3bd 03e5 09bd e3c9 39bd 8fd5 f73c
00000250: 9b9c c33d c183 70bc bbb4 783a 5b64 8e3c
00000260: e8f1 3bbd ed64 f63c a7ae 9fbd a342 de3c
00000270: 49df ad3b 7307 1b3e 1308 9139 8c1b c93c
00000280: f256 cabd 14c9 fcbb 2666 c73b 6b69 bfbd
00000290: c8d9 4d3c 215d dcbd 49ef 18bd a255 08bd
000002a0: 432d 2bbd a5de ddbd d39a 98bd ca21 8bbb
000002b0: 8b94 81bc bbb5 513d ea9f 72bd 3476 66bd
000002c0: 0c6b 543a d589 a13d 894c 383d c9d0 87bd
000002d0: 4927 85bc f6ce 8e3c 8f84 5a3d 82e2 9fbd
000002e0: 0bcf 35bd ec0e 9d3c aab3 483d f6c5 5cbd
000002f0: 4dfd 64bd ac56 1fbc ad79 16bc 7817 6d3d
00000300: 4839 c33c 975c 6c3d 5c98 0f3d f5b9 b43c
00000310: 77e8 25bd 9071 fcbd ae2a 89bd 9861 a0bc
00000320: c810 c3bc a583 b8bd 1477 96bc 6031 a8bc
00000330: cc0a c0bc 4b39 da3c 81cb 1fbc 46f3 8e3c
00000340: 0973 073d f403 253c c3b7 e03d 3561 483c
00000350: bac8 7dbd a353 87bd 7c8a abbd 10fc 5e3d
00000360: 31d5 503d b1ed 51bd 2998 01bd fb26 06be
00000370: 3fb6 c9bc 7a5c b53d 72d4 493d 98a0 a03d
00000380: 27f6 f2bb 656d a3bd b850 003d cdb4 f53c
00000390: a979 6ebc 366b 0abd c162 babb 930a 66bd
000003a0: 4e66 f9bc 5097 84bd 6fdd 09bb 4867 02bd
000003b0: 491c 79bc 7b27 793d fd98 48bd e293 833d
000003c0: 9fcb ad3c 32a9 80bd 95d2 9f3b 85f4 443d
000003d0: 57c3 cd3c 41c3 623d 8853 cfbd 0055 65bb
000003e0: 818e d3bd b195 8ebd c272 18bd 190f 0c3c
000003f0: 9c0a 0b3d 63e8 57ba 6201 efbc e7b6 41bc
0.048071917 0.12202389 -0.12912221 -0.12720428 0.019628426 -0.06429011 -0.04127444 -0.102316506
-0.042183753 0.023699779 0.04617663 0.076754056 -0.07592308 -0.0013159224 0.029470628 0.008200139
0.048982475 0.102307536 0.018924983 0.13684593 0.006278568 -0.031658217 -0.042092375 0.004694299
0.021179754 -0.03169068 -0.040305506 0.08357674 0.051535513 -0.019283772 0.080983765 0.039563343
-0.038351238 0.0530459 0.12940529 -0.04314646 0.07382092 0.00088473776 0.017234463 0.0048369765
0.04470213 0.10060893 0.10848337 0.04045263 0.03509359 -0.057139933 -0.049282778 0.09740277
-0.036078606 -0.07048927 -0.012999507 -0.02228859 0.07819974 0.034887917 0.061076496 -0.045737825
0.059467494 0.027616797 0.051611718 0.08611316 0.08027244 0.027858432 -0.065507166 0.02241992
-0.0038659575 0.08511846 0.08542672 -0.01339355 0.0069215917 0.008580804 -0.029082274 0.020085221
-0.025695056 0.027797485 -0.05168736 0.052605998 0.04797558 0.013283483 0.01554286 -0.02165701
-0.01336431 -0.02501609 -0.0521337 -0.13752031 -0.02507933 -0.01542252 0.019580765 0.030441908
0.019973857 0.018440166 -0.029857349 0.015069697 0.024299365 -0.02842236 0.011130365 0.04751627
0.07925391 -0.0029749048 0.07898112 -0.0513663 0.0013138893 0.04620243 0.06757877 0.06312452
-0.03374254 0.08933904 -0.018658955 -0.054574795 -0.082413495 -0.12180405 0.046691686 0.03473173
-0.047667306 0.041786164 -0.13299316 -0.0704525 0.0024461558 0.066111974 0.005222239 0.043668944
0.055258773 -0.0071781445 0.064109914 0.008525993 -0.049362235 -0.037566196 -0.06335556 -0.02305627
-0.059265416 -0.01005244 0.064808056 0.050558418 0.01831014 0.04950836 0.018341722 -0.044235416
0.03624618 0.056762077 0.012188483 -0.031761896 0.0038299994 -0.0567451 0.028449437 -0.12584929
-0.08002356 -0.03366567 -0.04535855 0.0302532 0.095513545 -0.01467985 0.000948738 0.017381838
-0.045884997 0.030077422 -0.07796984 0.027131384 0.0053061587 0.1513956 0.0002766257 0.024549268
-0.09879865 -0.0077144 0.006085175 -0.09346279 0.01256413 -0.107599504 -0.037337575 -0.03328479
-0.04179121 -0.10833482 -0.074514054 -0.0042459713 -0.015817901 0.051198702 -0.059234537 -0.05626507
0.00081031094 0.078876175 0.044994865 -0.066316195 -0.016254084 0.017432671 0.053349074 -0.07806875
-0.044386905 0.019172154 0.048999466 -0.053899728 -0.05590563 -0.009725254 -0.009184283 0.05788371
0.023831025 0.057705488 0.03505741 0.022061327 -0.0405049 -0.12326348 -0.06697594 -0.019577786
-0.023811713 -0.09009484 -0.018367328 -0.020531356 -0.023442648 0.026638648 -0.009753109 0.017449986
0.03306869 0.010071743 0.1097255 0.012230207 -0.061959006 -0.06607749 -0.08376023 0.054439604
0.050984565 -0.05125207 -0.03163925 -0.13100807 -0.024623035 0.08855529 0.04927487 0.07843131
-0.0074145976 -0.0797985 0.03132698 0.02999344 -0.014555373 -0.03379365 -0.005688042 -0.056162428
-0.03044429 -0.06474173 -0.0021036526 -0.031836778 -0.015204498 0.060828667 -0.048974026 0.06424691
0.021215258 -0.062822714 0.0048773983 0.048084754 0.02511756 0.05536199 -0.10123354 -0.003499329
-0.10329915 -0.06962145 -0.037218817 0.008548521 0.033945665 -0.00082362274 -0.029175464 -0.0118233925

layer2.bias f4 [50]
00000000: a1cf 4fbd 047e 243d 6367 413d 7ff1 0fbd
00000010: d82f 0bbd b99b b9bc 113e a3bc 71a2 8d3c
00000020: 495a 12bb 5f0f 4cbd 70dc 82bd 39a8 72bb
00000030: 9635 04bd c075 8d3d f2da 23bd 5196 263d
00000040: b2a2 513d 5a0d a4bc 2c02 2bbb a299 963c
00000050: 59fe 663d b3aa 09bd 8e25 283b facf 543d
00000060: 757c 823d f48c a7bc 182c 173d 4506 743d
00000070: ecd9 29bb 2cc8 12bd ee07 4f3d 305d 4cbd
00000080: b83e 17bc dfbc e33c d7ee 523c 7289 d1bc
00000090: 0157 03bd 5424 a4bc 4458 2d3d 4c44 593c
000000a0: 0508 37bb b0ed e3bc 3f60 aa3c 1da8 c93c
000000b0: 6de3 af3b 7cda 96bc 618f 6cbc b20c 41bd
000000c0: fa1e 48bc 6168 34bd
-0.05073512 0.04015924 0.047217738 -0.035142418 -0.033981174 -0.022657262 -0.019927057 0.017289372
-0.0022331646 -0.049819347 -0.06389701 -0.0037026538 -0.032277666 0.06907225 -0.040003724 0.040670697
0.05118055 -0.020025898 -0.0026093824 0.018383805 0.05639491 -0.033610057 0.002565715 0.051956154
0.063713945 -0.020452954 0.036907285 0.05957629 -0.0025917245 -0.03583543 0.05054467 -0.049893558
-0.009231262 0.027800022 0.012874327 -0.025578234 -0.032065395 -0.020036854 0.042320505 0.013260912
-0.0027928364 -0.0278233 0.020797847 0.024616295 0.0053676874 -0.018414728 -0.014438481 -0.047131248
-0.012214417 -0.044044856

layer4.weight f4 [25, 50, 3, 3]
00000000: 6943 71bd e246 893c e08e 90bd 8e6e cbbb
00000010: 7145 1bbd 5743 853d 959d 91bd 9c38 7b3d
00000020: 2c97 a8bd bcd2 da3d 5cd2 5abd 8b7c 513d
00000030: 413d 353d 3d6b 0fbd 694b 0dbd 3c9c 95bd
00000040: 23f4 52bc 7cad f7bc 383c edbc 7654 a13c
00000050: 9f41 3a3d 10cd 4cbd bebe 563b ff58 18bd
00000060: 3bba 413d f345 7b3d 9e43 fe3c c74e cc3b
00000070: 689b 82bd 9469 9c3d a514 d9bd f0a5 85bd
00000080: 8c81 833d 2d82 2b3d 8754 d63b d8d0 e7bb
00000090: 71e3 293d c24f 05be 458c 4fbd 216f debd
000000a0: a5a4 44bd 0c14 8e3d 09df 76bd 1747 8dbd
000000b0: cd6b 77bd b82c 603d 0f09 62bc 86f1 fb3c
000000c0: 43af ffbc 855f fc3c 5f4f 233d 60ff 88bb
000000d0: b2ea 89bd d76d 30bc 5229 32bd b7a5 36bc
000000e0: c32e 933c 954f 393d ad5c c1bc 0677 2abd
000000f0: 33f1 9abd f65c 6cbd bb88 023d d63d 8dbb
00000100: da3a c1bc a50f 6cbc 151d ca3d 8e31 b43c
00000110: 090e ebbd 2184 00bd 76f8 d6bb 648a 9e3d
00000120: 0657 bdba 9c85 923c 4c70 a23b e70d 7e3d
00000130: d0b6 043b ef13 2c3c cc36 96bd 815a 273d
00000140: 43c3 a93c 184d 9fbd 7631 c23d fd45 51bd
00000150: 9856 85bd c3ad ac3c 7844 44bc 4bfd 623d
00000160: 51f2 87bd c3e4 863d 02bc 82ba 5fae 53bd
00000170: 452a 5d3d b2b4 26bd 4135 013e 266b 8bbc
00000180: 4128 a83d 92a2 123d f4da a93d 5fa9 223d
00000190: 0cb7 adbc 2625 03bc f344 6a3c 456f 40bc
000001a0: 2da1 123d c1b4 433d f8c8 0bbd 3be2 693d
000001b0: 4482 cebc c5c1 87bd 0f17 613d 9643 d8bc
000001c0: a2b0 dc3d c79d f13c 91d9 6abc c0ea 1d3d
000001d0: 94d7 5f3c f038 023e 32aa ce3c fb30 f5bd
000001e0: 4541 4a3c c800 213a 5348 4cbd 077c 2fbd
000001f0: fc6c 08be 1e10 69bc d4a4 673b f198 e93c
00000200: 85c1 ba3d 4d1f 86bd 3c5e cf3a fbcb a7bd
00000210: 9d19 c4bc 1f56 56bb da52 39bd 7f7e b73d
00000220: ba67 6a3c e508 19bc f326 6ebb fdfd a0bd
00000230: 58e0 47bd ccb5 153c 3457 fbb9 ff2e a6bc
00000240: c93b 953d 658f 9fbd e724 eb3d d398 59bd
00000250: 0dac 05bd fc20 58bd b3bd dc3c 7d90 843b
00000260: be49 aebc 8db9 0c3c e3f7 263d 52c7 afbc
00000270: a556 16bd 0487 ae3c ec55 903c 8276 32bd
00000280: 2203 16bc d368 e0bd 39e6 773d 4e07 e5bb
00000290: 0929 d4bc 5299 9f3c 12c7 12be fd1d 52bc
000002a0: 1f17 af3d 5c20 82bd df61 cabd e592 42bd
000002b0: 28a3 c1bd 48d0 db3d 18b1 09bd 8f0d d33d
000002c0: 2229 2a3d a2bd 0e3d f0d6 6e3d d8b7 d9bc
000002d0: f918 b3bd 4390 183c a56e ffbb e931 25bc
000002e0: 4e29 713d a87b c03d 5d19 aebd b563 c33d
000002f0: 36bd 6d3d 412d 523d cc4d bbbb 09bb 35bc
00000300: bd45 d43c cf14 843b 0925 90bd dfba a1bd
00000310: a78e a63c ca14 fabc c8c7 a93d 8499 29bc
00000320: 808e 883c 6f6d 6c3d 4a80 3c3a 8adc 2f3d
00000330: 6237 a73d 9b05 73bc a7f8 5fbd 9446 8a3d
00000340: ace4 113d d85d 5d3d 4b22 fc3c 6cb1 64bb
00000350: 3b03 2d3d d69c 6ebc d92a 953d b7c9 163c
00000360: 79f3 e83c 12b3 79bc 424d e03c ef4f 8a3d
00000370: 7e51 1a3d 5dc9 64bc e17b f23d 6c88 1abc
00000380: 1915 503d 4c90 893d 4f47 543d dffe 28bb
00000390: deeb b4bc 1441 0f3d 0200 49bd 6bd5 26be
000003a0: 9fe3 233d e48c bc3d f21e 063d d9aa 46bd
000003b0: 0782 593d 1c56 a23a c794 85bc 93fc dd3a
000003c0: a0d4 2abd 10a8 993b d0c0 a43c 1d52 7dbc
000003d0: 4cdd acbb 2209 743d 3f45 0c3c 67d3 d73d
000003e0: 8e15 35bd 1fb7 d03c d262 a13b ee9c 92bc
000003f0: 704f 6fbd 1a48 a0bd 858c 6ebd ea6f 35bd
-0.058902178 0.016757432 -0.07058501 -0.0062082475 -0.03790802 0.06506985 -0.071101345 0.061333284
-0.08231959 0.10684726 -0.05342327 0.051144164 0.04424787 -0.03501438 -0.034495745 -0.0730519
-0.01287559 -0.030234091 -0.028959379 0.019693594 0.045472737 -0.05000025 0.00327675 -0.03719425
0.047296744 0.061346006 0.031038102 0.006234977 -0.06377298 0.07637325 -0.10599641 -0.06525791
0.064211935 0.041872192 0.006540838 -0.0070744567 0.04147667 -0.13018706 -0.05067088 -0.1086104
-0.04800858 0.069374174 -0.060271297 -0.06898325 -0.06040554 0.054730147 -0.013796105 0.030754816
-0.031211501 0.030807266 0.039870616 -0.0041808337 -0.06734218 -0.010768375 -0.043496437 -0.011147908
0.017966634 0.04524191 -0.023603762 -0.041617416 -0.07565536 -0.057705842 0.031868678 -0.00431035
-0.023587633 -0.014408027 0.09868828 0.021996286 -0.11477286 -0.031376008 -0.0065603806 0.0774124
-0.0014445491 0.017885976 0.0049572345 0.062024977 0.0020250566 0.010502799 -0.073346704 0.040857796
0.02072299 -0.07778376 0.0948209 -0.051092137 -0.06510657 0.02107895 -0.011979215 0.05541734
-0.06638015 0.065866016 -0.0009974244 -0.051679965 0.05399539 -0.04069967 0.12617971 -0.017018866
0.08210803 0.03579957 0.08293715 0.039712306 -0.021205448 -0.008004462 0.014298665 -0.011745279
0.03579824 0.047779802 -0.034127206 0.057100516 -0.0252086 -0.066287555 0.05495363 -0.026399415
0.107758775 0.02949418 -0.014334098 0.038553953 0.013662238 0.12717032 0.02522764 -0.11972233
0.012344663 0.0006141779 -0.04987366 -0.04284289 -0.13322824 -0.014225034 0.0035346048 0.028515311
0.09118942 -0.06548939 0.0015820931 -0.08193203 -0.023937995 -0.003270514 -0.04524503 0.08959674
0.014306957 -0.0093404995 -0.0036339134 -0.078609444 -0.048797935 0.009137582 -0.00047939422 -0.020286081
0.07286794 -0.07791022 0.11481648 -0.05312426 -0.032634784 -0.05276583 0.026945924 0.0040455447
-0.021275397 0.008589161 0.040763747 -0.021457348 -0.036703724 0.021304615 0.017619096 -0.04357005
-0.00915602 -0.10957494 0.06052229 -0.006989396 -0.025898473 0.019482289 -0.14333752 -0.012824533
0.08549332 -0.06353828 -0.09881949 -0.04750337 -0.09454948 0.10733086 -0.033616155 0.103053205
0.041543134 0.034848817 0.05831045 -0.026576921 -0.087449975 0.009311738 -0.0077951723 -0.0100827
0.05887728 0.093985856 -0.085009314 0.09540502 0.058041774 0.05131269 -0.005716061 -0.011091956
0.02591216 0.004030801 -0.07038314 -0.07896971 0.020331694 -0.030527491 0.082900584 -0.010351542
0.016669512 0.05772155 0.00071907474 0.04293493 0.0816486 -0.014832879 -0.054680493 0.06751743
0.03561847 0.054044574 0.03077807 -0.003489579 0.04223941 -0.01456376 0.07283563 0.009203366
0.02843641 -0.015240448 0.02738059 0.067535274 0.037675373 -0.013964024 0.11840034 -0.00943194
0.05080137 0.067169756 0.051825818 -0.002578668 -0.022085126 0.034974173 -0.049072273 -0.1629235
0.040012 0.0920656 0.032744355 -0.048502777 0.05310252 0.0012385282 -0.016306294 0.0016936235
-0.04170668 0.004689224 0.020111471 -0.015461472 -0.005275404 0.059579022 0.008561431 0.10538369
-0.04421001 0.025477944 0.0049251104 -0.017897096 -0.058425367 -0.07826252 -0.05823948 -0.044296183

layer4.bias f4 [25]
00000000: 1cb5 9d3b 6ed9 da3c 6bee 25bc 859f 2339
00000010: 7c2c 01bc 54b0 00bd abaa 683c 3a3d 83bc
00000020: 2576 3c3b 2da6 083d 800a eabc ba31 7f3b
00000030: 8725 463c a48d 1abd 7069 8abc 74d0 b33c
00000040: ca3a 983c 2e61 d3bc 65a0 44bd 1407 d2ba
00000050: 4cd1 053d b388 34bd c2e5 e33c 43de 1f3d
00000060: 5e9a 97bc
0.0048128497 0.026715007 -0.010127644 0.00015604317 -0.007884141 -0.03141816 0.014200847 -0.016020406
0.0028756943 0.033361603 -0.02856946 0.0038939551 0.012093908 -0.037732735 -0.01689598 0.021949984
0.01858272 -0.025803175 -0.048004527 -0.0016023838 0.032670304 -0.04407568 0.027819518 0.039030325
-0.018506225

exp_avg f4 [25, 1, 3, 3]
00000000: 4209 fb48 90e8 e748 ace0 b648 bc80 f348
00000010: 6239 d848 2e46 a248 3d2a cc48 3e58 a948
00000020: 00e4 6048 b1a7 4648 10ac 3848 d9cf 1348
00000030: 86de 3848 9554 1f48 9a20 e947 d7c7 0748
00000040: 321c cd47 4ec1 6447 0e05 e947 87b9 9246
00000050: e7a7 a3c7 9a8b cc47 b85e f245 a28d b2c7
00000060: 4b23 b947 f960 4e46 f848 91c7 d8a9 9047
00000070: 6de5 8f47 f667 8147 d4d8 6b47 403b 1647
00000080: 46df 7a46 8345 e646 5aa1 38c6 e5b5 3dc7
00000090: 58ad 9ec8 1fc3 a1c8 6a1e 95c8 aeae adc8
000000a0: 5baf a8c8 dda6 92c8 747e a0c8 04ce 91c8
000000b0: 73d9 6ac8 0fe6 a1c8 1a2b a1c8 1b51 86c8
000000c0: b439 acc8 a566 a1c8 91ff 75c8 2538 95c8
000000d0: 8653 7dc8 f956 21c8 241e bf48 7c81 b148
000000e0: 4cce 8848 be2d de48 242e c448 c518 8c48
000000f0: 801a d248 15fa ac48 009a 5748 f638 97c8
00000100: fc83 8ec8 e876 61c8 7200 a6c8 0842 97c8
00000110: 96c6 60c8 825f 94c8 28b3 7dc8 2e3e 2cc8
00000120: ac56 8447 b727 a847 072a 9547 30fa a947
00000130: b207 cc47 3421 b447 186e 8747 3dc4 a547
00000140: 7a7c 8947 80a9 a2c8 9c9c 99c8 a68e 75c8
00000150: a0a6 8bc8 f852 80c8 318b 42c8 9868 27c8
00000160: d201 0ec8 7ab4 b6c7 f549 ba48 1184 a948
00000170: bc62 8248 919a be48 df8a 9e48 f379 5348
00000180: e0f3 a848 f03e 7448 307c f047 a483 d547
00000190: f42f ec47 c19c f047 9622 bc47 ba5e af47
000001a0: 87b9 9847 aaaf 8c47 58ee 3947 fe7e a046
000001b0: 409f 1b48 a5cf f147 254d af47 7c6d b647
000001c0: 08b7 5047 d084 bb46 33f4 a446 98f7 93c6
000001d0: 0449 18c7 7078 93c8 4a88 95c8 1a6f 70c8
000001e0: 0f56 9ac8 2089 98c8 700c 66c8 2642 81c8
000001f0: f488 72c8 6b9e 25c8 b2c1 c047 fc79 d847
00000200: 406f e047 c027 1648 3409 1c48 9515 1648
00000210: ec89 2048 501f 2048 640e 1348 a8dd 87c8
00000220: e614 66c8 c9b8 11c8 06c9 81c8 d7bd 51c8
00000230: 1d8b ebc7 6de3 57c8 281e 20c8 2ef6 87c7
00000240: 3c62 a2c8 b475 a8c8 6258 8ec8 c61c c4c8
00000250: c9ae c3c8 190d a0c8 0789 b9c8 2fae b3c8
00000260: d8ce 8ac8 02a2 80c7 6e68 20c7 80dd e8c3
00000270: dfd0 1dc8 e0e7 d8c7 b45a 0fc7 8684 56c8
00000280: 82f1 0fc8 1bdb 38c7 ec88 b448 a046 9248
00000290: bb51 4348 1e86 a148 10c5 7848 8626 1648
000002a0: 14f3 6a48 ee9f 1f48 d580 8847 5eec cdc7
000002b0: 3e41 d1c7 0476 b9c7 7054 07c8 befb 0ac8
000002c0: 70d9 f9c7 a4c4 05c8 6519 08c8 f049 efc7
000002d0: 9f68 cac8 8e58 ccc8 26a5 b1c8 3e82 d4c8
000002e0: 2b13 c7c8 a8fd 9bc8 96d4 b3c8 3e40 92c8
000002f0: 8a84 36c8 fda6 91c7 fc3c cdc7 319b c0c7
00000300: 5585 f4c7 22ae 08c8 62a7 ddc7 48bb 0bc8
00000310: a48e 06c8 e2d1 bec7 63b0 44c8 5e06 66c8
00000320: 5cef 56c8 7276 71c8 1082 83c8 9fa9 69c8
00000330: b861 69c8 8200 72c8 21e8 48c8 beb3 b8c8
00000340: 6262 a0c8 54e0 59c8 b03a e6c8 e845 c9c8
00000350: be1d 8cc8 28e2 e3c8 f95e c3c8 b564 83c8
00000360: 5e7b 15c8 0c64 ccc7 2849 4cc7 6648 09c8
00000370: 755a acc7 c1e8 e0c6 88d1 e0c7 87ac 6ec7
00000380: 80d3 f3c3
514122.06 474948.5 374533.38 498693.88 442827.06 332337.44 418129.9 346817.94
230288.0 203422.77 189104.25 151359.39 189306.1 163154.33 119361.2 139039.36
105016.39 58561.305 119306.11 18780.764 -83791.805 104727.2 7755.84 -91419.266
94790.586 13208.243 -74385.94 74067.69 73674.85 66255.92 60376.83 38459.25
16055.818 29474.756 -11816.338 -48565.895 -324970.75 -331288.97 -305395.3 -355701.44
-345466.84 -300342.9 -328691.62 -298608.12 -240485.8 -331568.47 -330072.8 -275080.84
-352717.62 -330549.16 -251902.27 -305601.16 -259406.1 -165211.89 391409.12 363531.88
280178.38 455021.94 401777.12 286918.16 430292.0 354256.66 220776.0 -309703.7
-291871.88 -230875.62 -339971.56 -309776.25 -230170.34 -303868.06 -259788.62 -176376.72
67757.34 86095.43 76372.055 87028.375 104463.39 92226.41 69340.19 84872.48
70392.95 -333132.0 -314596.88 -251450.6 -286005.0 -262807.75 -199212.77 -171426.38
-145415.28 -93544.95 381519.66 347168.53 267029.88 390356.53 324694.97 216551.8
346015.0 250107.75 123128.375 109319.28 120927.91 123193.51 96325.17 89789.45
78195.055 72031.33 47598.344 20543.496 159357.0 123807.29 89754.29 93402.97
53431.03 24002.406 21114.1 -18939.797 -38985.016 -302019.5 -306242.3 -246204.4
-316080.47 -312393.0 -235569.75 -264721.2 -248355.81 -169593.67 98691.39 110835.97
114910.5 153759.0 159780.81 153686.33 164391.69 163965.25 150585.56 -278253.25
-235603.6 -149219.14 -265800.2 -214775.36 -120598.23 -221069.7 -163960.62 -69612.36
-332561.88 -345005.62 -291523.06 -401638.2 -400758.28 -327784.78 -379976.22 -367985.47
-284278.75 -65860.016 -41064.43 -465.73047 -161603.48 -111055.75 -36698.703 -219666.1
-147398.03 -47323.105 369735.38 299573.0 200006.92 330800.94 254740.25 153754.1
240588.31 163455.72 69889.664 -105432.734 -107138.484 -94956.03 -138577.75 -142318.97
-127922.875 -136978.56 -139365.58 -122515.875 -414532.97 -418500.44 -363817.2 -435217.94
-407705.34 -319469.25 -368292.7 -299521.94 -186898.16 -74573.98 -105081.97 -98614.38
-125194.664 -139960.53 -113486.766 -143085.12 -137786.56 -97699.766 -201409.55 -235545.47
-220093.44 -247257.78 -269328.5 -239270.48 -238982.88 -247810.03 -205728.52 -378269.94
-328467.06 -223105.31 -471509.5 -412207.25 -286957.94 -466705.25 -400119.78 -269093.66
-153069.47 -104648.09 -52297.156 -140577.6 -88244.914 -28788.377 -115107.06 -61100.527
-487.65234

exp_avg_sq f4 [25, 1, 3, 3]
00000000: b9b3 a152 e1a4 9b52 41cc 8052 7b75 8c52
00000010: df88 8052 ac10 4a52 8f93 4a52 ad75 2d52
00000020: 14ed fe51 7607 7550 0611 6050 abf5 2950
00000030: 3ce3 7250 fcb2 4f50 9624 1750 3abb 4050
00000040: 079a 1f50 e0cd eb4f e993 9750 fc18 a550
00000050: dc04 f550 5839 9d50 0fd7 b150 c7de 0651
00000060: fd4b 9550 e1b9 b050 0717 0651 911e 9351
00000070: 6493 9751 bd82 8351 9970 c751 76d4 cb51
00000080: 36de ae51 4817 e451 a1b4 e751 0a63 c651
00000090: b472 4252 47dc 4c52 f24e 4252 a216 4c52
000000a0: 8acd 5252 9baa 4352 a7c8 3952 a525 3c52
000000b0: f276 2c52 3109 9f51 47a1 a051 09dd 8351
000000c0: faaf 9451 3488 8f51 057c 5e51 4831 5c51
000000d0: 7c50 4751 efc5 1251 87d8 fd52 f0fe ff52
000000e0: 436d df52 9b87 0853 f50c 0753 074b e752
000000f0: 3274 f952 ea1e f252 1fd3 cc52 591f ca52
00000100: cb25 df52 5afd d452 525d d052 5f68 e352
00000110: 3447 d652 c95c b552 889a c352 8379 b752
00000120: c17c bd50 37d2 ac50 d013 8950 550e ba50
00000130: 7446 a350 ee2d 7650 9fb4 9f50 e754 8450
00000140: 845b 3d50 ccc0 3152 15b8 2952 ed26 0752
00000150: a634 da51 1d3c cc51 83bc 9d51 9863 2a51
00000160: f1db 1951 a1d6 e650 137b 8552 3c4a 7c52
00000170: b962 4c52 2b0c 8452 d4fa 6c52 aea7 3652
00000180: 7b38 6152 942c 3f52 705f 0d52 f043 0652
00000190: 31ba 0452 4142 df51 eb8d 0e52 da6e 0c52
000001a0: b15a eb51 d7d6 0252 1854 0052 d655 d751
000001b0: bd75 7851 104a b051 8b38 d351 281f 9751
000001c0: 183c dd51 a5a6 0552 f140 a551 7e70 f351
000001d0: 4962 1252 3950 5c52 e8f1 5252 59e1 2852
000001e0: 5bf5 5952 baf8 4d52 c025 2152 056e 3652
000001f0: e94c 2952 004b 0352 a1d6 4e50 185d 5450
00000200: 5d01 4950 04ac ce50 cd59 d050 56ce bd50
00000210: a9a0 1351 27ab 1351 2f45 0551 8c71 7d52
00000220: 1dce 8252 5e65 6652 8181 5b52 7173 6152
00000230: 8cf4 4552 d5eb 2752 9322 2b52 f971 1652
00000240: 456b 3752 ba00 5952 3575 5552 a273 3552
00000250: 2d11 5652 dcd4 5152 2167 0d52 028f 2752
00000260: 9f56 2552 2ad8 f251 d227 0652 e256 0a52
00000270: 4aa4 0752 31ab 0d52 1845 0c52 fa5f 0b52
00000280: 81e4 0852 f56a 0152 9e90 a351 8659 8051
00000290: 9f3a 2d51 11c1 9651 082b 6d51 ef54 2551
000002a0: a28a 6951 60c1 3c51 8faa 0e51 ff01 ce50
000002b0: 6c6b c650 99b8 a150 fa18 0651 3b2c 0651
000002c0: 6c65 de50 fa96 1351 1bc2 1851 1310 0251
000002d0: 15a0 2d53 5806 2453 2406 0553 26b6 3a53
000002e0: d591 2b53 5f0c 0753 837c 2a53 7ea4 1753
000002f0: 39e9 e852 f6ff 7951 e38a 9351 4be9 9051
00000300: ad2e ac51 078a be51 8301 af51 90f3 c851
00000310: c937 d051 d230 b551 4fc5 3e52 8e66 6e52
00000320: 29b6 7c52 5a94 4b52 0cce 7c52 7b33 8552
00000330: 41a9 3752 5990 6252 1ee1 6d52 366b b352
00000340: ad2f b352 0222 9c52 d553 db52 ad90 da52
00000350: 5cff bc52 d5bd dd52 f7ef dc52 cc58 bf52
00000360: 5804 d152 2711 c852 e93f aa52 5506 ef52
00000370: 931c e352 7b2b bf52 348b ed52 24ec df52
00000380: 1519 bb52
3.472525e+11 3.3424307e+11 2.765913e+11 3.016332e+11 2.7602606e+11 2.1696578e+11 2.1751475e+11 1.862509e+11
1.368624e+11 1.6443628e+10 1.5036848e+10 1.1405798e+10 1.6299913e+10 1.3938455e+10 1.0143029e+10 1.2933982e+10
1.0710687e+10 7.912276e+09 2.0344424e+10 2.2159024e+10 3.2885891e+10 2.1102248e+10 2.386929e+10 3.620395e+10
2.0038281e+10 2.3719774e+10 3.5994497e+10 7.898413e+10 8.137661e+10 7.060427e+10 1.07073446e+11 1.0943036e+11
9.388155e+10 1.2245539e+11 1.2439599e+11 1.0650814e+11 2.0878701e+11 2.1996724e+11 2.0863703e+11 2.1913826e+11
2.2634788e+11 2.1009523e+11 1.9948383e+11 2.0202136e+11 1.8518249e+11 8.538175e+10 8.623757e+10 7.079363e+10
7.9825945e+10 7.705818e+10 5.9722715e+10 5.9107475e+10 5.350305e+10 3.9399125e+10 5.4512973e+11 5.497469e+11
4.798054e+11 5.8639063e+11 5.80038e+11 4.966981e+11 5.3569815e+11 5.1995037e+11 4.3985768e+11 4.3405466e+11
4.792059e+11 4.573918e+11 4.4745943e+11 4.883543e+11 4.601588e+11 3.8947288e+11 4.200556e+11 3.9400882e+11
2.5432558e+10 2.3195662e+10 1.8398216e+10 2.4972012e+10 2.1914427e+10 1.6520821e+10 2.1435316e+10 1.7761253e+10
1.2707566e+10 1.9086095e+11 1.8223446e+11 1.4511841e+11 1.1714827e+11 1.0964773e+11 8.468407e+10 4.573846e+10
4.130125e+10 3.0982605e+10 2.8664775e+11 2.708943e+11 2.194574e+11 2.835699e+11 2.5445512e+11 1.9612431e+11
2.418288e+11 2.0527166e+11 1.5179789e+11 1.4416635e+11 1.4251486e+11 1.1986116e+11 1.5306659e+11 1.507888e+11
1.2635486e+11 1.4048754e+11 1.3779167e+11 1.1560726e+11 6.669545e+10 9.46446e+10 1.1339834e+11 8.113285e+10
1.187745e+11 1.4350662e+11 8.871989e+10 1.30695545e+11 1.5717854e+11 2.3655968e+11 2.2650041e+11 1.813338e+11
2.3403107e+11 2.2116031e+11 1.7303077e+11 1.9588247e+11 1.8178495e+11 1.4097475e+11 1.388069e+10 1.4251483e+10
1.3489239e+10 2.7739038e+10 2.7964369e+10 2.547533e+10 3.9628476e+10 3.963948e+10 3.577446e+10 2.7213293e+11
2.8090188e+11 2.4738578e+11 2.3569264e+11 2.420761e+11 2.1255284e+11 1.8030404e+11 1.8375487e+11 1.6153931e+11
1.9694467e+11 2.3300502e+11 2.2919861e+11 1.9483227e+11 2.2985279e+11 2.2530484e+11 1.5183015e+11 1.799147e+11
1.7753072e+11 1.3037609e+11 1.4404842e+11 1.4854078e+11 1.4564422e+11 1.5211563e+11 1.5061366e+11 1.4965267e+11
1.469873e+11 1.389613e+11 8.781324e+10 6.890722e+10 4.6500803e+10 8.093553e+10 6.3664325e+10 4.438091e+10
6.269083e+10 5.0668634e+10 3.829668e+10 2.7649898e+10 2.663143e+10 2.1705837e+10 3.599654e+10 3.601673e+10
2.984951e+10 3.9618322e+10 4.1005724e+10 3.4913464e+10 7.457151e+11 7.0448107e+11 5.713337e+11 8.0191986e+11
7.3688606e+11 5.8002814e+11 7.322334e+11 6.512998e+11 5.0017262e+11 6.7108823e+10 7.921129e+10 7.779866e+10
9.243968e+10 1.0229494e+11 9.395558e+10 1.0788497e+11 1.1178614e+11 9.727602e+10 2.0483852e+11 2.559807e+11
2.7134697e+11 2.1859182e+11 2.7144716e+11 2.8604717e+11 1.9720466e+11 2.4327109e+11 2.5542102e+11 3.8529892e+11
3.847995e+11 3.3529273e+11 4.7100215e+11 4.6936506e+11 4.0586904e+11 4.761863e+11 4.7445937e+11 4.1091426e+11
4.4886052e+11 4.296406e+11 3.6560834e+11 5.133017e+11 4.877185e+11 4.1053412e+11 5.1012135e+11 4.8086974e+11
4.0178985e+11

exp_avg f4 [25]
00000000: 02c0 26c7 a202 2b47 230c 8547 d8a3 ab47
00000010: 8f94 14c7 5c63 ecc7 be41 c246 c854 1dc6
00000020: c0e2 cc46 a898 c1c6 b088 7147 e464 cfc7
00000030: 79e3 07c8 16ee a9c7 388b 09c7 7060 afc5
00000040: ceea a6c7 216b a047 e5e0 d747 1062 b146
00000050: d31a c3c7 78f1 08c7 3853 08c6 3863 02c8
00000060: 78d2 f6c4
-42688.008 43778.633 68120.27 87879.69 -38036.56 -121030.72 24864.871 -10069.195
26225.375 -24780.328 61832.688 -106185.78 -139149.89 -87004.17 -35211.22 -5612.0547
-85461.61 82134.26 110529.79 22705.031 -99893.65 -35057.47 -8724.805 -133516.88
-1974.5771

exp_avg_sq f4 [25]
00000000: 12f3 8751 b6ba 5650 88d5 b94f b169 294f
00000010: 0c2d 2051 94b2 0051 155b 4551 9860 1551
00000020: fe57 9550 c6c9 1951 574f 0051 238b 8750
00000030: c8da c850 72e4 b150 dadb c450 383f 0151
00000040: 9504 8e50 647d 5b51 93ce 884f df47 5b50
00000050: d7ad 8951 da3d 3551 ecd2 4a51 9ccb b650
00000060: 875b 884f
7.298733e+10 1.4410242e+10 6.235558e+09 2.842276e+09 4.299691e+10 3.454699e+10 5.297729e+10 4.009817e+10
2.0044575e+10 4.12822e+10 3.4442932e+10 1.819234e+10 2.695825e+10 2.387631e+10 2.642194e+10 3.4694463e+10
1.906132e+10 5.8918846e+10 4.590479e+09 1.4715682e+10 7.391588e+10 4.8651674e+10 5.444513e+10 2.4534376e+10
4.5753994e+09

exp_avg f4 [50, 25, 3, 3]
00000000: 3285 4545 4499 e4c5 9524 8fc6 5732 fa45
00000010: 5de5 0145 4c61 a7c5 d90f ae44 4050 5bc4
00000020: 8484 6fc5 8a9a 9d46 4af4 c146 23b7 c846
00000030: 2888 4946 50f9 7746 5f9f 6d46 5edb 8446
00000040: 7c0a 9546 737e 8646 3a90 62c5 ee37 e9c5
00000050: f2d3 35c6 4cfb 9ec4 ada5 9cc5 58e5 09c6
00000060: 03ba 95c5 407c f9c5 5493 2fc6 5e7e b546
00000070: d2af 9446 fef6 6446 a09b 9546 f439 8546
00000080: 2b18 6346 b8a5 b046 ae5f b146 293a af46
00000090: cc95 5f44 e096 7546 4a13 cd46 1330 2bc5
000000a0: 7761 0846 5359 8646 7269 0ec5 cf38 ae45
000000b0: 2ab2 2746 325e 10c6 e72d e2c5 b197 a6c5
000000c0: c622 1dc6 fd0e 24c6 d6a9 32c6 a0d6 43c6
000000d0: 1e29 6bc6 365a 8fc6 0e81 4f46 ac19 b644
000000e0: ab6b f6c5 120d 8446 d4db 0646 ea94 2945
000000f0: 33a4 8346 87f6 4946 5a4f 2946 0289 0146
00000100: f614 8346 bab4 9746 3022 3545 f781 0b46
00000110: 832f 1446 deb3 88c4 8421 0245 44f4 4644
00000120: 0a8c 0446 238c 2c46 9cda 6346 5692 a145
00000130: a039 f145 440e 3546 cc7c 3446 853b 5f46
00000140: 5274 8b46 cba8 0246 a115 9f46 3614 df46
00000150: 7c18 e745 21ee 9746 4bcc d646 1481 c645
00000160: 8015 8646 41be bd46 ea21 66c6 2242 05c7
00000170: cc54 1bc7 d4d5 e8c5 8dc4 c6c6 5b87 f1c6
00000180: 0456 4843 a478 5cc6 b49e 8bc6 f8a3 9946
00000190: 9231 ce46 48ca be46 c20c 7f46 7c66 ab46
000001a0: ad74 9346 3fa1 8146 e6f1 a646 d84a 8d46
000001b0: 0ada 4dc6 7421 99c6 186f a3c6 72bc 3ec6
000001c0: 81ae 8fc6 c6c1 94c6 f196 0fc6 3fab 66c6
000001d0: 56ce 6cc6 96ca 83c6 44f5 fbc3 2847 5d46
000001e0: 2f1f 93c6 729b aec5 74df b345 e4b3 b7c6
000001f0: c0a1 6dc6 9177 02c6 65e5 cb46 331c 8e46
00000200: d026 1f46 f353 c346 8667 9546 3a8d 5246
00000210: 527a e546 7e25 d346 a275 bd46 9e72 38c5
00000220: f354 0446 522e 9746 1615 0dc6 472d bcc4
00000230: 2f32 d845 d686 35c5 7eac 7844 594c af45
00000240: 04c2 51c6 4886 0fc4 f23f b045 86a0 8fc6
00000250: bcc6 0ac6 6871 a4c5 5205 cac6 d327 a8c6
00000260: 7159 a6c6 acd9 08c5 c644 c746 a2e9 3047
00000270: 51a0 efc5 a17b 9246 0af6 0f47 a282 61c6
00000280: f80f d045 ffe4 a046 a692 8046 8c0d 1f46
00000290: b851 ea45 9536 5246 5c47 fc45 311b c345
000002a0: 70dd c246 88d6 ab46 4afb a646 89c4 a446
000002b0: 9839 2247 82a6 4847 0a09 3646 0d09 f246
000002c0: 3d0e 1f47 7865 8245 ae6a 9a46 ce90 d646
000002d0: 4be9 79c6 93e8 55c6 2a98 12c6 54f5 6cc6
000002e0: d1c4 68c6 7b3f 42c6 d330 91c6 f5ca 9ec6
000002f0: 4e16 9ac6 cc6a 0ac6 bd89 dbc4 7015 0246
00000300: 9867 3bc6 48a9 f0c5 4831 d8c3 920e f6c5
00000310: 8ddb c6c5 bb9a 1ac5 965d 1246 d0a2 b846
00000320: 9aaf d846 4860 df45 76c1 9546 ec2b a546
00000330: b875 a243 e275 0f46 b26b 0c46 0ab2 bfc6
00000340: 767d a2c6 66ed 5ec6 af49 93c6 b64a 73c6
00000350: 7d74 12c6 ef62 c2c6 3ac8 b3c6 1cb0 8cc6
00000360: 6aaf 0846 8a2d 02c4 e2ae c8c5 373b 8846
00000370: 1bb9 5346 8a65 3746 a5b5 8646 0653 9246
00000380: 8058 a646 d6df bd47 76b1 a447 3e96 7b47
00000390: d896 c147 f4e9 ac47 f765 8b47 a62f b847
000003a0: ba65 a747 e0d3 8c47 033d 0cc7 33ed d3c6
000003b0: 09f0 a4c6 8257 edc6 6e86 a5c6 e638 6ec6
000003c0: a413 d2c6 66f4 81c6 85d7 2bc6 d556 ce46
000003d0: b9e8 c946 90ab bb46 0251 b846 ec2f b746
000003e0: 7421 af46 f8ce b946 2cdf b946 6320 b546
000003f0: 5866 a046 0041 5746 bff5 97c4 4091 0a47
3160.3247 -7315.158 -18322.291 8006.2925 2078.3352 -5356.162 1392.4952 -877.2539
-3832.2822 20173.27 24826.145 25691.568 12898.039 15870.328 15207.843 17005.684
19077.242 17215.225 -3625.0142 -7462.991 -11636.986 -1271.853 -5012.7095 -8825.336
-4791.2515 -7983.5312 -11236.832 23231.184 19031.91 14653.748 19149.812 17052.977
14534.042 22610.86 22703.84 22429.08 894.3406 15717.719 26249.645 -2739.0046
8728.366 17196.662 -2278.5903 5575.101 10732.541 -9239.549 -7237.738 -5330.9614
-10056.693 -10499.747 -11434.459 -12533.656 -15050.279 -18349.105 13280.264 1456.8022
-7885.4585 16902.535 8630.957 2713.3071 16850.1 12925.632 10835.838 8290.252
16778.48 19418.363 2898.1367 8928.491 9483.878 -1093.6208 2082.0947 795.81665
8483.01 11043.034 14582.652 5170.292 7719.203 11587.566 11551.199 14286.88
17850.16 8362.198 20362.814 28554.105 7395.0605 19447.064 27494.146 6352.135
17162.75 24287.127 -14728.479 -34114.133 -39764.797 -7450.7285 -25442.275 -30915.678
200.336 -14110.16 -17871.352 19665.984 26392.785 24421.14 16323.189 21939.242
18874.338 16592.623 21368.95 18085.422 -13174.51 -19600.727 -20919.547 -12207.111
-18391.252 -19040.887 -9189.735 -14762.812 -15155.584 -16869.293 -503.91614 14161.789
-18831.592 -5587.4307 5755.9316 -23513.945 -15208.4375 -8349.892 26098.697 18190.1
10185.703 25001.975 19123.762 13475.307 29373.16 27026.746 24250.816 -2951.1636
8469.237 19351.16 -9029.271 -1505.4149 6918.273 -2904.4272 994.6952 5609.5435
-13424.504 -574.09814 5639.993 -18384.262 -8881.684 -5262.176 -25858.66 -21523.912
-21292.72 -2189.6045 25506.387 45289.633 -7668.0396 18749.814 36854.04 -14432.658
6657.996 20594.498 16457.324 10179.387 7498.215 13453.6455 8072.92 6243.399
24942.719 21995.266 21373.645 21090.268 41529.594 51366.508 11650.26 30980.525
40718.24 4172.6836 19765.34 27464.402 -15994.323 -13690.144 -9382.041 -15165.332
-14897.204 -12431.87 -18584.412 -20325.479 -19723.152 -8858.699 -1756.3043 8325.359
-11993.898 -7701.16 -432.385 -7873.8213 -6363.444 -2473.6707 9367.396 23633.406
27735.8 7148.035 19168.73 21141.96 324.91968 9181.471 8986.924 -24537.02
-20798.73 -14267.35 -18852.842 -15570.678 -9373.122 -24881.467 -23012.113 -18008.055
8747.854 -520.71155 -6421.8604 17437.607 13550.276 11737.385 17242.822 18729.512
21292.25 97215.67 84322.92 64406.242 99117.69 88531.91 71371.93 94303.3
85707.45 72103.75 -35901.01 -27126.6 -21112.018 -30379.754 -21187.215 -15246.225
-26889.82 -16634.2 -10997.88 26411.416 25844.361 24021.781 23592.504 23447.96
22416.727 23783.484 23791.586 23184.193 20531.172 13776.25 -1215.6796 35473.25

exp_avg_sq f4 [50, 25, 3, 3]
00000000: 6c2d ef4f 3e5c 0150 0654 ee4f 3324 f54f
00000010: 298e 0750 680e ff4f 3a5c d04f 475c ea4f
00000020: dd54 e14f d9c5 7a4e 01a5 7f4e 47c3 514e
00000030: d224 7a4e 5114 714e d586 3b4e 4f5f 554e
00000040: 46d5 434e 9f63 0e4e 525c 594d 299b a84d
00000050: a4cd c14d 0355 894d 4042 d24d 554a f14d
00000060: 8788 934d 121f df4d e5a1 ff4d e132 1250
00000070: 26e1 0150 a5f9 cf4f ccbb 2b50 9c52 1a50
00000080: 2f54 f84f d38a 3650 f93a 2650 0f62 0750
00000090: 11b1 1050 6e27 0550 ee67 d84f 2351 3250
000000a0: 5778 2550 4875 0650 b71d 4050 8c91 3350
000000b0: c4c6 1250 8de3 1c4f 23e0 014f 9d82 c34e
000000c0: 9503 224f d6cc 044f fddd c64e b737 104f
000000d0: dde6 e94e 0cd6 af4e d9a2 5950 2f9b 4850
000000e0: 7995 2350 166d 7850 2e99 6750 7b4d 3e50
000000f0: 6c0e 7550 69af 6650 ef94 3f50 0821 e24f
00000100: 14eb ae4f fb0a 724f 9ab0 0650 5155 ce4f
00000110: 5b9b 8b4f da19 0c50 aece d54f 1f82 8f4f
00000120: 9b31 214e ccc0 d44d f943 994d ddf7 374e
00000130: 8969 e34d 8035 9a4d 81d6 564e a1f7 074e
00000140: 6752 b74d 3ed6 3a4e ba52 414e 86fe 344e
00000150: 4113 b94e bf0f b64e 9cdf 9d4e 2ea9 184f
00000160: 33cb 114f 0bf6 f14e 72d9 d04f fcb1 934f
00000170: 1bb5 3c4f e426 2350 31fc e74f 268e 8f4f
00000180: 29a5 5b50 9848 2050 c2aa c84f 1e7a e54d
00000190: 3997 c04d 95e1 6d4d 928d d64d 7925 9f4d
000001a0: d78c 2f4d 7fc6 b34d d60c 814d 0521 1d4d
000001b0: 180a 034f ce57 ce4e c266 914e 821a 3b4f
000001c0: 87e1 0e4f 50bf be4e 83e1 6b4f 22ce 304f
000001d0: a77b e44e 49ad b450 97b4 a250 a9f1 8350
000001e0: 8f1f ea50 36a3 d450 9b0f ac50 2840 0651
000001f0: 373a f650 9b47 c850 4aa2 0f50 b177 ff4f
00000200: 2f96 cc4f 1bc8 2c50 6a21 1c50 2f52 fc4f
00000210: e447 3a50 b9a6 2b50 bceb 0c50 1be6 c84f
00000220: 79b9 d54f 4c03 c14f 5b96 d74f 206b ec4f
00000230: ad59 db4f d411 c04f 8bd6 d84f 675a cf4f
00000240: f931 9450 5817 6e50 22b6 2c50 23ee b550
00000250: 3780 9350 7886 5550 b226 c450 fe89 a150
00000260: aba9 6c50 c75a e350 33b8 ca50 5029 a450
00000270: dafc 2a51 20d4 1851 8e5e f350 870c 6051
00000280: 42a6 4951 db0c 2051 f857 fa4f c67f b54f
00000290: 7039 774f 6e20 2850 f1ff f54f 9191 a44f
000002a0: 4a4e 5150 e318 1e50 7929 d74f b74c 0e50
000002b0: 1c3e df4f 0352 a04f 71e7 6750 c7a5 3550
000002c0: 84f5 fb4f f42a a150 5c52 8050 bd03 3250
000002d0: bd78 944f fba9 7d4f 797f 434f db4b a84f
000002e0: dbe1 924f a20c 664f c101 ab4f 410c 994f
000002f0: 4d96 754f 8cd5 a64f 46d0 b54f 4bd9 a94f
00000300: 7ad8 b64f 7df1 cb4f 3f97 c24f 9e5d a94f
00000310: fd69 c04f f490 bb4f fed1 1f50 5ec6 f54f
00000320: 3315 ab4f d4dc 5150 ebd7 1e50 e228 d54f
00000330: b45c 7550 df99 3850 ecb0 f34f 8663 3c4f
00000340: 85ae 214f 9f65 fd4e 0e41 7d4f 38f4 5e4f
00000350: 5405 314f b800 a54f 2dd1 964f 01b6 754f
00000360: 3667 f850 3b3f dc50 28f2 ac50 91d0 0751
00000370: 792f f350 1674 c050 501b fd50 ea5d e450
00000380: 53aa b650 498d 864f 6955 784f f4d8 504f
00000390: 9402 8b4f e199 884f a011 764f bca1 834f
000003a0: 72ba 864f 190b 7f4f b68b 694e 1b8a 4a4e
000003b0: 1572 384e d1ab 504e f6f3 3b4e 4765 2d4e
000003c0: a07d 494e 1104 334e e538 224e a7a1 804d
000003d0: a654 844d 976d 884d 8786 494d 4cd6 5f4d
000003e0: 7eb0 7a4d b246 4b4d 5c7c 6b4d 853f 894d
000003f0: 9564 f74d 7aba cf4d ff9d 7d4d cc1b 924e
8.025463e+09 8.681224e+09 7.996968e+09 8.2255805e+09 9.096963e+09 8.5582684e+09 6.99141e+09 7.863832e+09
7.5608704e+09 1.05181754e+09 1.07225094e+09 8.7980896e+08 1.04917926e+09 1.0111601e+09 7.8654394e+08 8.949483e+08
8.2138355e+08 5.9722336e+08 2.2791914e+08 3.535926e+08 4.0643494e+08 2.8800624e+08 4.4094464e+08 5.0602256e+08
3.0939978e+08 4.6791942e+08 5.361e+08 9.811232e+09 8.716065e+09 6.978489e+09 1.1524846e+10 1.0356421e+10
8.332533e+09 1.2250205e+10 1.1155531e+10 9.085402e+09 9.710093e+09 8.935815e+09 7.2613796e+09 1.1966647e+10
1.1104509e+10 9.023332e+09 1.2892691e+10 1.2050641e+10 9.849999e+09 2.6321585e+09 2.17895e+09 1.6400585e+09
2.7181437e+09 2.2280166e+09 1.6682185e+09 2.4195704e+09 1.9621106e+09 1.4750203e+09 1.4605313e+10 1.3462453e+10
1.0977928e+10 1.6671594e+10 1.5542303e+10 1.2770995e+10 1.6445452e+10 1.5481021e+10 1.2856835e+10 7.587631e+09
5.8692833e+09 4.060806e+09 9.038883e+09 6.9233956e+09 4.684429e+09 9.402018e+09 7.174184e+09 4.815339e+09
6.760957e+08 4.461756e+08 3.214211e+08 7.716186e+08 4.7691805e+08 3.2339968e+08 9.010955e+08 5.702882e+08
3.8445386e+08 7.836507e+08 8.1085606e+08 7.591448e+08 1.5525234e+09 1.5272426e+09 1.3243387e+09 2.5612242e+09
2.4460132e+09 2.0297169e+09 7.007823e+09 4.9558303e+09 3.1659855e+09 1.094894e+10 7.784129e+09 4.8169155e+09
1.4740137e+10 1.0756448e+10 6.733268e+09 4.812482e+08 4.03892e+08 2.494365e+08 4.4995027e+08 3.3375414e+08
1.8407768e+08 3.770163e+08 2.7063776e+08 1.6476168e+08 2.1984768e+09 1.7309304e+09 1.2197153e+09 3.1390766e+09
2.3971448e+09 1.6001044e+09 3.957425e+09 2.9662991e+09 1.9166545e+09 2.4250042e+10 2.1837953e+10 1.7709222e+10
3.1423494e+10 2.8539728e+10 2.309363e+10 3.6037624e+10 3.3048082e+10 2.6881087e+10 9.639111e+09 8.5720684e+09
6.864789e+09 1.1595181e+10 1.0477742e+10 8.466489e+09 1.2501094e+10 1.1519321e+10 9.457037e+09 6.741047e+09
7.1714043e+09 6.4764375e+09 7.2339103e+09 7.932887e+09 7.3601746e+09 6.4447877e+09 7.275878e+09 6.9576166e+09
1.9890424e+10 1.5978029e+10 1.159047e+10 2.441826e+10 1.9797228e+10 1.4329438e+10 2.6326962e+10 2.1681402e+10
1.5882169e+10 3.0515018e+10 2.7208554e+10 2.2033367e+10 4.589916e+10 4.102462e+10 3.2664482e+10 6.014268e+10
5.412986e+10 4.2963153e+10 8.400138e+09 6.0900997e+09 4.1477366e+09 1.128279e+10 8.2543826e+09 5.5220065e+09
1.4046276e+10 1.0609724e+10 7.219639e+09 9.549569e+09 7.490779e+09 5.3794586e+09 1.5562819e+10 1.2190162e+10
8.4543427e+09 2.1631574e+10 1.722305e+10 1.1946358e+10 4.9818813e+09 4.2557755e+09 3.2799112e+09 5.647087e+09
4.9285504e+09 3.8595876e+09 5.738038e+09 5.135434e+09 4.120268e+09 5.5980257e+09 6.100651e+09 5.69918e+09
6.1352806e+09 6.843202e+09 6.529384e+09 5.6829696e+09 6.456343e+09 6.293678e+09 1.0725358e+10 8.246836e+09
5.7405865e+09 1.4083641e+10 1.0659802e+10 7.1524526e+09 1.6465973e+10 1.2388367e+10 8.1769165e+09 3.160639e+09
2.712569e+09 2.1256477e+09 4.248899e+09 3.740547e+09 2.9699164e+09 5.5365755e+09 5.060582e+09 4.1223457e+09
3.3340109e+10 2.9561051e+10 2.3212409e+10 3.6457484e+10 3.2639797e+10 2.5830666e+10 3.3971405e+10 3.065088e+10
2.4516925e+10 4.5148124e+09 4.166347e+09 3.5038792e+09 4.664404e+09 4.583572e+09 4.1283502e+09 4.4168294e+09
4.5207316e+09 4.2789174e+09 9.7956186e+08 8.495121e+08 7.7362106e+08 8.752303e+08 7.883319e+08 7.272739e+08
8.4511334e+08 7.5084704e+08 6.804094e+08 2.697597e+08 2.775175e+08 2.8611043e+08 2.113148e+08 2.347102e+08
2.6286691e+08 2.131505e+08 2.4692474e+08 2.8783018e+08 5.188205e+08 4.3563808e+08 2.6593688e+08 1.2256476e+09

exp_avg f4 [50]
00000000: 8ee9 4e47 5d56 2ac7 d89c d1c4 d693 b346
00000010: 7092 79c7 1e2a 9c46 d51d 3e46 5948 a0c6
00000020: 9719 1747 b287 36c6 7e47 92c6 c0b1 20c7
00000030: 9c7f a746 088d 2bc5 2e30 00c6 8733 0446
00000040: 46bb 8c46 0083 2f43 1003 2dc5 468c b546
00000050: cd43 dec6 00e5 26c4 96e2 8145 4e2a 0c47
00000060: 8f97 a6c7 c93e ed46 9d7e 3746 7e8b 68c6
00000070: ada7 7bc7 4c04 1ac6 981e c2c6 788b 7b46
00000080: 1cea 82c6 3a02 0046 08d7 b1c5 eab9 fac5
00000090: baeb b5c7 9c6c fec7 1037 2847 288c fcc6
000000a0: a0bb dc45 8a2e 2a47 4af6 a1c7 d4ad 5347
000000b0: 774f b2c7 d375 8846 dc7e acc5 16db 53c7
000000c0: 7f45 30c7 f71d 98c7
52969.555 -43606.363 -1676.9014 22985.918 -63890.438 19989.059 12167.458 -20516.174
38681.59 -11681.924 -18723.746 -41137.75 21439.805 -2744.8145 -8204.045 8460.882
18013.637 175.51172 -2768.1914 23238.137 -28449.9 -667.5781 4156.323 35882.305
-85295.12 30367.393 11743.653 -14882.873 -64423.676 -9857.074 -24847.297 16098.867
-16757.055 8192.557 -5690.879 -8023.2393 -93143.45 -130265.22 43063.062 -32326.078
7063.453 43566.54 -82924.58 54189.83 -91294.93 17466.912 -5519.8574 -54235.086
-45125.496 -77883.93

exp_avg_sq f4 [50]
00000000: 8ab3 3c4f 2d42 4d4f da36 934f 1ee2 4250
00000010: 95fb 8d50 9e15 a74f 9679 5350 329d 874f
00000020: ebd2 c650 b1ff 874f c846 944d 0f74 854f
00000030: 5523 1b50 3386 c54f 32e5 6151 a63f 2f4f
00000040: b5e3 4e4f 4455 9b50 e9a3 7d4f c84c 9b4e
00000050: a342 2550 59b9 664f b8a7 224f 5653 f350
00000060: ac65 e94f 9329 e550 3b2a 8d50 b6f5 434f
00000070: b460 2c4f 253b 2450 7fc3 2050 888d 144f
00000080: 9f61 904f 9e2d e950 ac7f 5e4f 15b4 ae4f
00000090: 8233 4d50 a227 8050 620b 1350 f2da 8150
000000a0: a46e 104f 782d 7450 7c7f 2751 0b35 674f
000000b0: 5d21 dc50 2c7d b44e f48b 094f c998 914f
000000c0: 4a75 b950 4f7f f150
3.165883e+09 3.4436662e+09 4.939691e+09 1.3078395e+10 1.9056601e+10 5.6064236e+09 1.4191843e+10 4.550452e+09
2.6685692e+10 4.5633623e+09 3.1095834e+08 4.4779515e+09 1.0411136e+10 6.627813e+09 6.0638306e+10 2.940184e+09
3.4710295e+09 2.0848452e+10 4.2553777e+09 1.3027502e+09 1.1090431e+10 3.8709066e+09 2.7289006e+09 3.26586e+10
7.831509e+09 3.0757657e+10 1.894684e+10 3.28766e+09 2.8920187e+09 1.1021358e+10 1.0788666e+10 2.4923034e+09
4.8446336e+09 3.1296647e+10 3.732909e+09 5.862075e+09 1.377082e+10 1.7200648e+10 9.867987e+09 1.7428877e+10
2.42317e+09 1.6386482e+10 4.49624e+10 3.879013e+09 2.9545392e+10 1.5140511e+09 2.3076506e+09 4.8854185e+09
2.4891773e+10 3.2413219e+10
