models/downscaling/500samples/lr0.01_gamma0.5/ckpt/best_model.pth (torch, 21291 bytes, 15 tensors)

layer1.weight f4 [10, 1, 3, 3]
00000000: f1ee 7f3d 96cd 79bd 1a06 963d 0513 243e
00000010: 41a3 4fbe 856e 163e d98a dd3d b18e 663e
00000020: 2097 62bd 4547 dcbe 6a14 2dbd e443 853e
00000030: 669a 18bd 3ed2 ef3d 0c98 303d bfc2 003e
00000040: 6f2a adbd 70a6 623d 2ceb 14be 1e25 983d
00000050: e3e8 43bd bf41 803d 77a6 e73d c7bd 43be
00000060: a5fd 123e 833c d53d c9d3 0dbe 9b32 11be
00000070: 2c3f 18be f162 003e 4861 2bbd f2df 933d
00000080: 9a18 3b3e 15e8 603e 249e 2d3d b409 f7bd
00000090: dbce a7bc 2a7d afbd 263f c2bd 4e3d 91be
000000a0: 65a1 82be 0cb8 9c3b a648 1d3e 37aa 7ebe
000000b0: 4d25 adbe 7628 ba3c 6cb7 5dbe 622b 80bc
000000c0: 5bc9 f9bd 073e 263d 30f9 103e be06 243c
000000d0: 2cb0 87be f532 5cbc 9ea7 febd 75a4 53bd
000000e0: 1440 463c fd0c 5d3d 2ec9 d83d c902 93be
000000f0: 2380 24be 952f 853e c2fb 4fbe 4083 3c3d
00000100: 7864 a0be a1c6 bbbc dc0e c2be a814 f8bd
00000110: c188 5cbe cb9f 85bd fd40 2bbe 3d77 853c
00000120: 3cd9 cdbd 0504 a7bd 6272 19be eb76 52be
00000130: 0f3b d73d effb 75be b7dd e13d d62e a2be
00000140: 820a 8dbd 3b68 b93d 8894 0ebd 222a 243d
00000150: 60a1 453e d7dc 59be 74ff 35bd 7df0 40bc
00000160: 9b6f 1d3c 6385 b63d
0.06248373 -0.060987078 0.073253825 0.1602288 -0.2027712 0.14690597 0.10817499 0.2251537
-0.055319905 -0.43023124 -0.042255796 0.2602836 -0.03725662 0.117100224 0.043113753 0.1257429
-0.08455359 0.05533451 -0.14542836 0.074289545 -0.04782952 0.0626254 0.113110475 -0.19115363
0.1435457 0.10411932 -0.13850321 -0.1417946 -0.14867848 0.12537743 -0.04184082 0.072204486
0.18271104 0.21963532 0.042387143 -0.120623976 -0.020484379 -0.08568795 -0.09484701 -0.28367084
-0.2551376 0.0047826823 0.15359744 -0.2486962 -0.3381752 0.022724371 -0.21652001 -0.015645687
-0.12196609 0.040586498 0.14157557 0.010011373 -0.26501596 -0.0134398835 -0.12434314 -0.05167051
0.012100238 0.053967465 0.10585247 -0.28713062 -0.16064505 0.26012865 -0.20310882 0.046023607
-0.31326652 -0.022921862 -0.37901962 -0.12113315 -0.21536542 -0.06524619 -0.1672401 0.016292209
-0.100512 -0.081550635 -0.1498504 -0.20553176 0.105093114 -0.24021886 0.11028617 -0.31676358
-0.0688677 0.090530835 -0.03480962 0.040079243 0.19299841 -0.2127565 -0.044433072 -0.011776087
0.009609128 0.0891216

layer1.bias f4 [10]
00000000: 6f11 b03e 5126 263d 17ea b4bd fa53 83bc
00000010: 1844 1ebd 9a43 7f3e 75b7 a9be 8faa 1bbd
00000020: 2770 0abe 5351 e5bd
0.343883 0.040563885 -0.088337116 -0.016031254 -0.038639158 0.24928132 -0.3314778 -0.038004454
-0.13519345 -0.11197152

layer2.weight f4 [10, 10, 3, 3]
00000000: 7218 bdbd 77df efbd 9535 cebb ceb2 dabd
00000010: 585a ce3d 22f4 14be 61fd 29bc 5680 adbd
00000020: bdce 16be fcdc 27bd 50d7 29be 71fd c5bd
00000030: 1ae7 b3bd faf6 bdbd 4f2d 5fbe 5193 f43d
00000040: 755f 09bd cc2d 943b 87cf d8bc 9022 2fbe
00000050: b2e0 2cbd cdf4 e73d 5c99 5b3d 676f f73d
00000060: 6edc 9b3d 2c72 a3bc 34e9 4e3c bb1a 0c3c
00000070: 2e99 0e3e 35cf 373d 9a24 18be 4443 b23c
00000080: 998b 05be 4a6c 393e b050 533e 9a16 14bd
00000090: 3c6b e0bd 8908 e0bd 73d9 15be 600f 473d
000000a0: 0dad cdbd 43e3 5cbd c60b 2bbc 690d ddbb
000000b0: 6272 ebbc 123d 66bd c4fc 34bd b129 48be
000000c0: 7abe 393e e44f 4cbe 9181 ec3c 23b8 ccbd
000000d0: 92ee 003e 862a 89bc f534 2fbd da95 edbd
000000e0: 484a a13d b50f 35be 8523 373e a2b0 51be
000000f0: c8c9 7ebd fa4f 2a3d e4da 71bd 0ddf 833b
00000100: 833e 26bd 1c3c c43d 4dab e03b da97 2ebd
00000110: 8128 b0bd 8307 963d d109 82bd 86ed 963d
00000120: 262e 8cbd bcad 4b3d 60f4 fcbd 8c08 44bd
00000130: 3719 3fbc fe39 01be bf23 c93d 7443 2ebd
00000140: b8e2 2cbe 1a43 5b3e 1cc3 313c d77c 4c3c
00000150: 07ad b23d b074 703e 01fa 57bd 7119 66bd
00000160: 4bad f73c 6b7d 793c fb4d 0d3e 8738 0a3e
00000170: 04ee 98bd 9678 39bd a827 10bd 6887 c9bd
00000180: d81c 8cbd bef0 48bd 3a65 97bd ee2f ad3d
00000190: 10c1 b8bd 672c 2bbe 541d 92bc 9e37 e23d
000001a0: 5215 ec3d 4d74 64bd 7207 003e 76bd 9538
000001b0: c4c2 ab3d f63e c8bd cdf1 8a3c 0d02 2bbd
000001c0: 3c59 413e ab2a 803d 3797 3bbe 7aaa a53d
000001d0: 8a68 a23d e8cc 60bc a5ff bb3d eac4 2b3d
000001e0: 6c35 9b3d 9e86 96bd f71c 803d 6bd9 563c
000001f0: 75d9 11bd 541b f03d cf7c d6bd 828f bd3c
00000200: d171 ffbd eaef bc3d 2912 cdbb 829b 15bd
00000210: 3bbd cdbc 88b0 c4bc 90d3 41be 18a4 933d
00000220: 6c5d f53d 67e9 8abd 446d 403d 9693 7cbe
00000230: e393 a53d 65f6 d9bc 1421 80be 6d57 ca3a
00000240: 0542 44ba 6269 15be de2f f73d 4f3f 1c3d
00000250: 95e5 2b3d 5533 3d3d 7e11 7b3d 981e b13d
00000260: 9b2e 3b3d 7636 b13d c711 943d 6b04 84bd
00000270: b050 f03d 36fe df3d 8473 483d fccb 813c
00000280: 9230 0ebc 86bd e23d 628f 89bc 3467 a1bd
00000290: d967 e43c e511 443c 994d a43d 4ef4 edbd
000002a0: 754f 523e c6d9 67be 0c41 403a a13e 7d3e
000002b0: 53ca 263e f996 b4bc 6c05 87bc 10fa f53d
000002c0: aeca 113e bc5b f7bc bb58 183d 0388 04be
000002d0: 7962 75be d5f5 f53d 9847 fdbc 9441 6cbd
000002e0: a4a4 3e3d dc60 36be c4a8 30be aeae 353c
000002f0: 3bcc e03d 1646 fb3d c3a0 8b3b 7bab 02bd
00000300: 94d9 febd 8f65 d33c cfa7 bebc 2e1e 013e
00000310: f2ce 593e 0969 983e d83f 993d 84f3 373d
00000320: 64b9 6d3b 38bb 4d3d 1743 f5bd 82cd c93c
00000330: bdba 8cbd 72b1 093e 5486 e63d fef2 703c
00000340: 1b43 11be 8c13 6a3d 19f4 073d db8b 0fbe
00000350: 6fbf 2ebd a17b eabd 0bfc 973d 0c98 2f3d
00000360: 3e01 633d 4704 783d fe0b bd3c 6240 a93d
00000370: 30a9 9e3d 1ac2 543d 568a c6bd 88ab a73c
00000380: f441 76bd e4a1 e53d 664a 673e a990 913e
00000390: 8739 e73d aad5 a83d 66dc 82bd b499 c73d
000003a0: 24b1 3d3c 6f69 ec3c 9829 42bc 6a3f 403c
000003b0: 77f6 1abd 81d9 07be 0783 1c3e 87ef 343d
000003c0: 995d 23bd 244e 693e 0bd1 923e e9d7 813d
000003d0: c551 2f3d b432 fa3d 989b 873e 311d 593e
000003e0: 3d1a 3a3e 1c9e 1abd edf5 6c3c c65c 633e
000003f0: 50ca e2bd 5d43 d93d 66fe 303e 400c 0d3e
-0.09233178 -0.117125444 -0.0062930086 -0.106786355 0.100758255 -0.14546254 -0.010375352 -0.08471744
-0.14727302 -0.04098223 -0.16586041 -0.09667481 -0.087843135 -0.09275623 -0.21794628 0.11942161
-0.0335383 0.004522061 -0.026466144 -0.17103028 -0.042206474 0.11325989 0.05361305 0.12081795
0.07610403 -0.019951902 0.012628842 0.008551295 0.13925621 0.044875342 -0.14857712 0.02176059
-0.13041534 0.18107715 0.20636249 -0.036154367 -0.10957953 -0.10939128 -0.14633732 0.048598647
-0.100427724 -0.05392767 -0.010439819 -0.0067459834 -0.028741065 -0.056210585 -0.04418637 -0.19547154
0.18139067 -0.19952351 0.028870376 -0.09996059 0.12591007 -0.01674391 -0.042775113 -0.116008475
0.07875496 -0.17681773 0.17884643 -0.20477536 -0.062204152 0.041580178 -0.05904664 0.0040243925
-0.04058696 0.095817775 0.006856358 -0.042625286 -0.086014755 0.073256515 -0.063495286 0.07369523
-0.068447396 0.049726233 -0.12351298 -0.047859713 -0.0116637265 -0.12619779 0.09821271 -0.042544797
-0.16883361 0.21412316 0.01084974 0.012480936 0.087244086 0.23482013 -0.052728657 -0.056176607
0.030234 0.015227656 0.13799278 0.13498126 -0.07467273 -0.045281015 -0.03519407 -0.0984028
-0.06841439 -0.049057715 -0.07392354 0.084564075 -0.09021199 -0.16716157 -0.01783625 0.110457644
0.11527504 -0.055774976 0.1250284 7.1401635e-05 0.08386758 -0.09777634 0.016961003 -0.041750003
0.18881696 0.06258138 -0.18319403 0.080891564 0.079300955 -0.013720728 0.0917962 0.04193584
0.07578549 -0.07349895 0.062555246 0.01311336 -0.035607774 0.117239624 -0.10473024 0.023139719
-0.12472881 0.092254475 -0.0062582684 -0.036525257 -0.025114646 -0.024009958 -0.18928361 0.07209033
0.119807094 -0.06782799 0.046979204 -0.24665675 0.08084848 -0.026606748 -0.25025237 0.0015437432
-0.00074866443 -0.14590982 0.12069677 0.038146313 0.041966993 0.046191532 0.06129598 0.086484134
0.045698743 0.08652966 0.07229953 -0.06446155 0.1173414 0.10937159 0.04893829 0.015844338
-0.008678572 0.11071305 -0.016792003 -0.078810126 0.02788155 0.011967157 0.08022613 -0.11618863
0.20538123 -0.22641668 0.00073339115 0.24730922 0.16288118 -0.022044646 -0.016482078 0.12010586
0.14237472 -0.03019511 0.037193995 -0.1294251 -0.23963346 0.12009779 -0.030917928 -0.057679728
0.046543732 -0.17810386 -0.17251879 0.01108901 0.10976454 0.12269227 0.0042611076 -0.031901818
-0.124438435 0.025805263 -0.023273377 0.12609169 0.2127035 0.29767635 0.0748288 0.04490997
0.0036273832 0.050227374 -0.11975687 0.024634127 -0.06871555 0.13446596 0.1125609 0.014706371
-0.14185755 0.057147548 0.033191774 -0.14018194 -0.042663034 -0.114493616 0.0742112 0.042869613
0.055421107 0.060550954 0.023077007 0.08264233 0.07747114 0.051942922 -0.09694354 0.020467535
-0.06012149 0.11212519 0.22586975 0.2843068 0.11290269 0.08243878 -0.06389694 0.097461134
0.011577878 0.028858868 -0.011850737 0.011733869 -0.037832703 -0.13266565 0.15284358 0.044173744
-0.039884184 0.22783715 0.28675112 0.0634001 0.04280259 0.12216702 0.26485896 0.21202542
0.18174072 -0.03774844 0.01446293 0.22203359 -0.11073744 0.10608552 0.17284545 0.13774204

layer2.bias f4 [10]
00000000: dacf c7bd f668 6e3d 0158 fe3b c424 b1bd
00000010: a7f4 ebbd e04e 833e d4f9 0fbe 2972 e0bd
00000020: 9b53 1c3c c25f 1ebc
-0.097564414 0.058205567 0.0077619557 -0.086495906 -0.11521273 0.25646114 -0.14060146 -0.10959274
0.0095414175 -0.009666385

layer4.weight f4 [1, 10, 3, 3]
00000000: ddbd 4bbd 1206 8bbe 954f 7cbb 5d0b 05be
00000010: 0ba7 2a3e 66cf 503e 0625 493e d2e4 38be
00000020: 2e03 673e b764 2cbe 0368 bc3d 9e63 5abb
00000030: 3fe7 563e b197 a6bd 0d29 3ebd 084a 893d
00000040: b423 5b3d 90fa 963c 1388 8b3d 230c 0dbd
00000050: 6c18 ebbd 494f 8bbe 69b6 83be 2911 92be
00000060: 43ad c33d 979a a8bd 29f6 9ebd d2c0 183e
00000070: 50cd 8ebe d895 323e e6ef ca3d a65c 4cbe
00000080: c63e 6fbe f46c 25bd 5f84 b3bd 6d9e ce3d
00000090: 79ab b43d 51e4 e13d 98af 48be c9aa 953e
000000a0: 6fc8 05be d1dc 6d3d 5b48 523b 8cd2 d1bd
000000b0: f7c7 423c e6d1 00be ecca 443d 2cee 79bb
000000c0: f143 4e3d 005c 3cbd 964e 43be 39de a5be
000000d0: 4297 d53c e7c1 16be 5744 5b3d 210a 703c
000000e0: ffd9 0d3e dc08 3d3d 533c c6be 2147 19bd
000000f0: 7d2a 94bb b5bc e9bc b3af 22bc 674f 06be
00000100: 0d87 7f3e f722 88bb e4fa ae3d 2b11 c7bd
00000110: aeb2 113e d217 fb3d 9737 203e 6799 88be
00000120: ed86 d2bd 4fb8 943d 6c41 e7bd b0ac 413e
00000130: 952a 7bbe 2e03 55bd 4d2c c13b bddd bfbd
00000140: 1696 803e 067c a5be 5081 28be d4a2 e7bd
00000150: 8523 4fbe e5ba 9abe 9dc2 38be b532 56be
00000160: 5436 b2bd d0f5 c03d
-0.049741615 -0.2715307 -0.0038499583 -0.12992616 0.16665284 0.20391616 0.1964303 -0.18056038
0.22559807 -0.16835295 0.09199526 -0.0033323537 0.20986651 -0.081344016 -0.046425868 0.067035735
0.053500846 0.018430024 0.068130635 -0.034435403 -0.114792675 -0.27208927 -0.25725105 -0.28528717
0.095545314 -0.08232611 -0.07761795 0.14917305 -0.27891016 0.17439973 0.09909038 -0.19957218
-0.2336379 -0.04038711 -0.08765482 0.10088811 0.08821768 0.11029876 -0.19598234 0.2923186
-0.1306474 0.058071915 0.0032086584 -0.10245237 0.011888496 -0.1258007 0.048045084 -0.0038136346
0.050357763 -0.045986176 -0.19072947 -0.32396105 0.026073102 -0.14722405 0.05353197 0.014650852
0.1385269 0.046151027 -0.387179 -0.03742135 -0.0045216666 -0.028532365 -0.009929585 -0.13116227
0.24953862 -0.0041545588 0.08543947 -0.097200714 0.14228317 0.12260403 0.15646206 -0.26679537
-0.10279641 0.072617166 -0.11291775 0.18913531 -0.24527963 -0.052004986 0.0058951736 -0.09368465
0.25114506 -0.32321185 -0.16455579 -0.11310354 -0.20228393 -0.30220714 -0.18042989 -0.2091778
-0.087017685 0.09421885

exp_avg f4 [10, 1, 3, 3]
00000000: b8de 033e 10b8 24bd da39 8abe 1c3c 5e3e
00000010: b0d9 593d eccc 2fbe 7418 483e 10f1 123d
00000020: 608c 3cbe 004e 73bb 5eef 92be bcaa 19bf
00000030: 70c3 37bd acb0 a5be e6f0 21bf 3803 a3bd
00000040: f68a b4be 28ed 27bf 4edf 0dbd 98d3 a43c
00000050: c94d d13d 3cab 70bd 10ae 9dbb da6f 9c3d
00000060: f2d6 73bd 60af d2bb 98e2 963d dad9 203e
00000070: 5ce4 8f3e 9868 5f3e f3cb e33d 42ca 703e
00000080: ed38 303e 4fcc 493d da89 303e f9bf df3d
00000090: c087 df3c 30e9 c3bd 84d9 7fbe b056 e23d
000000a0: c06e 1cbc ac2c 25be d8e8 273e f084 3e3d
000000b0: 208a d2bd 5661 18be 2015 81bd 12e1 52be
000000c0: 20d8 73bd 305f dd3c 58e7 ecbd c0f2 eebc
000000d0: 18c1 6c3d 6828 acbd 2607 5c3e 1ea4 113e
000000e0: e827 063d 42fb 5d3e 9ade 143e 8022 183d
000000f0: 44f1 4a3e cc0b 033e 7053 ad3c e047 30bd
00000100: e8b9 68be 2841 07bf 882d 153e c090 10bd
00000110: 0cf3 aabe c80b 8c3e d05a c33d 3827 4dbe
00000120: 80dd 3c3c 5005 59be 3433 fcbe 988b 143e
00000130: 00f5 98bd 084f b4be 20e7 733e 8066 b53c
00000140: 80df 80be 1843 04be 00dd d53c e8b8 253e
00000150: 4022 43be b034 26bd 40db b83d 4078 74be
00000160: 1832 c1bd 007c 003d
0.12877929 -0.0402146 -0.26997262 0.21702617 0.05318612 -0.17168015 0.19540578 0.035874426
-0.18412924 -0.003712535 -0.28698248 -0.60026145 -0.044864118 -0.32361352 -0.63258207 -0.07959598
-0.3526227 -0.65596247 -0.034636788 0.020120427 0.102199145 -0.05875705 -0.0048120096 0.076385215
-0.05953116 -0.0064295977 0.07367438 0.15708104 0.28103912 0.21817243 0.111228846 0.23514655
0.17209215 0.04926711 0.17240086 0.10925288 0.02728641 -0.09565961 -0.2498532 0.110516906
-0.009547889 -0.16130322 0.16397417 0.046513498 -0.102802515 -0.1488088 -0.063028574 -0.2059367
-0.059532285 0.027022928 -0.11567563 -0.029168487 0.057801336 -0.084061444 0.21487102 0.14222762
0.0327529 0.21677878 0.14538041 0.037142277 0.19818598 0.12797469 0.02115795 -0.043037295
-0.22727168 -0.52833796 0.1456815 -0.035294294 -0.33388555 0.27352738 0.095388055 -0.20034492
0.011527419 -0.21193433 -0.49257815 0.14506376 -0.07468605 -0.35216546 0.23818636 0.022143602
-0.25170517 -0.12916219 0.026106358 0.16183817 -0.19056034 -0.04057759 0.090261936 -0.23873997
-0.09433383 0.031368256

exp_avg_sq f4 [10, 1, 3, 3]
00000000: 7226 fe40 8aa1 fd40 a39b fc40 535a fc40
00000010: 691f fc40 da4a fb40 2636 fa40 2981 fa40
00000020: b441 fa40 4e6b b240 29c1 b340 50f2 b540
00000030: f7ca b240 5899 b440 e044 b740 5df3 b140
00000040: c719 b440 5d18 b740 f93d 0941 360c 0741
00000050: bf15 0441 f11b 0941 b90e 0741 c139 0441
00000060: 0406 0841 4e25 0641 3d7d 0341 fbbc 4343
00000070: 4ca8 4243 060b 4043 5098 4443 decb 4343
00000080: 1674 4143 6800 4443 d67c 4343 4f6f 4143
00000090: 3ce4 2742 f790 2742 0bb4 2642 aab2 2742
000000a0: e788 2742 57d3 2642 8fbc 2642 dfb9 2642
000000b0: b12c 2642 a718 9241 7b2d 9041 1dd2 8e41
000000c0: 11b0 9141 aff3 8f41 edb3 8e41 957a 9041
000000d0: 93e1 8e41 2bc8 8d41 78ff 7e41 4079 7e41
000000e0: e6c3 7c41 9a90 8141 633d 8141 1951 8041
000000f0: f8f1 8241 448e 8241 7b92 8141 9c89 8142
00000100: 0ec1 8142 538c 8142 07d6 8142 8612 8242
00000110: e6d6 8142 dd99 8142 c9d6 8142 d098 8142
00000120: 97e6 7c42 bc93 7c42 8426 7b42 8aa5 7c42
00000130: dd74 7c42 6925 7b42 bc0c 7b42 92fd 7a42
00000140: b5d0 7942 ea82 af43 79ae ae43 387d ac43
00000150: e2cc b043 c239 b043 4146 ae43 f2e4 b043
00000160: 2f94 b043 61e2 ae43
7.942193 7.925969 7.8939986 7.886026 7.8788342 7.852887 7.81911 7.8282666
7.8205204 5.5755987 5.617329 5.685829 5.587276 5.6437187 5.7271576 5.5609574
5.6281466 5.721724 8.57763 8.440481 8.255309 8.569322 8.441094 8.2641
8.501469 8.384108 8.218076 195.7382 194.65741 192.04306 196.59497 195.79636
193.45346 196.00159 195.48764 193.4348 41.972885 41.891567 41.675823 41.924477
41.883694 41.706387 41.68414 41.681515 41.543644 18.262037 18.022207 17.852594
18.21097 17.993986 17.837854 18.059855 17.860144 17.722738 15.93737 15.904602
15.797827 16.195606 16.154974 16.039598 16.368149 16.319466 16.196524 64.76877
64.87706 64.77407 64.91802 65.03618 64.91972 64.800514 64.9195 64.79846
63.225185 63.14427 62.787613 63.16166 63.114124 62.786533 62.762436 62.747627
62.453815 351.02277 349.36307 344.97827 353.60065 352.45123 348.54886 353.78864
353.15768 349.7686

exp_avg f4 [10]
00000000: c2d8 d2be 1e62 09be cc06 9fbc 8af7 c93d
00000010: 439e 783f fd99 9cbe bfbd 243e 3aec db3f
00000020: 0f09 8f3f 2074 f33c
-0.41180998 -0.13416335 -0.01941242 0.098616675 0.9711649 -0.30586234 0.16088007 1.7181466
1.117464 0.029718459

exp_avg_sq f4 [10]
00000000: 871e d33f 1ba2 633f ae10 903f 1a2e 1042
00000010: b18a 1f41 9b29 af40 9b95 a23f cc4a 8441
00000020: 6046 5b41 ccb9 8042
1.6493691 0.8891923 1.125509 36.04502 9.97136 5.473829 1.2701906 16.536522
13.704681 64.362885

exp_avg f4 [10, 10, 3, 3]
00000000: 18c2 92bd a097 8cbc 082d 00bd e8b7 f0bd
00000010: 5492 85bd e0f5 a5bd 7c46 fabd 9487 92bd
00000020: 08eb b6bd 7cef c73d a8f4 cb3d c0a3 c73d
00000030: ed2d b23d d41d b53d 3eed af3d efb1 a03d
00000040: 5ee4 a23d b113 9d3d f512 0fbc fd92 8fbc
00000050: 973d 6fbc 1636 b4bb f8d1 67bc 4108 38bc
00000060: 4e58 83bb b7e4 4cbc eda6 1cbc 4482 8dbc
00000070: 2071 b83b 5006 ea3c d0ad 4dbc e05f 1b3c
00000080: 4aeb 003d c055 72bc 4069 d03b b8f6 e03c
00000090: 74b7 883d 8088 cb3c 0096 8dbc b82a 763d
000000a0: 600a 9f3c d812 aebc 9849 4b3d e0d7 273c
000000b0: e02f edbc a89f 503d 58f0 723d 00e4 f039
000000c0: 025f aa3c 9095 f03c 1c03 eabc 5038 733c
000000d0: 4446 c43c a852 09bd 401e 203c 30d2 14bc
000000e0: f0e5 c6bb 7c9d ad3c 0086 3e3b 1063 ce3b
000000f0: d0e2 b93c e0cb 9e3b 7855 0e3c 0c57 b33d
00000100: b847 353d 0038 683a 52a1 a23d 807d 193d
00000110: 80c1 95bb b2e1 8e3d d06c ee3c 303c 3cbc
00000120: 5061 573d f8af 8b3c 40b2 42bc dcd0 513d
00000130: 489f 893c a0b0 35bc 14a2 363d c079 373c
00000140: 00ab 7ebc 30d2 5bbd b098 18bd e091 96bc
00000150: 797d 39bd 941d f0bc 28cd 31bc b8d3 19bd
00000160: a058 b5bc f863 89bb df1e 163e 5d13 2c3e
00000170: f013 563e 35ee 073e a111 1d3e c933 463e
00000180: fa95 523d 9303 923d 62a5 e23d 16de 4f3d
00000190: 39a7 7f3d 559f 763d d760 4d3d 2ca9 7c3d
000001a0: 2e6b 733d b2aa 553d 7b88 823d f4c1 7b3d
000001b0: 3794 bfbc a294 c0bc 7c6c c3bc de80 a5bc
000001c0: b44c a6bc 5a23 a9bc 04df 40bc c19f 41bc
000001d0: 6c12 47bc 7e1c 933c b8ee f83c e70f 313d
000001e0: 84d7 643c ca49 d53c 3fb2 1d3d c2b3 903c
000001f0: 1232 f13c 4a4a 2a3d 9330 1abd c61f 6cbd
00000200: 3e70 a1bd 54f5 b1bc 1117 28bd e39b 7cbd
00000210: 008f 8abc 2246 12bd aca4 64bd 6065 313d
00000220: e9ad a33c 3ead 1b3c 62c3 513d bc3b e73c
00000230: 7b57 933c 3c07 763c 8e9f f7bb 3031 8dbc
00000240: 3fe0 3cbd badc 51bd 8f16 7bbd a4bc 22bd
00000250: 040d 37bd 76a1 5fbd 0460 7bbc 90c0 a4bc
00000260: 8879 f4bc fc4d 27bd a787 73bd 0d45 a8bd
00000270: 5499 93bc f449 13bd 64ba 6dbd 1ce7 3ebc
00000280: 407b eebc 1057 4fbd bebd 34bd 2002 74bd
00000290: 416c 9fbd 369a f4bc 12a2 37bd 4c40 80bd
000002a0: 0822 7cbc 903a f5bc 72c2 41bd 7d06 57bc
000002b0: 4a48 3fbc 6493 fbbb d98c 60bc fe3b 4cbc
000002c0: d83d 0ebc 2724 15bc a811 03bc 5edb 8ebb
000002d0: 1c34 1a3e 88bd 863d 100b 8a3d d441 423e
000002e0: 98cf dd3d b049 e83d a4be 773e 9810 283e
000002f0: c8fc 303e 5e98 c0bd 4bee dcbd 2c50 f6bd
00000300: 605a c1bd 206b ddbd d7aa f6bd 61ba c0bd
00000310: 7b2e dcbd 07e5 f4bd f34e 963c b681 033d
00000320: 45f0 ea3c 5ebf 863c d77b f73c 3024 dc3c
00000330: d8b6 523c 5e72 d93c 2247 be3c 50fa ef3c
00000340: 007e 8639 00a9 edbc e8bd 523d 30d4 c23c
00000350: 00ca 89bb 7003 6d3d 708e 013d 809c a53b
00000360: 00c3 523c b806 b83d 74ea 383e f0e9 f8bc
00000370: 7079 3b3d c442 0b3e 30d7 5bbd c099 af3c
00000380: e8e3 e23d 822d 003e 626f f83d 681d 493e
00000390: 6238 e03d 8e31 d73d 0ee9 373e 3dfb ba3d
000003a0: 5002 b13d d273 243e b405 6ebd 7006 a4bc
000003b0: 005a 01bc a404 8fbd bcb4 03bd 70fc a5bc
000003c0: 88cc a9bd e863 3bbd e067 0cbd 008a 553b
000003d0: 1c23 9d3d 624f 293e 6091 36bd 80cb e53c
000003e0: 9001 ee3d b0c1 9bbd c0e4 8ebb 10e7 a93d
000003f0: f0b7 90bc c87d 413d 8817 f13d 3819 7abd
-0.07165927 -0.017162144 -0.031292945 -0.11753827 -0.065220505 -0.081035376 -0.12220475 -0.07154766
-0.089315474 0.09762475 0.09958774 0.0974803 0.08700166 0.0884358 0.08590172 0.07846438
0.07953714 0.076697715 -0.008732547 -0.017526144 -0.0146020865 -0.0054996116 -0.014149182 -0.011232437
-0.0040083295 -0.012505702 -0.009561283 -0.01727403 0.00562872 0.028567463 -0.012553647 0.009483308
0.03147439 -0.014790952 0.006360203 0.027461395 0.06675616 0.024845362 -0.01728344 0.060099334
0.019414127 -0.02124922 0.04963073 0.01024434 -0.028953493 0.05093351 0.05931124 0.0004594624
0.020797256 0.029368192 -0.028565936 0.014844969 0.023959287 -0.033526093 0.009772837 -0.009083316
-0.006069891 0.021193258 0.002907157 0.0062984303 0.02269116 0.004846081 0.0086873695 0.08756837
0.04425785 0.00088584423 0.07940926 0.0374732 -0.004570186 0.06976642 0.02910462 -0.011488959
0.05258304 0.017051682 -0.011883318 0.051224574 0.016799584 -0.011089474 0.044588163 0.011198461
-0.015543699 -0.053667247 -0.03725499 -0.018380105 -0.045285676 -0.029310979 -0.010852136 -0.037555426
-0.022136986 -0.0041928254 0.14660214 0.16804262 0.20906043 0.13274463 0.15338756 0.19355692
0.05141256 0.07129588 0.110667005 0.050748907 0.062415335 0.060210545 0.05014118 0.061684772
0.059428386 0.05216474 0.06373688 0.061464265 -0.023386104 -0.023508374 -0.02385544 -0.02020305
-0.020300247 -0.02064674 -0.011771921 -0.011817873 -0.012150388 0.017957922 0.030387267 0.043228056
0.013967399 0.026036162 0.038500067 0.01766384 0.02944282 0.041574754 -0.03764398 -0.05764749
-0.078827366 -0.021723427 -0.041037623 -0.061672103 -0.01691389 -0.035711415 -0.055821106 0.04330957
0.019980388 0.009501753 0.051211722 0.028226726 0.01798605 0.015016373 -0.007556862 -0.017235368
-0.046112295 -0.051235892 -0.06130081 -0.039730683 -0.044690147 -0.05459734 -0.015342716 -0.020111352
-0.029843107 -0.040845856 -0.05945554 -0.082162954 -0.018017448 -0.0359592 -0.058039084 -0.01165178
-0.029111505 -0.05062014 -0.044126265 -0.05957234 -0.0778432 -0.02985869 -0.044832297 -0.06262264
-0.015388973 -0.029935151 -0.047304578 -0.0131241055 -0.01167495 -0.0076774824 -0.013705456 -0.012465475
-0.008681737 -0.009102858 -0.007999815 -0.0043596467 0.1505894 0.06579119 0.06740391 0.18970424
0.10830611 0.1134218 0.24193817 0.1641258 0.17283928 -0.09404062 -0.10787638 -0.1202701
-0.09441066 -0.10811448 -0.12044304 -0.09410549 -0.10751053 -0.11957746 0.018348193 0.032106124
0.028679023 0.016448673 0.030210419 0.026872724 0.012860976 0.026543792 0.023227278 0.029294163
0.0002565235 -0.02901125 0.05145064 0.02378282 -0.0042049885 0.057864606 0.03162998 0.0050540566
0.012863874 0.089856565 0.18058187 -0.030384988 0.04577011 0.13599688 -0.053672016 0.021435618
0.11078626 0.1251736 0.121306196 0.19640124 0.10948254 0.10507499 0.17959997 0.09129951
0.08643019 0.16059807 -0.058110908 -0.0200226 -0.007894993 -0.06983307 -0.032154784 -0.020261973
-0.08290964 -0.045749575 -0.03427875 0.0032583475 0.07672712 0.16534188 -0.044572234 0.028051138
0.11621392 -0.07605302 -0.004360765 0.08296025 -0.017665833 0.047239095 0.11772066 -0.061059207

exp_avg_sq f4 [10, 10, 3, 3]
00000000: 8f3d 1c42 01dd 1a42 4aa1 1842 1e83 1b42
00000010: a053 1a42 3e4c 1842 bb0a 1a42 5e11 1942
00000020: cb40 1742 2b8d 9940 fc7d 9540 b0a3 9040
00000030: f096 9840 75c1 9440 cb22 9040 f3e6 9640
00000040: c452 9340 c3f4 8e40 48cb 3e3e 0dab 403e
00000050: 59f8 403e f546 393e e555 3b3e d504 3c3e
00000060: 7b8f 323e 76d1 343e d6cb 353e 81bc 8041
00000070: 6578 7d41 01ba 7841 e831 8041 7bc3 7c41
00000080: 5264 7841 72d3 7d41 9799 7a41 f2a3 7641
00000090: c78e ff40 93bb fb40 4b7b f640 1e5e fe40
000000a0: 06f6 fa40 591f f640 9c3e fb40 0f43 f840
000000b0: 9bdf f340 9438 313f 9998 2e3f 12e6 273f
000000c0: 42c3 2f3f 724c 2d3f 4968 273f eb66 2b3f
000000d0: 364f 293f 25f9 233f ba61 d53f fb4d d23f
000000e0: dadc ce3f 16bd d43f 1ed8 d13f 6b9d ce3f
000000f0: 2947 d33f 2d9a d03f 719b cd3f 3448 8640
00000100: 82d1 8440 a954 8240 24b4 8540 017c 8440
00000110: d93b 8240 2bc5 8340 74cb 8240 46cb 8040
00000120: 2d9f 8640 72a0 8440 d11c 8240 b452 8640
00000130: bc8b 8440 733e 8240 ad19 8540 a08e 8340
00000140: b17a 8140 deed 1d41 d027 1c41 19bd 1941
00000150: ed33 1e41 6fad 1c41 2a81 1a41 ac3e 1d41
00000160: 79f9 1b41 aa12 1a41 33a0 0642 1c31 0742
00000170: 3c0a 0742 ff6d 0642 b228 0742 ea2c 0742
00000180: 5c52 0542 2a35 0642 b762 0642 ce32 8540
00000190: 02d5 8340 ec61 8140 d8e4 8440 4db0 8340
000001a0: cc65 8140 45c2 8340 dbb8 8240 369c 8040
000001b0: 46c4 0e3e 0a91 133e 9343 173e 45a1 0a3e
000001c0: 777d 0f3e f74d 133e 6a60 053e 063c 0a3e
000001d0: 481e 0e3e 2588 5e41 2b68 5e41 f8dc 5c41
000001e0: 989b 5e41 b2c9 5e41 b48c 5d41 f456 5d41
000001f0: e9d2 5d41 9de6 5c41 69b8 d940 8cff d940
00000200: c0b1 d840 4f67 d940 dc04 da40 a40d d940
00000210: dff2 d740 3fe3 d840 0b42 d840 3137 083f
00000220: a132 0a3f 4165 0a3f 0c8f 073f e4db 093f
00000230: 1669 0a3f 8888 063f 5c51 093f 1037 0a3f
00000240: 7241 b43f 9ecb b33f 039f b23f 7589 b43f
00000250: 6e3f b43f 633e b33f a876 b33f 6d5a b33f
00000260: 8e82 b23f d3bb 6640 8c33 6840 e19d 6740
00000270: dc14 6640 4fef 6740 b0ba 6740 fb8b 6440
00000280: 06c8 6640 d8f6 6640 aa76 6840 6580 6840
00000290: 8e00 6740 90a1 6840 2b04 6940 52de 6740
000002a0: 7e5f 6740 341c 6840 b251 6740 9b0b 0641
000002b0: 5e8d 0641 6f43 0641 cbaf 0641 ae69 0741
000002c0: 8956 0741 5679 0641 f167 0741 7f8a 0741
000002d0: 1d99 8c41 3d4a 8c41 28f3 8941 e315 8d41
000002e0: dee8 8c41 f9b1 8a41 307e 8c41 8a72 8c41
000002f0: eb62 8a41 501e 1f40 dea9 1c40 1a40 1940
00000300: 2586 1f40 5034 1d40 4dec 1940 94fb 1e40
00000310: 17d2 1c40 c8b2 1940 f3df c43e 6b31 c63e
00000320: a9c6 c53e 2952 c43e 78c7 c53e 4680 c53e
00000330: f882 c23e be10 c43e 7ff0 c33e ee66 9540
00000340: b1d1 9340 f737 9140 861d 9640 47b9 9440
00000350: c74b 9240 2217 9640 4ce5 9440 69aa 9240
00000360: 01b3 4e41 f29e 4d41 a266 4b41 f5b7 4e41
00000370: a893 4d41 f747 4b41 7b86 4d41 0453 4c41
00000380: 30fd 4941 f954 0440 db0d 0440 1dd3 0340
00000390: 911e 0440 08d7 0340 7f84 0340 e167 0340
000003a0: 9d19 0340 6ebb 0240 b04b 3240 4245 3140
000003b0: dfa2 2e40 8c2b 3340 f40f 3240 fd58 2f40
000003c0: a5d9 3240 d1ab 3140 c0e4 2e40 878c d740
000003d0: ae21 d740 71cc d540 0892 d740 a522 d740
000003e0: 72c0 d540 53bd d640 6247 d640 01e4 d440
000003f0: 107e b840 b17a b740 aa5b b540 37e7 b840
39.060116 38.715824 38.15751 38.878044 38.581665 38.074455 38.51048 38.26696
37.813274 4.7984824 4.671629 4.5199814 4.768425 4.6486154 4.504247 4.715692
4.603853 4.467378 0.18632233 0.1881525 0.18844737 0.18093474 0.18294485 0.18361218
0.17437546 0.17658028 0.17753538 16.092043 15.841893 15.545411 16.024368 15.797725
15.524492 15.864122 15.6624975 15.415026 7.986179 7.8666472 7.7025504 7.948989
7.842532 7.6913266 7.8513927 7.758186 7.6210456 0.69226956 0.68201596 0.65585434
0.68657315 0.6769477 0.653935 0.66953915 0.6613649 0.6405204 1.6670449 1.6430048
1.6161149 1.6620204 1.6394079 1.614179 1.6506091 1.6297051 1.6063062 4.196314
4.1505747 4.0728345 4.17824 4.140137 4.0698056 4.1178184 4.0873356 4.0248137
4.2069306 4.1445856 4.0660176 4.1975956 4.1420574 4.070123 4.1593843 4.1111603
4.046227 9.870573 9.75972 9.608666 9.887677 9.792342 9.656534 9.827801
9.748406 9.629557 33.656445 33.79796 33.759995 33.607418 33.78974 33.79386
33.33043 33.551918 33.5964 4.1624517 4.119752 4.0432034 4.152935 4.115271
4.0436764 4.1174645 4.0850654 4.0190687 0.1394206 0.14410797 0.14771871 0.13538082
0.14012705 0.1438521 0.1302506 0.1349946 0.13878739 13.908238 13.900432 13.803947
13.912987 13.924242 13.846851 13.833729 13.863992 13.806302 6.803761 6.8124447
6.771698 6.793861 6.813093 6.782915 6.7483974 6.77774 6.758062 0.53209215
0.53983504 0.5406075 0.5295265 0.5385115 0.540666 0.5255208 0.5363977 0.5399027
1.4082472 1.4046514 1.3954777 1.4104449 1.4081857 1.4003414 1.4020586 1.4011971
1.3946092 3.6052139 3.6281462 3.6190112 3.5950232 3.6239812 3.6207695 3.5710437
3.6059585 3.6088161 3.6322427 3.6328366 3.6094089 3.634861 3.6408794 3.6229444
3.6152034 3.6267214 3.6143613 8.377833 8.409513 8.391463 8.417918 8.463301
8.458627 8.404623 8.462876 8.4713125 17.574762 17.53625 17.243729 17.635687
17.613705 17.3369 17.561615 17.555927 17.2983 2.4862251 2.4478679 2.3945374
2.4925625 2.456318 2.4050477 2.484105 2.4503229 2.401537 0.3845211 0.38709578
0.38628128 0.38343933 0.38628745 0.38574427 0.37990546 0.38294023 0.3826942 4.6688147
4.619347 4.5380816 4.691104 4.647617 4.57175 4.690324 4.6529903 4.583302
12.918702 12.851305 12.712557 12.919911 12.848549 12.70507 12.845332 12.7702675
12.624313 2.0676863 2.0633457 2.0597603 2.0643656 2.0599995 2.054962 2.0532153
2.0484383 2.0426898 2.7858696 2.7698522 2.7286909 2.799533 2.7822237 2.7398064
2.794534 2.7761118 2.7327118 6.735904 6.7228613 6.681206 6.736576 6.722979
6.679742 6.710611 6.6962137 6.6528325 5.7653885 5.733727 5.6674395 5.7782245

exp_avg f4 [10]
00000000: e077 a0bc 19e5 9b3e f3ab 833e 5858 c13d
00000010: fc90 f13c e078 dfbe 509b b63d 1867 223d
00000020: 36e7 873c a8a2 ddbe
-0.01958841 0.30448225 0.25717124 0.09440678 0.02948808 -0.43646908 0.08916342 0.0396491
0.016589742 -0.4328816

exp_avg_sq f4 [10]
00000000: a772 6f41 5158 5d41 9db2 0741 aed9 203f
00000010: a66e 473e 9934 6240 3bf4 1b40 f18d 6f3e
00000020: fe28 713e 6fa0 a441
14.965491 13.834062 8.481107 0.6283215 0.19475803 3.5344603 2.4367816 0.2339399
0.23550794 20.578337

exp_avg f4 [1, 10, 3, 3]
00000000: 786f da3d d8ee 803e f3b4 e53e 5b03 16be
00000010: 2081 a9bc c23e 253e ea75 79be 237f 0abe
00000020: 4895 003d 1e65 703d bcae cb3d 6374 0a3e
00000030: a499 0e3d 96d6 953d aa6d dd3d a44f 043e
00000040: 3287 293e 7e25 4c3e c09b 283d c8ed 75be
00000050: 5c5c 44bf 84b7 df3e b052 3c3e 30cc a5be
00000060: 42cb 0c3f 707a a43e 684b 26be 70ce c93d
00000070: 002b ed3c c4d0 ccbe 04c2 c43e d845 ac3e
00000080: c037 aabd 8838 9f3e 20c8 8c3e 98a9 01be
00000090: b06a 573d 8801 413d 401e 983b 60fa a03d
000000a0: 3815 a63d 4842 3f3d 483b ba3d fc0b cc3d
000000b0: b415 963d 68d8 5c3e e853 19be a050 66bd
000000c0: 5265 a63e 20c5 2cbd 000f 753d 8024 163f
000000d0: f24d 6c3e 7451 ad3e 0046 1cbc 605c a4bd
000000e0: a6f6 a5be 64b9 133e b86f a63d 2851 23be
000000f0: f8ce c53d c0ac 1e3d 08bd 46be 404a 1e3c
00000100: 8056 d63c d001 323d 00b8 2a3c 6097 093d
00000110: 7852 6b3d 50f4 e63c 8045 643d c80e b03d
00000120: d036 c2bc 60ad a1bc 58c4 38be 44e9 f23d
00000130: c855 063e 107a cfbc be4e 063e de9c 173e
00000140: 00c4 05ba 48be 5a3e 18fd 37be 5e1a 40bf
00000150: 7aaf 113f d049 473e 18f1 b8be 620b 1a3f
00000160: 2877 7a3e e46f 98be
0.10665792 0.25182223 0.44864616 -0.14649718 -0.020691454 0.16137221 -0.24361387 -0.13525061
0.031392366 0.058690183 0.09945437 0.1352096 0.034814492 0.0731632 0.108119324 0.12921005
0.16555479 0.19936177 0.04116416 -0.24016488 -0.7670343 0.436947 0.18390918 -0.32382345
0.54997647 0.32124662 -0.16239703 0.09853828 0.028951168 -0.40003026 0.38429272 0.33647037
-0.08311415 0.31097817 0.27496433 -0.12662351 0.05259198 0.0471206 0.004642278 0.07860255
0.08109516 0.04669407 0.09093338 0.09963223 0.07328358 0.21566927 -0.14973414 -0.056229234
0.32499176 -0.04218018 0.05982876 0.58649445 0.23076609 0.33851206 -0.009538174 -0.08025432
-0.3241474 0.1442619 0.081267774 -0.15948927 0.09658617 0.038738966 -0.19408047 0.009661257
0.026164293 0.04345876 0.010419846 0.033591628 0.057451695 0.02819267 0.055730343 0.08596569
-0.023707777 -0.019735992 -0.18043649 0.11860898 0.1311866 -0.025326759 0.13115975 0.14805934
-0.00051027536 0.21361649 -0.17967641 -0.75040233 0.5690838 0.19461751 -0.3612144 0.6017362
0.24459517 -0.29772866

exp_avg_sq f4 [1, 10, 3, 3]
00000000: 2506 5743 18f7 5543 672a 4e43 2e92 5d43
00000010: 64e5 5d43 c627 5743 4244 5e43 9cf3 5f43
00000020: 7179 5a43 9a89 ba43 08e9 b843 f017 b243
00000030: 94fc bf43 eb63 bf43 9168 b943 ab92 c043
00000040: b803 c143 3d05 bc43 fa48 7242 c1cd 7342
00000050: b6ca 6f42 b4be 7342 e12c 7642 fcc4 7242
00000060: aa67 6f42 b795 7242 ce07 7042 644d 0f42
00000070: 385d 0f42 289d 0c42 28ae 1042 7911 1142
00000080: 1155 0e42 6d29 0f42 ea90 0f42 fb14 0d42
00000090: 187d c141 2cd8 c241 3ef4 bd41 b4ff c041
000000a0: 1390 c341 44e3 bf41 24ef ba41 0088 be41
000000b0: 5721 bc41 5f85 9141 e73e 9241 fdd5 8e41
000000c0: 3189 9341 9d98 9441 0981 9141 a0b5 9141
000000d0: 72f3 9241 d0bf 9041 a639 c541 fc23 c741
000000e0: d1df c341 024c c641 07e8 c841 9c27 c641
000000f0: da5f c241 d46b c541 ce63 c341 f31a 3140
00000100: 2851 3140 142d 2d40 4851 3040 a623 3040
00000110: b0ab 2b40 38da 2c40 ef4f 2c40 c898 2740
00000120: 6904 2f42 0528 3042 15a3 2c42 f68f 3642
00000130: 0d5e 3842 7534 3542 b046 3942 6fa5 3b42
00000140: eff2 3842 0e53 9c42 f7bf 9d42 857c 9b42
00000150: 2da7 9c42 7c7f 9e42 757a 9c42 7b67 9942
00000160: 2e8e 9b42 5af4 9942
215.024 213.96521 206.16563 221.57101 221.89606 215.15536 222.26663 223.9516
218.47438 373.075 369.82056 356.187 383.97327 382.7806 370.81693 385.14584
386.02905 376.04092 60.571266 60.95093 59.94796 60.936234 61.543827 60.692368
59.851234 60.646206 60.00762 35.825577 35.841034 35.153473 36.170074 36.267063
35.583073 35.790455 35.891518 35.27049 24.18608 24.355553 23.744259 24.124855
24.445349 23.98597 23.366768 23.816406 23.51628 18.190123 18.280714 17.854486
18.441988 18.574518 18.188005 18.213684 18.36887 18.093658 24.653149 24.89257
24.484285 24.787113 25.113295 24.76934 24.296803 24.67765 24.423733 2.7672698
2.7705784 2.7058764 2.754961 2.7521758 2.682354 2.700819 2.6923788 2.6187
43.754307 44.03908 43.15926 45.640587 46.091846 45.301228 46.31903 46.911556
46.23724 78.16222 78.87493 77.7432 78.326515 79.24899 78.239174 76.70211
77.777695 76.97725
