models/sigma0.01_step0.0002_lr0.0006/ckpt/model_epoch_100.pth (torch, 282369 bytes, 18 tensors)

layer1.weight f4 [25, 1, 3, 3]
00000000: bd15 133d fbc1 2dbd d27d bd3d b596 a6bd
00000010: 819f 723e 1379 113e 2a76 823d f452 35bc
00000020: 6343 023d 8ac4 03be f493 04bd c07a 00be
00000030: 0ecb ccbc b8ce 3b3d f006 21bc 26c6 f03b
00000040: 7e99 30bd 6578 a2bd 5285 97bd 8503 843b
00000050: 06eb b83c 4833 bf3d 8d59 f63d db36 143c
00000060: 1ac9 2e3c 5d93 00be 4272 013e 6553 d6bd
00000070: 1237 873c e6f0 a5bb 5dc0 08be 468b aebc
00000080: d420 963d 8a1c 1a3d 5199 09bd 8b49 a0bd
00000090: c61c 793d d0e2 513d 92aa 853d 81c6 03bc
000000a0: 671c e13d 79f0 b93d 97f1 0abd df92 8b3e
000000b0: 6fd7 74bd 314b 1a3e 090a 05be dd90 1abe
000000c0: f45e e23d 0031 fcbd 72ec c0bd def8 9abd
000000d0: 79b1 3abb 5422 4c3d d8f9 663d 9797 993c
000000e0: af81 b43c 84f4 17bc 7875 c43a f910 6a3c
000000f0: bb1d b9bc 1ea5 0c3e 46d5 d5bc 5052 403c
00000100: 5a98 e6bd d626 b5bc 4d3d a03d fdec 18be
00000110: fcaa 7c3d 8cc1 b43c 0544 b9bd 1b37 28be
00000120: 6b43 b03d ed95 2d3e cb7f 443e c54c 563d
00000130: 0edc bd3d ba3b feba d3bf 423d cfa7 ffbd
00000140: 4a05 123d 9de2 bd3d 95a6 8ebb d51b cbbc
00000150: 9213 413d 95aa 18bd 20a8 70be 7157 e9bd
00000160: 745c cfbd ce35 413d 0858 1cbe b71d 843c
00000170: bace a0bc 6e63 11be 4afc 7f3d 00d0 4d3e
00000180: b137 8abd 836c 21bd 172d 073e 91bc 5b3d
00000190: eedb 8a3c c6a3 ba3d 9bc5 cd3c 3501 273d
000001a0: 949d 33bb 4698 fc3d 1d2a 2d3e 76bd ca3d
000001b0: f427 1a3e c594 b9bd 57e1 cf3d 80fc d23d
000001c0: 4137 0dbd eb12 fe3d b21f b6bd 365a 0d3e
000001d0: f8e0 ea3d 6915 dd3d a1e2 4f3e a6af d13d
000001e0: b2cd 783d 736f edbc ead6 9e3d d719 1ebd
000001f0: cb2a b13d 2ecf 973d b63e 13bd 9356 5cbe
00000200: bd38 cd3d 6abe dfbd ee52 2e3e c514 a7bd
00000210: 5ca4 7dbc 984c 95bc 7e5d 97bc 6647 bcbb
00000220: 0a1b 72bd 4ed8 cf3c 7fb5 15bd 4f09 6ebd
00000230: 63c6 513d 7470 643b 269b be3d 2397 113e
00000240: 8955 a4bb da74 c3bd 66e6 dd3c d699 e43c
00000250: 1f86 48be b2ed 303e 31ee c0bd cb09 19be
00000260: 3bca 48bd fea4 01be 91ce e7bd 2dc3 e93d
00000270: 3748 58bd b3b3 b3bd 0dbe 9b3b 5d05 8ebd
00000280: 4ddb 823d dfab 443d 2cdc 53bd f3be 09be
00000290: 87c0 0abe 5457 7bbe 0647 a5bd 2e62 92bd
000002a0: 4e74 5fbd c20a 51bc d315 37be 3191 08be
000002b0: 55b6 fa3c 729d b53c fbab cb3d 71e3 22be
000002c0: 62d1 913d 4d80 d8bb 3583 5abd 7f77 b93d
000002d0: ab25 03bd e514 6e3b 1cb1 45be ff2f a73c
000002e0: dfc2 873d 4ea5 403e c864 24be 5343 67be
000002f0: a493 c43d 469a 803d 5987 88bd 1eb2 69be
00000300: db71 f7bb 8eb1 99be c35b 193d 63fa d5bd
00000310: ab83 3c3c e287 55bd 37bc e9bd 9f50 813d
00000320: e012 333d 2763 133e fbcf 013d 7ceb f2bc
00000330: 6960 18bc 6fd2 99bb 227e 263e 341b 963d
00000340: 2990 a13d 0e52 863d 84fe 9fbc 6ead 5e3d
00000350: a788 d13d 09ab 80bd 9cce d63d a288 54bd
00000360: 190c 77bd 3a2f ad3d ee67 7e3d 1113 d33d
00000370: e1d0 1b3c 94cf 5dbe ff94 88bd 132c a53c
00000380: 0ab5 a73d
0.035909403 -0.042421322 0.09252514 -0.08134214 0.23693658 0.14206342 0.06370194 -0.011067141
0.031802546 -0.12867942 -0.03236766 -0.12546825 -0.024999168 0.04585144 -0.009828314 0.00734784
-0.04311513 -0.0793312 -0.07398476 0.00402874 0.022573005 0.09335953 0.12028799 0.009046282
0.010668064 -0.12556215 0.12641242 -0.10465125 0.016505752 -0.0050641177 -0.13354631 -0.021306645
0.0733048 0.037624873 -0.03359348 -0.07826527 0.060818456 0.051241696 0.06526674 -0.0080429325
0.109917454 0.0907907 -0.033921804 0.2726049 -0.059775766 0.15067746 -0.1299211 -0.15094323
0.11053267 -0.123140335 -0.09420098 -0.07566999 -0.002848713 0.049837425 0.056390613 0.018749041
0.022034494 -0.009274606 0.0014988622 0.014286273 -0.022597184 0.13734862 -0.026102673 0.011738375
-0.112595275 -0.022113245 0.07824192 -0.14934154 0.0616865 0.022064947 -0.09046177 -0.16427271
0.08606609 0.16951723 0.19189374 0.052319307 0.09270488 -0.0019396462 0.04754622 -0.12483179
0.035649575 0.09271739 -0.004353354 -0.024793545 0.047137804 -0.037272055 -0.23501635 -0.11393631
-0.10125056 0.047170453 -0.15267956 0.01612745 -0.019629825 -0.14198086 0.06249646 0.20098877
-0.067489035 -0.039410125 0.13200794 0.053646628 0.016950574 0.091132686 0.02511864 0.040772635
-0.0027407156 0.12333731 0.16910596 0.09899418 0.15054303 -0.09061579 0.10150402 0.10302067
-0.034476522 0.12405952 -0.08892764 0.13803944 0.11468691 0.10795099 0.20301296 0.102385804
0.06074304 -0.028983807 0.07755835 -0.03859886 0.0865074 0.07412563 -0.035948478 -0.215174
0.100205876 -0.109249905 0.17023823 -0.08158258 -0.015481081 -0.018225 -0.018477198 -0.005745816
-0.059107818 0.025371697 -0.03655004 -0.058114346 0.051214587 0.0034857066 0.09306936 0.1421781
-0.0050150794 -0.09543772 0.027087402 0.027905386 -0.19582413 0.17278174 -0.094204314 -0.14945142
-0.049020987 -0.12660596 -0.11318696 0.1141418 -0.052803244 -0.08774509 0.0047528804 -0.06934617
0.063894846 0.04801547 -0.051723644 -0.13451748 -0.13550006 -0.24545032 -0.08070187 -0.071476325
-0.054554276 -0.0127589125 -0.17879419 -0.13336636 0.03060452 0.022169802 0.09944912 -0.15907075
0.07120015 -0.0066070915 -0.053347785 0.09055995 -0.032018345 0.0036328372 -0.19305843 0.020408629
0.066289656 0.18813059 -0.1605407 -0.22584276 0.09598473 0.06279425 -0.066664405 -0.22821853
-0.0075514144 -0.30018276 0.037441026 -0.10448148 0.011506001 -0.05213154 -0.11412852 0.063142054
0.043719172 0.14393292 0.031692486 -0.029653303 -0.00930033 -0.004694275 0.16259053 0.07329407
0.078888245 0.065586194 -0.019530542 0.054364614 0.102311425 -0.06282622 0.10488626 -0.051888116
-0.06031427 0.084562734 0.062110834 0.10306371 0.00951025 -0.21661216 -0.06669044 0.020162618
0.08188827

layer1.bias f4 [25]
00000000: d15c a0be 9e60 5dbe 29f2 e7bc 3477 f33c
00000010: 3d5a 5e3e 5998 0a3d 79b7 44be 81d7 f2bc
00000020: ecaa 6a3e 73f0 a1be b84a 143e 8d52 323d
00000030: 438e f5bd ec4f 133e 0073 0c3e 0920 773d
00000040: 7a2b 06be 9179 1c3d 43ca 443e 6524 a2bd
00000050: b560 413e 8663 983e de93 393e 3677 a2bd
00000060: c1d3 8c3e
-0.31320813 -0.21618888 -0.028313713 0.029719926 0.2171411 0.033836696 -0.19210614 -0.029643776
0.22916764 -0.3162876 0.14481628 0.043535758 -0.11990025 0.14385957 0.13715744 0.060333285
-0.13102522 0.038201872 0.19217782 -0.07917098 0.18884547 0.2976343 0.18122813 -0.07932894
0.27505305

layer2.weight f4 [50, 25, 3, 3]
00000000: 8de9 703d e513 8ebd 9efe fabd 998e e5bd
00000010: f06e 9a3d bc1d 2f3d a0a2 2a3c caba 4ebd
00000020: 0018 8cbd 5735 cdbd 8848 ddbd 8354 cc3b
00000030: 8eac 46bd 7746 3e3d 84c1 0c3e 3f8a 89bd
00000040: 5adb 41bd a64a 06bd a93d d2bd 7108 29bb
00000050: 0340 373d 2c11 06bd 703d c93c 798f 003d
00000060: c351 63bd ac8d 593d 1d3c 493d 4ef2 663b
00000070: be20 a83c a701 8d3c 3971 b33c d8d5 a53d
00000080: 6bcf cebc a768 c83d 7374 ab3d 98e2 e0bc
00000090: 230c d0bb e066 97bc 685f 07bc ae5d a3bc
000000a0: 1429 debd b361 5f3c cc3b 2ebc 49e3 c33c
000000b0: fd53 f5bc f6ba ca3b 9f59 fcbc 65c3 94ba
000000c0: 12b9 1f3d e636 3abd 501d 1b3c 32a5 8bbd
000000d0: 27a2 69bc bd02 8c3d cf44 ce3c 1e81 abbd
000000e0: efc3 e13c 6a46 a93c 27e2 e2bd e464 0e3c
000000f0: 653b a9bc feab e1bb 78e8 1abc 1c43 c6bd
00000100: be1a 19bc d5d1 4bbd ac2e 61bd 17cb f73b
00000110: 987a 4abd 7cf3 db3c b942 eabc e8e7 223c
00000120: f812 003b ec99 513d 809c ab3d a593 823d
00000130: 6751 bebd 9abf 81bd 13c8 74bd bba3 d83d
00000140: 9852 483d bc65 653d e700 ee3c ee7a 403d
00000150: 1f91 18bd 7681 4238 bf34 dbbd d978 603d
00000160: 4df1 0abd 7b7b 523d 93f4 ae3d 896c f23c
00000170: 724f eebc d98a 00bd 883d 12be 6b4d 913d
00000180: d0b1 99bd 08ac dabc e3f9 edbd bb36 c7bc
00000190: 1fb3 8cbc 6d0a 06bd bcd0 ccbd 9d52 0fbd
000001a0: 1036 babc d23e b9bb 0f95 8bbc 6f00 503d
000001b0: d794 47bc 9a09 5dbc 5f2a 3abd 4215 9abd
000001c0: 729d 14bd 5497 4c3d fa76 6fbd 855d 14be
000001d0: adb8 993d f864 87bd 2ca7 883c 08de babd
000001e0: 2755 0fbd 529f fe3c 532f d73d a6b2 d63c
000001f0: 7b00 f5bc c6f9 a4bb 1183 c53c 24dd ba3c
00000200: b6aa f43d a131 9d3d bec4 8ebb 352f d4bd
00000210: 5b07 8a3d a73b edbc bb8b 3cbd c1cc 91bd
00000220: e3a5 8abd aa22 e13b 40eb 5cbb d25d a7ba
00000230: 6730 393d 2d45 b23c 3403 b03c 9b51 393c
00000240: f0cd 1a3d d985 b73c d7d2 41bd 3bc2 4cbd
00000250: f56a d63d 07b5 063d f53a 023e 490f 2fbb
00000260: a46e 003d 0f43 1e3d dd54 213c 8a69 a73d
00000270: 3332 7b3d 9a21 b3bc e5d3 483d 92fa 023b
00000280: 9e9e bfbc 642f 893c 179f 46bd 5631 173c
00000290: 213e 84bd ad9b 8fbc b21b 88bd 8c72 5c3d
000002a0: cc45 1cbd 5fb0 023e 808e f6bb c388 a13d
000002b0: b661 9a3d e57c d03c 8e80 ce3c ba2b 8ebd
000002c0: f785 dbbd 9f83 05bd e095 263c edf5 d23c
000002d0: 23f6 b93d 9e45 fabc af40 bb3c 6a74 97bd
000002e0: 761b cabc 7022 273d 6955 be3d 96b7 d03c
000002f0: 1232 44bd e0d0 9cbd 4ff6 31bd 28cb dc3a
00000300: 64d7 a23d 1342 4a3d 7a49 97bd 81d5 f53c
00000310: 62f2 833d d9b4 6c3d 2517 27bd a684 0ebd
00000320: 0fd7 063d 802b e43d 9983 593d 165e 843d
00000330: 7b56 363b 16b9 dcbc dcf4 8e3b b0a3 33bd
00000340: aa74 4a3c 2dde b33d c2e1 a63b 8e3b 883c
00000350: f8b4 b5bc 1198 41bd ec40 833c 7a4c 7f3d
00000360: ddef 193b 7073 babd 7cd2 2c3d 4e4e ed3a
00000370: e4f5 c73d 75f1 7a3d 8e62 adbd 087e b23b
00000380: d9a0 1dbd b150 283d 3a4b 793c 71bb 63bd
00000390: 829b e93d b0fb 02bd 7c4d 403b 7a8f 29bd
000003a0: 8b03 81bd 7f2d 0f3b fad7 49bd 5412 92bc
000003b0: 5992 5dbd 783b 2f3c d5da aebd 37e8 a8bc
000003c0: 84ab 193d 2d05 2e3d 1034 46bc 5c0c 02bc
000003d0: 75e8 38bd fd97 f8bc aef1 65bd 9ae0 9f3c
000003e0: a0f8 51bd 6ab5 363d a04c 3abd b9e2 283d
000003f0: bcf3 d8bc f0a8 503d b9ad 2f3c 8200 58bd
0.05881648 -0.06937388 -0.122555956 -0.11208839 0.07540691 0.042752966 0.010414749 -0.050471105
-0.06840515 -0.100199394 -0.1080485 0.0062356605 -0.048504405 0.04645392 0.13745695 -0.067158215
-0.04732833 -0.032786034 -0.10265667 -0.0025792385 0.04473878 -0.03273122 0.024565428 0.031386826
-0.055497896 0.053113624 0.049129594 0.003523964 0.020523425 0.017212702 0.021904575 0.08097428
-0.025245389 0.09785586 0.0837182 -0.027451798 -0.006349103 -0.018481672 -0.008262493 -0.01994213
-0.10847679 0.013634133 -0.010634374 0.023912089 -0.029947275 0.0061868383 -0.030804453 -0.0011349736
0.038994856 -0.04546251 0.009467438 -0.06818618 -0.014259852 0.0683646 0.025179295 -0.083742365
0.027559249 0.020663459 -0.110782914 0.008691046 -0.020658204 -0.006886958 -0.009454839 -0.09680769
-0.009344755 -0.04976066 -0.05497615 0.007562052 -0.04943332 0.0268495 -0.028596269 0.009942986
0.0019542556 0.051172182 0.083794594 0.06375817 -0.0929287 -0.06335373 -0.05976112 0.10578104
0.048906893 0.056005225 0.029053165 0.046992235 -0.037247773 4.6373774e-05 -0.1070342 0.05480275
-0.03392153 0.05138729 0.085427426 0.02959277 -0.029090617 -0.031382415 -0.14281285 0.070948444
-0.07504618 -0.026693359 -0.11619928 -0.02431809 -0.017175255 -0.032724787 -0.100007504 -0.034990896
-0.022730857 -0.0056532407 -0.01703885 0.050781664 -0.012181482 -0.013491059 -0.045450564 -0.07523586
-0.036282964 0.049949005 -0.058463074 -0.144888 0.07505927 -0.06611055 0.016681276 -0.0912438
-0.034993317 0.03108183 0.10507073 0.026208233 -0.029907456 -0.005034658 0.024110349 0.022810526
0.11946623 0.076754816 -0.0043569496 -0.103605665 0.06739684 -0.028959109 -0.046031695 -0.07119132
-0.06769922 0.0068705874 -0.0033709556 -0.001276905 0.045212176 0.021761501 0.021485902 0.01131096
0.037794054 0.02240269 -0.047320213 -0.04998992 0.10469619 0.032887485 0.12717803 -0.0026711992
0.031355515 0.03863817 0.009846893 0.08174427 0.06132717 -0.021866608 0.049030203 0.0019985777
-0.023391064 0.01674623 -0.048491564 0.009228071 -0.06457163 -0.017530287 -0.066459075 0.053820178
-0.0381525 0.12762593 -0.0075243115 0.07887413 0.07538168 0.02545018 0.025207784 -0.06941934
-0.10718911 -0.032596227 0.010167569 0.025752032 0.0908015 -0.030550774 0.022857992 -0.07395251
-0.024671298 0.040804327 0.092936344 0.025478166 -0.047899313 -0.07657027 -0.04344779 0.0016845213
0.07951239 0.04937942 -0.073870614 0.030009033 0.06442715 0.057789657 -0.040793557 -0.034794472
0.03291994 0.111411095 0.053104017 0.06463258 0.0027822542 -0.026943725 0.0043626856 -0.043857276
0.012356916 0.08782611 0.0050928304 0.01662996 -0.02218102 -0.047264162 0.016022168 0.062328793
0.0023488917 -0.09104049 0.04219292 0.0018105002 0.09763697 0.061265428 -0.084660634 0.005447153
-0.038483474 0.04109258 0.015215689 -0.05559868 0.11406614 -0.03197831 0.002934306 -0.041396596
-0.06299504 0.0021847186 -0.049278237 -0.017831005 -0.054094646 0.010695331 -0.08537833 -0.020618541
0.037517086 0.042485405 -0.012097374 -0.007937517 -0.045143563 -0.030345911 -0.056138687 0.019516278
-0.051262498 0.044606604 -0.04548323 0.041231845 -0.02648341 0.05094236 0.010722571 -0.05273486

layer2.bias f4 [50]
00000000: 7c60 9bba 20f9 ca3c 0583 333d a10f 033d
00000010: 4a9f 6abd 4c9e 1f3d 7558 bb39 1c9d bbbc
00000020: e556 c43b c6b6 8abc aa2f 7b3d 09e0 ef3b
00000030: 7368 183d d8a6 2bbd 8f72 fa3c dc37 923c
00000040: 9eb7 993c ebd3 2dbd 83bf 38bc 25d8 053d
00000050: 3fd3 1bbb 423e 8a3d c5d1 19bd 8c2d 5fbd
00000060: 3a34 b5bc 78ac 8b3d 286e 81bc babe 43bc
00000070: 11bf 7ebd ad56 063c 9240 f1bb cc3f 8abc
00000080: 190b 4f3d 3336 073d f707 343d a51d 60bd
00000090: 7ab9 2abc c0c9 55bd 8311 07bd 378f 183d
000000a0: bd3d f73c b60e 2dbb b082 823d 2643 4c3d
000000b0: a24f 89bc 9da2 86bd 5913 b9bb d807 a93b
000000c0: 8757 20bd 3f4f 30bd
-0.0011854316 0.024776995 0.04382612 0.031997327 -0.057280816 0.038969323 0.00035733325 -0.022902064
0.005991804 -0.016932856 0.061324753 0.0073204082 0.037208986 -0.04190716 0.030572204 0.017848901
0.018764313 -0.04243843 -0.011276129 0.032676835 -0.0023777036 0.06750156 -0.037553567 -0.054486796
-0.02211963 0.06820005 -0.015799597 -0.011947328 -0.062193934 0.008199376 -0.0073624337 -0.016876124
0.050547693 0.033010673 0.04395291 -0.05471577 -0.010420198 -0.052194357 -0.032975685 0.037245955
0.030180806 -0.0026406473 0.06372583 0.049868725 -0.016761605 -0.06573985 -0.0056480584 0.0051584058
-0.039145973 -0.043044325

layer4.weight f4 [25, 50, 3, 3]
00000000: 27af e4bc 8591 15bd 6c85 c5bd a16d d9bc
00000010: b2ea 5fbc 1ad9 363c d2c8 703c caab e03d
00000020: 0829 413d 9f89 cb3d 9483 db3c 3a70 32bc
00000030: 2530 823c d130 ba3d 735c 3f3d d260 663b
00000040: ffc5 a33d 622a 58bd 84e6 6f3d 41dd 6d3d
00000050: 9f1a 85bd 3a72 aa3c 2d36 bdbc 33d4 073d
00000060: 3050 423d 69ec 213c 2afc af3c 87cc eabc
00000070: 95be c5bd 203f 02bd 2c7a 31bd 03b1 7b3d
00000080: efa7 04bd ee18 e03d 46dc 9b3c 361e c33c
00000090: d5b6 4d3c 7a78 a7bd 0d46 753c 3f3a ad3c
000000a0: 1fc8 e73b 671e 803c ce58 4cbd ed11 7abb
000000b0: e76c aabd 357d bc3c 80de 34bd 3b13 393d
000000c0: 6576 07bd ff8c 213d 674f 0abc a431 a93a
000000d0: 8c9f 093c eeca 28be ba14 5cbc d0e7 6ebd
000000e0: c663 84bd 1a84 e7bc d380 78bd c0c8 a8bd
000000f0: 6452 fcbc 3ccf 7e3c 118b 18bd 01df 08be
00000100: 82b3 083e 007e cfbd 8de9 103c 672c 963c
00000110: f1e1 aabc 1c75 6f3c 3c4a 70bd ef18 803d
00000120: dfb0 fabd 46e9 d43c 2180 02bc 3e07 913d
00000130: f104 123c 9bb6 9fbd 7eca 37bd d8f1 53bd
00000140: 4391 f53c 4919 2a3c 49c1 18bd cfd1 e03d
00000150: 38c7 37bd 0c4c d1bd b260 f83a 32b6 96bd
00000160: 0c39 3cbd e550 393d e0b1 a4bc 6096 01bc
00000170: 5ba3 66bc 6e8f 63bc 6de2 9bbd 45e7 113b
00000180: abc1 c43c c965 92bd 0a73 23bb f649 623d
00000190: 0feb d43c e501 5dbd 4907 df3c 0db6 4cbd
000001a0: b52f 973d e9d9 d0bd 0748 11bc 6a50 cc3b
000001b0: 4135 903d f58f 10bd 9886 b13d ac56 e43c
000001c0: dafe 84bc ec8c 043d ba07 34bc 261a e83c
000001d0: 21fa 933b c314 f1bc ac94 dfbc cf2c 0f3d
000001e0: 8751 ec3c 0256 cd3c 1b61 813d 3cbd 8d3d
000001f0: c06b 573c 9f57 a5bb c8b3 913c 6953 e03a
00000200: dbd4 babd 3883 173d b46f fc3c b5d2 03bc
00000210: ac81 84bd 4cb7 b2bb 5c19 2dbb 3006 883c
00000220: dc37 29bd 7f15 48bd 8f11 0c3d d77b e03b
00000230: f5cd 513c e5e1 a9bd 68a1 88bd 1722 b23c
00000240: 7123 e13c ac93 c23b bd58 1aba 361f 0cbc
00000250: 33e4 acbd fb34 233d 6ffd 163d a8e7 4ebd
00000260: c4e3 363d 3562 b63c 56da 4ebd 949a 66bc
00000270: c104 2ebd ce4e 673d fa2c e4bd 3336 933c
00000280: 6db7 95bd 2285 0cbd ff00 87bc c9ea 743c
00000290: d46b 29bd 3230 89bc c3e8 e03c 2922 a0bd
000002a0: a523 c5bd 361e 2ebd df54 1abc 8a42 22b7
000002b0: fcaa b73d 9cc8 593d bd6f 72bd 2b43 8abc
000002c0: 7a91 2dbd 73b4 c2bc a142 1ebd 29cf 6b3d
000002d0: 9d46 dc3c e0b5 f23d 4b04 7e3d 1afe 7cbd
000002e0: 519d c7bd 26a5 35bd d34b 4b3b 8e94 1abd
000002f0: a033 8c3b 1d76 77bd 2c03 5d3c 1bd7 6c3d
00000300: 9061 f3bc 3b31 dabd 4c51 74bd 52d0 403c
00000310: 2d23 b23b 22a3 4c3c 5b62 c8bb 20cc f53c
00000320: 2bd2 af3d 2dda 9fbd bc7d a4bc a37f 363a
00000330: 68f2 9e3c 8b42 2f3d e3e6 a13d 0dc9 23bd
00000340: 77ae 7fbd aa11 5f3d e34e 033d b263 1cbd
00000350: 3c63 0bbd 398f 3fbd fac5 013c 81c4 893d
00000360: 0913 debd 0cb2 bb3d 4780 a73c dd2f 9cbd
00000370: 167d cabd b4e2 91bc 37a8 2fbb 9a32 60bd
00000380: 3c0d b0bd ad09 9a3d 0fd1 44bd d85d c93d
00000390: fbe2 d9bd 5953 e7bd 9187 9cbd 66c6 57bc
000003a0: 823f a8bd b547 153d 3812 543c f3e9 903b
000003b0: 6553 42bd bd03 eb3c 69a8 64bd 544d a4bd
000003c0: b97d ec3d ee36 753d 034a 0bbc 56fe ab3d
000003d0: d614 d73c bbfe e9bc bce4 91bc 02ee 36bc
000003e0: 5d95 073c 69ac 333d 971b b1bc 56f4 69bc
000003f0: 9a54 a53c 5c01 063c e618 1f3d 6cd2 933d
-0.02791555 -0.03651573 -0.09644589 -0.026541533 -0.013666796 0.0111601595 0.014696317 0.10970266
0.04715827 0.099383585 0.02679614 -0.010891015 0.015892098 0.09091342 0.046719026 0.0035152924
0.07996749 -0.052774794 0.058569446 0.058072332 -0.06499218 0.02080642 -0.023097122 0.033161353
0.047439754 0.009883025 0.021482546 -0.02866198 -0.09655491 -0.031798482 -0.043329403 0.06144811
-0.032386716 0.10942255 0.019025933 0.023818117 0.012555798 -0.08177276 0.014970315 0.021145938
0.007073417 0.015639497 -0.04988938 -0.0038157657 -0.08321553 0.023008922 -0.044157505 0.045184355
-0.033071894 0.039441105 -0.008441783 0.0012908471 0.008399855 -0.16483662 -0.013432676 -0.058326542
-0.06464343 -0.028261233 -0.06066973 -0.08241415 -0.030801006 0.015552338 -0.037242 -0.13366319
0.13349727 -0.101314545 0.008844745 0.01833172 -0.02085969 0.014615323 -0.058664545 0.06254756
-0.12240767 0.02599014 -0.007965119 0.070814595 0.008912311 -0.07798501 -0.044870846 -0.051744312
0.029976493 0.010382005 -0.037293706 0.10977518 -0.044867724 -0.10219583 0.0018949716 -0.0735897
-0.04595284 0.045243163 -0.020104349 -0.007909387 -0.014077033 -0.013889177 -0.07611547 0.0022263092
0.02401813 -0.0714832 -0.0024940395 0.055246316 0.02599099 -0.053956885 0.027225154 -0.049978305
0.07382146 -0.10197813 -0.00886727 0.006235172 0.070414074 -0.035293538 0.0866825 0.02787336
-0.016234804 0.032360956 -0.01098817 0.028332781 0.0045159017 -0.029428845 -0.027292572 0.034954842
0.028847469 0.025065426 0.063173495 0.06920859 0.013148248 -0.0050458456 0.017785922 0.0017114702
-0.0912263 0.036990374 0.030814983 -0.008045842 -0.064700454 -0.0054539796 -0.002641282 0.016604513
-0.041313037 -0.048848625 0.034196433 0.0068507004 0.012805452 -0.08295039 -0.06671411 0.02174477
0.02748272 0.005938014 -0.0005887857 -0.008552363 -0.08441963 0.039845448 0.036862787 -0.050513893
0.044650808 0.022263626 -0.05050119 -0.01407494 -0.042485002 0.05647164 -0.11141391 0.01797018
-0.07310376 -0.034306653 -0.016479967 0.014948555 -0.0413626 -0.016746614 0.02745474 -0.078190155
-0.09625939 -0.04250928 -0.009419649 -9.671445e-06 0.089681596 0.05316983 -0.059188593 -0.016877731
-0.042375065 -0.023767686 -0.03863776 0.05757061 0.02688914 0.11851096 0.062015813 -0.061765768
-0.097468026 -0.04434695 0.0031020537 -0.03773933 0.004278615 -0.060415376 0.013489526 0.057822328
-0.029709607 -0.10653921 -0.059647843 0.011768417 0.005436322 0.012490066 -0.0061152405 0.030004561
0.08585008 -0.078052856 -0.020079486 0.00069617684 0.019402698 0.04278807 0.07905366 -0.03998666
-0.062422242 0.054460205 0.032057654 -0.038181014 -0.034030184 -0.046767447 0.007920736 0.06726933
-0.108434744 0.09164819 0.02044691 -0.07626317 -0.098871395 -0.017808296 -0.0026803145 -0.054735757
-0.08596274 0.07521377 -0.048050936 0.098323524 -0.10638996 -0.11295194 -0.07643045 -0.0131698605
-0.08215238 0.03644534 0.012943797 0.00442242 -0.047442812 0.028688306 -0.05582467 -0.08022562
0.11547417 0.05986684 -0.0085015325 0.0839812 0.026255053 -0.028563848 -0.017809264 -0.011165144
0.008275357 0.043865595 -0.021619601 -0.014279446 0.020181943 0.008179035 0.038842104 0.07217869

layer4.bias f4 [25]
00000000: 1692 4a3b 9a5d 80bc 1383 163c 7b2a b7bc
00000010: 0ec5 113d 2d62 b0bc a71c 8f3c 1025 d7bc
00000020: ab3e c4bb b098 06bd 4207 55bd 6a1a 173c
00000030: cb76 e53c fe10 2b3d 6498 53bc 11f5 b6bb
00000040: e5de 113c 31d1 c03c dea1 51bc 1701 2cbd
00000050: ae01 883c 0c89 9fbc ccae 07bd cbcb 14bd
00000060: 1870 26bc
0.0030909828 -0.015669633 0.009186524 -0.022359123 0.035588317 -0.021531189 0.017469717 -0.02626279
-0.005988916 -0.032860458 -0.052008875 0.009222606 0.028010746 0.041764252 -0.012914751 -0.0055834134
0.00890324 0.02353725 -0.01279494 -0.041993227 0.016602363 -0.019474529 -0.033125684 -0.036327165
-0.010158561

exp_avg f4 [25, 1, 3, 3]
00000000: f86c 1ec6 4c29 c5c5 08da c944 acbc 5dc6
00000010: b2c4 19c6 52ee f2c4 6862 75c6 064b 43c6
00000020: 28a2 a7c5 7227 1546 ee59 e744 f513 e0c5
00000030: c489 5a46 87eb 8e45 cae4 a6c5 90a4 8346
00000040: 4439 d245 892b 5fc5 06f0 43c7 ba06 0ec7
00000050: 1002 82c6 70b4 86c7 d03c 52c7 eb04 f6c6
00000060: 888c 8fc7 e27f 62c7 c8a9 08c7 623a 1247
00000070: 2193 0647 c155 9146 a6f1 5f47 baf4 6047
00000080: ae09 2747 6c92 8547 e2b8 8b47 7471 6547
00000090: d819 c6c6 5d97 8fc6 e0b7 0bc6 a1bb 0fc7
000000a0: 884f 04c7 bf37 d6c6 ab8d 15c7 829a 19c7
000000b0: ae4c 0fc7 d6cf 4b45 656b 8146 bff7 bc46
000000c0: b0a5 94c5 b9a7 1346 2c77 9546 8062 54c6
000000d0: 0896 cd43 30b3 2d46 16b4 d6c6 46fa ddc6
000000e0: 8c1e a1c6 74f3 12c7 5b80 14c7 d9b6 dec6
000000f0: c3d6 1fc7 6e49 1fc7 9fae eec6 9ed7 ae46
00000100: b2a6 a946 c52a 8646 2ae1 f746 70ba df46
00000110: a9d0 a646 e6e9 0847 28df ef46 0e1f a846
00000120: 09f5 36c7 7a61 47c7 c4b3 28c7 c378 11c7
00000130: b49c 28c7 272b 13c7 1c40 a8c6 2575 e0c6
00000140: 9c42 cac6 f1e7 b646 23ae 8346 d282 bb45
00000150: fda3 2d47 50de 1847 024e d346 0283 5d47
00000160: b5a5 4d47 e038 2147 7641 95c6 c5b1 cfc5
00000170: 0282 7645 e24b c6c6 29b0 4fc6 71ff 09c5
00000180: 18e1 dcc6 14ed 86c6 9ed1 d1c5 41b6 24c7
00000190: 34fe f3c6 4b36 29c6 4ef2 40c7 abc3 15c7
000001a0: af5e 87c6 d881 41c7 f2b5 18c7 38de 96c6
000001b0: 3115 e2c6 8a8c 95c6 9294 c1c5 2610 30c7
000001c0: 7ea5 04c7 c4ce 8dc6 c5a1 53c7 5c9c 23c7
000001d0: 05f3 c4c6 9263 6dc6 169c 4cc6 e03d b0c5
000001e0: fcc4 0dc7 1e2b 02c7 6419 b4c6 8f36 44c7
000001f0: 96d8 35c7 8d0f 07c7 42cb 1447 08d9 fa46
00000200: afc3 a146 8aba 4447 329c 3647 c43e 0647
00000210: 1b7b 4e47 5f42 4647 044b 1a47 cd30 efc5
00000220: cba5 82c5 c066 6144 7c0f 9dc6 f0e5 78c6
00000230: 469a 0fc6 0e16 e4c6 4010 bfc6 bf98 82c6
00000240: 7d7e e546 a8cf a046 7e5f 1146 9c51 4647
00000250: d653 2647 488e e646 b3db 6947 3a3e 4f47
00000260: 0ff9 1b47 867c 1347 354f e946 bab9 8a46
00000270: 8281 4a47 78bc 2847 b47b e446 40ed 5847
00000280: a869 3647 1399 fa46 78e2 1247 3966 0347
00000290: 79a7 af46 c82f 5247 a49b 3f47 0b71 0a47
000002a0: 5f72 6247 a2db 4a47 3c48 0e47 8462 d646
000002b0: 2d82 9446 9dab d345 5977 d646 4d5a 8846
000002c0: d038 7b45 3e15 c146 129c 5e46 0e7c a744
000002d0: 7281 1147 6f76 ad46 0d9b af45 2ed6 3147
000002e0: 182c 0b47 97d8 b146 105a 2847 debe 1647
000002f0: 4c0b f046 fcc8 0547 2e4e ba46 3b56 e645
00000300: 280d 5547 ace3 3647 7c4a f346 94e7 6e47
00000310: fe37 5e47 ae44 2847 6043 11c7 3275 d4c6
00000320: 5eed 25c6 08c5 35c7 2495 12c7 a26d 9bc6
00000330: db8d 44c7 7908 24c7 fcfa bec6 9347 34c7
00000340: b8e4 16c7 3cd5 acc6 1ecc 61c7 9cfc 48c7
00000350: aa02 09c7 8bd1 63c7 9bee 52c7 82b0 1ac7
00000360: 5f3e 4a46 5a5a 9746 0a4d a446 6230 8846
00000370: ebc1 b346 e8fb b546 1425 9746 ae72 ba46
00000380: 9dc0 b746
-10139.242 -6309.162 1614.8135 -14191.168 -9841.174 -1943.4475 -15704.602 -12498.756
-5364.2695 9545.861 1850.8103 -7170.4946 13986.441 4573.441 -5340.5986 16850.281
6727.158 -3570.721 -50160.023 -36358.727 -16641.031 -68968.875 -53820.812 -31490.459
-73497.06 -57983.883 -34985.78 37434.383 34451.13 18602.877 57329.65 57588.727
42761.68 68388.84 71537.766 58737.453 -25356.922 -18379.682 -8941.969 -36795.63
-33871.53 -27419.873 -38285.668 -39322.508 -36684.68 3260.9897 16565.697 24187.873
-4756.711 9449.931 19131.586 -13592.625 411.17212 11116.797 -27482.043 -28413.137
-20623.273 -37619.453 -38016.355 -28507.424 -40918.76 -40777.43 -30551.31 22379.809
21715.348 17173.385 31728.582 28637.219 21352.33 35049.9 30703.578 21519.527
-46837.035 -51041.477 -43187.766 -37240.76 -43164.703 -37675.152 -21536.055 -28730.572
-25889.305 23411.97 16855.068 6000.3525 44451.99 39134.312 27047.004 56707.008
52645.707 41272.875 -19104.73 -6646.221 3944.1255 -25381.941 -13292.04 -2207.965
-28272.547 -17270.54 -6714.202 -42166.254 -31231.102 -10829.573 -49394.305 -38339.668
-17327.342 -49537.844 -39093.945 -19311.11 -28938.596 -19142.27 -6194.5713 -45072.15
-33957.492 -18151.383 -54177.77 -41884.36 -25209.51 -15192.893 -13095.021 -5639.7344
-36292.984 -33323.117 -23052.695 -50230.56 -46552.586 -34575.55 38091.258 32108.516
20705.842 50362.54 46748.195 34366.766 52859.105 50754.37 39499.016 -7654.1
-4180.724 901.60547 -20103.742 -15929.484 -9190.568 -29195.027 -24456.125 -16716.373
29375.244 20583.828 9303.873 50769.61 42579.836 29511.14 59867.7 53054.227
39929.06 37756.523 29863.604 17756.863 51841.508 43196.47 29245.852 55533.25
46697.656 32076.537 37602.47 33638.223 22483.736 53807.78 49051.64 35441.043
57970.37 51931.633 36424.234 27441.258 19009.088 6773.4517 27451.674 17453.15
4019.5508 24714.621 14247.018 1339.8767 37249.445 22203.217 5619.3813 45526.18
35628.094 22764.295 43098.062 38590.867 30725.648 34248.984 23847.09 7370.779
54541.156 46819.67 31141.242 61159.58 56887.992 43076.68 -37187.375 -27194.598
-10619.342 -46533.03 -37525.14 -19894.816 -50317.855 -41992.473 -24445.492 -46151.574
-38628.72 -22122.617 -57804.117 -51452.61 -35074.664 -58321.543 -53998.605 -39600.508
12943.593 19373.176 21030.52 17432.191 23008.959 23293.953 19346.54 23865.34
23520.307

exp_avg_sq f4 [25, 1, 3, 3]
00000000: cfbc 4a50 755e 5d50 9931 5550 0461 5350
00000010: c6b7 6950 f435 6350 252e 4050 8346 5650
00000020: 1f6e 5250 022c 394f 2b75 734f c20f 8c4f
00000030: 01c2 344f 68da 774f b259 944f 03e7 194f
00000040: fc2f 5a4f 85d5 874f e795 1251 6112 0451
00000050: bbb1 d050 532b 2351 441c 1251 d7ba e450
00000060: 4ff7 1e51 7ace 0d51 fd26 dd50 a7cb b34f
00000070: fe55 da4f 7b55 de4f d2af fd4f 719e 1a50
00000080: b509 1d50 16fd 1850 53d7 3a50 4b53 3e50
00000090: ff8d d24e c17c f14e 956b 054f 4c90 e24e
000000a0: 24a3 0b4f 4262 224f 2b2c c34e a3d2 024f
000000b0: 06a9 224f da45 8f4e b39f 374e 780c ec4d
000000c0: e76a bd4e ed03 734e 0702 114e 5459 da4e
000000d0: 7f47 904e d741 2a4e 9ba4 1b4f aabd 1f4f
000000e0: c7cd 104f d6e5 344f 7589 364f e834 214f
000000f0: 3cc5 374f facf 364f 5f66 1e4f cea8 354f
00000100: 610a 584f f6ee 6c4f 5dff 344f 512a 5a4f
00000110: 6094 734f 0c59 244f 2452 474f a794 614f
00000120: 8eff b34f ff64 be4f 6716 a94f 59f6 984f
00000130: 9306 a04f 953d 8c4f b829 634f 8f3b 6a4f
00000140: 36de 4a4f afac 244f 2dcd 2a4f 2779 1f4f
00000150: b1f5 894f 730a 904f 3c99 844f d6fc b44f
00000160: 22bb be4f da4f b04f c8b0 7c50 d964 6650
00000170: b139 3c50 53f6 7a50 891a 6350 ca5e 3750
00000180: 7fcf 5950 d0be 4350 d8d3 1c50 1634 7a4e
00000190: 1695 564e 3f6f 414e f5c0 a04e 5516 934e
000001a0: 722f 854e 8e95 b24e a2ff a94e a899 994e
000001b0: bc33 704f f87a 864f 474a 8f4f e6ad 7b4f
000001c0: bbe8 814f 657b 814f 00d3 6f4f c31f 654f
000001d0: e562 534f bcc1 d04f 3c46 fb4f 9c68 0550
000001e0: 4a09 1550 f676 2b50 9e83 2d50 1759 3450
000001f0: 1df4 4750 8dc1 4250 3cd9 1350 18b8 1b50
00000200: 04f6 1050 08bd 2850 59db 2f50 626b 2050
00000210: 6a0c 2850 a750 2d50 c325 1c50 f47a 844e
00000220: 731c 6c4e 2071 3f4e 130a 874e f880 6a4e
00000230: 9da3 3f4e 62e0 704e 6938 4e4e acd9 2d4e
00000240: 205b cd4f 2151 ca4f ace9 ac4f 466f fb4f
00000250: d515 fd4f 03f3 db4f bf4d 0250 b824 0650
00000260: fde4 ed4f 85fe 174f fa80 5b4f 340b 8c4f
00000270: d3fb 314f 3d0e 794f fb93 9b4f 5f34 314f
00000280: edd0 724f ed42 954f 332e 9d4f 1d60 854f
00000290: f602 364f e4af be4f 0509 a04f 7913 564f
000002a0: 9e6f be4f 8c9e 9d4f 4582 4e4f 2016 ab4e
000002b0: 5df7 ae4e 04b7 9e4e 32bf cd4e e77e ce4e
000002c0: 4ea8 b84e 8291 dc4e 1349 db4e a3a1 c34e
000002d0: 7ad9 744e 97c0 5c4e adef 414e 8260 864e
000002e0: dbaa 834e 38c7 754e 644b 6f4e c07c 804e
000002f0: d78b 844e 5d0c 2b50 4e28 3b50 29d5 3550
00000300: f9d9 4750 3b0a 5c50 8785 5550 b64e 4850
00000310: 90aa 5e50 76c4 5850 ae61 9b4f 4d14 934f
00000320: 8768 714f afb8 8e4f 7c5d 854f 6e1f 564f
00000330: bed4 614f 0fc0 4e4f 797d 214f 9dcf 9150
00000340: 2212 8e50 c200 7350 2a6b a550 340a a150
00000350: 6943 8950 34c7 a450 2215 a150 dde2 8950
00000360: 711f cc4f 390a f24f c528 f54f 7710 c64f
00000370: 660a f14f 8ebd f94f 03c0 ad4f e606 d84f
00000380: 17f8 e44f
1.3605486e+10 1.485582e+10 1.430719e+10 1.4185402e+10 1.568454e+10 1.5247856e+10 1.2896998e+10 1.4379781e+10
1.4121729e+10 3.106669e+09 4.0845422e+09 4.699686e+09 3.032613e+09 4.1582858e+09 4.9778125e+09 2.5820536e+09
3.6605778e+09 4.557835e+09 3.934876e+10 3.545275e+10 2.801047e+10 4.380041e+10 3.9221215e+10 3.06996e+10
4.2672124e+10 3.8065906e+10 2.9682559e+10 6.0329364e+09 7.3261373e+09 7.460288e+09 8.5123164e+09 1.03763e+10
1.0538636e+10 1.0266892e+10 1.2538695e+10 1.2772519e+10 1.7662606e+09 2.0257425e+09 2.2384202e+09 1.9005537e+09
2.3427246e+09 2.7243484e+09 1.6372259e+09 2.1948424e+09 2.728986e+09 1.2018598e+09 7.7017414e+08 4.9503e+08
1.5889499e+09 1.0192802e+09 6.082073e+08 1.8316436e+09 1.2103023e+09 7.141104e+08 2.611256e+09 2.6800072e+09
2.429405e+09 3.0349614e+09 3.0624617e+09 2.704599e+09 3.0831565e+09 3.0670833e+09 2.657509e+09 3.047739e+09
3.6245588e+09 3.9750835e+09 3.0366344e+09 3.6602063e+09 4.0865874e+09 2.7572992e+09 3.3440492e+09 3.7846157e+09
6.0397394e+09 6.38858e+09 5.6736353e+09 5.132563e+09 5.369571e+09 4.705692e+09 3.811162e+09 3.9297718e+09
3.4035604e+09 2.7627804e+09 2.865573e+09 2.6755172e+09 4.6291604e+09 4.833208e+09 4.44927e+09 6.0729375e+09
6.39987e+09 5.9160463e+09 1.6957776e+10 1.5461475e+10 1.263159e+10 1.6841788e+10 1.5240668e+10 1.230577e+10
1.4617017e+10 1.3136249e+10 1.0524516e+10 1.0494294e+09 9.000237e+08 8.113233e+08 1.3485001e+09 1.2338572e+09
1.1172396e+09 1.4980728e+09 1.4260513e+09 1.288492e+09 4.0299223e+09 4.5124116e+09 4.8080195e+09 4.2224778e+09
4.359026e+09 4.3446953e+09 4.0235827e+09 3.844064e+09 3.5464737e+09 7.004715e+09 8.431368e+09 8.952902e+09
1.0001656e+10 1.1506801e+10 1.1644336e+10 1.210295e+10 1.3418657e+10 1.3069858e+10 9.92195e+09 1.0450133e+10
9.728168e+09 1.1323843e+10 1.1801552e+10 1.0765568e+10 1.1277543e+10 1.1630976e+10 1.0478882e+10 1.1113252e+09
9.9032186e+08 8.029655e+08 1.1327922e+09 9.8358016e+08 8.037927e+08 1.01030925e+09 8.6495085e+08 7.291809e+08
6.8906025e+09 6.788629e+09 5.80199e+09 8.4367473e+09 8.492133e+09 7.3802726e+09 8.744533e+09 9.002213e+09
7.9824143e+09 2.5500398e+09 3.682663e+09 4.699089e+09 2.9860708e+09 4.17846e+09 5.220333e+09 2.9729994e+09
4.0737784e+09 5.0083825e+09 5.274101e+09 4.475337e+09 3.0536474e+09 6.3983964e+09 5.3698913e+09 3.5916004e+09
6.389972e+09 5.288827e+09 3.4646438e+09 1.435177e+09 1.4677234e+09 1.3313971e+09 1.7259297e+09 1.7322116e+09
1.5490189e+09 1.8502618e+09 1.8394996e+09 1.6410751e+09 1.0269733e+09 9.259023e+08 8.134275e+08 1.1272358e+09
1.1045062e+09 1.0308685e+09 1.00367386e+09 1.0778296e+09 1.1118785e+09 1.1478857e+10 1.2559923e+10 1.2202583e+10
1.3411804e+10 1.4766632e+10 1.4329191e+10 1.3442406e+10 1.494288e+10 1.4547016e+10 5.21374e+09 4.9351624e+09
4.0501594e+09 4.788936e+09 4.4749926e+09 3.592384e+09 3.788816e+09 3.4686932e+09 2.7093548e+09 1.957042e+10
1.9068424e+10 1.6307653e+10 2.220211e+10 2.1614404e+10 1.8423171e+10 2.2116147e+10 2.1620134e+10 1.850677e+10
6.849225e+09 8.1215124e+09 8.2261796e+09 6.6459356e+09 8.087981e+09 8.379899e+09 5.830084e+09 7.2486615e+09
7.682928e+09

exp_avg f4 [25]
00000000: 2056 ecc5 1c88 b3c6 8a49 7c46 780f 0ec6
00000010: 5132 3047 8f8b d7c6 9651 2746 a66d c2c6
00000020: 70d3 4447 39e8 2ac6 967b 11c6 00b9 cd46
00000030: 2e5a 28c5 95d8 0447 2846 33c6 859f 4b46
00000040: da0c 0cc7 c2e2 98c6 f261 f945 0db0 cf44
00000050: 2e29 5fc6 0080 5fc3 4215 0747 5fad 8346
00000060: 3510 2046
-7562.7656 -22980.055 16146.385 -9091.867 45106.316 -27589.78 10708.396 -24886.824
50387.438 -10938.056 -9310.896 26332.5 -2693.6362 34008.582 -11473.539 13031.88
-35852.85 -19569.379 7980.243 1661.5016 -14282.295 -223.5 34581.258 16854.686
10244.052

exp_avg_sq f4 [25]
00000000: 4257 0f4f f981 a84e 4c6b b34e b5b5 1b4e
00000010: 5f2e 9a4e 332f 194f 6be4 3d4c ec31 684f
00000020: 7b09 cd4e fe20 c04e 2630 ad4e 9efb 9e4c
00000030: 9e80 5d4e 12cd d34d 73d0 4e4e f164 174e
00000040: 72d3 864e 1fe9 4e4d 049b d24e 0a00 8f4e
00000050: 0c24 624d 255b 614e e7ec ba4e dc30 f24e
00000060: f34b fc4e
2.4048604e+09 1.4135451e+09 1.5050767e+09 6.530942e+08 1.2933651e+09 2.5700073e+09 4.9779116e+07 3.8955858e+09
1.7199753e+09 1.6116938e+09 1.4528069e+09 8.335282e+07 9.2904845e+08 4.44179e+08 8.6744186e+08 6.349937e+08
1.1310021e+09 2.1696152e+08 1.7666872e+09 1.1995722e+09 2.3712582e+08 9.452117e+08 1.5680439e+09 2.0316442e+09
2.1164179e+09

exp_avg f4 [50, 25, 3, 3]
00000000: 44c4 63c3 6037 93c2 3eae 0ac5 0237 a545
00000010: da6c b345 6d51 4845 2ccb cd45 9c4f e345
00000020: ad9a 9745 d542 2f45 54c9 a145 1669 d545
00000030: 32ee 7d44 ecf9 5545 d5b2 a945 06f3 15c5
00000040: 5012 1dc3 b472 e844 4cf5 5442 ed43 04c4
00000050: c649 c3c4 b413 e944 83e8 a244 5896 4a43
00000060: eeba 1b45 2af4 0445 421c 8644 00f4 0c41
00000070: 2294 6543 8f0c 9644 55c4 e2c4 f257 f8c4
00000080: e208 8ec4 9c7b 26c5 a2e8 46c5 1811 27c5
00000090: 64ee 94c4 74f4 7ec5 bf55 c6c5 6257 d344
000000a0: e9cf 7fc4 295c 65c5 9a54 a345 cec4 3345
000000b0: b045 9943 5e55 f044 c2f3 3645 ea79 7845
000000c0: 90b5 33c4 8859 1144 7380 0845 042c 2bc5
000000d0: 05ee a5c4 d830 3144 ae1f ba43 8c18 7944
000000e0: ef64 6643 3018 2745 7a4f 6045 470c 2f45
000000f0: 55b0 3145 ea00 7345 3652 4c45 206f d9c3
00000100: 7069 b144 e7d2 4c45 a915 2dc5 ec32 84c4
00000110: b8d0 8344 73a0 88c5 bb4a 3cc5 fa21 63c4
00000120: 1994 bbc5 4890 09c6 c622 26c6 63be 0ec5
00000130: 40a5 a3c5 0e5c f0c5 8a67 4845 d890 0144
00000140: d940 0ac5 3062 6bc2 447e 2c45 097b 8845
00000150: a716 23c4 c623 1945 26d4 8645 0979 34c5
00000160: 9abe 2043 d28d 0745 1dff 8a43 4dd3 f8c4
00000170: 28dd 3fc5 e0fb d341 08f3 32c5 b8f4 88c5
00000180: 68e0 0a44 5e9b 1ac5 9505 88c5 2f4a 7f44
00000190: 8b5a 0cc4 a146 40c5 879e 8845 d1a3 4845
000001a0: 2627 2044 a1ab cb45 09e5 b345 fc89 5945
000001b0: e463 0fc4 26f0 c1c4 a73c 85c5 665f 7745
000001c0: 4682 4d45 4c49 a843 1e66 bc45 9c9c b045
000001d0: 9ea9 4045 c1e2 78c5 acdc d4c5 f701 15c6
000001e0: 5f29 fe43 9fe8 11c5 525c acc5 ac36 a845
000001f0: c9a1 3845 4281 86c3 d952 1c44 8080 be42
00000200: 1bdd 6d44 aa78 e4c4 8e55 1ac5 8f6f ebc4
00000210: b2f6 20c5 1c56 5cc5 ded0 40c5 b485 d544
00000220: 5814 0644 29af 36c4 2014 f444 7ca7 3b44
00000230: 7684 0fc4 1c7b 0045 e845 5b44 4480 acc3
00000240: e26a dcc4 cbb1 b5c3 3a31 3244 3b9f 2dc5
00000250: 8029 eac4 6665 64c4 f352 72c5 97f3 58c5
00000260: 8a8b 29c5 7ad6 7f44 cafa 3b44 f9c0 8744
00000270: 4d94 73c4 e4bd cac4 4070 bcc4 66bb 04c5
00000280: f71c 4ac5 906f 50c5 46f2 d644 9af5 3b45
00000290: f803 dd45 8a0c cec5 cfbf b5c5 aaef c2c4
000002a0: e0aa 26c6 56e8 25c6 4ce0 d2c5 fa10 1f44
000002b0: 0340 7d44 7baa 3444 5614 4444 60b9 5f44
000002c0: 6ff3 2b44 d868 6542 902b 3f41 6430 80c3
000002d0: d214 83c4 a2e8 1fc5 b85a 1ac5 3cf2 17c5
000002e0: 9a91 8bc5 5eb9 8bc5 a210 0fc5 80b9 84c5
000002f0: f0e1 89c5 2b94 9944 169c ab44 30b1 6b45
00000300: 30a7 a7c5 8e74 afc5 006c 2ac5 f63f f4c5
00000310: 42c7 02c6 ff64 abc5 c35f 5d43 06fb e3c4
00000320: b2e1 50c5 96dd 9a44 3064 59c4 7ead 18c5
00000330: ae31 2d45 8e8e 6344 a60e 1fc4 1e02 10c5
00000340: 2c24 41c5 d1e4 8dc5 9eb7 a044 5731 0f44
00000350: 1d46 9dc4 5eaf 6445 a536 4345 7276 9e44
00000360: 4617 6cc4 2a1f 23c5 86c3 1cc5 54a4 18c5
00000370: 04b2 82c5 37fc 80c5 2ed9 99c4 1652 34c5
00000380: b0b7 37c5 e1f3 a146 8abf 9146 f89c 8346
00000390: 889c a946 6c6d 9046 4d00 7246 3336 a046
000003a0: 9014 7f46 da75 4446 25c5 6dc5 bc57 7fc5
000003b0: d876 98c4 b804 c6c5 39f5 bcc5 6fd5 12c5
000003c0: f08b d4c5 672a b9c5 28e3 d5c4 75c6 c645
000003d0: 950a a845 d327 8145 10c3 d845 c6d5 ae45
000003e0: 0e28 7145 7081 b945 3b9e 8245 613f 0945
000003f0: 4e99 b9c5 34f3 d6c5 0d7b d8c5 8293 d8c5
-227.76666 -73.608154 -2218.8901 5286.876 5741.6064 3205.089 6585.3965 7273.951
4851.3345 2804.177 5177.166 6829.1357 1015.7218 3423.62 5430.354 -2399.189
-157.07153 1859.5845 53.239548 -529.06134 -1562.3054 1864.6157 1303.266 202.58728
2491.683 2127.2603 1072.883 8.80957 229.57864 1200.3925 -1814.1354 -1986.7483
-1136.2776 -2663.7256 -3182.5396 -2673.0684 -1191.4497 -4079.2783 -6346.7183 1690.7307
-1023.2486 -3669.76 5226.575 2876.3003 306.54443 1922.6677 2927.2349 3975.6196
-718.8369 581.3989 2184.028 -2738.751 -1327.4381 708.7632 372.2475 996.38354
230.39427 2673.5117 3588.9673 2800.7673 2843.0208 3888.0571 3269.1382 -434.86816
1419.2949 3277.1814 -2769.3538 -1057.5913 1054.5225 -4372.056 -3012.6707 -908.5309
-6002.512 -8804.07 -10632.693 -2283.8992 -5236.6562 -7691.507 3206.4712 518.2632
-2212.053 -58.845886 2759.8916 4367.3794 -652.35394 2450.2358 4314.5186 -2887.5647
160.74454 2168.8638 277.99307 -1990.6031 -3069.8223 26.497986 -2863.1895 -4382.59
555.50635 -2473.7104 -4352.6978 1021.1591 -561.41473 -3076.4143 4371.816 3210.2385
640.6117 6517.4536 5756.6294 3480.624 -573.5608 -1551.5046 -4263.5815 3957.9624
3288.142 336.57263 6028.7646 5651.576 3082.601 -3982.172 -6811.584 -9536.491
508.3232 -2334.5388 -5515.54 5382.834 2954.1116 -269.00983 625.2945 95.25098
951.4548 -1827.7708 -2469.3472 -1883.4862 -2575.4185 -3525.3818 -3085.0542 1708.1782
536.3179 -730.7369 1952.6289 750.61694 -574.0697 2055.6943 877.0923 -345.00208
-1763.3401 -363.389 712.76917 -2777.952 -1873.2969 -913.58435 -3877.1843 -3471.2244
-2712.7212 1023.3512 751.9186 1086.0304 -974.3172 -1621.9341 -1507.5078 -2123.7124
-3233.8103 -3334.9727 1719.571 3007.35 7072.496 -6593.5674 -5815.976 -1559.4895
-10666.719 -10618.084 -6748.037 636.26526 1013.0002 722.66376 784.31775 894.8965
687.80365 57.352386 11.948135 -256.37805 -1048.6506 -2558.5396 -2469.67 -2431.1396
-4466.2 -4471.171 -2289.0396 -4247.1875 -4412.242 1228.6302 1372.8777 3771.0742
-5364.8984 -5614.5693 -2726.75 -7815.995 -8369.814 -5484.6245 221.37407 -1823.8445
-3342.106 1238.9246 -869.5654 -2442.8433 2771.105 910.2274 -636.2289 -2304.1323
-3090.2607 -4540.602 1285.738 572.77094 -1258.191 3658.9604 3123.4153 1267.7014
-944.36365 -2609.9478 -2508.2202 -2442.2705 -4182.252 -4127.527 -1230.7869 -2885.1304
-2939.4805 20729.94 18655.77 16846.484 21710.266 18486.71 15488.075 20507.1
16325.141 12573.463 -3804.3215 -4085.4834 -1219.7139 -6336.59 -6046.653 -2349.3396
-6801.492 -5925.3003 -1711.0986 6360.807 5377.3228 4132.978 6936.383 5594.7217
3858.5034 5936.1797 4179.779 2195.9612 -5939.163 -6878.4004 -6927.3813 -6930.4385

exp_avg_sq f4 [50, 25, 3, 3]
00000000: 7640 924c 0f6b e04c 497e 124d ff14 e94c
00000010: 84f7 2f4d 8e03 5b4d e16d 1a4d f572 664d
00000020: 4762 8c4d 0140 174c b95d 474c a892 674c
00000030: bccb 114c 6741 444c 1aa8 6d4c 30a8 084c
00000040: bca5 3f4c 3584 734c c521 a84a 93e9 034b
00000050: 6113 2a4b d8d4 074b ae6c 494b adf9 734b
00000060: bcc4 374b d6fc 854b a9df 9d4b 107a 034a
00000070: 1caa 8e4a 6ba1 004b 2314 514a 7e24 e74a
00000080: 55d6 424b 62f3 954a f0ee 264b d83e 8a4b
00000090: 5243 3a4c a905 834c 8ac8 a44c 3d71 3f4c
000000a0: e668 8b4c 06c2 b64c 1033 4c4c bf43 9b4c
000000b0: b51f d14c 3771 8b4b a140 cd4b bde2 024c
000000c0: c66d c04b 98bc 0e4c ffbe 324c 042a 094c
000000d0: 8f3a 454c ac08 6c4c aa7c 5c4b 3b22 914b
000000e0: 3c65 aa4b ab8b 9e4b bb75 d84b 8863 fa4b
000000f0: 0ab5 b54b a834 fe4b 9819 144c 7286 c44b
00000100: e5f5 174c 25e3 474c 3ebb 004c 22c5 464c
00000110: 23c2 804c 6489 224c 9f37 794c d4fe 9d4c
00000120: 16a7 6b4c 4817 9a4c 28ee af4c 4eb9 584c
00000130: 9271 904c 3d8a ad4c 5b00 4b4c 452e 8d4c
00000140: c394 b34c 13fd 384c a367 4a4c 4dd5 494c
00000150: 0f74 344c 075f 424c 3828 434c 40bf 1d4c
00000160: 7f72 284c e3d3 2b4c 057b 604b 2e04 194b
00000170: bf3b b14a 06ad 614b dec7 134b afeb b44a
00000180: 9871 554b 44f6 fe4a b41a 9e4a 6d81 1e4c
00000190: fee8 8b4c 52a6 cd4c 695a 4b4c d68c b74c
000001a0: 74dd 054d 562a 814c b28f e74c 62fc 254d
000001b0: 699c 324c fef3 914c b142 c54c cff7 884c
000001c0: e587 da4c 40bb 0c4d 4573 ba4c 27a7 114d
000001d0: 6586 374d edb8 514c a584 9f4c e50e d34c
000001e0: 2923 614c e01c b44c c095 f64c 6a14 8a4c
000001f0: a2b8 e04c 30cc 194d 1265 de4a cb26 114b
00000200: f893 3d4b d646 1b4b 1f72 634b 2af6 964b
00000210: 7c95 3d4b 49a5 974b cb2a ce4b a16e 174b
00000220: 65a3 314b 6ef8 344b 97f5 234b 1756 3f4b
00000230: 7f4d 3e4b 05dd 264b 07af 3e4b f412 384b
00000240: 99bb 514b 459d a94b 3f5c ff4b 3208 534b
00000250: 4d1a b74b 890b 134c 629e 4f4b 0898 c54b
00000260: 5a42 264c 3b72 1c4a b79e fb49 6752 3a4a
00000270: 9fb9 de49 f4c3 db49 3194 6c4a 915a d849
00000280: 79b8 364a 5884 d74a 9184 cf4c 0c8b 384d
00000290: 2516 884d 5661 204d c400 8d4d 18ea c64d
000002a0: 71ab 634d 63a2 c34d 84da 054e f34c b14a
000002b0: 05f9 d94a 335e d54a 2d71 f04a bcc9 084b
000002c0: 5998 004b 13a5 034b 1784 0d4b 462b fd4a
000002d0: 942d 404b 8848 874b eab0 be4b eb50 7c4b
000002e0: 10c9 c84b f171 0f4c 2507 8a4b 2dee e64b
000002f0: c170 274c 1b43 994c d2e7 fa4c 246c 2f4d
00000300: 8dda f64c 8244 484d ee00 854d 24f7 2b4d
00000310: 21f7 884d 063a b04d bfb3 974b d131 b54b
00000320: 7d3a c64b ba60 984b 8ef4 b44b 2a56 c84b
00000330: eb9a 904b 4a01 ae4b 125c c44b 78d1 564b
00000340: f9ff af4b 9a66 f84b e000 9f4b aa81 034c
00000350: 581f 324c 7da4 f34b 8d54 434c ddaf 7c4c
00000360: 232a eb4b 4a0d 074c cdcb 024c facb 0a4c
00000370: 9025 1d4c 4bb6 154c d6b5 004c 247a 0d4c
00000380: 881e 044c fa2c a44f 67c4 9e4f de52 884f
00000390: 5d9e aa4f 008e a04f 03ab 854f 8d35 9d4f
000003a0: b7cf 8f4f fcb5 684f df9e e94e 3dd6 ee4e
000003b0: a027 d14e 778d 014f 252b 014f bacd db4e
000003c0: a356 f74e fd0e f04e 7f33 c64e b5eb cf4d
000003d0: 630f bc4d 87b0 944d 3900 cc4d 2ec2 b24d
000003e0: 35fa 874d de63 ad4d 52af 924d 2901 574d
000003f0: d1dd fb4d f604 154e fad9 194e fbd4 074e
7.667806e+07 1.1765977e+08 1.5360936e+08 1.22202104e+08 1.8451462e+08 2.296527e+08 1.6193077e+08 2.4164334e+08
2.9440637e+08 3.9649284e+07 5.2262628e+07 6.070544e+07 3.8219504e+07 5.1447196e+07 6.2300264e+07 3.582381e+07
5.0239216e+07 6.3836372e+07 5.5093465e+06 8.645011e+06 1.1146081e+07 8.901848e+06 1.3200558e+07 1.5989165e+07
1.2043452e+07 1.7562028e+07 2.0692818e+07 2.154116e+06 4.67483e+06 8.429931e+06 3.4255448e+06 7.574079e+06
1.2768853e+07 4.913585e+06 1.0940144e+07 1.8120112e+07 4.882772e+07 6.869332e+07 8.639394e+07 5.018546e+07
7.309086e+07 9.581778e+07 5.3529664e+07 8.1403384e+07 1.0964113e+08 1.8276974e+07 2.690285e+07 3.43109e+07
2.5222028e+07 3.741757e+07 4.6857212e+07 3.595675e+07 5.1702332e+07 6.1874864e+07 1.4449834e+07 1.9022966e+07
2.2334072e+07 2.0780886e+07 2.837183e+07 3.281896e+07 2.3816724e+07 3.3319248e+07 3.882352e+07 2.5758948e+07
3.983554e+07 5.2399252e+07 3.374617e+07 5.2106376e+07 6.7506456e+07 4.2608016e+07 6.5330812e+07 8.28351e+07
6.1774936e+07 8.078803e+07 9.223814e+07 5.6812856e+07 7.573006e+07 9.0984936e+07 5.3215596e+07 7.401937e+07
9.4152216e+07 4.8493644e+07 5.3059212e+07 5.2909364e+07 4.7304764e+07 5.0953244e+07 5.1159264e+07 4.135245e+07
4.4157436e+07 4.5043596e+07 1.4711557e+07 1.0028078e+07 5.8075835e+06 1.4789894e+07 9.684958e+06 5.9284075e+06
1.3988248e+07 8.354594e+06 5.180762e+06 4.1551284e+07 7.33532e+07 1.0781966e+08 5.3307812e+07 9.623314e+07
1.4036768e+08 6.771986e+07 1.2140482e+08 1.740488e+08 4.6821796e+07 7.652146e+07 1.0342132e+08 7.181068e+07
1.14573096e+08 1.4756762e+08 9.775364e+07 1.5272818e+08 1.9243989e+08 5.497746e+07 8.363345e+07 1.1065527e+08
5.9018404e+07 9.443098e+07 1.2928154e+08 7.239355e+07 1.1781864e+08 1.6126848e+08 7.287433e+06 9.512651e+06
1.2424184e+07 1.0176214e+07 1.4905887e+07 1.9786836e+07 1.2424572e+07 1.9876498e+07 2.7022742e+07 9.924257e+06
1.1641701e+07 1.1860078e+07 1.0745239e+07 1.2539415e+07 1.2471679e+07 1.0935557e+07 1.2496647e+07 1.2063476e+07
1.3745049e+07 2.223169e+07 3.347059e+07 1.3830194e+07 2.3999642e+07 3.854698e+07 1.3606498e+07 2.5899024e+07
4.358385e+07 2.5632148e+06 2.0612709e+06 3.0526978e+06 1.8245639e+06 1.8003185e+06 3.8761082e+06 1.7723701e+06
2.9936942e+06 7.06206e+06 1.0879911e+08 1.9350752e+08 2.8539408e+08 1.6817085e+08 2.957047e+08 4.171538e+08
2.3872898e+08 4.102749e+08 5.614226e+08 5.8097855e+06 7.1425305e+06 6.9916415e+06 7.8788065e+06 8.96454e+06
8.427609e+06 8.627475e+06 9.274391e+06 8.295843e+06 1.259458e+07 1.7731856e+07 2.499426e+07 1.6535787e+07
2.6317344e+07 3.7603268e+07 1.8091594e+07 3.0268506e+07 4.3893508e+07 8.0353496e+07 1.3154677e+08 1.8394374e+08
1.2942244e+08 2.099958e+08 2.7892883e+08 1.8031878e+08 2.8723715e+08 3.6957408e+08 1.9883902e+07 2.3749538e+07
2.5982202e+07 1.9972468e+07 2.3718172e+07 2.6258516e+07 1.8953686e+07 2.2807188e+07 2.5737252e+07 1.4078328e+07
2.3068658e+07 3.2558388e+07 2.0840896e+07 3.447364e+07 4.669373e+07 3.1934714e+07 5.120466e+07 6.6240372e+07
3.0823494e+07 3.540305e+07 3.4287412e+07 3.6384744e+07 4.119507e+07 3.9246124e+07 3.374063e+07 3.7087376e+07
3.463427e+07 5.508822e+09 5.327343e+09 4.5742643e+09 5.7250104e+09 5.3873213e+09 4.4851543e+09 5.275065e+09
4.8255094e+09 3.9042406e+09 1.9597516e+09 2.0035089e+09 1.7545175e+09 2.173532e+09 2.1670884e+09 1.8438464e+09
2.0748251e+09 2.013757e+09 1.6626318e+09 4.3604138e+08 3.9439062e+08 3.118246e+08 4.2782083e+08 3.7488378e+08
2.8516522e+08 3.636254e+08 3.076204e+08 2.2544859e+08 5.2820227e+08 6.250326e+08 6.4529984e+08 5.697205e+08

exp_avg f4 [50]
00000000: 671f 65c6 fff4 83c6 a426 0744 f8a7 92c6
00000010: eb2f fb44 2e40 2b46 ce50 72c6 603c e744
00000020: ce4a cac6 bf8a 2bc6 a747 29c6 e84a 9dc6
00000030: 8c3b da45 3e96 9ec5 4880 31c6 1002 91c6
00000040: e06b 6dc6 05d6 b9c4 1174 acc5 f3d6 9244
00000050: 7e5d 8cc6 e895 e0c5 1495 34c6 ade3 6cc6
00000060: 5c95 f3c5 645e fcc5 4068 28c5 626e 8d46
00000070: 9402 8dc6 5356 c046 f909 81c6 3344 23c6
00000080: 161c 3845 4496 2044 26c3 80c4 6a14 24c6
00000090: 85d7 44c5 a6bf 85c5 0d4f c045 3118 dbc5
000000a0: 9e9e 49c6 bc37 0b47 e05f 5244 fceb 21c6
000000b0: 0e26 d1c4 4a12 06c6 a2a6 14c6 d69e a2c6
000000c0: b0c3 87c6 b6db a2c5
-14663.851 -16890.498 540.60376 -18771.984 2009.4974 10960.045 -15508.201 1849.8867
-25893.402 -10978.687 -10833.913 -20133.453 6983.4434 -5074.7803 -11360.07 -18561.031
-15194.969 -1486.6881 -5518.5083 1174.7172 -17966.746 -7186.7383 -11557.27 -15160.919
-7794.67 -8075.799 -2694.5156 18103.191 -18049.29 24619.162 -16516.986 -10449.05
2945.7554 642.3479 -1030.0984 -10501.104 -3149.47 -4279.956 6153.8813 -7011.024
-12903.654 35639.734 841.49805 -10362.996 -1673.1892 -8580.572 -9513.658 -20815.418
-17377.844 -5211.464

exp_avg_sq f4 [50]
00000000: 71ad f04d b89d 5e4e d577 124d 80d6 924d
00000010: 9a2e 7a4d 38b2 a04e 4b01 be4e 3329 264e
00000020: 933d 184d 945b c84d 21bb a34c f89f bf4c
00000030: e7dc b74e 4ef8 a54d 2985 564d 0e8b 464e
00000040: caac f84d c30f b04e 1c55 ec4c 7fb2 634d
00000050: dbe2 814d d266 054d 3bf6 724e 8213 514d
00000060: 5e1c 4c4f 53f4 734d c1cd 824d 428e 274e
00000070: 7459 c14d d8e4 844e bc25 c54c 83b3 e24e
00000080: 2877 884e e919 a74c 3196 644e 4952 334e
00000090: 57f3 8b4c d914 184e 0680 0a4c d7da 7d4d
000000a0: 5619 4a4d dd6e d84f 2021 cb4f ea48 0a4e
000000b0: 8ff4 b24d 1dce 844f 8ac7 744e 273f 934d
000000c0: d6f8 dd4d 4f9a cc4d
5.047373e+08 9.3371955e+08 1.5358293e+08 3.0794138e+08 2.6233488e+08 1.3480172e+09 1.5938779e+09 6.969295e+08
1.5963576e+08 4.201806e+08 8.5842184e+07 1.0046662e+08 1.5423538e+09 3.480642e+08 2.2494069e+08 8.3275046e+08
5.215092e+08 1.4769115e+09 1.2390627e+08 2.3875787e+08 2.72391e+08 1.3988176e+08 1.0190558e+09 2.1923229e+08
3.4244111e+09 2.5580472e+08 2.743153e+08 7.027795e+08 4.0548314e+08 1.114795e+09 1.0336202e+08 1.9017076e+09
1.1447552e+09 8.760916e+07 9.5876205e+08 7.521286e+08 7.337439e+07 6.378758e+08 3.630697e+07 2.661861e+08
2.1191613e+08 7.2622884e+09 6.8158915e+09 5.800086e+08 3.7529648e+08 4.4562007e+09 1.0266794e+09 3.087987e+08
4.6550906e+08 4.290831e+08
