models/sigma0.01_step0.0002_lr0.0006/ckpt/model_epoch_550.pth (torch, 282369 bytes, 18 tensors)

layer1.weight f4 [25, 1, 3, 3]
000000 73 17 13 3d f1 c0 2d bd cb 7d bd 3d 94 95 a6 bd
       0.035911035 -0.04242033 0.09252509 -0.081339985
000010 d4 9f 72 3e 2e 79 11 3e 65 77 82 3d 7e 4b 35 bc
       0.23693782 0.14206383 0.06370429 -0.011065362
000020 55 44 02 3d 5f c5 03 be a0 94 04 bd 53 7a 00 be
       0.031803448 -0.1286826 -0.032368302 -0.12546663
000030 ee d3 cc bc 91 cd 3b 3d 5a 01 21 bc da 9a f0 3b
       -0.0250034 0.04585034 -0.009826982 0.0073426785
000040 1b 9b 30 bd d3 77 a2 bd e7 82 97 bd e9 20 84 3b
       -0.04311667 -0.07933011 -0.073980145 0.0040322435
000050 f0 ee b8 3c 3c 36 bf 3d 02 5c f6 3d 17 44 14 3c
       0.022574872 0.09336516 0.12029268 0.009049437
000060 08 e2 2e 3c 17 92 00 be 2d 73 01 3e 02 58 d6 bd
       0.010674007 -0.12555729 0.12641592 -0.10466005
000070 1f 28 87 3c 0d 10 a6 bb 29 c3 08 be 53 9f ae bc
       0.016498623 -0.0050678314 -0.13355698 -0.021316206
000080 3b 1d 96 3d 9d 10 1a 3d 6d a4 09 bd f0 4d a0 bd
       0.07329794 0.0376135 -0.033604074 -0.078273654
000090 7a 28 79 3d f1 e9 51 3d ca ab 85 3d 85 8a 03 bc
       0.060829617 0.051248495 0.06526907 -0.008028631
0000a0 2a 22 e1 3d 79 f4 b9 3d 97 e1 0a bd 85 94 8b 3e
       0.109928444 0.090798326 -0.033906545 0.2726175
0000b0 98 cc 74 bd 73 4a 1a 3e d8 0c 05 be 98 95 1a be
       -0.05976543 0.15067463 -0.12993181 -0.15096128
0000c0 71 5f e2 3d fd 33 fc bd 4f f3 c0 bd 8e f6 9a bd
       0.1105336 -0.123146035 -0.094214074 -0.07566558
0000d0 b4 c0 3a bb bb 1a 4c 3d 47 04 67 3d c5 ab 99 3c
       -0.0028496208 0.04983018 0.056400564 0.018758664
0000e0 3a 90 b4 3c 88 c2 17 bc 9e f7 c5 3a ae 35 6a 3c
       0.022041429 -0.009262688 0.0015103703 0.014295025
0000f0 04 04 b9 bc 30 a8 0c 3e 59 c2 d5 bc fa 33 40 3c
       -0.022584923 0.13736033 -0.026093649 0.011731142
000100 96 9b e6 bd b4 30 b5 bc 3e 38 a0 3d 08 ef 18 be
       -0.112601444 -0.02211795 0.07823227 -0.14934933
000110 36 a5 7c 3d aa aa b4 3c 71 48 b9 bd 8e 38 28 be
       0.061680995 0.022054035 -0.0904702 -0.16427824
000120 90 48 b0 3d 8d 98 2d 3e 16 82 44 3e 50 55 56 3d
       0.0860759 0.16952725 0.19190249 0.052327454
000130 a7 e0 bd 3d 20 36 fd ba dd c4 42 3d a3 a4 ff bd
       0.09271365 -0.0019318499 0.047551025 -0.12482574
000140 d7 0a 12 3d 08 de bd 3d 2c db 8e bb 5f 21 cb bc
       0.03565487 0.09270865 -0.0043596234 -0.024796186
000150 69 07 41 3d ee b4 18 bd fd a9 70 be d8 5d e9 bd
       0.047126208 -0.037281923 -0.23502345 -0.113948524
000160 33 62 cf bd 4d 2c 41 3d 63 57 1c be 92 1f 84 3c
       -0.10126152 0.04716139 -0.1526771 0.016128335
000170 dc cf a0 bc 8c 62 11 be 21 fe 7f 3d 17 d0 4d 3e
       -0.019630365 -0.14197749 0.062498216 0.20098911
000180 ae 35 8a bd e6 69 21 bd 5c 2d 07 3e 18 d3 5b 3d
       -0.0674852 -0.039407633 0.13200897 0.05366811
000190 11 ff 8a 3c b6 a6 ba 3d 51 f2 cd 3c ec 12 27 3d
       0.016967328 0.09113829 0.02513996 0.04078953
0001a0 9e 1e 33 bb 87 a2 fc 3d 1e 2e 2d 3e 55 c1 ca 3d
       -0.0027331482 0.12335687 0.16912124 0.099001564
0001b0 17 2a 1a 3e 38 92 b9 bd 0a e2 cf 3d 9a 02 d3 3d
       0.15055119 -0.09061092 0.101505354 0.103032306
0001c0 a5 2e 0d bd ff 14 fe 3d 7b 18 b6 bd e5 5c 0d 3e
       -0.03446831 0.124063484 -0.08891388 0.13804968
0001d0 0a e4 ea 3d 95 17 dd 3d 69 e3 4f 3e 4b b0 d1 3d
       0.11469276 0.107955135 0.20301594 0.10238703
0001e0 b9 d4 78 3d dd 63 ed bc ca d8 9e 3d 90 11 1e bd
       0.060749743 -0.028978283 0.07756193 -0.038590968
0001f0 4d 2e b1 3d b6 d1 97 3d aa 45 13 bd fe 57 5c be
       0.08651409 0.07413046 -0.03595511 -0.21517941
000200 c9 36 cd 3d 8d c2 df bd 15 51 2e 3e b7 17 a7 bd
       0.10020215 -0.109257795 0.17023118 -0.0815882
000210 7c c6 7d bc ae 5c 95 bc ea 6a 97 bc d9 10 bc bb
       -0.015489217 -0.01823267 -0.018483598 -0.005739313
000220 a9 16 72 bd 53 d9 cf 3c c2 a8 15 bd e4 fe 6d bd
       -0.05910364 0.025372183 -0.036537893 -0.05810441
000230 a5 cc 51 3d d7 8b 65 3b d9 a2 be 3d d3 99 11 3e
       0.051220555 0.0035025978 0.093084045 0.14218836
000240 13 88 a4 bb e4 76 c3 bd bf e2 dd 3c 13 87 e4 3c
       -0.005021104 -0.09544161 0.02708566 0.02789644
000250 ff 87 48 be 54 ec 30 3e 68 f3 c0 bd 04 0c 19 be
       -0.19583128 0.17277652 -0.09421426 -0.1494599
000260 41 d1 48 bd 95 a8 01 be 36 d3 e7 bd b9 c0 e9 3d
       -0.049027685 -0.12661965 -0.11319582 0.11413712
000270 59 59 58 bd 95 b9 b3 bd 44 85 9b 3b 17 0e 8e bd
       -0.052819584 -0.08775631 0.004746111 -0.06936281
000280 34 d5 82 3d 7a a4 44 3d d3 e6 53 bd 77 c1 09 be
       0.063883215 0.04800842 -0.051733803 -0.13452707
000290 a2 c2 0a be 74 5a 7b be 26 4d a5 bd 9e 67 92 bd
       -0.13550809 -0.24546224 -0.080713555 -0.0714867
0002a0 39 81 5f bd 8a 3c 51 bc 7a 18 37 be 29 94 08 be
       -0.054566596 -0.012770781 -0.17880431 -0.13337769
0002b0 e3 a5 fa 3c 4d 97 b5 3c 9f a6 cb 3d 1c e5 22 be
       0.03059668 0.022166872 0.0994389 -0.15907711
0002c0 82 d0 91 3d bf c9 d8 bb 80 88 5a bd 2d 77 b9 3d
       0.07119848 -0.006615847 -0.053352833 0.09055934
0002d0 b3 3a 03 bd c2 4e 6d 3b a6 b1 45 be 3d 01 a7 3c
       -0.0320384 0.0036210273 -0.19306049 0.020386333
0002e0 2b ba 87 3d aa a2 40 3e 5b 6a 24 be ef 47 67 be
       0.066273056 0.18812051 -0.16056196 -0.22586034
0002f0 c2 8c c4 3d e1 96 80 3d 81 89 88 bd 6e b2 69 be
       0.0959716 0.06278778 -0.06666852 -0.22821972
000300 96 ba f7 bb 7d b2 99 be 2d 57 19 3d 37 ff d5 bd
       -0.0075600846 -0.30018988 0.037436653 -0.10449069
000310 9c 62 3c 3c fa 8d 55 bd 48 b7 e9 bd 48 54 81 3d
       0.01149812 -0.052137353 -0.11411911 0.063149035
000320 10 16 33 3d 33 66 13 3e 24 da 01 3d a8 df f2 bc
       0.043722212 0.14394455 0.031702176 -0.029647663
000330 8d 26 18 bc 9a 6f 99 bb 16 80 26 3e 26 1e 96 3d
       -0.009286535 -0.0046824934 0.16259798 0.07329969
000340 9d 92 a1 3d 87 53 86 3d 03 f1 9f bc 5b b3 5e 3d
       0.078892924 0.065589 -0.019524103 0.054370265
000350 d6 8a d1 3d c8 a7 80 bd a1 d1 d6 3d f0 83 54 bd
       0.10231559 -0.06282002 0.10489202 -0.051883638
000360 65 0f 77 bd 2e 2d ad 3d ae 63 7e 3d fa 10 d3 3d
       -0.060317416 0.08455883 0.06210678 0.103059724
000370 a4 bd 1b 3c c6 d0 5d be 58 97 88 bd db 21 a5 3c
       0.009505663 -0.21661672 -0.066694915 0.020157745
000380 9a b2 a7 3d
       0.081883624

layer1.bias f4 [25]
000000 78 5c a0 be 14 5e 5d be ba f4 e7 bc ee 73 f3 3c
       -0.31320548 -0.21617919 -0.028314937 0.029718366
000010 7d 56 5e 3e f3 9e 0a 3d 40 b9 44 be 65 ca f2 bc
       0.2171268 0.033842992 -0.19211292 -0.029637525
000020 bb a6 6a 3e 4a f0 a1 be ad 4b 14 3e dd 35 32 3d
       0.22915165 -0.31628639 0.14481993 0.0435084
000030 1e 8c f5 bd 63 4b 13 3e db 72 0c 3e 1a 1c 77 3d
       -0.11989616 0.14384227 0.13715689 0.060329534
000040 57 28 06 be 9f 82 1c 3d 6c c8 44 3e b3 25 a2 bd
       -0.13101326 0.038210507 0.1921708 -0.07917347
000050 37 62 41 3e 72 62 98 3e 46 91 39 3e d4 77 a2 bd
       0.18885122 0.29762608 0.18121824 -0.07933012
000060 1e d3 8c 3e
       0.2750482

layer2.weight f4 [50, 25, 3, 3]
000000 c7 eb 70 3d 59 13 8e bd 2c fd fa bd a4 91 e5 bd
       0.058818605 -0.06937284 -0.1225532 -0.11209419
000010 f1 6b 9a 3d 4c 1a 2f 3d 5c 87 2a 3c 87 c1 4e bd
       0.075401194 0.042749688 0.010408249 -0.05047753
000020 47 1a 8c bd 44 37 cd bd 91 4c dd bd fb fd cb 3b
       -0.068409495 -0.10020307 -0.108056195 0.006225345
000030 e1 ab 46 bd 51 42 3e 3d a0 bf 0c 3e 83 85 89 bd
       -0.04850376 0.046449963 0.13744974 -0.067149185
000040 b5 d7 41 bd 0b 4b 06 bd 21 3e d2 bd 23 ef 28 bb
       -0.047324855 -0.03278641 -0.102657564 -0.0025777302
000050 89 45 37 3d 74 1b 06 bd c7 2f c9 3c e1 8c 00 3d
       0.04474405 -0.032741025 0.024558915 0.031384353
000060 33 5d 63 bd f7 84 59 3d f8 36 49 3d 92 eb 66 3b
       -0.055508804 0.05310532 0.049124688 0.0035235626
000070 d4 1e a8 3c 15 f7 8c 3c d9 8e b3 3c c5 db a5 3d
       0.020522512 0.017207662 0.021918701 0.08098558
000080 f9 c2 ce bc 7a 71 c8 3d fa 7b ab 3d 42 cd e0 bc
       -0.025239455 0.09787269 0.08373256 -0.027441625
000090 0a 10 d0 bb 7a 5d 97 bc 18 41 07 bc 5b 6b a3 bc
       -0.0063495683 -0.01847719 -0.008255266 -0.019948652
0000a0 ad 29 de bd 58 6c 5f 3c 01 73 2e bc bf d3 c3 3c
       -0.10847793 0.013636671 -0.010647536 0.02390468
0000b0 d3 5a f5 bc a2 85 ca 3b da 69 fc bc 3c ec 95 ba
       -0.029950535 0.006180481 -0.030812193 -0.0011438201
0000c0 fd bb 1f 3d 53 37 3a bd e8 0f 1b 3c 58 a1 8b bd
       0.03899764 -0.045462918 0.009464242 -0.06817883
0000d0 73 92 69 bc dd 02 8c 3d 30 48 ce 3c b8 81 ab bd
       -0.014256108 0.06836484 0.025180906 -0.08374351
0000e0 e0 c4 e1 3c 3b 39 a9 3c 88 e6 e2 bd 41 49 0e 3c
       0.027559698 0.020657172 -0.110791266 0.008684457
0000f0 6c 48 a9 bc e2 f2 e1 bb 6e 06 1b bc a5 41 c6 bd
       -0.020664416 -0.006895409 -0.009461982 -0.096804895
000100 d1 21 19 bc b4 d6 4b bd e3 25 61 bd 98 ea f7 3b
       -0.009346441 -0.049765304 -0.054967772 0.0075658076
000110 74 7a 4a bd 30 0a dc 3c 78 34 ea bc 72 f5 22 3c
       -0.049433187 0.026860327 -0.028589472 0.009946214
000120 f9 a7 00 3b a5 a6 51 3d d7 a3 ab 3d 76 94 82 3d
       0.001963137 0.051184315 0.08380859 0.06375973
000130 47 4e be bd e1 ba 81 bd 2e d2 74 bd 95 a1 d8 3d
       -0.09292274 -0.063344724 -0.059770755 0.10577694
000140 c1 52 48 3d ee 69 65 3d 83 fd ed 3c e7 75 40 3d
       0.048907045 0.056009226 0.029051548 0.04698744
000150 a6 8b 18 bd fa 09 3e 38 31 37 db bd d5 83 60 3d
       -0.037242554 4.530882e-05 -0.10703886 0.054813225
000160 5b ed 0a bd 06 7b 52 3d ea f1 ae 3d 3d 75 f2 3c
       -0.033917766 0.051386856 0.08542235 0.02959692
000170 c3 36 ee bc 36 8f 00 bd 62 3b 12 be 9a 57 91 3d
       -0.029078847 -0.031386577 -0.14280465 0.07096787
000180 21 b5 99 bd 9a 9d da bc 18 ef ed bd b3 3e c7 bc
       -0.07505251 -0.026686478 -0.11617869 -0.02432189
000190 9b b4 8c bc dd 07 06 bd f7 d5 cc bd 43 59 0f bd
       -0.017175963 -0.032722343 -0.10001748 -0.034997236
0001a0 91 3b ba bc 7d a6 b9 bb 9d a7 8b bc cb fa 4f 3d
       -0.022733482 -0.005665599 -0.017047698 0.050776284
0001b0 8f 8e 47 bc 5f 00 5d bc d8 24 3a bd d2 18 9a bd
       -0.012179985 -0.013488858 -0.045445293 -0.07524265
0001c0 d5 a2 14 bd bd 95 4c 3d 2b 80 6f bd 66 5f 14 be
       -0.0362881 0.04994749 -0.05847184 -0.14489517
0001d0 7b b6 99 3d f1 61 87 bd ce b9 88 3c 38 d8 ba bd
       0.075055085 -0.06610478 0.016690161 -0.09123272
0001e0 a2 58 0f bd c7 a1 fe 3c c3 31 d7 3d c3 9a d6 3c
       -0.034996636 0.031083 0.10507538 0.026196843
0001f0 96 0d f5 bc 3b 0b a5 bb 39 75 c5 3c b1 d7 ba 3c
       -0.029913705 -0.005036739 0.024103748 0.022807928
000200 09 a8 f4 3d cb 34 9d 3d 0b 81 8e bb 2b 2c d4 bd
       0.11946113 0.07676085 -0.004348879 -0.10359987
000210 bc 0b 8a 3d ca 25 ed bc ee 82 3c bd 4f d2 91 bd
       0.067405194 -0.028948683 -0.0460233 -0.07120191
000220 c1 a8 8a bd 87 1e e1 3b 3d a5 5d bb 11 27 a8 ba
       -0.067704685 0.006870094 -0.0033820414 -0.0012829026
000230 56 2f 39 3d 3e 2e b2 3c 83 f6 af 3c 63 4b 39 3c
       0.04521116 0.021750566 0.02147985 0.0113094775
000240 b9 d8 1a 3d 1a 8e b7 3c d6 d1 41 bd c7 b3 4c bd
       0.03780434 0.022406626 -0.047319256 -0.049976137
000250 2e 6f d6 3d f0 b9 06 3d 7e 3f 02 3e 91 46 2e bb
       0.104704246 0.032892168 0.12719533 -0.0026592354
000260 26 77 00 3d 14 37 1e 3d 4b 2c 21 3c 3e 64 a7 3d
       0.03136363 0.038626745 0.00983722 0.081734166
000270 06 3b 7b 3d 90 ff b2 bc a2 df 48 3d 62 51 04 3b
       0.061335586 -0.021850377 0.049041398 0.002019011
000280 82 68 bf bc 37 56 89 3c 06 a2 46 bd 43 25 17 3c
       -0.023365263 0.016764743 -0.04849436 0.0092251925
000290 ed 40 84 bd 1e 8c 8f bc ce 18 88 bd d5 74 5c 3d
       -0.06457696 -0.017522868 -0.06645356 0.053822357
0002a0 5d 3b 1c bd 81 b2 02 3e 72 63 f6 bb a1 87 a1 3d
       -0.03814255 0.12763406 -0.007519179 0.07887197
0002b0 56 5f 9a 3d 26 76 d0 3c e4 7a ce 3c 8a 2d 8e bd
       0.07537715 0.025446963 0.025205083 -0.0694228
0002c0 69 87 db bd 85 82 05 bd e0 99 26 3c a3 fa d2 3c
       -0.10719187 -0.032595176 0.010168523 0.025754279
0002d0 58 f6 b9 3d cb 38 fa bc ac 4c bb 3c a2 71 97 bd
       0.090801895 -0.03054466 0.022863708 -0.073947206
0002e0 4f 05 ca bc 7e 2c 27 3d b2 57 be 3d ad ca d0 3c
       -0.024660734 0.040813915 0.0929407 0.025487268
0002f0 0d 29 44 bd be d2 9c bd ea f8 31 bd 6d 43 dc 3a
       -0.04789071 -0.076573834 -0.043450274 0.0016804762
000300 7c da a2 3d ca 47 4a 3d ff 47 97 bd 97 e5 f5 3c
       0.07951829 0.04938487 -0.07386779 0.030016704
000310 0e f6 83 3d b3 b9 6c 3d f0 1b 27 bd fc 82 0e bd
       0.064434156 0.057794284 -0.040798128 -0.034792885
000320 09 dd 06 3d 73 27 e4 3d 44 82 59 3d a3 5f 84 3d
       0.03292564 0.11140337 0.053102747 0.06463554
000330 40 7f 35 3b cf c6 dc bc 9e e3 8e 3b 88 99 33 bd
       0.0027694255 -0.026950268 0.00436063 -0.04384759
000340 84 9c 4a 3c ea e3 b3 3d d0 be a6 3b 5c 37 88 3c
       0.012366418 0.087837055 0.0050886646 0.01662796
000350 bd b1 b5 bc 1b a2 41 bd 17 32 83 3c ca 48 7f 3d
       -0.022179479 -0.047273736 0.016015096 0.062325276
000360 a6 e1 19 3b 89 71 ba bd 91 d6 2c 3d 06 b5 ed 3a
       0.0023480444 -0.09103686 0.042196814 0.0018135614
000370 9c f9 c7 3d 73 f9 7a 3d 89 62 ad bd 87 a2 b2 3b
       0.09764406 0.06127305 -0.0846606 0.0054515037
000380 83 9b 1d bd fd 4b 28 3d 4f 3a 79 3c 8c bf 63 bd
       -0.038478386 0.041088093 0.015211656 -0.055602595
000390 24 99 e9 3d aa ff 02 bd d6 12 40 3b f2 93 29 bd
       0.114061624 -0.0319821 0.0029308102 -0.041400857
0003a0 4f 05 81 bd 4b fd 0e 3b 9b d5 49 bd aa 0d 92 bc
       -0.06299841 0.0021818455 -0.049275976 -0.017828781
0003b0 49 91 5d bd d8 47 2f 3c 6d d9 ae bd 7f e5 a8 bc
       -0.054093633 0.010698281 -0.085375644 -0.020617245
0003c0 89 ae 19 3d c1 07 2e 3d b7 30 46 bc 65 22 02 bc
       0.037519965 0.042487863 -0.012096575 -0.007942771
0003d0 35 ed 38 bd 32 a0 f8 bc 6b f7 65 bd ea d6 9f 3c
       -0.045148093 -0.030349825 -0.05614416 0.019511659
0003e0 5f fc 51 bd 60 b0 36 3d 38 50 3a bd c6 e0 28 3d
       -0.05126607 0.044601798 -0.04548666 0.041229986
0003f0 c3 e9 d8 bc 07 ae 50 3d ab c1 2f 3c 32 fb 57 bd
       -0.026478654 0.050947215 0.010727326 -0.052729793

layer2.bias f4 [50]
000000 a0 77 9a ba 4d 06 cb 3c ab 89 33 3d 56 20 03 3d
       -0.0011784919 0.024783278 0.043832462 0.03201326
000010 08 9b 6a bd 3c 99 1f 3d ed e0 bc 39 1c 9c bb bc
       -0.057276756 0.038964495 0.00036025737 -0.022901587
000020 be 31 c5 3b 03 a6 8a bc cd 3e 7b 3d ba d4 f0 3b
       0.0060178926 -0.016924864 0.06133919 0.0073495777
000030 64 65 18 3d 4f a3 2b bd 5e 8d fa 3c e2 47 92 3c
       0.03720607 -0.04190379 0.030584987 0.017856542
000040 83 d1 99 3c 87 d3 2d bd fa 9a 38 bc 28 d4 05 3d
       0.01877666 -0.042438056 -0.011267418 0.03267303
000050 a9 da 1a bb 74 41 8a 3d c5 c8 19 bd 50 22 5f bd
       -0.0023628867 0.067507654 -0.037544984 -0.054476082
000060 7f 32 b5 bc 9c b2 8b 3d ad 6b 81 bc 88 da 43 bc
       -0.022118805 0.068211764 -0.015798414 -0.011953957
000070 32 b3 7e bd 20 36 06 3c 2b 93 f0 bb 78 35 8a bc
       -0.062182613 0.008191615 -0.0073417625 -0.016871199
000080 b6 0b 4f 3d 92 3a 07 3d 46 08 34 3d 43 19 60 bd
       0.050548278 0.03301484 0.043953203 -0.05471159
000090 16 91 2a bc 49 c7 55 bd fe 1f 07 bd b2 9b 18 3d
       -0.010410568 -0.052192006 -0.032989495 0.037257858
0000a0 98 4f f7 3c da 74 2d bb c2 83 82 3d 7f 48 4c 3d
       0.03018932 -0.0026467354 0.06372787 0.049873825
0000b0 6f 50 89 bc 1f a2 86 bd b3 f3 b8 bb cc 88 a9 3b
       -0.016761987 -0.06573891 -0.0056442856 0.005173778
0000c0 66 4d 20 bd 0a 4c 30 bd
       -0.039136313 -0.043041267

layer4.weight f4 [25, 50, 3, 3]
000000 b1 dd e4 bc 93 a4 15 bd 9c 8b c5 bd 66 76 d9 bc
       -0.027937742 -0.036533903 -0.09645769 -0.026545715
000010 64 1e 60 bc 6e ad 36 3c 24 fb 70 3c e8 a8 e0 3d
       -0.013679121 0.011149747 0.014708314 0.10969716
000020 3e 1d 41 3d 77 86 cb 3d 89 76 db 3c eb 88 32 bc
       0.04714703 0.099377565 0.02678992 -0.010896902
000030 69 2d 82 3c 95 2d ba 3d b9 51 3f 3d 64 d7 66 3b
       0.015890794 0.09090725 0.046708796 0.0035223598
000040 3e c3 a3 3d 46 39 58 bd b0 fd 6f 3d 31 ef 6d 3d
       0.07996224 -0.052788995 0.058591545 0.05808944
000050 66 14 85 bd 84 86 aa 3c 72 25 bd bc e6 da 07 3d
       -0.06498031 0.020816095 -0.023089144 0.033167742
000060 2d 49 42 3d 96 dc 21 3c 4a fb af 3c 2a a4 ea bc
       0.047433067 0.009879252 0.021482129 -0.028642733
000070 6f b7 c5 bd e1 36 02 bd cb 69 31 bd cd bd 7b 3d
       -0.09654128 -0.031790618 -0.043313783 0.061460305
000080 95 9e 04 bd 85 1d e0 3d f1 ee 9b 3c 58 30 c3 3c
       -0.032377798 0.109431304 0.019034835 0.023826763
000090 fc 1d 4e 3c 80 6d a7 bd 07 85 75 3c ab 5f ad 3c
       0.012580391 -0.08175182 0.0149853295 0.021163782
0000a0 ec 4d e8 3b f4 37 80 3c a7 53 4c bd 59 9f 79 bb
       0.007089367 0.01565168 -0.049884465 -0.0038089363
0000b0 72 69 aa bd f9 85 bc 3c 10 dd 34 bd 90 12 39 3d
       -0.08320893 0.023013102 -0.044156134 0.04518372
0000c0 7c 77 07 bd 7f 8b 21 3d ab 52 0a bc 3b 40 a7 3a
       -0.033072934 0.039439674 -0.008442561 0.0012760231
0000d0 62 68 09 3c 72 cd 28 be a7 5f 5c bc a4 f3 6e bd
       0.008386703 -0.16484621 -0.01345054 -0.058337823
0000e0 7f 64 84 bd 91 9a e7 bc 3b 89 78 bd 49 ca a8 bd
       -0.064644806 -0.028271945 -0.06067775 -0.08241708
0000f0 f7 59 fc bc 0a b7 7e 3c 65 90 18 bd 5e dd 08 be
       -0.030804617 0.01554657 -0.03724708 -0.13365695
000100 b0 b4 08 3e 53 7c cf bd ce fc 10 3c f4 33 96 3c
       0.13350177 -0.10131135 0.008849336 0.01833532
000110 c3 db aa bc 13 7f 6f 3c c9 47 70 bd 45 1a 80 3d
       -0.020856744 0.014617699 -0.05866221 0.062550105
000120 6b c2 fa bd 0a b0 d4 3c bd 95 02 bc ca 02 91 3d
       -0.122441135 0.025962848 -0.007970271 0.0708061
000130 20 e9 11 3c b2 b5 9f bd d7 c3 37 bd 56 f3 53 bd
       0.008905679 -0.077983275 -0.0448645 -0.051745735
000140 8d 88 f5 3c d3 33 2a 3c 51 a3 18 bd 5b dc e0 3d
       0.029972339 0.010388332 -0.037265126 0.109795295
000150 48 c5 37 bd 6e 43 d1 bd 59 0a fb 3a a5 b6 96 bd
       -0.044865876 -0.10217939 0.0019152864 -0.073590554
000160 83 33 3c bd d4 5e 39 3d e3 c8 a4 bc 97 b1 01 bc
       -0.045947563 0.04525645 -0.020115322 -0.007915876
000170 cc aa 66 bc 18 95 63 bc 25 e3 9b bd e9 d6 11 3b
       -0.014078807 -0.013890527 -0.07611684 0.002225334
000180 7d cd c4 3c d6 64 92 bd e8 87 23 bb 6b 31 62 3d
       0.024023766 -0.07148139 -0.0024952833 0.05522291
000190 50 e8 d4 3c 55 f1 5c bd e7 ee de 3c 4d b7 4c bd
       0.025989681 -0.05394109 0.027213527 -0.049979497
0001a0 24 2f 97 3d ab d7 d0 bd 02 3d 11 bc 25 eb cb 3b
       0.07382038 -0.101973854 -0.008864643 0.0062231
0001b0 28 36 90 3d bb 8d 10 bd c9 87 b1 3d 8d 54 e4 3c
       0.070415795 -0.035291415 0.08668477 0.027872348
0001c0 80 fe 84 bc ee 8d 04 3d 87 18 34 bc f8 15 e8 3c
       -0.016234636 0.032361917 -0.010992176 0.028330788
0001d0 8f f7 93 3b f8 09 f1 bc 64 8c df bc 5a 2f 0f 3d
       0.0045155953 -0.029423699 -0.027288623 0.034957267
0001e0 df 5b ec 3c 49 5e cd 3c 86 62 81 3d 7c bf 8d 3d
       0.028852401 0.025069373 0.0631762 0.06921288
0001f0 41 7b 57 3c 27 40 a5 bb 29 a4 91 3c 2a 7d df 3a
       0.013151945 -0.005043048 0.017778473 0.0017050852
000200 c7 d7 ba bd 29 83 17 3d e1 6d fc 3c 73 dd 03 bc
       -0.091231875 0.03699032 0.030814113 -0.008048403
000210 54 7f 84 bd 8b a8 b2 bb c9 35 2d bb e2 c0 87 3c
       -0.064695984 -0.005452221 -0.0026429764 0.016571466
000220 0f 56 29 bd 4f 28 48 bd 31 f8 0b 3d 76 b8 df 3b
       -0.041341837 -0.048866566 0.03417224 0.0068274094
000230 cd 8e 51 3c 93 e5 a9 bd 34 aa 88 bd ff 04 b2 3c
       0.012790394 -0.08295741 -0.06673089 0.021730898
000240 b8 5c e1 3c 38 52 c3 3b 2f 26 16 ba f3 e3 0b bc
       0.027510032 0.005960729 -0.00057277357 -0.008538234
000250 23 dc ac bd c0 42 23 3d 15 f3 16 3d b3 e9 4e bd
       -0.08440425 0.03985858 0.036852915 -0.05051584
000260 0e eb 36 3d a3 5e b6 3c 94 db 4e bd 70 9c 66 bc
       0.04465776 0.022261923 -0.050502375 -0.014075384
000270 5c 06 2e bd a8 4d 67 3d 20 2d e4 bd 61 32 93 3c
       -0.042486534 0.056470543 -0.111414194 0.017968358
000280 55 b8 95 bd 41 86 0c bd 02 18 87 bc 93 cb 74 3c
       -0.07310549 -0.034307722 -0.01649094 0.014941114
000290 77 6e 29 bd 01 34 89 bc 4d e4 e0 3c 63 22 a0 bd
       -0.041365113 -0.01674843 0.027452612 -0.07819059
0002a0 85 21 c5 bd 22 1d 2e bd 2d 55 1a bc ae 0e 94 b7
       -0.09625534 -0.042508252 -0.009419722 -1.764981e-05
0002b0 0d a8 b7 3d a6 c6 59 3d b8 73 72 bd 6d 4c 8a bc
       0.089676 0.05316796 -0.05919239 -0.016882146
0002c0 de 94 2d bd 2c b2 c2 bc 62 45 1e bd e0 ca 6b 3d
       -0.0423783 -0.0237666 -0.038640387 0.057566524
0002d0 88 3e dc 3c 71 b4 f2 3d 86 02 7e 3d 34 fe 7c bd
       0.026885286 0.11850823 0.062014125 -0.061765864
0002e0 64 9d c7 bd 68 a5 35 bd 9f 84 4b 3b 0f 92 1a bd
       -0.09746817 -0.044347197 0.003105439 -0.03773695
0002f0 1a 3d 8c 3b f9 94 77 bd 29 a8 5c 3c 0c ce 6c 3d
       0.004279745 -0.060444806 0.013467827 0.05781369
000300 98 87 f3 bc 36 39 da bd e8 59 74 bd 4a a8 40 3c
       -0.029727742 -0.10655443 -0.059656054 0.011758873
000310 7b c1 b1 3b 43 73 4c 3c 5c 92 c7 bb 05 f5 f5 3c
       0.005424676 0.012478652 -0.0060904454 0.030024061
000320 9d d8 af 3d 40 d0 9f bd c4 5d a4 bc 8f 2e 39 3a
       0.085862376 -0.078033924 -0.020064242 0.0007064128
000330 7c 04 9f 3c c2 4b 2f 3d a7 ea a1 3d 8e cf 23 bd
       0.019411318 0.042796858 0.079060845 -0.03999286
000340 3e b4 7f bd 44 0f 5f 3d 76 4d 03 3d e7 67 1c bd
       -0.06242775 0.054457918 0.032056294 -0.038185026
000350 7c 67 0b bd 8f 8b 3f bd 2c bc 01 3c ba c1 89 3d
       -0.034034237 -0.046763953 0.007918399 0.067264035
000360 ad 13 de bd 8f b0 bb 3d 4e 79 a7 3c 22 30 9c bd
       -0.108435966 0.09164535 0.020443585 -0.07626368
000370 c9 7d ca bd 27 e5 91 bc b2 ac 2f bb 12 33 60 bd
       -0.09887273 -0.017809464 -0.0026805815 -0.054736204
000380 28 0d b0 bd 11 1b 9a 3d 6d ac 44 bd 66 6d c9 3d
       -0.08596259 0.07524694 -0.048016 0.09835319
000390 01 de d9 bd 26 43 e7 bd 5c 77 9c bd 56 fe 57 bc
       -0.10638047 -0.112921044 -0.076399535 -0.013183197
0003a0 d3 3c a8 bd 4f 5f 15 3d 99 17 54 3c c8 a6 90 3b
       -0.08214726 0.036467846 0.012945079 0.004414413
0003b0 e5 68 42 bd 59 2b eb 3c 1e 9c 64 bd 0f 51 a4 bd
       -0.047463316 0.028707193 -0.055812947 -0.08023273
0003c0 c8 87 ec 3d 66 42 75 3d 9a 78 0b bc d0 03 ac 3d
       0.11549336 0.059877776 -0.00851264 0.08399165
0003d0 f7 23 d7 3c dd f4 e9 bc 99 d9 91 bc 6d de 36 bc
       0.026262267 -0.028559143 -0.017803954 -0.011161429
0003e0 36 a2 07 3c 45 ab 33 3d 9a 1c b1 bc 4c ef 69 bc
       0.00827842 0.043864507 -0.021620084 -0.014278244
0003f0 ae 32 a5 3c 85 a6 05 3c 3e 00 1f 3d 03 cf 93 3d
       0.020165768 0.008157377 0.03881859 0.07217219

layer4.bias f4 [25]
000000 20 6a 49 3b 7a 56 80 bc f8 72 16 3c a5 2a b7 bc
       0.0030733421 -0.015666235 0.009182684 -0.022359202
000010 62 be 11 3d 3c 5e b0 bc 06 0b 8f 3c 4d 3b d7 bc
       0.035581954 -0.02152931 0.017461311 -0.026273394
000020 3c ee c3 bb c0 8e 06 bd 73 fb 54 bd b5 2a 17 3c
       -0.0059793275 -0.03285098 -0.051997613 0.009226491
000030 c9 70 e5 3c f4 11 2b 3d 01 83 53 bc e2 38 b6 bb
       0.028007882 0.04176517 -0.012909652 -0.00556098
000040 eb fa 11 3c bc bb c0 3c 8e e3 51 bc 93 fd 2b bd
       0.008909921 0.023527019 -0.012810601 -0.041989874
000050 05 f4 87 3c 6c 95 9f bc 30 bf 07 bd 6c c7 14 bd
       0.01659585 -0.01948043 -0.033141315 -0.036322996
000060 9f 5a 26 bc
       -0.010153442

exp_avg f4 [25, 1, 3, 3]
000000 04 87 1e c6 e6 57 d7 c5 c0 4d ba 42 a4 bc 6b c6
       -10145.754 -6890.9873 93.151855 -15087.16
000010 99 db 35 c6 92 a0 98 c5 af bb 84 c6 89 7a 67 c6
       -11638.899 -4884.0713 -16989.842 -14814.634
000020 a2 b9 0c c6 78 cb 4b 46 bc fb ac 45 af 04 5b c5
       -9006.408 13042.867 5535.467 -3504.2927
000030 13 64 83 46 d6 9c f6 45 93 9f d7 c4 36 54 91 46
       16818.037 7891.6045 -1724.9867 18602.105
000040 26 c1 0e 46 2c ba 02 c4 3e 1b 52 c7 88 0f 16 c7
       9136.287 -522.90894 -53787.242 -38415.53
000050 78 9e 84 c6 b2 d9 8d c7 9e 65 5c c7 df 40 01 c7
       -16975.234 -72627.39 -56421.617 -33088.87
000060 f8 85 94 c7 7b 0a 6b c7 b4 e8 10 c7 da 6d 1c 47
       -76043.94 -60170.48 -37096.703 40045.85
000070 c2 81 0f 47 0f c7 9d 46 dc 78 68 47 9e a0 6a 47
       36737.758 20195.53 59512.86 60064.617
000080 32 94 30 47 be 36 86 47 9c 25 8e 47 b0 f5 6c 47
       45204.195 68717.484 72779.22 60661.688
000090 4e aa ec c6 38 bb ac c6 22 74 2c c6 ba 76 1f c7
       -30293.152 -22109.61 -11037.033 -40822.727
0000a0 76 68 11 c7 75 f4 e9 c6 e8 da 1d c7 46 d6 21 c7
       -37224.46 -29946.229 -40410.906 -41430.273
0000b0 be 93 17 c7 10 8f b7 45 aa cf 98 46 3b 09 d5 46
       -38803.742 5873.883 19559.832 27268.615
0000c0 e3 b5 e2 c4 48 27 4c 46 0d 6d b5 46 b1 66 2d c6
       -1813.684 13065.82 23222.525 -11097.673
0000d0 69 76 70 45 fb 8e 6d 46 5c 7e cf c6 a6 36 cf c6
       3847.4006 15203.745 -26559.18 -26523.324
0000e0 5c 02 8b c6 4a 32 11 c7 fc 24 0f c7 96 b5 cd c6
       -17793.18 -37170.29 -36644.984 -26330.793
0000f0 09 47 1c c7 ee 0b 19 c7 25 18 de c6 54 65 c0 46
       -40007.035 -39179.93 -28428.072 24626.664
000100 e6 1a bd 46 13 58 9c 46 44 bf 04 47 a7 99 f5 46
       24205.45 20012.037 33983.266 31436.826
000110 81 a3 c1 46 10 04 0f 47 1e 9f 00 47 26 62 c1 46
       24785.752 36612.062 32927.117 24753.074
000120 a8 c4 26 c7 12 f4 3b c7 68 f6 23 c7 66 f1 fb c6
       -42692.656 -48116.07 -41974.406 -32248.7
000130 37 3e 1b c7 ae c1 0e c7 cc 7c 71 c6 96 b1 be c6
       -39742.215 -36545.68 -15455.199 -24408.793
000140 c0 fc bc c6 02 de d9 46 5b e0 a1 46 c8 96 ff 45
       -24190.375 27887.004 20720.178 8178.8477
000150 12 db 3d 47 ba ce 28 47 1a 32 eb 46 92 4d 69 47
       48603.07 43214.727 30105.05 59725.57
000160 a0 a6 5b 47 86 36 2e 47 dc 31 9d c6 3e 8a ca c5
       56230.625 44598.523 -20120.93 -6481.2803
000170 9d c4 a1 45 99 80 cb c6 e3 c2 48 c6 d3 d8 1f c4
       5176.5767 -26048.299 -12848.722 -639.3879
000180 74 be df c6 d2 f8 81 c6 90 8f 9d c5 74 f2 21 c7
       -28639.227 -16636.41 -5041.9453 -41458.453
000190 90 66 ed c6 ff ca 1b c6 1a 7e 3b c7 66 75 11 c7
       -30387.281 -9970.749 -47998.1 -37237.4
0001a0 64 a9 82 c6 a1 ad 36 c7 e4 e1 10 c7 fa c6 8f c6
       -16724.695 -46765.63 -37089.89 -18403.488
0001b0 10 dd fa c6 ca c8 aa c6 ac 97 f8 c5 02 d7 3b c7
       -32110.531 -21860.395 -7954.959 -48087.008
0001c0 af 1b 0e c7 54 a8 99 c6 98 db 59 c7 5b fc 27 c7
       -36379.684 -19668.164 -55771.594 -43004.355
0001d0 83 fa c8 c6 b0 0c 80 c6 9b 10 60 c6 5e bb d0 c5
       -25725.256 -16390.344 -14340.151 -6679.421
0001e0 5c 31 15 c7 4c c0 0a c7 5a b4 c6 c6 c6 a4 4a c7
       -38193.36 -35520.297 -25434.176 -51876.773
0001f0 20 73 3e c7 fa 7a 12 c7 ec d3 0b 47 46 8f e7 46
       -48755.125 -37498.977 35795.92 29639.637
000200 ce 21 91 46 4b 1b 3d 47 47 21 30 47 1e 0f 03 47
       18576.902 48411.293 45089.277 33551.117
000210 62 91 45 47 c6 3d 40 47 29 b1 19 47 c0 35 31 c6
       50577.383 49213.773 39345.16 -11341.4375
000220 7e a9 cb c5 1a af 04 44 fc 37 ba c6 3c 16 8f c6
       -6517.1865 530.73596 -23835.992 -18315.117
000230 1f d4 17 c6 c1 ab ff c6 a3 b4 d1 c6 c4 33 89 c6
       -9717.03 -32725.877 -26842.318 -17561.883
000240 18 ef fc 46 95 b0 b2 46 59 cf 27 46 ab 54 51 47
       32375.547 22872.291 10739.837 53588.668
000250 e3 d3 30 47 5a ad fa 46 6c 18 70 47 bc 8b 57 47
       45267.887 32086.676 61464.42 55179.734
000260 da 0c 27 47 5f 5e 17 47 2c 0a f0 46 00 80 90 46
       42764.85 38750.37 30725.086 18496.0
000270 da 5c 4d 47 9c ce 2b 47 36 a4 ec 46 f8 10 57 47
       52572.85 43982.61 30290.105 55056.97
000280 14 8f 35 47 5c b7 fd 46 ca 5e 29 47 94 92 1d 47
       46479.08 32475.68 43358.79 40338.58
000290 d2 46 e5 46 2c 84 65 47 40 28 5a 47 53 9a 29 47
       29347.41 58756.17 55848.25 43418.324
0002a0 e8 41 6d 47 e8 93 5f 47 b3 c8 2a 47 78 9f e2 46
       60737.906 57235.906 43720.7 29007.734
0002b0 10 13 9e 46 33 6a e5 45 8d 5e e3 46 48 5d 93 46
       20233.531 7341.275 29103.275 18862.64
0002c0 34 f1 98 45 20 14 cb 46 fb 13 71 46 3c 73 07 45
       4894.1504 25994.062 15428.995 2167.2021
0002d0 ca e4 14 47 3c 48 a7 46 ba 2f 60 45 98 2a 34 47
       38116.79 21412.117 3586.983 46122.594
0002e0 de 63 09 47 ff e0 a9 46 b4 34 27 47 8b 98 14 47
       35171.867 21744.498 42804.703 38040.543
0002f0 86 9e ed 46 81 53 22 47 1a a9 e2 46 68 ed 17 46
       30415.262 41555.504 29012.55 9723.352
000300 08 35 73 47 64 c1 4f 47 8b bd 0a 47 55 bd 83 47
       62261.03 53185.39 35517.543 67450.664
000310 5c 3c 75 47 7c a2 3b 47 13 6e 16 c7 44 14 da c6
       62780.36 48034.484 -38510.074 -27914.133
000320 d1 20 27 c6 f8 b0 3a c7 62 18 17 c7 ca c4 a3 c6
       -10696.204 -47792.97 -38680.383 -20962.395
000330 86 a6 45 c7 a4 a7 26 c7 ca 58 c8 c6 da fc 3a c7
       -50598.523 -42663.64 -25644.395 -47868.85
000340 61 c5 1f c7 f8 33 bf c6 63 66 67 c7 13 24 52 c7
       -40901.38 -24473.984 -59238.387 -53796.074
000350 41 8c 14 c7 70 2e 62 c7 5c 3d 56 c7 42 ee 22 c7
       -38028.254 -57902.438 -54845.36 -41710.258
000360 83 e9 51 46 9e 6c 9e 46 42 a4 ae 46 83 59 8f 46
       13434.378 20278.309 22354.129 18348.756
000370 98 c9 c0 46 58 29 c8 46 f3 a5 9d 46 1c 8c c7 46
       24676.797 25620.672 20178.975 25542.055
000380 30 03 cb 46
       25985.594

exp_avg_sq f4 [25, 1, 3, 3]
000000 51 f7 01 50 45 8c 0d 50 e5 31 08 50 f4 0e 08 50
       8.721876e+09 9.499121e+09 9.139885e+09 9.130725e+09
000010 f9 c8 15 50 c5 2e 11 50 95 31 f8 4f 1a c2 09 50
       1.0051905e+10 9.743046e+09 8.327998e+09 9.244797e+09
000020 15 b0 06 50 55 e1 f0 4e 61 b5 1b 4f 30 71 34 4f
       9.038747e+09 2.0206496e+09 2.6123553e+09 3.0273167e+09
000030 e8 1e ef 4e 68 bd 1e 4f 2e 6b 3e 4f d0 ce cf 4e
       2.00589e+09 2.663213e+09 3.1946952e+09 1.7432187e+09
000040 62 32 0c 4f 2c 14 2e 4f c9 0c c3 50 39 8e ac 50
       2.352112e+09 2.9205576e+09 2.617916e+10 2.3160015e+10
000050 ab 31 86 50 e2 c2 de 50 e9 21 c3 50 8e 37 95 50
       1.8011216e+10 2.989851e+10 2.6190236e+10 2.0027568e+10
000060 10 0e db 50 1b 07 bf 50 cd 48 91 50 1a 65 86 4f
       2.9401055e+10 2.5639311e+10 1.949974e+10 4.5095455e+09
000070 04 e1 99 4f ee 19 92 4f bd a3 cb 4f 37 ad ec 4f
       5.1633213e+09 4.9023457e+09 6.833011e+09 7.9415496e+09
000080 c5 ff dd 4f 22 75 fc 4f 0b 3e 15 50 8c eb 0d 50
       7.4490537e+09 8.4710697e+09 1.0015485e+10 9.524097e+09
000090 67 d1 ae 4e 25 15 ad 4e 88 a5 af 4e 90 9b d8 4e
       1.4664795e+09 1.451922e+09 1.4734305e+09 1.8170368e+09
0000a0 70 7a e8 4e 72 5d f0 4e bb 9c c7 4e cd ff ee 4e
       1.9501691e+09 2.016328e+09 1.6744687e+09 2.0048708e+09
0000b0 8d 33 06 4f 77 51 3c 4e c4 22 13 4e da 92 01 4e
       2.2515254e+09 7.898639e+08 6.171323e+08 5.434712e+08
0000c0 7c 6e 75 4e e7 c2 27 4e 76 49 01 4e 0a 9d 93 4e
       1.02941466e+09 7.0364205e+08 5.422688e+08 1.2382712e+09
0000d0 71 c5 3b 4e f1 d0 f8 4d 86 02 f2 4e f2 84 f3 4e
       7.875697e+08 5.2180534e+08 2.0301258e+09 2.0427881e+09
0000e0 26 22 cb 4e da d1 18 4f c7 c9 16 4f 42 dd f0 4e
       1.7040064e+09 2.5638897e+09 2.529806e+09 2.0205161e+09
0000f0 d1 a1 1f 4f 31 35 1b 4f fa 6d f2 4e 20 ff 00 4f
       2.6781821e+09 2.6039544e+09 2.0336468e+09 2.1642035e+09
000100 bf 86 15 4f 06 ec 1e 4f cb 1c 0c 4f be c4 1e 4f
       2.508636e+09 2.6662682e+09 2.3506972e+09 2.6636938e+09
000110 23 f6 26 4f 63 02 06 4f 87 21 15 4f ab 9c 1b 4f
       2.8011487e+09 2.2483034e+09 2.5020024e+09 2.6107359e+09
000120 f6 7b 8c 4f 8c c6 95 4f 40 71 7e 4f 5c 49 63 4f
       4.7138683e+09 5.0256343e+09 4.2688348e+09 3.8132357e+09
000130 75 6e 73 4f 3d 75 4f 4f d7 a8 1c 4f f4 88 26 4f
       4.0841024e+09 3.480567e+09 2.6283108e+09 2.7939932e+09
000140 91 bd 0e 4f fa b4 f4 4e 4d 45 eb 4e 78 d5 cf 4e
       2.394788e+09 2.0527506e+09 1.9735937e+09 1.7434368e+09
000150 f0 fb 62 4f 75 cb 5d 4f 28 e1 3b 4f 4d e0 9a 4f
       3.8081618e+09 3.7210985e+09 3.1520952e+09 5.196782e+09
000160 fe 26 9b 4f a1 c4 85 4f a3 60 23 50 6a 35 13 50
       5.206048e+09 4.488512e+09 1.0964078e+10 9.879005e+09
000170 2f 44 f0 4f ea d1 23 50 9a dd 11 50 33 f8 e9 4f
       8.0620006e+09 1.0993773e+10 9.788877e+09 7.8507146e+09
000180 ea 8f 0f 50 4d 37 fd 4f a3 ad c8 4f bd b9 a5 4e
       9.634294e+09 8.4965197e+09 6.7336453e+09 1.3902066e+09
000190 fb ca 5f 4e 81 a2 07 4e 42 b4 d9 4e 53 cf 9f 4e
       9.386554e+08 5.688935e+08 1.8262346e+09 1.3405823e+09
0001a0 5b 2e 48 4e ea dc e3 4e 42 70 b1 4e 1b 93 6c 4e
       8.396203e+08 1.9114529e+09 1.4884621e+09 9.922659e+08
0001b0 0a 60 31 4f c2 c4 35 4f f4 8e 38 4f 0f 77 54 4f
       2.9758612e+09 3.0495708e+09 3.0963763e+09 3.5645724e+09
0001c0 4e 78 41 4f a2 e9 2c 4f a2 ff 5f 4f 39 8b 3a 4f
       3.245887e+09 2.9009925e+09 3.7580723e+09 3.1296863e+09
0001d0 b6 2f 15 4f f4 a7 8a 4f 1d 89 a3 4f d6 6e ab 4f
       2.502932e+09 4.6525256e+09 5.487344e+09 5.7523354e+09
0001e0 58 20 d1 4f e0 f1 e8 4f 1f 05 e4 4f 5d 90 03 50
       7.0171156e+09 7.8163313e+09 7.6510817e+09 8.829105e+09
0001f0 a5 bb 0c 50 eb 7f 03 50 3d 15 ce 4f 06 73 d2 4f
       9.444431e+09 8.824794e+09 6.9149967e+09 7.061507e+09
000200 9e 7e be 4f 65 34 f5 4f 80 85 f9 4f c9 36 db 4f
       6.391938e+09 8.2277033e+09 8.3725517e+09 7.3556014e+09
000210 22 73 f7 4f f9 45 fb 4f 5c e2 da 4f 7b fc 37 4e
       8.3030354e+09 8.431334e+09 7.3445356e+09 7.716943e+08
000220 b6 b3 1c 4e ce 58 f7 4d c4 21 61 4e f7 b5 34 4e
       6.572558e+08 5.1872403e+08 9.442716e+08 7.5795603e+08
000230 09 15 04 4e 57 69 7a 4e a1 2f 44 4e ef ea 0b 4e
       5.5399277e+08 1.0503019e+09 8.2286394e+08 5.868574e+08
000240 bc e6 8d 4f 76 30 86 4f 83 b4 60 4f a6 b4 be 4f
       4.7614177e+09 4.502646e+09 3.7699264e+09 6.39902e+09
000250 b9 f4 b5 4f 58 0f 97 4f 8d b6 cf 4f 35 06 cb 4f
       6.1054285e+09 5.0687304e+09 6.9696947e+09 6.8123633e+09
000260 5d 39 ab 4f 0f ab 07 4f aa 9c 22 4f 11 cb 3a 4f
       5.7453266e+09 2.2761347e+09 2.728176e+09 3.1338703e+09
000270 db 66 35 4f 94 b8 4b 4f 45 0b 5b 4f bb 8b 3c 4f
       3.0434168e+09 3.4178714e+09 3.6749489e+09 3.163274e+09
000280 ba 50 4e 4f 12 2e 57 4f 46 75 73 4f 66 3b 4a 4f
       3.461397e+09 3.6101207e+09 4.084549e+09 3.3928904e+09
000290 57 80 04 4f 2f 89 a0 4f b3 2c 85 4f 9f 67 2b 4f
       2.2230034e+09 5.38669e+09 4.4685983e+09 2.8756948e+09
0002a0 16 ff a4 4f 74 bd 86 4f e2 d6 28 4f 69 85 8f 4e
       5.5363615e+09 4.521126e+09 2.8326548e+09 1.2039425e+09
0002b0 dc 3b 7f 4e 78 77 4f 4e a2 00 a6 4e 0b c4 91 4e
       1.07052826e+09 8.701783e+08 1.3925297e+09 1.2227721e+09
0002c0 d9 6b 6e 4e 16 7e a9 4e c4 08 96 4e 06 d5 7b 4e
       1.0000113e+09 1.4218063e+09 1.2585784e+09 1.0562605e+09
0002d0 b2 a9 90 4e 0a 52 37 4e 98 ab 00 4e 23 c9 b5 4e
       1.2135201e+09 7.6890176e+08 5.396823e+08 1.5249289e+09
0002e0 7b 6b 8a 4e 2f e9 47 4e 00 72 a0 4e 1a c3 91 4e
       1.1611498e+09 8.38487e+08 1.3459128e+09 1.2227412e+09
0002f0 89 a5 7a 4e 58 1a ed 4f 5f 08 f7 4f 70 6a e9 4f
       1.0512881e+09 7.9558533e+09 8.289042e+09 7.8321336e+09
000300 f9 06 14 50 fa 6c 1a 50 b4 85 0e 50 32 90 18 50
       9.93394e+09 1.0363333e+10 9.564508e+09 1.0238347e+10
000310 aa 78 22 50 36 68 16 50 f8 de 6b 4f 09 91 4e 4f
       1.0903267e+10 1.0093648e+10 3.9572582e+09 3.4656115e+09
000320 7a 8e 1d 4f 7e 2e 6e 4f ed fe 4c 4f c6 16 13 4f
       2.6433603e+09 3.9960243e+09 3.439259e+09 2.4677432e+09
000330 c6 2a 50 4f a3 62 2f 4f 25 ab ee 4e 30 02 48 50
       3.492464e+09 2.942477e+09 2.0020968e+09 1.3422346e+10
000340 f4 3c 3e 50 0c ca 1d 50 0c e5 67 50 7c 13 5d 50
       1.2766663e+10 1.0589057e+10 1.5562191e+10 1.4836167e+10
000350 7b 3f 36 50 71 e9 66 50 6b 86 5e 50 fd 36 39 50
       1.2230454e+10 1.5496234e+10 1.4933405e+10 1.2429555e+10
000360 9c a8 84 4f 79 f8 9e 4f 3e 81 a1 4f 2c 77 82 4f
       4.451285e+09 5.334168e+09 5.4192036e+09 4.377696e+09
000370 bd 48 a0 4f 36 e3 a5 4f 3e 7a 67 4f 86 d0 90 4f
       5.378243e+09 5.5662623e+09 3.8835482e+09 4.85917e+09
000380 dc e9 98 4f
       5.130926e+09

exp_avg f4 [25]
000000 61 4c d4 c5 55 db c9 c6 04 bf be 46 7d 6a 86 c6
       -6793.5474 -25837.666 24415.508 -17205.244
000010 8c 1d 50 47 db 09 e1 c6 7f 6d 6e 46 99 2e ed c6
       53277.547 -28804.928 15259.374 -30359.299
000020 bc bd 60 47 84 da 83 c6 a4 fb af c5 9c 6c 04 47
       57533.734 -16877.258 -5631.455 33900.61
000030 f6 90 82 45 f7 cd 25 47 1a f3 91 c6 5d 5f 42 46
       4178.12 42445.965 -18681.55 12439.841
000040 57 13 3b c7 84 51 d6 c6 a4 10 ae c5 0c ef e2 c4
       -47891.34 -27432.758 -5570.08 -1815.4702
000050 ac c3 aa c6 5c 63 37 c6 c3 71 24 47 af 5c c1 46
       -21857.836 -11736.84 42097.76 24750.342
000060 8b 5e e7 45
       7403.818

exp_avg_sq f4 [25]
000000 ec cc bc 4e d0 7d 82 4e 12 4c 85 4e 76 ff 0b 4e
       1.5837732e+09 1.0946417e+09 1.1181775e+09 5.871937e+08
000010 9b 67 a7 4e cc 77 da 4e ca 91 ad 4c 53 2a 22 4f
       1.4042925e+09 1.832642e+09 9.10004e+07 2.7206828e+09
000020 4d 06 d7 4e b0 d0 84 4e 3e 10 65 4e 4e 68 6d 4d
       1.8037572e+09 1.1141345e+09 9.607617e+08 2.4893974e+08
000030 8c 3d 22 4e 98 1e 13 4e 45 82 24 4e 54 a8 d6 4d
       6.804856e+08 6.1706394e+08 6.900002e+08 4.5016947e+08
000040 57 9b 84 4e 2d cb 84 4d a1 97 b1 4e e7 c4 3c 4e
       1.1123864e+09 2.7848848e+08 1.4897522e+09 7.917552e+08
000050 48 1d 58 4d 39 50 59 4e fd ad 9e 4e d2 67 ac 4e
       2.2661235e+08 9.1147834e+08 1.3311013e+09 1.4462426e+09
000060 5e 66 ad 4e
       1.4545836e+09

exp_avg f4 [50, 25, 3, 3]
000000 7c 32 48 c4 c2 52 c2 c3 28 86 0f c5 c0 e4 9a 45
       -800.7888 -388.64655 -2296.3848 4956.5938
000010 08 c7 b3 45 48 e0 5c 45 3e ca ca 45 3e 8c ed 45
       5752.879 3534.0176 6489.2803 7601.5303
000020 ae 01 ae 45 a6 de 50 45 ba 88 b7 45 84 16 e7 45
       5568.21 3341.9155 5873.091 7394.8145
000030 0b 18 d3 44 ad 8a 83 45 24 6e bb 45 e2 36 cf c4
       1688.7513 4209.3345 5997.7676 -1657.7151
000040 58 86 1f 44 1c 54 15 45 2e b8 4b c3 7b 36 36 c4
       638.0991 2389.2568 -203.71945 -728.85126
000050 f8 e9 cc c4 2c 9c cf 44 0d be 95 44 00 42 77 43
       -1639.3115 1660.8804 1197.9391 247.25781
000060 92 23 13 45 60 e3 03 45 80 0a 9b 44 53 ce 76 43
       2354.2231 2110.211 1240.3281 246.80595
000070 ae 9b f5 43 7a a1 b9 44 8c a0 c5 c4 47 6d db c4
       491.21625 1485.0461 -1581.0171 -1755.4149
000080 c6 92 66 c4 a2 4a 18 c5 10 7c 3a c5 68 c5 1d c5
       -922.29333 -2436.6646 -2983.754 -2524.338
000090 29 ad f8 c4 34 fb 9e c5 7a 28 df c5 0f 8e 44 44
       -1989.4113 -5087.4004 -7141.0596 786.21967
0000a0 8d fe 00 c5 74 b6 88 c5 de f5 85 45 01 31 ed 44
       -2063.9094 -4374.8066 4286.7334 1897.5314
0000b0 3c 42 81 c3 f6 68 14 45 88 db 50 45 ba 2f 82 45
       -258.51746 2374.56 3341.7207 4165.966
0000c0 82 a4 9b c3 a2 85 5d 44 81 fd 08 45 39 b1 17 c5
       -311.28522 886.088 2191.844 -2427.0764
0000d0 47 f0 92 c4 16 c0 00 44 40 a0 42 43 36 55 68 44
       -1175.5087 515.00134 194.62598 929.3314
0000e0 4c 20 47 43 a0 37 23 45 2e 3f 65 45 4a 5e 38 45
       199.12616 2611.4766 3667.9487 2949.893
0000f0 06 ad 33 45 6d b0 7f 45 e2 9b 5e 45 00 17 7c 42
       2874.814 4091.0266 3561.7427 63.02246
000100 e0 41 ef 44 20 22 5d 45 2e 19 10 c5 5a 67 24 c4
       1914.0586 3538.1328 -2305.5737 -657.61487
000110 e9 46 8f 44 96 97 76 c5 58 67 28 c5 16 b5 6c c4
       1146.216 -3945.474 -2694.459 -946.82947
000120 de 2c d3 c5 ab 48 19 c6 6a 70 34 c6 76 33 4a c5
       -6757.6084 -9810.167 -11548.104 -3235.2163
000130 fb 0f c7 c5 25 7a 06 c6 da 94 09 45 5b 32 11 c4
       -6369.9976 -8606.536 2201.3032 -580.7868
000140 1c 0f 3b c5 f4 6c 0c 44 a9 12 5e 45 34 68 98 45
       -2992.9443 561.7024 3553.1663 4877.0254
000150 d8 f8 a5 42 f4 49 4e 45 a5 63 96 45 2b e4 02 c5
       82.98602 3300.622 4812.4556 -2094.2605
000160 14 c9 79 44 dc da 22 45 c8 b4 d0 42 6f 2d 02 c5
       999.14185 2605.6787 104.35309 -2082.8396
000170 9f 1c 2e c5 64 81 e7 c2 6d ef 34 c5 80 cd 7c c5
       -2785.7888 -115.752716 -2894.964 -4044.8438
000180 30 b4 e8 43 f2 fc 18 c5 2d e7 77 c5 64 d3 62 43
       465.4077 -2447.809 -3966.4485 226.82574
000190 0b f8 ad c4 85 c5 66 c5 b0 e9 60 45 36 a8 1b 45
       -1391.7513 -3692.345 3598.6055 2490.5132
0001a0 ae 81 80 43 bc fd b3 45 00 ab a0 45 e2 d3 4c 45
       257.01312 5759.717 5141.375 3277.2427
0001b0 b8 d8 94 c4 86 24 fd c4 06 62 8c c5 c6 85 58 45
       -1190.7725 -2025.1414 -4492.253 3464.3608
0001c0 b1 b4 3c 45 9a 5e c8 43 99 0a b1 45 2a bc ae 45
       3019.2932 400.73907 5665.3247 5591.5205
0001d0 ce c4 54 45 b6 c6 96 c5 46 e4 f3 c5 21 51 21 c6
       3404.3003 -4824.839 -7804.534 -10324.282
0001e0 cb 76 da c3 0e bd 50 c5 ee 53 c1 c5 73 af 8a 45
       -436.92807 -3339.816 -6186.491 4437.931
0001f0 da be ff 44 cd e1 3b c4 06 9f 47 44 89 19 64 43
       2045.9641 -751.52814 798.48474 228.09975
000200 04 2f 8b 44 fa 9e d4 c4 04 fd 16 c5 f8 fb e2 c4
       1113.4692 -1700.968 -2415.8135 -1815.874
000210 0c 8f 1c c5 50 e7 5d c5 bf 8f 43 c5 40 25 b6 44
       -2504.9404 -3550.457 -3128.9841 1457.1641
000220 bd cf b2 43 94 52 29 c4 3e 85 da 44 3b 11 23 44
       357.62296 -677.2903 1748.1638 652.2692
000230 d6 ff ce c3 d8 44 e9 44 3c 1a 4b 44 87 b4 19 c3
       -413.99872 1866.1514 812.4099 -153.70518
000240 27 f4 a1 c4 ef 79 92 43 1b 57 a7 44 6d d9 0b c5
       -1295.6298 292.9526 1338.722 -2237.589
000250 2c df 93 c4 fe cc a6 c3 22 94 4b c5 c9 93 2b c5
       -1182.9741 -333.6015 -3257.2583 -2745.2366
000260 d6 eb 06 c5 c3 9e 95 44 14 8f 81 44 f8 1b c0 44
       -2158.7397 1196.9613 1036.4712 1536.874
000270 c7 90 3d c4 e9 98 a2 c4 91 47 82 c4 9c 80 ec c4
       -758.26215 -1300.7784 -1042.2365 -1892.019
000280 1b d3 36 c5 1e b5 37 c5 b8 49 33 45 36 97 7d 45
       -2925.194 -2939.3198 2868.6074 4057.4507
000290 76 5b f5 45 40 65 ae c5 25 0d 9e c5 87 1f 9b c4
       7851.4326 -5580.6562 -5057.643 -1240.9852
0002a0 95 bf 19 c6 cc 15 1f c6 b2 51 d7 c5 24 f2 27 44
       -9839.8955 -10181.449 -6890.212 671.78345
0002b0 9c a7 95 44 9a c8 7f 44 df 50 62 44 35 55 94 44
       1197.2378 1023.1344 905.2636 1186.6627
0002c0 fa cc 86 44 0e b6 78 43 7a 0c b5 43 df 55 2d 43
       1078.4055 248.71115 362.09747 173.33543
0002d0 60 44 50 c4 b2 f7 14 c5 16 35 0a c5 01 08 0f c5
       -833.06836 -2383.481 -2211.3179 -2288.5002
0002e0 26 63 89 c5 ca 56 89 c5 9c 55 07 c5 49 47 84 c5
       -4396.3936 -4394.8486 -2165.3506 -4232.9106
0002f0 12 d2 89 c5 a4 7f fe 44 d8 d7 fa 44 f2 b9 82 45
       -4410.259 2035.9888 2006.7451 4183.243
000300 a4 a2 94 c5 c6 8d a5 c5 40 3e 2d c5 28 11 e8 c5
       -4756.33 -5297.7217 -2771.8906 -7426.1445
000310 e4 da 02 c6 fd 2b ba c5 3a db 60 c3 50 a0 13 c5
       -8374.723 -5957.4985 -224.85635 -2362.0195
000320 ef 67 66 c5 5a d4 36 44 6f 74 b0 c4 a3 d0 2a c5
       -3686.4958 731.318 -1411.6385 -2733.0398
000330 78 c1 0b 45 1a b7 ba 43 95 8b 5c c4 fd 1f 2b c5
       2236.0918 373.43048 -882.18097 -2737.9993
000340 8e 2b 5b c5 6c 43 97 c5 4a 7b 5e 44 a9 a6 76 43
       -3506.7222 -4840.4277 889.9264 246.65102
000350 a6 bc ae c4 7e 73 51 45 a0 42 38 45 b6 45 a6 44
       -1397.8953 3351.2183 2948.164 1330.1785
000360 0d 5f 7f c4 07 1f 37 c5 a6 94 32 c5 f3 7a 29 c5
       -1021.48517 -2929.9392 -2857.2905 -2711.6843
000370 d1 bc 92 c5 50 04 91 c5 63 eb cd c4 ee 40 5e c5
       -4695.602 -4640.539 -1647.3558 -3556.058
000380 5b 55 61 c5 5c 9f a2 46 ca 68 99 46 76 95 8f 46
       -3605.3347 20815.68 19636.395 18378.73
000390 0e 27 ae 46 b7 7b 9c 46 5a 4c 8a 46 96 42 a6 46
       22291.527 20029.857 17702.176 21281.293
0003a0 f6 9a 8d 46 2e 0a 6d 46 b7 a2 4a c5 1a 3e 55 c5
       18125.48 15170.545 -3242.1697 -3411.8813
0003b0 28 d0 48 c4 5a 70 aa c5 1f 02 9f c5 d5 0e e0 c4
       -803.25244 -5454.044 -5088.265 -1792.4635
0003c0 3a aa ae c5 47 03 91 c5 ba 31 66 c4 04 f6 c5 45
       -5589.2783 -4640.4097 -920.777 6334.752
0003d0 34 b3 ad 45 f8 07 8e 45 78 c2 d9 45 3a 6e b7 45
       5558.4004 4544.996 6968.3086 5869.7783
0003e0 e2 23 8a 45 c2 09 b8 45 05 ed 89 45 55 cc 2c 45
       4420.4854 5889.2197 4413.6274 2764.7708
0003f0 5a 94 b1 c5 9c fa d3 c5 5f 23 dc c5 ee 00 d2 c5
       -5682.544 -6783.326 -7044.4214 -6720.116
