models/500/sigma0.01_step0.0002_lr0.0002/ckpt/model_epoch_100.pth (torch, 282369 bytes, 18 tensors)

layer1.weight f4 [25, 1, 3, 3]
000000 78 52 b4 bc 8d a6 c6 3d d4 bb 17 be a1 7c c2 bc
       -0.02201198 0.09699736 -0.14817744 -0.023741068
000010 af c7 b4 3d db 03 bd bc 0d ca 01 3e 9f 2d 8f 3d
       0.08827149 -0.023073127 0.12674733 0.069911234
000020 bc f9 22 3e a9 20 38 be e9 0e 16 bd 02 33 8f 3d
       0.15915579 -0.17981209 -0.036635313 0.06992151
000030 74 47 2b 3d aa 13 70 3d 14 f0 20 bd 5b a9 92 3d
       0.04181619 0.058612503 -0.039291456 0.07161208
000040 78 cc 77 bc 47 c5 08 3e 82 1f fc bc 2a be d1 3d
       -0.015124433 0.13356505 -0.030776743 0.10241349
000050 0f ce 01 3e 82 cd 32 bd 0d 89 8d bd d2 4e 03 3d
       0.12676261 -0.04365302 -0.06910906 0.03205759
000060 9e 41 7d bd 72 bf 12 bd aa 94 e7 3d 08 65 fb bd
       -0.061830156 -0.035827108 0.11307652 -0.122751296
000070 cd 56 b2 3d f0 ac 32 be 74 57 d0 3d cc f4 a2 3b
       0.08707962 -0.17448783 0.1017293 0.0049730297
000080 95 41 32 bd fa 38 91 bd b7 cb 3e 3d fa d4 5a 3e
       -0.043519575 -0.070909455 0.046580996 0.21370307
000090 0e bc 7e bd d7 d6 27 3d 08 0e 38 bc 92 89 09 bd
       -0.06219106 0.04097637 -0.011233814 -0.033578463
0000a0 23 d9 2f bd c6 85 cf 3d 56 d1 f1 bc 88 5a 82 3d
       -0.042931687 0.10132937 -0.029518764 0.06364924
0000b0 57 64 30 be 27 2a 61 3d 2d 3c 18 3d dc 9b 73 bd
       -0.17225777 0.05497184 0.037166763 -0.05947481
0000c0 bd eb 1a bd 6c b0 9b 3a 6f 08 88 bd d7 b3 c8 3d
       -0.037822474 0.0011878139 -0.066422336 0.09799927
0000d0 08 59 d9 3d 39 19 e4 3d cf 69 e1 3d 03 0c 0b be
       0.106126845 0.11137623 0.110065095 -0.13578801
0000e0 9c 38 ec bd dd 8f 9e 3c 4f 7f b3 3d 13 d3 e4 3d
       -0.11534235 0.019355709 0.087645166 0.11173072
0000f0 0e d1 bb bc 99 ef 2c be 8c f6 05 bd db c4 f3 bd
       -0.022926833 -0.16888274 -0.03270583 -0.119027816
000100 1c 0e 28 bd 30 ba a0 bd 9c d6 27 3d 7a 2f 83 bd
       -0.04102908 -0.078480124 0.04097615 -0.0640554
000110 1c 1c 50 3d a0 c8 69 be ab c7 07 3e b8 9d 43 3c
       0.050808057 -0.22830439 0.13259761 0.011939459
000120 ef b0 4f 3d e2 80 00 3e 3c 7a 02 ba 31 c4 75 bc
       0.050705846 0.12549165 -0.0004977321 -0.015000389
000130 3d e3 17 3e 45 24 f2 bc bd 55 e6 bc 04 d0 b0 bd
       0.14832778 -0.02955831 -0.028117055 -0.08633426
000140 b9 b2 c4 3c e8 64 27 be 5d e2 8f 3d e1 17 28 be
       0.024011003 -0.16347086 0.07025597 -0.16415359
000150 07 e3 37 bb 55 f7 38 3d 1b da 3c bd 7e 67 4c be
       -0.0028058903 0.04515775 -0.04610644 -0.19961354
000160 c3 59 f1 3c ad b0 3e bd 75 f8 77 bd e5 7a f3 3d
       0.029461747 -0.04655521 -0.06053968 0.11888675
000170 95 ec 28 3e 92 08 f9 bd f7 f7 a4 bc 02 8d 32 3e
       0.16496499 -0.12159838 -0.02013777 0.17436603
000180 a2 a0 54 bd d0 ad 2b 3e a4 1e 04 be 47 f5 1a be
       -0.051911004 0.16765523 -0.12902313 -0.15132628
000190 2b 56 ce 3c 92 63 19 bc 15 dd 98 bd ff 68 ea bd
       0.025187572 -0.009362118 -0.07464043 -0.11445808
0001a0 75 2a 89 bd b8 fb e6 bc 32 6d 2a be 16 74 01 bd
       -0.06697551 -0.0281962 -0.16643217 -0.03160485
0001b0 e1 3a 62 bc 8e b1 41 3e 95 19 51 bd e1 6e e8 3c
       -0.013807983 0.18915388 -0.051049788 0.028373184
0001c0 5f ba c3 3d b9 82 0c 3d cc 2e a5 3d 7e 54 ab bd
       0.09557032 0.034304354 0.080655664 -0.08365725
0001d0 7b 83 0c 3e bf 92 61 bb 0c 54 34 3e a3 ee 6a bd
       0.13722031 -0.0034419743 0.17610186 -0.057356488
0001e0 89 a0 17 3d e4 f9 46 3d db 25 10 bc b2 bf 8e bd
       0.037018333 0.048578158 -0.008798088 -0.06970157
0001f0 dc c0 ea 3a 30 b6 93 bd 0f 5f 30 be 63 f7 02 3b
       0.001791026 -0.07212484 -0.17223762 0.001998388
000200 18 2d c5 bd 8b eb a4 bd e1 2f fc bd 27 3f 9c bd
       -0.096277416 -0.08052739 -0.1231382 -0.07629233
000210 84 15 53 bd 7c 10 8f 3c a9 de 26 bd 3e e3 c8 3c
       -0.05153419 0.017463915 -0.04073969 0.02452242
000220 10 a8 ef bb 02 79 98 bd 7e 51 9a bc 33 8c 7b 3d
       -0.007313736 -0.074449554 -0.018837687 0.061413
000230 1e 3a 76 3d 0c 3e 35 3d c8 5e 06 3e 88 e6 e8 bc
       0.06011402 0.044248626 0.13122094 -0.028430238
000240 55 a9 10 3d 61 fa 03 3d 26 00 87 3d 7a fc b4 bd
       0.035317738 0.0322212 0.06591825 -0.088372186
000250 4d a0 85 bd cf f2 14 3d 99 e6 d8 3d 9a a3 aa 3d
       -0.065247156 0.036364373 0.10590858 0.08331986
000260 e2 2f 3f 3c 65 9a b0 bc 9b 49 18 3e d7 1f 98 3c
       0.011669131 -0.021557996 0.14871828 0.01856987
000270 4a 1d 3e 3e 6c a2 a8 bd 15 d7 40 bb ab 21 65 bc
       0.1856586 -0.082341045 -0.0029425074 -0.013985078
000280 4a dd 4c 3d 91 d5 58 3e 4b 0e 9b 3d c8 42 c9 bd
       0.050015725 0.21175219 0.075710855 -0.09827191
000290 a3 4c 38 3d 05 e5 5e be 4d 7e a8 bd 62 9d f7 3c
       0.04499496 -0.21767052 -0.08227215 0.030226413
0002a0 fd bd 06 3e 34 05 d1 bd eb ce 38 3c b8 c2 80 bd
       0.13158412 -0.102060705 0.011279802 -0.0628714
0002b0 ed 1e a4 3d 54 a0 dc bd cc 0a 81 bc 63 69 a6 3d
       0.08013711 -0.10772768 -0.015752219 0.0812557
0002c0 f6 c4 04 3d 65 af 63 3d 90 7a 3b 3e 8b 4a 57 bd
       0.0324144 0.05558719 0.18308473 -0.052561324
0002d0 85 42 44 bc d4 f2 3a be 2e c0 9c 3d c6 d3 b9 3d
       -0.01197875 -0.18256694 0.07653843 0.09073596
0002e0 e6 31 0e 3c 24 aa 08 be 34 51 21 be b4 5d 2b bc
       0.008678889 -0.13346153 -0.15753633 -0.010459352
0002f0 66 18 ef 3c 65 18 12 be 7b 67 b4 bd f7 1c c1 bd
       0.029186439 -0.14267118 -0.088088 -0.09429353
000300 67 7a d4 bc f0 ac b5 3d 25 69 bd 3d 03 11 9c bd
       -0.025937272 0.08870876 0.0924857 -0.07620432
000310 aa e8 8b bd 08 a9 a5 bc 63 2f 95 3c 94 6f 88 bd
       -0.068314865 -0.020222202 0.018211072 -0.06661907
000320 43 c9 af bd e2 b1 20 3d f8 4a 52 3d 23 a0 6e bd
       -0.085833095 0.039232142 0.051341027 -0.058258187
000330 b0 b8 5c 3d 72 19 f4 bd ea 08 2d bb 1c 62 8b bd
       0.05388707 -0.11918916 -0.0026403018 -0.06805822
000340 1f da 92 bb fd 65 88 3c 4d c8 e8 bd c3 7a fb bc
       -0.0044815685 0.016650194 -0.11366329 -0.030698186
000350 cb 85 38 bd b6 e4 18 be 77 0a 00 3c 74 1a a8 bd
       -0.04504947 -0.14930996 0.007814995 -0.082081705
000360 bc f7 46 3d 30 b0 48 bc 6f ef ca bd cc 10 80 bd
       0.0485761 -0.012249038 -0.099089496 -0.06253204
000370 42 ba ee 3c 2f 48 15 bd 6c c9 55 3d de 5c 65 3d
       0.029141549 -0.036445793 0.052194044 0.05599677
000380 b5 bb 8e bc
       -0.01742349

layer1.bias f4 [25]
000000 97 25 63 bd 59 15 1a be 6e 2e c7 3d 72 4f 52 be
       -0.05545577 -0.15047206 0.09725653 -0.20538118
000010 d8 83 87 3e ae d4 f3 3d 58 25 0c be a6 0c 94 3e
       0.26467776 0.119058 -0.1368612 0.289159
000020 3f c7 9a be d8 b8 63 be 28 d8 a1 3e 3c cd 42 be
       -0.30230138 -0.22238481 0.31610227 -0.19023603
000030 39 c9 a3 be d7 63 99 be 5c 65 ef bd 0c e4 03 3e
       -0.31989458 -0.29958984 -0.11689255 0.12879962
000040 13 40 4a 3e 1e 05 9a 3e d5 70 99 be ea 66 bd bc
       0.19751005 0.3008203 -0.29968897 -0.023120362
000050 b3 08 a0 3e 47 bf be bc fb 97 95 3d 32 3e 81 be
       0.31256637 -0.023284568 0.073043786 -0.25242764
000060 fd c0 2c be
       -0.16870494

layer2.weight f4 [50, 25, 3, 3]
000000 17 1d 2e bc 1a 5d 7e bd 4f 1a c1 3c 78 cc 8b bd
       -0.010627053 -0.062100507 0.023572115 -0.06826109
000010 a1 18 70 bd 32 59 fa bc 56 d4 bf 3d 26 fa f2 bc
       -0.058617238 -0.03056011 0.09366672 -0.029660296
000020 c0 4d aa bc b1 cc 53 bc 03 2b fe bc ea 51 c2 3b
       -0.020789027 -0.01292722 -0.031026369 0.005930175
000030 8b 4d 37 3d a5 89 04 3c 55 62 8a bd e9 91 ca bd
       0.044751685 0.008089458 -0.067570366 -0.098911114
000040 18 13 15 bd 8a ee a4 3c fb 77 51 bb 4f f6 80 bd
       -0.036395162 0.020133276 -0.0031962383 -0.0629698
000050 b1 78 f5 bd a9 0f da 3b bc 2e 63 bd 4e bd 1c 3c
       -0.11985911 0.006654699 -0.05546449 0.009566618
000060 06 6c 07 bd 25 33 52 bc 2a a3 67 3d fb 77 8f bc
       -0.033062004 -0.012829577 0.05655209 -0.017513266
000070 d4 d5 fb bd 63 9d 8c bd cf 53 bd bc f9 d8 0d 3d
       -0.12296644 -0.06865957 -0.023111252 0.03463075
000080 2a 50 98 bd 6e 10 f0 bc c6 0d 22 3d 09 81 65 bd
       -0.07437165 -0.02930471 0.039563917 -0.05603126
000090 d9 4a 81 3c a4 10 8a bc 30 a9 f3 bc f6 34 80 bd
       0.01578276 -0.016853638 -0.02974376 -0.062601015
0000a0 61 b5 32 3e 2b 9d a5 3c 7c 53 89 3c 3d 67 cd 3d
       0.17452003 0.020216545 0.016763441 0.10029457
0000b0 e2 63 88 3d fa e9 68 3b 5b 8a d9 bc 52 ac 56 3d
       0.06659676 0.0035539852 -0.02655523 0.05241043
0000c0 26 e2 48 3d e8 2f b3 bd 87 f2 42 3d 67 14 40 bc
       0.049043797 -0.08749372 0.047594573 -0.011723614
0000d0 ad 63 84 3d 88 79 e6 3c 59 7a db 3d 47 af 87 3d
       0.06464324 0.028134122 0.10716695 0.066252284
0000e0 fd 9d 50 3d 86 42 9f bd c6 8c 12 bb b4 4b f5 bb
       0.05093192 -0.0777636 -0.002236174 -0.007485831
0000f0 b2 30 24 3d c2 1d f0 bd 7a 33 70 bd 00 f2 a6 3b
       0.040085502 -0.11724426 -0.058642842 0.0050947666
000100 45 d5 4c 3d f7 26 bc 3c f3 f6 80 ba cd c8 a5 3c
       0.050008077 0.022967799 -0.0009839222 0.02023735
000110 77 0d 57 bc 8b 53 c1 3d 36 30 88 3d 04 cf 28 3d
       -0.013125769 0.09439763 0.066498205 0.04121305
000120 7c ee ed 3b f6 cb b6 3c 40 82 ea 3c f7 c3 98 3d
       0.0072610956 0.022314053 0.028626561 0.07459252
000130 a8 d5 be bc f9 20 84 bd db 6d 15 bc ad af cd bc
       -0.023295239 -0.064516015 -0.00912043 -0.025108183
000140 67 45 21 3d ea 8c d6 3d 78 47 15 3d 52 6c 07 3d
       0.039372828 0.10476096 0.03644511 0.033062287
000150 e7 3e 29 bc 9f 4c 96 3b d5 0c 97 3d 07 25 67 ba
       -0.0103299385 0.0045867707 0.073754944 -0.0008817468
000160 76 4d 58 bd 6e b3 08 3e d2 47 de bc 53 45 db 3b
       -0.052808248 0.13349697 -0.027133856 0.0066916137
000170 70 9e 95 bc b1 00 94 bd 64 54 0b 3d e1 87 a4 bd
       -0.018264025 -0.072266944 0.034016028 -0.08033729
000180 87 35 1c 3d d9 74 58 3b 5a 8a 00 bc 66 4b 77 3d
       0.038136985 0.003302863 -0.007845486 0.06037464
000190 cd f8 47 bd 2d 31 a6 bd 42 7a 6c 3d 32 99 52 3d
       -0.04882126 -0.08114848 0.05773378 0.05141563
0001a0 47 35 00 bd 0b fc 48 bb e8 f4 59 bc 66 17 90 bc
       -0.03130081 -0.0030667807 -0.013303019 -0.017589282
0001b0 fc 79 fa bc e6 84 03 3d 27 65 3c 3d 58 bb d4 bc
       -0.030575745 0.032109164 0.045994904 -0.025968239
0001c0 7f 8a df 3c be 47 ea 3b 21 8d 64 bb 68 0e f0 bc
       0.02728772 0.0071496656 -0.0034874158 -0.029303744
0001d0 da 11 68 bd 11 28 4b bd 66 4c eb 3c 48 76 92 3c
       -0.05665765 -0.049598757 0.028722953 0.017878667
0001e0 65 71 62 3d 89 2a a0 3d 4a b5 c7 bd 53 f9 d1 3c
       0.055283923 0.07820613 -0.09751375 0.025631582
0001f0 6b 60 5b bd ac dc e6 bc a0 44 64 3b 95 26 80 3c
       -0.05355875 -0.028181396 0.0034830943 0.015643397
000200 97 ef e5 3c bc 86 ac bc 88 94 97 3c 49 6e 21 bc
       0.028068347 -0.02106034 0.018503442 -0.009852954
000210 d5 a0 b9 3d 4b 3c 8d bd 0e f0 65 bd 6b 16 81 bc
       0.090638794 -0.068962656 -0.056137137 -0.01575776
000220 b0 12 80 ba 2f f0 88 bb 28 08 b9 3c 54 06 7f bd
       -0.0009771194 -0.0041790227 0.022586897 -0.062261894
000230 7c 67 1a bd 87 4b fc b9 a1 f8 09 3d 8d 81 03 3d
       -0.037696347 -0.00048121458 0.033684377 0.03210597
000240 68 1d d9 bc e7 72 ed bd 1e 2d 31 3c d6 e6 44 bb
       -0.02650328 -0.115941815 0.010813979 -0.0030044816
000250 78 1d c8 3d 74 0f 1d 3d fd bc 95 3d 93 1e 49 bd
       0.09771246 0.038344815 0.07311437 -0.049101423
000260 6c f7 44 bd 17 18 00 bd 86 7e 58 ba 60 33 de bd
       -0.048087522 -0.031272974 -0.00082585996 -0.10849643
000270 34 f9 63 bb b9 e4 a0 bd b3 35 c1 bd 18 d9 b8 3c
       -0.0034785988 -0.078561254 -0.094340704 0.022564456
000280 76 a1 c1 3d 3c 78 2a 3d 0a 33 f9 3c 47 21 d1 bd
       0.09454624 0.04161857 0.030419845 -0.10211425
000290 be f5 39 3d 36 d9 35 bd bd 93 5f bd e5 44 cf 3d
       0.045400374 -0.0443966 -0.054584254 0.101205625
0002a0 25 16 9f 3d f6 34 9d bd 0e 55 5a 3c ef e8 95 3c
       0.077678956 -0.07676117 0.013325943 0.018299548
0002b0 74 7a 0c bd af b1 6a bc d6 c4 44 bc b9 9a 28 bd
       -0.034296468 -0.01432459 -0.01200982 -0.04116318
0002c0 eb b7 84 bc d8 1b c0 bd 70 33 f5 bc 7c 44 cb 3c
       -0.01620098 -0.09380311 -0.029931754 0.02481293
0002d0 79 61 c1 bd 59 8d 88 3c c5 72 e3 3c 2d 2c 41 bc
       -0.094424196 0.016668962 0.027764687 -0.0117903175
0002e0 b7 1c 48 bd a3 f3 c7 3c f0 7d 33 3d 32 84 9b bc
       -0.04885551 0.024408167 0.043821275 -0.018983934
0002f0 2a 2c 49 3d 67 ba a0 3c fd b1 ca 3c bb 76 a8 3d
       0.049114384 0.019620134 0.024743075 0.08225771
000300 37 c4 b5 bc 9b f2 0f 3e 7a 1d 21 3d fb 71 3b bd
       -0.02218829 0.1405739 0.03933475 -0.045762997
000310 9e 3c 69 bd fb e6 1f 3c 3d 9b 17 bc 0e 9e fb bc
       -0.056942575 0.00975966 -0.00925332 -0.030715015
000320 79 20 80 3c 4e 41 a9 bc 12 cd ad 3d c2 8d 1c bc
       0.015640484 -0.020661023 0.0848638 -0.009555282
000330 a5 fb 71 3c 80 d7 b9 3c 81 7d 92 3d 26 02 12 bd
       0.014769469 0.022685766 0.07152844 -0.03564658
000340 46 ca d9 bd 21 9a e0 3b aa 53 11 3d 2c 42 5f 3d
       -0.10634284 0.006854311 0.03548018 0.054506466
000350 03 0a 8a 3c b8 48 20 bd c8 fc dd bc 67 2f 0b 3c
       0.016850477 -0.03913185 -0.027098075 0.008495188
000360 33 00 0b bd 16 52 c7 bc 54 dd 13 bd 10 f3 55 bd
       -0.033935737 -0.024331134 -0.036099747 -0.052233756
000370 a3 05 c7 3d 46 00 3c bd 1d 3c 84 3d 19 9f 30 3c
       0.09717872 -0.0458987 0.06456778 0.010780119
000380 cb 43 83 3d 55 d8 2c bd c5 1e 8b bd 28 11 c8 3d
       0.06409415 -0.042198498 -0.06792978 0.09768897
000390 a9 b5 e6 bc 30 1c 7a bd c4 23 66 3d b3 17 8a bd
       -0.028162794 -0.061062038 0.056186453 -0.067428015
0003a0 7f 65 fe bc bf d2 1b be 00 a7 7a 3c 29 13 05 3d
       -0.031054256 -0.15217112 0.015298605 0.032488976
0003b0 ee cc da bd ce 4c 59 bb cc 2a 41 3c b1 e5 9a 3d
       -0.106836185 -0.0033157351 0.011789989 0.075633414
0003c0 a1 e0 0d 3d 25 d2 dd 3b ec 63 3b 3c 43 f5 9a 3d
       0.03463805 0.006769436 0.011437397 0.07566311
0003d0 6b fe 69 3c 48 ba 9f bc 8e 56 a7 3d f8 4a 9d 3c
       0.014281849 -0.019498006 0.08170806 0.019200787
0003e0 73 8b 17 3e ad db 1f bd 31 ba 44 bd f1 49 41 bc
       0.1479929 -0.03902786 -0.04802913 -0.011797414
0003f0 a9 3f 78 3d a4 41 d3 3d 65 d9 98 3d b8 5b 82 bd
       0.060607586 0.10315254 0.0746334 -0.0636515

layer2.bias f4 [50]
000000 ea 5a 8f bd 83 1d 9e bc c8 72 42 bd d8 74 dc 3c
       -0.06999762 -0.019301182 -0.047472745 0.026911184
000010 00 d8 b9 38 56 0f 95 3d 2b 1c 5f bb 2f 7c 70 b8
       8.8617206e-05 0.07278316 -0.003404389 -5.7336114e-05
000020 d3 9a 67 bc e2 bc 7c bc 2e bb 73 bd 45 5b 28 bc
       -0.014136034 -0.015425893 -0.05950468 -0.010275667
000030 d4 d8 3d 3d 74 c6 a1 bc f9 f5 c3 3a e9 7e 57 3d
       0.04634936 -0.01974795 0.0014950625 0.052611265
000040 15 34 38 3d d5 3e b1 bc e5 25 6d 3b 96 5c 30 bd
       0.044971544 -0.021636406 0.0036185917 -0.043057047
000050 4a 4a 17 3d b9 d1 41 3d 5f db 6d bd 49 87 75 3d
       0.036936082 0.047319148 -0.058070537 0.05994347
000060 e7 73 90 bd 5f cf b9 3c 45 d3 05 bc 78 85 0f 3d
       -0.070533566 0.02268189 -0.008168046 0.035039395
000070 ef f6 5f 3d 03 46 6c bc 93 11 97 3c 02 d0 60 3d
       0.054678854 -0.014420989 0.018440997 0.05488587
000080 69 25 1e 3d 5c 84 de bb eb cf 0f 3d 2b d4 8d 3d
       0.038609896 -0.006790681 0.035110395 0.069252335
000090 fd 54 ef ba 61 8e a5 3c a2 1c 09 bd c5 43 72 3c
       -0.0018259581 0.020209493 -0.033474572 0.014786665
0000a0 11 3e aa bb f7 4c 45 bc df fe 61 bd ec be 12 3c
       -0.005195387 -0.012042276 -0.055174705 0.008956652
0000b0 78 bb bd 3c 30 e3 60 3d 0b b4 9b bc 76 3f d2 bc
       0.023160681 0.054904163 -0.01900675 -0.025665026
0000c0 16 6e 27 3d 41 1e 35 3d
       0.04087647 0.044218305

layer4.weight f4 [25, 50, 3, 3]
000000 b5 96 ba bd 0d 2e 4c bc 1e 8f 0a bd 47 af ea bd
       -0.09110776 -0.012462151 -0.033827893 -0.11459213
000010 9d 4f 7b bd 46 79 8a 3c 7c 97 aa 3c 03 20 01 bd
       -0.061355222 0.01690353 0.020824187 -0.03152467
000020 1b 0e 50 3d a3 e4 76 ba 03 24 70 bc e8 80 f4 bd
       0.050794702 -0.0009418225 -0.014657023 -0.119386494
000030 e9 2d a8 3d 1e 63 46 3d f2 33 e5 3c 42 92 92 ba
       0.08211882 0.04843437 0.027978871 -0.0011182504
000040 d9 9e 2e 3c 55 f8 12 3d 37 b3 1c 3c 45 9d a1 3d
       0.010657989 0.03588136 0.0095642125 0.07891325
000050 ec 9a 9f 3c c5 b5 02 3e 7f e9 a2 bc f8 5b 80 3d
       0.019483052 0.12764652 -0.01988673 0.06267542
000060 82 94 2b 3c e5 5e e5 3d 86 a8 06 3d 52 bc 10 bd
       0.010472419 0.1119974 0.03287556 -0.035335846
000070 42 f8 c2 3d 04 df 8d bd 0e 0d 50 bd 2e 13 32 3d
       0.09520008 -0.069273025 -0.0507937 0.043475322
000080 0b 05 88 3d 15 90 09 bd 70 0f 27 3d ce 94 52 3c
       0.06641587 -0.033584673 0.040786207 0.012852861
000090 df 7c 22 bd 68 8c 30 bd 11 dc a6 bd 3a 2b 0a 3e
       -0.039669868 -0.04310265 -0.08147443 0.13493052
0000a0 4d 80 88 bc 83 6c ef 3c 0f 4d 38 bd c7 48 e0 bd
       -0.016662741 0.029226547 -0.044995364 -0.10951381
0000b0 55 ac a4 bd 70 55 29 3d 7d ef ae bd d7 0e fc 3d
       -0.08040682 0.041341245 -0.085417725 0.12307518
0000c0 fa 7f 89 bd c5 71 0b 3d 48 f8 c3 3b f9 0d 20 bd
       -0.06713863 0.034044046 0.005980525 -0.039075825
0000d0 16 e5 7d bd 76 7e b0 3d 68 a8 31 3c c4 a8 71 bd
       -0.06198605 0.086178705 0.010843374 -0.058998838
0000e0 4b de 00 3e 9f 7b 95 3d a6 47 f1 bc 6a 65 37 3c
       0.12584798 0.072989695 -0.02945311 0.011193613
0000f0 17 d9 a1 3d f5 45 0f bc 16 3b 26 be 62 1b 02 3c
       0.07902735 -0.008744706 -0.16233477 0.007941099
000100 71 af e4 3c cc de ce 3d 09 57 86 bd 07 f9 32 bd
       0.027915688 0.10101089 -0.065595694 -0.043694522
000110 ea 10 10 bd 65 33 a5 bd d4 e7 38 3d 3f 09 eb ba
       -0.03517238 -0.08066443 0.045142964 -0.0017931833
000120 33 eb 8f 3d 5b 30 c5 bc 12 4f 63 bd 67 02 0c 3d
       0.070272826 -0.02407091 -0.05549533 0.03418198
000130 7b 2d 99 bc 40 85 93 3d 4d b2 42 bd 08 6e 0b 3d
       -0.018698445 0.0720315 -0.047533322 0.03404048
000140 d9 1c 2a bd 4d ce e3 3c b4 da 5a 3d b3 f4 59 3d
       -0.041531418 0.027808333 0.053431228 0.05321188
000150 6b 47 92 3d fd bc 3c bd cd ac cc bd 14 92 e9 bc
       0.07142528 -0.04607867 -0.09993897 -0.028512038
000160 e3 b5 9c 3d 65 88 08 bc 3c 01 d3 bc 8b b6 1e 3b
       0.0765188 -0.0083333 -0.025757425 0.002421769
000170 69 67 54 3d 7d e5 59 3d bc a2 e5 3a f7 53 89 bd
       0.051856432 0.053197373 0.0017519812 -0.06705468
000180 2d 96 c7 bc a3 07 ba 3c b8 53 0e bd 21 0b 2a bd
       -0.024363602 0.02270872 -0.03474781 -0.04151452
000190 e5 68 7a 3d b9 20 18 3d 05 2b 04 be 01 e0 7d bc
       0.06113519 0.03714058 -0.12907036 -0.015495301
0001a0 19 99 7a bd 93 c1 96 3d eb 96 8c bd 5a 40 96 3c
       -0.06118116 0.0736114 -0.06864723 0.018341232
0001b0 da 2f f8 3c c1 bb 06 3d 99 1a ee 3c 6f 7a dc bd
       0.030296255 0.0328939 0.029065417 -0.1076554
0001c0 5e d6 28 bd b2 3a ee bd 99 54 95 bd 7b bc 3a bc
       -0.04122006 -0.11632289 -0.07291526 -0.011397476
0001d0 db fd d7 3d c8 5f 5d 3c 11 06 19 3c 0b 29 9b bc
       0.10546466 0.013511606 0.009339825 -0.01894047
0001e0 a3 35 ca bc 25 05 12 be 45 60 54 bd e4 24 5f 3d
       -0.02468378 -0.14259775 -0.051849622 0.05447854
0001f0 45 80 13 bd eb 8e 09 bc 57 04 63 3c 51 f7 17 bd
       -0.036011 -0.008395891 0.013856015 -0.037101094
000200 41 58 f3 3c 92 42 d7 3d c2 b6 8d 3c 78 cb b0 ba
       0.029705169 0.10510744 0.01729906 -0.0013488373
000210 52 02 cb bd 70 84 f1 bc b8 56 32 3d ce 63 e8 3c
       -0.09912552 -0.029482096 0.043539733 0.028367903
000220 91 6e 2c 3d 9a 04 10 be 10 95 2a 3c 0c 48 bb bd
       0.04209763 -0.14064255 0.010411516 -0.09144601
000230 e0 cb e7 bb 7c 8f f7 bc aa 5c cf 3d 93 58 df 3c
       -0.0070738643 -0.030219786 0.10125096 0.027263915
000240 63 ca 16 3d 6b 75 13 bd 33 88 ec 3c d6 3d 63 bd
       0.036814105 -0.03600065 0.028873539 -0.055478893
000250 cb 39 ac 3b 83 c9 92 3c c6 90 88 bd 22 ab 68 bc
       0.005255913 0.017918354 -0.06668238 -0.0142009575
000260 e3 09 83 3c 20 10 8a 3c 06 42 f2 3d ea af 00 3e
       0.015995925 0.016853392 0.11828999 0.12567106
000270 d1 1a 61 bd 2b f3 66 bd af 80 d4 bd 4c cb 2f 3d
       -0.054957215 -0.056384247 -0.10376107 0.04291849
000280 87 df 0f be 51 35 15 bd 3c 13 07 3e 14 5d 54 bd
       -0.14050113 -0.0364278 0.13190931 -0.05184658
000290 2e 8a 4a 3a 9f 4d 57 3d d9 be 8b 3d 05 37 2d 3e
       0.0007726279 0.05256426 0.06823511 0.1691552
0002a0 2a 72 4e 3d ee 52 6a 3d c9 48 33 bd db 57 7a 3c
       0.050401844 0.057207994 -0.043770585 0.015279735
0002b0 72 e5 89 3d 2a 4f 88 3d 98 d0 52 bd 03 ca a6 ba
       0.06733216 0.06655724 -0.05146846 -0.0012724999
0002c0 05 a5 2a bc 43 b1 1d bd 46 53 94 bd dd 2f 9e bb
       -0.01041532 -0.038499128 -0.07242446 -0.004827483
0002d0 75 15 df 3c ac e8 1a bd f4 7a 98 3d f9 63 6f 3d
       0.027231911 -0.03781955 0.074453264 0.05844495
0002e0 83 63 34 3d 6a 96 cb 3c 69 20 9d bc cb 2a 53 bd
       0.044040214 0.024851996 -0.019180493 -0.051554482
0002f0 45 83 75 3d 7e 2f 12 be e1 2b 4b 3d 58 e0 72 3d
       0.05993964 -0.1427593 0.049602393 0.059295982
000300 03 99 81 3a 59 11 22 3d 04 c7 3a bd 6e 6a 4e 3c
       0.000988752 0.039567325 -0.045599952 0.012598617
000310 d9 e5 06 3d 64 c4 ca bc 00 fa cc 3d 08 a2 80 3d
       0.032934044 -0.02475185 0.10008621 0.06280905
000320 d3 62 45 3d 91 78 54 bd ce e0 95 bd 3f ac bf bd
       0.04818995 -0.051872794 -0.07318269 -0.09359025
000330 a4 7b 88 3d aa c4 a5 bc 9b 41 30 bc 7a a2 87 3c
       0.066642076 -0.020235378 -0.010757829 0.016556967
000340 43 13 d3 bd 31 16 9c bd bd a2 b5 bd a1 2d 66 3d
       -0.10306408 -0.0762142 -0.088689305 0.05619586
000350 6d e1 64 bc 89 79 d0 3d d5 35 7c bc 6f 9c ba 3b
       -0.013969761 0.10179431 -0.015393694 0.005694918
000360 d2 6c 9f 3d 8a 63 ba 3d 26 68 46 3d 09 e4 03 3e
       0.07784428 0.09101017 0.048439167 0.12879957
000370 83 e1 cf b9 d0 e6 39 3d 98 d6 af 3d b4 00 2d bd
       -0.00039650136 0.045386136 0.085858524 -0.042237
000380 a8 24 f1 3a 23 0c a9 bd b0 1d 7a 3d f7 fc 2a bd
       0.0018397765 -0.08254268 0.06106347 -0.041745152
000390 7e 4d bb 3c 5c 16 d5 3c 2c 71 8e bc 0b c1 84 3a
       0.0228641 0.026011638 -0.017387949 0.0010128332
0003a0 9a 90 a1 bd e2 1a 47 3c 2a db 88 bd 97 96 9d 3d
       -0.07888909 0.012152405 -0.06682427 0.07694738
0003b0 c9 32 b2 bd 4b fc 06 bd 36 4c c9 3c d9 75 e8 bb
       -0.08701093 -0.03295545 0.024572473 -0.0070941267
0003c0 69 df d1 3d 02 37 4f bc 10 4c 53 bc a2 72 eb ba
       0.1024769 -0.012647392 -0.012896553 -0.001796324
0003d0 64 94 72 bd 71 b2 04 3c ad 80 64 3c e7 11 f5 bc
       -0.059223548 0.008099184 0.013946694 -0.029915763
0003e0 95 68 d4 bd 69 bd d1 bd 3e 03 dc ba 71 ea c0 3d
       -0.1037151 -0.10241205 -0.0016785634 0.09419716
0003f0 19 fc 80 bb 73 27 42 bd 9c fb 79 3d 52 26 14 bc
       -0.0039363024 -0.047400903 0.06103097 -0.009042339

layer4.bias f4 [25]
000000 17 fc 40 3c 8f ce c2 3c 8f b0 d7 bc 90 a7 1f bd
       0.011778853 0.023780135 -0.026329307 -0.03897816
000010 8c d7 24 3d b7 6e 39 bd 10 56 b6 bc 13 69 17 3d
       0.040244624 -0.0452716 -0.022257835 0.03696544
000020 c6 30 02 3c 17 28 eb bc bb 37 6a 3b 44 af 4c 3c
       0.007946199 -0.02870564 0.0035738784 0.012492958
000030 08 55 12 3d fe 12 07 3d b8 db 03 bc 29 2c ca bb
       0.035725623 0.032977097 -0.0080479905 -0.006169815
000040 a1 2d 33 3d 5b 10 11 bd 7f b8 23 3d 3a 2b 10 3c
       0.043744687 -0.03541599 0.03997087 0.0087993685
000050 b5 95 ab 3c 4d f7 3b 3d c2 f0 d6 bc eb 51 91 bc
       0.02094541 0.04589014 -0.02623785 -0.017739257
000060 11 fe be bc
       -0.023314508

exp_avg f4 [25, 1, 3, 3]
000000 60 22 14 c8 44 1e 36 c8 56 1f 47 c8 7c 98 1a c8
       -151689.5 -186489.06 -203901.34 -158305.94
000010 b6 be 3a c8 6b f0 49 c8 a2 7f 0f c8 72 ac 2a c8
       -191226.84 -206785.67 -146942.53 -174769.78
000020 54 04 35 c8 a2 31 20 c8 e2 da 20 c8 ec c6 0c c8
       -185361.31 -164038.53 -164715.53 -144155.69
000030 75 9e 19 c8 06 01 17 c8 2a 49 02 c8 18 b2 01 c8
       -157305.83 -154628.1 -133412.66 -132808.38
000040 e8 87 f6 c7 9c dd ca c7 ca 70 33 c8 cc 3f 2a c8
       -126223.81 -103867.22 -183747.16 -174335.19
000050 a0 3f 0d c8 d9 dc 29 c8 b1 20 20 c8 16 7c 01 c8
       -144638.5 -173939.39 -163970.77 -132592.34
000060 b0 96 10 c8 f4 01 06 c8 71 77 d0 c7 ab a3 c0 c7
       -148058.75 -137223.81 -106734.88 -98631.336
000070 ee bc cc c7 ee 91 c4 c7 3a 67 ce c7 da be cd c7
       -104825.86 -100643.86 -105678.45 -105341.7
000080 8a 31 b6 c7 3d 19 c8 c7 ac b5 b9 c7 84 57 94 c7
       -93283.08 -102450.48 -95083.34 -75951.03
000090 01 89 9f c6 7c 9c a9 c5 fa f4 b8 45 52 9b ee c5
       -20420.502 -5427.5605 5918.622 -7635.415
0000a0 f9 70 d0 45 7c 10 7d 46 dc 91 7a 45 7e 31 83 46
       6670.1216 16196.121 4009.1162 16792.746
0000b0 90 ac b3 46 be e0 11 c8 da c9 21 c8 14 0c 1f c8
       22998.281 -149378.97 -165671.4 -162864.31
0000c0 7a 72 ec c7 b5 c0 05 c8 4e 3e 06 c8 96 4f 9f c7
       -121060.95 -136962.83 -137465.22 -81567.17
0000d0 28 23 bb c7 9a 57 c0 c7 f6 2d 01 48 7d 61 f9 47
       -95814.31 -98479.2 132279.84 127682.98
0000e0 0c ce d6 47 a5 6c fa 47 32 13 fc 47 78 c7 e4 47
       109980.09 128217.29 129062.39 117134.94
0000f0 1f 9f dd 47 0e 36 e7 47 02 86 dd 47 dc 6f 90 47
       113470.24 118380.11 113420.016 73951.72
000100 d0 38 b9 47 75 cc c6 47 6a bd a1 47 85 bf c1 47
       94833.625 101784.914 82810.83 99199.04
000110 dd 00 c5 47 c2 10 a0 47 b9 ab b5 47 8a 7f ac 47
       100865.73 81953.516 93015.445 88319.08
000120 46 51 1e c8 54 0c 36 c8 f8 8b 3d c8 0b e9 0f c8
       -162117.1 -186417.31 -194095.88 -147364.17
000130 78 82 1f c8 9b 08 21 c8 62 9d dc c7 48 34 e9 c7
       -163337.88 -164898.42 -112954.766 -119400.56
000140 4e 95 df c7 c0 5d 30 48 a5 d7 42 48 6e 04 3a 48
       -114474.61 180599.0 199518.58 190481.72
000150 c8 71 33 48 60 9a 46 48 70 e4 3e 48 a4 44 20 48
       183751.12 203369.5 195473.75 164114.56
000160 da 63 33 48 ee ea 2d 48 5a ce 04 c8 dc b2 1e c8
       183695.4 178091.72 -135993.4 -162507.44
000170 ad 92 25 c8 b6 7e 05 c8 90 03 1f c8 02 a5 24 c8
       -169546.7 -136698.84 -162830.25 -168596.03
000180 9e 0e f0 c7 37 af 0e c8 80 68 14 c8 80 0c 69 48
       -122909.234 -146108.86 -151970.0 238642.0
000190 2d 14 86 48 48 6f 87 48 e3 ea 7c 48 72 8e 89 48
       274593.4 277370.25 258987.55 281715.56
0001a0 35 79 84 48 38 ce 75 48 86 49 7d 48 88 f7 65 48
       271305.66 251704.88 259366.1 235486.12
0001b0 bb aa 3c c8 76 a0 6a c8 7e 12 7b c8 0a be 3e c8
       -193194.92 -240257.84 -257097.97 -195320.16
0001c0 42 28 66 c8 67 51 6f c8 9e ac 2e c8 c0 2c 4c c8
       -235681.03 -245061.61 -178866.47 -209075.0
0001d0 42 9d 4c c8 e4 77 54 c7 c3 64 29 c7 98 9a d2 c6
       -209525.03 -54391.89 -43364.76 -26957.297
0001e0 44 c0 bc c7 47 11 aa c7 67 2e 84 c7 c6 58 00 c8
       -96640.53 -87074.555 -67676.805 -131427.1
0001f0 80 04 f0 c7 6a 8a c6 c7 10 ea da 47 1b fa 02 48
       -122889.0 -101652.83 112084.125 134120.42
000200 ee 89 07 48 c6 e9 97 47 ba 6b ac 47 ed 39 a8 47
       138791.72 77779.55 88279.45 86131.85
000210 ae 5b 22 47 21 e2 1d 47 d9 12 f0 46 9a e0 84 c7
       41563.68 40418.13 30729.424 -68033.2
000220 76 0e a8 c7 d5 11 bc c7 1a af aa c7 e5 7b d2 c7
       -86044.92 -96291.664 -87390.2 -107767.79
000230 49 7d e7 c7 d7 71 c7 c7 a0 85 ef c7 ec d1 00 c8
       -118522.57 -102115.68 -122635.25 -131911.69
000240 63 e7 f9 c6 14 f2 a9 c6 66 25 02 c6 84 82 b8 c6
       -31987.693 -21753.04 -8329.35 -23617.258
000250 76 97 7a c6 25 8f a8 c5 08 97 5c c6 fe 26 14 c6
       -16037.865 -5393.893 -14117.758 -9481.748
000260 b1 69 3e c5 82 4b 16 c8 db df 11 c8 3c 9d 01 c8
       -3046.6057 -153902.03 -149375.42 -132724.94
000270 f8 30 30 c8 39 2b 28 c8 f9 6d 12 c8 29 37 36 c8
       -180419.88 -172204.89 -149943.89 -186588.64
000280 44 89 28 c8 f4 14 0e c8 1a 40 62 47 5f 3a 93 47
       -172581.06 -145491.81 57920.1 75380.74
000290 5a a6 a2 47 f0 35 98 47 2b a5 b8 47 f0 74 c2 47
       83276.7 77931.875 94538.336 99561.875
0002a0 6c e5 b5 47 fa 1b cf 47 02 11 d1 47 00 88 1e c8
       93130.84 106039.95 107042.016 -162336.0
0002b0 6e ec 16 c8 f9 3d 04 c8 5d fc 1d c8 ad da 13 c8
       -154545.72 -135415.89 -161777.45 -151402.7
0002c0 48 7a fd c7 50 ed 0e c8 f5 5d 02 c8 e4 5d d9 c7
       -129780.56 -146357.25 -133495.83 -111291.78
0002d0 ec 23 81 44 98 e8 5c c5 6e 74 34 c6 da 38 18 46
       1033.1226 -3534.537 -11549.107 9742.213
0002e0 a5 ef 67 c5 b5 29 a5 c6 bd 1a 3e 46 26 ef fe c5
       -3710.9778 -21140.854 12166.685 -8157.8936
0002f0 7e 6f ff c6 e1 f4 37 48 dc ca 49 48 d2 07 3e 48
       -32695.746 188371.52 206635.44 194591.28
000300 4a ec 3d 48 19 28 48 48 e3 79 35 48 a6 07 30 48
       194481.16 204960.39 185831.55 180254.6
000310 7c cf 30 48 b7 6f 18 48 5f 46 85 47 4a 52 93 47
       181053.94 156094.86 68236.74 75428.58
000320 14 af 8d 47 e3 6d 84 47 83 ea 82 47 60 95 5c 47
       72542.16 67803.77 67029.02 56469.375
000330 6a 20 61 47 ec 5c 3d 47 0a ca f3 46 e8 cd b3 47
       57632.414 48476.92 31205.02 92059.81
000340 3a 3c fd 47 1e f0 13 48 96 0d d6 47 1e 9e 06 48
       129656.45 151488.47 109595.17 137848.47
000350 53 82 11 48 e8 be e0 47 57 45 00 48 07 81 ff 47
       149001.3 115069.81 131349.36 130818.055
000360 4f 22 c7 c7 d6 93 93 c7 50 00 15 c7 d9 41 af c7
       -101956.62 -75559.67 -38144.312 -89731.695
000370 c8 76 78 c7 e5 57 d3 c6 d2 f9 94 c7 bb fa 47 c7
       -63606.78 -27051.947 -76275.64 -51194.73
000380 a9 c0 8e c6
       -18272.33

exp_avg_sq f4 [25, 1, 3, 3]
000000 33 d1 60 50 3e bc 6b 50 06 86 61 50 c9 9d 55 50
       1.5087226e+10 1.581993e+10 1.5134628e+10 1.433555e+10
000010 b2 9f 64 50 50 b5 60 50 8d 97 33 50 65 81 42 50
       1.5342684e+10 1.5079916e+10 1.2052215e+10 1.305304e+10
000020 7e 51 42 50 45 da 0b 50 23 cb 08 50 05 03 dc 4f
       1.3040482e+10 9.38535e+09 9.180057e+09 7.382371e+09
000030 9e e6 14 50 6c 92 11 50 0f 36 ee 4f 07 c6 08 50
       9.992567e+09 9.769169e+09 7.9930404e+09 9.178717e+09
000040 11 4e 03 50 31 0e d7 4f 60 85 84 51 85 9e 71 51
       8.811726e+09 7.216063e+09 7.114667e+10 6.4859165e+10
000050 48 c2 3e 51 b5 c5 92 51 23 51 87 51 5c 77 57 51
       5.1206455e+10 7.8797775e+10 7.264773e+10 5.783878e+10
000060 56 86 8d 51 cc af 83 51 24 1b 54 51 21 ac 35 50
       7.598052e+10 7.069876e+10 5.6936776e+10 1.2191827e+10
000070 a1 84 84 50 ed 1b 9f 50 e8 fd 49 50 8e f5 8e 50
       1.7786276e+10 2.135526e+10 1.3555442e+10 1.9187659e+10
000080 ac 6d a7 50 e3 c4 46 50 82 f5 87 50 2a 22 9b 50
       2.247186e+10 1.3339168e+10 1.824811e+10 2.082166e+10
000090 09 70 29 4f 08 36 bd 4e 60 2c 51 4e 8b ca 9a 4e
       2.8426918e+09 1.5872174e+09 8.773366e+08 1.2984826e+09
0000a0 b9 ac 29 4e 7a 27 26 4e 59 4a 09 4e d2 e9 38 4e
       7.1166726e+08 6.9690125e+08 5.7583776e+08 7.7558285e+08
0000b0 33 aa a0 4e 54 57 60 50 5f 81 77 50 4c 08 66 50
       1.3477544e+09 1.5055278e+10 1.6609803e+10 1.5437214e+10
0000c0 50 4c 19 50 01 80 33 50 53 3e 31 50 89 7f a5 4f
       1.0287661e+10 1.2046042e+10 1.1894607e+10 5.5531976e+09
0000d0 7c 3a d4 4f af fa e3 4f cc a5 ee 50 99 fa bc 50
       7.121205e+09 7.6497137e+09 3.2030745e+10 2.5364318e+10
0000e0 f7 4b 7b 50 fa e0 1f 51 6b f5 05 51 2a da bd 50
       1.6864239e+10 4.2917143e+10 3.5959255e+10 2.5481531e+10
0000f0 1c 4d 3c 51 40 65 25 51 ea c3 f8 50 58 53 96 4f
       5.054672e+10 4.439802e+10 3.3388712e+10 5.044089e+09
000100 db 47 88 4f d1 8a 79 4f 7d ca b0 4f 77 f5 a2 4f
       4.572821e+09 4.1866243e+09 5.9321206e+09 5.4679916e+09
000110 f0 28 93 4f 2f a6 c6 4f 90 b1 b5 4f e5 65 9f 4f
       4.9378673e+09 6.6655596e+09 6.0966257e+09 5.34851e+09
000120 14 26 0a 51 d2 67 0f 51 79 11 01 51 32 ef f1 50
       3.708402e+10 3.8495134e+10 3.4646495e+10 3.247188e+10
000130 f7 b6 f6 50 55 79 da 50 5a e3 ad 50 e5 9d ad 50
       3.3113487e+10 2.9323078e+10 2.3338865e+10 2.330245e+10
000140 8a d1 96 50 83 37 85 51 5f 05 7d 51 d4 f4 4b 51
       2.0242518e+10 7.152025e+10 6.7919802e+10 5.474912e+10
000150 ad b0 a9 51 16 13 a3 51 7f 4a 85 51 b4 b4 b5 51
       9.11017e+10 8.7549985e+10 7.156006e+10 9.75526e+10
000160 fc 4f b0 51 9a ea 91 51 f2 f6 42 50 82 28 6b 50
       9.465702e+10 7.833828e+10 1.3083855e+10 1.5781202e+10
000170 71 60 76 50 8a f2 4f 50 db 14 79 50 d7 62 81 50
       1.6534062e+10 1.3955115e+10 1.6715574e+10 1.7365907e+10
000180 38 ee 43 50 f6 62 68 50 73 2d 70 50 f5 76 de 51
       1.3148676e+10 1.5595198e+10 1.6118042e+10 1.1943481e+11
000190 c1 41 00 52 49 19 f8 51 10 24 f3 51 09 2a 0c 52
       1.3771475e+11 1.3319701e+11 1.3053526e+11 1.5050016e+11
0001a0 b8 dd 07 52 f5 42 e1 51 f8 9a 01 52 2f 52 fb 51
       1.458851e+11 1.20936374e+11 1.3916268e+11 1.3492695e+11
0001b0 14 4b 09 51 32 5f 31 51 5f 70 3c 51 61 bf 1e 51
       3.6854383e+10 4.7612895e+10 5.0583695e+10 4.2613477e+10
0001c0 da eb 44 51 16 d1 49 51 c6 cb 1a 51 7d 9a 38 51
       5.2860658e+10 5.417477e+10 4.1552732e+10 4.9554117e+10
0001d0 b2 55 36 51 23 54 31 4f 36 ea 38 4f fa cf 1e 4f
       4.894511e+10 2.9750812e+09 3.102357e+09 2.66443e+09
0001e0 41 42 cb 4f 31 90 da 4f 3e 77 c2 4f 42 d0 21 50
       6.8202337e+09 7.3337656e+09 6.525189e+09 1.0859121e+10
0001f0 5f 34 31 50 70 0e 22 50 c4 86 43 50 63 5a 5b 50
       1.1891998e+10 1.0875421e+10 1.3121556e+10 1.4720536e+10
000200 bd 5b 4e 50 dc 0e 22 50 19 dc 2c 50 0d db 1c 50
       1.3848475e+10 1.0875531e+10 1.1600422e+10 1.0526406e+10
000210 fd e6 f7 4f 0c 9c f7 4f 58 1e d5 4f b7 c9 b0 4f
       8.318221e+09 8.308398e+09 7.151071e+09 5.932019e+09
000220 1a 38 c0 4f 90 80 b8 4f 7a 4f ca 4f 0f 02 e7 4f
       6.4498043e+09 6.1908664e+09 6.7884124e+09 7.7513436e+09
000230 f4 6e e6 4f 38 15 d1 4f 20 9c f9 4f de 0f 01 50
       7.732062e+09 7.0156575e+09 8.375517e+09 8.661203e+09
000240 67 5f 03 51 b1 32 0c 51 57 e4 04 51 c7 12 1b 51
       3.526508e+10 3.7634118e+10 3.567291e+10 4.1627185e+10
000250 5f 8f 24 51 3e be 1a 51 cb ea 20 51 8c 84 29 51
       4.417375e+10 4.1538544e+10 4.319587e+10 4.5504578e+10
000260 04 1b 1e 51 ae 7e fb 50 37 29 f5 50 0a aa d1 50
       4.244113e+10 3.3755066e+10 3.2904952e+10 2.8140655e+10
000270 d6 38 1e 51 92 88 1c 51 76 9a 07 51 da be 27 51
       4.24724e+10 4.2019135e+10 3.640075e+10 4.5028844e+10
000280 d5 e6 26 51 f0 b6 11 51 71 b6 3b 50 39 43 2d 50
       4.480233e+10 3.9114965e+10 1.2597183e+10 1.1627455e+10
000290 14 f5 11 50 2b 40 45 50 7c a6 38 50 98 54 1d 50
       9.795031e+09 1.3237267e+10 1.2391674e+10 1.0558267e+10
0002a0 e6 91 39 50 c4 f6 2f 50 7a 9b 17 50 51 5b 4a 50
       1.2453386e+10 1.1808739e+10 1.0174196e+10 1.3579929e+10
0002b0 f3 ef 41 50 05 c7 2e 50 5a 10 4d 50 0a ac 45 50
       1.3014912e+10 1.1729114e+10 1.3761604e+10 1.3265545e+10
0002c0 ad 71 33 50 11 9b 3e 50 a3 e5 39 50 67 d5 2b 50
       1.2042286e+10 1.2791334e+10 1.2475338e+10 1.1531558e+10
0002d0 ab 41 09 50 a1 34 e6 4f 20 b8 b6 4f 2c 7b 14 50
       9.211129e+09 7.7244175e+09 6.13104e+09 9.964401e+09
0002e0 59 8d f2 4f aa 07 c3 4f 79 6a 0a 50 c8 50 e1 4f
       8.1386993e+09 6.544119e+09 9.288934e+09 7.5603354e+09
0002f0 56 f3 bf 4f 52 6a 2b 51 23 82 37 51 17 b4 22 51
       6.440791e+09 4.6013948e+10 4.9260147e+10 4.367538e+10
000300 7a 67 49 51 44 0c 55 51 84 eb 3a 51 56 cd 49 51
       5.406403e+10 5.7189614e+10 5.017595e+10 5.4170837e+10
000310 26 0a 53 51 cc d0 37 51 27 43 ae 4f 10 c3 9a 4f
       5.6650523e+10 4.9342628e+10 5.847273e+09 5.19295e+09
000320 da 33 83 4f a4 e4 a2 4f 3a b7 8a 4f e9 75 6d 4f
       4.402427e+09 5.4657864e+09 4.6545275e+09 3.9839276e+09
000330 0d 06 81 4f c5 a7 59 4f 10 ad 49 4f 61 8e 8f 4f
       4.329315e+09 3.6516508e+09 3.3835622e+09 4.8169457e+09
000340 97 50 f6 4f 26 93 24 50 8a 8a a3 4f 68 8a fa 4f
       8.2649533e+09 1.1044428e+10 5.487531e+09 8.406749e+09
000350 28 4c 1d 50 52 dd a4 4f 81 5c de 4f bc 0c 01 50
       1.0556056e+10 5.531936e+09 7.4612086e+09 8.660382e+09
000360 9a ea 25 50 75 35 0c 50 5f 78 ce 4f c4 e9 43 50
       1.1134462e+10 9.409254e+09 6.9279903e+09 1.3147509e+10
000370 2d 0d 23 50 f6 da ea 4f c8 af 59 50 e3 6c 33 50
       1.0942199e+10 7.8804367e+09 1.4608703e+10 1.2041031e+10
000380 3f 0a 00 50
       8.592621e+09

exp_avg f4 [25]
000000 67 54 5f 47 f8 d1 fb 46 7a 71 00 48 cb 9e 9a 47
       57172.402 32232.984 131525.9 79165.586
000010 f4 6e 87 c6 a9 ea 72 47 e6 d4 95 c7 82 cd 26 c7
       -17335.477 62186.66 -76713.8 -42701.508
000020 a5 3d 88 47 04 f9 21 c8 44 10 9c 47 f8 e8 42 c8
       69755.29 -165860.06 79904.53 -199587.88
000030 c1 85 02 48 3c ae d4 47 8a b4 ad c7 50 10 8d 47
       133655.02 108892.47 -88937.08 72224.625
000040 76 cd aa 46 25 92 0b 48 54 50 bd c6 50 b7 33 47
       21862.73 142920.58 -24232.164 46007.312
000050 87 ed 06 47 14 35 0d c8 74 45 0e c5 83 f1 b8 c7
       34541.527 -144596.31 -2276.3408 -94691.02
000060 52 de d2 47
       107964.64

exp_avg_sq f4 [25]
000000 54 cd ae 4f 21 c9 ed 4e 6d 72 00 51 1a 1e 60 4e
       5.865384e+09 1.9946907e+09 3.4479722e+10 9.400173e+08
000010 6e 26 da 4e 49 1b 81 4e 45 74 0b 50 7d d3 02 4f
       1.8299758e+09 1.0830245e+09 9.358611e+09 2.1948982e+09
000020 71 51 55 4f 73 ef 2c 50 7a 17 2c 4e 8c 19 7e 4f
       3.5788844e+09 1.1605495e+10 7.218049e+08 4.263087e+09
000030 a9 35 b9 4e cd b0 c9 4e 5e 43 bc 4e e3 eb ce 4e
       1.5536508e+09 1.6919036e+09 1.5792658e+09 1.7357828e+09
000040 01 c8 da 4e 6a cc 33 4f 38 03 aa 4e de 64 6f 4d
       1.8352703e+09 3.0165181e+09 1.4261688e+09 2.5102282e+08
000050 b0 52 eb 4f 0b 22 00 4f 5e 50 33 4f 1a 02 aa 4e
       7.8961295e+09 2.1497147e+09 3.0083886e+09 1.4261322e+09
000060 0e cc 8d 50
       1.9031683e+10

exp_avg f4 [50, 25, 3, 3]
000000 c4 28 03 46 61 65 0f 46 1e c9 06 46 c8 c3 26 46
       8394.191 9177.345 8626.279 10672.945
000010 dc 07 26 46 19 cc 0d 46 bf fc 29 46 68 a5 1d 46
       10625.965 9075.024 10879.187 10089.352
000020 aa b6 f2 45 dc 25 28 46 7c 9f 1b 46 80 b9 ff 45
       7766.833 10761.465 9959.871 8183.1875
000030 da 9a 24 46 f0 24 0c 46 81 40 cc 45 95 58 08 46
       10534.713 8969.234 6536.063 8726.1455
000040 4c db ce 45 91 ac 71 45 5a 43 10 c5 74 e0 24 c5
       6619.412 3866.7854 -2308.2095 -2638.0283
000050 06 07 86 c5 6d bd 89 c4 c4 c3 eb c4 04 13 72 c5
       -4288.878 -1101.9196 -1886.1177 -3873.1885
000060 f0 08 89 43 7a a1 6e c4 68 80 46 c5 8a 12 38 46
       274.06982 -954.5231 -3176.0254 11780.635
000070 ef f2 26 46 1e 08 0f 46 46 fa 1f 46 69 21 08 46
       10684.733 9154.029 10238.568 8712.353
000080 94 82 d5 45 6a b6 eb 45 22 e7 b5 45 d6 a8 7c 45
       6832.3223 7542.802 5820.8916 4042.5522
000090 64 c6 2f c6 8d f5 25 c6 b7 23 20 c6 72 a5 22 c6
       -11249.598 -10621.388 -10248.929 -10409.361
0000a0 ea bd 14 c6 51 1d 0c c6 16 d4 16 c6 e2 ca 06 c6
       -9519.479 -8967.329 -9653.021 -8626.721
0000b0 4e 93 f7 c5 98 42 75 42 dc f1 7d 44 89 c4 7a 44
       -7922.413 61.315033 1015.77905 1003.07086
0000c0 62 35 21 45 58 d3 39 45 d1 42 0f 45 47 ce 63 45
       2579.3364 2973.209 2292.176 3644.8923
0000d0 59 c6 62 45 6f 3f 19 45 9b 61 e5 44 6c 01 7c 44
       3628.3967 2451.9646 1835.0502 1008.0222
0000e0 a9 06 d6 44 58 05 e4 42 a8 b3 60 c3 da fb 90 44
       1712.2081 114.01044 -224.70178 1159.8704
0000f0 49 cd 6c c4 3f 2e 57 c4 c6 c5 5f 44 6b 1e 18 c6
       -947.2076 -860.7226 895.0902 -9735.6045
000100 f6 75 29 c6 30 f6 42 c6 06 85 2a c6 74 51 3b c6
       -10845.49 -12477.547 -10913.256 -11988.363
000110 d0 38 4f c6 dc 27 4a c6 19 56 55 c6 da 04 5d c6
       -13262.203 -12937.965 -13653.524 -14145.213
000120 f0 70 0f 46 e0 e0 17 46 30 76 1d 46 42 85 10 46
       9180.234 9720.219 10077.547 9249.314
000130 80 2f 19 46 ca 6d 1b 46 13 39 25 46 6a aa 28 46
       9803.875 9947.447 10574.269 10794.604
000140 57 5d 22 46 1e 34 98 45 ae 73 42 45 90 a3 13 45
       10391.335 4870.5146 3111.23 2362.2227
000150 f7 59 80 c4 58 b2 fd c4 69 df e7 c4 ea ad b2 c5
       -1026.8114 -2029.5732 -1854.9816 -5717.7393
000160 3e 5b b6 c5 90 68 8c c5 e2 2f 10 c6 de 5e f3 c5
       -5835.4053 -4493.0703 -9227.971 -7787.8584
000170 28 6d 0f c6 e4 f5 96 c5 80 97 80 c5 e6 6f c9 c5
       -9179.289 -4830.7363 -4114.9375 -6445.9873
000180 1e 30 95 c4 f1 75 bc c4 87 49 94 c5 d2 58 e0 44
       -1193.5037 -1507.6857 -4745.191 1794.7756
000190 74 93 64 c4 b3 61 b1 c4 f7 6e af c5 da be e2 c5
       -914.30396 -1419.0531 -5613.8706 -7255.8564
0001a0 30 9c c4 c5 bc 65 29 c6 27 f6 2d c6 c3 00 05 c6
       -6291.5234 -10841.434 -11133.538 -8512.19
0001b0 73 1d 64 46 b2 14 6e 46 b6 2a 68 46 fe 3d 80 46
       14599.362 15237.174 14858.678 16414.996
0001c0 6e 37 80 46 7b da 6b 46 46 ec 8b 46 65 6e 84 46
       16411.715 15094.62 17910.137 16951.197
0001d0 78 e3 63 46 70 54 f2 45 3c 8c 01 46 ae da 0e 46
       14584.867 7754.5547 8291.059 9142.67
0001e0 0c a4 d2 45 7b f6 ee 45 62 1f 05 46 22 c1 e3 45
       6740.506 7646.81 8519.846 7288.1416
0001f0 ce 6a fe 45 1c 93 09 46 22 37 ec 44 d4 18 1c c4
       8141.3506 8804.777 1889.7229 -624.38794
000200 10 42 b8 c4 10 d5 a4 c5 df e5 d8 c5 ab a4 cd c5
       -1474.0645 -5274.633 -6940.734 -6580.5835
000210 2a 5a 32 c6 3b 71 38 c6 50 92 18 c6 6c 49 a9 c4
       -11414.541 -11804.308 -9764.578 -1354.2944
000220 3d 49 32 c3 26 0e a6 c2 e6 fc b7 44 9e 1c 08 45
       -178.28609 -83.02763 1471.9031 2177.7886
000230 7f 35 cb 44 d2 8e 2a 45 4e fb 35 45 e6 4f dc 44
       1625.6718 2728.9263 2911.7065 1762.4968
000240 5c dd 79 c5 f8 d1 41 c5 90 e8 56 c5 b0 f2 87 c4
       -3997.835 -3101.123 -3438.5352 -1087.584
000250 f6 80 36 c4 b9 38 d4 c4 0a eb 4e 44 84 6a 24 44
       -730.015 -1697.7726 827.6725 657.6643
000260 7c ff 52 c4 b2 fd b1 c5 6b bb 7f c5 8a 8a 8d c5
       -843.99194 -5695.712 -4091.7136 -4529.3174
000270 d2 ff 0f 44 f3 5f 93 44 24 b8 ec c3 41 85 98 45
       575.9972 1178.9984 -473.4386 4880.6567
000280 03 68 8a 45 82 96 d2 44 8f ba 1d 46 2b d1 f8 45
       4429.0015 1684.7034 10094.64 7962.146
000290 46 8b dd 45 05 f3 a6 45 e5 95 59 45 73 71 49 45
       7089.409 5342.3774 3481.3684 3223.0906
0002a0 24 54 e4 44 18 b1 e4 43 f2 e8 66 44 32 66 95 45
       1826.6294 457.38354 923.6398 4780.7744
0002b0 09 87 bc 45 02 75 bc 45 18 c7 d1 45 ac ab e9 45
       6032.8794 6030.626 6712.8867 7477.459
0002c0 58 cb cf 45 bf c4 dd 45 35 49 e2 45 d1 49 b3 45
       6649.418 7096.5933 7241.151 5737.227
0002d0 5a 5f 53 c6 03 ec 5c c6 00 1a 5d c6 8f eb 5d c6
       -13527.838 -14139.003 -14150.5 -14202.89
0002e0 da e6 61 c6 60 b2 56 c6 f7 02 68 c6 68 58 60 c6
       -14457.713 -13740.594 -14848.741 -14358.102
0002f0 f6 f6 48 c6 d6 fb 40 44 dc 34 5e c4 6a dd 0a c5
       -12861.74 771.93494 -888.8259 -2221.8384
000300 15 56 0e c5 c2 cb 6b c5 c1 61 8f c5 e6 31 b5 c5
       -2277.3801 -3772.7349 -4588.219 -5798.2373
000310 64 ec d7 c5 d8 94 db c5 fd ac 91 c5 5b 51 92 c5
       -6909.549 -7026.6055 -4661.6235 -4682.1694
000320 f4 c2 54 c5 c5 72 a8 c5 48 71 9a c5 79 86 41 c5
       -3404.1846 -5390.346 -4942.16 -3096.4045
000330 1a c0 bd c5 4a 22 9d c5 7c 08 2d c5 2c 09 95 45
       -6072.0127 -5028.286 -2768.5303 4769.1465
000340 de b9 24 45 2f 41 d0 44 de 67 cd c4 fc ba 3a c5
       2635.6167 1666.037 -1643.2458 -2987.6865
000350 d1 21 35 c5 15 e9 b6 c5 1a 2a c4 c5 5d 40 9b c5
       -2898.1135 -5853.1353 -6277.2627 -4968.0454
000360 c8 41 c8 45 24 dd c3 45 88 a8 d0 45 8c 13 95 45
       6408.2227 6267.6426 6677.0664 4770.4434
000370 2c 8a 95 45 ca 87 a5 45 de ce 4a 45 f2 4e 58 45
       4785.2715 5296.9736 3244.9292 3460.934
000380 1f 04 81 45 be f1 09 c6 e8 9a a1 c5 7b 4f 9b c4
       4128.515 -8828.436 -5171.3633 -1242.4838
000390 8c 69 aa c5 9e 93 ca c4 2f 0d 0a 45 88 d2 12 c5
       -5453.1934 -1620.613 2208.824 -2349.1582
0003a0 98 1f a7 44 6f 3b 94 45 90 e3 93 c5 09 ba 00 c5
       1336.9873 4743.429 -4732.4453 -2059.6272
0003b0 2c 7c de c3 8e ea 02 c5 2e 6a 9f 43 3f cf b8 44
       -444.9701 -2094.6597 318.82953 1478.4764
0003c0 70 eb 9b c2 cc 80 f5 44 d6 56 24 45 f4 ff 01 45
       -77.95984 1964.0249 2629.4272 2079.997
0003d0 07 d3 64 45 c4 29 a1 45 1e 48 4b 45 43 60 97 45
       3661.1892 5157.2207 3252.5073 4844.0327
0003e0 16 ec c3 45 e0 7c 7a 45 b8 bb aa 45 22 89 d2 45
       6269.5107 4007.8047 5463.465 6737.1416
0003f0 62 a0 99 c5 86 1d 47 c5 b6 9a 1f c5 e2 94 3c c5
       -4916.048 -3185.8452 -2553.6694 -3017.3052
