models/probabilistic_training/upscaling_network/500/sigma0.01_step0.0002_lr0.0002/ckpt/model_epoch_300.pth (torch, 282369 bytes, 18 tensors)

layer1.weight f4 [25, 1, 3, 3]
0	0xbcb3f244	-0.021966107
1	0x3dc6c2cc	0.09705123
2	0xbe17ac42	-0.14811805
3	0xbcc210d5	-0.023689667
4	0x3db4e68e	0.08833037
5	0xbcbc7ef9	-0.023009764
6	0x3e01d874	0.12680227
7	0x3d8f4e08	0.06997305
8	0x3e230ace	0.1592209
9	0xbe3810d3	-0.17975168
10	0xbd15cfae	-0.036575012
11	0x3d8f5129	0.06997902
12	0x3d2b852f	0.04187506
13	0x3d7050ac	0.058670685
14	0xbd20b679	-0.03923652
15	0x3d92c64a	0.07166727
16	0xbc76ea66	-0.015070533
17	0x3e08d24b	0.1336147
18	0xbcfbe722	-0.030749861
19	0x3dd1cc11	0.10244001
20	0x3e01d45a	0.12678662
21	0xbd32b34f	-0.043628033
22	0xbd8d7c26	-0.06908445
23	0x3d036634	0.03207989
24	0xbd7d2a43	-0.061807882
25	0xbd12a8a1	-0.03580535
26	0x3de79eec	0.11309609
27	0xbdfb529f	-0.12271618
28	0x3db26677	0.0871095
29	0xbe32a678	-0.17446315
30	0x3dd06a4b	0.10176524
31	0x3ba3eb23	0.0050023957
32	0xbd322942	-0.043496378
33	0xbd912663	-0.070874
34	0x3d3ee8e3	0.046608817
35	0x3e5ada4e	0.21372339
36	0xbd7e9bff	-0.06216049
37	0x3d27f2eb	0.04100315
38	0xbc37bc67	-0.011214352
39	0xbd096af8	-0.03354928
40	0xbd2fc5b4	-0.042913154
41	0x3dcf86e3	0.101331495
42	0xbcf1a885	-0.029499302
43	0x3d82598c	0.06364736
44	0xbe3066fc	-0.17226785
45	0x3d615b6c	0.055018827
46	0x3d187026	0.037216328
47	0xbd7366b4	-0.059424117
48	0xbd1ababd	-0.037775744
49	0x3aa22235	0.0012369814
50	0xbd87ee41	-0.0663724
51	0x3dc8cae2	0.09804322
52	0x3dd9714e	0.10617314
53	0x3de431bb	0.11142298
54	0x3de15ca7	0.11004
55	0xbe0b12c8	-0.13581383
56	0xbdec465b	-0.11536857
57	0x3c9e62e9	0.019334273
58	0x3db37326	0.08762197
59	0x3de4c64d	0.11170635
60	0xbcbbf70c	-0.02294495
61	0xbe2cf4d4	-0.1689027
62	0xbd060dc5	-0.032727975
63	0xbdf3d9de	-0.11906789
64	0xbd2847a6	-0.041083954
65	0xbda0daec	-0.07854256
66	0x3d27a81b	0.040931802
67	0xbd834cf5	-0.06411163
68	0x3d4fdbd8	0.05074677
69	0xbe69d433	-0.22834854
70	0x3e07b9aa	0.13254419
71	0x3c42b1d7	0.011883221
72	0x3d4fd4a0	0.050739884
73	0x3e008aeb	0.12552993
74	0xb9ef33e1	-0.00045624285
75	0xbc753405	-0.014966016
76	0x3e17ed2b	0.14836566
77	0xbcf1cf9c	-0.029517941
78	0xbce6116d	-0.028084481
79	0xbdb0bdce	-0.08629952
80	0x3cc4ff23	0.02404744
81	0xbe276acb	-0.16349332
82	0x3d8fd48e	0.070229635
83	0xbe281f2f	-0.16418146
84	0xbb3959e6	-0.0028282343
85	0x3d38dc4c	0.045131966
86	0xbd3cf76a	-0.04613439
87	0xbe4c6ce4	-0.19963413
88	0x3cf126e9	0.0294375
89	0xbd3ecc85	-0.046581764
90	0xbd77c865	-0.060493845
91	0x3df394f1	0.11893643
92	0x3e28fa00	0.16501617
93	0xbdf8f04d	-0.12155209
94	0xbca48e3e	-0.020087358
95	0x3e329a86	0.17441759
96	0xbd547181	-0.05186606
97	0x3e2bbab5	0.16770442
98	0xbe041163	-0.12897258
99	0xbe1afc26	-0.1513525
100	0x3cce1b19	0.025159406
101	0xbc19dbd4	-0.00939079
102	0xbd98ec34	-0.07466927
103	0xbdea785b	-0.11448737
104	0xbd89398f	-0.067004316
105	0xbce73afa	-0.028226364
106	0xbe2a74de	-0.16646144
107	0xbd01915f	-0.031632777
108	0xbc619bef	-0.013770088
109	0x3e41bc95	0.18919595
110	0xbd50ebd6	-0.05100616
111	0x3ce8bd50	0.028410584
112	0x3dc3cfc1	0.0956111
113	0x3d0caf21	0.034346703
114	0x3da541d1	0.08069194
115	0xbdab3fde	-0.08361791
116	0x3e0c8e2c	0.1372611
117	0xbb5f6894	-0.0034089433
118	0x3e345a27	0.17612515
119	0xbd6ae1b1	-0.057344142
120	0x3d17cded	0.03706162
121	0x3d4720f1	0.0486154
122	0xbc0fa6b8	-0.008767776
123	0xbd8ea63c	-0.069653004
124	0x3af07e0e	0.0018348114
125	0xbd93a21f	-0.072086565
126	0xbe30698d	-0.17227764
127	0x3b001ec6	0.0019549592
128	0xbdc54496	-0.09632222
129	0xbda4fcbe	-0.08056019
130	0xbdfc4250	-0.123173356
131	0xbd9c51b6	-0.076327726
132	0xbd532e13	-0.05155761
133	0x3c8edf0e	0.017440345
134	0xbd26f4d3	-0.040760826
135	0x3cc92cee	0.024557557
136	0xbbee4d44	-0.0072723944
137	0xbd986115	-0.07440392
138	0xbc99f659	-0.018794226
139	0x3d7bbf84	0.06146194
140	0x3d767146	0.06016662
141	0x3d357350	0.044299424
142	0x3e066d41	0.13127615
143	0xbce86e1d	-0.028372819
144	0x3d10b15f	0.035325404
145	0x3d03ffc8	0.032226354
146	0x3d870168	0.06592065
147	0xbdb4f986	-0.08836655
148	0xbd859e40	-0.065243244
149	0x3d14f4ba	0.036366202
150	0x3dd8e89a	0.1059124
151	0x3daaa50f	0.08332264
152	0x3c3f35dc	0.011670556
153	0xbcb05d84	-0.021528967
154	0x3e1850d4	0.14874583
155	0x3c9856e9	0.01859613
156	0x3e3e25c8	0.185691
157	0xbda89227	-0.08231001
158	0xbb3eefbd	-0.0029134594
159	0xbc649126	-0.013950622
160	0x3d4cff18	0.050047964
161	0x3e58dd4d	0.2117817
162	0x3d9b0392	0.0756904
163	0xbdc95104	-0.09829906
164	0x3d382b0b	0.044962924
165	0xbe5eec35	-0.21769793
166	0xbda89054	-0.082306534
167	0x3cf74bbd	0.030187482
168	0x3e06b4d2	0.13154915
169	0xbdd11a79	-0.102101274
170	0x3c3814fc	0.011235472
171	0xbd80a478	-0.0628137
172	0x3da43bd7	0.08019226
173	0xbddc8603	-0.10767748
174	0xbc8092e3	-0.015695041
175	0x3da685a0	0.08130956
176	0x3d04f780	0.032462597
177	0x3d63e80b	0.055641215
178	0x3e3b87b0	0.1831348
179	0xbd571ced	-0.05251782
180	0xbc443455	-0.011975368
181	0xbe3af140	-0.18256092
182	0x3d9cc5c7	0.076549105
183	0x3db9d289	0.090733595
184	0x3c0e3e5e	0.008681862
185	0xbe08a739	-0.1334504
186	0xbe21529e	-0.15754172
187	0xbc2b53ff	-0.010457038
188	0x3cef356e	0.029200282
189	0xbe122076	-0.14270195
190	0xbdb478b2	-0.08812083
191	0xbdc12e40	-0.094326496
192	0xbcd4bb90	-0.025968343
193	0x3db59c1d	0.08867667
194	0x3dbd58ab	0.09245428
195	0xbd9c20ed	-0.076234676
196	0xbd8bf892	-0.068345204
197	0xbca5e570	-0.020251006
198	0x3c94e360	0.018174827
199	0xbd8884e9	-0.066659756
200	0xbdafdea2	-0.08587386
201	0x3d208974	0.039193586
202	0x3d522038	0.051300257
203	0xbd6ec68e	-0.058294825
204	0x3d5c90d7	0.053849068
205	0xbdf42c5a	-0.11922522
206	0xbb2ebc9f	-0.002666272
207	0xbd8b7bb1	-0.06810702
208	0xbb949456	-0.0045342846
209	0x3c87f5e6	0.016596746
210	0xbde8e645	-0.113720454
211	0xbcfbf531	-0.030756565
212	0xbd38c15a	-0.04510627
213	0xbe18f4f1	-0.14937188
214	0x3bfe0f0b	0.007753258
215	0xbda8393f	-0.08214044
216	0x3d471cb0	0.048611343
217	0xbc483bd1	-0.012221293
218	0xbdcae771	-0.09907425
219	0xbd800210	-0.062503934
220	0x3ceee590	0.029162198
221	0xbd153f7c	-0.036437497
222	0x3d55e0ac	0.052216217
223	0x3d656c9a	0.056011774
224	0xbc8eb444	-0.017419942

layer1.bias f4 [25]
0	0xbd63339e	-0.055469148
1	0xbe1a17af	-0.15048097
2	0x3dc722ab	0.09723409
3	0xbe52626f	-0.20545362
4	0x3e878506	0.26468676
5	0x3df3b8e6	0.11900501
6	0xbe0c1fdb	-0.13684027
7	0x3e940fc7	0.28918287
8	0xbe9acb1f	-0.30233094
9	0xbe63ad81	-0.22234155
10	0x3ea1cbfd	0.31600943
11	0xbe42b881	-0.19015695
12	0xbea3d587	-0.31998846
13	0xbe996e29	-0.29966858
14	0xbdef484e	-0.11683713
15	0x3e03d79f	0.12875222
16	0x3e4a3b41	0.19749166
17	0x3e99fc72	0.30075413
18	0xbe997031	-0.29968408
19	0xbcbde180	-0.023178816
20	0x3ea0056a	0.3125413
21	0xbcbe141b	-0.023202946
22	0x3d959076	0.07302944
23	0xbe813600	-0.2523651
24	0xbe2cc923	-0.16873603

layer2.weight f4 [50, 25, 3, 3]
0	0xbc2e4338	-0.010636143
1	0xbd7e65ce	-0.062108807
2	0x3cc10c76	0.023565512
3	0xbd8bd379	-0.068274446
4	0xbd7024a4	-0.058628693
5	0xbcfa6b96	-0.03056888
6	0x3dbfcc61	0.09365154
7	0xbcf314ac	-0.029672943
8	0xbcaa611f	-0.020798264
9	0xbc543b5c	-0.0129536055
10	0xbcfe5d9b	-0.031050494
11	0x3bc1a68c	0.0059097465
12	0x3d3730f4	0.04472442
13	0x3c0423ea	0.008065203
14	0xbd8a6c46	-0.06758933
15	0xbdca9fa5	-0.09893731
16	0xbd152a33	-0.036417197
17	0x3ca4d119	0.020119237
18	0xbb506b3a	-0.0031802193
19	0xbd80ec2e	-0.06295048
20	0xbdf56682	-0.119824424
21	0x3bda3fa6	0.0066604195
22	0xbd6324bb	-0.05545495
23	0x3c1d19b8	0.009588651
24	0xbd076d18	-0.033063024
25	0xbc5225f6	-0.012826433
26	0x3d67b17f	0.056565758
27	0xbc8fd5d7	-0.017558021
28	0xbdfbecca	-0.12301023
29	0xbd8cb29e	-0.06870006
30	0xbcbdbce9	-0.023161368
31	0x3d0da494	0.034580782
32	0xbd986796	-0.074416324
33	0xbcf08dc4	-0.029364474
34	0x3d21ce8b	0.039503615
35	0xbd65b1a0	-0.0560776
36	0x3c818e0b	0.015814802
37	0xbc89db44	-0.016828187
38	0xbcf37de0	-0.029723108
39	0xbd802807	-0.062576346
40	0x3e32ba1b	0.17453806
41	0x3ca5baa5	0.0202306
42	0x3c898033	0.016784763
43	0x3dcd6f42	0.10030986
44	0x3d8869d0	0.06660807
45	0x3b68dd23	0.0035532198
46	0xbcd98df3	-0.026556944
47	0x3d56ab5a	0.052409507
48	0x3d48d88d	0.049034644
49	0xbdb33424	-0.087501794
50	0x3d42ec1b	0.04758845
51	0xbc404c2f	-0.011736914
52	0x3d845dbb	0.0646319
53	0x3ce6678d	0.028125549
54	0x3ddb77aa	0.107161835
55	0x3d87ae0c	0.06624994
56	0x3d509962	0.050927527
57	0xbd9f40b8	-0.07776016
58	0xbb124732	-0.0022320268
59	0xbbf545c4	-0.0074851234
60	0x3d243898	0.040093035
61	0xbdf01a02	-0.117237106
62	0xbd70304b	-0.058639806
63	0x3ba7612c	0.0051080193
64	0x3d4ce19a	0.050019838
65	0x3cbc4045	0.022979865
66	0xba7ea276	-0.00097135396
67	0x3ca5dfe6	0.020248365
68	0xbc56e000	-0.013114929
69	0x3dc15bf3	0.09441366
70	0x3d88374c	0.06651172
71	0x3d28dba7	0.0412251
72	0x3bed5238	0.0072424673
73	0x3cb6a356	0.022294682
74	0x3cea57b0	0.028606266
75	0x3d98bc6b	0.07457813
76	0xbcbef426	-0.023309778
77	0xbd842796	-0.06452863
78	0xbc15caf5	-0.009142627
79	0xbccdd7bf	-0.02512729
80	0x3d2136c5	0.039358873
81	0x3dd68814	0.104751736
82	0x3d154079	0.03643844
83	0x3d076648	0.033056527
84	0xbc2937a6	-0.010328209
85	0x3b965c08	0.0045886077
86	0x3d970d8d	0.073756315
87	0xba65192f	-0.00087394094
88	0xbd584691	-0.052801672
89	0x3e08b4c7	0.13350211
90	0xbcde1e65	-0.027114103
91	0x3bdbcab8	0.0067075156
92	0xbc957564	-0.018244453
93	0xbd93fdff	-0.0722618
94	0x3d0b588f	0.034020003
95	0xbda483b2	-0.080329314
96	0x3d1c3321	0.038134698
97	0x3b5855c5	0.0033010107
98	0xbc007f07	-0.007842786
99	0x3d77463c	0.060369715
100	0xbd47fbc4	-0.048824087
101	0xbda632a2	-0.08115126
102	0x3d6c7ea4	0.05773796
103	0x3d529d93	0.051419806
104	0xbd00322d	-0.03129785
105	0xbb486001	-0.00305748
106	0xbc59d2f3	-0.013294923
107	0xbc900add	-0.017583305
108	0xbcfa93ac	-0.030587994
109	0x3d0379e8	0.03209868
110	0x3d3c5c4d	0.045986462
111	0xbcd4d722	-0.02598149
112	0x3cdf7388	0.02727677
113	0x3bea02d7	0.007141452
114	0xbb658f55	-0.003502806
115	0xbcf02840	-0.029316068
116	0xbd681b25	-0.056666512
117	0xbd4b3325	-0.049609322
118	0x3ceb3521	0.028711857
119	0x3c9255d1	0.017863186
120	0x3d626eda	0.055281498
121	0x3da02828	0.07820159
122	0xbdc7b9db	-0.09752246
123	0x3cd1eeba	0.025626529
124	0xbd5b6903	-0.053566944
125	0xbce6fa56	-0.028195541
126	0x3b63be83	0.0034751005
127	0x3c801b2c	0.015637957
128	0x3ce5e58c	0.028063558
129	0xbcac821f	-0.02105814
130	0x3c9799a2	0.018505875
131	0xbc21674b	-0.009851287
132	0x3db9a52a	0.09064706
133	0xbd8d3890	-0.06895554
134	0xbd65ea6b	-0.05613176
135	0xbc81104e	-0.015754845
136	0xba800749	-0.0009767796
137	0xbb88ea16	-0.004178296
138	0x3cb8f70b	0.022578737
139	0xbd7f0eff	-0.06227016
140	0xbd1a6e06	-0.037702583
141	0xba01a6da	-0.00049458223
142	0x3d09ebfa	0.03367231
143	0x3d037822	0.03209699
144	0xbcd90e9b	-0.026496222
145	0xbded7054	-0.115936905
146	0x3c314466	0.01081953
147	0xbb44feaf	-0.003005903
148	0x3dc81ca1	0.097710855
149	0x3d1d0f4c	0.038344666
150	0x3d95ba28	0.07310897
151	0xbd492376	-0.049106084
152	0xbd44fa32	-0.048090167
153	0xbd001076	-0.0312657
154	0xba5707ae	-0.00082027435
155	0xbdde3024	-0.10849026
156	0xbb64218c	-0.0034810035
157	0xbda0e5d8	-0.07856339
158	0xbdc135f5	-0.094341196
159	0x3cb8c956	0.022556942
160	0x3dc19e3a	0.094540074
161	0x3d2a741f	0.041614648
162	0x3cf90454	0.030397572
163	0xbdd1290f	-0.102129094
164	0x3d39e7f7	0.045387235
165	0xbd35dd6f	-0.04440063
166	0xbd5f9487	-0.054585006
167	0x3dcf4465	0.10120467
168	0x3d9f18b2	0.07768382
169	0xbd9d31d0	-0.076755166
170	0x3c5a690f	0.013330712
171	0x3c95d367	0.018289281
172	0xbd0c85eb	-0.0343074
173	0xbc6ad880	-0.014333844
174	0xbc450c99	-0.012026929
175	0xbd28ab85	-0.0411792
176	0xbc84d279	-0.016213642
177	0xbdc02687	-0.093823485
178	0xbcf55980	-0.029949903
179	0x3ccb2813	0.024799382
180	0xbdc158b2	-0.094407454
181	0x3c88ab9a	0.016683389
182	0x3ce38c71	0.027776929
183	0xbc40ee49	-0.011775562
184	0xbd480f79	-0.04884288
185	0x3cc808bd	0.02441823
186	0x3d338df1	0.043836538
187	0xbc9b69f3	-0.018971419
188	0x3d49361d	0.049123872
189	0x3ca0a3fc	0.019609444
190	0x3ccaa4f6	0.024736863
191	0x3da874de	0.08225416
192	0xbcb5c260	-0.022187412
193	0x3e0ff32f	0.14057611
194	0x3d21203c	0.03933738
195	0xbd3b68b5	-0.045754153
196	0xbd6933eb	-0.05693428
197	0x3c20059b	0.009766961
198	0xbc1782f2	-0.009247528
199	0xbcfb92e5	-0.030709693
200	0x3c802204	0.01564122
201	0xbca93006	-0.020652782
202	0x3dadd07b	0.0848703
203	0xbc1c8ae5	-0.009554599
204	0x3c722a89	0.014780649
205	0x3cb9e8e0	0.022694051
206	0x3d927e6c	0.07153019
207	0xbd12099b	-0.03565369
208	0xbdd9cca4	-0.10634735
209	0x3be07a1f	0.0068504955
210	0x3d1157cd	0.035484124
211	0x3d5f465f	0.05451047
212	0x3c8a110b	0.01685383
213	0xbd203e88	-0.039122134
214	0xbcddeb0a	-0.027089614
215	0x3c0b4bf4	0.008501995
216	0xbd0b22cb	-0.033968728
217	0xbcc79319	-0.024362134
218	0xbd140421	-0.03613675
219	0xbd560237	-0.052248206
220	0x3dc6fe1c	0.09716436
221	0xbd3c13b2	-0.04591722
222	0x3d843984	0.06456283
223	0x3c308636	0.010774186
224	0x3d833eea	0.06408484
225	0xbd2cc4f3	-0.042180013
226	0xbd8b17c2	-0.06791641
227	0x3dc814eb	0.09769615
228	0xbce69978	-0.028149351
229	0xbd7a1492	-0.061054774
230	0x3d6623d2	0.056186505
231	0xbd8a136e	-0.06741987
232	0xbcfe6330	-0.031053156
233	0xbe1bd47b	-0.15217774
234	0x3c7afc8d	0.015319002
235	0x3d052004	0.032501236
236	0xbddaca03	-0.10683062
237	0xbb587b1c	-0.0033032363
238	0x3c413544	0.011792485
239	0x3d9ae343	0.07562878
240	0x3d0de525	0.034642357
241	0x3bdd93b0	0.0067619905
242	0x3c3b2783	0.011422995
243	0x3d9aed4c	0.07564792
244	0x3c696c0c	0.014246952
245	0xbca01433	-0.019540882
246	0x3da74719	0.08167858
247	0x3c9ce972	0.019154284
248	0x3e177dff	0.14794157
249	0xbd200423	-0.039066445
250	0xbd44f34c	-0.04808359
251	0xbc423c57	-0.011855206
252	0x3d78574e	0.060630135
253	0x3dd34a46	0.10316901
254	0x3d98e0bb	0.07464739
255	0xbd8252ec	-0.06363472

layer2.bias f4 [50]
0	0xbd8f513a	-0.069979146
1	0xbc9e5626	-0.019328188
2	0xbd4282c8	-0.047488004
3	0x3cdc5791	0.026897224
4	0x38f1c638	0.000115286966
5	0x3d95153f	0.07279443
6	0xbb5e35be	-0.0033906545
7	0x37fc852f	3.010276e-05
8	0xbc676eea	-0.014125565
9	0xbc7bd7a4	-0.015371237
10	0xbd73aacc	-0.059489056
11	0xbc2744d6	-0.010209283
12	0x3d3df947	0.046380308
13	0xbca16173	-0.019699788
14	0x3abf622b	0.00146014
15	0x3d57d101	0.052689556
16	0x3d381cec	0.044949457
17	0xbcb12a22	-0.021626536
18	0x3b6b7107	0.0035925524
19	0xbd3050cb	-0.0430458
20	0x3d17660e	0.03696256
21	0x3d41d097	0.047318067
22	0xbd6e2377	-0.05813929
23	0x3d75ae08	0.059980422
24	0xbd9086a2	-0.07056929
25	0x3cba3a28	0.02273281
26	0xbc05511b	-0.008137013
27	0x3d0fc2b5	0.035097796
28	0x3d5ffddd	0.054685462
29	0xbc6cc7ed	-0.014451963
30	0x3c96d65e	0.018412765
31	0x3d6118ae	0.054955177
32	0x3d1e1478	0.03859374
33	0xbbdcf964	-0.006743597
34	0x3d0fddab	0.03512351
35	0x3d8dea7a	0.069294885
36	0xbaeded13	-0.0018152319
37	0x3ca5dabd	0.020245904
38	0xbd08f5f8	-0.0334377
39	0x3c726342	0.014794173
40	0xbba91e47	-0.00516108
41	0xbc466d4a	-0.0121110175
42	0xbd61fc62	-0.05517233
43	0x3c124803	0.008928302
44	0x3cbdd292	0.023171697
45	0x3d60cb96	0.054881655
46	0xbc9bb2fb	-0.019006243
47	0xbcd2173e	-0.025645848
48	0x3d274ecf	0.040846642
49	0x3d357da0	0.04430926

layer4.weight f4 [25, 50, 3, 3]
0	0xbdbaada1	-0.09115148
1	0xbc4ccaba	-0.012499506
2	0xbd0aae58	-0.033857673
3	0xbdeac49d	-0.11463282
4	0xbd7b728e	-0.061388545
5	0x3c8a45ca	0.016878981
6	0x3caa48df	0.0207867
7	0xbd013e86	-0.031553768
8	0x3d4ffa27	0.050775673
9	0xba7a8cad	-0.00095577055
10	0xbc704979	-0.014665955
11	0xbdf4828a	-0.11938961
12	0x3da827d6	0.08210723
13	0x3d465c52	0.048427887
14	0x3ce53301	0.027978422
15	0xba93a9f8	-0.0011265865
16	0x3c2e91d7	0.010654888
17	0x3d12fb9b	0.03588448
18	0x3c1d291f	0.009592324
19	0x3da1a737	0.07893222
20	0x3c9fad76	0.019491892
21	0x3e02bcdb	0.12767355
22	0xbca2c716	-0.019870322
23	0x3d805e7c	0.062680215
24	0x3c2c021c	0.01049855
25	0x3de56603	0.11201098
26	0x3d06a954	0.032876328
27	0xbd10aa12	-0.03531844
28	0x3dc2f604	0.0951958
29	0xbd8df1b8	-0.0693087
30	0xbd5000bf	-0.05078196
31	0x3d32064a	0.04346303
32	0x3d87ef6c	0.06637463
33	0xbd098a2d	-0.03357904
34	0x3d26fbea	0.040767588
35	0x3c51dce3	0.012809011
36	0xbd22ac6d	-0.03971522
37	0xbd30b51c	-0.04314147
38	0xbda6ec2d	-0.08150516
39	0x3e0a1fed	0.13488741
40	0xbc88caec	-0.016698323
41	0x3cef357d	0.02920031
42	0xbd38762b	-0.04503457
43	0xbde05916	-0.10954492
44	0xbda4b70f	-0.08042728
45	0x3d297edd	0.041380752
46	0xbdaee048	-0.08538872
47	0x3dfc12be	0.12308262
48	0xbd896bca	-0.06710012
49	0x3d0b8ce6	0.034069918
50	0x3bc40160	0.005981609
51	0xbd1fe7d4	-0.039039448
52	0xbd7dce65	-0.06196441
53	0x3db07b30	0.08617246
54	0x3c30dd49	0.010794946
55	0xbd71d1df	-0.05903804
56	0x3e00d6f3	0.12581997
57	0x3d9562a6	0.07294206
58	0xbcf194fb	-0.029489985
59	0x3c3703a6	0.011170303
60	0x3da1c21e	0.07898353
61	0xbc0fc2b4	-0.008774448
62	0xbe263df0	-0.16234565
63	0x3c004742	0.007829489
64	0x3ce3d773	0.027812695
65	0x3dceb011	0.10092176
66	0xbd86912f	-0.0657066
67	0xbd336438	-0.043796748
68	0xbd106c02	-0.035259254
69	0xbda56cdb	-0.08077403
70	0x3d387e02	0.045042045
71	0xbaf5f898	-0.0018766103
72	0x3d8fdfe7	0.07025128
73	0xbcc55326	-0.0240875
74	0xbd635b4e	-0.055506997
75	0x3d0bedb8	0.034162253
76	0xbc994bd7	-0.018712921
77	0x3d9380af	0.07202279
78	0xbd42c6f0	-0.047553003
79	0x3d0b5f66	0.034026526
80	0xbd2a24c5	-0.041538972
81	0x3ce460f2	0.027878258
82	0x3d5b0f65	0.05348148
83	0x3d5a1305	0.053240795
84	0x3d926ca7	0.0714963
85	0xbd3c89e8	-0.046029955
86	0xbdcca01e	-0.099914774
87	0xbce8fd78	-0.028441176
88	0x3d9ccd7f	0.07656383
89	0xbc0841e6	-0.008316493
90	0xbcd2a6ee	-0.025714364
91	0x3b2075a6	0.0024484186
92	0x3d547078	0.05186507
93	0x3d5a1668	0.053244025
94	0x3ae928f1	0.0017788691
95	0xbd8950f3	-0.06704893
96	0xbcc72e81	-0.024314167
97	0x3cba3c8d	0.022733951
98	0xbd0e532e	-0.034747295
99	0xbd2a4ac1	-0.041575197
100	0x3d7a3648	0.061086923
101	0x3d180186	0.037110828
102	0xbe043a50	-0.1291287
103	0xbc7e9515	-0.015538474
104	0xbd7aadb0	-0.061200798
105	0x3d96a540	0.07355738
106	0xbd8ca943	-0.068682216
107	0x3c963773	0.018336987
108	0x3cf83a92	0.030301366
109	0x3d06ba16	0.03289231
110	0x3cedfdf9	0.029051768
111	0xbddc7725	-0.107649125
112	0xbd28d69a	-0.041220285
113	0xbdee40b7	-0.11633437
114	0xbd955160	-0.07290912
115	0xbc3abe68	-0.011397935
116	0x3dd7f7ec	0.10545334
117	0x3c5c15f8	0.013432972
118	0x3c17e17e	0.00927007
119	0xbc9b9cc4	-0.01899565
120	0xbccad15c	-0.024758033
121	0xbe1215a8	-0.14266074
122	0xbd548e30	-0.051893413
123	0x3d5edb7a	0.054408528
124	0xbd13bb8c	-0.03606753
125	0xbc0a1989	-0.00842894
126	0x3c636691	0.013879434
127	0xbd17f223	-0.037096154
128	0x3cf33834	0.029689886
129	0x3dd74fcb	0.10513266
130	0x3c8dc2c5	0.017304787
131	0xbab2d002	-0.0013642313
132	0xbdcaf637	-0.09910243
133	0xbcf1810c	-0.02948048
134	0x3d3240bd	0.04351877
135	0x3ce7c915	0.028294126
136	0x3d2c29c5	0.042032022
137	0xbe101349	-0.14069857
138	0x3c296c10	0.0103407055
139	0xbdbb685c	-0.09150764
140	0xbbe97195	-0.0071241357
141	0xbcf81d6e	-0.03028747
142	0x3dcf3e8d	0.101193525
143	0x3cdefb65	0.027219484
144	0x3d16c0b4	0.03680487
145	0xbd137725	-0.036002297
146	0x3cec8773	0.028873181
147	0xbd633a6c	-0.055475637
148	0x3bac8629	0.0052650166
149	0x3c92db3e	0.017926808
150	0xbd888cee	-0.06667505
151	0xbc687a02	-0.014189245
152	0x3c831de2	0.01600546
153	0x3c8ac07a	0.016937483
154	0x3df261cb	0.11835059
155	0x3e00b494	0.12568885
156	0xbd60b277	-0.054857697
157	0xbd66a811	-0.056312624
158	0xbdd47f75	-0.10375873
159	0x3d302d99	0.043012235
160	0xbe0fd058	-0.1404432
161	0xbd1568da	-0.036476947
162	0x3e071db5	0.13194926
163	0xbd5437a2	-0.051810868
164	0x3a524040	0.0008020438
165	0x3d577670	0.052603185
166	0x3d8bd124	0.06827
167	0x3e2d3e4a	0.16918293
168	0x3d4e9a96	0.050440393
169	0x3d6a7728	0.057242543
170	0xbd332c35	-0.04374333
171	0x3c7aec36	0.015315106
172	0x3d89f3db	0.06735965
173	0x3d8856c7	0.066571765
174	0xbd52ac75	-0.051434
175	0xbaa38438	-0.0012475317
176	0xbc2a7bbf	-0.01040548
177	0xbd1d8ec3	-0.038466226
178	0xbd9447d8	-0.072402656
179	0xbb9e0a64	-0.004823016
180	0x3cdf7503	0.027277475
181	0xbd1ab5f7	-0.03777119
182	0x3d988b47	0.0744844
183	0x3d6f9f72	0.05850167
184	0x3d34a038	0.04409811
185	0x3ccbe4c5	0.02488936
186	0xbc9c9497	-0.019113822
187	0xbd52e6c3	-0.051489603
188	0x3d75ad2a	0.059979595
189	0xbe123209	-0.142769
190	0x3d4b20c8	0.04959181
191	0x3d72d2d2	0.059283085
192	0x3a80bf0b	0.000982256
193	0x3d220883	0.0395589
194	0xbd3ad40d	-0.045612384
195	0x3c4e642f	0.012597128
196	0x3d06e050	0.032928765
197	0xbccadd2b	-0.024763664
198	0x3dcd1573	0.10013857
199	0x3d80b854	0.06285158
200	0x3d4577a3	0.048209798
201	0xbd544190	-0.051820338
202	0xbd95cb8c	-0.07314214
203	0xbdbfa454	-0.09357515
204	0x3d88965c	0.06669304
205	0xbca57754	-0.020198502
206	0xbc301f62	-0.01074967
207	0x3c872667	0.016497804
208	0xbdd32f02	-0.103117004
209	0xbd9c2ccd	-0.076257326
210	0xbdb5c18f	-0.08874809
211	0x3d65f722	0.056143887
212	0xbc658d50	-0.014010742
213	0x3dd05bd6	0.10173766
214	0xbc7d03eb	-0.015442829
215	0x3bb96c07	0.00565863
216	0x3d9f8dd0	0.077907205
217	0x3dba7b37	0.091055326
218	0x3d4679de	0.048456065
219	0x3e03f4d8	0.12886369
220	0xb9b8ac38	-0.00035223528
221	0x3d39f3ae	0.045398407
222	0x3daff78c	0.08592138
223	0xbd2cd6d5	-0.042197067
224	0x3af168ef	0.0018418113
225	0xbda934ba	-0.0826201
226	0x3d79d4ad	0.06099384
227	0xbd2b3a71	-0.04180378
228	0x3cbab390	0.0227907
229	0x3cd48fbb	0.025947442
230	0xbc8edc37	-0.017438991
231	0x3a775e00	0.00094363093
232	0xbda1af33	-0.07894745
233	0x3c46688c	0.012109887
234	0xbd88f132	-0.06686629
235	0x3d9d83ad	0.07691131
236	0xbdb241aa	-0.08703931
237	0xbd07261f	-0.03299534
238	0x3cc906fe	0.024539467
239	0xbbe93eca	-0.0071180807
240	0x3dd1cc6c	0.102440685
241	0xbc4fadf2	-0.012675749
242	0xbc5397be	-0.012914596
243	0xbaf2874b	-0.0018503455
244	0xbd72c21d	-0.059267152
245	0x3c044162	0.008072229
246	0x3c63ab74	0.013895858
247	0xbcf561f3	-0.029953932
248	0xbdd4716a	-0.103731945
249	0xbdd1d52a	-0.10245736
250	0xbadfd948	-0.0017078305
251	0x3dc0e9ed	0.09419618
252	0xbb829099	-0.0039845225
253	0xbd4253bc	-0.047443137
254	0x3d79d6fe	0.06099605
255	0xbc14ea5b	-0.009089078

layer4.bias f4 [25]
0	0x3c3ff695	0.011716505
1	0x3cc28685	0.023745785
2	0xbcd73077	-0.026268227
3	0xbd1f5289	-0.03889707
4	0x3d24d03a	0.040237643
5	0xbd394635	-0.04523297
6	0xbcb6e80a	-0.022327442
7	0x3d1761a0	0.036958337
8	0x3c01ebad	0.007929725
9	0xbceb03c8	-0.028688326
10	0x3b66ec19	0.003523594
11	0x3c4b8806	0.012422567
12	0x3d122369	0.0356783
13	0x3d06c748	0.032904893
14	0xbc03def7	-0.008048764
15	0xbbc84be8	-0.0061125644
16	0x3d331d6f	0.043729242
17	0xbd1139df	-0.03545558
18	0x3d240787	0.04004624
19	0x3c0fe757	0.008783183
20	0x3cab75d6	0.020930212
21	0x3d3c0234	0.04590054
22	0xbcd6b995	-0.02621154
23	0xbc916bf1	-0.017751666
24	0xbcbec461	-0.023287

exp_avg f4 [25, 1, 3, 3]
0	0xc80ff262	-147401.53
1	0xc8204b71	-164141.77
2	0xc82155b0	-165206.75
3	0xc81f67f5	-163231.83
4	0xc82fea9c	-180138.44
5	0xc830c28c	-181002.19
6	0xc81e7216	-162248.34
7	0xc82dd186	-177990.1
8	0xc82d06ac	-177178.69
9	0xc817c342	-155405.03
10	0xc80cc994	-144166.31
11	0xc7dd0c88	-113177.06
12	0xc8198cfa	-157235.9
13	0xc80de34c	-145293.19
14	0xc7e21adc	-115765.72
15	0xc80a141f	-141392.48
16	0xc7fbf525	-129002.29
17	0xc7c58bb6	-101143.42
18	0xc8355090	-185666.25
19	0xc81fe9b4	-163750.81
20	0xc7efaa3e	-122708.484
21	0xc8337358	-183757.38
22	0xc8211dfc	-164983.94
23	0xc7f4653d	-125130.48
24	0xc81f62ce	-163211.22
25	0xc81063a4	-147854.56
26	0xc7dba7f2	-112463.89
27	0xc7d119bd	-107059.48
28	0xc7cae5d4	-103883.66
29	0xc7acf409	-88552.07
30	0xc7e04cc6	-114841.55
31	0xc7cf076e	-105998.86
32	0xc7a492bc	-84261.47
33	0xc7dabe0e	-111996.11
34	0xc7bf21df	-97859.74
35	0xc78bbc6a	-71544.83
36	0xc6fdc620	-32483.062
37	0xc6bce442	-24178.129
38	0xc692dd7d	-18798.744
39	0xc685071b	-17027.553
40	0xc6020d54	-8323.332
41	0xc5710c56	-3856.771
42	0xc50bd6c0	-2237.4219
43	0x45c89137	6418.152
44	0x460aaa32	8874.549
45	0xc8131d5c	-150645.44
46	0xc81a6e66	-158137.6
47	0xc810a58c	-148118.19
48	0xc7f490b4	-125217.41
49	0xc80349aa	-134438.66
50	0xc7fc725a	-129252.7
51	0xc7ac6b20	-88278.25
52	0xc7c07a8c	-98549.09
53	0xc7be91cc	-97571.59
54	0x47d929c0	111187.5
55	0x47b662c2	93381.516
56	0x478080a2	65793.266
57	0x47dbe8df	112593.74
58	0x47c73834	102000.41
59	0x479e21b8	80963.44
60	0x47ce4ae4	105621.78
61	0x47c74d0f	102042.12
62	0x47af6ec4	89821.53
63	0x4797085a	77328.7
64	0x47b374b4	91881.41
65	0x47b69186	93475.05
66	0x47b3c608	92044.06
67	0x47cbe2e0	104389.75
68	0x47c83836	102512.42
69	0x47bbb18e	96099.11
70	0x47ceb4d9	105833.695
71	0x47c2eaa1	99797.26
72	0xc8271cb6	-171122.84
73	0xc8355940	-185701.0
74	0xc8345d0e	-184692.22
75	0xc81dc812	-161568.28
76	0xc827346a	-171217.66
77	0xc823404a	-167169.16
78	0xc7fd25ba	-129611.45
79	0xc8026e40	-133561.0
80	0xc7f75000	-126624.0
81	0x48180870	155681.75
82	0x4818e267	156553.61
83	0x4803e11d	135044.45
84	0x48293676	173273.84
85	0x482fba7a	179945.9
86	0x481f34b6	163026.84
87	0x48240208	167944.12
88	0x48309485	180818.08
89	0x48268c98	170546.38
90	0xc8004efa	-131387.9
91	0xc814d58a	-152406.16
92	0xc81890a5	-156226.58
93	0xc80499e3	-135783.55
94	0xc81a6fda	-158143.4
95	0xc81e1f46	-161917.1
96	0xc7f5e3de	-125895.734
97	0xc810156f	-147541.73
98	0xc815735b	-153037.42
99	0x486cecae	242610.72
100	0x4873f7fa	249823.9
101	0x485bafd2	224959.28
102	0x48878e01	277616.03
103	0x4888293c	278857.88
104	0x48718f98	247358.38
105	0x4889bae9	282071.28
106	0x48875a56	277202.7
107	0x486b24d6	240787.34
108	0xc8411ddd	-197751.45
109	0xc85e7e54	-227833.31
110	0xc8605b78	-229741.88
111	0xc84bd237	-208712.86
112	0xc8666f59	-235965.39
113	0xc8649e80	-234106.0
114	0xc84309e6	-199719.6
115	0xc858cef8	-222011.88
116	0xc853082a	-216096.66
117	0xc7485350	-51283.312
118	0xc6ebe5e2	-30194.941
119	0xc593d7d8	-4730.9805
120	0xc7be2ba0	-97367.25
121	0xc79a3d4f	-78970.62
122	0xc74a3fb6	-51775.71
123	0xc805252e	-136340.72
124	0xc7ec39e9	-120947.82
125	0xc7b779ca	-93939.58
126	0x47e2a9fe	116051.984
127	0x47f212be	123941.484
128	0x47e171ce	115427.61
129	0x47ac8496	88329.17
130	0x47ad38ba	88689.45
131	0x47968a3b	77076.46
132	0x475dc908	56777.03
133	0x4744ad93	50349.574
134	0x470bb1ef	35761.934
135	0xc77d2b6e	-64811.43
136	0xc7910b4a	-74262.58
137	0xc7954143	-76418.52
138	0xc7ae1e06	-89148.05
139	0xc7c6d598	-101803.19
140	0xc7cce346	-104902.55
141	0xc7d601d4	-109571.66
142	0xc7f23fb9	-124031.445
143	0xc7f80990	-126995.125
144	0xc71f3cfe	-40764.992
145	0xc6eab91f	-30044.56
146	0xc676caa8	-15794.664
147	0xc6ffcc24	-32742.07
148	0xc6c2b082	-24920.254
149	0xc651e979	-13434.368
150	0xc6b31e10	-22927.031
151	0xc68f105c	-18312.18
152	0xc62de0d0	-11128.203
153	0xc8026247	-133513.11
154	0xc7d7c194	-110467.16
155	0xc79bfd8e	-79867.11
156	0xc8264e02	-170296.03
157	0xc80f829c	-146954.44
158	0xc7dd1938	-113202.44
159	0xc83717f2	-187487.78
160	0xc81f6d03	-163252.05
161	0xc7faafa1	-128351.26
162	0x475dde1d	56798.113
163	0x47830cae	67097.36
164	0x4785b96b	68466.836
165	0x479b25b6	79435.42
166	0x47b0a973	90450.9
167	0x47b0ebe0	90583.75
168	0x47be1a46	97332.55
169	0x47d0474a	106638.58
170	0x47cca5b8	104779.44
171	0xc823f37a	-167885.9
172	0xc812685a	-149921.4
173	0xc7eee610	-122316.125
174	0xc8254261	-169225.52
175	0xc8123754	-149725.31
176	0xc7eb691a	-120530.2
177	0xc81845d0	-155927.25
178	0xc804a576	-135829.84
179	0xc7d2501d	-107680.23
180	0xc5dc8ad7	-7057.355
181	0xc6a8ae8f	-21591.28
182	0xc710c1c5	-37057.77
183	0x4605bf76	8559.865
184	0xc63f9972	-12262.361
185	0xc70a4008	-35392.03
186	0x46866536	17202.605
187	0xc5e35dd9	-7275.731
188	0xc709ede3	-35309.887
189	0x48224956	166181.34
190	0x4821aa72	165545.78
191	0x48095b80	140654.0
192	0x4832d788	183134.12
193	0x482ed6da	179035.4
194	0x481297a9	150110.64
195	0x483034ca	180435.16
196	0x48285af1	172395.77
197	0x480a76ca	141787.16
198	0x477a877e	64135.492
199	0x476f2d57	61229.34
200	0x474387de	50055.867
201	0x47863afe	68725.984
202	0x476b37bc	60215.734
203	0x4729504c	43344.297
204	0x477413c1	62483.754
205	0x473d5f40	48479.25
206	0x46d5f352	27385.66
207	0x47bfdb26	98230.3
208	0x47ee5273	122020.9
209	0x47fdc56d	129930.85
210	0x47ec782e	121072.36
211	0x48075308	138572.12
212	0x4807eb8d	139182.2
213	0x47fefc34	130552.41
214	0x4808d29c	140106.44
215	0x48023283	133322.05
216	0xc7b5e42e	-93128.36
217	0xc7806492	-65737.14
218	0xc6e837bc	-29723.867
219	0xc79a6e12	-79068.14
220	0xc74aef06	-51951.023
221	0xc681b16f	-16600.717
222	0xc77eaae4	-65194.89
223	0xc7196756	-39271.336
224	0xc5e2f004	-7262.002

exp_avg_sq f4 [25, 1, 3, 3]
0	0x506f32fb	1.6052383e+10
1	0x5088badf	1.8351585e+10
2	0x508b7bd2	1.8721182e+10
3	0x5070b397	1.6153206e+10
4	0x508c5ad3	1.88381e+10
5	0x509209a6	1.9600847e+10
6	0x5052f9f8	1.4158389e+10
7	0x50783ec3	1.6659451e+10
8	0x50818bcb	1.7387379e+10
9	0x5030c01f	1.1861523e+10
10	0x502cc491	1.1594253e+10
11	0x5006c8c7	9.04522e+09
12	0x503868fc	1.2375552e+10
13	0x5032c290	1.1996381e+10
14	0x500d5217	9.483869e+09
15	0x50221fe7	1.0879999e+10
16	0x50197032	1.0297068e+10
17	0x4ff056ee	8.0644577e+09
18	0x516ea38f	6.4059142e+10
19	0x5158cd14	5.81971e+10
20	0x5128eaed	4.5343494e+10
21	0x51826f94	7.0027215e+10
22	0x516fdbd7	6.4386593e+10
23	0x513c809c	5.0600722e+10
24	0x51779b19	6.646619e+10
25	0x5165b716	6.16637e+10
26	0x5136b7a8	4.904783e+10
27	0x502e7356	1.1707177e+10
28	0x50739cd7	1.6348569e+10
29	0x508d7062	1.898362e+10
30	0x5042ff0c	1.3085979e+10
31	0x5082d9a6	1.7562415e+10
32	0x509328bf	1.9751369e+10
33	0x503f1140	1.2822315e+10
34	0x50762404	1.6518222e+10
35	0x50864888	1.8023203e+10
36	0x4f203176	2.687596e+09
37	0x4eb16fb8	1.4884444e+09
38	0x4e4214d9	8.1403654e+08
39	0x4e9601e7	1.2583535e+09
40	0x4e217a60	6.7728794e+08
41	0x4e16dddf	6.3278074e+08
42	0x4e08580d	5.7186797e+08
43	0x4e28bcca	7.077362e+08
44	0x4e8d2710	1.1840737e+09
45	0x50708598	1.6141148e+10
46	0x5088699b	1.8308979e+10
47	0x50807616	1.724178e+10
48	0x5023ff43	1.100566e+10
49	0x5045147f	1.3225819e+10
50	0x5044bbf4	1.3202608e+10
51	0x4face415	5.8012575e+09
52	0x4fe30d01	7.6185605e+09
53	0x4ff5237c	8.225487e+09
54	0x50d51f2e	2.8604723e+10
55	0x50aa38c0	2.2846767e+10
56	0x50635cb1	1.5258011e+10
57	0x510b8753	3.7454426e+10
58	0x50ec5847	3.1721667e+10
59	0x50a91916	2.2695948e+10
60	0x51216cbe	4.3332133e+10
61	0x510f56b5	3.847719e+10
62	0x50da56ba	2.9304934e+10
63	0x4f96c729	5.059269e+09
64	0x4f9f62c8	5.348102e+09
65	0x4f9fd466	5.362994e+09
66	0x4fb89f87	6.194925e+09
67	0x4fc19e02	6.496716e+09
68	0x4fba52ae	6.2519613e+09
69	0x4fcf148c	6.9484605e+09
70	0x4fd1b00b	7.0359506e+09
71	0x4fbe6dbd	6.3897257e+09
72	0x51035192	3.5250577e+10
73	0x510d22f0	3.7886034e+10
74	0x51036859	3.527446e+10
75	0x50e6ac8b	3.096054e+10
76	0x50f206f2	3.2484332e+10
77	0x50dc536b	2.9571635e+10
78	0x50a3b9c8	2.1974893e+10
79	0x50a6a41f	2.236619e+10
80	0x50932898	1.9751289e+10
81	0x516a4a3b	6.2891733e+10
82	0x51635dcf	6.1033214e+10
83	0x5139f811	4.9920676e+10
84	0x5194bb8d	7.985022e+10
85	0x5191fd53	7.837754e+10
86	0x51725f3d	6.5061245e+10
87	0x519df65a	8.480537e+10
88	0x519c70fa	8.398879e+10
89	0x51838196	7.060185e+10
90	0x505055ea	1.3981166e+10
91	0x5082cc19	1.755531e+10
92	0x508ab99e	1.8619363e+10
93	0x505fa111	1.5007499e+10
94	0x508b9e23	1.8739173e+10
95	0x5092a954	1.9684565e+10
96	0x504fd668	1.394774e+10
97	0x5080826f	1.7248254e+10
98	0x5086dd95	1.8101348e+10
99	0x51c7a949	1.0719233e+11
100	0x51e8a647	1.2490276e+11
101	0x51e1d75b	1.2124759e+11
102	0x51ddb065	1.190184e+11
103	0x5200258b	1.3759642e+11
104	0x51f79508	1.3291966e+11
105	0x51cfd5c9	1.1158062e+11
106	0x51eddd64	1.277027e+11
107	0x51e40a36	1.2242798e+11
108	0x5106d8b6	3.619759e+10
109	0x51345e21	4.8417083e+10
110	0x51432f3a	5.2394435e+10
111	0x511b1d3f	4.1638162e+10
112	0x514674b9	5.3272613e+10
113	0x514e85be	5.5437943e+10
114	0x51161a42	4.029285e+10
115	0x5137db8a	4.935389e+10
116	0x513795a6	4.9280606e+10
117	0x4f29432b	2.8397514e+09
118	0x4f24d5c1	2.765472e+09
119	0x4f084829	2.2864305e+09
120	0x4fd2d944	7.074908e+09
121	0x4fd58b10	7.165321e+09
122	0x4fb39c6a	6.026745e+09
123	0x50318bf1	1.1914954e+10
124	0x5038593e	1.2371425e+10
125	0x501feddf	1.0732666e+10
126	0x50432cc2	1.3097961e+10
127	0x5062b9bb	1.5215291e+10
128	0x50593478	1.4576378e+10
129	0x501851e0	1.022201e+10
130	0x50259f08	1.1114652e+10
131	0x501730ed	1.0146264e+10
132	0x4fdbab3b	7.370864e+09
133	0x4fdb6ea5	7.362923e+09
134	0x4fbb45ed	6.283844e+09
135	0x4fab24d3	5.7426345e+09
136	0x4fc457a5	6.5881564e+09
137	0x4fc4f473	6.608709e+09
138	0x4fd3cb1d	7.1066076e+09
139	0x4fff81f8	8.5734154e+09
140	0x5004af7e	8.904374e+09
141	0x4fed800a	7.9691827e+09
142	0x50144e21	9.952593e+09
143	0x501d86b8	1.0571407e+10
144	0x50d8e057	2.9108648e+10
145	0x50e6789d	3.0933314e+10
146	0x50d9d7b8	2.9238346e+10
147	0x50ff11f1	3.4234927e+10
148	0x51070aba	3.6250034e+10
149	0x50fd8ee3	3.4031999e+10
150	0x51040796	3.5441435e+10
151	0x510af50a	3.7301035e+10
152	0x510181d7	3.476432e+10
153	0x50e751a5	3.10471e+10
154	0x50df4587	2.9967006e+10
155	0x50bd113d	2.5376188e+10
156	0x51155f92	4.0097096e+10
157	0x5111dd89	3.9155438e+10
158	0x50f9143b	3.343082e+10
159	0x51211848	4.324357e+10
160	0x511d4eff	4.22272e+10
161	0x5106a3c6	3.614208e+10
162	0x5022d6af	1.0927914e+10
163	0x501c86f8	1.0504364e+10
164	0x5008d147	9.181666e+09
165	0x50336cba	1.2040989e+10
166	0x5030e6cc	1.1871662e+10
167	0x501d016f	1.0536467e+10
168	0x50332e59	1.2024636e+10
169	0x50334de4	1.2032905e+10
170	0x50206ba6	1.0765638e+10
171	0x50761c20	1.6516153e+10
172	0x50651d96	1.5375686e+10
173	0x5043ce66	1.3140335e+10
174	0x5078210e	1.6651663e+10
175	0x5066ec73	1.5497022e+10
176	0x5045aec4	1.326626e+10
177	0x505f426a	1.4982687e+10
178	0x5050a52e	1.4001945e+10
179	0x50356652	1.2173527e+10
180	0x4fe3ea4d	7.6475663e+09
181	0x4fc087c4	6.460246e+09
182	0x4f9b7693	5.2164787e+09
183	0x4ff506b2	8.2217134e+09
184	0x4fc8e704	6.741166e+09
185	0x4fa546e3	5.5457725e+09
186	0x4fe50907	7.685148e+09
187	0x4fba5283	6.2519393e+09
188	0x4fa3a46b	5.490923e+09
189	0x511f87c9	4.282362e+10
190	0x512d3f0c	4.6505443e+10
191	0x5119d2f4	4.1291825e+10
192	0x513b9e84	5.0363646e+10
193	0x5147ee40	5.366848e+10
194	0x512e9bdd	4.6871204e+10
195	0x513b197d	5.0224157e+10
196	0x51439927	5.2505506e+10
197	0x51288c23	4.52441e+10
198	0x4fa9a0cb	5.6917745e+09
199	0x4f9d8a79	5.2861957e+09
200	0x4f86bf37	4.521357e+09
201	0x4fa1ec7e	5.433261e+09
202	0x4f8d4a5d	4.740922e+09
203	0x4f6b05d8	3.9430287e+09
204	0x4f805442	4.306011e+09
205	0x4f55ba4b	3.585756e+09
206	0x4f38cd52	3.1004636e+09
207	0x4f9ee4f5	5.33161e+09
208	0x500cd0d3	9.449983e+09
209	0x503d54f2	1.2705843e+10
210	0x4fc6d8e4	6.672206e+09
211	0x501959c0	1.0291184e+10
212	0x503cd7ec	1.2673069e+10
213	0x4fd59fa6	7.1680195e+09
214	0x500ee9be	9.590733e+09
215	0x501f47d6	1.0689141e+10
216	0x50204061	1.0754295e+10
217	0x4fff2a9c	8.561965e+09
218	0x4faf3dc0	5.8801193e+09
219	0x503266a1	1.1972281e+10
220	0x500dca0c	9.515315e+09
221	0x4fc2e1c6	6.5391524e+09
222	0x503eb8fa	1.2799175e+10
223	0x5017d977	1.0190446e+10
224	0x4fd2e574	7.0765056e+09

exp_avg f4 [25]
0	0x471001ba	36865.727
1	0x46517a81	13406.626
2	0x47d4f46c	109032.84
3	0x4785039e	68103.234
4	0xc60f9d78	-9191.367
5	0x474ade03	51934.01
6	0xc75dd8d5	-56792.832
7	0xc706650a	-34405.04
8	0x4748b0ce	51376.805
9	0xc7fa37b0	-128111.375
10	0x478ba978	71506.94
11	0xc8165d30	-153972.75
12	0x47dd602a	113344.33
13	0x47bc85c9	96523.57
14	0xc77d2048	-64800.28
15	0x475828c4	55336.766
16	0x46ae5d5c	22318.68
17	0x47d34b2e	108182.36
18	0xc6390d71	-11843.36
19	0x47049370	33939.438
20	0x4747cd01	51149.004
21	0xc7dd0197	-113155.18
22	0x469467cf	18995.904
23	0xc79368e9	-75473.82
24	0x47d4ac80	108889.0

exp_avg_sq f4 [25]
0	0x4f95e397	5.029441e+09
1	0x4ecc3509	1.7130139e+09
2	0x50e13f1d	3.0232078e+10
3	0x4ea98c0b	1.4222637e+09
4	0x4eb6ae9d	1.5324484e+09
5	0x4e9a593f	1.29477e+09
6	0x4ff4b9d9	8.211641e+09
7	0x4eeae12a	1.9703124e+09
8	0x4f488e6c	3.364777e+09
9	0x5036505b	1.2234878e+10
10	0x4eb2de9e	1.500467e+09
11	0x4fda18f8	7.318139e+09
12	0x4f415075	3.2432755e+09
13	0x4f26553b	2.7906035e+09
14	0x4ef07c16	2.017332e+09
15	0x4ee9c0a9	1.9608588e+09
16	0x4ebb579f	1.5715409e+09
17	0x4f80c091	4.3202074e+09
18	0x4e8fef40	1.2074107e+09
19	0x4dcad846	4.253964e+08
20	0x4fd472f2	7.1286057e+09
21	0x4f626edf	3.7989169e+09
22	0x4f1a2844	2.58633e+09
23	0x4ee92c86	1.9560046e+09
24	0x50842f26	1.774146e+10

exp_avg f4 [50, 25, 3, 3]
0	0x45cdfce9	6591.614
1	0x45a6473c	5320.9043
2	0x45339aba	2873.6704
3	0x461a44ff	9873.249
4	0x46018350	8288.828
5	0x45a50916	5281.1357
6	0x462c2f8e	11019.889
7	0x46119862	9318.096
8	0x45bf4578	6120.6836
9	0x45dd268d	7076.819
10	0x45b45d94	5771.6973
11	0x4578eb1b	3982.694
12	0x45dd67c6	7084.9717
13	0x45a61b7e	5315.4365
14	0x45435f8e	3125.9722
15	0x45bacd71	5977.68
16	0x45787c7f	3975.781
17	0x44d21966	1680.7937
18	0xc59e6b66	-5069.425
19	0xc5c072f8	-6158.371
20	0xc5f3948d	-7794.569
21	0xc54d6194	-3286.0986
22	0xc596e939	-4829.153
23	0xc5d7abef	-6901.4917
24	0xc49ed318	-1270.5967
25	0xc547f10b	-3199.0652
26	0xc5aeac04	-5589.502
27	0x4610bbe4	9262.973
28	0x45f90c38	7969.5273
29	0x45c707d0	6368.9766
30	0x45fae276	8028.3076
31	0x45cd2bb4	6565.463
32	0x45950e10	4769.758
33	0x45bc15c3	6018.72
34	0x458fcd46	4601.659
35	0x453f9f3e	3065.9526
36	0xc5fae84e	-8029.038
37	0xc5cdcafc	-6585.373
38	0xc5a98d26	-5425.6436
39	0xc5d5932d	-6834.397
40	0xc5a41bb7	-5251.4644
41	0xc57c411a	-4036.0688
42	0xc5c9fcb6	-6463.589
43	0xc59a7003	-4942.0015
44	0xc56aa09a	-3754.0376
45	0x4443a8bf	782.63666
46	0x438450bf	264.63083
47	0xc496f7ee	-1207.7478
48	0x458c819f	4496.2026
49	0x456cbc5a	3787.772
50	0x44f44da6	1954.4265
51	0x45bce4c5	6044.596
52	0x45a79319	5362.387
53	0x45579ac4	3449.6729
54	0x450b38d1	2227.551
55	0x451279c4	2343.6104
56	0x45610254	3600.1455
57	0xc3840704	-264.0548
58	0x430903b0	137.0144
59	0x44ed5001	1898.5001
60	0xc4bded02	-1519.4065
61	0xc46cd470	-947.31934
62	0x4476d2ca	987.2936
63	0xc5cc9286	-6546.3154
64	0xc5b12556	-5668.667
65	0xc5a1493e	-5161.1553
66	0xc5d0255e	-6660.671
67	0xc5b5d75f	-5818.9214
68	0xc5a19a24	-5171.2676
69	0xc607a135	-8680.302
70	0xc5f24a6a	-7753.302
71	0xc5d1e87c	-6717.0605
72	0x45955a36	4779.2764
73	0x456d5e86	3797.9077
74	0x452e238c	2786.2217
75	0x456d2ed8	3794.9277
76	0x452cff05	2767.9387
77	0x44c207b4	1552.2407
78	0x45aa5016	5450.0107
79	0x4583dad1	4219.352
80	0x4522773b	2599.452
81	0x45a7d216	5370.2607
82	0x45c9c90a	6457.13
83	0x46009402	8229.002
84	0xc4d866f0	-1731.2168
85	0xc365249e	-229.14304
86	0x45060a80	2144.6562
87	0xc5e02324	-7172.3926
88	0xc5a6e6b6	-5340.839
89	0xc51188d4	-2328.5518
90	0xc62c1b16	-11014.771
91	0xc6305fd1	-11287.954
92	0xc650a0b5	-13352.177
93	0xc5ab73a7	-5486.4565
94	0xc5c64a76	-6345.3076
95	0xc6112fec	-9291.98
96	0xc4828afe	-1044.3435
97	0xc526013c	-2656.0771
98	0xc5c8658e	-6412.6943
99	0x45457ebf	3159.9216
100	0x458ce0b2	4508.087
101	0x45ef7663	7662.7983
102	0xc5b796eb	-5874.8647
103	0xc57b61db	-4022.116
104	0x42cdadc0	102.839355
105	0xc643a8da	-12522.213
106	0xc61f8e86	-10211.631
107	0xc5a329f0	-5221.242
108	0x4601c807	8306.007
109	0x45bf313c	6118.1543
110	0x4552505c	3365.0225
111	0x46192382	9800.877
112	0x45e2db07	7259.3784
113	0x457085a4	3848.3525
114	0x46417282	12380.627
115	0x46133a72	9422.611
116	0x45aa811e	5456.1396
117	0x459aef63	4957.9233
118	0x45952244	4772.283
119	0x4595c263	4792.2983
120	0x4522aaf6	2602.685
121	0x4524e392	2638.2231
122	0x45243c09	2627.7522
123	0x453d04d6	3024.3022
124	0x453abbc7	2987.736
125	0x452f5dd8	2805.8652
126	0x4591913b	4658.154
127	0x45c2fa62	6239.298
128	0x460c9fed	8999.981
129	0xc5586cba	-3462.7954
130	0xc4ade2f0	-1391.0918
131	0x450bff6d	2239.964
132	0xc62a7f7e	-10911.873
133	0xc6018916	-8290.271
134	0xc56368ac	-3638.542
135	0xc426b6a7	-666.85394
136	0xc4426173	-777.52264
137	0xc4eda8de	-1901.2771
138	0x45420e0c	3104.878
139	0x45313c73	2835.778
140	0x44a6cea4	1334.4575
141	0x45985630	4874.7734
142	0x458ba768	4468.926
143	0x452a2494	2722.2861
144	0xc572e124	-3886.0713
145	0xc5854df8	-4265.746
146	0xc5ad1203	-5538.2515
147	0x428d32da	70.59932
148	0xc417ec4e	-607.69226
149	0xc51131e8	-2323.1191
150	0x45158542	2392.3286
151	0x44ba6a89	1491.3292
152	0xc3fe4928	-508.57153
153	0xc5c87e8c	-6415.8184
154	0xc5f5cd48	-7865.66
155	0xc6287596	-10781.396
156	0x44edb576	1901.6707
157	0xc2bf5710	-95.670044
158	0xc575746a	-3927.276
159	0x45ebe26a	7548.302
160	0x45a162f5	5164.3696
161	0x4445664a	789.59827
162	0x45f3d7b9	7802.9653
163	0x45e2efc4	7261.9707
164	0x45f83848	7943.035
165	0x44eabc3f	1877.8827
166	0x44b1dc8c	1422.8921
167	0x4520a98c	2570.5967
168	0xc506a838	-2154.5137
169	0xc518e92c	-2446.5732
170	0xc45ec83b	-891.1286
171	0x457ecd12	4076.817
172	0x4573b6e8	3899.4316
173	0x451e6cc0	2534.7969
174	0x45cb07da	6496.9814
175	0x45c184f2	6192.618
176	0x45882576	4356.6826
177	0x45e5ec6c	7357.5527
178	0x45d7360c	6886.756
179	0x45964c84	4809.5645
180	0xc6068655	-8609.583
181	0xc5e10ed4	-7201.8535
182	0xc5aa7cfd	-5455.6235
183	0xc606f99b	-8638.401
184	0xc5ddbe6a	-7095.802
185	0xc598674e	-4876.913
186	0xc61978ae	-9822.17
187	0xc5f7bcca	-7927.5986
188	0xc5a64539	-5320.653
189	0x44a3739e	1307.613
190	0x44e53ddc	1833.9331
191	0x452a3ea2	2723.9146
192	0xc4f112d5	-1928.5885
193	0xc4aaf07c	-1367.5151
194	0xc30c3117	-140.19176
195	0xc5add9dc	-5563.2324
196	0xc59aac1d	-4949.514
197	0xc5545968	-3397.588
198	0xc4707656	-961.849
199	0x430e8dc4	142.55377
200	0x44f1db8a	1934.8606
201	0xc4de717e	-1779.5466
202	0xc39f59a2	-318.70026
203	0x44f65092	1970.5178
204	0xc53ec9e6	-3052.6187
205	0xc4979222	-1212.5667
206	0x44af4dd9	1402.4327
207	0x4577c9c4	3964.6104
208	0x459481e2	4752.2354
209	0x45cddfca	6587.9736
210	0xc57d2f24	-4050.9463
211	0xc5380da5	-2944.8528
212	0xc3e81398	-464.15308
213	0xc61016b3	-9221.675
214	0xc5f5ea3a	-7869.2783
215	0xc59729ab	-4837.2085
216	0x45c9c9e4	6457.2363
217	0x45cc83a0	6544.453
218	0x45d56da5	6829.7056
219	0x4588810b	4368.1304
220	0x45918c8e	4657.5693
221	0x45a06d78	5133.6836
222	0x4521870a	2584.44
223	0x45417f5a	3095.9595
224	0x456dba28	3803.6348
225	0xc639278f	-11849.89
226	0xc6086f12	-8731.768
227	0xc59dcf98	-5049.949
228	0xc5fdd230	-8122.2734
229	0xc5938e60	-4721.797
230	0xc47f9adf	-1022.41986
231	0xc58e8e12	-4561.759
232	0xc4905cf7	-1154.9052
233	0x450c4e4a	2244.893
234	0xc5d648a8	-6857.082
235	0xc57f2d1a	-4082.8188
236	0xc50d36c4	-2259.4229
237	0xc5789286	-3977.1577
238	0xc4a9deb9	-1358.9601
239	0x42ce62f8	103.1933
240	0xc4cb4174	-1626.0454
241	0x44352aae	724.6669
242	0x44d9b58a	1741.6731
243	0x4411a48e	582.57117
244	0x4509c8ba	2204.5454
245	0x4579459a	3988.35
246	0x44d34836	1690.2566
247	0x4551a2da	3354.1782
248	0x459fab36	5109.4014
249	0x451ee008	2542.002
250	0x457fb1e9	4091.1194
251	0x45b22da6	5701.706
252	0xc5c8e10b	-6428.1304
253	0xc58dbb6e	-4535.4287
254	0xc56a0c5b	-3744.7722
255	0xc5826b36	-4173.4014

exp_avg_sq f4 [50, 25, 3, 3]
0	0x4dc532f7	4.1355645e+08
1	0x4e007e70	5.3894246e+08
2	0x4e1107ec	6.083039e+08
3	0x4e000c03	5.370677e+08
4	0x4e20e156	6.7478054e+08
5	0x4e2f3107	7.3480646e+08
6	0x4e0625b6	5.626546e+08
7	0x4e24161a	6.88228e+08
8	0x4e2e6a7a	7.315534e+08
9	0x4cc2226b	1.0178236e+08
10	0x4cbf4edf	1.00300536e+08
11	0x4ca8bf86	8.847262e+07
12	0x4cc3aa24	1.0258461e+08
13	0x4caa4ee5	8.9290536e+07
14	0x4c83452f	6.8823416e+07
15	0x4c9c7d90	8.204608e+07
16	0x4c6bdc23	6.182926e+07
17	0x4c1a8dbc	4.051531e+07
18	0x4c45d284	5.1857936e+07
19	0x4c2399bf	4.2886908e+07
20	0x4bc92458	2.636408e+07
21	0x4caa9bb6	8.944786e+07
22	0x4c88fd76	7.182226e+07
23	0x4c1fcb0d	4.188882e+07
24	0x4ceecd48	1.2520096e+08
25	0x4cbc3ced	9.869092e+07
26	0x4c578036	5.649225e+07
27	0x4c6099e6	5.887785e+07
28	0x4c3875f2	4.835527e+07
29	0x4c0eb696	3.7411416e+07
30	0x4c10abfb	3.7924844e+07
31	0x4bc814c1	2.6225026e+07
32	0x4b7c9d38	1.655532e+07
33	0x4b75515d	1.6077149e+07
34	0x4b092124	8.986916e+06
35	0x4a9395de	4.836079e+06
36	0x4c54e658	5.58104e+07
37	0x4c7267b9	6.354506e+07
38	0x4c943b8e	7.771659e+07
39	0x4c77c4b9	6.4951012e+07
40	0x4c8ec2fe	7.484824e+07
41	0x4cae16e3	9.1272984e+07
42	0x4c8d3ba8	7.404678e+07
43	0x4ca39e45	8.578308e+07
44	0x4cc58b5d	1.0357015e+08
45	0x4d2f4cff	1.8381618e+08
46	0x4d6e73b8	2.5003507e+08
47	0x4d84a685	2.781882e+08
48	0x4d650fa7	2.4018802e+08
49	0x4d9791e4	3.178651e+08
50	0x4da4a065	3.4524688e+08
51	0x4d648b55	2.3964603e+08
52	0x4d957a72	3.1347872e+08
53	0x4da06880	3.364004e+08
54	0x4caa0509	8.913927e+07
55	0x4cd23651	1.1021172e+08
56	0x4ccbc15c	1.0682646e+08
57	0x4cf57978	1.2869933e+08
58	0x4d0e8bde	1.4947069e+08
59	0x4d015922	1.356314e+08
60	0x4d0518b3	1.3956178e+08
61	0x4d12a153	1.5375288e+08
62	0x4cfb7f6f	1.3185727e+08
63	0x4c8d2365	7.3997096e+07
64	0x4ccfdfe0	1.0898611e+08
65	0x4d263fed	1.7432546e+08
66	0x4cdebcb6	1.1677842e+08
67	0x4d2ea4c6	1.8312714e+08
68	0x4d866cb6	2.8190893e+08
69	0x4d34d836	1.8962928e+08
70	0x4d89148a	2.8747808e+08
71	0x4dc306ec	4.0900134e+08
72	0x4bd00bb7	2.7268974e+07
73	0x4bc55714	2.5865768e+07
74	0x4bc25af0	2.5474528e+07
75	0x4bc19d35	2.5377386e+07
76	0x4bcb5b54	2.6654376e+07
77	0x4bface22	3.287354e+07
78	0x4c0ecbcd	3.743314e+07
79	0x4c2d184c	4.537579e+07
80	0x4c666faa	6.0407464e+07
81	0x4de54798	4.808343e+08
82	0x4e235322	6.850336e+08
83	0x4e3d00e1	7.9273786e+08
84	0x4e3e2d15	7.976564e+08
85	0x4e814460	1.084371e+09
86	0x4e8fbb97	1.2057179e+09
87	0x4e7ec8c5	1.0686426e+09
88	0x4ea5b7d8	1.3901445e+09
89	0x4eb1a1e0	1.490088e+09
90	0x4d5e9916	2.3341091e+08
91	0x4d780dc3	2.6010322e+08
92	0x4d563aa0	2.246354e+08
93	0x4dbed16f	4.0017456e+08
94	0x4dcbe37e	4.2758547e+08
95	0x4da693e3	3.4933872e+08
96	0x4e05bb32	5.6090944e+08
97	0x4e083a68	5.713823e+08
98	0x4dd47fdf	4.4564374e+08
99	0x4e6b60a0	9.8724454e+08
100	0x4ea34123	1.3694775e+09
101	0x4ebba74f	1.5741521e+09
102	0x4eba51af	1.5629577e+09
103	0x4ef849ed	2.0827972e+09
104	0x4f09362a	2.3020283e+09
105	0x4ef19bc7	2.026759e+09
106	0x4f1b333b	2.603826e+09
107	0x4f25f8ff	2.7845588e+09
108	0x4d87e4b8	2.849892e+08
109	0x4dae9d5f	3.6619363e+08
110	0x4dd30602	4.425483e+08
111	0x4dd03fc8	4.367301e+08
112	0x4e01af7b	5.439403e+08
113	0x4e14fb25	6.2487174e+08
114	0x4e0ed3f2	5.990637e+08
115	0x4e2b26e3	7.178631e+08
116	0x4e3bc7ba	7.876072e+08
117	0x4c99f0d1	8.0709256e+07
118	0x4c9d9a87	8.262969e+07
119	0x4c68e8e7	6.10559e+07
120	0x4c997146	8.044805e+07
121	0x4c927236	7.677995e+07
122	0x4c4746b5	5.223906e+07
123	0x4c52abe6	5.5226264e+07
124	0x4c39c2b7	4.8696028e+07
125	0x4be220b8	2.9639024e+07
126	0x4e2d1cb7	7.2608506e+08
127	0x4e72a367	1.01769875e+09
128	0x4e8ed300	1.1980964e+09
129	0x4e9517c7	1.2506817e+09
130	0x4ec85900	1.680638e+09
131	0x4ee198b8	1.8924411e+09
132	0x4ed5d02c	1.7935949e+09
133	0x4f098d48	2.3077376e+09
134	0x4f14c568	2.4959652e+09
135	0x4cd8ab23	1.13596696e+08
136	0x4d169988	1.5791526e+08
137	0x4d28a0ca	1.7681936e+08
138	0x4d142007	1.5532043e+08
139	0x4d47439f	2.089436e+08
140	0x4d57bb63	2.2621138e+08
141	0x4d2045bb	1.6805778e+08
142	0x4d51541b	2.1949688e+08
143	0x4d5c3dbc	2.3093958e+08
144	0x4d69fb12	2.453466e+08
145	0x4d988dc7	3.1992854e+08
146	0x4d9fc870	3.3508915e+08
147	0x4db2327d	3.7370666e+08
148	0x4ddd572f	4.641848e+08
149	0x4dde4589	4.6613738e+08
150	0x4dd5fb65	4.487528e+08
151	0x4dff209d	5.3504093e+08
152	0x4df72a13	5.1834122e+08
153	0x4e3d39ec	7.9367245e+08
154	0x4e738fe3	1.0215733e+09
155	0x4e7eac4f	1.0681763e+09
156	0x4e907f9c	1.212141e+09
157	0x4eb33a2d	1.5034671e+09
158	0x4eb568e9	1.5217757e+09
159	0x4eb233c1	1.4948681e+09
160	0x4ed69adf	1.8002369e+09
161	0x4ed412cb	1.7790007e+09
162	0x4d0da4a7	1.4852363e+08
163	0x4d45b89b	2.0732562e+08
164	0x4d5aabbc	2.29293e+08
165	0x4d5e77a0	2.3327386e+08
166	0x4d9ad29a	3.2468666e+08
167	0x4da7ffa6	3.5231866e+08
168	0x4d941b5b	3.106026e+08
169	0x4dc96003	4.2231408e+08
170	0x4dd5da4b	4.4848163e+08
171	0x4ccb2aa1	1.0651777e+08
172	0x4d112833	1.5220818e+08
173	0x4d2f7dc4	1.8401594e+08
174	0x4d039f0a	1.3801488e+08
175	0x4d3451a3	1.8907806e+08
176	0x4d4f6e98	2.1750822e+08
177	0x4d07fbd0	1.4258918e+08
178	0x4d3320b1	1.8782901e+08
179	0x4d466765	2.0804155e+08
180	0x4d26e26e	1.7499107e+08
181	0x4d5edb0d	2.336811e+08
182	0x4d8fd64f	3.0164835e+08
183	0x4d7a18bc	2.6224531e+08
184	0x4da27d1f	3.4076362e+08
185	0x4dc64c5d	4.1586166e+08
186	0x4dab2c18	3.589742e+08
187	0x4dd3ee2e	4.4445024e+08
188	0x4df49c98	5.129879e+08
189	0x4cc66062	1.0400642e+08
190	0x4d20cf56	1.686214e+08
191	0x4d5c4180	2.30955e+08
192	0x4d3833ed	1.9315067e+08
193	0x4d906ff9	3.0290717e+08
194	0x4dbbcb9c	3.938354e+08
195	0x4d8be742	2.933986e+08
196	0x4dd0f3e3	4.3820554e+08
197	0x4e01a69e	5.437951e+08
198	0x4c597d11	5.7013316e+07
199	0x4c5e3aa1	5.8256004e+07
200	0x4c477379	5.22849e+07
201	0x4caba141	8.9983496e+07
202	0x4ca58cf3	8.6796184e+07
203	0x4c892cc6	7.191915e+07
204	0x4ce84c87	1.21791544e+08
205	0x4cd5339f	1.11779064e+08
206	0x4ca6fc21	8.754817e+07
207	0x4e02af33	5.4813e+08
208	0x4e3b02c2	7.8438e+08
209	0x4e594c20	9.114112e+08
210	0x4e4933fb	8.4390675e+08
211	0x4e8aa1f7	1.1629352e+09
212	0x4e9beffe	1.3080983e+09
213	0x4e7b11b2	1.0530602e+09
214	0x4ea722ca	1.4020375e+09
215	0x4eb6aa8e	1.5323154e+09
216	0x4bf38466	3.1918284e+07
217	0x4bff0830	3.3427552e+07
218	0x4bcad3a1	2.6584898e+07
219	0x4c547701	5.5696388e+07
220	0x4c58da2d	5.6846516e+07
221	0x4c25cd02	4.346369e+07
222	0x4c9e79a4	8.308662e+07
223	0x4c9db163	8.2676504e+07
224	0x4c6d76ec	6.2249904e+07
225	0x4e07c3ea	5.694409e+08
226	0x4df2ab1b	5.0891248e+08
227	0x4dc748e1	4.1793027e+08
228	0x4de7c7c6	4.8607866e+08
229	0x4dcfcf4f	4.3580874e+08
230	0x4dad4389	3.6336054e+08
231	0x4db77d8f	3.848074e+08
232	0x4da616b0	3.483131e+08
233	0x4d8dc218	2.9728845e+08
234	0x4cfd0044	1.3264541e+08
235	0x4cbe85e5	9.9888936e+07
236	0x4c9143da	7.616072e+07
237	0x4cb8b6ac	9.68431e+07
238	0x4c8b5052	7.304053e+07
239	0x4c58a415	5.6791124e+07
240	0x4c80966a	6.741691e+07
241	0x4c442169	5.1414436e+07
242	0x4c1c2cfc	4.094053e+07
243	0x4ab2039f	5.8331675e+06
244	0x4b18fbf6	1.0025974e+07
245	0x4b953871	1.9558626e+07
246	0x4af67832	8.076313e+06
247	0x4b428c2d	1.2749869e+07
248	0x4bafac4b	2.3025814e+07
249	0x4b1c3a45	1.0238533e+07
250	0x4b594234	1.423826e+07
251	0x4bb29afd	2.341017e+07
252	0x4cb8b0cc	9.683107e+07
253	0x4c9798c8	7.948038e+07
254	0x4c7e9fdf	6.6748284e+07
255	0x4c7dbeef	6.6517948e+07
