models/probabilistic_training/500/sigma0.01_step0.0002_lr0.0004/ckpt/model_epoch_300.pth (torch, 282369 bytes, 18 tensors)

layer1.weight f4 [25, 1, 3, 3]
00000000: a3ec bf3d be65 9bbd a3eb 753d bfe2 603d
00000010: e0e6 503d 74b2 cf3c 6c6b 1abc 36b4 f03d
00000020: c0e4 273e 9af4 9ebd 8e94 863d b561 68bd
00000030: 7641 b63b 5efa c7bd 2672 153d 0323 993a
00000040: c0d4 2cbe bdfd 313e 6f11 653c f6af a1bd
00000050: bcfd 053e afe5 023e 0d0f c63c e8ca e1bd
00000060: 5864 41bd 3e3e 233e 8669 9a3c e6fb cf3c
00000070: fbf6 013d b660 fcbd 6db7 223c a8f1 f83c
00000080: 7e26 e1bd e846 d93d d6dd 6a3d 8daf f7bb
00000090: deb9 f9bd d3ac 6b3d 1dd7 fbbd f365 ee3c
000000a0: 7d55 01be fc81 dabc d2c6 f0bd 2b45 63bd
000000b0: a838 7e3d 2e2c 41bc f870 93bd c77e 993c
000000c0: abf3 173e d1b3 043e 9817 dcbb caf7 69be
000000d0: 8e81 573d b786 6a3e cfc0 c23d b43c bdbd
000000e0: 9b79 d43c 392d 6bbd 3a58 b1bd ec87 ea3c
000000f0: 35bf 97bc 89c4 8b3c 3abd 1cbd a2e8 4abd
00000100: b6f0 023e c140 6dbe 843e 1abe 7e48 423c
00000110: d3b4 1cbe 7263 df3c b56c 4b3d 8fa9 313c
00000120: 9ade 4bbe 8c3a 0b3e 60f8 5ebd c23d ec3d
00000130: 0721 07bd 0b75 bdbb 9247 ba3d bd37 5a3d
00000140: ac85 a03d 86a4 303d cb6e 47bd 8737 babb
00000150: 64be 15bc 2d92 f23c bfc4 843d c5c2 ac3d
00000160: c07d 51bd df1c d53c 77a4 2ebd d1a2 d7bd
00000170: ed20 053c 3f6b b13d e91f 263d 43f4 893d
00000180: 8225 903c bf33 4cbe df8e 8b3d e610 45bb
00000190: c58d 133d 4b27 3a3d 7a38 013e 5b03 a83d
000001a0: 7b8d c7bd f9af 913d 1b1a c2bd 7952 863c
000001b0: 988f 89bd df36 f2bc 4d59 d03c 0f53 44bc
000001c0: 13ae a53b 2bb1 11bc 69c7 8fbd d4cf 483d
000001d0: 9b55 0dbe 041c dcbd 0e37 ebbd 3731 74bd
000001e0: f0d6 483d 4b17 333e 88b2 1e3c 4a3c dbbb
000001f0: 2482 283e 7318 553c 0f40 b23d c281 023e
00000200: 9c40 6d3d 7e15 953d 7660 d1bc cf79 5d3e
00000210: 4702 663e a714 3cbd 7a44 53bb 65b8 3a3e
00000220: b9e8 263c fa26 923d 79f5 d03b fd79 c13d
00000230: e049 69bd c073 9abd ae04 613d 1855 e7bd
00000240: 660d 2b3c bea0 513c f186 0abc a895 f83c
00000250: 9410 9bbd a2cc 51ba b8f1 18bd e9c4 bfbd
00000260: dd20 40bd 8eb5 07be 8a09 333e a776 d1bd
00000270: a45b b03d fc8d 9abd 6819 30be e06f 8f3d
00000280: 84a1 f2bd 7cca 8a3c f769 1f3c fe4d e8bd
00000290: 1b0b fe3d cf15 1d3e 4647 823d 9828 a1bc
000002a0: 6c85 f63d 795d a2bd e779 03bd 5ba2 463d
000002b0: 019f 34be d734 4cbb 8730 8c3c aac4 a6bc
000002c0: 576a ed3d a1d0 cfbd 1c42 ce3d 663b 583e
000002d0: 666f 41be 3bd0 793c 0d8f f5bd 93e5 bfbc
000002e0: 0884 dabc bd9e 4bbd 0c38 fbbd fb6d bcbd
000002f0: 3301 79bd a61b e0bd ff64 82be f2a8 f63d
00000300: b104 bd3d 72c4 09bd fdc6 613d 1ee4 85bd
00000310: 188f 6ebb 9c0c 10bd 479f 3bbc b552 163d
00000320: 0f88 363d 779f 30bd daab 923d 3d4a 1e3c
00000330: 424a df3c dda3 503d 2b40 01be 4dc7 f2bc
00000340: 9ce3 b63d 7e2b 413e a183 2bbd dcdc f43d
00000350: 487c 44bd 5723 53bd 981c 353d d657 94bd
00000360: 5a58 ad3d 7ac1 4a3d 25e1 2b3e d380 c03c
00000370: 6e30 4bbd 515e 75bd a7e5 f83c 5ec3 eebd
00000380: 624f d0bc
0.09371307 -0.07587765 0.060039174 0.054903742 0.05100143 0.025353648 -0.009425025 0.117531225
0.16395855 -0.07761498 0.06571303 -0.056733806 0.005562003 -0.097645506 0.036485814 0.0011683408
-0.16878033 0.1738195 0.013981207 -0.0789489 0.13085073 0.1278293 0.024177099 -0.110250294
-0.047214836 0.15941712 0.018849146 0.02538867 0.03172968 -0.12323134 0.009931427 0.030388668
-0.1099367 0.106092274 0.057340465 -0.007558769 -0.121936545 0.057537865 -0.12296889 0.029101348
-0.12630267 -0.02667331 -0.11756672 -0.055485886 0.06206575 -0.011790318 -0.071992815 0.01873721
0.14839046 0.1295922 -0.00671668 -0.2284843 0.052613787 0.22902952 0.095094316 -0.09240094
0.025936892 -0.057416175 -0.08659406 0.028629266 -0.018523792 0.017061489 -0.038266398 -0.049538262
0.12787136 -0.23169233 -0.1506291 0.011858104 -0.15303354 0.027269099 0.049664218 0.010843649
-0.19909135 0.13596553 -0.054436088 0.11535217 -0.03299048 -0.005781775 0.09095682 0.053275812
0.07837996 0.04312565 -0.048689645 -0.005682889 -0.009139631 0.029610718 0.06482839 0.08435587
-0.051145315 0.026014743 -0.042637315 -0.10529102 0.008125526 0.08663034 0.040557776 0.06736042
0.01759601 -0.19941615 0.0681436 -0.0030069887 0.036023874 0.04544763 0.126192 0.08203765
-0.09743782 0.07113642 -0.094776355 0.016396748 -0.067168415 -0.02956718 0.025433207 -0.011982693
0.0050561517 -0.008892338 -0.07020456 0.049026325 -0.13802187 -0.10747531 -0.1148511 -0.059617247
0.049033105 0.17489354 0.00968612 -0.0066905366 0.16455895 0.013006317 0.087036245 0.12744811
0.057922944 0.0727949 -0.025558691 0.21628498 0.22461806 -0.045918133 -0.003223686 0.18234403
0.010187321 0.071363404 0.006376919 0.094470955 -0.05695522 -0.07541609 0.054936104 -0.11295527
0.010440206 0.012794672 -0.008455024 0.0303448 -0.075715214 -0.000800321 -0.037339896 -0.093637295
-0.04690634 -0.13252851 0.17484108 -0.10227709 0.08611229 -0.075466126 -0.17197192 0.0700376
-0.11847213 0.016942255 0.009729854 -0.11343001 0.12404462 0.1534035 0.063612506 -0.019672677
0.12037167 -0.07927985 -0.032098677 0.048494678 -0.1763878 -0.0031159425 0.017112983 -0.020357449
0.11592548 -0.10147215 0.10071203 0.21116409 -0.18890151 0.0152474 -0.119901754 -0.0234249
-0.026674286 -0.04971193 -0.122665495 -0.092006646 -0.06079216 -0.109427735 -0.2546768 0.120439425
0.092294104 -0.03363461 0.05512141 -0.065376505 -0.0036401208 -0.035168275 -0.011451549 0.03669997
0.04456335 -0.043120828 0.07161684 0.0096612545 0.027257089 0.050937522 -0.12622134 -0.02963605
0.08930132 0.18864247 -0.041873578 0.11956188 -0.047970086 -0.051547375 0.044216722 -0.07243316
0.08464117 0.04950092 0.16785105 0.023498928 -0.049606733 -0.0599044 0.030382944 -0.11658357
-0.025428478

layer1.bias f4 [25]
00000000: dd21 6f3e 2227 16be a42e 803d 55e9 30be
00000010: 11c3 97bd 2a44 85be 1c23 913c 112b dabc
00000020: b7c8 733e de46 6c3d 6afa 8abe c178 123d
00000030: 49dd 873d 9def 15be 843d b53d 47af 043e
00000040: cfda 383e 0602 c53c 90c7 853e 6860 52bd
00000050: 7251 aabd 674f 7ebd 5d3c 24be f807 6bbe
00000060: 3758 8bbe
0.23352762 -0.14663365 0.06258896 -0.17276509 -0.07410253 -0.26028568 0.017716937 -0.026631864
0.23807035 0.05768477 -0.27144176 0.03575969 0.06634004 -0.14642186 0.08849624 0.12957488
0.18052219 0.024048816 0.26128817 -0.05136147 -0.08316316 -0.062087443 -0.16038652 -0.22952259
-0.2721574

layer2.weight f4 [50, 25, 3, 3]
00000000: 82f4 9dbc bd85 a0bb d907 92bd fef5 393c
00000010: fd8f 98bd 2e0c d53c c6c6 303c 91dd 9ebd
00000020: 2ef5 c13c 6146 9abb 48ba 083c a89b 56bd
00000030: df8b 243a 81a2 b83b 623e c83b 5583 efbc
00000040: 37a3 043d a295 1abe 27bc 87bc 67ea 1d3c
00000050: 939f b9bd f152 1bbd d4bc febd fb32 aebd
00000060: 3e4e bcbd 68a5 84bd 3c49 57bd d795 8e3d
00000070: 8867 9e3c 8c5b 733a 64c7 dd3c 15a1 5c3d
00000080: 41f4 9c3d 6933 07bc 01c3 08bd 05e3 3cbc
00000090: 78fe 75bd 8c33 033d 299c bdbc e7d2 6dbd
000000a0: 46a6 05bc f9ec 163b 77d7 93bc a060 a3bd
000000b0: 004d 613d 8faf 3abb 20fa 213d 055d 23bc
000000c0: 8523 3b3b 3ed0 2a3c c5dd 7a3c fa8c c03b
000000d0: 88bb 32bd aea5 c43d 1a01 fa3b a893 1b3d
000000e0: cc3d 74bb 0c3c 9dbd 9c5e fa3d 2eee 233d
000000f0: e18a a13d 19e4 c43d 918a de3d 9fae 373d
00000100: 9946 38bc bf2a 053d 92a6 183d 3a18 67bd
00000110: 7760 e4bc 1f16 0fbd a225 48bd c687 38bd
00000120: 372f 983d 7cfe 7cbd ac4a 8abd 23c5 1ebd
00000130: 6fc1 0a3c e910 dbbb a9f4 5b3d d63b 3cbc
00000140: 98f4 3c3d 1978 12bd b091 c1bc 256e 42bd
00000150: 4d37 17be e637 1dbd 9947 1b3c e84e b8bd
00000160: 81e0 033d 247a afbc 6572 473d ad82 ba3d
00000170: cb36 dabb ab93 f73c faa9 903c f52c 8eba
00000180: 87b0 cb3c f2ac 623d 0812 0cbd 822e bb3d
00000190: 24d6 36bc d6d5 1dbd 1589 25bc ecf5 7b3d
000001a0: 4a24 d0bc fbae 8bbd 861e 8bbd 20e4 2b3c
000001b0: 43df 393c 1415 843c 6e6a cebd 7603 b7bd
000001c0: feb0 a7bd d5ce 403d 04b5 56bd e309 e83d
000001d0: ef81 9c3d da00 87bd a2d7 013d 1579 cfbb
000001e0: 066e e4bc 8a53 e73c 21d3 3bbd 99d7 40bd
000001f0: dac5 bb3c d879 f13c 53d7 49bc 9d72 983b
00000200: 94bd 8fbd ecde 97bd 3e20 31bc ffe8 4b3d
00000210: ec6e a9bb 80c4 663d fa82 c1bd 4620 bbbd
00000220: d8a6 adbd cbc7 71bd d612 36bd 5902 153d
00000230: 9857 d7bc be99 1bbd 59c3 18bd 6f46 0cbd
00000240: 475c eb3c daf5 f4bd 47cb 2f3d a7ab 52bd
00000250: d016 103d b38a 933d e098 213d 603d b43d
00000260: c079 453d 542a 83bb 87d0 1abd 1666 a03c
00000270: 374f 373d b8eb 043d f352 2fbc 3152 c63d
00000280: 9ddd 86bd b940 94bc 6afa 37bd d383 703d
00000290: 1fce c53c 4af9 3e3d 6233 cebc b789 583c
000002a0: b3db b9bc 91e1 9cbc 68f8 c23d a5ad 943d
000002b0: 1991 2fbe 3dbe 313d 7a08 c33b 8f83 f23b
000002c0: 858a 89bb 8975 38bd d242 7dbd 1635 a43c
000002d0: 2cbb f4bc 5999 22bc aa52 d23d dd07 d03d
000002e0: a3f5 15bd a4f8 4a3d 186e 9a3b 2e7d 7fbd
000002f0: d61b 0c3d 2cf5 97bd 958a 503d d7d4 4c3d
00000300: 9572 07bd b875 bd3c 0720 02bd 7b19 8bbd
00000310: fd00 943d 5f14 813d 3fd3 8c3d f425 083d
00000320: a39f 10bd b306 2cbd e132 993d 60de 5d3d
00000330: c432 ebbc 4079 633d b9a6 703d 5548 95bc
00000340: 0c4f e6bc 9d16 a6bd c869 5fbb 2284 9cbd
00000350: 72f2 413d 6cb6 7bbc 7c26 95bc 3d2f dcbc
00000360: 82e8 7bbc 2457 39bc e5db 233b ba8f 97bc
00000370: fc9e f4bd 0aa3 3bbd a89b c4bc f52a 5fbd
00000380: 83a0 efbc 27b3 573d 1583 d13c 6109 053d
00000390: 84bc 3ebd 5bcb 1bbe 00a5 aebd 71cb b4bb
000003a0: f75a 17bd db22 84bd 4a3c 9f3d 860a 4c3c
000003b0: 195d 9abb 67b4 e03b 17f6 173b 8692 ed3c
000003c0: 7a3b 08bc 47b2 54bd 0b1b 19bd 6058 be3d
000003d0: 80a9 2e3d 35be a2bc 4ac8 993d a223 213d
000003e0: 0418 0c3d c934 083e f23e ea3c edd6 d33b
000003f0: 19d8 3f3d 9ba0 46bd 6c66 90bd 7a63 7c3c
-0.01928163 -0.0048987553 -0.07130403 0.011350153 -0.074493386 0.026006784 0.010789579 -0.07757104
0.023676481 -0.004708097 0.008345194 -0.05239454 0.0006276946 0.0056346064 0.0061109522 -0.029237429
0.032382216 -0.15096143 -0.01656921 0.009638405 -0.090636395 -0.037920896 -0.1243836 -0.085058175
-0.09194611 -0.06476861 -0.052560076 0.069621734 0.019336477 0.0009283356 0.027072616 0.053864557
0.07663775 -0.008252003 -0.033389095 -0.011528735 -0.060057133 0.03203158 -0.023145752 -0.05806246
-0.008157318 0.002302943 -0.018047078 -0.07977414 0.055005074 -0.0028485989 0.03954518 -0.009970908
0.0028555107 0.010425625 0.015311663 0.0058761807 -0.043635875 0.096019134 0.007629526 0.037982613
-0.003726828 -0.07677469 0.122250766 0.040022068 0.07887817 0.09613819 0.10866273 0.044844266
-0.011247301 0.03251147 0.03726823 -0.05641959 -0.02787803 -0.034933206 -0.048864014 -0.04505136
0.074308805 -0.061766133 -0.06752524 -0.038762223 0.00846897 -0.0066853655 0.053700123 -0.011488875
0.0461317 -0.035759065 -0.02362904 -0.047468323 -0.1476719 -0.038383387 0.009477519 -0.08999425
0.032196525 -0.021420546 0.04869308 0.09106956 -0.006659364 0.03022178 0.017659176 -0.0010847138
0.024864448 0.055340715 -0.034196883 0.0913973 -0.011159454 -0.038534008 -0.010103484 0.061513826
-0.025407929 -0.06820484 -0.06792931 0.010491401 0.011344734 0.016123332 -0.100788936 -0.08936207
-0.081880555 0.04707225 -0.052418724 0.11330011 0.0764197 -0.06591959 0.031699784 -0.006331573
-0.027884495 0.028238077 -0.045855645 -0.04708061 0.022921491 0.029477045 -0.012319404 0.004652335
-0.07018581 -0.07415566 -0.01081091 0.04978275 -0.0051706936 0.05633974 -0.0944881 -0.09137015
-0.084790885 -0.059028428 -0.044451557 0.036379192 -0.026286885 -0.037988417 -0.037295673 -0.03424686
0.028730525 -0.11960955 0.04291847 -0.05143323 0.035178006 0.07204189 0.039452434 0.08800769
0.048211813 -0.0040028486 -0.037796523 0.019579928 0.04475328 0.03245136 -0.010700929 0.096836455
-0.06585238 -0.018097268 -0.044916548 0.058719467 0.024146138 0.04662446 -0.025170986 0.0132164275
-0.022687769 -0.019150527 0.09520036 0.072596826 -0.17145194 0.043394316 0.005951938 0.007400937
-0.004197421 -0.045033965 -0.061831303 0.020044845 -0.029874407 -0.009924256 0.10269673 0.1015775
-0.03661121 0.04955353 0.004712831 -0.06237524 0.034206234 -0.0741981 0.050913412 0.050007667
-0.03306826 0.023127422 -0.031768825 -0.067919694 0.07226751 0.063027136 0.068762295 0.03323932
-0.03530849 -0.041998576 0.074804075 0.05416715 -0.02871073 0.055535555 0.05875275 -0.018222967
-0.028113864 -0.08109782 -0.003409015 -0.0764239 0.047350354 -0.015363317 -0.018206827 -0.026877994
-0.015375258 -0.01131228 0.0025002894 -0.018501151 -0.11944386 -0.045809783 -0.024000004 -0.054484326
-0.029251343 0.052661087 0.0255752 0.032479648 -0.0465665 -0.15214293 -0.08527565 -0.005517416
-0.036951985 -0.06451961 0.07775171 0.012453681 -0.004710805 0.006857443 0.0023187452 0.029000532
-0.008314962 -0.05192783 -0.037379306 0.092942 0.042642117 -0.019866088 0.07508905 0.039340623
0.03420259 0.13301386 0.028594468 0.00646483 0.046836946 -0.04849301 -0.070507854 0.015404576

layer2.bias f4 [50]
00000000: 0ab4 26bd e15e 3ebd 3b57 513d 4469 17bd
00000010: 43bb 6d3c e4c1 2c3d d0b9 f8bb 0228 803d
00000020: 3f5e a6bc bad7 303a a8f6 683c b11a 083d
00000030: f06e a63c fd89 383b 9cff 1b3d fa65 85bd
00000040: 60c3 323d 840a 603d 5443 aebc b7b7 83bd
00000050: 0fe1 98bc 2161 463d cc2c 6a3d 1627 183d
00000060: 243d 1ebd 3d82 413d f8a5 91bd 5126 edbc
00000070: 3590 df3b 5912 623d ba5f 73bc 84a2 f8bb
00000080: 6445 92bd 2cf0 03bd 3252 bc3c c720 723d
00000090: 6ff3 613d e557 5f3c fa85 52bd 2602 113c
000000a0: f2a2 493c 75e0 803a d7d3 0ebd c03d a0bc
000000b0: 4119 d9bc 6a3c a53c d40e c5bc 02ea cdbc
000000c0: c3f9 a93b ddf3 adbc
-0.040699042 -0.046477202 0.05110858 -0.036965623 0.014509979 0.042177096 -0.00759051 0.06257631
-0.020308612 0.0006746013 0.014218964 0.03322858 0.020316571 0.002815842 0.038085565 -0.06513591
0.043643355 0.05469753 -0.021272339 -0.06431525 -0.018662004 0.048432473 0.057171628 0.03714665
-0.038632527 0.047243346 -0.07111734 -0.028948935 0.0068226107 0.05519328 -0.014854366 -0.0075877327
-0.071421415 -0.032211468 0.022988413 0.05911329 0.055163797 0.0136317955 -0.0513973 0.00885061
0.012306916 0.0009832518 -0.034869995 -0.019560695 -0.0265013 0.02017041 -0.024054922 -0.025135998
0.0051872446 -0.021234447

layer4.weight f4 [25, 50, 3, 3]
00000000: f5ca f83c e61b ac3d 0fb6 bdbd 4c92 dcbc
00000010: 6de1 c3bc 9c25 e83c c69e 88bd 41d9 333d
00000020: 700f fb3b 9df2 f43d 5130 25bd 49f4 8cbb
00000030: 852c 3cbc 9af4 183d d3eb 59bb 2efc 653d
00000040: c95a 0b3c 09fc e6bc cf0f 3c3d 8ad0 85bc
00000050: 1fba 633d 7d0b 343d d34f 653d 183b ff3c
00000060: 96e0 afbd 1640 113b 981a 60bc a47a f23c
00000070: 85d3 ea3b 8793 4fbd 909c e73c 9939 963d
00000080: e095 16bc 82b4 933d 2265 243c 59f4 2a3d
00000090: f970 35bd 0208 813c c6bd 763b 66fd 6b3c
000000a0: 139b 923c 6442 15bc c358 02bd 6e45 44bd
000000b0: 2cf9 2d3d 07d3 473d c78a 1fbc eda4 773c
000000c0: 8c49 82bd 9b75 2e3d bd06 5abc 1167 f43c
000000d0: 6970 4cbd abb0 863d a647 4f3d a649 563d
000000e0: 8e95 cfbc 7e50 8a3d 0dbb 7ebd cab0 823d
000000f0: 0629 293d 0ce3 5e3d dc9b 9cbd 7593 80bd
00000100: 7beb 5c3d c1cd d03d 0420 463d ac48 eb3c
00000110: 3b26 563d 62cd aa3d 9da3 af3d 4657 923d
00000120: fec3 05bd 42d6 01bd e336 6fbd 4157 c33d
00000130: f191 8eba 0468 65bd 2204 a93c 31dd 89bd
00000140: 46b6 34bd 76d6 11bd 832a 23bc 01a1 a93d
00000150: e8d1 39bb 3d77 993b 8b15 803d 161d 113d
00000160: 68a3 353d b4f4 83bc 75f3 1d3c 16c3 9d3d
00000170: aff8 54bc 5a22 f83c f21c 953d 77ce 3f3c
00000180: 166e 82bd e3d9 813d e677 a33d ba6d 70bc
00000190: 82b7 99bd 52b4 813d 502c f0bd 3e72 92bd
000001a0: af50 3c3d 7c27 28bd 5fdd a63c b741 d7bb
000001b0: 630b 7f3d 9fb2 1fbc ee06 a4bd a64d f93c
000001c0: c971 a73c f2e8 083c 8cda febc 9109 0abc
000001d0: 3626 063d eb21 913c 9dab d0bc b960 15bb
000001e0: ae3e 81bd 13b0 9e3d c96f a4bc c1a6 3b3d
000001f0: d307 fc3c 41cc 73bd 6406 e03c 64f0 64bc
00000200: 52e0 213d 16a3 81bb e54c 4dbd b7ae 82bc
00000210: 00fc d53c 46c7 5abd d06a f23b 4cdf 4f3d
00000220: f369 6cba 192b 34bd cb47 243d 827b 5abc
00000230: 67ac e4bc 7f45 553c a43c cbbb ef93 993b
00000240: 83b1 24bd 08b2 4a3c 1c0d 4d3c 1ba4 833a
00000250: 417d a43c 562a 673a db31 c33c 7401 cd3c
00000260: 325b fa3c 73ee 6fbd 26b0 0bbd 3da0 003c
00000270: a7b0 b5bd 4b99 8abc 6414 0b3d 03a8 26bd
00000280: 84a1 8d3c fb76 c53b b4b0 3f3d d31d 4fbd
00000290: e0de 63bc ef20 6e3b ee8d 263b 9bb6 c1b8
000002a0: 1bcb f1bc f310 e8bc 18a7 99bc c6c7 473d
000002b0: 026b 283d 9881 e6bd f654 39bd 187d 8fba
000002c0: 4d0e 7abd 72f7 78bc 8f3a 8c3d 35c7 54bd
000002d0: d640 99bc 2e15 343b 975c 26b9 01fe 94bc
000002e0: 3dda ab3c 3c92 4dbd 91bb a03d 5792 1bbd
000002f0: e381 c1bd 49d9 1abd 71c1 a6bd 7dec c93c
00000300: d287 073d 04c6 7b3c edaf 87bd 18ea 8a3b
00000310: ae62 61bd b6c7 a63c 3c37 933b 820b 813d
00000320: b879 973a 09aa 14bd 6c08 afbd b932 01bd
00000330: ba14 b93d d390 493c 19e4 c43c 5c22 373d
00000340: 68a1 0fbb 247f 2b3c f279 43bd 5d85 143d
00000350: 07c5 a5bc 26a7 673d 1c17 abbd 33c1 12bd
00000360: 562c 583d a252 a1bd e67f b63d b169 33bc
00000370: 3013 a53d 798d 41bd 9294 ecbc 92d1 6abd
00000380: 467e 4c3b 1209 433d 7e7e df3b 4a06 4dbc
00000390: 0d52 5cbc e291 10bc 63ec ed3d c8c9 a9bb
000003a0: 2411 973c 0ed4 24bc 77a3 41bb 235b 3c3b
000003b0: 2cc9 81bd 4449 993d bc26 36bd b95b cdbd
000003c0: 62a9 463d 048c cfbc df86 c83b db46 8fbd
000003d0: 9270 adbc b2a0 49bd 0dfc 92bb 6dd1 c83d
000003e0: 9794 9cbd 557b 843b 758f 27bd 134b bc3d
000003f0: 812a 3abd 89bc a9bd 00ae 6c3d 42e0 09bd
0.030370215 0.08403759 -0.092632405 -0.026925229 -0.023911202 0.028338246 -0.06670909 0.04390836
0.0076617524 0.11960337 -0.04032928 -0.004301582 -0.011485224 0.037342645 -0.0033252134 0.0561487
0.008505532 -0.028196352 0.045913514 -0.01633479 0.05559742 0.04395627 0.05598433 0.031156108
-0.08587758 0.0022163442 -0.013678215 0.029599495 0.0071663284 -0.050677802 0.028272897 0.07335205
-0.009191006 0.072121635 0.010033878 0.041736934 -0.044297192 0.015750889 0.0037649735 0.014403677
0.01789621 -0.009110067 -0.03182293 -0.047917776 0.042473957 0.048785236 -0.009737677 0.015115005
-0.06361684 0.042592626 -0.013307271 0.029834302 -0.04991189 0.065766655 0.05060544 0.05231633
-0.025339868 0.06753634 -0.062190104 0.06381376 0.04129889 0.054415748 -0.07646915 -0.06278125
0.05393551 0.101954944 0.048370376 0.028721176 0.052282553 0.08339955 0.08576129 0.07145552
-0.032657616 -0.031698473 -0.058401953 0.09538127 -0.0010877234 -0.0560074 0.020631853 -0.06731642
-0.044119142 -0.035604917 -0.009958866 0.08282662 -0.0028353874 0.0046834038 0.06254109 0.03542813
0.04434529 -0.016107894 0.009640564 0.07703225 -0.012998744 0.030289818 0.072809115 0.01170694
-0.063686535 0.06340387 0.07981853 -0.014674598 -0.075057045 0.063332215 -0.11727202 -0.07150696
0.045975383 -0.04105328 0.02036923 -0.006569113 0.06226672 -0.009747176 -0.08009134 0.030432533
0.02044 0.00835632 -0.03111007 -0.008425132 0.032751285 0.017716369 -0.025472457 -0.0022793247
-0.06310783 0.07748427 -0.020072835 0.045813326 0.03076545 -0.059520964 0.027346797 -0.013973329
0.03952057 -0.003956209 -0.05012216 -0.015952451 0.02612114 -0.0534127 0.007397987 0.050750062
-0.0009018473 -0.043986414 0.04010753 -0.013335111 -0.02791424 0.013017057 -0.0062022973 0.0046868245
-0.04020835 0.0123715475 0.012515333 0.0010043414 0.020079257 0.0008818259 0.023827484 0.025025107
0.030561063 -0.058577012 -0.034103535 0.007850704 -0.088715844 -0.016918799 0.033954993 -0.040687572
0.01728893 0.0060261465 0.046799377 -0.050565552 -0.013908118 0.0036335548 0.0025414187 -9.23697e-05
-0.029515794 -0.028328395 -0.018756434 0.048774503 0.041117676 -0.11255187 -0.04524704 -0.0010947315
-0.061048795 -0.015195714 0.06847107 -0.05194779 -0.018707674 0.0027478444 -0.00015865486 -0.018187525
0.020978088 -0.050188288 0.078482755 -0.037981357 -0.09448602 -0.037804876 -0.08142365 0.0246489
0.033088513 0.015367035 -0.06625352 0.004239332 -0.05502575 0.020358901 0.0044926684 0.06301023
0.0011556661 -0.03629497 -0.08546528 -0.031542514 0.090371564 0.012302595 0.024034547 0.044710502
-0.0021916274 0.010467324 -0.047723718 0.036259998 -0.020235552 0.05655589 -0.08354017 -0.03582878
0.052776657 -0.07877089 0.089111134 -0.010950492 0.080603 -0.04725406 -0.028879438 -0.057328768
0.0031203195 0.047616072 0.006820499 -0.012513706 -0.013447297 -0.008823844 0.11617353 -0.005181525
0.01844079 -0.010060323 -0.0029546896 0.0028740845 -0.063371986 0.074846774 -0.044470534 -0.1002726
0.04850138 -0.02533532 0.0061195935 -0.069959365 -0.021171842 -0.049225517 -0.004485613 0.0980557
-0.07645529 0.0040430226 -0.040908296 0.09194007 -0.04545069 -0.08287913 0.057783127 -0.033661135

layer4.bias f4 [25]
00000000: c832 1e3c c46e eb3c 31b6 b73c 70bf ed3b
00000010: 2b31 943c e1c9 baba 8df7 25bd 9106 32bd
00000020: 2479 d1bc 596b d53c f9b5 c2bc 8a55 053c
00000030: ffa1 0bbd a078 30bb ba95 cf3c 742e 143d
00000040: 1c4c 2e3d 5895 2f3c f53f b13c c8a2 87bc
00000050: 47ee 143b db3d 47bd 5d7b f93c 4e31 31bd
00000060: c8f8 11bb
0.009655662 0.02873934 0.022425743 0.007255487 0.018089851 -0.0014250838 -0.040519286 -0.043463293
-0.02557046 0.026052164 -0.023768412 0.00813807 -0.03409004 -0.0026927367 0.02533995 0.036177114
0.042553052 0.010716759 0.021636942 -0.016557112 0.0022725032 -0.048642974 0.030454332 -0.04325991
-0.002227353

exp_avg f4 [25, 1, 3, 3]
00000000: e4d2 3bc6 d2aa e2c5 e2ff a843 36f8 1ac6
00000010: fe7d 50c5 0a45 9b45 6f7a 8dc5 945e 5645
00000020: c4ac 3946 9b4f 0747 24c8 0147 5bdb bc46
00000030: 348c e046 cef5 d846 2833 a146 c2ff 7946
00000040: 7806 7846 9182 2e46 323c fbc6 b2c7 2ac7
00000050: bcfc 1bc7 e62e 4dc7 7e84 74c7 79e7 5cc7
00000060: 33c6 67c7 1918 81c7 9dfd 62c7 aac9 a7c6
00000070: 6462 0ac6 beb5 fa45 12d4 bbc6 cc24 1dc6
00000080: 5e0d fe45 bc4c a2c6 eaa0 d7c5 eb96 1746
00000090: c005 5447 ea5b 7047 4247 5347 d380 6347
000000a0: 3bb2 7947 ed03 5a47 d0cc 3247 b00a 4247
000000b0: 8340 2447 badb 15c7 9473 44c7 76b5 43c7
000000c0: 9c3a 65c7 e3e4 82c7 6c54 75c7 ea5b 80c7
000000d0: 4efe 84c7 d6c8 67c7 54c5 8c47 3206 9747
000000e0: 4354 7747 88ec 9b47 d0e5 a147 1fad 8347
000000f0: c952 8047 225b 8047 4c02 4447 491a 6c47
00000100: fd21 8747 9ed0 6347 34e1 8d47 505d 9947
00000110: 6f61 7c47 152a 8647 b8ad 8947 dc32 5547
00000120: fd9e 48c7 44f8 13c7 d992 78c6 6ecf 82c7
00000130: 2b44 43c7 3c06 b0c6 3be5 89c7 ce10 48c7
00000140: 006e acc6 9a92 3ec6 670d 80c6 88c2 69c6
00000150: c831 dac6 9617 e0c6 dbd3 b5c6 b680 0ec7
00000160: 92fd 01c7 4abf bbc6 629d d6c5 a65d 68c5
00000170: 2492 4445 b6e1 17c5 686f 4944 f7d1 e745
00000180: 9d2a af45 74c5 0146 36d4 5b46 97e3 4ac7
00000190: 9e66 4cc7 55d3 10c7 6e53 80c7 cb24 7dc7
000001a0: 70d2 3cc7 039b 74c7 7cb1 6cc7 20cc 2bc7
000001b0: fc13 c246 6842 6f46 7051 2245 7f06 c346
000001c0: cd99 4d46 f3b4 aac4 8759 9346 3497 bc45
000001d0: ce86 0bc6 9404 d8c6 0137 00c7 6898 e6c6
000001e0: f032 36c7 532e 49c7 1896 37c7 73aa 64c7
000001f0: acbd 72c7 1a1b 5bc7 9443 1bc7 da23 1bc7
00000200: 1fd5 d0c6 2a62 43c7 5a1a 41c7 7709 07c7
00000210: 4683 2fc7 36a6 29c7 f349 e1c6 e6ef 11c7
00000220: e3d7 1bc7 6293 eac6 a541 e8c6 bf91 f2c6
00000230: 7855 abc6 a4e7 5bc6 4c03 56c6 defc aac5
00000240: cec7 5f47 4b60 5847 9671 2047 aaa7 7f47
00000250: 6caf 6847 ceec 2247 70ad 5f47 06d0 3d47
00000260: f2cd e546 d16b 1d46 b32c e546 65a3 1c47
00000270: 6efb e646 8131 3947 b6b5 5a47 6441 2047
00000280: 6b41 5947 9a50 6f47 0e9f 74c6 73a2 85c6
00000290: 2002 54c6 14ca d5c6 64c5 ecc6 6f19 d0c6
000002a0: 8e59 f2c6 ec65 05c7 c1e0 eec6 4248 47c7
000002b0: ba19 3bc7 5a5a 09c7 70ea 66c7 8c43 57c7
000002c0: 6d21 24c7 8452 55c7 4c50 45c7 4a06 15c7
000002d0: d02e 6047 986c 4e47 d8e7 0047 34f0 7f47
000002e0: 7f9f 6447 1010 0f47 aef0 5047 d475 2f47
000002f0: 598a b546 0979 1247 d231 1b47 2f05 e746
00000300: c615 5147 7a27 5947 a295 2947 04c9 6a47
00000310: 7efc 6f47 b22a 3e47 6be5 69c6 1af1 37c6
00000320: 52c7 bbc5 629c c0c6 f28a acc6 4115 7ec6
00000330: 14a4 f5c6 eee9 eac6 a4ca bfc6 6ace 45c7
00000340: 3682 70c7 6954 65c7 7592 6dc7 2194 8dc7
00000350: 48d1 89c7 bea9 5dc7 6c2d 84c7 38aa 81c7
00000360: b264 0fc7 26bb 13c7 f574 e0c6 3481 f3c6
00000370: 527e f4c6 0cc8 b1c6 17d1 46c6 b9b2 31c6
00000380: 074a 5dc5
-12020.723 -7253.3525 337.99908 -9918.053 -3335.8745 4968.63 -4527.304 3429.9111
11883.191 34639.605 33224.14 24173.678 28742.102 27770.902 20633.578 15999.939
15873.617 11168.642 -32158.098 -43719.695 -39932.734 -52526.9 -62596.492 -56551.473
-59334.2 -66096.195 -58109.613 -21476.832 -8856.598 8022.718 -24042.035 -10057.199
8129.671 -20774.367 -6900.1143 9701.7295 54277.75 61531.914 54087.258 58240.824
63922.23 55811.926 45772.812 49674.688 42048.51 -38363.727 -50291.58 -50101.46
-58682.61 -67017.77 -62804.42 -65719.83 -68092.61 -59336.836 72074.66 77324.39
63316.26 79833.06 82891.625 67418.24 65701.57 65718.266 50178.297 60442.285
69187.98 58320.617 72642.41 78522.625 64609.434 68692.164 70491.44 54578.86
-51358.99 -37880.266 -15908.712 -66974.86 -49988.168 -22531.117 -70602.46 -51216.805
-22071.0 -12196.65 -16390.701 -14960.633 -27928.89 -28683.793 -23273.928 -36480.71
-33277.57 -24031.645 -6867.673 -3717.853 3145.1338 -2430.107 805.7407 7418.2456
5605.3267 8305.363 14069.053 -51939.59 -52326.617 -37075.332 -65702.86 -64804.793
-48338.438 -62619.01 -60593.484 -43980.125 24841.992 15312.602 2597.0898 24963.248
13158.45 -1365.6547 18860.764 6034.9004 -8929.701 -27650.29 -32823.004 -29516.203
-46642.938 -51502.324 -46998.094 -58538.45 -62141.67 -56091.1 -39747.58 -39715.85
-26730.56 -50018.164 -49434.35 -34569.465 -44931.273 -43430.21 -28836.975 -37359.9
-39895.887 -30025.691 -29728.822 -31048.873 -21930.734 -14073.91 -13696.824 -5471.6084
57287.805 55392.293 41073.586 65447.664 59567.42 41708.805 57261.438 48592.023
29414.973 10074.954 29334.35 40099.395 29565.715 47409.504 55989.71 41025.39
55617.418 61264.6 -15655.764 -17105.225 -13568.531 -27365.04 -30306.695 -26636.717
-31020.777 -34149.92 -30576.377 -51016.258 -47897.727 -35162.35 -59114.438 -55107.547
-42017.426 -54610.516 -50512.297 -38150.29 57390.812 52844.594 32999.844 65520.203
58527.496 36624.062 53488.68 44917.83 23237.174 37497.035 39729.82 29570.592
53525.773 55591.477 43413.633 60105.016 61436.492 48682.695 -14969.3545 -11772.275
-6008.915 -24654.191 -22085.473 -16261.313 -31442.04 -30068.965 -24549.32 -50638.414
-61570.21 -58708.41 -60818.457 -72488.26 -70562.56 -56745.742 -67674.84 -66388.44
-36708.695 -37819.15 -28730.479 -31168.602 -31295.16 -22756.023 -12724.272 -11372.681
-3540.6267

exp_avg_sq f4 [25, 1, 3, 3]
00000000: 13fd 5d4e 9b05 6a4e eb16 674e f233 594e
00000010: f125 5c4e a53e 554e f4af 4c4e b0dc 474e
00000020: c655 3f4e 6fc2 0e4f c6f5 3a4f a0f8 434f
00000030: 3b4e 244f 5295 514f fc5f 584f 1040 264f
00000040: 48a5 4d4f 1894 504f eeec 5250 ef3b 8050
00000050: 811a 8050 9cb4 8250 49ac 9d50 044d 9c50
00000060: 8352 8850 d2bc a150 1fb6 9e50 9e38 884e
00000070: c616 744e 4e35 464e d01d 6d4e f010 5b4e
00000080: ecb0 434e a73a 294e 7ba1 2b4e f8e0 344e
00000090: eff5 3d50 067d 6550 fb49 6350 4eb2 3f50
000000a0: e6b1 6a50 cea1 6b50 19bd 1a50 6967 4150
000000b0: 6c3d 4650 e054 d350 d520 ed50 a27d e850
000000c0: 8410 e650 cf4e fd50 8d76 f350 68b5 da50
000000d0: 67a3 e950 a5a4 da50 d42e 3151 3d52 4951
000000e0: 2049 4251 51cb 3b51 da62 5251 aabe 4851
000000f0: 0338 2651 817a 3751 7f73 2d51 47ad 2651
00000100: c4f3 3451 ed6f 2751 684c 3b51 c634 4751
00000110: 0a4a 3451 f2f7 3251 d6ec 3951 0f99 2451
00000120: 50cf 5351 755d 2d51 7cf0 e850 ca60 6551
00000130: b186 3551 c069 e750 f8d5 5551 feb0 2351
00000140: 36fc c650 f9d4 e44f f02d ba4f 22af 854f
00000150: 7f63 1150 1401 f44f 8edb b34f 00a3 1f50
00000160: 382b 0850 2f63 cb4f e10a d34e a0b2 a44e
00000170: f53c 804e b0af be4e 2844 8b4e 6ddb 514e
00000180: 687d ad4e 121f 774e d08a 3e4e 9d58 9450
00000190: ad3a a150 0ba2 9250 f5aa b150 209f c250
000001a0: e6fe b250 8066 b550 a02d c850 4847 ba50
000001b0: d652 444f ee43 644f 1837 8a4f 4732 8a4f
000001c0: 10b3 a64f 859c c74f 4138 ae4f a107 d74f
000001d0: 14aa fd4f f2c8 184f 24f6 714f 89bb a24f
000001e0: e0f7 5c4f d0d7 a34f eba7 cd4f 327b 8d4f
000001f0: b7a2 c44f 810f e84f e831 674f 5ba1 824f
00000200: 24cd 724f d442 8c4f ec73 a14f 51cc 964f
00000210: b3f4 854f e5b6 9a4f 5a84 914f 228d a34f
00000220: d7ee 9f4f fabb 804f 069d c04f 46e9 ba4f
00000230: 0623 964f 2682 bd4f 0774 b74f 7355 944f
00000240: ccce 4f50 8ff9 4450 a711 1850 d585 5750
00000250: 2ca9 4450 6b59 1250 ab32 3950 4710 2350
00000260: c5da ea4f ddbc b34f 347a 0250 d6f8 2650
00000270: 5e6f fb4f 1a9c 3450 d7d7 5f50 e9e7 1d50
00000280: 7b33 5b50 34f6 8250 3ba0 764e b380 f84e
00000290: f56a 584f 20d5 bb4e 7e2f 4c4f 8d10 a84f
000002a0: 2f90 fb4e 3569 864f bb92 d24f 06bf e64f
000002b0: a39c d44f a9df a44f b18e 0650 b8d3 f54f
000002c0: 4939 be4f 06d4 0450 95b3 f14f d040 bb4f
000002d0: a5a8 f250 e832 e050 beda a850 f22c 0451
000002e0: f24c ef50 f0db af50 2325 f050 3bc1 d450
000002f0: 5496 9850 d9e5 8e4f 3d75 ad4f 997a b14f
00000300: ec27 d64f 7149 fe4f ff46 fd4f b555 0550
00000310: 6401 1b50 f3da 1750 9c78 714e f730 914e
00000320: a9d6 c44e 9799 844e 861c a74e 5f4d e74e
00000330: f4b6 924e ff19 c34e 5d74 074f 3746 0c50
00000340: 519d 2350 71ac 2550 c98b 3850 4387 5650
00000350: ea88 5950 d6b0 4950 be00 6850 5e7f 6a50
00000360: 22bd ec4e de9b 2d4f 621b 474f fdb0 304f
00000370: 07bb 774f 6557 8b4f d7ea 534f 8e28 8f4f
00000380: 369e 9e4f
9.3108755e+08 9.81559e+08 9.692597e+08 9.1101504e+08 9.233685e+08 8.944131e+08 8.585208e+08 8.3828224e+08
8.025174e+08 2.395107e+09 3.1366692e+09 3.287851e+09 2.7565903e+09 3.516224e+09 3.630169e+09 2.7892163e+09
3.4501612e+09 3.4993664e+09 1.4154971e+10 1.7211292e+10 1.7193765e+10 1.7542996e+10 2.116251e+10 2.0978344e+10
1.829687e+10 2.170805e+10 2.1301885e+10 1.1427059e+09 1.0237833e+09 8.3134554e+08 9.945385e+08 9.188301e+08
8.20788e+08 7.0979834e+08 7.198717e+08 7.586606e+08 1.2748045e+10 1.5400704e+10 1.5253106e+10 1.2864535e+10
1.5750109e+10 1.5812999e+10 1.0384336e+10 1.2979119e+10 1.3303656e+10 2.836444e+10 3.1826815e+10 3.120438e+10
3.0878736e+10 3.3998404e+10 3.2677063e+10 2.9354574e+10 3.13584e+10 2.9345786e+10 4.756218e+10 5.404176e+10
5.2153156e+10 5.0410623e+10 5.64751e+10 5.3887017e+10 4.461902e+10 4.9252143e+10 4.656044e+10 4.474198e+10
4.857399e+10 4.4946084e+10 5.027755e+10 5.3473993e+10 4.8396018e+10 4.80415e+10 4.99089e+10 4.418391e+10
5.6857264e+10 4.653733e+10 3.1264596e+10 6.157321e+10 4.872805e+10 3.1059739e+10 5.7401115e+10 4.394057e+10
2.6707341e+10 7.678325e+09 6.2471455e+09 4.4856945e+09 9.756868e+09 8.1874227e+09 6.035021e+09 1.0713039e+10
9.138135e+09 6.82455e+09 1.7703528e+09 1.3815849e+09 1.0757393e+09 1.5995924e+09 1.1682499e+09 8.802046e+08
1.4553385e+09 1.03650214e+09 7.9919206e+08 1.9910683e+10 2.1639817e+10 1.9680745e+10 2.3846169e+10 2.6121667e+10
2.4024396e+10 2.4347148e+10 2.6867466e+10 2.500187e+10 3.293763e+09 3.829657e+09 4.637733e+09 4.6371016e+09
5.593506e+09 6.6978473e+09 5.8458445e+09 7.215203e+09 8.511564e+09 2.563306e+09 4.05944e+09 5.4603986e+09
3.7072323e+09 5.4976594e+09 6.900668e+09 4.7473224e+09 6.597996e+09 7.7866604e+09 3.8788076e+09 4.3832253e+09
4.0735304e+09 4.70638e+09 5.4174577e+09 5.059945e+09 4.4948127e+09 5.191355e+09 4.88274e+09 5.487871e+09
5.36646e+09 4.319606e+09 6.4630323e+09 6.2717e+09 5.0377554e+09 6.3588465e+09 6.155669e+09 4.977256e+09
1.3945745e+10 1.3218758e+10 1.0205175e+10 1.4463489e+10 1.3197685e+10 9.821335e+09 1.2428422e+10 1.0943012e+10
7.8804116e+09 6.030998e+09 8.756187e+09 1.1205302e+10 8.4367596e+09 1.2120517e+10 1.5021858e+10 1.0596886e+10
1.4710337e+10 1.7577386e+10 1.034424e+09 2.084592e+09 3.6308882e+09 1.5756534e+09 3.4256645e+09 5.639314e+09
2.1102652e+09 4.5100836e+09 7.065663e+09 7.742557e+09 7.1340703e+09 5.5322424e+09 9.029993e+09 8.248586e+09
6.3828506e+09 8.913951e+09 8.1101563e+09 6.283174e+09 3.2569108e+10 3.009146e+10 2.2663262e+10 3.548061e+10
3.2118378e+10 2.3603413e+10 3.2231725e+10 2.8555467e+10 2.047991e+10 4.794856e+09 5.8202834e+09 5.9552036e+09
7.185881e+09 8.532452e+09 8.498577e+09 8.947946e+09 1.0402238e+10 1.0190835e+10 1.0128033e+09 1.2179526e+09
1.6512012e+09 1.1123291e+09 1.4018322e+09 1.9403037e+09 1.2307318e+09 1.6366304e+09 2.2725501e+09 9.413647e+09
1.0979984e+10 1.1118167e+10 1.2384675e+10 1.4396755e+10 1.4598515e+10 1.3535238e+10 1.5569451e+10 1.5736863e+10
1.985909e+09 2.9126733e+09 3.3404605e+09 2.964389e+09 4.1562294e+09 4.675521e+09 3.555383e+09 4.8035994e+09
5.3223373e+09

exp_avg f4 [25]
00000000: 8d3f 6546 969f 17c6 df81 9746 a86e c745
00000010: 36e0 10c5 4af9 7cc6 24e2 73c6 82f2 2ec6
00000020: 7ea2 e846 7e34 5b46 d8d2 fbc5 c29e 6f46
00000030: a9e0 b5c5 275c 7346 f5d8 fc46 8876 7246
00000040: 861f c9c5 6c9a 9c44 6b0a 6146 688c 0d46
00000050: ce79 f7c5 ad55 cdc6 e98e df45 2c6e 1946
00000060: d3d7 1645
14671.888 -9703.896 19392.936 6381.832 -2318.0132 -16190.322 -15608.535 -11196.627
29777.246 14029.123 -8058.3555 15335.689 -5820.0825 15575.038 32364.479 15517.633
-6435.9404 1252.8257 14402.6045 9059.102 -7919.2256 -26282.838 7153.864 9819.543
2413.489

exp_avg_sq f4 [25]
00000000: 7eb7 154e 4fda ae4f ba82 954e a453 0a4f
00000010: bf9a 4b4e 67c6 514f d450 474f 5086 894f
00000020: 6e60 0f50 f92a d64e 78fc 1a4e 2814 a04e
00000030: f7c3 914d b8f3 934f 1d02 134f c305 e74e
00000040: 24f1 3f4e 444f b14e eac1 034e 90fd 504f
00000050: 3041 4a4f 173c 0e4f 5e04 8a4f a82f e74e
00000060: 4012 4b4e
6.279576e+08 5.8670853e+09 1.2541862e+09 2.3207373e+09 8.539791e+08 3.5194406e+09 3.3439631e+09 4.614562e+09
9.621846e+09 1.7965702e+09 6.5005926e+08 1.3428378e+09 3.0569238e+08 4.964446e+09 2.4663892e+09 1.9379572e+09
8.050629e+08 1.487381e+09 5.526309e+08 3.5062784e+09 3.3932698e+09 2.3863027e+09 4.631084e+09 1.93933e+09
8.517427e+08

exp_avg f4 [50, 25, 3, 3]
00000000: fef1 2245 22bb 2145 7afd 7c44 26e2 8745
00000010: 6994 7e45 4cea 0a45 15f8 5a45 59d3 3745
00000020: bf4c 8044 2e4a 0e45 13f3 b444 ef1f 7044
00000030: 5dcc 6f44 a057 3443 1aa9 2ec3 bff4 fe43
00000040: 4ecc 61c2 60ea 1bc3 2054 de44 9493 0e45
00000050: eafc 0045 5a48 2745 ac5a 3f45 00d1 2545
00000060: 940e 2345 bc5f 2b45 ec32 0a45 82e4 6145
00000070: a2d7 9945 a792 c245 d375 1b45 36df 6f45
00000080: e7cc a345 62ec 0145 aeec 5245 5722 9445
00000090: a04f 22c5 4946 64c5 eec7 59c5 b67d 9bc5
000000a0: 9834 b4c5 0607 a4c5 b8c2 b0c5 088f bec5
000000b0: 5042 a1c5 5ecb 1846 5c53 1246 89b8 fc45
000000c0: 521c 1746 a810 1046 d697 f545 3841 0c46
000000d0: 7330 0546 cf24 e745 b712 13c5 908b 28c5
000000e0: 4091 1ec5 f693 2ec5 7490 3cc5 11e9 2ac5
000000f0: 30ac 22c5 afd4 26c5 1402 11c5 502e 23c5
00000100: 7efd 22c5 2e36 d1c4 9018 a4c5 f4e8 9dc5
00000110: fbba 68c5 8c65 c2c5 00ce b3c5 88fc 80c5
00000120: ae11 2ac3 8041 dac2 c7a5 60c4 2ccb 2e43
00000130: 8015 32c2 a641 82c4 be11 96c4 0c96 ddc4
00000140: c792 2fc5 e0dc 3144 1634 5c44 0e7a 2244
00000150: db62 9c44 1128 a444 fd90 7a44 2537 7344
00000160: d81b 6e44 baae 0944 a8eb 9345 ac27 9145
00000170: 468b 9645 be92 7645 008f 7145 9004 7f45
00000180: 2432 6b45 292d 6d45 83c9 7d45 88b0 7d42
00000190: 39a0 8a44 1317 d644 2c4b ba44 9071 1b45
000001a0: 5059 3845 8821 0745 ea05 3a45 f2e1 4745
000001b0: 1816 85c5 cc86 91c5 5db6 88c5 6c8f 91c5
000001c0: a89e 9bc5 1058 90c5 36ee 8dc5 8cd2 95c5
000001d0: 1e91 89c5 d263 ea45 1ea5 f345 90ca e745
000001e0: 7c01 c545 b1af c645 f0ea b745 725a 8945
000001f0: 8838 8445 c3bc 6d45 c601 a645 67c3 d245
00000200: 0042 c045 fc7b 0e46 9edf 1e46 e36a 0c46
00000210: 7017 1e46 304c 2546 70e1 0946 70b3 57c5
00000220: d97a 21c5 ad91 fbc4 6fc0 6bc4 40af 6042
00000230: 80cb 0344 282b 5744 c4d7 df44 075b fa44
00000240: a6f3 e1c5 3695 edc5 68fa e1c5 b634 d8c5
00000250: 8cbc ddc5 9fcb cdc5 b6ca c6c5 dd5c c7c5
00000260: 59ec b5c5 90eb 83c5 0e28 69c5 e844 18c5
00000270: 5838 a3c5 a390 8ec5 64d6 3fc5 74b8 9fc5
00000280: d95f 88c5 e171 2fc5 5acf 43c5 fa6c 14c5
00000290: 28cd 0bc5 a272 84c4 6e8d f2c3 174b 14c4
000002a0: 0b5d 63c4 f680 20c4 c830 88c4 5a9c c645
000002b0: d813 a545 5cd2 5945 6234 ab45 b78e 8545
000002c0: e12b 1945 0e20 6745 9545 1d45 d0bb 7644
000002d0: ba84 a8c5 c22b cec5 11c3 b8c5 3675 02c6
000002e0: 9b98 10c6 54db fdc5 9c43 0cc6 3474 13c6
000002f0: 22cf f6c5 588f f242 76de 58c4 edf8 99c4
00000300: 1848 a5c4 ba8f 13c5 bc46 27c5 be64 11c5
00000310: 81c3 4dc5 56e8 58c5 be1d 3c45 5acf 6345
00000320: 6266 8045 8f02 5745 830b 7a45 6f78 8745
00000330: 5926 8345 c1d4 9045 57e7 9445 66fb a445
00000340: 243e b145 9002 ab45 24bc d245 ba58 da45
00000350: 18f7 ca45 8192 0346 a0c9 0446 26d8 f145
00000360: b244 4545 4115 7645 f7a8 9445 2bc0 8545
00000370: 7d77 a045 e276 b645 3d31 cc45 0243 e745
00000380: 2a74 f545 abc5 d5c5 726d 25c6 ec5d 4cc6
00000390: 708e 23c6 38cc 57c6 2005 75c6 3895 46c6
000003a0: 5b57 6fc6 6146 80c6 6360 8bc4 40ae 0e44
000003b0: 1cb9 0645 3e5f 9b43 6cf6 0445 c87c 6645
000003c0: 2cdf f744 8004 6745 7ab0 9c45 f3e9 adc4
000003d0: e1ba 61c5 66b9 a8c5 62ad 4fc5 8dfa a9c5
000003e0: b729 d9c5 f533 94c5 ee2f cbc5 c266 edc5
000003f0: b302 4645 8841 1345 0821 9244 5807 5e45
2607.1245 2587.6958 1011.9606 4348.2686 4073.2756 2222.6436 3503.5051 2941.2092
1026.3983 2276.6362 1447.5961 960.49896 959.1932 180.34229 -174.66055 509.91208
-56.449516 -155.91553 1778.6289 2281.2236 2063.8071 2676.522 3061.667 2653.0625
2608.9111 2741.9834 2211.1826 3614.2817 4922.954 6226.3315 2487.364 3837.9507
5241.613 2078.774 3374.7925 4740.2925 -2596.9766 -3652.3928 -3484.4956 -4975.714
-5766.574 -5248.878 -5656.34 -6097.879 -5160.289 9778.842 9364.84 8087.067
9671.08 9220.164 7858.9795 8976.305 8524.112 7396.601 -2353.1697 -2696.7227
-2537.0781 -2793.2476 -3017.0283 -2734.5667 -2602.7617 -2669.2927 -2320.13 -2610.8945
-2607.8433 -1673.6931 -5251.0703 -5053.119 -3723.6863 -6220.6934 -5753.75 -4127.5664
-170.06906 -109.12793 -898.5903 174.79364 -44.520996 -1042.0515 -1200.5544 -1772.689
-2809.1736 711.4512 880.81384 649.9071 1251.0892 1313.2521 1002.26544 972.86163
952.43506 550.7301 4733.457 4644.959 4817.409 3945.1714 3864.9375 4080.2852
3763.1338 3794.8225 4060.5945 63.422394 1109.007 1712.7211 1490.3491 2487.0977
2949.582 2162.0957 2976.3696 3198.1216 -4258.7617 -4656.8496 -4374.7954 -4657.9277
-4979.832 -4619.008 -4541.7764 -4794.3184 -4402.1396 7500.4775 7796.6396 7417.3203
6304.1855 6357.9614 5885.367 4395.3057 4231.0664 3803.7976 5312.2217 6744.4253
6152.25 9118.996 10167.904 8986.722 10117.859 10579.047 8824.359 -3451.2148
-2583.678 -2012.5524 -943.0068 56.171143 527.1797 860.6743 1790.7427 2002.8446
-7230.456 -7602.6514 -7231.301 -6918.589 -7095.5684 -6585.4526 -6361.339 -6379.608
-5821.5435 -4221.4453 -3730.5034 -2436.3066 -5223.043 -4562.0796 -3069.3994 -5111.0566
-4363.981 -2807.1174 -3132.9595 -2374.811 -2236.8223 -1059.5823 -485.10492 -593.1733
-909.4538 -642.015 -1089.5244 6355.544 5282.4805 3485.1475 5478.548 4273.8394
2450.7424 3698.0034 2516.3489 986.9346 -5392.591 -6597.4697 -5912.3833 -8349.303
-9254.151 -8123.416 -8976.902 -9437.051 -7897.8916 121.27997 -867.47595 -1231.7789
-1322.2529 -2360.983 -2676.421 -2326.2964 -3292.219 -3470.521 3009.859 3644.9595
4108.798 3440.16 4000.7195 4335.054 4196.7935 4634.594 4764.9175 5279.425
5671.7676 5472.3203 6743.5176 6987.091 6494.8867 8420.626 8498.406 7739.0186
3156.2935 3937.3284 4757.1206 4280.021 5134.936 5838.8604 6534.155 7400.376
7854.5205 -6840.7085 -10587.361 -13079.48 -10467.609 -13811.055 -15681.281 -12709.305
-15317.839 -16419.19 -1115.0121 570.72266 2155.5693 310.74408 2127.4014 3687.7988
1982.9741 3696.2812 5014.0596 -1391.3109 -3611.68 -5399.175 -3322.8364 -5439.319
-6949.2144 -4742.4946 -6501.991 -7596.8447 3168.1687 2356.0957 1169.0322 3552.459

exp_avg_sq f4 [50, 25, 3, 3]
00000000: 3b64 954d a5a6 904d 1ddc 734d df5f 984d
00000010: 8064 914d 6f94 714d d9ea 854d 2862 7c4d
00000020: 6b9b 504d d19c 2c4b 9379 5b4b 3465 7a4b
00000030: a97f 3a4b ca39 744b 4ea8 894b 2362 3e4b
00000040: 0bd5 724b 20e3 834b 281b 1e4c d39a 254c
00000050: d544 154c 0478 264c 57b7 2a4c 70cf 154c
00000060: 9b5a 154c 6415 154c 1bfa ff4b fcdc d24a
00000070: 771f 024b 76c5 2c4b f194 d14a d9d6 dc4a
00000080: 995f 084b dc70 e34a bdfe d94a 62ef f54a
00000090: 005d ec4c 986e fc4c 9579 e74c e8db 084d
000000a0: 055b 0e4d f807 fd4c 6971 064d a56e 074d
000000b0: 6fa4 e84c b1ff 454c 1397 214c 924f e64b
000000c0: 4a28 384c e140 104c f6bc c14b dc4f 144c
000000d0: 69cb e04b 7ba7 944b f1b0 e44a aab8 ec4a
000000e0: 83be ca4a ad31 ed4a 0af7 e74a 5fc5 ba4a
000000f0: e5a3 c34a 5342 b24a 01a8 864a 27f2 9a4c
00000100: e1c9 904c fad5 664c dbaf c44c 4778 b34c
00000110: 2256 8a4c a61a ce4c 876b b64c a526 884c
00000120: 8ee8 534c b9e0 554c d172 3e4c 85e6 364c
00000130: 4674 354c 1320 214c ecc7 094c 1968 094c
00000140: fb04 fe4b 596d 024b c02a 0a4b b95d f84a
00000150: eac1 014b 4ba2 064b 3054 ed4a 2f3b d64a
00000160: 83cb da4a e3a6 bf4a 7cbd 9e4b 3491 ae4b
00000170: 3dfb b44b c3eb 964b 0f6e a84b 5818 af4b
00000180: c87f 8b4b ad52 9d4b 97b5 a34b c40f 4a4b
00000190: 4945 8a4b d450 9e4b c725 854b bdbe b04b
000001a0: 3e75 c14b f9d7 934b 0ce5 b94b 6481 c04b
000001b0: b4bf 3a4c 8188 3a4c 6a10 204c f900 404c
000001c0: 4143 3c4c 182d 1e4c f5ec 2a4c 20ca 244c
000001d0: c21d 084c 978f 8f4b 21ad 8d4b cbb0 6f4b
000001e0: df06 304b ab6a 234b 391c 044b b2f6 b94a
000001f0: 033c b14a 3988 9d4a c95d c14d eb16 c94d
00000200: 9cbf b34d 5419 dd4d 867b e04d 15f6 c24d
00000210: 7f11 d74d 00f4 d34d 34af b24d 7419 5d4b
00000220: 57ec 844b c044 934b 0c5e 9d4b e3ff c84b
00000230: 7113 dd4b 71b1 d84b d72c 064c ffe2 0b4c
00000240: 723b cf4b d9d5 ca4b 09df a94b 59f8 b24b
00000250: 66fb a34b 17a7 7f4b 7b5b 884b 7765 6c4b
00000260: 1a3c 2f4b b2d7 2a4c f027 094c be83 b64b
00000270: e648 3c4c 22f7 124c 735c bd4b 3df0 2b4c
00000280: 9fb4 024c fd42 a44b b2ce 614c 99ba 824c
00000290: 5642 844c f583 6e4c 0850 894c 2491 884c
000002a0: a5ab 624c e766 7f4c 2b57 794c e171 d04b
000002b0: c341 814b 0b53 ea4a b531 874b f352 0e4b
000002c0: 643f 504a b3df fb4a eb22 5d4a 022b ca49
000002d0: 6f27 b74d 4f5d bc4d 76e0 a64d 7e67 cb4d
000002e0: 1624 cd4d 2284 b14d c288 c14d e1b0 be4d
000002f0: 3e35 a14d 9a2e b74b 6f4d dc4b a0a7 e64b
00000300: b564 e84b b40b 0c4c 5973 104c 3194 014c
00000310: e86e 194c 7327 1a4c 2244 de4a 3cdb 034b
00000320: 3b57 0d4b 0ada dc4a a3e7 024b 2966 0a4b
00000330: 92f2 e54a 7f2f 044b e764 064b 51a2 6a4b
00000340: 3e3f 804b e12d 774b e37c b14b 5f85 ad4b
00000350: 867f 944b 6138 f14b f5cf da4b d674 ac4b
00000360: 9965 7e4b e1e7 904b cfdd 9c4b 2bb1 6f4b
00000370: 4cca 904b ed94 a14b 1f63 934b 5215 b34b
00000380: 7aa6 c14b 6cc3 dc4e 389d f74e 35cf f74e
00000390: 3a3a eb4e b6fa 054f ab90 074f 8ada df4e
000003a0: 3983 004f 2a06 034f 2360 2a4c af87 754c
000003b0: 7595 a74c 4c6d 3e4c 7bd1 8e4c ee49 c54c
000003c0: 6d26 554c 4b92 9f4c 1c74 d84c 1ed4 4c4d
000003d0: 267c 7a4d fed2 884d af11 5c4d 6849 894d
000003e0: 90a3 974d b94a 554d fec5 854d 1ef8 934d
000003f0: eacd 2f4c 557d b84b e3e3 054b c9ba 844c
3.1329674e+08 3.0335504e+08 2.5570555e+08 3.1955248e+08 3.0491034e+08 2.533148e+08 2.808451e+08 2.646432e+08
2.187404e+08 1.1312337e+07 1.4383507e+07 1.6409908e+07 1.2222377e+07 1.6005578e+07 1.8043036e+07 1.2476963e+07
1.5914251e+07 1.728672e+07 4.144656e+07 4.34123e+07 3.912994e+07 4.36388e+07 4.475222e+07 3.927187e+07
3.9152236e+07 3.908136e+07 3.3551414e+07 6.909566e+06 8.527735e+06 1.1322742e+07 6.8675765e+06 7.2364605e+06
8.937369e+06 7.452782e+06 7.1432625e+06 8.058801e+06 1.2392243e+08 1.3234707e+08 1.2135953e+08 1.4350707e+08
1.4927061e+08 1.3266118e+08 1.4097371e+08 1.4201096e+08 1.21971576e+08 5.1904196e+07 4.2359884e+07 3.01873e+07
4.827575e+07 3.7815172e+07 2.5393644e+07 3.887909e+07 2.9464274e+07 1.9484406e+07 7.4937525e+06 7.756885e+06
6.6435215e+06 7.7723745e+06 7.601029e+06 6.1201115e+06 6.4107385e+06 5.8411935e+06 4.4124165e+06 8.123628e+07
7.591092e+07 6.051223e+07 1.031206e+08 9.409388e+07 7.252814e+07 1.080579e+08 9.564063e+07 7.138231e+07
5.555052e+07 5.6066788e+07 4.9924932e+07 4.794626e+07 4.756713e+07 4.2238028e+07 3.611845e+07 3.6020324e+07
3.3294838e+07 8.547673e+06 9.054912e+06 8.1384605e+06 8.503786e+06 8.823371e+06 7.776792e+06 7.0199275e+06
7.1694735e+06 6.2800495e+06 2.0806392e+07 2.2880872e+07 2.3721594e+07 1.978151e+07 2.2076446e+07 2.2950064e+07
1.8284432e+07 2.0620634e+07 2.145771e+07 1.3242308e+07 1.812341e+07 2.075076e+07 1.7451918e+07 2.316633e+07
2.5356924e+07 1.9378162e+07 2.4365592e+07 2.5232072e+07 4.895509e+07 4.8898564e+07 4.195985e+07 5.0332644e+07
4.935194e+07 4.146493e+07 4.4807124e+07 4.319859e+07 3.5682056e+07 1.8816814e+07 1.8569794e+07 1.5708363e+07
1.1536095e+07 1.0709675e+07 8.657977e+06 6.093657e+06 5.8076175e+06 5.1620125e+06 4.0551862e+08 4.217153e+08
3.7695987e+08 4.6367808e+08 4.7077395e+08 4.088634e+08 4.51031e+08 4.4449792e+08 3.7472832e+08 1.4489972e+07
1.742251e+07 1.9302784e+07 2.0626456e+07 2.6345414e+07 2.8976866e+07 2.8402402e+07 3.5173212e+07 3.667046e+07
2.716234e+07 2.6586034e+07 2.2265362e+07 2.345797e+07 2.1493452e+07 1.6754455e+07 1.787263e+07 1.5492471e+07
1.1484186e+07 4.478535e+07 3.5954624e+07 2.3922556e+07 4.935772e+07 3.852609e+07 2.4819942e+07 4.5072628e+07
3.4263676e+07 2.1530106e+07 5.9194056e+07 6.853959e+07 6.934187e+07 6.2525396e+07 7.199136e+07 7.160042e+07
5.9420308e+07 6.6952092e+07 6.5363116e+07 2.7321282e+07 1.6941958e+07 7.6783415e+06 1.772017e+07 9.327347e+06
3.411929e+06 8.2534015e+06 3.6230988e+06 1.6561602e+06 3.8410186e+08 3.9502896e+08 3.49966e+08 4.2656966e+08
4.3021178e+08 3.7227834e+08 4.0587066e+08 3.9990787e+08 3.3807763e+08 2.4010036e+07 2.8875486e+07 3.0232384e+07
3.0460266e+07 3.6712144e+07 3.7866852e+07 3.3968324e+07 4.02216e+07 4.0410572e+07 7.283217e+06 8.64134e+06
9.262907e+06 7.236869e+06 8.578979e+06 9.070121e+06 7.534921e+06 8.662911e+06 8.807655e+06 1.5376977e+07
1.6809596e+07 1.6199137e+07 2.3263686e+07 2.2743742e+07 1.9463948e+07 3.1617218e+07 2.868017e+07 2.2604204e+07
1.6672153e+07 1.899309e+07 2.0560798e+07 1.5708459e+07 1.8977944e+07 2.1178842e+07 1.9318334e+07 2.3472804e+07
2.5382132e+07 1.8518973e+09 2.0771379e+09 2.0787759e+09 1.9732308e+09 2.2478003e+09 2.274405e+09 1.8778207e+09
2.1560835e+09 2.1982193e+09 4.4662924e+07 6.436422e+07 8.7862184e+07 4.991928e+07 7.487791e+07 1.0343614e+08
5.587602e+07 8.36614e+07 1.13484e+08 2.1477834e+08 2.6265251e+08 2.8694112e+08 2.3075915e+08 2.8791117e+08
3.1800986e+08 2.2365275e+08 2.8054317e+08 3.1031392e+08 4.6086056e+07 2.4181418e+07 8.774627e+06 6.958855e+07

exp_avg f4 [50]
00000000: 7899 86c6 52a2 1bc6 9aca 4344 8ed0 3cc5
00000010: e44e 6a45 5fd6 0045 6575 a646 e8ff 07c4
00000020: f375 c7c5 a047 b6c2 82ea aec5 a0f0 bbc5
00000030: b8da a1c5 f89e 6cc5 c693 acc6 9f69 c044
00000040: 1bc5 6fc5 4881 0245 0295 21c6 3838 1945
00000050: 20b5 3b43 160e a6c4 8fb3 02c6 e808 8cc3
00000060: 7ed7 3cc6 0aef 52c5 4148 0846 7131 85c4
00000070: 983a 8ac5 ee38 3bc6 32d1 bcc4 e7cc f2c5
00000080: 79df b045 205b cbc5 0755 a6c6 6fd4 a945
00000090: 1a78 bac5 5f70 b3c5 24a7 86c6 6ed2 6845
000000a0: 5e09 b0c5 d033 0646 2413 78c4 6288 ab44
000000b0: ab01 8dc6 e807 74c6 1edf 5345 44b7 0d46
000000c0: 0eaf dfc5 7538 49c4
-17228.734 -9960.58 783.16565 -3021.0347 3748.9307 2061.3982 21306.697 -543.99854
-6382.7437 -91.13989 -5597.3135 -6014.078 -5179.34 -3785.9355 -22089.887 1539.3007
-3836.319 2088.08 -10341.252 2451.5137 187.70752 -1328.4402 -8364.89 -280.06958
-12085.873 -3374.94 8722.063 -1065.545 -4423.324 -11982.232 -1510.5374 -7769.613
5659.934 -6507.3906 -21290.514 5434.554 -5967.0127 -5742.0464 -17235.57 3725.1519
-5633.171 8588.953 -992.2991 1372.262 -18048.834 -15617.977 3389.9448 9069.816
-7157.882 -804.88214

exp_avg_sq f4 [50]
00000000: 0079 5d4d 3d20 5c4e e9af 4f4f 0387 604d
00000010: 66b3 464c 4341 c14d bdff 394e 75d7 e04c
00000020: aaf5 344e 0e63 0e4e 80b7 2d4d 4949 934e
00000030: a604 2c4f aaa6 224c 3bd7 224d a71e a04f
00000040: 1699 c34d f139 ad4d 94f7 884e 8c25 2f4e
00000050: 5968 094f 7a51 174f 4c2d e04d 2ce4 934e
00000060: ac99 524d 9a66 ad4c 0215 b24c 2f6f 184f
00000070: 7ad8 c84e 28ec f74d 32e4 8e4e 8653 414f
00000080: 937f fb4d 2661 054f b9f6 7c4f 92f3 6c4e
00000090: 700a 294f e626 654d 8a66 424f 6f8a 3e4e
000000a0: 5179 554e ce51 c14e 8626 f54d a402 5650
000000b0: 845a 5d4e 3aa6 034f b0fc bb4e 87ba 034d
000000c0: 611c d54e 407e 994e
2.3223091e+08 9.232751e+08 3.4844122e+09 2.3543403e+08 5.2088216e+07 4.0528496e+08 7.8013626e+08 1.1788177e+08
7.589997e+08 5.972141e+08 1.8215526e+08 1.2355268e+09 2.8859858e+09 4.263799e+07 1.707509e+08 5.372727e+09
4.1019872e+08 3.6328195e+08 1.1489633e+09 7.346184e+08 2.305317e+09 2.5386993e+09 4.7013312e+08 1.2406021e+09
2.208304e+08 9.091195e+07 9.336629e+07 2.5574234e+09 1.6848151e+09 5.1993114e+08 1.1986598e+09 3.2434765e+09
5.2743024e+08 2.2377364e+09 4.2440276e+09 9.938464e+08 2.8360335e+09 2.4028323e+08 3.2615e+09 7.9918586e+08
8.953744e+08 1.6216819e+09 5.1411782e+08 1.4361989e+10 9.284242e+08 2.208709e+09 1.5769498e+09 1.3812747e+08
1.7877034e+09 1.287594e+09
