models/best_G.pth (torch, 93770 bytes, 6 tensors)

layer1.weight f4 [25, 1, 3, 3]
0	0xbb8fce7f	-0.00438863
1	0x3dd0de86	0.10198693
2	0xbddcfcd5	-0.107904114
3	0x3da61113	0.081087254
4	0xbd13ff6d	-0.036132265
5	0xbd5fabf4	-0.054607347
6	0x3dfd0e78	0.12356275
7	0xbc2d1f40	-0.010566533
8	0x3e1cca01	0.15311433
9	0x3dd27a61	0.10277248
10	0x3c67816e	0.01412998
11	0x3e22b9ac	0.1589114
12	0xbcccdfe0	-0.025009096
13	0x3e7113be	0.23542687
14	0xbd2c167b	-0.042013627
15	0x3c9b2e16	0.018942874
16	0x3d067c69	0.03283349
17	0xbe1206df	-0.14260434
18	0xbdcf10b9	-0.101106115
19	0xbdbe3612	-0.09287657
20	0xbca0b21d	-0.019616181
21	0x3e132ff8	0.14373767
22	0x3e3f1ba2	0.18662885
23	0x3de4bb3c	0.111685246
24	0xbd59f47f	-0.053211685
25	0x3dff339b	0.12461015
26	0xbdbeb8c2	-0.093125835
27	0x3dba3105	0.09091381
28	0xbdb89538	-0.09012836
29	0xbe52bc84	-0.20579726
30	0x3d4efadd	0.05053221
31	0x3e6db9b4	0.23215371
32	0x3cfbfc66	0.030760001
33	0x3d9d34f5	0.076761164
34	0x3c9ee196	0.019394677
35	0xbe026377	-0.12733255
36	0xbca1a624	-0.019732542
37	0x3d6164d6	0.055027805
38	0xbe2d3c96	-0.16917643
39	0x3c314816	0.010820409
40	0x3db7576d	0.08952222
41	0xbdf70a55	-0.120625176
42	0xbe21accb	-0.15788572
43	0x3ce95dea	0.028487165
44	0xbcfa4487	-0.030550255
45	0xbd6ceab2	-0.05784101
46	0x3dfa6041	0.1222539
47	0xbd09f9e3	-0.033685576
48	0xbbd9bd43	-0.006644876
49	0xbe0892b4	-0.13337213
50	0xbe2538b7	-0.16134916
51	0x3d6b118f	0.057389792
52	0xbda0d916	-0.07853906
53	0xbdbf0aac	-0.093282074
54	0x3d6e2e4d	0.058149625
55	0x3d884c2a	0.06655152
56	0x3d7d3910	0.061821997
57	0x3e582b4f	0.21110271
58	0xbdf5af1f	-0.11996292
59	0x3dd99b3b	0.10625311
60	0x3c8de142	0.017319325
61	0x3d01ce19	0.03169069
62	0xbe12ed1e	-0.14348266
63	0xbcd403d5	-0.025880734
64	0x3e0fb9ed	0.14035769
65	0xbd8f2e3f	-0.069912426
66	0x3da70ede	0.081571326
67	0x3bcae0a4	0.00619133
68	0xbce27bb7	-0.027646882
69	0x3dc8bf94	0.09802166
70	0xbdc582d5	-0.09644095
71	0xbbdd289a	-0.006749225
72	0x3d2d86c9	0.04236487
73	0xbd9c423c	-0.07629821
74	0x3c660504	0.014039282
75	0x3c080349	0.0083015645
76	0x3cc039ef	0.023465125
77	0xbc81fa0f	-0.015866308
78	0xbcc76091	-0.024338039
79	0xbd9c8d13	-0.07644095
80	0xbe044e5e	-0.1292052
81	0x3e201571	0.15633179
82	0x3cd17b39	0.025571452
83	0x3ce0de91	0.027449878
84	0xbca749b8	-0.020420894
85	0x3d691daa	0.056913055
86	0x3d790aab	0.06080119
87	0xbd1a6424	-0.037693158
88	0xbd22cd1a	-0.03974638
89	0xbd7edc13	-0.062221598
90	0x3d2f6cf3	0.04282851
91	0x3c882b4a	0.016622204
92	0xbe2a4006	-0.16625986
93	0xbd010c6a	-0.03150598
94	0x3db1addc	0.08675739
95	0x3d110efe	0.03541469
96	0xbd227a98	-0.039667696
97	0xbd74d48a	-0.059773006
98	0xbd304ea6	-0.043043755
99	0x3d065eed	0.032805372
100	0x3d4a5612	0.04939849
101	0x3d97a516	0.074045345
102	0x3e3d8d0a	0.18510833
103	0xbdb359a7	-0.08757334
104	0x3be7c2db	0.007072789
105	0xbd3c6917	-0.04599866
106	0xbd013358	-0.031543106
107	0xbbf9c9ef	-0.0076229493
108	0x3d731bfe	0.059352867
109	0x3e1f102b	0.15533511
110	0x3d034b7e	0.032054417
111	0x3d577575	0.05260225
112	0x3ceff8eb	0.029293498
113	0x3c7d43d0	0.015458062
114	0xbe048251	-0.12940337
115	0x3e284369	0.16431965
116	0xbd767a5a	-0.060175277
117	0xbe00c480	-0.12574959
118	0x3c888aa1	0.016667666
119	0xbde44586	-0.11146073
120	0x3cbc3549	0.022974627
121	0x3c63ac4d	0.01389606
122	0xbd8d949d	-0.06913111
123	0xbdfcec13	-0.12349715
124	0x3d1ecf9a	0.038772203
125	0xbdee702a	-0.11642487
126	0xbc847691	-0.016169818
127	0xbd8d9f78	-0.06915182
128	0xbe016b88	-0.12638676
129	0x3c299a38	0.01035171
130	0xbb41f5a1	-0.002959587
131	0xbd022886	-0.031776927
132	0x3dc6c28d	0.09705076
133	0x3bf02481	0.0073285704
134	0x3dfe2f77	0.12411397
135	0x3e165a31	0.14682843
136	0x3d7f4436	0.06232091
137	0x3dd4050f	0.10352527
138	0x3e27deaf	0.16393541
139	0xbdb4f6b2	-0.08836116
140	0xbc45ed6e	-0.012080533
141	0x3db21749	0.086958475
142	0x3d09fb0f	0.033686694
143	0x3cd56e68	0.026053622
144	0x3dc7122d	0.09720264
145	0xbd945b42	-0.072439685
146	0xbacd9dca	-0.0015687284
147	0x3c9db7ab	0.019252619
148	0x3c778b1b	0.015108849
149	0xbd9119fd	-0.07085035
150	0xbdb249b3	-0.08705463
151	0x3cfb526d	0.030678952
152	0x3d930122	0.071779504
153	0xbd3425b1	-0.043981258
154	0xbcb80278	-0.022462115
155	0x3d47d733	0.048789214
156	0x3d994420	0.07483697
157	0x3db856b5	0.09000913
158	0x3cc2e92a	0.023792822
159	0x3bdbff39	0.0067137745
160	0x3e832132	0.25611264
161	0xbd845159	-0.06460828
162	0xbca89877	-0.020580513
163	0x3e038de1	0.12847091
164	0x3e0bdaba	0.13657656
165	0x3dc36fce	0.095428094
166	0xbdabfb5e	-0.08397554
167	0xbde21220	-0.11038613
168	0x3dda75f9	0.10667033
169	0xbdfd9e88	-0.12383753
170	0x3d187808	0.037223846
171	0x3d4279ac	0.047479317
172	0xbd73ef32	-0.059554286
173	0x3c4093a2	0.011753948
174	0xbd9ab238	-0.07553524
175	0xbc837885	-0.01604868
176	0xbcda520f	-0.026650457
177	0x3d086626	0.03330054
178	0x3e327d69	0.17430653
179	0xbd433ad1	-0.047663514
180	0x3d9016d0	0.07035601
181	0x3bf3ac11	0.0074362834
182	0x3d64f335	0.055896003
183	0xbc36d702	-0.01115966
184	0x3e1d6c41	0.15373327
185	0x3cfe2085	0.031021366
186	0x3c0513ca	0.008122394
187	0x3ce45d52	0.02787653
188	0x3d1e75d7	0.0386866
189	0x3c151f35	0.009101679
190	0x3d8d75c1	0.069072254
191	0x3e2f2740	0.17104816
192	0xbd553db5	-0.0520608
193	0xbdec9d45	-0.11553434
194	0xbcd4cdac	-0.025976978
195	0x3dd7c062	0.10534741
196	0x3cb35496	0.02189092
197	0x3c9b8ff3	0.018989539
198	0x3c660290	0.014038697
199	0xbd547921	-0.05187333
200	0xbd0625bc	-0.03275083
201	0xbe3ffc98	-0.187487
202	0x3daa0041	0.0830083
203	0x3da21d7c	0.0791578
204	0x3aa00afe	0.0012210307
205	0x3d2783a1	0.040897015
206	0x3e24c8da	0.16092244
207	0xbceaad64	-0.028647132
208	0xbced154f	-0.028940825
209	0x3de39687	0.11112695
210	0xbe1eb3f9	-0.15498342
211	0x3b445545	0.002995805
212	0xbd437f74	-0.04772897
213	0xbe1a936f	-0.15095304
214	0xbd8e0562	-0.069346204
215	0xbd33f854	-0.043937996
216	0xbe12e42f	-0.14344858
217	0x3d3f1a22	0.04665578
218	0x3e264f6a	0.16241232
219	0xbe095056	-0.13409552
220	0xbe2bbe15	-0.1677173
221	0x3e1a1d2c	0.1505019
222	0xbd6ff0f3	-0.058579396
223	0xbdbfd647	-0.09367042
224	0xbd5d9ab8	-0.05410263

layer1.bias f4 [25]
0	0xbd62f406	-0.0554085
1	0xbe1fe92a	-0.15616289
2	0xbe7e6d63	-0.24846415
3	0xbc7ca083	-0.015419128
4	0x3e67cbb2	0.22636297
5	0x3ea511a5	0.32240024
6	0x3dfbcdd1	0.12295116
7	0x3df6ed97	0.120570354
8	0xbde0be49	-0.10973794
9	0x3db332ec	0.08749947
10	0xbe7abd20	-0.24486208
11	0xbdff0680	-0.12452412
12	0xbdf2bb39	-0.11852116
13	0xbd96f06d	-0.07370076
14	0xbe46ad18	-0.19401968
15	0x3e451ee5	0.19250067
16	0xbe9e8200	-0.30958557
17	0x3e2522d7	0.16126572
18	0xbd5f6be6	-0.05454626
19	0xbea21782	-0.3165856
20	0x3dee55f7	0.1163749
21	0xbdcb63de	-0.099311575
22	0x3d159e84	0.036528125
23	0xbe88f10d	-0.26746407
24	0xbdbf0c5e	-0.09328531

layer2.weight f4 [50, 25, 3, 3]
0	0x3d9e7dad	0.077388145
1	0x3bfca3d7	0.007709961
2	0x3d8661b3	0.065616034
3	0x3de11dcd	0.10992012
4	0x3d7671f0	0.060167253
5	0xbd0d6256	-0.03451761
6	0xbbd3acac	-0.006459793
7	0x3daa712a	0.083223656
8	0x3d036b93	0.032085013
9	0xbd8f7c6f	-0.07006156
10	0xbbb4cdea	-0.005517711
11	0xbc872bfc	-0.016500466
12	0x3bdb72af	0.006697021
13	0xbbcb0aaf	-0.006196342
14	0x3d7cf094	0.06175287
15	0xbcfb372a	-0.030665953
16	0xbc0f21a4	-0.008736048
17	0xbc1c86c3	-0.009553614
18	0x3d229dde	0.039701335
19	0xbd12b750	-0.03581935
20	0x3c9638d6	0.018337648
21	0x3ce3916f	0.02777931
22	0xbcbb1a6e	-0.022839751
23	0xbdaaa1dc	-0.083316535
24	0x3d39b8c7	0.045342233
25	0x3d921f12	0.071348324
26	0xbc8ad618	-0.016947791
27	0x3d710619	0.058843706
28	0x3b471255	0.0030375917
29	0x3de5dcc8	0.11223751
30	0xbaa8ba71	-0.0012872947
31	0xbd3b796b	-0.04577009
32	0x3de20239	0.1103558
33	0xbbd66fc4	-0.006544085
34	0xbd870a20	-0.06593728
35	0x3c9ef4be	0.019403812
36	0x3cd1f16f	0.02562782
37	0xbd806ecd	-0.062711336
38	0xbc90c8ba	-0.017673839
39	0xbd8542ba	-0.06506868
40	0x3d5ac04c	0.053406045
41	0xbcff9f69	-0.031203942
42	0xbde45c22	-0.111503854
43	0xbe3d471c	-0.18484157
44	0xbd83a1b8	-0.0642733
45	0x3ce6faf4	0.028195836
46	0xbc7671f7	-0.01504182
47	0xbd9703fc	-0.07373807
48	0xbd056ed2	-0.03257639
49	0xbcbb409a	-0.022857953
50	0xbdb21e9a	-0.08697243
51	0x3d0adf7b	0.033904534
52	0xbd6311fe	-0.05543708
53	0x3db5d482	0.08878423
54	0xbd9857f2	-0.07438649
55	0xbd703082	-0.05864001
56	0xbd897c27	-0.06713133
57	0x3ce1639a	0.027513314
58	0x3bb8e12b	0.0056420765
59	0xbda53eee	-0.080686435
60	0xbd96cc67	-0.073632054
61	0x3e1cc2c4	0.15308672
62	0x3cbf009e	0.023315724
63	0x3d9d6b35	0.07686464
64	0xbb5e2230	-0.003389489
65	0xbd2d7b20	-0.04235375
66	0x3d57a21e	0.05264484
67	0x3bac3c04	0.005256178
68	0xbbaa5d2b	-0.005199095
69	0xbe33bfd5	-0.17553647
70	0x3c2afa8b	0.010435711
71	0x3d1b1fd8	0.037872165
72	0xbc1540c8	-0.009109683
73	0x3c76d42f	0.015065237
74	0xbd854e24	-0.06509045
75	0xbe0966d4	-0.13418132
76	0xbe0e5b90	-0.13902116
77	0x3d965d00	0.07341957
78	0xbcef0454	-0.029176868
79	0xbc4a29f5	-0.012339105
80	0xbda3d5b4	-0.07999745
81	0x3bcfee17	0.006345521
82	0x3d2cb594	0.042165354
83	0xbe03874f	-0.12844585
84	0x3d45b948	0.0482724
85	0xbdacd0c0	-0.084382534
86	0x3c9ed0c4	0.019386657
87	0x3d9aeb78	0.07564443
88	0xbd81b6af	-0.06333672
89	0xbb93ecd3	-0.0045143156
90	0xbd06fcb7	-0.03295585
91	0xbda37b5d	-0.07982514
92	0x3b96347e	0.0045838943
93	0xbc33c819	-0.010973
94	0xbd576b1e	-0.05259239
95	0xbc374253	-0.0111852465
96	0x3c293d27	0.010329521
97	0xbc9a8d15	-0.018866101
98	0x3c8e6701	0.0173831
99	0xbd80639d	-0.06269
100	0x3d1f4aef	0.03888982
101	0xbdd93498	-0.106057346
102	0xbd11aff5	-0.035568196
103	0xbc6d2e8f	-0.014476432
104	0xbd55aead	-0.052168537
105	0x3c41241d	0.011788395
106	0x3d99931e	0.074987635
107	0x3d538a31	0.05164546
108	0xbd072e7c	-0.033003315
109	0xbcb26b66	-0.021779727
110	0x3cd61d8d	0.026137138
111	0xbc5b8745	-0.01339895
112	0x3b8723d0	0.004124142
113	0x3d8b3b97	0.06798475
114	0x3c743a7e	0.014906524
115	0xbd8df784	-0.069319755
116	0x3d3e4a32	0.046457477
117	0x3d507a20	0.050897717
118	0xbcac3de7	-0.021025611
119	0x3d1738c4	0.03691937
120	0x3d36635b	0.044528347
121	0xbdd9437e	-0.10608576
122	0xbd121728	-0.035666615
123	0xbbd12c23	-0.0063834353
124	0x3cf45568	0.029825881
125	0x3c3abfe0	0.011398286
126	0xbbe9dbef	-0.007136814
127	0x3d1347a5	0.035956997
128	0x3db61591	0.08890832
129	0x3cfd3164	0.03090734
130	0x3ccaf9c3	0.024777299
131	0xbbc42b8b	-0.005986636
132	0xbce2a276	-0.027665358
133	0xbcb50a1b	-0.022099545
134	0xbdb3f914	-0.08787742
135	0x3c9d2eff	0.019187449
136	0xbc38a61e	-0.011270074
137	0x3da07c11	0.07836164
138	0xbab6d381	-0.0013948531
139	0x3cecfdf5	0.02892969
140	0x3ced9f06	0.029006492
141	0xbcf72b12	-0.030171905
142	0x3da64afa	0.081197694
143	0x3cb09918	0.021557376
144	0xbdc6beda	-0.09704371
145	0x3d022b31	0.03177947
146	0xbd8e7b54	-0.06957117
147	0x3c8b2a52	0.016987953
148	0xbd90d999	-0.070727535
149	0x3ceb0ebd	0.028693551
150	0xbd5d3725	-0.054007668
151	0xbd64fe8e	-0.055906825
152	0x3c7b88e4	0.0153524615
153	0x3ce03f28	0.027373865
154	0xbd945015	-0.07241837
155	0xbd9e3076	-0.07724087
156	0x3cf09d57	0.0293719
157	0x3c8ed154	0.0174338
158	0x3dad741a	0.0846941
159	0xbaa7c5a0	-0.0012799986
160	0xbc83a476	-0.016069632
161	0xbdb60723	-0.0888808
162	0x3d2d1821	0.04225934
163	0x3d8f15d8	0.06986588
164	0x3ad196d9	0.0015990391
165	0x3de627b4	0.112380415
166	0x3d11e9b7	0.03562328
167	0x3c359422	0.011082681
168	0xbc536a0d	-0.012903702
169	0x3beeb684	0.007284941
170	0xbcf5de9c	-0.030013375
171	0x3b0d7bcb	0.002158868
172	0xbd7a3863	-0.06108893
173	0x3cda9ee3	0.026687091
174	0xbd5e5b0f	-0.05428606
175	0x3d62d646	0.05538013
176	0xbdb51f88	-0.08843905
177	0xbd342b02	-0.043986328
178	0x3cae2cbd	0.021261567
179	0xbd373112	-0.04472453
180	0xbbea2243	-0.0071451976
181	0x3c946e19	0.018118905
182	0xbca2568b	-0.019816658
183	0x3b9064ab	0.004406532
184	0x3db4e4b2	0.08832683
185	0x3da015f5	0.07816688
186	0x3d0c79d7	0.034295883
187	0x3d9e5081	0.07730199
188	0xbd4ea551	-0.050450627
189	0xbd71385f	-0.05889165
190	0x3d5542a7	0.052065518
191	0x3c8a423d	0.016877288
192	0x3dca28a9	0.098710366
193	0xbe415dbe	-0.18883416
194	0x3d8a2cfc	0.06746861
195	0x3db82461	0.08991314
196	0xbd829613	-0.06376281
197	0x3d28b0fa	0.041184403
198	0x3e0c37c1	0.13693143
199	0x3cb72e2c	0.022360884
200	0x3d8a298a	0.06746204
201	0x3c16da21	0.009207279
202	0x3d45418e	0.04815822
203	0x3b8460c2	0.0040398547
204	0xbd610673	-0.05493779
205	0x3dc2a43f	0.09503984
206	0xbc13db9a	-0.009024525
207	0xbdbcf80e	-0.09227
208	0x3e31b018	0.1735233
209	0x3cc10fd7	0.023567123
210	0x3d6f335d	0.058398593
211	0xbcfd613b	-0.030930152
212	0x3cf07f29	0.02935751
213	0x3de8c3bc	0.11365458
214	0xbcf034d0	-0.029322058
215	0xbdc75cc1	-0.09734488
216	0xbd065aa4	-0.032801285
217	0xbd8b50be	-0.0680251
218	0xbc9f8945	-0.019474635
219	0xbce47d36	-0.027891736
220	0xbc2b2c29	-0.01044754
221	0xbc2c9572	-0.010533677
222	0xbb96e116	-0.004604469
223	0xbd7cf576	-0.061757527
224	0x3d3ea821	0.04654706
225	0xbb75aa32	-0.0037485478
226	0xbd8a57a5	-0.06754998
227	0x3c9fe68a	0.01951911
228	0x3c24d307	0.010060078
229	0x3cf20ecc	0.029548071
230	0x3c4d27ef	0.012521728
231	0xbcb1e0fa	-0.021713722
232	0x3d0974d3	0.033558678
233	0xbd55bbfe	-0.052181236
234	0x3d8aa805	0.067703284
235	0x3b6d9a1f	0.0036255193
236	0xbd1ad65b	-0.03780208
237	0xbbf73d78	-0.0075451694
238	0x3baf9a91	0.005359002
239	0x3cdde85f	0.027088342
240	0xbccc399a	-0.02492981
241	0x3c1bd5f8	0.009511463
242	0x3d0baf73	0.03410287
243	0x3bb7b1b7	0.005605902
244	0x3d76265b	0.060095172
245	0xbd7bc6f7	-0.061469045
246	0x3d0b27e5	0.033973593
247	0x3dd219ba	0.10258813
248	0xbcb2a276	-0.021805983
249	0x3d03f012	0.03221137
250	0x3c43d083	0.011951569
251	0xbcaf7238	-0.021416768
252	0xbd702cc5	-0.058636446
253	0x3bc62c57	0.006047766
254	0x3db50fbd	0.088408925
255	0xbc6c73f1	-0.014431939

layer2.bias f4 [50]
0	0x3cc2128a	0.02369048
1	0xbb29c601	-0.0025905373
2	0xbcc20767	-0.02368517
3	0x3d6a033c	0.05713199
4	0x3d509f44	0.050933138
5	0x3cab6885	0.020923862
6	0xbbcd3b01	-0.0062631373
7	0xbd1e4130	-0.038636386
8	0x3c528af8	0.012850516
9	0xbcac20fc	-0.021011822
10	0x3c9875e1	0.018610897
11	0x3d861378	0.06546682
12	0x3d2eec60	0.042705894
13	0x3d21bbbd	0.03948568
14	0x3d5d31e6	0.054002665
15	0x3d12a20e	0.03579908
16	0xbd15ee85	-0.036604423
17	0x3c481dd3	0.012214142
18	0x3d507fb2	0.05090303
19	0x3d6da021	0.05801404
20	0xbc9c1b96	-0.019056123
21	0x3d0c8270	0.034304082
22	0x3d0b6cd9	0.034039352
23	0x3bd3d05b	0.006464047
24	0xbd29ece3	-0.04148568
25	0xbb508def	-0.003182288
26	0xbd20d57d	-0.0392661
27	0xbd0ba13c	-0.034089312
28	0xbc6ba1e5	-0.01438186
29	0x3d64d308	0.055865318
30	0x3d12ad47	0.03580978
31	0xbccaed90	-0.024771482
32	0x3d85290a	0.06501968
33	0xbd212fec	-0.039352342
34	0x3d6df896	0.0580984
35	0xbbf5de22	-0.007503287
36	0x3b8efda7	0.004363734
37	0xbcea5b3d	-0.028607959
38	0xbc8afcb9	-0.01696621
39	0x3d0ccdb2	0.034375854
40	0xbd28af68	-0.041182905
41	0xbd8f115e	-0.069857344
42	0xbd005a7d	-0.031336296
43	0xbcd630d6	-0.026146334
44	0xbc9e52f0	-0.019326657
45	0xbd2917d4	-0.04128249
46	0xbcd1862f	-0.025576679
47	0xbd2d3041	-0.042282347
48	0x3cf87f3d	0.03033411
49	0x3d81fef9	0.0634746

layer4.weight f4 [25, 50, 3, 3]
0	0x3be58ed9	0.007005554
1	0x3d6a784f	0.05724364
2	0xbce5d447	-0.028055323
3	0x3d9b3b76	0.07579701
4	0x3cead47f	0.02866578
5	0x3d9c0ff6	0.07620232
6	0xbcabb3d6	-0.020959776
7	0xbb50b4db	-0.003184608
8	0xbe0eae1e	-0.13933608
9	0x3d9051f6	0.07046883
10	0x3cb35a77	0.021893723
11	0x3d8bce7d	0.06826494
12	0xbd010d32	-0.031506725
13	0xbd6554ac	-0.055988953
14	0xbcbf2b6f	-0.02333614
15	0xbcf4d15f	-0.029884992
16	0xbe0b3a6e	-0.13596508
17	0x3db31709	0.08744628
18	0xbdb5fbc4	-0.08885911
19	0x3d69303c	0.056930766
20	0xbd4a7554	-0.0494283
21	0x3dd924d0	0.106027246
22	0x3cfcb5a7	0.030848337
23	0xbcf4435e	-0.02981728
24	0x3d1ae162	0.037812598
25	0xbd73463d	-0.059393156
26	0xbd832b1b	-0.06404706
27	0xbd4c1082	-0.04982043
28	0xbd3aa6eb	-0.04556934
29	0xbd86214a	-0.06549318
30	0xba2da9eb	-0.0006624746
31	0x3d8cbd71	0.068720706
32	0xbc2b89ec	-0.010469895
33	0x3db3ffc2	0.08789016
34	0xbdba6630	-0.09101522
35	0xbda5b610	-0.08091366
36	0xbd0fcbea	-0.035106577
37	0x3ce1426e	0.027497496
38	0xbc8ba8db	-0.01704829
39	0x3b9de600	0.004818678
40	0x3d1aa1d5	0.03775199
41	0xbcadc32d	-0.021211231
42	0x3e1053e2	0.14094499
43	0x3d37aa56	0.04484018
44	0xbd083f45	-0.033263464
45	0x3c038a3a	0.008028561
46	0xbcae182d	-0.021251762
47	0xbcb5f503	-0.022211557
48	0xbc451589	-0.01202906
49	0x3dc41a69	0.0957535
50	0xbde0e77b	-0.109816514
51	0xbcabec10	-0.020986587
52	0x3d5180a4	0.051148072
53	0xbc5adeeb	-0.013358812
54	0x3c82fc37	0.015989406
55	0xbaf7a5b6	-0.001889399
56	0xbcd7a978	-0.026325926
57	0xbdb384bf	-0.08765554
58	0x3db5e641	0.08881808
59	0xbd7f96bd	-0.062399615
60	0xbdea58b7	-0.11442702
61	0x3d1166a9	0.035498295
62	0xbc0b75b4	-0.008511949
63	0xbc8210bf	-0.015877126
64	0x3c0a358c	0.008435618
65	0xbd8da93a	-0.06917043
66	0xbd4233bf	-0.04741263
67	0xbbb4b0cd	-0.0055142404
68	0x3d8401d8	0.06445664
69	0xbcff0d39	-0.031134235
70	0x3cd48d5c	0.025946312
71	0x3d7263ba	0.059177138
72	0x3c1fde5e	0.009757606
73	0xbdf209b7	-0.11818259
74	0xbd3173b4	-0.043323234
75	0x3d3278b5	0.043572146
76	0x3cb723d9	0.02235596
77	0x3dd715b8	0.105021894
78	0xbd6131ad	-0.054979015
79	0xbd04774c	-0.032340333
80	0xbd798676	-0.060919248
81	0x3d82f6aa	0.06394704
82	0xbdb0f97d	-0.08641336
83	0xbc6072db	-0.013699259
84	0xbdbfcb19	-0.0936491
85	0xbc2102ec	-0.009827357
86	0xbd04d617	-0.032430734
87	0x3cae3eec	0.021270238
88	0xbdaf2eaf	-0.08553826
89	0x3df4ff2e	0.11962734
90	0xbdde083f	-0.108414166
91	0xbdad7bbc	-0.08470866
92	0xbc1c14cc	-0.009526443
93	0x3dc17c03	0.094474815
94	0xbbc21598	-0.0059229843
95	0x3dbaf412	0.09128584
96	0xbdcd3f7a	-0.10021873
97	0x3d93c3f2	0.07215108
98	0x3cbb9d7b	0.022902241
99	0x3d538f14	0.05165012
100	0xbcde0619	-0.027102517
101	0x3d04cd8a	0.03242258
102	0x3cd4e977	0.025990231
103	0x3d9503da	0.07276125
104	0xbd8b201d	-0.067932345
105	0x3cbaf6bf	0.022822736
106	0xbceb1b30	-0.028699487
107	0x3db44592	0.08802332
108	0xbb95448f	-0.004555292
109	0xbd6b2c9c	-0.05741559
110	0x3beca493	0.007221767
111	0xbccd17e8	-0.025035813
112	0x3c8e61b0	0.017380565
113	0xbc6394b5	-0.013890435
114	0x3d2d71c2	0.042344816
115	0xbcdce77d	-0.026965851
116	0xbd11126a	-0.03541795
117	0xbd9c58ea	-0.076341465
118	0xbd366ec2	-0.04453922
119	0x3b14da3b	0.0022713083
120	0x3c9472af	0.018121092
121	0x3d83726d	0.06418309
122	0xbe0a59cd	-0.13510819
123	0xbdade2f3	-0.08490553
124	0x3d1b2f79	0.03788707
125	0x3d74f839	0.059807036
126	0x3d3196f2	0.043356843
127	0xbad264c2	-0.0016051757
128	0xbc429aec	-0.011877757
129	0xbd5b346b	-0.053516787
130	0x3d8f0e3b	0.06985136
131	0x3db93c20	0.09044671
132	0xbd5b1268	-0.05348435
133	0x3cc69dc5	0.024245152
134	0xbc5b5caa	-0.013388792
135	0xbd1a1ad7	-0.037623253
136	0xbccbbd78	-0.02487062
137	0xbdadfc5e	-0.08495401
138	0xbcc7caba	-0.02438866
139	0xbb0137ab	-0.0019717019
140	0x3cf9dd8f	0.030501155
141	0x3d51a087	0.05117848
142	0x3c8c62d4	0.017136969
143	0x3d2584f5	0.04041
144	0x3d1993cd	0.03749447
145	0xbd94b030	-0.072601676
146	0x3d660504	0.056157127
147	0x3d62e0d3	0.05539019
148	0xbdab8246	-0.08374457
149	0xbb196679	-0.0023407026
150	0x3d807a91	0.06273378
151	0x3d183f5d	0.037169803
152	0xbba18324	-0.0049289633
153	0x3ce8ebbf	0.028432725
154	0x3d65e423	0.05612577
155	0x3c93a5eb	0.018023452
156	0x3d8c531e	0.06851791
157	0x3d40e4e7	0.0470933
158	0xbcfa5e5e	-0.030562576
159	0xbd29a1c1	-0.041414026
160	0x3d7eb873	0.062187623
161	0x3d8cc2a1	0.0687306
162	0xbd315ca0	-0.043301225
163	0x3df0b81c	0.11753866
164	0x3ca0836f	0.019593922
165	0x3cade3ed	0.021226848
166	0xbcc51c00	-0.024061203
167	0xbe01c657	-0.12673317
168	0xbc39f9bc	-0.011351045
169	0x3d99980b	0.07499703
170	0x3ce13eda	0.02749579
171	0xbbdd7266	-0.006758022
172	0x3c2fd596	0.010732075
173	0x3d78e53c	0.06076549
174	0x3d8e7960	0.06956744
175	0x3dcfc3f4	0.10144797
176	0x3d8bbb01	0.068227775
177	0xbd7d56c9	-0.061850343
178	0xbce64ee4	-0.02811379
179	0xbc45fcc7	-0.012084193
180	0x3d058d2b	0.03260533
181	0x3d8b4a3e	0.0680127
182	0xbd93a6b2	-0.07209529
183	0x3c75bba2	0.014998348
184	0x3db8ced9	0.09023828
185	0xbdca4a0e	-0.09877406
186	0xbd21a6b2	-0.039465614
187	0xbd241d00	-0.04006672
188	0xbcba9177	-0.022774441
189	0xbc877dcf	-0.016539482
190	0x3b4802fe	0.0030519362
191	0xbd16e56a	-0.03683988
192	0xbd8b845a	-0.068123534
193	0xbd9d49b0	-0.076800704
194	0xbc9e533a	-0.019326795
195	0x3c4a9a31	0.012365864
196	0x3d309565	0.043111224
197	0x3b3b2afe	0.002855956
198	0x3d40cf04	0.047072425
199	0xbd468071	-0.048462335
200	0x3e05e4d1	0.13075568
201	0x3d6738fa	0.05645082
202	0x3d3aeb44	0.045634523
203	0x3bd3e03b	0.0064659393
204	0x3d5de3e5	0.054172415
205	0x3d44a8f1	0.048012678
206	0xbd7ecb2e	-0.062205486
207	0x3d1f3a93	0.03887422
208	0x3cf8b199	0.030358123
209	0x3d5779c3	0.052606355
210	0x3c3f774a	0.011686156
211	0x3d2e0a2d	0.042490173
212	0xbc739d20	-0.0148690045
213	0xb981b075	-0.00024736268
214	0x3d491b50	0.049098313
215	0x3d505c5e	0.05086934
216	0x3c2027fd	0.009775159
217	0x3d61a985	0.055093307
218	0x3c82e2a6	0.015977215
219	0xbd24896a	-0.04017011
220	0x3c7f6989	0.015589126
221	0x3b924708	0.004464034
222	0x3ca7a7fe	0.020465847
223	0xbce9cc4f	-0.028539805
224	0xbd94aa76	-0.07259075
225	0x3d2fec5b	0.042950016
226	0x3d599e8a	0.05312971
227	0xbd062180	-0.03274679
228	0x3cfac09c	0.030609421
229	0x3de83c3e	0.11339615
230	0xbbc6eb0e	-0.006070501
231	0xbd0d889e	-0.034554116
232	0x3c337c1d	0.010954884
233	0x3c67a1e1	0.014137716
234	0x3cc89bc9	0.024488347
235	0xb98e1ec9	-0.00027107287
236	0x3cc096a5	0.023509333
237	0x3d198dc2	0.037488706
238	0xb9565d83	-0.00020443466
239	0x3cb7b09e	0.022423085
240	0x3d493393	0.04912145
241	0x3c7d37ad	0.015455169
242	0xbbb171f0	-0.0054151937
243	0xbd83ef0b	-0.06442078
244	0xbd5fd358	-0.054644912
245	0x3d6f6f50	0.058455765
246	0xbd000940	-0.03125882
247	0xbc758e68	-0.014987566
248	0x3d55068b	0.052008193
249	0x3d99686a	0.074906185
250	0xbdc7f15f	-0.09762835
251	0xbc54d18c	-0.012989413
252	0x3d66bfd1	0.056335274
253	0x3c9124fd	0.017717833
254	0x3d2e5b61	0.042567614
255	0x3d031b90	0.032008708

layer4.bias f4 [25]
0	0xbd0efbd1	-0.03490812
1	0x3c6b6f8f	0.014369859
2	0xbcf9afd9	-0.030479359
3	0xbd2c3267	-0.042040255
4	0x3d0caf00	0.03434658
5	0xbcc22d6e	-0.023703303
6	0xbd1009e2	-0.035165675
7	0x3c4c5444	0.012471262
8	0xbd22eac7	-0.039774682
9	0xbc9fbbe2	-0.01949877
10	0x3afc02de	0.0019226929
11	0xbd22c474	-0.039738134
12	0xbcf57bbf	-0.029966233
13	0x3c14fd6a	0.009093622
14	0xbba88ec3	-0.0051439716
15	0xb9c02a26	-0.00036652497
16	0xbd00cca9	-0.03144518
17	0xbd251bce	-0.04030972
18	0x3c83c761	0.016086282
19	0xbc9b4083	-0.01895166
20	0xbd473480	-0.048634052
21	0xbcecf0cb	-0.028923413
22	0x3c54f948	0.012998886
23	0x3ca743e4	0.020418115
24	0x3b4fdf4d	0.003171879
